generativecf/models/adult-fine-tune-size-25-upper-lim-10-age-good-cf-set/adult-eval-case-0-supervision-limit-100-const-case-0-margin-0.037-oracle_reg-8557.0-validity_reg-88.0-epoch-25-oracle-gen.pth (torch_old, 37228 bytes, 78 tensors)

encoder_mean.0.weight f4 [20, 30]
-0.37561637 -0.18434852 -0.04751986 0.07012381 -0.07470639 -0.114192225 3.3169806e-06 -0.082439944
4.103452e-07 0.09207234 -0.017677013 4.560835e-06 0.019320175 0.02675145 -0.0027876145 -0.044724412
0.016440235 -0.021211943 -0.01117546 -0.04764455 0.046556585 0.04013921 5.875799e-06 0.026230007
-0.069890656 -0.0028790238 0.049485814 -0.21411845 0.073630914 0.048230924 -0.16703263 0.0033806646
0.030913504 -0.048330367 -0.14597829 -0.06393223 -5.2683674e-07 -0.071516804 -2.8885563e-06 0.17667519
-0.025126217 4.944793e-07 6.753964e-05 -0.12149888 -0.010587639 -0.31083533 0.07384885 0.05911743
0.023203982 -0.2381349 0.019646298 -0.059307862 -9.612021e-07 -0.057404652 -0.07002669 -0.11991885
0.009140624 -0.0017884363 -0.13526551 0.14657687 -0.12709501 -0.036314033 0.023546781 -0.008070112
-0.09441569 -0.12677872 -3.2757528e-06 0.06148289 6.62826e-07 -0.047767524 -0.0009650237 1.6845706e-06
0.013166444 0.04460642 0.03576706 -0.06817096 -0.01720231 -0.026533378 -0.022212967 -0.022610927
-0.010182104 -0.0008854161 -1.3271904e-06 -0.014856109 -0.04376456 0.020307105 -0.15212634 -0.10475047
-0.08412842 -0.11199589 -0.90763783 -0.054593105 -0.066115744 -0.061719574 0.0045422567 0.017270781
-5.282964e-07 0.098416306 9.793899e-07 0.062414773 0.16682841 -4.755904e-06 0.038318116 0.03799183
0.14514749 0.07623302 0.05557941 0.17179535 0.105052225 0.038277403 -0.09358046 0.13666052
4.3146386e-07 0.029477071 0.005843971 0.077231385 0.064430356 -0.00993773 0.004074722 0.18079838
0.3778079 0.05349921 -5.764533e-06 -0.020028556 -0.040829986 -1.6376578e-06 6.8737074e-07 -2.3420446e-06
-4.303391e-06 -0.052688707 -2.0448667e-06 4.4833996e-06 2.9163348e-07 -0.060015365 0.08037794 0.044879533
-7.87916e-06 5.373974e-07 0.010179556 -0.0032987562 -0.042322546 3.46256e-06 3.1166437e-07 0.0019399837
-0.03744683 6.8388367e-06 -0.03752358 0.057116788 -0.069044076 -0.13667524 0.33664656 0.07774764
2.5697423e-06 0.015824884 0.039175916 -0.041111793 -1.4740098e-06 6.4331505e-07 -7.4387163e-09 -0.11527578
-0.008645933 -1.4934091e-06 -0.025203161 -0.08672459 -0.027777845 0.056587823 -5.4112097e-06 0.0051234653
0.0033858698 -0.093016565 0.016382782 -0.033334598 5.541434e-06 0.033910833 0.019126777 -0.1177461
-0.11388134 -0.011039822 -0.008025309 -0.19730172 -0.2869307 -1.0116215 0.07446084 0.04129694
0.0076207104 0.1550195 -1.1298151e-06 -0.09195358 2.261171e-06 0.008495048 -4.895522e-07 -6.4670905e-07
-0.017643265 -0.030763365 -0.006177317 -0.019525476 0.03863078 -2.769719e-06 0.11730689 -0.009353947
-0.013167522 5.121406e-07 8.8973866e-07 -0.08497477 -0.05218885 -0.0123498235 -0.08787971 0.0007697178
-0.05478053 0.067152955 0.048797738 0.18039742 0.060615 0.008946106 -0.17906614 0.0035183774
4.116322e-06 0.030535504 2.4484393e-06 -0.015703557 0.03445532 -1.1919818e-06 -0.0030667884 -0.059845246
-0.05845774 0.048195872 0.066442 -0.006008834 4.475299e-07 -0.07559822 -0.10654218 0.05126005
-1.4292497e-05 0.0016482275 0.0121069765 -0.084397815 -0.13936554 -0.065803975 -0.062573366 -0.2893138
0.20623821 -0.2156214 0.004510502 0.024342896 0.037338715 -4.5007623e-06 3.942954e-07 -0.0579752
-2.4681324e-06 0.1111129 -0.04525493 -7.8304686e-07 0.0999893 0.034130324 0.097726084 -0.09346781
00000000: ca50 c0be dcc5 3cbe 2fa4 42bd 129d 8f3d
00000010: aaff 98bd 9ddd e9bd 4b99 5e36 46d6 a8bd
00000020: 6a4d dc34 6c90 bc3d 62cf 90bc 4609 9936
00000030: 5845 9e3c db25 db3c 69b0 36bb f230 37bd
00000040: acad 863c abc4 adbc 4719 37bc ef26 43bd
00000050: 1eb2 3e3d 0369 243d bb28 c536 50e0 d63c
00000060: d522 8fbd 01ae 3cbb a3b1 4a3d de41 5bbe
00000070: cecb 963d ca8d 453d 9a0a 2bbe 248e 5d3b
00000080: 513e fd3c 10f6 45bd 557b 15be e7ee 82bd
00000090: f26b 0db5 6777 92bd 05d9 41b6 57ea 343e
000000a0: 7fd5 cdbc 5cbc 0435 11a4 8d38 68d4 f8bd
000000b0: c777 2dbc cf25 9fbe 113e 973d 1e25 723d
000000c0: 4716 be3c a3d9 73be 46f1 a03c cdec 72bd
000000d0: a702 81b5 2421 6bbd 276a 8fbd 0498 f5bd
000000e0: 8ec2 153c f769 eaba 0b83 0abe 3f18 163e
000000f0: 3225 02be 06be 14bd 2ee5 c03c 8138 04bc
00000100: 035d c1bd 48d2 01be 01d5 5bb6 7cd5 7b3d
00000110: 0eed 3135 e1a7 43bd a5f9 7cba 6819 e235
00000120: 12b8 573c 39b5 363d 7b80 123d 379d 8bbd
00000130: dceb 8cbc 875c d9bc f8f7 b5bc 8d3a b9bc
00000140: d7d2 26bc 451b 68ba ea21 b2b5 0a67 73bc
00000150: 7842 33bd 165b a63c 02c7 1bbe 6a87 d6bd
00000160: 854b acbd 1a5e e5bd f45a 68bf 059d 5fbd
00000170: b167 87bd aacd 7cbd 36d7 943b 747b 8d3c
00000180: 41d0 0db5 7d8e c93d 9573 8335 a2a6 7f3d
00000190: 11d5 2a3e e794 9fb6 75f3 1c3d 529d 1b3d
000001a0: 8ba1 143e 0f20 9c3d 3ca7 633d 1feb 2f3e
000001b0: 9f25 d73d c4c8 1c3d 1da7 bfbd bcf0 0b3e
000001c0: f1a3 e734 e679 f13c c87e bf3b 7d2b 9e3d
000001d0: 10f4 833d dcd1 22bc 3f85 853b 3623 393e
000001e0: 0970 c13e fd21 5b3d f66c c1b6 ed12 a4bc
000001f0: 583d 27bd 7ecd dbb5 c283 3835 052c 1db6
00000200: d965 90b6 1dd0 57bd 8b3a 09b6 1c70 9636
00000210: cd91 9c34 acd2 75bd 309d a43d 9ad3 373d
00000220: bc30 04b7 ab41 1035 27c8 263c f22f 58bb
00000230: 685a 2dbd 545e 6836 d352 a734 0d47 fe3a
00000240: d961 19bd 2979 e536 53b2 19bd 4bf3 693d
00000250: fb66 8dbd 98f4 0bbe f05c ac3e 283a 9f3d
00000260: d673 2c36 30a3 813c ed76 203d d764 28bd
00000270: 97d6 c5b5 46b0 2c35 a497 ffb1 b515 ecbd
00000280: aca7 0dbc 2571 c8b5 dc76 cebc a99c b1bd
00000290: 5d8e e3bc a2c8 673d f091 b5b6 bee2 a73b
000002a0: 78e5 5d3b 787f bebd 2f35 863c dc89 08bd
000002b0: 8ef0 b936 16e6 0a3d c2af 9c3c de24 f1bd
000002c0: 9f3a e9bd 5fe0 34bc 967c 03bc 7609 4abe
000002d0: 95e8 92be d07c 81bf ed7e 983d fb26 293d
000002e0: 27b7 f93b 6fbd 1e3e 27a4 97b5 2952 bcbd
000002f0: 9fbe 1736 d02e 0b3c c569 03b5 8299 2db5
00000300: 9c88 90bc 7403 fcbc 176b cabb e4f3 9fbc
00000310: 4f3b 1e3d 69df 39b6 983e f03d 4c41 19bc
00000320: 97bc 57bc 097a 0935 60d6 6e35 4107 aebd
00000330: fac3 55bd ea56 4abc 47fa b3bd e3c6 493a
00000340: 8d61 60bd 7d87 893d 23e0 473d 1aba 383e
00000350: 6f47 783d b092 123c 1d5d 37be 9494 663b
00000360: f01e 8a36 9825 fa3c de4f 2436 bfa4 80bc
00000370: 0621 0d3d 2ffc 9fb5 2cfc 48bb 4a20 75bd
00000380: 6271 6fbd 0969 453d be12 883d c1e5 c4bb
00000390: 0b44 f034 3dd3 9abd c932 dabd 0ff6 513d
000003a0: cfc9 6fb7 5609 d83a 575c 463c c3d8 acbd
000003b0: d7b5 0ebe 3cc4 86bd 7726 80bd f020 94be
000003c0: 1c30 533e dbcb 5cbe d5cc 933b c16a c73c
000003d0: 7bf0 183d 4105 97b6 8caf d334 6777 6dbd
000003e0: 31a2 25b6 298f e33d 3c5d 39bd 9232 52b5
000003f0: 31c7 cc3d 3dcc 0b3d 9d24 c83d 0d6c bfbd

encoder_mean.0.bias f4 [20]
-0.0324674 -0.077427015 -0.103313275 0.029388923 -0.056645706 -0.05464641 -0.08102637 -0.08860149
-0.04879776 0.008560331 -0.07916169 0.006225488 0.069987655 0.0078025428 -0.07248543 0.0016809199
0.04761796 0.056882095 0.008467503 0.012678233
00000000: 89fc 04bd 0e92 9ebd e995 d3bd 0ac1 f03c
00000010: 5405 68bd ead4 5fbd 27f1 a5bd b374 b5bd
00000020: 29e0 47bd a140 0c3c 861f a2bd 2eff cb3b
00000030: b055 8f3d 79ac ff3b 3e73 94bd 5052 dc3a
00000040: 0d0b 433d 33fd 683d 48bb 0a3c 5db8 4f3c

encoder_mean.1.weight f4 [20]
0.2583113 0.59504944 0.24328685 0.8867804 0.4053233 0.3998504 0.80076903 0.4949045
0.38470978 0.7854027 0.342595 0.7774261 0.4803788 0.5585679 0.26078284 0.69803256
0.7332499 0.8708539 0.6471168 0.284037
00000000: 6141 843e 2955 183f 3020 793e 0a04 633f
00000010: 8986 cf3e 31b9 cc3e 33ff 4c3f 1f64 fd3e
00000020: aef8 c43e 2710 493f 9d68 af3e 6605 473f
00000030: 36f4 f53e 4efe 0e3f 5485 853e 43b2 323f
00000040: 44b6 3b3f 48f0 5e3f 72a9 253f 4c6d 913e

encoder_mean.1.bias f4 [20]
-0.06548711 -0.10664722 -0.17294087 -0.02537198 -0.13795884 -0.057982706 -0.07149872 -0.15357128
-0.10683988 0.35375464 0.07988435 0.38755912 -0.06583185 0.2132012 -0.16998123 -0.1579427
0.18001257 -0.08040206 0.065358214 -0.14743602
00000000: 1b1e 86bd dc69 dabd 6917 31be e6d8 cfbc
00000010: 1545 0dbe 467f 6dbd ec6d 92bd ca41 1dbe
00000020: dece dabd 541f b53e 689a a33d 266e c63e
00000030: d9d2 86bd 6a51 5a3e 8f0f 2ebe bbbb 21be
00000040: 3755 383e d6a9 a4bd 87da 853d 78f9 16be

encoder_mean.1.running_mean f4 [20]
-0.06529927 0.10542952 -0.03820695 -0.22790305 0.31852207 0.10525355 -0.19414537 -0.11022639
-0.04237709 0.8017875 0.49035934 -0.011838308 0.13029727 0.28251192 0.41623685 -0.080544986
-0.11479775 -0.1496569 0.07549501 0.5212191
00000000: a0bb 85bd 6feb d73d e47e 1cbd 6b5f 69be
00000010: 5315 a33e 2c8f d73d 0bce 46be 60be e1bd
00000020: 9993 2dbd f241 4d3f 6110 fb3e 76f5 41bc
00000030: a66c 053e 67a5 903e ff1c d53e c5f4 a4bd
00000040: 151b ebbd a93f 19be 219d 9a3d 9d6e 053f

encoder_mean.1.running_var f4 [20]
0.019149719 0.050528523 0.033045296 0.014315728 0.011658218 0.018991034 0.014868163 0.026730679
0.03221343 0.01808368 0.011203289 0.017787326 0.022087285 0.014519148 0.02992605 0.0124332
0.020330401 0.019825751 0.019601662 0.035190176
00000000: dfdf 9c3c fff6 4e3d 815a 073d 848c 6a3c
00000010: 1c02 3f3c 1693 9b3c 9899 733c 4cfa da3c
00000020: 3bf2 033d 3a24 943c 008e 373c bab6 913c
00000030: 65f0 b43c b8e1 6d3c 7a27 f53c 9fb4 4b3c
00000040: f18b a63c 9d69 a23c aa93 a03c 9323 103d

encoder_mean.4.weight f4 [16, 20]
-0.07902876 -0.03159068 -0.005469312 0.24497381 -5.462945e-06 -0.021322513 0.072689705 -0.08884581
0.023299353 -0.27875373 -0.16007586 -0.28853527 0.20230193 -0.09381598 0.030529106 -0.037145466
0.18000898 -0.13591738 -0.046038505 -0.0615785 -0.028002331 0.10268882 0.014560708 -0.16903602
0.054554656 0.057576943 -0.28266376 -0.18123809 -0.08518221 0.23740998 -0.0043336353 0.13367242
-0.15139198 0.17020234 0.06048054 -0.12929131 -0.13696368 0.07591299 0.16701047 0.010887222
-0.09409435 -0.038540915 0.04743745 0.011014376 0.13344605 -0.03362044 0.3561377 -0.098987
-0.00055664754 0.11088187 -0.011925062 0.20327134 -0.009474808 0.15066035 0.076540105 0.30215386
-0.20885721 0.09002863 0.20459414 -0.12587917 0.062485315 0.027024291 0.1112957 -0.08919962
-0.052634772 -0.007237776 -0.018492196 0.081935324 -0.069284104 0.093880124 0.12463828 0.11810786
-0.16063443 0.109211795 0.077780664 -0.024645817 -0.2055844 0.4490638 0.14555003 -0.24525264
-0.16587615 -0.053004272 -0.0039460533 -0.073093206 0.046131805 0.1326775 -0.012501168 0.100159064
1.3909474e-05 -0.07669865 0.048830014 -0.103214465 -0.04802307 -0.08836743 -0.15297745 -0.032737564
0.06633085 -0.099354714 0.115537226 -0.0008609911 -0.0892828 -0.11019868 -0.17108227 -0.1449512
0.047555808 -0.031602457 -3.2679705e-05 0.15179142 0.025757946 -0.0026893704 0.092392445 -0.04103084
-0.04902494 -0.123680905 -0.09317031 -0.00026201172 0.041500952 -0.018889353 0.13802806 8.743523e-06
-0.18156557 0.112531915 -0.0841619 0.06876005 -0.012363876 -0.04034443 0.01652445 0.08683212
0.075026125 -0.031411827 -0.14251946 -0.12580355 -0.13917352 -0.053781617 -0.120113574 0.1373895
-0.13420539 0.020247934 0.051522903 -0.20059907 0.0076960092 -0.103953265 0.0226086 0.17751335
-0.0816602 0.082460776 -0.0647082 0.16003531 0.012964889 -0.20793428 0.009133848 -0.01704481
0.22022831 -0.19839421 -0.038063344 -0.089555144 0.2440778 -0.13973929 -0.110957965 0.089866824
0.100737706 0.21853566 -0.045355033 -0.10006523 -0.013842128 0.069803074 0.4024492 0.10354459
0.06243522 0.20665073 0.027701695 0.31537238 -0.07503582 0.19542605 0.21891361 0.30791312
-0.22998464 0.18315384 0.15010378 0.039560385 0.031347945 0.26330605 0.15228494 -0.117258005
0.0522389 -0.10149152 0.06826703 0.061185434 0.04163036 0.31475973 -0.016294178 0.061256766
-0.017049985 0.26196775 -0.018291231 0.12642851 0.03369159 0.007692936 0.24552089 -0.004126247
-0.007436228 0.011836033 -0.00048519348 0.17114797 -1.8721423e-06 -0.006130889 0.08425236 -0.051433027
-0.06228215 -0.31504205 -0.06786598 -0.30932125 0.16843274 -0.19741625 0.022665069 -0.013865046
0.39435187 -0.18178955 -0.2328464 -0.027430866 0.092407614 0.018629394 -0.077708945 0.17952837
0.07783056 0.020242546 -0.09374902 0.05821275 0.06868924 -0.18238863 0.11056508 -0.1164523
0.06603778 -0.08835623 0.053142313 -0.14943846 0.2506319 -0.12840496 -0.06452054 0.06400518
0.07712646 0.14996655 0.040556032 -0.07311407 -0.079330996 0.00821795 0.015028974 -0.03039228
-0.14668949 0.20707168 -0.00833591 0.040849194 -0.06802008 0.061512053 -0.0026836551 0.17569555
00000000: d5d9 a1bd 3b65 01bd ea37 b3bb 6ada 7a3e
00000010: 574e b7b6 8dac aebc 57de 943d cbf4 b5bd
00000020: 49de be3c cfb8 8ebe edea 23be e5ba 93be
00000030: 3d28 4f3e 9822 c0bd 2d18 fa3c d825 18bd
00000040: 4654 383e ed2d 0bbe df92 3cbd bd39 7cbd
00000050: 2565 e5bc 844e d23d 0990 6e3c c717 2dbe
00000060: b474 5f3d cdd5 6b3d 4eb9 90be 7a96 39be
00000070: 0374 aebd 9a1b 733e 2b01 8ebb 6ce1 083e
00000080: 8006 1bbe 8649 2e3e 71ba 773d f164 04be
00000090: 3540 0cbe 4578 9b3d cb04 2b3e 5260 323c
000000a0: 8ab4 c0bd 14dd 1dbd c64d 423d a475 343c
000000b0: 15a6 083e 96b5 09bd ae57 b63e b2b9 cabd
000000c0: fceb 11ba 0916 e33d 5661 43bc 5d26 503e
000000d0: 3a3c 1bbc b546 1a3e 0fc1 9c3d e9b3 9a3e
000000e0: aade 55be ee60 b83d 2081 513e 78e6 00be
000000f0: 9af0 7f3d 0c62 dd3c 00ef e33d 4aae b6bd
00000100: 8f97 57bd de2a edbb f27c 97bc b5cd a73d
00000110: d3e4 8dbd 3944 c03d 5b42 ff3d 89e2 f13d
00000120: 5a7d 24be 6faa df3d 784b 9f3d 06e6 c9bc
00000130: b884 52be b1eb e53e 110b 153e 8223 7bbe
00000140: 70db 29be 021b 59bd e54d 81bb e4b1 95bd
00000150: b4f4 3c3d 9cdc 073e b3d1 4cbc 3220 cd3d
00000160: bc5c 6937 2f14 9dbd fb01 483d 1b62 d3bd
00000170: d7b3 44bd fcf9 b4bd 1fa6 1cbe d317 06bd
00000180: 78d8 873d 7c7a cbbd c89e ec3d 22b4 61ba
00000190: e7d9 b6bd d8af e1bd 3130 2fbe 166e 14be
000001a0: e1c9 423d 9471 01bd 9111 09b8 366f 1b3e
000001b0: 5402 d33c 2640 30bb 4038 bd3d f40f 28bd
000001c0: 60ce 48bd 6a4c fdbd 13d0 bebd 9e5e 89b9
000001d0: e7fc 293d d8bd 9abc 3a57 0d3e 25b1 1237
000001e0: 53ec 39be 2277 e63d 135d acbd 12d2 8c3d
000001f0: db91 4abc 3340 25bd 495e 873c 0ad5 b13d
00000200: 4ca7 993d b0a9 00bd 9ff0 11be a5d2 00be
00000210: 8183 0ebe 1d4a 5cbd 1bfe f5bd d5af 0c3e
00000220: 236d 09be ffde a53c ae09 533d d869 4dbe
00000230: ce2e fc3b 73e5 d4bd ac35 b93c 0fc6 353e
00000240: 773d a7bd 32e1 a83d bc85 84bd 4ce0 233e
00000250: b06a 543c b9ec 54be 23a6 153c 8fa1 8bbc
00000260: 8883 613e da27 4bbe 4fe8 1bbd b068 b7bd
00000270: 88ef 793e d117 0fbe ee3d e3bd 190c b83d
00000280: 924f ce3d d0c7 5f3e 33c6 39bd 00ef ccbd
00000290: 18ca 62bc eaf4 8e3d d20d ce3e 300f d43d
000002a0: 13bc 7f3d 409c 533e aaee e23c 7d78 a13e
000002b0: 61ac 99bd c41d 483e e42a 603e caa6 9d3e
000002c0: 1881 6bbe ae8c 3b3e ceb4 193e 120a 223d
000002d0: b466 003d 0dd0 863e 95f0 1b3e f724 f0bd
000002e0: 75f8 553d c9da cfbd 96cf 8b3d 949d 7a3d
000002f0: 9984 2a3d 3028 a13e 5e7b 85bc 60e8 7a3d
00000300: 69ac 8bbc a320 863e 7ed7 95bc 7a76 013e
00000310: 3100 0a3d 0615 fc3b d469 7b3e 7835 87bb
00000320: 9aab f3bb eceb 413c 9161 feb9 6a41 2f3e
00000330: 5246 fbb5 a0e5 c8bb 808c ac3d 70ab 52bd
00000340: 911b 7fbd 314d a1be 52fd 8abd 5b5f 9ebe
00000350: a279 2c3e 7c27 4abe 18ac b93c 382a 63bc
00000360: 7de8 c93e 0a27 3abe 496f 6ebe b2b6 e0bc
00000370: 3440 bd3d ac9c 983c de25 9fbd 49d6 373e
00000380: a165 9f3d b2d3 a53c 7cff bfbd 7e70 6e3d
00000390: f2ac 8c3d 16c4 3abe f26f e23d 8b7e eebd
000003a0: d13e 873d 1cf4 b4bd c1ab 593d 6506 19be
000003b0: d352 803e 977c 03be 5823 84bd 2615 833d
000003c0: 7af4 9d3d d590 193e 151e 263d d4bc 95bd
000003d0: 4a78 a2bd 95a4 063c 163c 763c 3bf9 f8bc
000003e0: c535 16be 990a 543e 5793 08bc 7c51 273d
000003f0: 1d4e 8bbd 10f4 7b3d 43e0 2fbb 89e9 333e

encoder_mean.4.bias f4 [16]
0.026824823 -0.06447901 -0.043405138 0.115578115 -0.029098695 -0.055250738 -0.13106903 0.051411845
0.01539846 0.0005967697 0.02865322 0.04734168 0.09141001 0.008742405 0.04058882 -0.013553575
00000000: bbbf db3c 920d 84bd 96c9 31bd 38b4 ec3d
00000010: 6360 eebc 994e 62bd f636 06be 3a95 523d
00000020: d349 7c3c 8970 1c3a 28ba ea3c 59e9 413d
00000030: 2c35 bb3d 4e3c 0f3c 7640 263d d00f 5ebc

encoder_mean.5.weight f4 [16]
0.63499945 0.48363876 0.48761436 0.5114194 0.5222818 0.67813206 0.5820081 0.5584543
0.6646757 0.42368865 0.7692255 0.5738405 0.6072822 0.6874128 0.5945984 0.33546472
00000000: 538f 223f 809f f73e 97a8 f93e 62ec 023f
00000010: 43b4 053f 109a 2d3f 7cfe 143f dcf6 0e3f
00000020: 3028 2a3f b8ed d83e f6eb 443f 36e7 123f
00000030: d976 1b3f 49fa 2f3f 9a37 183f 08c2 ab3e

encoder_mean.5.bias f4 [16]
0.043655336 0.08658441 0.15003724 0.17192282 0.004002802 -0.06200734 -0.15210035 0.13065365
0.067889035 0.13657412 -0.03235631 0.13906306 0.051978312 -0.23675531 0.17549145 -0.053498752
00000000: f0cf 323d 2b53 b13d 5da3 193e 890c 303e
00000010: f029 833b 69fb 7dbd 32c0 1bbe 12ca 053e
00000020: 6809 8b3d 16da 0b3e 0d88 04bd 8c66 0e3e
00000030: 36e7 543d fc6f 72be 08b4 333e 8221 5bbd

encoder_mean.5.running_mean f4 [16]
-0.26529095 0.09483759 0.26804334 -0.02707769 -0.012543133 0.07495599 0.30269584 -0.15582459
0.302132 0.2146016 -0.28140578 -0.087643474 -0.0155199785 -0.2872888 0.18720151 -0.091136836
00000000: 37d4 87be 363a c23d fa3c 893e 08d2 ddbc
00000010: b781 4dbc 8782 993d f3fa 9a3e 7b90 1fbe
00000020: 0cb1 9a3e 86c0 5b3e 6b14 90be 6c7e b3bd
00000030: 8247 7ebc 8517 93be c1b1 3f3e f3a5 babd

encoder_mean.5.running_var f4 [16]
0.19382302 0.16107993 0.2782646 0.07246324 0.17791258 0.10638359 0.16308853 0.1502182
0.2861461 0.07163512 0.31588775 0.116642855 0.11428993 0.28757256 0.30083 0.060358983
00000000: 8b79 463e 23f2 243e b378 8e3e 9b67 943d
00000010: b72e 363e a4df d93d ae00 273e cdd2 193e
00000020: be81 923e 6fb5 923d 0abc a13e 73e2 ee3d
00000030: d710 ea3d b63c 933e 6406 9a3e fb3a 773d

encoder_mean.8.weight f4 [14, 16]
0.2409568 -0.097630866 0.062326495 -0.21805853 -0.13851225 -0.15799157 0.07282526 0.0021115984
-0.19362114 -0.16388357 0.18279245 -0.051609814 -0.28895485 0.23871224 -0.046611916 -0.08330107
-0.11867667 0.18404235 -0.023863936 -0.08068338 0.103923656 0.032145903 -0.038026292 0.061680518
0.038607534 0.023402879 0.13303743 -0.04253353 -0.12974288 0.020923793 -0.043733116 0.048874687
0.044819374 -0.18327197 0.0897185 -0.36472735 0.056294862 0.09838501 0.044173993 0.15672594
-0.2861609 -0.21712509 0.02846654 -0.054975912 -0.2567175 0.22771765 0.118445665 -0.07509569
-0.20996304 0.019143121 -0.09930266 -0.071515284 -0.08238987 0.011163167 0.033005767 -0.19810633
-0.09395357 0.027949044 -0.2795852 -0.15596603 -0.13326317 -0.18097618 -0.12895091 -0.19148588
-0.108141944 -0.027617179 0.15566063 -0.09829292 -0.011824962 -0.06920152 0.118578136 -0.11966669
0.18288489 0.2186817 -0.25109166 -0.17447303 -0.30077717 -0.20248769 0.13508876 -0.055675026
0.18491608 -0.07324049 -0.09829904 -0.008175859 0.119318366 0.06316779 -0.047387764 0.1758386
-0.10733022 -0.105794884 0.22002693 0.21628912 -0.06344687 0.19975962 -0.06733687 0.041758195
0.1798375 -0.032106765 -0.18169565 0.042340104 -0.058097124 0.004489693 -0.038780887 0.17764635
-0.24805869 -0.032030057 0.1300951 0.07545741 -0.035992075 0.056544583 -0.2550791 0.16769083
0.06316147 -0.10296999 0.112429336 0.035216182 -0.11967355 -0.051253974 0.04597214 -0.17533565
0.023560682 -0.19746388 -0.039074756 -0.20024242 -0.004482217 -0.08129651 -0.19792092 -0.014315864
-1.0880034e-06 0.14558832 -0.0027786603 -0.06789985 0.12797447 0.17012802 2.7218425e-07 0.002644914
-0.08585566 -0.087430954 -2.8759007e-06 -0.021453138 -0.0006442533 -3.4037148e-06 -2.0477505e-06 -0.001089537
-0.28389454 -0.064544104 0.06624737 0.17943211 -0.27361766 0.0056413407 0.15594688 -0.31261995
0.13151623 0.0771328 -0.26276594 -0.27903837 0.09141041 -0.21064354 0.12957945 -0.08554799
-0.26401955 0.07614124 0.006135804 0.19398312 -0.13604534 -0.00024894872 0.03990553 -0.16062324
0.21660832 0.10656477 -0.22036082 -0.21244723 0.04802382 -0.14577988 0.3013736 0.07791029
0.25650272 -0.06578795 -0.12908082 0.022903714 0.054473266 -0.044885606 -0.09254607 0.12815195
-0.19660418 -0.08014155 0.29956073 0.043614212 -0.048208177 0.03498075 -0.1445394 -0.030939806
0.19748293 -0.16642319 0.0109053245 -0.023943692 0.08651605 -0.029919265 0.028775113 0.16670948
-0.19096525 -0.08720565 0.21191463 0.21714342 -0.0302311 0.2789223 0.0038668714 0.06416003
-0.07550829 0.05055981 0.18918616 -0.28526774 -0.049683318 -0.005440086 -0.10067107 -0.07935908
0.29837552 0.13351966 -0.13234736 0.02570974 -0.3084217 0.09843064 0.06101056 0.15103589
00000000: 61bd 763e b1f2 c7bd 114a 7f3d bc4a 5fbe
00000010: 28d6 0dbe 8bc8 21be 6925 953d be62 0a3b
00000020: 9f44 46be 18d1 27be f22d 3b3e d064 53bd
00000030: e4f1 93be fb70 743e 23ec 3ebd c099 aabd
00000040: c10c f3bd 9975 3c3e 4d7e c3bc 543d a5bd
00000050: edd5 d43d 6cab 033d 75c1 1bbd b6a4 7c3d
00000060: ef22 1e3d 65b7 bf3c f73a 083e a437 2ebd
00000070: 51db 04be 6068 ab3c 7f21 33bd d330 483d
00000080: 8594 373d a6ab 3bbe 55be b73d 8bbd babe
00000090: 7195 663d 157e c93d caef 343d c47c 203e
000000a0: ae83 92be 0a56 5ebe a932 e93c 6c2e 61bd
000000b0: 7a70 83be d12e 693e a493 f23d c5cb 99bd
000000c0: 8d00 57be 09d2 9c3c 315f cbbd 9b76 92bd
000000d0: 05bc a8bd b7e5 363c 0e31 073d 63dc 4abe
000000e0: bb6a c0bd 65f5 e43c cb25 8fbe 8fb5 1fbe
000000f0: 2476 08be d251 39be b50b 04be e014 44be
00000100: 8679 ddbd 6c3d e2bc 8065 1f3e cc4d c9bd
00000110: 7cbd 41bc 87b9 8dbd 18d9 f23d cf13 f5bd
00000120: 2d46 3b3e 18ee 5f3e 168f 80be 0fa9 32be
00000130: 77ff 99be ef58 4fbe b554 0a3e 7f0b 64bd
00000140: a45a 3d3e 1cff 95bd 0251 c9bd 0af4 05bc
00000150: 305d f43d 1d5e 813d ac19 42bd 090f 343e
00000160: f2cf dbbd fdaa d8bd bd4e 613e e57a 5d3e
00000170: 6ff0 81bd c98d 4c3e eae7 89bd a40a 2b3d
00000180: 5227 383e 6282 03bd 6d0e 3abe d16c 2d3d
00000190: 40f7 6dbd 461e 933b b5d8 1ebd ede8 353e
000001a0: 1903 7ebe f331 03bd a637 053e 6a89 9a3d
000001b0: 6d6c 13bd 4b9b 673d ba99 82be 25b7 2b3e
000001c0: cd5a 813d eee1 d2bd 5a41 e63d d83e 103d
000001d0: 6817 f5bd b0ef 51bd 484d 3c3d 308b 33be
000001e0: 5502 c13c f933 4abe da0c 20bd 590c 4dbe
000001f0: 90df 92bb c97e a6bd c8ab 4abe 168d 6abc
00000200: 8307 92b5 1b15 153e 2f1a 36bb 140f 8bbd
00000210: bd0b 033e 0a36 2e3e b820 9234 4b56 2d3b
00000220: 18d5 afbd 000f b3bd 99ff 40b6 7ebe afbc
00000230: 1be3 28ba 606b 64b6 166c 09b6 ccce 8eba
00000240: a05a 91be b32f 84bd b3ac 873d 0dbd 373e
00000250: 9d17 8cbe ffda b83b 8ab0 1f3e b90f a0be
00000260: 31ac 063e cdf7 9d3d 4289 86be 1ede 8ebe
00000270: 6235 bb3d f1b2 57be 7ab0 043e c933 afbd
00000280: 922d 87be f0ef 9b3d db0e c93b 83a3 463e
00000290: 784f 0bbe 5585 82b9 fb73 233d 6b7a 24be
000002a0: 92ce 5d3e a13e da3d 44a6 61be c48b 59be
000002b0: a0b4 443d 5247 15be a44d 9a3e 6e8f 9f3d
000002c0: 5354 833e d5bb 86bd c32d 04be 92a0 bb3c
000002d0: 5c1f 5f3d f8d9 37bd cb88 bdbd 443a 033e
000002e0: 9b52 49be 4121 a4bd 0660 993e d1a4 323d
000002f0: f075 45bd fa47 0f3d 2302 14be 7a75 fdbc
00000300: f738 4a3e d76a 2abe 3fac 323c 9025 c4bc
00000310: 542f b13d 3f19 f5bc c9b9 eb3c e4b5 2a3e
00000320: 658c 43be e098 b2bd 2600 593e d85a 5e3e
00000330: 36a7 f7bc e7ce 8e3e 566b 7d3b 5566 833d
00000340: 17a4 9abd ce17 4f3d 04ba 413e 9d0e 92be
00000350: bc80 4bbd c042 b2bb a22c cebd 0387 a2bd
00000360: adc4 983e 61b9 083e 1186 07be 3c9d d23c
00000370: 73e9 9dbe 0196 c93d 35e6 793d 27a9 1a3e

encoder_mean.8.bias f4 [14]
-0.0040783947 -0.07489386 0.013432604 -0.04429265 0.007693775 0.04859144 0.06591552 -0.040487282
-0.058736615 -0.004589237 0.017193293 0.043044657 0.04431663 0.032673083
00000000: 0ea4 85bb f461 99bd 6d14 5c3c 366c 35bd
00000010: 101c fc3b d107 473d b7fe 863d fed5 25bd
00000020: ce95 70bd 4f61 96bb f3d8 8c3c 984f 303d
00000030: 5b85 353d 36d4 053d

encoder_mean.9.weight f4 [14]
0.57833457 0.40534458 0.7406637 0.6589536 0.5329858 0.5590014 0.69989705 0.5459595
0.43143916 0.78841156 0.8187237 0.7576757 0.40759093 0.52112305
00000000: bc0d 143f 5389 cf3e 239c 3d3f 2fb1 283f
00000010: c271 083f b71a 0f3f 742c 333f 00c4 0b3f
00000020: 98e5 dc3e 57d5 493f e097 513f 09f7 413f
00000030: c2af d03e 5268 053f

encoder_mean.9.bias f4 [14]
0.13651605 -0.1856837 0.16058826 -0.108930424 0.042139042 0.18643352 0.080098435 0.0039557745
-0.10948586 0.20659833 0.1746638 0.08829341 0.1984453 -0.12995332
00000000: ddca 0b3e de23 3ebe 4071 243e ea16 dfbd
00000010: fd99 2c3d 6ee8 3e3e a60a a43d 719f 813b
00000020: 1f3a e0bd 838e 533e 11db 323e 2dd3 b43d
00000030: 3f35 4b3e 7c12 05be

encoder_mean.9.running_mean f4 [14]
-0.022095118 0.30701354 -0.055496946 -0.28868896 -0.09475181 -0.016358348 -0.16270126 -0.1495241
0.16760528 -0.110239945 -0.033962965 -0.13574217 0.021729413 -0.06286778
00000000: d200 b5bc e130 9d3e c450 63bd 0acf 93be
00000010: 3d0d c2bd f101 86bc 299b 26be d81c 19be
00000020: b8a0 2b3e 7bc5 e1bd c01c 0bbd ffff 0abe
00000030: e201 b23c d3c0 80bd

encoder_mean.9.running_var f4 [14]
0.14674538 0.052217945 0.09767654 0.1506955 0.0868791 0.16421087 0.1697689 0.18326329
0.11244554 0.33013126 0.37928733 0.15306605 0.12135529 0.040818583
00000000: 6c44 163e 7ce2 553d a30a c83d ec4f 1a3e
00000010: abed b13d e526 283e e6d7 2d3e 5fa9 3b3e
00000020: d949 e63d f706 a93e f331 c23e 59bd 1c3e
00000030: 1f89 f83d 6331 273d

encoder_mean.12.weight f4 [12, 14]
-0.107316695 -0.013321162 0.104011446 -0.18361847 -0.20582713 0.08242503 0.0059732683 -0.088830136
-0.086979404 -0.29248956 -0.14767481 0.2218573 -0.006695715 0.094043344 0.0232013 -0.06715446
0.03593593 -0.01963193 -0.23217052 -0.07106605 -0.10364093 -0.16055496 2.4597136e-06 0.26711804
-0.29013902 -0.05289086 -0.12935908 -0.04505909 -0.14284731 0.0052116243 -0.13183479 -0.0026714068
-0.102657914 -0.22581752 -0.1294332 -0.26502383 -0.080447495 -0.31995666 -0.26270667 -0.1716913
-0.23802085 -0.32636857 0.12715171 -0.07330744 -0.20417164 2.6077498e-07 -0.068633564 0.023888497
0.009347645 0.158717 8.9457757e-07 -0.092467725 0.017063545 0.10700255 -0.11296471 0.010750349
-0.23091713 0.097665034 -0.18927391 -0.110999465 0.17087133 -0.27197698 -0.18343312 0.09566572
0.014930722 0.110790886 0.13750057 -0.28769165 -0.08010643 0.21543168 0.12294108 -0.0036800466
-0.029967178 -0.011137962 -0.08132178 0.17568825 0.17534111 0.15113151 -0.11821297 -0.22780685
-0.08636903 -0.009313045 0.3090214 -0.026337123 0.022896849 0.011075656 -0.082982905 -0.23742902
-0.21750423 0.028305698 0.13043779 0.056353506 -0.044849485 -0.15511522 -0.13596526 0.093604565
0.09614637 0.06582379 0.03371565 -0.16441777 0.09452689 0.084877595 -0.10042254 -0.11072133
-0.09069931 0.04336235 8.643222e-06 -0.16510679 0.34226233 -0.11099745 -0.07598775 0.09008771
-0.019213542 -0.010473436 -0.022897093 0.00042637228 0.11659914 -0.0277631 -0.27448317 0.08935829
-0.014554715 0.108516045 0.03611105 -0.1773605 -0.005271408 0.22581284 -0.15682274 -0.10723519
-0.10100344 0.2795574 0.02108823 -0.23635106 -0.23129763 -0.07407678 0.05545666 0.12451259
0.09486438 -0.22770107 -0.26962715 0.11017515 -0.13063802 -0.11103531 -0.09192654 0.08386493
0.1366263 -0.246995 -0.22841597 0.055093434 -0.090236254 0.2015871 0.36706203 -0.28313413
-0.1264647 0.25389 0.1300849 -0.091006525 0.011499862 -0.19070897 -0.040535346 0.10509197
0.1361157 0.11552486 0.039177112 -0.29309812 -0.06507006 0.1268097 0.17395163 -0.035340976
00000000: dbc8 dbbd 0141 5abc f403 d53d 7b06 3cbe
00000010: 59c4 52be 74ce a83d 68bb c33b 93ec b5bd
00000020: 4222 b2bd 31c1 95be 1138 17be 8f2e 633e
00000030: ba67 dbbb cc99 c03d a710 be3c 4788 89bd
00000040: 8e31 133d 24d3 a0bc 1cbe 6dbe 148b 91bd
00000050: b241 d4bd 8568 24be 8f11 2536 b2c3 883e
00000060: 1a8d 94be 16a4 58bd b576 04be e18f 38bd
00000070: 9146 12be 46c6 aa3b b3ff 06be c512 2fbb
00000080: 503e d2bd b53c 67be 238a 04be 34b1 87be
00000090: a8c1 a4bd 5cd1 a3be 7d81 86be d8cf 2fbe
000000a0: bdbb 73be c819 a7be 0f34 023e 3622 96bd
000000b0: 5f12 51be a400 8c34 c18f 8cbd cfb1 c33c
000000c0: dd26 193c b686 223e e722 7035 b85f bdbd
000000d0: d9c8 8b3c 2724 db3d 0b5a e7bd 3b22 303c
000000e0: 8a75 6cbe 9b04 c83d 05d1 41be b053 e3bd
000000f0: e5f8 2e3e 9140 8bbe e4d5 3bbe 64ec c33d
00000100: fd9f 743c 55e6 e23d f3cc 0c3e 524c 93be
00000110: d70e a4bd 1f9a 5c3e 88c8 fb3d f02c 71bb
00000120: ba7d f5bc 007c 36bc 098c a6bd 9fe7 333e
00000130: 9f8c 333e 38c2 1a3e a419 f2bd 3346 69be
00000140: 3fe2 b0bd be95 18bc 0e38 9e3e f3c0 d7bc
00000150: 2c92 bb3c ab76 353c f1f2 a9bd 9820 73be
00000160: 6eb9 5ebe 5ae1 e73c 7c91 053e efd2 663d
00000170: 18b4 37bd 86d6 1ebe 7a3a 0bbe c0b3 bf3d
00000180: 63e8 c43d a0ce 863d 6c19 0a3d 225d 28be
00000190: 5097 c13d 4ed4 ad3d 55aa cdbd ddc1 e2bd
000001a0: 8fc0 b9bd b89c 313d 5b02 1137 c111 29be
000001b0: 023d af3e a252 e3bd 779f 9bbd e87f b83d
000001c0: b865 9dbc c698 2bbc af92 bbbc b88a df39
000001d0: 88cb ee3d 716f e3bc 0f89 8cbe 7b01 b73d
000001e0: e676 6ebc a93d de3d 2ee9 133d fe9d 35be
000001f0: c6bb acbb 7b3b 673e 2496 20be 209e dbbd
00000200: e4da cebd 2622 8f3e 39c1 ac3c 0306 72be
00000210: 49d9 6cbe 91b5 97bd 8626 633d 7500 ff3d
00000220: 4248 c23d 782a 69be 920c 8abe 82a3 e13d
00000230: f9c5 05be 7b66 e3bd fb43 bcbd 60c1 ab3d
00000240: c4e7 0b3e 42ec 7cbe e0e5 69be a7a9 613d
00000250: c9cd b8bd d96c 4e3e 8eef bb3e f5f6 90be
00000260: f67f 01be dffd 813e fa34 053e a161 babd
00000270: eb69 3c3c 3649 43be 6408 26bd 753a d73d
00000280: ea61 0b3e 4c98 ec3d 2e78 203d f510 96be
00000290: 7443 85bd 67da 013e 6020 323e b3c1 10bd

encoder_mean.12.bias f4 [12]
0.05445891 -0.16915624 -0.2206228 -0.1200002 0.0807381 0.06830375 0.04130134 0.09846833
0.0657191 0.07102042 0.08536281 0.04975208
00000000: 4e10 5f3d 4b37 2dbe f1ea 61be aac2 f5bd
00000010: 045a a53d d6e2 8b3d 982b 293d c4a9 c93d
00000020: bc97 863d 2773 913d b2d2 ae3d d6c8 4b3d

encoder_mean.13.weight f4 [12]
0.81906325 0.6716904 0.79618675 0.44048572 0.8140918 0.6867577 0.6445725 0.70260745
0.6808119 1.0069069 0.80372626 0.57152927
00000000: 21ae 513f e7f3 2b3f e5d2 4b3f 5887 e13e
00000010: 5268 503f 5acf 2f3f b402 253f 15de 333f
00000020: b049 2e3f 53e2 803f 01c1 4d3f be4f 123f

encoder_mean.13.bias f4 [12]
0.2906712 -0.17162444 0.12952304 -0.117616795 0.30682588 0.44840956 0.45635438 0.15819857
0.29091704 0.34304714 0.34492764 0.50687045
00000000: dbd2 943e 51be 2fbe b0a1 043e 13e1 f0bd
00000010: 4818 9d3e f095 e53e 48a7 e93e cefe 213e
00000020: 14f3 943e e0a3 af3e 5b9a b03e 43c2 013f

encoder_mean.13.running_mean f4 [12]
-0.11630189 0.04449155 -0.35586858 0.34030235 -0.20232944 0.12226242 0.011813224 -0.04639964
0.030628541 -0.4121109 -0.062157206 0.14279984
00000000: af2f eebd c63c 363d 6834 b6be 1c3c ae3e
00000010: 732f 4fbe b864 fa3d 418c 413c 8d0d 3ebd
00000020: b5e8 fa3c 3300 d3be 8e98 7ebd 1f3a 123e

encoder_mean.13.running_var f4 [12]
0.21952175 0.032499216 0.163139 0.11435489 0.29812843 0.18691117 0.096119046 0.049253445
0.1513606 0.21486573 0.45500585 0.18090628
00000000: 4fca 603e e61d 053d e90d 273e e632 ea3d
00000010: 4aa4 983e a465 3f3e 10da c43d fbbd 493d
00000020: 46fe 1a3e c305 5c3e 87f6 e83e 7f3f 393e

encoder_mean.16.weight f4 [10, 12]
-0.17807518 0.19134814 -0.20390262 0.0057030227 0.066270836 -0.09167912 0.14828771 0.09080404
0.27267638 -0.110088654 0.1663397 0.017373476 0.0561996 0.120997064 0.10082708 0.011927318
-0.15957312 0.09703506 -0.019585041 -0.20550182 -0.03220372 -0.07935659 0.06153839 0.24909516
0.24969946 0.10016677 -0.11223666 0.09164029 -0.112645485 0.015369807 0.14896013 0.015511119
-0.07266509 -0.2607265 -0.14391622 0.20863669 -0.24224459 -0.23443134 0.19831595 -0.04699271
0.03359995 -0.33844867 -0.15484032 -0.072774686 -0.0148403905 0.46541017 0.24655564 -0.15025872
0.29341698 0.20461349 -0.27474877 0.15051524 -0.16108502 0.23026209 0.29193655 0.017400464
0.07158222 -0.55668306 -0.09108282 0.368804 0.075862184 -0.006142829 -0.07139963 0.07959854
-0.042629607 0.17911683 0.12982903 -0.09752455 0.041210424 -0.047951795 -0.19551258 0.07143816
-0.07693115 0.18940674 -0.35441038 -0.041381624 0.13300812 0.108333744 0.02882694 0.26111373
0.04494003 -0.21368663 0.01754017 -0.010759363 0.4058393 -0.10966324 0.1675507 0.084960505
-0.18983157 0.20316216 0.042061508 -0.2275939 -0.14233248 -0.06481752 -0.32859868 0.23857957
0.15435344 -0.12098787 0.07648259 0.12792239 -0.17885175 0.15592834 0.19533749 -0.03550867
-0.11264411 -0.026262106 -0.18992181 0.013865893 -0.48889622 0.05503552 -0.31121042 0.15452515
0.5026711 -0.38503385 -0.48706585 0.2004698 0.27218068 0.34577543 0.47354898 -0.24339499
00000000: 5759 36be c4f0 433e d9cb 50be 6ce0 ba3b
00000010: 01b9 873d 43c2 bbbd bcd8 173e 78f7 b93d
00000020: 3d9c 8b3e 2976 e1bd f454 2a3e d252 8e3c
00000030: 8d31 663d 4fcd f73d 6e7e ce3d cc6a 433c
00000040: 2367 23be 51ba c63d cf70 a0bc 126f 52be
00000050: 0ce8 03bd b585 a2bd ae0f 7c3d cd12 7f3e
00000060: 37b1 7f3e 3c24 cd3d 56dc e5bd e8ad bb3d
00000070: adb2 e6bd a5d1 7b3c 0189 183e 5922 7e3c
00000080: 6fd1 94bd f27d 85be c65e 13be dba4 553e
00000090: f70e 78be c50e 70be 5613 4b3e 6e7b 40bd
000000a0: 1aa0 093d 2549 adbe 768e 1ebe e50a 95bd
000000b0: 1c25 73bc 3e4a ee3e 1579 7c3e 6cdd 19be
000000c0: c03a 963e 3386 513e dfab 8cbe ab20 1a3e
000000d0: 79f3 24be d3c9 6b3e b578 953e 6b8b 8e3c
000000e0: b399 923d c882 0ebf a189 babd e1d3 bc3e
000000f0: a25d 9b3d c949 c9bb f839 92bd 8f04 a33d
00000100: 629c 2ebd 676a 373e e7f1 043e f4ba c7bd
00000110: 43cc 283d 1a69 44bd 7334 48be 2c4e 923d
00000120: 148e 9dbd d7f3 413e 4775 b5be c77f 29bd
00000130: 4833 083e 15de dd3d 7a26 ec3c b3b0 853e
00000140: 0913 383d abd0 5abe 67b0 8f3c 0a48 30bc
00000150: 2bca cf3e 1f97 e0bd 6992 2b3e c6ff ad3d
00000160: 3563 42be be09 503e b048 2c3d 600e 69be
00000170: 9bbf 11be 0cbf 84bd 163e a8be 344e 743e
00000180: d40e 1e3e 7dc8 f7bd e7a2 9c3d 16fe 023e
00000190: ea24 37be aeab 1f3e 8d06 483e 8a71 11bd
000001a0: f5b1 e6bd a123 d7bc dd7a 42be c52d 633c
000001b0: 9b50 fabe ed6c 613d f956 9fbe d73b 1e3e
000001c0: 0eaf 003f 2823 c5be b260 f9be f547 4d3e
000001d0: 445b 8b3e 7a09 b13e 0375 f23e 893c 79be

encoder_mean.16.bias f4 [10]
-0.22252157 -0.17062615 -0.17123419 0.2828424 -0.50058454 -0.18928722 -0.23345819 -0.13311757
-0.17732835 0.22703546
00000000: b2dc 63be 9fb8 2ebe 0458 2fbe b8d0 903e
00000010: 4f26 00bf 82d4 41be aa0f 6fbe f94f 08be
00000020: 9095 35be fc7b 683e

encoder_var.0.weight f4 [20, 30]
-8.6875785e-05 -0.00010504859 -1.7768029e-05 -6.338786e-06 1.3374301e-05 -1.7071401e-05 -9.6511e-07 -5.390192e-06
6.4653983e-07 -3.3381758e-07 7.20517e-07 9.0667214e-07 -6.110611e-06 -0.00014651251 -2.0998689e-06 1.7913635e-05
1.558663e-05 2.4537246e-07 -2.580346e-06 -0.00024583607 -6.323821e-06 -2.8878296e-07 -9.881412e-07 4.347039e-06
2.05952e-05 2.4357532e-05 -7.776237e-06 7.3307765e-06 -0.00057096494 -0.00018802304 5.8067337e-05 3.64764e-05
1.2590329e-05 -8.042513e-05 1.5112418e-05 -6.153759e-06 9.571855e-07 -7.7809425e-05 6.195904e-07 1.5329884e-05
-3.4355767e-06 8.59933e-07 2.0325128e-06 -1.0093115e-05 1.0182841e-05 -3.1879442e-06 -5.1062075e-06 -5.478979e-06
-6.244108e-07 -1.1619414e-05 -8.060708e-05 -8.055378e-06 -4.021012e-07 -3.6455215e-06 2.5984333e-05 8.470443e-07
-4.5418266e-05 2.91327e-05 4.7147627e-05 -5.1699604e-05 1.0531063e-05 -7.320184e-05 9.612302e-06 -4.018789e-07
0.00012564108 -7.2050098e-06 -5.763993e-07 -3.216364e-06 -7.6192144e-08 1.0928144e-05 -1.9035765e-06 -1.935661e-07
-4.4679616e-08 0.00012576477 0.00012291929 -3.320471e-06 9.413084e-06 -3.8754374e-06 -4.1498623e-08 -1.1600737e-05
-1.9423655e-07 -1.5978792e-06 9.550746e-07 3.0213255e-06 0.00011414896 -9.895516e-06 0.00013743696 2.6995774e-06
9.374544e-05 9.7231496e-05 -0.00011153292 9.972231e-06 -4.51047e-06 -2.173248e-05 -6.3678185e-06 -7.538465e-06
-8.9972013e-07 -3.074211e-05 8.47427e-07 1.4026382e-05 5.639767e-06 9.036452e-07 6.658187e-06 -6.0120976e-05
-2.1094022e-05 -2.8004551e-05 -7.593449e-06 -2.8691531e-06 4.643445e-06 -1.5026985e-05 -2.1600055e-05 5.884601e-06
1.09579574e-07 1.9506435e-06 7.03455e-05 -2.1683543e-05 0.00020914986 -7.171403e-06 -4.88567e-06 0.00033991688
0.087288514 0.10119114 -0.057814233 -0.049192395 0.093561485 -0.039033495 5.967362e-07 -0.04407384
-8.861617e-07 -0.13422778 0.16525455 3.9101488e-07 -0.118328415 0.03308954 0.030816672 -0.03729098
-0.04213334 0.12935376 -0.09061364 0.10203083 -0.049235918 0.16514191 -1.2360979e-06 -0.19947802
-0.059103183 -0.094716124 0.05486046 -0.124364115 0.098340884 0.10990098 -0.000966055 -0.0008531121
-3.2185758e-06 -0.0005206657 0.006150156 -0.001959172 -7.542814e-07 -0.0005649586 -9.1700895e-07 -0.0018331306
-0.0010198719 -2.2150083e-07 -0.0002054813 0.0071902554 0.0072914055 -0.0013778326 0.00011256755 -0.0013428148
0.00057780975 0.010569109 -0.00052455143 0.0008286557 6.8111075e-07 0.00052927993 -0.001682732 -6.394487e-05
0.0054937424 0.0008013937 0.006416051 0.005316455 2.1598906e-05 -2.2612267e-05 -1.8549346e-05 -4.7958774e-06
-2.6940064e-05 -0.00028004442 -5.8228803e-08 -6.298838e-05 -6.6537797e-07 -0.0014835234 4.4132034e-06 -8.9389147e-07
-8.245526e-06 9.289728e-06 -2.5338997e-05 -0.0010642919 1.9669722e-05 -1.7735676e-06 -1.5966519e-06 0.00012744445
-4.862913e-06 4.4168646e-06 -1.7741302e-08 2.110713e-05 6.0844224e-05 -0.0047598635 -4.147398e-05 1.8173214e-05
-0.0017911064 -0.0026495333 0.024909565 0.03393036 -0.005552001 -0.00551075 0.03112986 -0.0014224432
6.8438777e-07 -0.0046767136 7.3722845e-08 -0.008396315 0.09158811 8.1717815e-07 0.0077533885 0.005799089
0.0049164556 -0.0069541247 -0.0034716113 0.087630436 0.002187892 0.006741742 -0.005504504 0.09083107
-1.5785243e-08 -0.0018737369 -0.009882467 -0.019995598 0.031204881 -0.016597867 0.030869532 0.028627345
0.00026551943 0.00022931623 0.00026305288 0.00038982835 0.0002843595 0.00061291986 3.6313213e-07 0.00029311198
-5.9011825e-07 -7.00865e-05 1.8518982e-06 -9.1145944e-07 -5.2921587e-05 -0.000101318044 0.00010888194 0.00018019987
00000000: 1531 b6b8 884d dcb8 8d0c 95b7 c2b1 d4b6
00000010: 2f62 6037 8e34 8fb7 ed88 81b5 66dd b4b6
00000020: e18d 2d35 8a37 b3b4 8d69 4135 0962 7335
00000030: c009 cdb6 27a1 19b9 79eb 0cb6 3d45 9637
00000040: 08c0 8237 bcbb 8334 022a 2db6 8fe3 80b9
00000050: 3531 d4b6 070a 9bb4 46a0 84b5 c8dc 9136
00000060: dbc3 ac37 6753 cc37 af76 02b7 e4fa f536
00000070: cfac 15ba 0d28 45b9 548d 7338 3cfe 1838
00000080: 0d3b 5337 eaa9 a8b8 578b 7d37 637c ceb6
00000090: a578 8035 9e2d a3b8 ee51 2635 ad98 8037
000000a0: c28e 66b6 25d6 6635 4e66 0836 9955 29b7
000000b0: f8d6 2a37 77f0 55b6 fd55 abb6 12d8 b7b6
000000c0: 2f9d 27b5 01f1 42b7 990b a9b8 9625 07b7
000000d0: 5ee0 d7b4 95a5 74b6 eef8 d937 7160 6335
000000e0: 7e7f 3eb8 ff61 f437 61c0 4538 07d8 58b8
000000f0: 92ae 3037 f083 99b8 8644 2137 d1c1 d7b4
00000100: 85be 0339 90c2 f1b6 dcb9 1ab5 b6d8 57b6
00000110: 139f a3b3 0558 3737 647e ffb5 0bd7 4fb4
00000120: c2e5 3fb3 b9df 0339 e5e3 0039 42d5 5eb6
00000130: e3ec 1d37 c109 82b6 383c 32b3 c9a0 42b7
00000140: 568f 50b4 b676 d6b5 1d30 8035 fac1 4a36
00000150: 4263 ef38 eb04 26b7 f41c 1039 632a 3536
00000160: 3399 c438 c3e8 cb38 c8e6 e9b8 684e 2737
00000170: a458 97b6 254e b6b7 25ab d5b6 ecf2 fcb6
00000180: 4c84 71b5 17f1 00b8 bd7a 6335 da52 6b37
00000190: 3b3d bd36 0692 7235 6469 df36 682a 7cb8
000001a0: 11f3 b0b7 51eb eab7 3bcb feb6 ad8b 40b6
000001b0: e4ce 9b36 691c 7cb7 c431 b5b7 5674 c536
000001c0: 0252 eb33 cde7 0236 7486 9338 0ee5 b5b7
000001d0: 3d4f 5b39 e2a1 f0b6 96ef a3b6 df36 b239
000001e0: 52c4 b23d 4d3d cf3d 9ece 6cbd f77d 49bd
000001f0: 2a9d bf3d 96e1 1fbd 662f 2035 c586 34bd
00000200: 91e0 6db5 0273 09be 7d38 293e adec d134
00000210: 2b56 f2bd e688 073d 3f73 fc3c 6dbe 18bd
00000220: 0294 2cbd 5075 043e a593 b9bd 8af5 d03d
00000230: 9aab 49bd f61a 293e 00e8 a5b5 f743 4cbe
00000240: 2e16 72bd 87fa c1bd 5db5 603d 9db2 febd
00000250: f266 c93d c413 e13d db3e 7dba 62a3 5fba
00000260: b6fe 57b6 497d 08ba 3f87 c93b 7465 00bb
00000270: d379 4ab5 bb19 14ba 6028 76b5 a845 f0ba
00000280: 39ad 85ba afd5 6db4 7776 57b9 3c9c eb3b
00000290: beec ee3b 6498 b4ba 3e12 ec38 6301 b0ba
000002a0: 2878 173a 0e2a 2d3c 0d82 09ba 253a 593a
000002b0: 93d5 3635 60bf 0a3a 1e8f dcba 241a 86b8
000002c0: da04 b43b 9f14 523a bd3d d23b a835 ae3b
000002d0: 4c2f b537 79af bdb7 6b9a 9bb7 46ec a0b6
000002e0: 59fd e1b7 edd2 92b9 3f17 7ab3 a118 84b8
000002f0: 6d9c 32b5 c972 c2ba 2115 9436 c1f3 6fb5
00000300: 4456 0ab7 14db 1b37 158f d4b7 b67f 8bba
00000310: 6800 a537 520b eeb5 8b4c d6b5 9ca2 0539
00000320: 1b2c a3b6 9434 9436 8965 98b2 370f b137
00000330: fd32 7f38 a1f8 9bbb 59f4 2db8 ae72 9837
00000340: 8fc3 eaba cba3 2dbb 250f cc3c 90fa 0a3d
00000350: 8fed b5bb 8693 b4bb 0c04 ff3c 4671 baba
00000360: c5b6 3735 1e3f 99bb 9051 9e33 b390 09bc
00000370: 8c92 bb3d 0e5c 5b35 2310 fe3b 4906 be3b
00000380: 381a a13b 6ddf e3bb f983 63bb 9677 b33d
00000390: bd62 0f3b d5e9 dc3b 205f b4bb a405 ba3d
000003a0: 1e98 87b2 2d98 f5ba 12ea 21bc cfcd a3bc
000003b0: 61a1 ff3c 40f8 87bc 1ae2 fc3c e583 ea3c
000003c0: 6a35 8b39 9b74 7039 5cea 8939 e061 cc39
000003d0: 1616 9539 5bac 203a 80f4 c234 d3ac 9939
000003e0: 9e68 1eb5 67fb 92b8 bd8e f835 04ab 74b5
000003f0: 1ff8 5db8 b67a d4b8 8c57 e438 09f4 3c39

encoder_var.0.bias f4 [20]
-0.00028259176 -4.9873637e-05 9.748998e-05 0.0002598416 0.11507146 0.0055828164 -0.0015220536 0.028598955
-0.00035639136 0.000508378 -4.4055647e-05 -3.5176712e-05 -4.8797127e-05 -2.6100546e-05 1.1930318e-06 0.049618937
0.0024143066 -1.4328835e-05 0.00025013808 0.03619688
00000000: d328 94b9 692f 51b8 8973 cc38 593b 8839
00000010: 96aa eb3d 0ff0 b63b a57f c7ba 5b48 ea3c
00000020: 0ada bab9 ac44 053a 64c8 38b8 b58a 13b8
00000030: 84ab 4cb8 7ff2 dab7 4320 a035 3a3d 4b3d
00000040: 5839 1e3b e165 70b7 f724 8339 2e43 143d

encoder_var.1.weight f4 [20]
0.016581403 0.00021394428 -0.00013262547 -0.0057201106 0.21877661 0.007864884 -0.00043852732 0.035731312
-0.002084053 0.0011579653 0.00018580248 0.0005087982 0.00735718 -0.013023545 -0.00021099614 0.07760592
0.018121047 7.411619e-05 0.008033947 0.14398062
00000000: b9d5 873c 3b56 6039 6111 0bb9 c46f bbbb
00000010: fa06 603e b7db 003c 24ea e5b9 ff5a 123d
00000020: 9b94 08bb dec6 973a f9d3 4239 df60 053a
00000030: 8014 f13b b560 55bc d83e 5db9 daef 9e3d
00000040: 9772 943c d46e 9b38 d1a0 033c a86f 133e

encoder_var.1.bias f4 [20]
0.022261687 -0.0006096738 -0.00031591524 -0.0051615806 0.056573834 -0.009018107 -0.0018907906 0.017123604
-0.005522148 -0.001587619 4.5883953e-05 0.00022677296 -0.0036370563 0.004374018 -7.136753e-05 0.03944215
0.005524181 -1.5044706e-05 0.0060141277 0.034801196
00000000: 245e b63c 84d2 1fba 6da1 a5b9 7a22 a9bb
00000010: f7b9 673d afc0 13bc 68d4 f7ba cd46 8c3c
00000020: 23f3 b4bb a717 d0ba 8573 4038 e7c9 6d39
00000030: ae5b 6ebb ec53 8f3b 27ab 95b8 188e 213d
00000040: 3004 b53b 8568 7cb7 2912 c53b b38b 0e3d

encoder_var.1.running_mean f4 [20]
0.08270074 -0.00094419095 0.078721166 -0.14188978 0.0069842716 0.012716061 -0.0632876 0.010509949
-0.09012592 0.12606408 0.12292872 0.123425536 0.058895852 -0.13100944 -0.12020803 0.012558029
-0.21729633 0.02619849 0.081368774 -0.18031657
00000000: 015f a93d 9583 77ba 9038 a13d 8e4b 11be
00000010: 51dc e43b 0757 503c ee9c 81bd ec31 2c3c
00000020: f093 b8bd f116 013e 0ec2 fb3d 87c6 fc3d
00000030: c73c 713d 5727 06be a12f f6bd 31c0 4d3c
00000040: ee82 5ebe 379e d63c aca4 a63d e8a4 38be

encoder_var.1.running_var f4 [20]
0.0019971335 0.0010732245 0.0020530906 0.00222865 0.0012080879 0.0007877464 0.0030141734 0.0010641263
0.001536155 0.004105629 0.006967365 0.007884612 0.0049041547 0.0026188805 0.0029234816 0.0035086675
0.006424411 0.0010868972 0.0039132484 0.0046528564
00000000: 57e2 023b 70ab 8c3a 258d 063b 8b0e 123b
00000010: b458 9e3a c480 4e3a 7089 453b 277a 8b3a
00000020: cf58 c93a 8388 863b 7e4e e43b 762e 013c
00000030: 08b3 a03b 86a1 2b3b e297 3f3b acf1 653b
00000040: de83 d23b 3876 8e3a b53a 803b fd76 983b

encoder_var.4.weight f4 [16, 20]
2.0063458e-06 -7.4734635e-07 -2.2453235e-06 3.7656682e-07 1.1864407e-05 -9.833994e-07 -4.0656022e-07 -8.96282e-07
-4.7303242e-06 1.8383502e-05 6.6711664e-06 8.829314e-07 -3.6026506e-06 5.249453e-07 8.3101106e-08 -1.39602325e-05
9.199689e-07 -1.3661479e-07 -1.6597289e-06 -2.0363062e-07 5.4249494e-07 9.1096604e-07 -4.2405595e-06 3.9953798e-07
-6.0771613e-06 -3.283931e-06 8.5503063e-07 1.7508444e-06 3.29627e-06 1.2718729e-06 1.3440573e-06 -1.0142219e-06
9.4351617e-07 1.849131e-06 -1.0322166e-06 3.881303e-06 6.0782796e-08 2.4701435e-06 -4.7760835e-07 -1.0322589e-06
-2.5924446e-06 -1.8383736e-05 -1.2338472e-05 3.3422148e-05 -0.002994537 -8.906418e-07 3.770215e-05 -1.5386454e-06
-0.00021763513 -1.2908736e-06 -4.3599875e-06 2.6651373e-06 1.2705901e-07 2.5797715e-07 5.0357266e-06 -6.5274315e-07
-1.1779302e-05 -1.4215865e-06 -6.306883e-06 -2.609889e-05 5.3885447e-06 9.604047e-06 1.0057821e-05 -1.2296261e-08
-8.379703e-06 -1.1018044e-06 -5.507441e-06 -5.9069234e-06 1.2934606e-06 -2.8929917e-06 -1.36703e-06 1.4273439e-06
6.2971517e-06 5.6571984e-08 3.2501093e-06 1.7061751e-05 2.6884682e-06 -5.5769174e-06 5.89521e-06 -4.0759737e-06
4.830919e-06 -0.00014693405 -1.4812365e-05 -0.0007369761 -0.011740943 -7.882311e-08 -0.001343218 3.3345875e-06
-0.000950706 1.1859444e-06 6.2934314e-06 2.7947929e-06 6.1719697e-06 -2.317559e-06 -9.316199e-06 4.691138e-06
-6.625183e-06 -2.836452e-06 -9.239458e-06 -0.0001546903 -6.159186e-06 -3.8532922e-05 4.932792e-06 0.00015005107
0.11959122 -0.0003488082 0.00012528471 0.020359349 0.0035607289 0.004903333 -1.4971801e-05 8.8536544e-05
0.00051205547 -0.0003550663 1.941594e-06 0.036614235 0.02203358 3.9051392e-05 0.00855425 0.066559725
-5.533873e-07 6.4059645e-07 -1.1796434e-06 -6.0824163e-07 1.6798092e-09 3.25571e-07 7.288011e-07 6.915969e-07
8.18925e-07 -1.0502345e-07 3.0534974e-07 4.6157643e-07 7.729673e-07 -1.0074051e-06 -5.4860357e-07 1.7381112e-06
-4.0527095e-07 1.0626762e-06 3.3008935e-06 -2.0374189e-07 1.8583518e-06 2.3350798e-05 1.7484776e-05 -0.00034729473
-0.0042090775 9.763257e-06 0.0006902319 2.101358e-05 -0.005581194 -3.690716e-07 3.725958e-06 -1.0188987e-05
-2.6589753e-06 2.2912493e-06 -5.5829837e-06 9.2938e-06 4.0154194e-07 -4.9022847e-06 1.3245615e-06 3.4488214e-05
-2.9451212e-06 5.6976745e-07 -2.4621517e-07 9.339096e-07 9.0208596e-05 -2.0521398e-05 4.8556234e-07 3.1690263e-06
2.2590496e-06 4.38038e-06 -1.0383889e-06 -9.792125e-06 1.354165e-06 2.2805827e-06 -1.8165648e-06 -2.225752e-05
-1.3810118e-05 -5.5491216e-07 1.3452899e-06 -2.465706e-06 1.4187557e-05 -1.6240387e-05 1.7281694e-06 -0.0003656446
-0.011086846 -1.3569021e-07 -0.0004941022 -1.5433534e-06 -0.0019104369 1.6214106e-07 -7.547579e-07 4.5996358e-06
-2.2843095e-07 1.4664975e-06 -7.2739493e-07 -2.2276724e-06 -4.590303e-07 6.1824727e-07 -1.332583e-05 2.889399e-05
-9.859084e-07 1.5572965e-06 -3.809761e-06 6.0468847e-06 0.00011260033 -8.0042255e-06 -5.5010823e-06 -2.161437e-05
4.5660627e-06 8.01027e-06 7.660074e-06 -6.5624745e-06 -5.814612e-06 7.513392e-08 -6.7628946e-07 4.7323297e-06
5.305653e-07 -8.7447615e-06 3.4001835e-06 -5.2781825e-06 -4.02009e-05 0.004355103 0.00019307878 0.013299254
0.15865618 0.014796169 0.0067204237 0.03693768 0.038445078 0.0055872947 7.323907e-05 0.0040846937
0.01731591 -0.011536143 0.0006299434 0.09136187 0.03528382 -5.56035e-06 0.013823124 0.10575877
8.997679e-06 0.0003853776 1.9812278e-05 0.0033702306 0.11665971 0.0018750998 0.0026919679 0.02642884
0.013500368 0.0054685245 3.9310057e-06 -0.00012801567 0.0049799536 -0.0077195032 -2.8435892e-05 0.04272576
00000000: c2a4 0636 409d 48b5 5dae 16b6 f32a ca34
00000010: 3d0d 4737 59fd 83b5 3645 dab4 0898 70b5
00000020: 2db9 9eb6 4536 9a37 e2d8 df36 9502 6d35
00000030: 11c5 71b6 f7e9 0c35 5175 b233 be36 6ab7
00000040: c8f3 7635 63b0 12b4 dac3 deb5 8fa5 5ab4
00000050: f89f 1135 1c89 7435 214a 8eb6 1580 d634
00000060: 6bea cbb6 8161 5cb6 4285 6535 8efe ea35
00000070: 7d35 5d36 38b5 aa35 7565 b435 6620 88b5
00000080: f045 7d35 a82f f835 b18a 8ab5 243c 8236
00000090: b287 8233 bec4 2536 ff34 00b5 258c 8ab5
000000a0: dcf9 2db6 c636 9ab7 5501 4fb7 c22e 0c38
000000b0: fe3f 44bb 7014 6fb5 6022 1e38 7483 ceb5
000000c0: fc34 64b9 1442 adb5 024c 92b6 b6da 3236
000000d0: b76d 0834 1c80 8a34 90f8 a836 2b38 2fb5
000000e0: b89f 45b7 57cd beb5 b69f d3b6 f1ee dab7
000000f0: 3fcf b436 1121 2137 03be 2837 873f 53b2
00000100: 8d96 0cb7 b6e1 93b5 8fcc b8b6 1634 c6b6
00000110: f89a ad35 3825 42b6 cb7a b7b5 2a93 bf35
00000120: 1f4c d336 8ef9 7233 741c 5a36 d51f 8f37
00000130: 886b 3436 5b21 bbb6 78cf c536 59c4 88b6
00000140: 4719 a236 4f12 1ab9 a082 78b7 a131 41ba
00000150: 165d 40bc 7745 a9b3 eb0e b0ba c7c7 5f36
00000160: cd38 79ba bd2c 9f35 2a2c d336 2d8e 3b36
00000170: d118 cf36 5c87 1bb6 c54c 1cb7 9268 9d36
00000180: e34d deb6 e059 3eb6 2c03 1bb7 5c34 22b9
00000190: 01ab ceb6 699e 21b8 5c84 a536 0757 1d39
000001a0: 3eec f43d 3ee0 b6b9 dc5e 0339 a6c8 a63c
000001b0: 1e5b 693b 23ac a03b 652f 7bb7 b2ac b938
000001c0: 763b 063a 3128 bab9 554c 0236 cff8 153d
000001d0: c47f b43c 1dcb 2338 2027 0c3c 7750 883d
000001e0: 7c8c 14b5 74f5 2b35 3d54 9eb5 0c46 23b5
000001f0: 08df e630 23ca ae34 d5a2 4335 2da6 3935
00000200: 19d4 5b35 4189 e1b3 f3ee a334 95ce f734
00000210: e97d 4f35 2d36 87b5 c043 13b5 0c49 e935
00000220: 0494 d9b4 47a1 8e35 eb84 5d36 25c4 5ab4
00000230: 7b6c f935 75e1 c337 45ac 9237 1c15 b6b9
00000240: 4dec 89bb dfcc 2337 aef0 343a 5246 b037
00000250: 73e2 b6bb d124 c6b4 790b 7a36 5ef1 2ab7
00000260: d970 32b6 5dc3 1936 7755 bbb6 91ec 1b37
00000270: 8193 d734 4e7e a4b6 96c7 b135 70a7 1038
00000280: cca4 45b6 1ff2 1835 8e2f 84b4 c7b1 7a35
00000290: 5f2e bd38 5e25 acb7 9757 0235 75ab 5436
000002a0: 2d9a 1736 2dfb 9236 c55e 8bb5 db48 24b7
000002b0: c1c0 b535 1d0c 1936 b1d0 f3b5 a9b5 bab7
000002c0: 01b2 67b7 46f5 14b5 cf8f b435 8278 25b6
000002d0: 1807 6e37 f73b 88b7 73f3 e735 fdb3 bfb9
000002e0: 9aa5 35bc 3eb2 11b4 a386 01ba 3825 cfb5
000002f0: a067 faba ff18 2e34 919a 4ab5 9256 9a36
00000300: 9f46 75b4 78d4 c435 3342 43b5 1f7f 15b6
00000310: a570 f6b4 a1f5 2535 0192 5fb7 5f61 f237
00000320: 8e53 84b5 4d04 d135 32ab 7fb6 58e6 ca36
00000330: d823 ec38 e349 06b7 f095 b8b6 8250 b5b7
00000340: 2e36 9936 d963 0637 c483 0037 3a33 dcb6
00000350: 231b c3b6 4f59 a133 428a 35b5 67ca 9e36
00000360: 2b6c 0e35 77b6 12b7 b52e 6436 3e1b b1b6
00000370: 639d 28b8 40b5 8e3b 3175 4a39 1de5 593c
00000380: c476 223e a16b 723c 0037 dc3b f74b 173d
00000390: 9678 1d3d a015 b73b ed97 9938 e5d8 853b
000003a0: 18da 8d3c 1702 3dbc c922 253a ef1b bb3d
000003b0: c485 103d 0b93 bab6 627a 623c 0e98 d83d
000003c0: bdf4 1637 820c ca39 8b32 a637 16df 5c3b
000003d0: 49eb ee3d e9c5 f53a ba6b 303b 4b81 d83c
000003e0: a630 5d3c 4f31 b33b 15e7 8336 f23b 06b9
000003f0: e12e a33b e3f3 fcbb 9d89 eeb7 3501 2f3d

encoder_var.4.bias f4 [16]
-0.012775367 -7.595133e-06 -0.006782546 -0.0153452745 -0.016454002 0.11457249 1.0099274e-06 -0.0037433219
-0.00010355649 -0.02072161 -0.007449755 0.13424507 0.108998604 -3.0638603e-05 2.959629e-07 0.005393183
00000000: c64f 51bc b2d9 feb6 1f40 debb bf6a 7bbc
00000010: 8bca 86bc fba4 ea3d d78c 8735 8552 75bb
00000020: 782c d9b8 5ec0 a9bc 131d f4bb 8a77 093e
00000030: a93a df3d f381 00b8 d5e4 9e34 4cb9 b03b

encoder_var.5.weight f4 [16]
-1.7662864e-05 -1.3532334e-06 6.4071726e-05 9.918897e-05 0.005489613 0.15308526 -7.554685e-07 0.0013686401
-2.854714e-05 5.921876e-05 -8.258671e-05 0.26802567 0.1829656 7.639831e-05 -5.1944457e-06 -3.861911e-05
00000000: b62a 94b7 bfa0 b5b5 3f5e 8638 ac03 d038
00000010: 36e2 b33b 62c2 1c3e 66cb 4ab5 f163 b33a
00000020: 8478 efb7 a961 7838 6732 adb8 a93a 893e
00000030: 565b 3b3e 0838 a038 f34b aeb6 f4fa 21b8

encoder_var.5.bias f4 [16]
7.353865e-07 -5.0680574e-05 -7.783409e-05 -0.00040583615 -0.0010911974 0.051281355 -1.9791197e-07 2.4645342e-05
0.00016975496 -3.4226003e-05 -7.288127e-05 0.078181006 0.04230917 -1.8081448e-05 -1.3801021e-05 -5.6377066e-06
00000000: 6067 4535 da91 54b8 dc3a a3b8 68c6 d4b9
00000010: 8206 8fba 660c 523d a181 54b4 78bd ce37
00000020: 4000 3239 e48d 0fb8 d5d7 98b8 5d1d a03d
00000030: 614c 2d3d 9dad 97b7 ef8a 67b7 882b bdb6
