generativecf/models/adult-fine-tune-size-75-upper-lim-10-age-good-cf-set/adult-eval-case-0-supervision-limit-100-const-case-0-margin-0.037-oracle_reg-8557.0-validity_reg-88.0-epoch-25-oracle-gen.pth (torch_old, 37228 bytes, 78 tensors)

encoder_mean.0.weight f4 [20, 30]
000000 d2 76 f6 be 04 63 91 be b2 a0 5b 3e b6 65 f6 bc
       -0.48137528 -0.28395855 0.21448019 -0.030077796
000010 25 52 3f be a0 a1 c3 be 9c 6f 8f bc b0 c5 7b 3e
       -0.1868368 -0.38209248 -0.017509274 0.2458713
000020 c4 a3 30 b2 39 86 3b 3d fb 14 e6 bd 99 11 c6 3d
       -1.0281784e-08 0.0457823 -0.112344705 0.09671325
000030 a8 6f 8c be eb 27 ec 3b cc 5f 2f bc a5 f3 a3 be
       -0.27428937 0.007206907 -0.010703992 -0.32021824
000040 04 54 fc 3d c3 2f 10 3e 20 c5 3a bc f1 37 9e bd
       0.12320712 0.1408072 -0.011399537 -0.07725514
000050 28 4b 24 bd 0c 3f 89 3e 5c 4a ed bd a0 4b 78 be
       -0.040110737 0.26805913 -0.115864486 -0.24247599
000060 08 18 ab bd 39 a5 0b be b9 d2 3d 3d a4 f5 a3 bd
       -0.08354193 -0.13637246 0.04634354 -0.080058366
000070 0a 31 10 3d 8d 14 4e 3c b9 0b 61 be 8d ba db bc
       0.035203017 0.012578142 -0.21977128 -0.026822353
000080 25 f5 28 be 5b 71 c1 bd 90 8f 2a 3d e4 91 c0 bd
       -0.16499765 -0.09445449 0.041640818 -0.094028264
000090 aa b1 62 bd 40 73 ca 3e 77 d3 ce b2 f7 e0 29 bc
       -0.055345215 0.39541054 -2.407772e-08 -0.010368577
0000a0 e8 50 57 bd 84 52 d6 3c 4f fc c7 bd 98 5d 92 be
       -0.052567393 0.026162393 -0.09764921 -0.2858703
0000b0 3b a0 f6 bd 6d b3 35 be 9c 0e 9e bc c2 98 2f 3e
       -0.1204228 -0.17744227 -0.019294076 0.17148116
0000c0 30 3c f1 bc d1 e3 59 3d 50 92 f9 bc 63 de 16 bd
       -0.029447645 0.05319578 -0.030465275 -0.03683318
0000d0 9a e2 cd bc 9a 1d c0 be 3d 81 15 bd eb 2a d9 bd
       -0.025132466 -0.37522584 -0.036500204 -0.10603889
0000e0 84 bb 54 bd 61 06 7b 3b 8d b4 38 be ea e1 ed 3d
       -0.05193664 0.0038303363 -0.18037625 0.11615355
0000f0 65 94 d0 bd 7f 69 fe bc f2 7b c4 3d 1f 63 bc 3b
       -0.10184554 -0.031056164 0.09593953 0.005749121
000100 fa a9 a8 bd a9 01 20 be 76 10 a4 bc 02 a1 67 3d
       -0.082355455 -0.15625633 -0.02002738 0.056550033
000110 dd da 83 31 8f 0a ec bd d1 0a 74 bc ac 4e 2a 32
       3.8374837e-09 -0.115254514 -0.014895157 9.91319e-09
000120 e7 0a 0b 3d 80 ad 3f 3d bb 90 a5 3d fb 8f ea bd
       0.033945944 0.046796322 0.08084246 -0.11453243
000130 1b 04 ce bd fd 8b bc bc 99 13 6a 3b 67 e8 38 3c
       -0.10059377 -0.02301597 0.0035717248 0.011285878
000140 5f 01 17 bd 66 17 0b be 2a 42 88 b2 85 94 09 bc
       -0.036866542 -0.13583145 -1.5862572e-08 -0.008397226
000150 16 75 53 bd 2d f4 5f 3c 08 59 26 be fc 03 be bc
       -0.051625334 0.013669056 -0.162449 -0.02319526
000160 3f 5d e5 bd 8f c1 a9 bd a1 48 92 bf 0b e4 8f bd
       -0.11199426 -0.082888715 -1.1428415 -0.070259176
000170 8a aa 15 3d 3a 4e de bc de 13 99 bd a7 99 30 bd
       0.03653959 -0.02713691 -0.074744925 -0.043115284
000180 fb 30 4e 3e e7 82 13 ba 65 67 49 32 e0 30 5b bc
       0.20135872 -0.0005627111 1.1723249e-08 -0.013378352
000190 77 34 ca 3d ad d6 e9 3d 31 5c 80 bc 11 f2 8b 3d
       0.09873288 0.11417899 -0.01566896 0.0683328
0001a0 93 c7 f5 3d ae f3 e6 3d 3e 96 c6 3d d4 37 9b 3d
       0.120009564 0.11276947 0.09696625 0.07579008
0001b0 15 f4 7c bd 9c 0a 67 3d 31 f1 71 bd c4 10 3c bd
       -0.061756212 0.056406602 -0.05906791 -0.045914426
0001c0 08 ad 05 3d 02 ad 1f 3d d7 51 94 3d 99 33 18 3d
       0.03263572 0.038983352 0.07242172 0.037158582
0001d0 0a 9d fa 3d 8b 71 9e 3c 36 c3 9b 3c 82 97 4a 3e
       0.12236984 0.01934125 0.019013982 0.19784358
0001e0 a2 31 bd 3e 24 4a 85 3d 22 06 74 3b 04 8c 69 bc
       0.3695193 0.06508282 0.00372351 -0.014254574
0001f0 e3 87 b0 bc ac 70 9d bb 6b c2 d9 bc de 7b 04 ba
       -0.02154917 -0.0048046913 -0.026581964 -0.0005053858
000200 ad 6c c6 b2 dc 42 2c bd 32 97 e2 bc 69 e1 e7 b2
       -2.3099654e-08 -0.04205595 -0.027659986 -2.6994444e-08
000210 e0 90 8b bd 01 d8 12 bd 55 5e b6 3d e6 5a 0f 3d
       -0.06814742 -0.03585053 0.08904711 0.034998797
000220 60 61 a5 36 31 e8 cc b2 bc 66 14 3c ac 31 98 3c
       4.928719e-06 -2.3854314e-08 0.009057697 0.018578373
000230 c5 cc 11 bd 90 76 0f bb 8e 5f a7 31 e2 bc 9e bd
       -0.035595674 -0.0021890737 4.871203e-09 -0.0775087
000240 9b ea 03 bd 50 88 53 bc 8d a2 de bc d6 96 8b bc
       -0.03220616 -0.012910917 -0.02717712 -0.017039698
000250 a5 cd 58 bd fb 74 fe bd f4 54 0d 3f c7 dc b4 3d
       -0.052930493 -0.12424656 0.55207753 0.088311724
000260 32 4e 87 3e 7c 82 d2 bd ab 13 9f bc 19 d0 4a be
       0.26426846 -0.10278794 -0.019418558 -0.19805945
000270 3b da 60 bd 12 9d 5f 3e 95 0c e8 32 96 3b b1 bd
       -0.05489562 0.21837261 2.7014076e-08 -0.08653943
000280 07 4a 1f bd f2 ee ef bc 58 33 a7 bd 86 d3 56 bd
       -0.038888957 -0.029288743 -0.0816409 -0.05244782
000290 90 03 48 be 1a ef ae 3d 43 15 9c 3e 66 f3 39 be
       -0.19532609 0.08541699 0.3048497 -0.18159255
0002a0 d3 14 3f bd e9 e8 09 3b 78 60 d1 bd 58 73 46 3e
       -0.04665072 0.0021043366 -0.10223478 0.19379938
0002b0 6c f4 23 be 74 99 07 be 17 bb 3b 3e db d0 28 3e
       -0.16011208 -0.13242131 0.18333088 0.16485922
0002c0 0a 3a bd be 6d fb 4e bd 5b ed 14 be 00 42 49 be
       -0.36958343 -0.050532747 -0.14543669 -0.19654083
0002d0 66 61 a4 be 8d 0e 86 bf 1d 69 20 3d e3 f8 76 3b
       -0.3210556 -1.047319 0.039162744 0.003768497
0002e0 4d 52 01 3d bb 03 e2 3c 19 aa 3f bc 1f 86 58 bd
       0.03157263 0.02758967 -0.011698269 -0.052862283
0002f0 eb 6b 4e 30 1a 36 bf bd c2 5a 80 b1 2e 5b df 30
       7.5095724e-10 -0.09336491 -3.7356083e-09 1.62513e-09
000300 eb d2 36 bd 79 d0 9e bc 4f 88 11 3d ea 3e 09 bd
       -0.04463474 -0.019386517 0.035530385 -0.033507265
000310 b5 2b 4b 3c 7f d2 62 bd 80 fc 38 3d 0c 0a 5f bc
       0.012400557 -0.055376526 0.045162678 -0.013613235
000320 1a b7 4e bd 9e 81 8a 3b a0 a4 be 31 19 e7 98 bd
       -0.050467588 0.0042268774 5.5484435e-09 -0.074659534
000330 2c 8b 7b bd e7 a6 b2 3b 1c 43 63 bd 53 ec 55 bd
       -0.06141202 0.005452025 -0.055483922 -0.05222733
000340 7c b9 20 3c b7 33 34 3d 36 06 d1 3c 67 77 03 3e
       0.009809848 0.04399463 0.025515657 0.12838517
000350 75 85 42 bd 12 c3 c3 b9 85 34 eb bd 22 60 36 bd
       -0.047490556 -0.00037338637 -0.11484627 -0.044525273
000360 27 82 dc b2 5b 8b a1 3b 02 2f 92 32 c6 05 e5 bc
       -2.5670557e-08 0.0049299425 1.7018014e-08 -0.027956855
000370 ee c0 6d 3c d5 ee a4 b1 89 ad c4 ba 23 f9 54 bc
       0.01451133 -4.8001803e-09 -0.0015005331 -0.012998852
000380 7e 47 89 3c 3b a7 c3 bc 9d 63 e5 b7 5f 67 2a b4
       0.016757723 -0.023883453 -2.7345313e-05 -1.587009e-07
000390 7e ef 28 32 ae 59 69 bd 5e d7 94 bd 2e 05 97 3c
       9.833341e-09 -0.05697029 -0.072676405 0.018435087
0003a0 c9 30 22 3d 63 a6 9e bc 93 a9 cf bb 8f f3 10 be
       0.039597306 -0.019366449 -0.0063373535 -0.1415541
0003b0 e7 b0 1d be f6 a1 0f bd 0b 85 ca bd 4f 92 93 be
       -0.15399514 -0.035066567 -0.09888657 -0.28822562
0003c0 f5 37 c8 3e 87 94 07 be 05 16 12 3e 3a 47 73 be
       0.39105192 -0.13240252 0.14266212 -0.2375764
0003d0 de 50 cb bc 44 dc 31 3d 6e 8e 4b 3e 0b 76 70 be
       -0.024818834 0.043422952 0.19878551 -0.2348253
0003e0 ec 87 54 33 0d 22 55 bc dc 93 cb bd 01 d8 75 bd
       4.9483717e-08 -0.013008607 -0.09940311 -0.06002045
0003f0 86 d3 1f 3e eb eb 8c 3e 17 2e 28 3e b2 36 99 be
       0.15608034 0.2752374 0.16423832 -0.29924542

encoder_mean.0.bias f4 [20]
000000 5a 4d 8b bd 91 74 de bd 07 20 98 bd aa 2f 3e 3d
       -0.06801863 -0.10862077 -0.07427984 0.046432175
000010 98 a8 3c bd 87 f0 55 bd c4 35 d5 bd af 3e d6 bd
       -0.04605922 -0.052231338 -0.104106456 -0.10461175
000020 a9 f0 02 bd b7 2f 63 bd e2 09 8c bd 51 a6 9c bc
       -0.031967793 -0.055465426 -0.068378225 -0.019122275
000030 8c 55 f8 3c 04 41 62 3c 87 54 97 bd ec d3 26 bd
       0.03031423 0.013809446 -0.07389169 -0.04072945
000040 31 00 b0 3d 0e 85 96 bd 5e 13 f6 3c f3 17 80 bd
       0.085937865 -0.07349597 0.030038532 -0.06254568

encoder_mean.1.weight f4 [20]
000000 5a 57 5d 3e 02 95 d7 3e 8c 85 83 3e 05 ce 80 3f
       0.21615353 0.4210587 0.25687826 1.0062872
000010 75 7a 9f 3e e2 3c ff 3e 4d 70 37 3f d4 87 c6 3e
       0.31148115 0.49851137 0.7165573 0.38775504
000020 7d a5 de 3e 6c 97 78 3f 15 d7 94 3e b9 4d 3f 3f
       0.43485633 0.9710605 0.29070345 0.7472797
000030 3e d0 cb 3e 49 a4 3d 3f d9 d4 f1 3e 8d f3 3f 3f
       0.39807314 0.74078804 0.47232702 0.74981004
000040 84 35 43 3f 30 7b 45 3f b6 bf 24 3f 89 84 2f 3e
       0.76253533 0.77141094 0.6435503 0.17140402

encoder_mean.1.bias f4 [20]
000000 c2 95 aa bd 85 eb 0c be 14 c2 0c be 4b 47 13 bb
       -0.08329345 -0.13761719 -0.1374591 -0.0022472914
000010 b1 a7 ea bd ce a1 2f bd 0c e6 c5 bd 08 b2 01 be
       -0.11457766 -0.04287892 -0.096630186 -0.1266557
000020 26 61 a6 bd f6 36 97 3e a2 eb a6 3d af ae bc 3e
       -0.08123998 0.2953412 0.08150412 0.36852023
000030 24 f5 bc bd ec b2 63 3e 70 80 1a be 99 24 49 be
       -0.09226444 0.22236222 -0.15088058 -0.19642867
000040 dc f7 67 3e 74 6a 4e be 4b e2 c0 3d 93 ef 4b be
       0.22653145 -0.20157796 0.09418162 -0.19915609

encoder_mean.1.running_mean f4 [20]
000000 a0 bb 85 bd 6f eb d7 3d e4 7e 1c bd 6b 5f 69 be
       -0.06529927 0.10542952 -0.03820695 -0.22790305
000010 53 15 a3 3e 2c 8f d7 3d 0b ce 46 be 60 be e1 bd
       0.31852207 0.10525355 -0.19414537 -0.11022639
000020 99 93 2d bd f2 41 4d 3f 61 10 fb 3e 76 f5 41 bc
       -0.04237709 0.8017875 0.49035934 -0.011838308
000030 a6 6c 05 3e 67 a5 90 3e ff 1c d5 3e c5 f4 a4 bd
       0.13029727 0.28251192 0.41623685 -0.080544986
000040 15 1b eb bd a9 3f 19 be 21 9d 9a 3d 9d 6e 05 3f
       -0.11479775 -0.1496569 0.07549501 0.5212191

encoder_mean.1.running_var f4 [20]
000000 df df 9c 3c ff f6 4e 3d 81 5a 07 3d 84 8c 6a 3c
       0.019149719 0.050528523 0.033045296 0.014315728
000010 1c 02 3f 3c 16 93 9b 3c 98 99 73 3c 4c fa da 3c
       0.011658218 0.018991034 0.014868163 0.026730679
000020 3b f2 03 3d 3a 24 94 3c 00 8e 37 3c ba b6 91 3c
       0.03221343 0.01808368 0.011203289 0.017787326
000030 65 f0 b4 3c b8 e1 6d 3c 7a 27 f5 3c 9f b4 4b 3c
       0.022087285 0.014519148 0.02992605 0.0124332
000040 f1 8b a6 3c 9d 69 a2 3c aa 93 a0 3c 93 23 10 3d
       0.020330401 0.019825751 0.019601662 0.035190176

encoder_mean.4.weight f4 [16, 20]
000000 77 0a b8 3d 20 2d 31 3d 64 e9 27 3d 28 0b a9 3e
       0.08986371 0.043255925 0.040994063 0.33016324
000010 a4 b7 84 bb 56 0e 1d be f4 c7 ff 3d eb 77 15 bd
       -0.004050212 -0.153375 0.1248931 -0.036491316
000020 05 3e 0c be 53 a1 b5 be 3f da ec bd 9d b2 83 be
       -0.13695534 -0.35474643 -0.11565065 -0.2572221
000030 4e 2c ec 3d e3 21 9b be 94 9a 2b be fd 06 8d bc
       0.11531888 -0.3029929 -0.16758186 -0.017215246
000040 50 76 a9 3e 31 85 94 bd f6 ba 6d bd 6e 38 9f bc
       0.33098078 -0.07251967 -0.058039628 -0.019436087
000050 3d 44 1e be 1f bb 4c 3c a9 05 15 3c 57 d3 9d be
       -0.15455718 0.012495785 0.009095588 -0.30825302
000060 35 f6 4e 3d ec a7 00 3e fa 81 7d be 10 91 c7 bd
       0.05052777 0.12564057 -0.24756613 -0.09744465
000070 44 89 a7 3d 8d 32 c6 3e 63 20 57 3d c3 5a 5f 3e
       0.08180478 0.38710442 0.05252112 0.21811967
000080 90 6d 11 be cc 48 9e 3e c8 1b 91 3e 28 6c 37 be
       -0.14201951 0.30914915 0.28341508 -0.17912352
000090 f0 ec 7c be 37 c8 59 3c bf 99 8a 3e f7 51 70 bc
       -0.2469976 0.013292364 0.27070424 -0.014667979
0000a0 61 33 cf bd bc cd b9 bd 2d 65 c2 3d fe fa 9a bb
       -0.101172216 -0.09072444 0.09491954 -0.0047296276
0000b0 50 82 d6 3d e8 12 35 be 4c 91 64 3e 8e 63 f6 bc
       0.10474074 -0.17682993 0.22321051 -0.030076768
0000c0 96 6d 57 bd ba aa 23 bc 4c 48 8d bc 00 ac 1a 3e
       -0.052594744 -0.009989435 -0.017246388 0.15104675
0000d0 5b 81 9b 3d 84 91 b2 3d 95 e1 b4 3d 62 fe 9b 3e
       0.07593032 0.08719161 0.08832089 0.30467516
0000e0 43 0c 3a be 6c 75 03 3e 26 bb 06 3e 43 e5 11 3b
       -0.1816874 0.12837762 0.13157329 0.0022261895
0000f0 1c 7e b9 bc 11 fa 59 bd 84 f6 56 bd 85 21 21 be
       -0.022643141 -0.053216998 -0.05248119 -0.15735443
000100 40 74 dc bc a1 91 fb bb f1 44 e9 bd 54 99 7e bb
       -0.026910901 -0.0076772724 -0.11390103 -0.0038848715
000110 98 7d ca 38 e2 bc a0 bd 7d 9a b9 3d af 14 67 bd
       9.655504e-05 -0.078485265 0.090626694 -0.05641621
000120 6d 48 31 bd 8f 2e 2b bd 9a de 5e b9 dd 2f d7 bd
       -0.04328196 -0.04179245 -0.00021254495 -0.10507176
000130 dc db 21 37 57 b2 be 3e fd c3 4a 3c 36 a1 b5 bd
       9.647538e-06 0.37245438 0.012375829 -0.08868639
000140 79 45 65 be 6d 07 30 be e2 5a cc bc 83 e8 84 bd
       -0.22389783 -0.17190333 -0.02494568 -0.064896606
000150 95 07 38 3c f7 6d e1 bd 58 ac 20 be 56 46 32 3c
       0.011232276 -0.11007302 -0.15690744 0.010881027
000160 42 82 5c bd df a3 4d be 6f 11 73 bc 8a fe 3a be
       -0.05383516 -0.20082043 -0.014835699 -0.18261161
000170 53 28 82 3d de a2 67 be 2e 5e e6 bd ae 5c aa bd
       0.063553475 -0.22620723 -0.11248432 -0.083184585
000180 f2 68 fc 3d 29 c2 4b bc 23 b8 3c 3d 0e cd 67 3a
       0.12324704 -0.012436428 0.046074044 0.0008842506
000190 91 c0 ae bd 12 e0 17 be ea fd ad bd 88 1a c9 bd
       -0.08532823 -0.1483157 -0.08495696 -0.098195136
0001a0 16 99 d0 3c b3 5e cd bc 91 8f 21 bb f7 a4 25 3e
       0.025463622 -0.02506957 -0.0024652223 0.1617621
0001b0 b3 34 bc bb db 1a 37 3b 6b 11 c0 3d 65 be 1f bd
       -0.005743587 0.002793959 0.09378322 -0.038999934
0001c0 27 f9 12 bc e5 06 0b be 39 43 ba bd 26 07 fc b2
       -0.008970535 -0.13576849 -0.09094853 -2.9339912e-08
0001d0 82 8a e0 3c 6f 42 ac 33 0c 91 f6 3c 59 12 83 39
       0.027409796 8.021458e-08 0.03009846 0.00024999937
0001e0 ad b5 86 bd a1 d2 aa 3d cf 07 6d bd ee 6e c2 3d
       -0.06577621 0.083409555 -0.057868775 0.094938144
0001f0 a2 ef 87 bb ca 4e 45 b8 91 3d 31 3d 42 bf ed 31
       -0.0041484395 -4.7041838e-05 0.043271605 6.9193513e-09
000200 5b c1 cd 3c 23 5c b6 bd 95 8d 16 be eb 55 ca bd
       0.025116613 -0.089042924 -0.14702447 -0.09879669
000210 71 16 9c bd 57 02 ca bd 55 30 40 bd 45 ad 25 3e
       -0.07621468 -0.098637275 -0.046921093 0.16179378
000220 ce 6f b3 bd fb 20 8e 3c 8d 67 8e bd 1c 71 5d 37
       -0.087615594 0.01734971 -0.069533445 1.3198962e-05
000230 11 7b 86 3d a4 a7 84 3c b7 80 99 3d fd 12 72 3e
       0.06566442 0.016193219 0.074952535 0.23640056
000240 16 cb 7e bd fb b1 c8 bd 8a a9 45 bd 23 08 a9 3d
       -0.062205397 -0.09799572 -0.04825739 0.08253505
000250 1c bd ef bd bf b2 a7 be 95 4c 15 bd 86 7e be bd
       -0.117059916 -0.3275356 -0.036449987 -0.09301476
000260 74 7c 1b 3e db c0 b9 be c9 5f 81 be 98 29 c3 bd
       0.15184194 -0.3627995 -0.2526839 -0.09529418
000270 49 d0 8f 3e ce e8 ba bc d7 55 dd bd 7d 97 2f 3d
       0.28088596 -0.022816088 -0.10807388 0.04286908
000280 7a 81 7a bb 65 df b4 3d c8 09 48 bd b9 80 7f be
       -0.0038224147 0.088316716 -0.048837453 -0.24951448
000290 e8 18 9e bc e1 29 0f 3e 14 09 ac 3e 47 47 ee 3d
       -0.019298986 0.1398082 0.33600676 0.11634689
0002a0 e1 e3 09 3e ad 12 b7 3e f5 93 46 3d 35 25 ae 3e
       0.13465835 0.35756436 0.048480947 0.34012762
0002b0 8f 1a e4 bb c0 0c 85 3e e5 a0 b8 3e 1d 6d a9 3e
       -0.006961174 0.2598629 0.36060253 0.3309106
0002c0 93 0a 64 be 38 a1 08 3e 34 25 38 3e 96 ba 76 3d
       -0.22269659 0.1334275 0.17982942 0.060236536
0002d0 07 6f a6 bd 1a 3f ef 3d 11 f3 df 3d 83 25 92 be
       -0.081266455 0.116819575 0.10935033 -0.28544244
0002e0 c0 48 0b bc 07 89 b8 bb e4 e3 32 be 67 04 da 3d
       -0.008501232 -0.0056315693 -0.17469746 0.10645371
0002f0 95 64 30 3e a1 ec d0 3e 8d 6f 8e 3b 84 a8 c2 bc
       0.17225869 0.40805534 0.004346794 -0.023761995
000300 96 24 d3 bc dc 69 a4 3e 8e 06 86 3e d2 50 63 bc
       -0.025774281 0.32112014 0.26176876 -0.0138742495
000310 be e8 ab bd f6 22 ae bd 57 59 a0 3e b4 83 7f bb
       -0.083940014 -0.08502762 0.3131816 -0.0038988413
000320 79 77 d1 3d 25 89 e4 3d 83 19 3b 3d 4f e9 9d 3e
       0.10227866 0.11158971 0.045678627 0.30842063
000330 0b 80 27 3c 89 82 ec bd 8b 81 1d 3e 71 0c b1 bb
       0.010223399 -0.11548335 0.15381448 -0.0054030945
000340 4e 6e ea bd 18 e8 d3 be 28 55 b0 bd 80 c8 92 be
       -0.1144682 -0.4138801 -0.08609992 -0.28668594
000350 4e 03 14 3e 90 fe af be 85 37 56 be 56 56 aa 3c
       0.14454386 -0.34373903 -0.20919617 0.020793121
000360 6f 4c cd 3e 33 73 ac bd 4e c1 b5 bd d4 99 11 bd
       0.40097377 -0.0842041 -0.088747606 -0.035547093
000370 2a 82 15 3e 4d 66 d8 3d f9 f6 0d bc a1 9c 20 3e
       0.14600435 0.10566387 -0.00866484 0.15684749
000380 67 d7 98 3d 00 d2 e1 bd 67 d0 e3 bc 63 05 cc 3c
       0.0746296 -0.110263824 -0.027809335 0.024904912
000390 b0 33 dd bd 02 b1 8c be 8f 3a 86 3d d5 9c 28 be
       -0.10800874 -0.27478796 0.06554138 -0.16466077
0003a0 15 6e 70 3d 99 1a 8e be 46 02 dc bd 7c ee b7 bd
       0.058698732 -0.27754667 -0.10742621 -0.08981034
0003b0 3d 20 59 3e d1 89 81 34 fd af 10 be b3 33 0f 3d
       0.21203704 2.4128397e-07 -0.14129634 0.034961414
0003c0 de a7 fd bd 0c e8 09 3c 3e 5a 28 bd 37 a9 92 be
       -0.12385534 0.008417141 -0.041101687 -0.28644726
0003d0 9a 98 5d bd 20 64 b8 bd 00 82 88 bd 98 9b 7d bc
       -0.05410061 -0.09003472 -0.066654205 -0.015478991
0003e0 6c 46 12 be d2 8b d7 bc 54 79 02 bd 89 4f 2e be
       -0.14284676 -0.026311789 -0.03185399 -0.17022528
0003f0 d3 40 c1 bd 90 29 b5 bd c6 e1 e9 bd b6 59 ae 3d
       -0.09436192 -0.08845818 -0.11420016 0.08513205

encoder_mean.4.bias f4 [16]
000000 96 84 16 3d b5 e1 f0 bc 26 dc 59 bd 44 f1 42 bd
       0.036747538 -0.0294045 -0.053188466 -0.04759337
000010 d0 84 29 be a0 dd 33 bd 8c d4 d7 bd 4f c8 3b bc
       -0.1655457 -0.04391253 -0.10538587 -0.0114613315
000020 53 1c 5b 3d bd d9 9a bc f4 8c 20 3d 29 02 e3 bc
       0.05349381 -0.018902654 0.039196923 -0.027710991
000030 82 89 24 be 47 76 be 3c 49 61 9e 3b 4e 24 c4 bd
       -0.1606808 0.023249758 0.0048333746 -0.09577237

encoder_mean.5.weight f4 [16]
000000 87 05 2f 3f bb e8 3f 3f 4d 98 a2 3e 63 d7 f1 3e
       0.6836781 0.74964494 0.3175682 0.4723464
000010 4f 44 be 3e a0 f0 00 3f 16 5b 0a 3f f1 72 12 3f
       0.3716149 0.50367165 0.54045236 0.57206637
000020 8c d3 32 3f 26 c3 dd 3e c5 fd 53 3f 7a 18 11 3f
       0.69854045 0.4331295 0.82809097 0.56677973
000030 71 a7 e9 3e 78 43 34 3f e1 35 ff 3e 85 c4 6e 3e
       0.4563556 0.7041545 0.49845794 0.23317154

encoder_mean.5.bias f4 [16]
000000 f5 38 73 3d 67 37 02 3e 76 5b 04 3e 6b 46 84 3b
       0.05938049 0.12716447 0.12925515 0.004036715
000010 4c 1d 0b be 91 73 49 bd bd 67 f1 bd db 6a 94 3d
       -0.13585395 -0.04918248 -0.11787365 0.072469436
000020 6c 4e e2 3d f5 67 02 3e 82 da 87 bc 1a 86 84 3d
       0.11050114 0.12734969 -0.016583685 0.0647089
000030 41 10 48 be 84 75 5b be 7b 12 12 3e 5f 6e 0b be
       -0.1953745 -0.21431547 0.14264862 -0.13616322

encoder_mean.5.running_mean f4 [16]
000000 37 d4 87 be 36 3a c2 3d fa 3c 89 3e 08 d2 dd bc
       -0.26529095 0.09483759 0.26804334 -0.02707769
000010 b7 81 4d bc 87 82 99 3d f3 fa 9a 3e 7b 90 1f be
       -0.012543133 0.07495599 0.30269584 -0.15582459
000020 0c b1 9a 3e 86 c0 5b 3e 6b 14 90 be 6c 7e b3 bd
       0.302132 0.2146016 -0.28140578 -0.087643474
000030 82 47 7e bc 85 17 93 be c1 b1 3f 3e f3 a5 ba bd
       -0.0155199785 -0.2872888 0.18720151 -0.091136836

encoder_mean.5.running_var f4 [16]
000000 8b 79 46 3e 23 f2 24 3e b3 78 8e 3e 9b 67 94 3d
       0.19382302 0.16107993 0.2782646 0.07246324
000010 b7 2e 36 3e a4 df d9 3d ae 00 27 3e cd d2 19 3e
       0.17791258 0.10638359 0.16308853 0.1502182
000020 be 81 92 3e 6f b5 92 3d 0a bc a1 3e 73 e2 ee 3d
       0.2861461 0.07163512 0.31588775 0.116642855
000030 d7 10 ea 3d b6 3c 93 3e 64 06 9a 3e fb 3a 77 3d
       0.11428993 0.28757256 0.30083 0.060358983

encoder_mean.8.weight f4 [14, 16]
000000 bd 25 a6 3e 51 1c 7b be 34 04 89 3d d0 b1 db bd
       0.32450667 -0.2452252 0.06690255 -0.107272744
000010 f2 b9 a4 bc ca dd f4 bd d0 74 e9 3d 97 16 24 3d
       -0.020108197 -0.119563654 0.11399233 0.040060606
000020 72 64 88 be 9b 84 33 be 9a d1 88 3e 50 73 b8 bc
       -0.26639134 -0.17531054 0.26722413 -0.022515923
000030 48 65 cd bc e7 f3 5d 3e 2a 30 4b bd e7 02 f9 bd
       -0.025072709 0.21675073 -0.04960648 -0.12158757
000040 f2 53 18 be 11 a0 93 3e 87 f2 a1 3c 51 d5 14 3e
       -0.14875773 0.28833058 0.019768966 0.14534499
000050 e4 90 56 3e 83 ca 77 3c 68 1c 1f 3c 22 fb 02 3e
       0.20953709 0.015123966 0.009711362 0.12791112
000060 38 a0 3f 3e f5 a4 8f 3d f1 f0 a1 3d 61 02 54 bd
       0.18713462 0.07013885 0.07907284 -0.05176008
000070 6e 41 01 3e a8 de 05 3e 85 e7 89 3d 20 34 98 3b
       0.12622616 0.13073218 0.06733612 0.0046448857
000080 f8 9b 77 3e 83 22 70 be d1 60 09 3e 82 50 00 be
       0.24180591 -0.23450665 0.13415839 -0.12530711
000090 27 32 ed 3d 7f 75 07 3d db 0c b8 3d 01 a6 66 3e
       0.115818314 0.033071037 0.08986827 0.22524263
0000a0 2d 02 5a be a9 89 1c be b2 ec 52 3e 04 94 1c 3d
       -0.21289892 -0.15286888 0.20598105 0.038227096
0000b0 79 bf cf 3d b7 1e 6a 3e 97 10 21 3e c9 3f 30 be
       0.101439424 0.2286328 0.15728985 -0.17211832
0000c0 9d e4 53 be b9 7e bb 3d 4b f3 a3 bd ab fa 87 3a
       -0.20692678 0.0915503 -0.08005389 0.0010374387
0000d0 ef f1 c1 bd b8 14 82 3d 29 b9 e3 39 70 cb 3e be
       -0.09469973 0.06351608 0.0004343477 -0.18632293
0000e0 d9 79 e6 3c e4 28 f0 3c 44 24 bb be 17 39 29 be
       0.028134273 0.029316373 -0.36551106 -0.16525684
0000f0 ac 37 b0 bd d4 41 1a be f7 cc 24 be 93 b5 6e bd
       -0.086043686 -0.15064174 -0.16093813 -0.05827863
000100 0b df 3c be b3 dd d0 3d 59 22 0f 3e 15 3e e8 3c
       -0.18444459 0.10198536 0.13977946 0.028349916
000110 9a 20 67 3b 67 57 15 3d ee 77 9c 3d 8a 43 13 be
       0.0035267235 0.036460306 0.07640062 -0.14381233
000120 bf cb 53 3e 60 a4 47 3e fe bf a5 be be c8 77 be
       0.20683192 0.19496298 -0.3237304 -0.24197671
000130 b5 81 42 3d 0e 4d 91 be 01 38 04 3e 39 cc 0c 39
       0.04748698 -0.283791 0.12911989 0.0001342752
000140 b9 8a 77 3e 78 28 75 be 46 4d dc bd fb 35 8b b3
       0.24174012 -0.23941219 -0.10756926 -6.482511e-08
000150 33 50 39 3e ab 54 a6 3b cf 2a 5a bb cd 3c 23 3e
       0.18097 0.005076011 -0.0033289676 0.15941162
000160 10 dc 41 be 47 9c 03 be b2 ce 91 3e 1f 37 46 3e
       -0.18931603 -0.12852584 0.28478009 0.19356965
000170 5b 7a 1e 3e a8 6e 14 3e 91 1c 95 bd c4 6f 49 bd
       0.15476362 0.14495337 -0.07280839 -0.049178854
000180 ee 1d 8a 3e e1 f4 48 be 77 2f d8 bd 80 1a 50 32
       0.2697596 -0.19624664 -0.10555928 1.2113219e-08
000190 df ed 1f bc df b6 31 bd 44 60 e4 bb 3f d2 4e 3e
       -0.009761303 -0.04338729 -0.0069694836 0.2019739
0001a0 56 75 6b be 2f 3f ea bd 03 93 60 3e 2f 61 48 3d
       -0.22993979 -0.114378326 0.2193108 0.048920806
0001b0 6b 09 d9 3d df 25 4a bb 7c a3 f8 bd ec eb 34 3d
       0.105974995 -0.0030845327 -0.12140557 0.044170305
0001c0 64 08 94 3d 87 4a 84 be 52 b4 16 bd 15 1b ee 3d
       0.07228163 -0.2583811 -0.03679306 0.11626259
0001d0 34 e6 30 be 64 0d d0 bc 16 03 5e 3d c3 85 55 be
       -0.17275316 -0.02539701 0.05420216 -0.20851807
0001e0 28 52 b5 bd 11 b0 95 be 6f 12 a2 3d 34 cd 27 be
       -0.08853561 -0.2923589 0.07913672 -0.16386873
0001f0 0a 3c 76 3e 14 02 95 bd 22 a6 1a be 75 9a fa bc
       0.2404634 -0.07275787 -0.15102437 -0.030591229
000200 48 9c 29 36 ee 3f ce 3d b4 b2 02 bb 26 1d c7 bb
       2.527393e-06 0.10070787 -0.001994294 -0.006076473
000210 00 98 78 3d d7 b3 01 3e 3a 27 cb 2f a0 0f 87 39
       0.060691833 0.1266626 3.6953357e-10 0.00025760848
000220 cc 1f ee bc 2b de 89 bd c8 43 50 b7 43 b2 ab b9
       -0.029067896 -0.06731828 -1.2413548e-05 -0.00032748477
000230 8f 0e ab 34 c5 fd 8b 32 ee 3c be bb 58 5f 1f b7
       3.1861825e-07 1.629713e-08 -0.005805603 -9.4993375e-06
000240 d0 da 92 be 4c 07 16 3e 9a 43 f6 3d 9d 93 74 3e
       -0.28682566 0.14651221 0.12024613 0.23884435
000250 79 37 02 be 21 81 c6 3d 32 96 cc 3d 9f 6d 8c be
       -0.12716474 0.09692598 0.09989585 -0.27427384
000260 f7 65 42 3e 99 e3 19 3e 8b ab 5a be 9c fe 8a be
       0.18984209 0.15028228 -0.21354501 -0.27147377
000270 8f 6c 8d 3d 4c bb 2b be 64 58 0b 3e 5a cf 3e bc
       0.069054715 -0.16770667 0.13607937 -0.011646116
000280 83 d6 9e be bd e0 2f 3e 86 81 4a 3d c7 0a 7e 3e
       -0.31023034 0.17175575 0.04943993 0.24808799
000290 ec 10 ee bd 2f 34 87 bb 6d f3 19 3d aa 95 2b be
       -0.11624321 -0.004126094 0.037585665 -0.16756311
0002a0 1c 43 80 3e e6 a8 d2 3d 2f ed 8a be f8 06 6f be
       0.250512 0.10286121 -0.27134082 -0.23342502
0002b0 f2 ec e2 3b 3c 60 5d be 7f 17 91 3e 7e d4 ac 3d
       0.0069252187 -0.21618742 0.2833824 0.08438967
0002c0 3c 41 8d 3e 54 0f 8d be 3c 64 09 be 81 46 5d b3
       0.27588832 -0.27550757 -0.13417143 -5.1519695e-08
0002d0 c0 6c dc 3d fe 8a a1 bd 5c 0c 4d bd dd 60 d3 3d
       0.1076293 -0.07887839 -0.050060615 0.103212096
0002e0 1f ab 8c be 54 9c 1a be 9e ba a8 3e e9 49 18 bb
       -0.27474305 -0.15098697 0.32954878 -0.0023237413
0002f0 93 65 20 3e 9f 2d 09 bd 2b 5f 22 be 79 fc d1 bd
       0.15663747 -0.033490773 -0.15856616 -0.102532335
000300 3f 98 70 3e 4a 11 b1 be 6a 2b f8 bb ca 93 8b bc
       0.23495577 -0.34583503 -0.0075735347 -0.017038245
000310 41 19 32 3e 39 01 75 bd 75 fc a0 3d 53 c7 18 3e
       0.17392446 -0.05981562 0.07860652 0.14919786
000320 dd 49 7e be 30 c3 e5 bd 81 2b 7d 3e 8b fe 33 3e
       -0.24832864 -0.1121887 0.24723627 0.17577569
000330 53 2c 0b 3e 8d dd 3a 3e b4 ea 3f bc da 8a 06 bd
       0.13591127 0.18248577 -0.011713672 -0.032847263
000340 57 2a f1 bd 28 e6 52 bd f4 bf fe 3d dc 98 50 be
       -0.11775654 -0.051489025 0.12438956 -0.20370811
000350 34 4f 21 be 4f c2 76 bc ba 24 8b bd 3f 7a 90 bd
       -0.1575287 -0.015060975 -0.067941144 -0.070545666
000360 fd 56 1e 3e 62 10 cc bc 2d 40 38 be 68 5c 90 bc
       0.15462871 -0.024910156 -0.17993231 -0.017622188
000370 22 84 3a be 6a f2 31 3d ad 77 87 bd 96 8a 45 3d
       -0.18214467 0.043444075 -0.06614623 0.04822787

encoder_mean.8.bias f4 [14]
000000 45 49 95 bc 73 1f 6f bc 59 e9 52 3d 6d ed 16 3c
       -0.018223414 -0.0145949 0.05149207 0.00921188
000010 ac cb 85 3d 8d 70 6c bb a5 fb b7 3c b7 32 92 3c
       0.06532988 -0.0036077828 0.02245886 0.017846448
000020 29 e4 2d bd 78 e5 b4 3c 07 08 2d 3d 60 76 c5 bc
       -0.04245392 0.022082075 0.042243984 -0.024104297
000030 66 86 3f ba 83 a9 97 3c
       -0.00073060987 0.018513447

encoder_mean.9.weight f4 [14]
000000 4e 6a 1e 3f f3 1b f6 3e 95 30 3c 3f 2d d6 3a 3f
       0.6188096 0.480682 0.7351163 0.72983056
000010 71 a3 11 3f 97 c8 1a 3f 67 97 2e 3f 1c 1c ce 3e
       0.56890017 0.60462326 0.6819977 0.4025582
000020 79 ce 8d 3e b4 64 6f 3f 6a 10 6e 3f 3b 36 43 3f
       0.2769659 0.93513036 0.92993796 0.76254624
000030 5d 7b 06 3f 85 83 c9 3e
       0.5253199 0.39358154

encoder_mean.9.bias f4 [14]
000000 3e c9 01 3e b8 e6 fb bd 8f d8 4e 3e ae 7a 54 bd
       0.12674424 -0.122998655 0.20199798 -0.05187481
000010 6f e7 d8 3d d2 36 0d 3e 0a 3d 25 3d d3 44 80 3d
       0.105910175 0.13790444 0.040341415 0.06263127
000020 f8 ef 84 bd 8c 0c 6f 3e 36 62 4b 3e df 13 d4 3c
       -0.06491083 0.2334463 0.19861683 0.025888382
000030 50 cb 21 3e 27 7e 15 be
       0.15800214 -0.14598905

encoder_mean.9.running_mean f4 [14]
000000 d2 00 b5 bc e1 30 9d 3e c4 50 63 bd 0a cf 93 be
       -0.022095118 0.30701354 -0.055496946 -0.28868896
000010 3d 0d c2 bd f1 01 86 bc 29 9b 26 be d8 1c 19 be
       -0.09475181 -0.016358348 -0.16270126 -0.1495241
000020 b8 a0 2b 3e 7b c5 e1 bd c0 1c 0b bd ff ff 0a be
       0.16760528 -0.110239945 -0.033962965 -0.13574217
000030 e2 01 b2 3c d3 c0 80 bd
       0.021729413 -0.06286778

encoder_mean.9.running_var f4 [14]
000000 6c 44 16 3e 7c e2 55 3d a3 0a c8 3d ec 4f 1a 3e
       0.14674538 0.052217945 0.09767654 0.1506955
000010 ab ed b1 3d e5 26 28 3e e6 d7 2d 3e 5f a9 3b 3e
       0.0868791 0.16421087 0.1697689 0.18326329
000020 d9 49 e6 3d f7 06 a9 3e f3 31 c2 3e 59 bd 1c 3e
       0.11244554 0.33013126 0.37928733 0.15306605
000030 1f 89 f8 3d 63 31 27 3d
       0.12135529 0.040818583

encoder_mean.12.weight f4 [12, 14]
000000 e8 a4 52 bc d9 27 26 3d 4e 5c 13 3e c1 96 8e be
       -0.0128566995 0.040565345 0.1439068 -0.2784939
000010 63 52 a5 be 2c 66 b7 3d 44 02 5d 3c 8d ff cb bd
       -0.3228942 0.089550346 0.01348931 -0.09960852
000020 61 6a a4 bd 8d e0 a8 be f0 2d 83 be 5c 41 81 3e
       -0.08028103 -0.3298382 -0.25620985 0.25245178
000030 1f 1f 24 3c 63 e3 cd 3d a7 61 cc 3c 79 d9 ec bb
       0.0100171855 0.10053136 0.024948908 -0.007228073
000040 d2 3c 0a 3d 1b 4e 6e 33 dd 19 52 be b4 c6 bb bd
       0.03374941 5.548473e-08 -0.20517679 -0.09168759
000050 56 c3 e2 bd 45 9f dd bd 7e 6f ca 32 a7 36 d0 3e
       -0.110724136 -0.10821394 2.3566596e-08 0.40666696
000060 cf 12 61 be 81 d6 9d bd 3b eb e3 bd 98 c8 bb bc
       -0.21979831 -0.07706929 -0.11128851 -0.022922799
000070 83 bf 4d be 62 ed f8 bd 44 6f 57 be e3 60 27 3b
       -0.20092587 -0.12154652 -0.21038538 0.0025539927
000080 6a e0 07 be d0 70 6d be b0 09 0c be d8 c3 3d be
       -0.13269201 -0.23187566 -0.1367557 -0.1853174
000090 a6 6d ab bd ea 99 83 be b1 8c 8a be d5 1a 42 be
       -0.08370523 -0.25703365 -0.27060464 -0.18955548
0000a0 41 e9 81 be 15 3d 94 be 23 8d 6a 3e 35 1d 38 bb
       -0.2537327 -0.28952852 0.22905402 -0.002809358
0000b0 46 3a 2d be 51 22 17 be 07 ec 87 bd 8d 0a 7a 3e
       -0.16916761 -0.14759184 -0.066368155 0.24418087
0000c0 da 57 2a 3e 09 91 ce 3a 6a c6 43 b3 f3 92 73 be
       0.16635075 0.0015759777 -4.5582432e-08 -0.23786525
0000d0 8b 74 0e be 6c 06 a6 3e 70 3b 96 3d 37 2c f2 bb
       -0.13911645 0.32426775 0.073355556 -0.0073905247
0000e0 d1 de 87 be cc 68 85 bb b8 9c 75 be 1d 34 c6 bd
       -0.26537183 -0.0040713307 -0.23985565 -0.096779086
0000f0 50 8c 33 3e 78 8f a0 be 52 48 47 be 6a 85 21 3e
       0.17533994 -0.31359458 -0.19461182 0.1577355
000100 f3 80 70 3c 5e ea ad 3d 5f 9e 12 3e 60 e5 9f be
       0.014679181 0.084919676 0.14318226 -0.31229687
000110 96 61 21 be 6c 50 0f 3e 00 21 53 3e 85 5e 96 3c
       -0.15759882 0.13995522 0.20618057 0.018355617
000120 bc db d4 3b 8f 63 9c bd 09 2c 30 be e5 b7 3a 3e
       0.006495921 -0.07636177 -0.17204298 0.18234213
000130 ab d4 32 3e 6d 7b 0b 3e d2 a8 97 b4 ad bf 91 be
       0.17463939 0.13621302 -2.8248775e-07 -0.2846655
000140 e7 20 3d be 0f 11 98 3c 22 eb a2 3e 8d 68 e9 bc
       -0.18469582 0.018562822 0.31820017 -0.028492237
000150 67 e8 f0 3d 06 4a b2 3c db 1b 1a bd cb 5e 9e be
       0.11763077 0.021763813 -0.03762422 -0.30931696
000160 08 68 94 be ee 8c 39 3d 02 84 11 3e 03 8b 6c 3d
       -0.2898562 0.045300417 0.14210513 0.05774976
000170 79 d6 b7 b7 aa aa 31 be 0c cb 55 be cd 3a 09 3e
       -2.1915172e-05 -0.1735026 -0.20878237 0.13401337
000180 f1 e3 ee 3d 6f c7 7d 3d 3a 9c c3 3b e5 09 87 be
       0.1166457 0.061957773 0.0059695514 -0.26374736
000190 32 32 02 3d d1 a4 46 3d c4 47 06 bd 0e c0 2b be
       0.03178615 0.048497025 -0.032783285 -0.16772482
0001a0 dd 83 10 be 16 d6 df 3d 0c d2 67 b9 aa 3b 6b be
       -0.14112802 0.109295055 -0.00022108125 -0.22971979
0001b0 d3 41 a8 3e ac ed 07 be 80 50 fd bd be e2 97 3c
       0.3286272 -0.13274258 -0.1236887 0.018540736
0001c0 40 bf c0 bd 86 a2 f5 bd b1 c6 fe bd d8 8f cb bd
       -0.09411478 -0.119938895 -0.12440241 -0.099395454
0001d0 1a d7 98 3d 3d 8b dd bd 81 52 9e be 6b 23 cb 3d
       0.07462902 -0.10817573 -0.3092232 0.09918865
0001e0 ea 81 9d ba 6f fc cb bc cf 77 44 bd 7b b2 62 be
       -0.0012016867 -0.024900643 -0.04796582 -0.22138397
0001f0 34 29 de bd 0f a0 06 3e 37 48 8a be bc 72 8a be
       -0.108477026 0.13146995 -0.2700822 -0.2704066
000200 ec b1 7c be b1 61 82 3e 8d 8e 46 3b 4f fb 94 be
       -0.24677247 0.25465158 0.003029737 -0.29097983
000210 98 90 6e be 5f 8b 11 be b8 f7 59 3d c7 00 99 3d
       -0.23297346 -0.14213322 0.05321476 0.074708514
000220 01 b4 5c 3d f3 d5 81 be 02 89 bc be f9 f8 28 bc
       0.053882603 -0.25358543 -0.3682328 -0.010313266
000230 f0 f2 3e be 7b 48 44 be 2a 09 26 be 5d 3a a6 3d
       -0.18647361 -0.19168274 -0.16214433 0.08116601
000240 54 c4 1c 3e 30 78 96 be b0 14 89 be 62 ff cb 3d
       0.15309268 -0.2938857 -0.26773596 0.0996082
000250 c9 f2 b1 bd ba 3b 19 3e 9f 0f ba 3e 3f 14 a5 be
       -0.08688886 0.1496419 0.36340043 -0.3224201
000260 65 5e 56 be b6 7a 42 3e 5a 8d 53 3e c1 5a 8e bd
       -0.20934446 0.18992123 0.2065939 -0.06950904
000270 98 06 2b 3d 27 69 83 be 32 2f bd bd 5d 7e d7 3d
       0.041754335 -0.25666162 -0.092375174 0.10522149
000280 cf 32 fb 3d 2e b5 e1 3d d1 34 13 35 73 f8 a7 be
       0.1226555 0.110208854 5.4838625e-07 -0.3280674
000290 c0 cc 03 be a9 99 12 3e 55 47 38 3e 0f e3 cc bc
       -0.12871075 0.14316429 0.17995961 -0.025010614

encoder_mean.12.bias f4 [12]
000000 77 38 b1 3c 3e e2 9b bd 70 e8 24 be 84 42 dc be
       0.02163337 -0.07611512 -0.16104293 -0.43019497
000010 18 8a c2 3d 77 c2 32 3d 79 92 d3 3c 84 49 da 3d
       0.094989955 0.043642487 0.02582668 0.10658553
000020 1c c6 bf ba 3b 04 40 3d c4 35 a7 3d 79 03 ed 3c
       -0.0014631185 0.046879034 0.08164552 0.02893232

encoder_mean.13.weight f4 [12]
000000 62 56 4b 3f ce 9f 27 3f 94 2b 47 3f 04 fb 1d 3f
       0.79428685 0.6547822 0.7780087 0.61711144
000010 ed 6d 53 3f 8f 69 29 3f 48 c8 19 3f 18 0e 36 3f
       0.8258961 0.66176695 0.6007123 0.71115255
000020 2d aa 36 3f a6 ef 8e 3f 55 a0 5a 3f 5e 29 06 3f
       0.7135342 1.1166885 0.854009 0.5240687

encoder_mean.13.bias f4 [12]
000000 cc 4a 86 3e f7 ab a7 bd 30 b1 3d 3e 45 36 cb be
       0.2622894 -0.081870966 0.18524623 -0.39689842
000010 a5 72 a1 3e 1f 03 da 3e 77 6c e3 3e 5a 75 2b 3e
       0.3153278 0.42580506 0.4441869 0.16743985
000020 23 c6 5a 3e 7d 47 a3 3e 13 40 a9 3e 07 5d f8 3e
       0.21364646 0.3189048 0.33056697 0.48508474

encoder_mean.13.running_mean f4 [12]
000000 af 2f ee bd c6 3c 36 3d 68 34 b6 be 1c 3c ae 3e
       -0.11630189 0.04449155 -0.35586858 0.34030235
000010 73 2f 4f be b8 64 fa 3d 41 8c 41 3c 8d 0d 3e bd
       -0.20232944 0.12226242 0.011813224 -0.04639964
000020 b5 e8 fa 3c 33 00 d3 be 8e 98 7e bd 1f 3a 12 3e
       0.030628541 -0.4121109 -0.062157206 0.14279984

encoder_mean.13.running_var f4 [12]
000000 4f ca 60 3e e6 1d 05 3d e9 0d 27 3e e6 32 ea 3d
       0.21952175 0.032499216 0.163139 0.11435489
000010 4a a4 98 3e a4 65 3f 3e 10 da c4 3d fb bd 49 3d
       0.29812843 0.18691117 0.096119046 0.049253445
000020 46 fe 1a 3e c3 05 5c 3e 87 f6 e8 3e 7f 3f 39 3e
       0.1513606 0.21486573 0.45500585 0.18090628

encoder_mean.16.weight f4 [10, 12]
000000 eb ac 44 be 45 70 4e 3e 31 93 43 be ee fa 4e bd
       -0.19206588 0.20160015 -0.19099118 -0.050532274
000010 e8 66 fc 3d be d0 9c bd d4 cb 1e 3e 9c 96 bf 3d
       0.12324315 -0.07657002 0.15507442 0.09354898
000020 aa 0b 6d 3e 0c d7 af bb 97 99 63 3e 9d 2a 89 3c
       0.2314898 -0.0053662118 0.22226559 0.016743952
000030 ca 02 d3 3b 11 17 ee 3c 98 38 63 bc 5d 27 40 3c
       0.0064395415 0.029063733 -0.0138684735 0.011728135
000040 c1 bc c9 bd 3b 2c 8a 3d aa 12 81 bd 0f a0 16 be
       -0.09850455 0.067467175 -0.06302388 -0.14709495
000050 fd 8d 66 3d 92 b0 0b be 74 46 17 3e 6f dd 5b 3e
       0.056287754 -0.13641575 0.1477297 0.21471189
000060 6d 93 6c 3e 85 ee 44 3d a2 cb 0d be 2f 7c ae bd
       0.23103113 0.048079032 -0.13847211 -0.0851978
000070 d7 db 91 bd bd 92 ab 3a 98 27 00 3e 59 a0 df 3c
       -0.07122009 0.0013089996 0.12515104 0.02729814
000080 eb 31 a8 bc 54 71 84 be 7f d9 d3 bd 48 65 45 3e
       -0.020531615 -0.25867712 -0.103442185 0.19276917
000090 8e 1e 6f be 87 64 20 be c5 2c 75 3e 42 03 5a 3e
       -0.233515 -0.15663348 0.2394286 0.21290305
0000a0 18 98 93 3c 50 ac aa be d0 d1 0f be 14 10 b3 bd
       0.01801686 -0.3333459 -0.14044881 -0.08743301
0000b0 79 47 3e bd b5 89 00 3f e2 94 67 3e cd a5 1a be
       -0.04645488 0.50210124 0.22615388 -0.1510231
0000c0 eb e3 95 3e 42 30 21 3e 2b cb a5 be 59 79 38 be
       0.2927545 0.15741065 -0.32381567 -0.1801504
0000d0 24 39 2f be e2 3a 7a 3e ce 18 95 3e a1 28 9f 3c
       -0.17111641 0.24436525 0.29120487 0.019428553
0000e0 af 1e f4 3d 13 66 1b bf b1 7f d4 bd 40 cd c5 3e
       0.11919915 -0.6070263 -0.10375918 0.38633156
0000f0 e3 23 21 3d 0c 01 61 bc ce b1 e3 bd c8 9e 51 be
       0.039340865 -0.01373316 -0.11117898 -0.20470726
000100 b8 a2 7e 3d 30 9c fb 3d e7 12 9f 3d 81 dd 7e bd
       0.0621669 0.1228565 0.07767277 -0.06222296
000110 3a 73 a3 3d 97 7f 51 3c 76 89 93 bd 93 93 db 3c
       0.07980962 0.012786767 -0.07203953 0.026803767
000120 a4 5e 79 bd 88 5b 07 3e 61 37 d7 be de 4b f3 bc
       -0.060881272 0.1321851 -0.42034438 -0.029699262
000130 fb 1f 27 3e d9 0a dd 3d 8c f6 2b 3d b8 50 8d 3e
       0.16320793 0.10793085 0.041983172 0.27600646
000140 a2 5b 5d 3d df 80 55 be b5 ec 16 3d 79 fb a8 ba
       0.054042466 -0.20849942 0.036846835 -0.0012892328
000150 9c 57 bb 3e 5a cb 36 be e1 a9 ae 3d b2 4c 0b be
       0.36590278 -0.1785101 0.085284956 -0.13603476
000160 07 76 2f be fa 7c 2c 3e 86 44 0d 3b b5 08 87 be
       -0.17134868 0.1684455 0.0021555736 -0.2637383
000170 95 74 03 be 8b 80 f1 bd dd d3 a1 be f3 16 55 3e
       -0.12837441 -0.11792096 -0.3160695 0.20809536
000180 09 4e 4c 3e bf 0a 9d bd 2f 3f aa bb 84 b3 f0 bc
       0.19951643 -0.07668065 -0.0051955204 -0.029382475
000190 5a 25 6a be a4 1d 52 3e 17 6e 5f 3e ce 47 9b bd
       -0.22865811 0.2051912 0.2181934 -0.07582055
0001a0 54 3e f1 bd f3 34 bf bd 4c e3 62 be 52 0a 5d 3d
       -0.11779466 -0.09336271 -0.2215702 0.05396492
0001b0 73 cb f0 be c5 09 cd 3d 1d 70 6b be be a7 b1 3e
       -0.4703022 0.10011629 -0.22991987 0.3469829
0001c0 ff ac 01 3f 17 96 bd be cf 92 eb be 57 ba 73 3e
       0.50654596 -0.37028572 -0.46010444 0.23801552
0001d0 8d 23 85 3e 08 02 cf 3e d0 ec f7 3e 72 02 6b be
       0.26003686 0.40431237 0.4842286 -0.22950152

encoder_mean.16.bias f4 [10]
000000 7d 47 59 be 5b df 1b be d1 7d 03 be 97 07 67 3e
       -0.21218677 -0.15221922 -0.12840964 0.22561489
000010 83 cd da be 1f d1 ef bd 5b 71 15 be 44 9a 09 be
       -0.42734918 -0.117098086 -0.14594023 -0.13437754
000020 2a 7d 12 be 22 92 5d 3e
       -0.14305559 0.21637776

encoder_var.0.weight f4 [20, 30]
000000 2c 17 ba 35 32 49 89 34 a6 e3 3d 36 c7 41 d4 34
       1.3864824e-06 2.5571495e-07 2.8295703e-06 3.9535936e-07
000010 99 e0 eb 33 95 08 c9 b4 55 89 8a 33 42 59 6f b5
       1.0983894e-07 -3.7445412e-07 6.451106e-08 -8.9164325e-07
000020 64 54 24 b1 c9 fd 29 36 fc 1e af b2 8e 98 27 b2
       -2.3913111e-09 2.5330685e-06 -2.0386771e-08 -9.755366e-09
000030 bd 3e 8c b3 1a 68 06 36 9e 85 57 b5 8e 60 1a 36
       -6.53067e-08 2.002815e-06 -8.028818e-07 2.300399e-06
000040 06 00 df 31 c8 02 21 b4 97 f1 8c b4 d9 31 a2 36
       6.490157e-09 -1.4995305e-07 -2.6252812e-07 4.8337793e-06
000050 7b a2 d3 34 4c 82 03 35 7e 31 3f b4 bc 77 e5 34
       3.9420033e-07 4.899091e-07 -1.7806266e-07 4.2741692e-07
000060 fb e1 74 34 97 33 7f 35 fc 00 6e 35 14 7b e1 b5
       2.2806482e-07 9.5069976e-07 8.866334e-07 -1.6799627e-06
000070 e5 d2 9d 36 35 a8 a9 36 49 ae a8 31 d4 ca 95 b2
       4.703516e-06 5.0561744e-06 4.9092574e-09 -1.7438119e-08
000080 f0 6e d1 31 99 f7 88 31 4d 31 2d b3 a2 d3 d5 b2
       6.0953127e-09 3.9862695e-09 -4.032454e-08 -2.4892703e-08
000090 b3 09 af 30 2b 9a 97 32 ce 31 12 b0 5a 54 f4 b2
       1.2735683e-09 1.7648821e-08 -5.318527e-10 -2.8443697e-08
0000a0 4b bb 5d b2 f8 f5 3a 32 e6 19 f1 b2 4f 03 ec 32
       -1.29064786e-08 1.0882552e-08 -2.806787e-08 2.747552e-08
0000b0 2e 8c e1 31 ba ab 2c b3 1e 2c 29 32 56 4b 9c b2
       6.5642984e-09 -4.0203055e-08 9.847126e-09 -1.8195049e-08
0000c0 48 25 89 b1 be 31 b2 b2 66 62 e4 31 07 a9 cd b2
       -3.991463e-09 -2.0744547e-08 6.64686e-09 -2.3942006e-08
0000d0 ba 82 80 b1 a7 cd f4 b2 5b 12 b7 b2 da 54 4c b2
       -3.740152e-09 -2.8498858e-08 -2.1312351e-08 -1.1893656e-08
0000e0 93 2a 28 b3 de 8a 54 b2 79 c2 4f b3 8e 0b be b2
       -3.915427e-08 -1.2371599e-08 -4.8372815e-08 -2.2124166e-08
0000f0 c3 8b d0 31 6b ae 35 32 6b ac 0f 33 e4 5e 0a b2
       6.069486e-09 1.0575245e-08 3.3451595e-08 -8.054233e-09
000100 d3 ea e8 30 89 bf 83 b2 21 c6 91 b2 02 d8 9e b2
       1.6946963e-09 -1.5337507e-08 -1.697032e-08 -1.849185e-08
000110 93 21 92 30 67 05 fb 32 68 61 9b 32 a1 54 ad 31
       1.063244e-09 2.9222702e-08 1.808867e-08 5.044584e-09
000120 1d 52 aa 32 a0 09 b2 32 86 c5 8a b2 95 94 61 31
       1.9827946e-08 2.0726304e-08 -1.6155138e-08 3.2826268e-09
000130 8e 17 c6 30 d9 04 a8 b1 7c b8 8f af 36 64 80 b2
       1.4413091e-09 -4.8899946e-09 -2.6142633e-10 -1.4946732e-08
000140 ed b3 e9 b1 ed dd fb b2 8e 7f b6 b1 d5 91 94 30
       -6.8016477e-09 -2.9321166e-08 -5.3113984e-09 1.0809865e-09
000150 6e c3 04 31 1e 31 e0 b2 cb fe cc b1 c3 24 e6 b1
       1.9319617e-09 -2.6099368e-08 -5.966148e-09 -6.6980603e-09
000160 6f bf a9 31 97 30 d0 b2 a7 dd ad 32 93 43 9a 32
       4.940311e-09 -2.4236483e-08 2.0240646e-08 1.7958689e-08
000170 1c 86 35 33 58 f6 f9 30 c8 91 d3 b2 bc ed 29 b3
       4.226432e-08 1.818715e-09 -2.4629927e-08 -3.9564597e-08
000180 88 29 83 2f 34 59 db 32 18 22 a6 b1 58 63 24 b3
       2.385827e-10 2.553552e-08 -4.835112e-09 -3.8274578e-08
000190 85 74 c6 b1 e2 83 9e b1 fc f4 c5 b1 36 7c 38 32
       -5.775805e-09 -4.6133986e-09 -5.761306e-09 1.0738452e-08
0001a0 a0 b6 22 b2 ef f3 0e b3 72 13 82 32 92 0a ee b1
       -9.471165e-09 -3.3283808e-08 1.5142835e-08 -6.9279134e-09
0001b0 0c b0 ff 31 7c 68 8f 33 68 33 92 30 3e 9a a8 32
       7.441491e-09 6.677962e-08 1.0637509e-09 1.9627915e-08
0001c0 7e a9 cd 32 fe 11 91 b2 01 28 c1 32 ae 24 21 33
       2.3942217e-08 -1.6888404e-08 2.2486349e-08 3.7519094e-08
0001d0 42 72 a4 b2 a1 c1 26 32 79 3e b4 b2 4e 9c 5a b4
       -1.9144071e-08 9.706498e-09 -2.0983167e-08 -2.0359695e-07
0001e0 91 68 11 3e 9e 4a 0b 3e 8a 2b 09 3e e1 48 3d 3a
       0.14200045 0.13602683 0.13395515 0.00072206376
0001f0 b1 6e 06 3e 34 e8 13 b9 20 21 b3 b9 68 e6 7c 3d
       0.13128163 -0.00014105515 -0.0003416622 0.06174317
000200 12 20 0a 30 7b 74 0d 3e 58 23 bb b9 3a 7b 0a 3c
       5.024968e-10 0.13813965 -0.00035693753 0.008452231
000210 28 d6 d5 3d 18 4f e5 b8 89 87 5f bc b4 1a 16 3e
       0.10441238 -0.00010934303 -0.013643154 0.14658624
000220 5a 69 1d ba 15 5a a4 3d 64 53 3d 3a e8 a4 3b 3e
       -0.00060047733 0.08024994 0.0007222204 0.18324625
000230 99 30 3d 3a a6 36 8a 3d 11 e9 0e ba 53 ee 8c ba
       0.00072170194 0.067487046 -0.00054516 -0.0010752178
000240 5c 36 ac ba d8 75 df 3a c2 db 48 3e b6 0c 58 bc
       -0.0013138759 0.001704867 0.19615081 -0.013186624
000250 d3 d2 3e 3e de 4d 55 3e b6 92 38 b4 21 99 bc b4
       0.1863511 0.20830485 -1.7189709e-07 -3.5129145e-07
000260 18 4d ee 34 87 aa 07 34 48 23 fe 33 68 93 33 33
       4.4387048e-07 1.2634892e-07 1.1834214e-07 4.181075e-08
000270 dd be 08 33 a0 88 94 34 d3 bb 83 31 5d a6 89 34
       3.1838557e-08 2.7666556e-07 3.833955e-09 2.5639284e-07
000280 c3 ec 3f b2 4f 18 85 31 a3 2d ca b4 bd 27 a8 35
       -1.1171497e-08 3.873573e-09 -3.7658637e-07 1.2528541e-06
000290 53 97 1d b4 d4 f4 45 b5 be f9 37 b3 49 56 b0 b3
       -1.4676816e-07 -7.374449e-07 -4.2835147e-08 -8.211334e-08
0002a0 13 bb 64 34 52 f6 34 b4 74 9d 07 34 38 81 94 b4
       2.1302212e-07 -1.6853417e-07 1.2630136e-07 -2.7661167e-07
0002b0 ff 40 e6 32 71 56 02 b3 52 09 4d b3 b6 56 c0 b4
       2.680508e-08 -3.03466e-08 -4.773876e-08 -3.5825877e-07
0002c0 a9 e0 95 33 90 3d c0 b3 46 80 bf b4 aa b7 bb b3
       6.9792186e-08 -8.951895e-08 -3.5669854e-07 -8.7412744e-08
0002d0 eb 5a 94 34 e3 90 03 34 5e 09 12 b2 64 13 1a 32
       2.76333e-07 1.2253035e-07 -8.500448e-09 8.968389e-09
0002e0 46 96 f3 b3 83 75 dd 33 e7 47 52 30 36 b2 1b 32
       -1.1342904e-07 1.031249e-07 7.6499734e-10 9.062708e-09
0002f0 b0 38 82 31 49 7e 4e b3 e4 18 72 b1 b3 6b 23 32
       3.7899426e-09 -4.807797e-08 -3.5229784e-09 9.512337e-09
000300 e4 bd b2 b3 11 90 b0 b2 d0 69 c0 32 8a 2d c8 b4
       -8.323312e-08 -2.055461e-08 2.239986e-08 -3.7286037e-07
000310 14 f2 90 b2 53 23 00 33 fa 0e 24 32 30 40 de 33
       -1.687389e-08 2.983445e-08 9.549462e-09 1.0349356e-07
000320 6a 8b 16 b2 c9 2f 2a 32 13 02 9d 31 35 19 42 b2
       -8.762848e-09 9.906167e-09 4.569537e-09 -1.1298018e-08
000330 f9 14 a3 b1 39 b0 a8 b3 9d bd 47 34 bc bc d1 b3
       -4.7463087e-09 -7.855164e-08 1.86023e-07 -9.7666515e-08
000340 3c 28 e6 33 ba 28 28 34 4b d3 38 3d c4 49 49 3d
       1.0717528e-07 1.5661035e-07 0.04512338 0.049142614
000350 6d ec 1c 3d 1f 0e ae b9 44 6b 8f 3d 0e 7d 23 b8
       0.03831141 -0.00033198387 0.07002881 -3.8978695e-05
000360 bd 45 84 b8 bd b9 f4 3c 2c c1 8e b0 49 27 b6 3c
       -6.30724e-05 0.029873723 -1.0386763e-09 0.02223553
000370 24 d7 4b b9 ab 28 2a 3a 4a b5 4c 3d fc 88 63 37
       -0.00019439735 0.00064910454 0.04997758 1.35621485e-05
000380 7a d5 8d bb 95 ab 98 3d 65 da e5 39 05 2c 07 3d
       -0.004328427 0.07454602 0.00043841 0.033000965
000390 31 8c 90 b9 9d 13 9e 3d b3 94 ae b9 02 ca 02 3d
       -0.0002757027 0.07718585 -0.00033298656 0.03193093
0003a0 b2 0b b4 37 36 e5 73 38 d5 8a c2 b9 5d ff 8c 39
       2.1463118e-05 5.8149184e-05 -0.00037106 0.0002689314
0003b0 d9 15 d9 3d 82 b4 b8 ba 98 96 c5 3d 9a 0d e0 3d
       0.1059987 -0.0014091881 0.09647864 0.10940094
0003c0 e5 51 e4 b3 32 63 90 33 14 6a b7 b3 d5 01 26 b1
       -1.0631974e-07 6.723566e-08 -8.540897e-08 -2.415722e-09
0003d0 c2 cb 49 33 5e 5f 4d 33 53 42 a6 31 5e ad de b1
       4.6984276e-08 4.7817018e-08 4.838776e-09 -6.48076e-09
0003e0 73 0d 81 b1 c6 47 4d 34 11 fc e9 b1 de ae e9 b1
       -3.755923e-09 1.9118224e-07 -6.809849e-09 -6.8010726e-09
0003f0 30 eb 66 b3 6c 20 4d b3 a6 91 16 b4 71 6d 46 34
       -5.376495e-08 -4.775977e-08 -1.4022825e-07 1.8480002e-07

encoder_var.0.bias f4 [20]
000000 76 c9 9c 36 e6 54 61 b2 0e c3 2a b2 51 0f ab b3
       4.6726154e-06 -1.3116027e-08 -9.939653e-09 -7.965594e-08
000010 56 00 58 3e bc d5 66 b3 0f 33 26 34 ef fc df 3d
       0.21093878 -5.374544e-08 1.547853e-07 0.10936915
000020 5f 20 6d b5 11 0f 64 b3 de 71 68 36 4d d3 8c b5
       -8.8336486e-07 -5.309909e-08 3.4636973e-06 -1.049231e-06
000030 b4 8f 2c 31 4a 4f ef 3d 81 30 1a b3 78 5d 61 3d
       2.511098e-09 0.11685045 -3.5900033e-08 0.05502078
000040 de 66 9d 33 08 07 84 33 d8 c5 0e b4 38 6b df b4
       7.3295936e-08 6.148008e-08 -1.3296756e-07 -4.1615e-07

encoder_var.1.weight f4 [20]
000000 fb fa d9 b6 b8 e9 f8 33 f8 79 53 37 e5 34 1d b4
       -6.496322e-06 1.1590913e-07 1.2604978e-05 -1.4641007e-07
000010 a0 04 a9 3e c4 98 80 b5 2d 09 81 b3 80 81 29 3e
       0.3301134 -9.581204e-07 -6.0087e-08 0.16553307
000020 4d b0 0a b6 b9 98 8e b3 e0 d8 50 36 49 26 3f 36
       -2.0666223e-06 -6.6401704e-08 3.1120653e-06 2.8483503e-06
000030 58 1f d7 b3 a8 e5 5c 3e 7e b6 df 33 06 0b b7 3d
       -1.0017419e-07 0.21571982 1.0417442e-07 0.089376494
000040 89 4c 46 b6 bb 39 39 33 b6 e3 fa b5 8b d6 9c b6
       -2.9548848e-06 4.3126175e-08 -1.8692724e-06 -4.6741384e-06

encoder_var.1.bias f4 [20]
000000 ff 89 99 b6 8b 7e 8b b5 52 ba c7 36 b9 c2 a4 b4
       -4.57582e-06 -1.0393136e-06 5.9523527e-06 -3.068906e-07
000010 21 45 9d 3d fd ec b1 36 4c f8 c7 b2 81 43 07 3d
       0.07679201 5.3026e-06 -2.3279561e-08 0.03302336
000020 91 5d 19 b6 ea 7a b8 b4 85 04 59 b6 b1 83 59 b6
       -2.285324e-06 -3.4362102e-07 -3.233815e-06 -3.2412174e-06
000030 ec 69 15 b4 e7 66 46 3d 1b 37 9f b2 40 62 ce 3c
       -1.391524e-07 0.04843798 -1.8535095e-08 0.025193334
000040 be b3 29 b7 a5 b1 04 32 40 77 25 b6 cd fc 0c b6
       -1.01150345e-05 7.723803e-09 -2.4656329e-06 -2.1008775e-06

encoder_var.1.running_mean f4 [20]
000000 01 5f a9 3d 95 83 77 ba 90 38 a1 3d 8e 4b 11 be
       0.08270074 -0.00094419095 0.078721166 -0.14188978
000010 51 dc e4 3b 07 57 50 3c ee 9c 81 bd ec 31 2c 3c
       0.0069842716 0.012716061 -0.0632876 0.010509949
000020 f0 93 b8 bd f1 16 01 3e 0e c2 fb 3d 87 c6 fc 3d
       -0.09012592 0.12606408 0.12292872 0.123425536
000030 c7 3c 71 3d 57 27 06 be a1 2f f6 bd 31 c0 4d 3c
       0.058895852 -0.13100944 -0.12020803 0.012558029
000040 ee 82 5e be 37 9e d6 3c ac a4 a6 3d e8 a4 38 be
       -0.21729633 0.02619849 0.081368774 -0.18031657

encoder_var.1.running_var f4 [20]
000000 57 e2 02 3b 70 ab 8c 3a 25 8d 06 3b 8b 0e 12 3b
       0.0019971335 0.0010732245 0.0020530906 0.00222865
000010 b4 58 9e 3a c4 80 4e 3a 70 89 45 3b 27 7a 8b 3a
       0.0012080879 0.0007877464 0.0030141734 0.0010641263
000020 cf 58 c9 3a 83 88 86 3b 7e 4e e4 3b 76 2e 01 3c
       0.001536155 0.004105629 0.006967365 0.007884612
000030 08 b3 a0 3b 86 a1 2b 3b e2 97 3f 3b ac f1 65 3b
       0.0049041547 0.0026188805 0.0029234816 0.0035086675
000040 de 83 d2 3b 38 76 8e 3a b5 3a 80 3b fd 76 98 3b
       0.006424411 0.0010868972 0.0039132484 0.0046528564
