generativecf/models/adult-fine-tune-size-50-upper-lim-10-age-good-cf-set/adult-eval-case-0-supervision-limit-100-const-case-0-margin-0.037-oracle_reg-8557.0-validity_reg-88.0-epoch-25-oracle-gen.pth (torch_old, 37228 bytes, 78 tensors)

encoder_mean.0.weight f4 [20, 30]
-0.4303138 -0.19091147 -0.023843886 -0.0118352715 -0.059445582 -0.2859972 0.086250536 -0.16554166
4.103452e-07 -0.09045959 0.17736775 0.050201476 -0.3124992 0.073751085 -0.094194934 -0.15667169
-0.08962928 0.147035 -0.094184935 -0.12390343 -0.033737916 0.25972614 -0.11585872 0.017658396
-0.20907384 -0.06452484 0.08304834 -0.2621153 0.07881843 0.051037945 -0.13586733 0.012938347
0.08945277 -0.0003146174 -0.13565572 -0.01111039 -0.041584603 0.03431322 -2.8885563e-06 0.27012703
-0.0052203876 -0.15821123 0.07049897 -0.20129046 -0.016603643 -0.12727539 0.20736767 0.075738624
0.042350415 -0.1724327 0.07079016 -0.009930223 -0.17385061 0.12702785 -0.09267008 -0.11332502
-0.013893814 -0.02449788 -0.1486344 0.17624134 -0.1233813 -0.03530745 0.07321899 -0.02758316
-0.103898756 -0.11841546 -0.12020692 0.042494766 6.62826e-07 0.00942312 -0.054856516 8.785591e-05
0.043835986 0.047015145 0.06767343 -0.14847533 0.037669342 0.0053607766 0.029194409 0.032339353
-0.0944539 -0.20031023 -0.0067788255 -0.0056589125 -0.0112995505 0.022139495 -0.18214127 0.038034417
-0.19078165 -0.102330156 -0.9364972 -0.051941384 0.0825477 -0.17218678 -0.027632074 -0.046724252
-0.047501504 0.04029937 9.793899e-07 -0.004785143 0.20020697 -0.04958311 0.18928348 0.0021854276
0.09721792 0.13135317 -0.032807715 0.19900174 -0.19331819 0.20674945 -0.20398544 -0.126357
-0.067941375 0.1124195 -0.064415075 0.1059749 0.08276631 0.04789957 -0.007020953 0.1967478
0.3981709 0.0830996 0.014185214 -0.011048395 -0.0027035554 -1.6376578e-06 0.03486299 -0.099179834
-4.303391e-06 -0.0687346 -2.0448667e-06 4.4833996e-06 -0.06715398 -0.008897677 0.11578092 0.00041915444
-7.87916e-06 -7.034292e-05 -8.141048e-06 0.025360323 -0.04028815 -0.009258701 3.1166437e-07 -3.121509e-06
-0.023479346 6.8388367e-06 -0.023658333 -0.046735667 -0.02498707 -0.12275271 0.43306932 0.0985386
0.4164218 -0.23575266 0.1584782 -0.11017475 -0.06950765 0.346831 -7.4387163e-09 0.14680178
0.37703547 0.054051064 -0.12684602 -0.15940148 -0.123996265 0.13754004 -0.13224359 0.0013451801
2.376174e-06 -0.12335066 -0.23515242 0.3528275 0.2596794 0.111653686 -0.1488345 -0.047734205
-0.15198565 -0.53917044 0.01993149 -0.1719508 -0.29884815 -0.9979977 0.012567154 0.021133704
0.005939351 0.02787171 0.11687277 -0.08469767 2.261171e-06 -0.072567895 -4.895522e-07 -6.4670905e-07
-0.042843726 -0.08832677 0.015335209 -0.056265768 -0.088830106 -0.095028244 -0.018512916 -0.031909794
-0.0330498 -0.021375487 8.8973866e-07 -0.06777025 -0.08334239 -0.096455455 -0.015665574 -0.12864701
0.027256142 0.08857228 0.048525393 0.16979021 -0.039752662 0.052629028 -0.17396758 -0.055256553
4.116322e-06 0.02221448 2.4484393e-06 -0.027361564 3.4921175e-06 -1.1919818e-06 2.7805306e-06 0.019495342
0.045480445 -0.007845922 -1.2787578e-05 -0.0023645642 4.475299e-07 -0.033881668 -0.044322997 0.015611505
0.047397096 -0.030767731 0.013272163 -0.1850351 -0.12575762 -2.0444584e-05 -0.085570104 -0.28548458
0.14536053 -0.22023417 -0.00021206701 0.10632786 0.007497036 -4.5007623e-06 3.942954e-07 -0.03606499
-2.4681324e-06 0.009270853 -0.00048713377 -0.07376935 0.04644036 -0.048718147 0.054840636 -0.15181033
00000000: 1752 dcbe 4c7e 43be 4154 c3bc bae8 41bc
00000010: 367d 73bd 3a6e 92be 1fa4 b03d c183 29be
00000020: 6a4d dc34 e142 b9bd e49f 353e 10a0 4d3d
00000030: e5ff 9fbe cf0a 973d 46e9 c0bd 8b6e 20be
00000040: 8e8f b7bd 5890 163e 08e4 c0bd 15c1 fdbd
00000050: c530 0abd d3fa 843e 5647 edbd 57a8 903c
00000060: 7417 56be 9925 84bd 4015 aa3d fa33 86be
00000070: 8f6b a13d 2a0d 513d ce20 0bbe 5cfb 533c
00000080: 0433 b73d 3cf3 a4b9 55e9 0abe 5a08 36bc
00000090: 9e54 2abd 058c 0c3d 05d9 41b6 174e 8a3e
000000a0: c90f abbb 2002 22be c461 903d 161f 4ebe
000000b0: 5d04 88bc 7b54 02be 3158 543e da1c 9b3d
000000c0: a177 2d3d 3392 30be 6efa 903d 60b2 22bc
000000d0: e505 32be 9713 023e d0c9 bdbd f316 e8bd
000000e0: e1a2 63bc c7af c8bc 9e33 18be 9c78 343e
000000f0: 56af fcbd 8b9e 10bd d6f3 953d 14f6 e1bc
00000100: dfc8 d4bd ce83 f2bd 0c2f f6bd fe0e 2e3d
00000110: 0eed 3135 6e63 1a3c 3ab1 60bd 483f b838
00000120: 5d8d 333d f492 403d 5e98 8a3d eb09 18be
00000130: 2b4b 1a3d 74a9 af3b 1d29 ef3c 4576 043d
00000140: 0c71 c1bd 201e 4dbe e920 debb 666e b9bb
00000150: c021 39bc e35d b53c 3e83 3abe fac9 1b3d
00000160: 445c 43be 7992 d1bd 48be 6fbf 7dc0 54bd
00000170: c50e a93d bb51 30be a95c e2bc ee61 3fbd
00000180: f090 42bd f410 253d 9573 8335 b0cc 9cbb
00000190: 0e03 4d3e a917 4bbd 87d3 413e 6439 0f3b
000001a0: 301a c73d 7281 063e 6261 06bd 1dc7 4b3e
000001b0: 34f5 45be 21b6 533e 8fe1 50be bb63 01be
000001c0: d924 8bbd 323c e63d 0dec 83bd 5e09 d93d
000001d0: 6281 a93d 5732 443d 0610 e6bb 4178 493e
000001e0: 0edd cb3e 2030 aa3d 1a69 683c 5404 35bc
000001f0: 222e 31bb 7ecd dbb5 7fcc 0e3d cc1e cbbd
00000200: d965 90b6 bac4 8cbd 8b3a 09b6 1c70 9636
00000210: 0788 89bd 90c7 11bc 8c1e ed3d f5c1 db39
00000220: bc30 04b7 1185 93b8 8995 08b7 74c0 cf3c
00000230: 3005 25bd ceb1 17bc d352 a734 1e7b 51b6
00000240: c257 c0bc 2979 e536 1fcf c1bc e66d 3fbd
00000250: afb1 ccbc c665 fbbd 43bb dd3e 9bce c93d
00000260: 3d35 d53e 2569 71be 1c48 223e 4da3 e1bd
00000270: 075a 8ebd d593 b13e a497 ffb1 3553 163e
00000280: cb0a c13e a664 5d3d ece3 01be 243a 23be
00000290: c1f1 fdbd 4cd7 0c3e dd6a 07be c150 b03a
000002a0: 5c76 1f36 459f fcbd cccb 70be cea5 b43e
000002b0: b3f4 843e b0aa e43d 1268 18be f184 43bd
000002c0: 20a2 1bbe 1307 0abf 5d47 a33c df13 30be
000002d0: a002 99be c77c 7fbf 77e6 4d3c 9720 ad3c
000002e0: e39e c23b 3653 e43c fe5a ef3d f975 adbd
000002f0: 9fbe 1736 7a9e 94bd c569 03b5 8299 2db5
00000300: e77c 2fbd aae4 b4bd 8740 7b3c ef76 66bd
00000310: 8fec b5bd 2b9e c2bd 66a8 97bc d8b3 02bd
00000320: 3a5f 07bd a51b afbc 60d6 6e35 21cb 8abd
00000330: 6aaf aabd 708a c5bd 1755 80bc 0bbc 03be
00000340: 4648 df3c 6265 b53d 90c2 463d 7cdd 2d3e
00000350: b0d3 22bd 8991 573d 8f24 32be b254 62bd
00000360: f01e 8a36 24fb b53c de4f 2436 5c25 e0bc
00000370: 1f5a 6a36 2ffc 9fb5 2799 3a36 b2b4 9f3c
00000380: b449 3a3d 2f8c 00bc 3b8a 56b7 cef6 1abb
00000390: 0b44 f034 81c7 0abd 088c 35bd 66c7 7f3c
000003a0: 7523 423d 9c0c fcbc 7d73 593c d779 3dbe
000003b0: 9bc6 00be 6980 abb7 613f afbd 092b 92be
000003c0: 64d9 143e 1185 61be 4e5e 5eb9 6cc2 d93d
000003d0: b2a9 f53b 4105 97b6 8caf d334 e2b8 13bd
000003e0: 31a2 25b6 c7e4 173c fd65 ffb9 6314 97bd
000003f0: 3f38 3e3d ae8c 47bd 93a0 603d 2b74 1bbe

encoder_mean.0.bias f4 [20]
-0.02965815 -0.048628706 -0.09364125 0.04533558 -0.042769432 -0.02763552 -0.05961919 -0.08993567
-0.08146911 -0.040136132 -0.05969227 -0.04963166 0.045779373 -0.014404877 -0.04607356 -0.08641608
0.059819475 -0.0151373595 -0.064299956 -0.033494126
00000000: a6f5 f2bc e52e 47bd fcc6 bfbd cdb1 393d
00000010: 002f 2fbd e363 e2bc 4033 74bd 3130 b8bd
00000020: 47d9 a6bd c965 24bd e27f 74bd 914a 4bbd
00000030: 2783 3b3d 6f02 6cbc a1b7 3cbd eafa b0bd
00000040: 4405 753d b002 78bc b2af 83bd 2331 09bd

encoder_mean.1.weight f4 [20]
0.3667343 0.5560529 0.281548 0.9638299 0.38071075 0.607163 0.71015084 0.4899089
0.31962398 0.8887988 0.32412207 0.7109572 0.45412183 0.53755176 0.38389575 0.6922168
0.73172146 0.97442013 0.5904441 0.36398196
00000000: 99c4 bb3e 7c59 0e3f 0f27 903e 8ebd 763f
00000010: 85ec c23e 096f 1b3f 72cc 353f 57d5 fa3e
00000020: c1a5 a33e 5188 633f 54f3 a53e 4b01 363f
00000030: a882 e83e fe9c 093f fc8d c43e 1f35 313f
00000040: 1952 3b3f 9973 793f 5827 173f d85b ba3e

encoder_mean.1.bias f4 [20]
-0.047237586 -0.07654376 -0.15530777 -0.0083740465 -0.12416884 -0.026292937 -0.04969228 -0.14221278
-0.13606381 0.3064528 0.09838768 0.33320183 -0.081667826 0.19570236 -0.12802468 -0.23426174
0.19280478 -0.15174976 -0.007124486 -0.18372303
00000000: 337c 41bd fac2 9cbd 0009 1fbe 4c33 09bc
00000010: 3c4c febd 4964 d7bc 228a 4bbd 3aa0 11be
00000020: 5054 0bbe 62e7 9c3e 7b7f c93d 6e99 aa3e
00000030: 7641 a7bd 3366 483e e718 03be 4fe2 6fbe
00000040: 9e6e 453e 4a64 1bbe 8574 e9bb e421 3cbe

encoder_mean.1.running_mean f4 [20]
-0.06529927 0.10542952 -0.03820695 -0.22790305 0.31852207 0.10525355 -0.19414537 -0.11022639
-0.04237709 0.8017875 0.49035934 -0.011838308 0.13029727 0.28251192 0.41623685 -0.080544986
-0.11479775 -0.1496569 0.07549501 0.5212191
00000000: a0bb 85bd 6feb d73d e47e 1cbd 6b5f 69be
00000010: 5315 a33e 2c8f d73d 0bce 46be 60be e1bd
00000020: 9993 2dbd f241 4d3f 6110 fb3e 76f5 41bc
00000030: a66c 053e 67a5 903e ff1c d53e c5f4 a4bd
00000040: 151b ebbd a93f 19be 219d 9a3d 9d6e 053f

encoder_mean.1.running_var f4 [20]
0.019149719 0.050528523 0.033045296 0.014315728 0.011658218 0.018991034 0.014868163 0.026730679
0.03221343 0.01808368 0.011203289 0.017787326 0.022087285 0.014519148 0.02992605 0.0124332
0.020330401 0.019825751 0.019601662 0.035190176
00000000: dfdf 9c3c fff6 4e3d 815a 073d 848c 6a3c
00000010: 1c02 3f3c 1693 9b3c 9899 733c 4cfa da3c
00000020: 3bf2 033d 3a24 943c 008e 373c bab6 913c
00000030: 65f0 b43c b8e1 6d3c 7a27 f53c 9fb4 4b3c
00000040: f18b a63c 9d69 a23c aa93 a03c 9323 103d

encoder_mean.4.weight f4 [16, 20]
0.08587554 0.016284872 -0.020620087 0.29207185 0.009866432 -0.19405553 0.12908134 -0.02762595
0.03651527 -0.28764176 -0.12488879 -0.2563148 0.14115037 -0.11793022 -0.10713867 0.010327685
0.13937925 -0.18794769 0.08554502 -0.2355462 -0.16137296 0.11273803 0.12395436 -0.18917085
0.12261688 0.2926234 -0.20216018 -0.08664414 -0.02546962 0.29319552 0.0520397 0.1524943
-0.12748173 0.19869328 0.22321865 -0.20676832 -0.2604025 0.068585575 0.25691512 0.2234943
-0.19474846 -0.23417774 -0.085266836 0.03748217 0.07617448 -0.10492853 0.23760948 -0.029615618
-0.04543096 -0.02372947 -0.078623444 0.07348821 -0.009278346 0.05160162 0.11154356 0.25283685
-0.12401746 0.0025144278 0.013540745 -0.112706 -0.030960655 0.032182287 -0.038507674 -0.16961646
0.025703596 0.2093542 -0.040890172 0.09159087 0.03822331 0.060656153 0.11880327 0.0036472552
-0.21915685 0.07426305 0.17858481 -0.029245857 -0.14776188 0.5649734 0.15066566 -0.060030382
-0.11302041 -0.23430273 0.0024504298 0.053462774 0.05619654 -0.08522652 -0.042829327 -0.029545406
-0.0350397 -0.17288956 -0.0041689584 -0.18766004 -0.10591313 -0.2621644 -0.07566539 -0.0006641846
0.081114255 -0.5209293 -0.05990009 -0.06952333 -0.07405429 -0.07038187 -0.17071214 -0.14652458
0.07799383 -0.025840463 -0.1049058 0.20053643 0.02276775 0.0024015943 0.0790005 -0.03433043
7.798248e-05 -0.036553245 -0.09050557 -0.0069241095 0.040604807 -0.02230382 0.13519634 0.036201313
-0.06900793 0.09532425 -0.10144935 0.13350326 -0.020472739 -0.07178762 0.015665123 0.0055553224
0.05831933 -0.009850876 -0.0409739 -0.07082407 -0.13320641 -0.047044273 -0.081886955 0.20579018
-0.115891114 0.055049043 -0.021511083 -0.2875995 0.18626454 -0.051211763 -0.0026761463 0.19221355
-0.13874868 -0.14555278 -0.06706583 0.0653987 0.009650817 -0.20953618 -0.041121922 -0.032063678
0.18323262 -0.20818637 -0.09854705 -0.034869872 0.24275371 -0.2380165 -0.045988493 -0.123907275
0.01659004 0.09093805 -0.1091036 -0.13573496 0.0058143567 0.2721335 0.33719268 0.10354116
0.06220272 0.28546685 0.042684443 0.27977344 -0.0921436 0.15758666 0.16445968 0.30708116
-0.13641173 0.17295365 0.09242055 0.18431656 -0.11818681 0.16325417 0.15179785 -0.29460853
0.054291934 0.29210305 -0.0917053 0.13524358 0.03622947 0.32972747 0.010935561 -0.03802193
-0.04349998 0.17679681 0.12217685 -0.0066551403 -0.014362769 -0.15509869 0.22194514 0.22629614
0.1411542 0.07247072 -0.012931386 0.23106743 0.03213467 -0.16461591 0.15776782 0.00020593328
-0.009900202 -0.2948845 -0.05731446 -0.25440082 0.13716091 -0.19961362 -0.12378463 0.029347032
0.36718166 -0.22282209 -0.04987195 -0.20142157 0.17145084 0.064156175 -0.03763005 0.18695323
-0.0009050062 -0.17523819 -0.10641877 0.0010309191 0.036147505 -0.19093664 0.06483001 -0.103674576
0.06841362 -0.13998865 -0.094374664 -0.10578393 0.21650988 -0.23617327 0.051513016 -0.10262778
-0.02657537 -0.020854412 -0.116084844 -0.28519994 -0.03451346 0.04198643 -0.09190216 -0.013568112
0.0479875 0.026072036 -0.012202783 -0.028007928 0.03123515 0.014855045 -0.02518393 0.116737396
00000000: 84df af3d da67 853c 75eb a8bc 718a 953e
00000010: d1a6 213c 7eb6 46be e62d 043e d14f e2bc
00000020: 0991 153d c845 93be b2c5 ffbd b23b 83be
00000030: b989 103e 6685 f1bd 856b dbbd 7335 293c
00000040: 6fb9 0e3e 5c75 40be 3a32 af3d 0633 71be
00000050: f43e 25be 32e3 e63d c9db fd3d 01b6 41be
00000060: 8f1e fb3d bcd2 953e 1403 4fbe 7c72 b1bd
00000070: aaa5 d0bc b91d 963e 9527 553d 7727 1c3e
00000080: 928a 02be 4076 4b3e 6e93 643e 13bb 53be
00000090: 7a53 85be 9876 8c3d 618a 833e b1db 643e
000000a0: 246c 47be 4acc 6fbe 61a0 aebd e786 193d
000000b0: 5e01 9c3d c5e4 d6bd e64f 733e 749c f2bc
000000c0: d015 3abd 4e64 c2bc 5405 a1bd fd80 963d
000000d0: 3404 18bc 385c 533d f370 e43d d573 813e
000000e0: defc fdbd 19c9 243b 00da 5d3c 67d2 e6bd
000000f0: 33a1 fdbc 93d1 033d 39ba 1dbd f0af 2dbe
00000100: 5990 d23c f360 563e 747c 27bd fe93 bb3d
00000110: 0c90 1c3d 9672 783d 214f f33d ca06 6f3b
00000120: a76a 60be 3a17 983d f0de 363e 0295 efbc
00000130: e44e 17be 19a2 103f 1948 1a3e 6be2 75bd
00000140: 3f77 e7bd 0eed 6fbe 6497 203b c8fb 5a3d
00000150: 582e 663d 3e8b aebd ce6d 2fbd 3509 f2bc
00000160: ca85 0fbd f609 31be c29b 88bb f429 40be
00000170: fce8 d8bd 6a3a 86be 75f6 9abd ad1c 2eba
00000180: 3b1f a63d 9f5b 05bf cc59 75bd 3f62 8ebd
00000190: c7a9 97bd 5f24 90bd 2acf 2ebe 8a0a 16be
000001a0: 3bbb 9f3d 61af d3bc dad8 d6bd 6c59 4d3e
000001b0: 6f83 ba3c 1164 1d3b 04cb a13d 119e 0cbd
000001c0: 868a a338 dbb8 15bd fc5a b9bd a4e3 e2bb
000001d0: 3a51 263d 80b6 b6bc e970 0a3e d447 143d
000001e0: 0854 8dbd 5c39 c33d adc4 cfbd 14b5 083e
000001f0: 72b6 a7bc 6305 93bd 2554 803c 6c09 b63b
00000200: 40e0 6e3d 9265 21bc 40d4 27bd 360c 91bd
00000210: 4367 08be 7fb1 40bd 59b4 a7bd a9ba 523e
00000220: 5258 edbd 1b7b 613d 0338 b0bc 3e40 93be
00000230: 22bc 3e3e 6dc3 51bd 4962 2fbb a1d3 443e
00000240: 2214 0ebe ca0b 15be cf59 89bd c1ef 853d
00000250: 761e 1e3c a790 56be 766f 28bd 3455 03bd
00000260: 55a1 3b3e cf2e 55be 09d3 c9bd b6d3 0ebd
00000270: 6e94 783e 99ba 73be 6e5e 3cbd 19c3 fdbd
00000280: d6e7 873c ba3d ba3d b571 dfbd 1bfe 0abe
00000290: 5c86 be3b 1555 8b3e 85a4 ac3e 630d d43d
000002a0: 48c8 7e3d b628 923e e2d5 2e3d 773e 8f3e
000002b0: c9b5 bcbd 665e 213e 1e68 283e be39 9d3e
000002c0: 84af 0bbe c31a 313e fc46 bd3d 7bbd 3c3e
000002d0: ed0b f2bd 1a2c 273e e570 1b3e eed6 96be
000002e0: 3861 5e3d 888e 953e fdcf bbbd 4b7d 0a3e
000002f0: 5a65 143d 0ad2 a83e 112b 333c e2bc 1bbd
00000300: 092d 32bd 390a 353e db37 fa3d 5d13 dabb
00000310: d251 6bbc 31d2 1ebe 9645 633e 2dba 673e
00000320: ba8a 103e 876b 943d 2ade 53bc f19c 6c3e
00000330: a59f 033d 1391 28be e38d 213e cbef 5739
00000340: 7534 22bc 1afb 96be 91c2 6abd d340 82be
00000350: e973 0c3e 8367 4cbe cc82 fdbd 3069 f03c
00000360: 3cff bb3e 792b 64be 8846 4cbd 7541 4ebe
00000370: cf90 2f3e 5064 833d f821 1abd ab70 3f3e
00000380: f03d 6dba a471 33be 16f2 d9bd e81f 873a
00000390: 680f 143d e584 43be 99c5 843d 5653 d4bd
000003a0: 711c 8c3d 2f59 0fbe 8147 c1bd 3fa5 d8bd
000003b0: c4b4 5d3e 68d7 71be 50ff 523d 832e d2bd
000003c0: 97b4 d9bc dfd6 aabc e4bd edbd ba05 92be
000003d0: fc5d 0dbd f6f9 2b3d 3337 bcbd c94c 5ebc
000003e0: 8a8e 443d 0695 d53c 2eee 47bc e270 e5bc
000003f0: dbe0 ff3c 9362 733c 874e cebc 0414 ef3d

encoder_mean.4.bias f4 [16]
0.02917179 -0.04436033 -0.07028929 0.0481398 -0.0831559 -0.04756904 -0.09914869 0.028464412
0.06273242 -0.042445377 0.0495646 0.022127371 0.0023187154 0.10427483 0.0067471974 -0.10989526
00000000: aef9 ee3c 2db3 35bd d5f3 8fbd 3d2e 453d
00000010: a44d aabd c1d7 42bd 780e cbbd 332e e93c
00000020: db79 803d 34db 2dbd 4004 4b3d 7644 b53c
00000030: 97f5 173b 0b8e d53d 9817 dd3b c410 e1bd

encoder_mean.5.weight f4 [16]
0.64214694 0.7391925 0.38201335 0.7534003 0.5214784 0.6112162 0.5768478 0.4973247
0.6104941 0.45984238 0.75986195 0.54491264 0.68632853 0.7485878 0.51656145 0.34174407
00000000: be63 243f b83b 3d3f 4197 c33e d8de 403f
00000010: 9c7f 053f aa78 1c3f 4cac 133f 58a1 fe3e
00000020: 5749 1c3f 7670 eb3e 5086 423f 657f 0b3f
00000030: 3ab3 2f3f 73a3 3f3f 5f3d 043f 14f9 ae3e

encoder_mean.5.bias f4 [16]
0.048570488 0.10996455 0.123642825 0.10808397 -0.0554479 -0.053355377 -0.117632985 0.108565
0.11532661 0.09917088 -0.009366555 0.11434875 -0.034533132 -0.13920538 0.14078309 -0.152997
00000000: d9f1 463d 1835 e13d 7338 fd3d 215b dd3d
00000010: 561d 63bd 2b8b 5abd 90e9 f0bd 5457 de3d
00000020: 5c30 ec3d 1a1a cb3d 2e76 19bc ad2f ea3d
00000030: 9d72 0dbd db8b 0ebe 7129 103e 3fab 1cbe

encoder_mean.5.running_mean f4 [16]
-0.26529095 0.09483759 0.26804334 -0.02707769 -0.012543133 0.07495599 0.30269584 -0.15582459
0.302132 0.2146016 -0.28140578 -0.087643474 -0.0155199785 -0.2872888 0.18720151 -0.091136836
00000000: 37d4 87be 363a c23d fa3c 893e 08d2 ddbc
00000010: b781 4dbc 8782 993d f3fa 9a3e 7b90 1fbe
00000020: 0cb1 9a3e 86c0 5b3e 6b14 90be 6c7e b3bd
00000030: 8247 7ebc 8517 93be c1b1 3f3e f3a5 babd

encoder_mean.5.running_var f4 [16]
0.19382302 0.16107993 0.2782646 0.07246324 0.17791258 0.10638359 0.16308853 0.1502182
0.2861461 0.07163512 0.31588775 0.116642855 0.11428993 0.28757256 0.30083 0.060358983
00000000: 8b79 463e 23f2 243e b378 8e3e 9b67 943d
00000010: b72e 363e a4df d93d ae00 273e cdd2 193e
00000020: be81 923e 6fb5 923d 0abc a13e 73e2 ee3d
00000030: d710 ea3d b63c 933e 6406 9a3e fb3a 773d

encoder_mean.8.weight f4 [14, 16]
0.28974062 -0.17871107 0.14273751 -0.19432591 -0.08294526 -0.13734898 0.16318458 -0.011749629
-0.11816386 -0.15618843 0.23277974 -0.028900055 -0.19910622 0.2512596 0.009852421 -0.10543129
-0.14749728 0.24155675 -0.010192571 0.060491353 0.35698768 0.06981573 -0.058768943 0.06085865
0.10891475 0.08827386 0.08329729 -0.085669555 -0.03174031 0.014287889 0.0035433832 0.08692802
0.11703567 -0.25863212 0.14583972 -0.2504977 0.08584045 0.06258708 0.092463635 0.16356158
-0.23784263 -0.2278725 0.13105524 0.000118210744 -0.05921296 0.28226498 0.15478298 -0.12574106
-0.25282726 0.1018581 -0.15861014 -0.013863283 -0.17363559 0.12202101 -0.08378515 -0.19880192
-0.038870994 0.093223006 -0.32617295 -0.19644643 -0.12975045 -0.27243647 -0.06699495 -0.21115701
-0.16534673 0.052651003 0.10636371 -0.047544066 -0.050513744 0.057150647 0.04578846 -0.13930364
0.12344499 0.17981952 -0.31136334 -0.24260971 -0.15540646 -0.3012017 0.08601089 -0.046263993
0.1786822 -0.21553653 -0.015822854 -0.21043594 0.10876131 -0.021765707 0.053407364 0.093810834
-0.098883726 -0.16146488 0.18143235 0.17357762 -0.10715038 0.16254267 -0.038298346 -0.108649895
0.17151704 -0.1794003 -0.11836548 -0.16222984 -0.0791605 -0.06571256 0.13640846 0.119331114
-0.2338673 -0.12670237 0.09068797 0.02580897 -0.010421669 -0.031445213 -0.21208794 0.014417208
0.07669496 -0.2419286 0.07167963 -0.022701563 -0.12417751 -0.023442041 -0.0063190465 -0.15231478
-0.058036912 -0.25799206 -0.0062290686 -0.20767045 -0.027536802 -0.06929987 -0.2838772 -0.14122747
-0.000718567 0.11109645 -0.0063027753 -0.052738003 0.102011755 0.156415 2.7218425e-07 0.0015220499
-0.10590876 -0.08874558 -0.0012346441 -0.011928725 1.7898143e-05 -3.4037148e-06 1.2599514e-05 -0.0017583596
-0.2241567 0.15554293 0.013916185 0.2901284 -0.1841187 0.13363463 0.09285143 -0.2113128
0.089099005 0.105829895 -0.15359461 -0.20438233 0.23003955 -0.16919588 0.084647894 0.094449
-0.25713706 0.16118194 -0.037019867 0.2689138 -0.16900665 -0.0063429787 -0.033686813 -0.118786946
0.19190869 0.0941396 -0.1827057 -0.21541223 0.13202594 -0.197606 0.25250936 0.09589705
0.24583822 -0.20324638 -0.029347343 -0.22263843 0.04173846 -0.08618865 0.0023414243 0.04059971
-0.16160093 -0.10369186 0.25524172 -0.016962629 -0.012901368 -0.012322453 -0.11118669 -0.14250061
0.19090408 -0.28896976 0.05150008 -0.17991783 0.10263097 -0.059014563 0.081721425 0.09320545
-0.17545643 -0.10041197 0.18927668 0.18098596 -0.12947938 0.24220747 0.009541285 -0.02766887
-0.053536236 -0.066129066 0.09634003 -0.26469868 -0.13036825 0.010575032 -0.19202854 -0.06293817
0.2327277 0.020639665 -0.105537124 -0.05250923 -0.27487314 0.038511444 -0.031940073 -0.025556674
00000000: e258 943e 0900 37be c829 123e 5ffd 46be
00000010: 34df a9bd 36a5 0cbe dc19 273e 8481 40bc
00000020: e5ff f1bd dcef 1fbe d05d 6e3e cfbf ecbc
00000030: 80e2 4bbe 19a5 803e 0c6c 213c 5cec d7bd
00000040: 8709 17be a75a 773e befe 26bc c8c5 773d
00000050: 17c7 b63e 8dfb 8e3d b4b7 70bd eb46 793d
00000060: b20e df3d edc8 b43d c597 aa3d 8573 afbd
00000070: 2102 02bd c017 6a3c 1b38 683b 5107 b23d
00000080: 66b0 ef3d 6e6b 84be 0257 153e 3c41 80be
00000090: 1ecd af3d a82d 803d 935d bd3d b07c 273e
000000a0: 058d 73be 6957 69be 5833 063e e9e7 f738
000000b0: 4a89 72bd 0985 903e 6e7f 1e3e 44c2 00be
000000c0: 9372 81be fb9a d03d b26a 22be d322 63bc
000000d0: 87cd 31be 27e6 f93d 8c97 abbd bb92 4bbe
000000e0: 3137 1fbd b4eb be3d 2400 a7be 4129 49be
000000f0: 4ddd 04be cb7c 8bbe a634 89bd 8b39 58be
00000100: a750 29be 94a8 573d 37d5 d93d 91bd 42bd
00000110: 80e7 4ebd cc16 6a3d ae8c 3b3d 9da5 0ebe
00000120: bad0 fc3d 9c22 383e 046b 9fbe ae6e 78be
00000130: df22 1fbe 1c37 9abe 7a26 b03d 507f 3dbd
00000140: 77f8 363e 9cb5 5cbe ee9e 81bc 857c 57be
00000150: 40be de3d ff4d b2bc aec1 5a3d e51f c03d
00000160: 8d83 cabd 0d57 25be 67c9 393e 55be 313e
00000170: a971 dbbd 9671 263e bade 1cbd d683 debd
00000180: 2aa2 2f3e b6b4 37be 9a69 f2bd 941f 26be
00000190: e61e a2bd 4f94 86bd a9ae 0b3e df63 f43d
000001a0: e97a 6fbe 44be 01be 9dba b93d 556d d33c
000001b0: a6bf 2abc b2cc 00bd 952d 59be 2736 6c3c
000001c0: 3f12 9d3d 22bc 77be c5cc 923d a1f8 b9bc
000001d0: c750 febd 8609 c0bc 0110 cfbb 68f8 1bbe
000001e0: 1db8 6dbd 8917 84be 371d ccbb 90a7 54be
000001f0: dc94 e1bc 17ed 8dbd 5a58 91be ef9d 10be
00000200: 375e 3cba 8986 e33d 8387 cebb ce03 58bd
00000210: 8aeb d03d 412b 203e b820 9234 857f c73a
00000220: b1e6 d8bd 3ec0 b5bd c8d3 a1ba b370 43bc
00000230: f823 9637 606b 64b6 8062 5337 c278 e6ba
00000240: 5589 65be a546 1f3e b600 643c b68b 943e
00000250: 9d89 3cbe 84d7 083e e428 be3d 6262 58be
00000260: 8a79 b63d 58bd d83d e847 1dbe 9a49 51be
00000270: 7d8f 6b3e af41 2dbe e05b ad3d 7a6e c13d
00000280: 78a7 83be e10c 253e 25a2 17bd 12af 893e
00000290: 1410 2dbe c3d8 cfbb 2ffb 09bd 9246 f3bd
000002a0: b683 443e 43cc c03d 3417 3bbe 0695 5cbe
000002b0: cf31 073e 3a59 4abe e848 813e ac65 c43d
000002c0: 04bd 7b3e d21f 50be d769 f0bc 54fb 63be
000002d0: f3f5 2a3d ad83 b0bd 9572 193b e24b 263d
000002e0: b77a 25be 665c d4bd 0baf 823e 36f5 8abc
000002f0: 4260 53bc 1de4 49bc d9b5 e3bd aeeb 11be
00000300: 5c7c 433e d8f3 93be bff1 523d 613c 38be
00000310: 3030 d23d 41b9 71bd 905d a73d 80e2 be3d
00000320: daaa 33be caa4 cdbd bfd1 413e 6254 393e
00000330: 3e96 04be 3c05 783e 0d53 1c3c d3a9 e2bc
00000340: d048 5bbd ad6e 87bd ec4d c53d 9686 87be
00000350: 417f 05be e642 2d3c 21a3 44be bae5 80bd
00000360: 2c50 6e3e 8414 a93c d923 d8bd eb13 57bd
00000370: 2cbc 8cbe 2dbe 1d3d 98d3 02bd 3b5c d1bc

encoder_mean.8.bias f4 [14]
0.026799865 -0.0122107025 0.06831217 -0.033826813 0.013662244 0.024372661 0.011914273 -0.049328808
-0.0562751 0.06803276 0.08617643 0.015345524 0.035179045 -0.005812295
00000000: 648b db3c 660f 48bc 40e7 8b3d fc8d 0abd
00000010: 9bd7 5f3c 2da9 c73c 1534 433c 010d 4abd
00000020: b880 66bd c254 8b3d 457d b03d cb6b 7b3c
00000030: e717 103d 1075 bebb

encoder_mean.9.weight f4 [14]
0.5888893 0.42902216 0.7309752 0.6799921 0.5398384 0.5643814 0.6529348 0.52551496
0.39119062 0.8121989 0.82701886 0.7078043 0.43618992 0.44727996
00000000: 73c1 163f cba8 db3e 3121 3b3f f613 2e3f
00000010: d932 0a3f 4d7b 103f bc26 273f 2688 063f
00000020: 234a c83e 44ec 4f3f 82b7 533f aa32 353f
00000030: 4954 df3e e101 e53e

encoder_mean.9.bias f4 [14]
0.17022689 -0.119250804 0.21733876 -0.098863125 0.04413564 0.16304915 0.028134659 -0.0061861183
-0.091484025 0.28228968 0.24169633 0.06252198 0.18977648 -0.16884059
00000000: f54f 2e3e c439 f4bd 0d8e 5e3e c078 cabd
00000010: 93c7 343d 5bf6 263e a87a e63c ecb4 cabb
00000020: fa5b bbbd 4688 903e 3e7f 773e 860b 803d
00000030: c454 423e 8ce4 2cbe

encoder_mean.9.running_mean f4 [14]
-0.022095118 0.30701354 -0.055496946 -0.28868896 -0.09475181 -0.016358348 -0.16270126 -0.1495241
0.16760528 -0.110239945 -0.033962965 -0.13574217 0.021729413 -0.06286778
00000000: d200 b5bc e130 9d3e c450 63bd 0acf 93be
00000010: 3d0d c2bd f101 86bc 299b 26be d81c 19be
00000020: b8a0 2b3e 7bc5 e1bd c01c 0bbd ffff 0abe
00000030: e201 b23c d3c0 80bd

encoder_mean.9.running_var f4 [14]
0.14674538 0.052217945 0.09767654 0.1506955 0.0868791 0.16421087 0.1697689 0.18326329
0.11244554 0.33013126 0.37928733 0.15306605 0.12135529 0.040818583
00000000: 6c44 163e 7ce2 553d a30a c83d ec4f 1a3e
00000010: abed b13d e526 283e e6d7 2d3e 5fa9 3b3e
00000020: d949 e63d f706 a93e f331 c23e 59bd 1c3e
00000030: 1f89 f83d 6331 273d

encoder_mean.12.weight f4 [12, 14]
-0.038806066 -0.06010565 0.16573392 -0.26767558 -0.23391457 0.062224913 -0.02497846 -0.09493679
-0.20710725 -0.35523567 -0.22168253 0.20234299 -0.028007567 0.11001634 0.004327695 -0.008619151
0.009951746 0.031882536 -0.26291984 -0.12277142 -0.11073808 -0.13781717 2.4597136e-06 0.34532803
-0.27199328 -0.13712397 -0.11800349 -0.0006991993 -0.20201623 -0.06815363 -0.19875135 0.041149985
-0.07467026 -0.2414526 -0.1303187 -0.20819819 -0.13683961 -0.26429856 -0.25311527 -0.16807295
-0.26271394 -0.18152677 0.31378013 -0.0834079 -0.015523946 0.12686971 0.0087721655 0.29710612
0.2674858 0.16308533 8.9457757e-07 -0.058483053 0.05683325 0.39094803 0.15094857 0.04621998
-0.2846552 0.1728182 -0.28883204 -0.1737429 0.18878676 -0.32761174 -0.19264188 0.07458305
0.023097554 0.020643666 0.07516155 -0.29362676 -0.15851068 0.15722622 0.20854056 -0.0040310053
0.03521147 -0.057822336 -0.108747244 0.18331921 0.15820405 0.16562812 -0.040791914 -0.28303093
-0.13522339 -0.009765155 0.31547785 -0.035484135 0.10717696 0.024276614 -0.019757379 -0.27593106
-0.18981741 0.040675648 0.12298604 0.06943323 -0.023354659 -0.15917468 -0.13575536 0.10108482
0.10792115 0.09441081 -0.004037416 -0.17776942 0.040282853 0.04545886 -0.0660605 -0.15852457
-0.15819012 0.000346647 9.994969e-06 -0.2325233 0.2987308 -0.091296874 -0.12230132 0.035574082
-0.05518533 0.045722574 -0.08229234 -0.06904879 0.15667106 -0.039556686 -0.26822492 0.06565274
-0.018786496 0.01952001 -0.016151356 -0.14732154 -0.06541113 0.18731368 -0.24110472 -0.16451755
-0.30670297 0.19556874 -0.032679595 -0.24331819 -0.18640001 -0.17533349 0.06294535 0.06916507
-0.0019103563 -0.18933329 -0.31569308 -0.02491279 -0.1353886 -0.01703137 -0.1299602 0.041805096
0.1668008 -0.21997699 -0.12911133 0.0352437 -0.10112267 0.16915308 0.35335156 -0.20212413
-0.13795245 0.2031162 0.20568325 -0.07189593 0.0723127 -0.2259989 -0.014829996 0.10825704
0.11257824 0.12864245 0.015825406 -0.31333855 -0.06395961 0.12045382 0.17915487 -0.007865187
00000000: 1cf3 1ebd 5831 76bd 27b6 293e c60c 89be
00000010: 4d87 6fbe 8ddf 7e3d a19f ccbc 386e c2bd
00000020: ec13 54be 73e1 b5be bf00 63be 0033 4f3e
00000030: 2070 e5bc 3f50 e13d 56cf 8d3b 5737 0dbc
00000040: a60c 233c 4397 023d 6e9d 86be 956f fbbd
00000050: a6ca e2bd f21f 0dbe 8f11 2536 d6ce b03e
00000060: b442 8bbe 3a6a 0cbe d0ab f1bd 794a 37ba
00000070: 58dd 4ebe 2194 8bbd 7985 4bbe e38c 283d
00000080: b9ec 98bd 5a3f 77be 4472 05be e831 55be
00000090: af1f 0cbe 2452 87be 5398 81be 511b 2cbe
000000a0: 7182 86be 27e2 39be caa7 a03e c3d1 aabd
000000b0: 2658 7ebc 22ea 013e 21b9 0f3c 4b1e 983e
000000c0: e6f3 883e d7ff 263e e722 7035 ed8b 6fbd
000000d0: fbc9 683d 572a c83e 4392 1a3e 2951 3d3d
000000e0: 54be 91be 41f7 303e cbe1 93be a9e9 31be
000000f0: 5151 413e babc a7be ea43 45be 00bf 983d
00000100: 1537 bd3c e81c a93c 4cee 993d 3f56 96be
00000110: a050 22be e9ff 203e a88b 553e 8616 84bb
00000120: e739 103d 1dd7 6cbd e0b6 debd 08b8 3b3e
00000130: 3e00 223e 6b9a 293e 6c15 27bd 6ee9 90be
00000140: 0078 0abe 07fe 1fbc 5086 a13e d057 11bd
00000150: 987f db3d c0df c63c 3ada a1bc d646 8dbe
00000160: 7f5f 42be 829b 263d 1be0 fb3d 0233 8e3d
00000170: 4552 bfbc b0fe 22be 7403 0bbe 8f05 cf3d
00000180: c405 dd3d 745a c13d 4d4c 84bb 3009 36be
00000190: a2ff 243d 1233 3a3d ba4a 87bd 4454 22be
000001a0: 97fc 21be 2cbe b539 11b0 2737 971a 6ebe
000001b0: 3ef3 983e dbf9 babd 1d79 fabd 21b6 113d
000001c0: 030a 62bd 9847 3b3d e388 a8bd 7469 8dbd
000001d0: 616e 203e 3106 22bd c754 89be f274 863d
000001e0: 23e6 99bc 6ee8 9f3c d94f 84bc 75db 16be
000001f0: 45f6 85bd 28cf 3f3e 28e4 76be 4a77 28be
00000200: 2c08 9dbe 2c43 483e 0adb 05bd 6728 79be
00000210: a5df 3ebe 9f8a 33be 7ee9 803d 6ba6 8d3d
00000220: ec64 faba 96e0 41be 86a2 a1be e815 ccbc
00000230: 4fa3 0abe 5f85 8bbc 4914 05be d23b 2b3d
00000240: d4cd 2a3e a641 61be c335 04be b35b 103d
00000250: 6719 cfbd 7736 2d3e 7fea b43e a1f9 4ebe
00000260: 6843 0dbe b1fd 4f3e a19e 523e 2c3e 93bd
00000270: ae18 943d 416c 67be 83f9 72bc deb5 dd3d
00000280: 6c8f e63d d9ba 033e 48a4 813c e96d a0be
00000290: 42fd 82bd 7eb0 f63d 6074 373e fcdc 00bc

encoder_mean.12.bias f4 [12]
0.028879842 -0.06655191 -0.13470025 0.01129828 0.06699034 0.0575036 0.038537987 0.08469388
0.05095659 0.053911824 0.15253033 0.04495269
00000000: 6b95 ec3c 5e4c 88bd ddee 09be 6c1c 393c
00000010: 3b32 893d e588 6b3d 02da 1d3d fc73 ad3d
00000020: dbb7 503d a5d2 5c3d e930 1c3e 5020 383d

encoder_mean.13.weight f4 [12]
0.76323056 0.655512 0.78439474 0.5979779 0.8570734 0.7071309 0.63108325 0.7089695
0.68002975 1.0017798 0.76694316 0.58518666
00000000: 1463 433f a2cf 273f 18ce 483f 1415 193f
00000010: 2a69 5b3f 8806 353f ac8e 213f 067f 353f
00000020: 6e16 2e3f 523a 803f 6356 443f cbce 153f

encoder_mean.13.bias f4 [12]
0.26601982 -0.08387279 0.21597582 0.016120834 0.28284752 0.4368493 0.45400745 0.14473465
0.26980662 0.32310748 0.40436485 0.50052595
00000000: c033 883e 7fc5 abbd c428 5d3e d70f 843c
00000010: 64d1 903e b6aa df3e aa73 e83e 5235 143e
00000020: 1824 8a3e 586e a53e e908 cf3e 7822 003f

encoder_mean.13.running_mean f4 [12]
-0.11630189 0.04449155 -0.35586858 0.34030235 -0.20232944 0.12226242 0.011813224 -0.04639964
0.030628541 -0.4121109 -0.062157206 0.14279984
00000000: af2f eebd c63c 363d 6834 b6be 1c3c ae3e
00000010: 732f 4fbe b864 fa3d 418c 413c 8d0d 3ebd
00000020: b5e8 fa3c 3300 d3be 8e98 7ebd 1f3a 123e

encoder_mean.13.running_var f4 [12]
0.21952175 0.032499216 0.163139 0.11435489 0.29812843 0.18691117 0.096119046 0.049253445
0.1513606 0.21486573 0.45500585 0.18090628
00000000: 4fca 603e e61d 053d e90d 273e e632 ea3d
00000010: 4aa4 983e a465 3f3e 10da c43d fbbd 493d
00000020: 46fe 1a3e c305 5c3e 87f6 e83e 7f3f 393e

encoder_mean.16.weight f4 [10, 12]
-0.12353479 0.16369739 -0.24939086 -0.0049944627 0.060343605 -0.032340012 0.19619487 -0.009159413
0.21776167 -0.14112672 0.10802921 0.054788683 0.01907117 0.10328253 0.04534468 -0.26898664
-0.13242811 0.10421817 -0.028593134 -0.19332309 0.013156007 -0.10669373 0.15354632 0.25022432
0.22437811 0.10884969 -0.099058144 -0.13418467 -0.06937747 0.011726156 0.13479038 0.04095331
-0.03524352 -0.22010708 -0.07648308 0.20363985 -0.20638792 -0.27850866 0.20492606 0.11708489
-0.018841643 -0.33800715 -0.14058366 -0.081042886 -0.052394938 0.44168755 0.18519795 -0.1503082
0.24419692 0.25063998 -0.2913181 -0.07290591 -0.1281663 0.23002191 0.28134403 0.026509656
0.114320986 -0.5544155 -0.053351652 0.3753689 0.048695564 0.0748417 -0.045028124 -0.17357974
-0.009931148 0.16316065 0.12498571 -0.12326403 0.024367895 0.024704138 -0.13485198 0.069150046
0.014225489 0.09879191 -0.42478243 -0.10422197 0.16469586 0.15742064 0.08180754 0.24315795
0.07999703 -0.32074696 0.028165126 0.04690852 0.39980602 -0.1101004 0.1514946 -0.09756067
-0.19453049 0.23050815 0.051077068 -0.25139937 -0.14110954 -0.07378503 -0.32608876 0.2646019
0.11949421 -0.039070398 0.0654103 -0.15166163 -0.10281343 0.13601197 0.18251863 0.03339094
-0.057271395 0.032767046 -0.08256906 0.006930005 -0.46273875 -0.01649951 -0.28205305 0.29909554
0.4666774 -0.39815792 -0.4803357 0.21054456 0.24036935 0.31856328 0.43519592 -0.2504284
00000000: cfff fcbd 4aa0 273e 5160 7fbe 97a8 a3bb
00000010: db2a 773d f676 04bd 4fe7 483e 5d11 16bc
00000020: eafc 5e3e 8683 10be 6b3e dd3d 196a 603d
00000030: 243b 9c3c cb85 d33d 58bb 393d 9eb8 89be
00000040: 3c9b 07be 5670 d53d 263c eabc 7df6 45be
00000050: 4b8c 573c 3e82 dabd 3f3b 1d3e 671d 803e
00000060: 60c3 653e 96ec de3d ffde cabd b567 09be
00000070: c615 8ebd 101f 403c 7d06 0a3e a8be 273d
00000080: 825b 10bd c063 61be 29a3 9cbd f786 503e
00000090: 5b57 53be b098 8ebe 23d8 513e 34ca ef3d
000000a0: ca59 9abc 460f adbe 2af5 0fbe d0f9 a5bd
000000b0: 139c 56bd df24 e23e 88a4 3d3e 65ea 19be
000000c0: c20e 7a3e e253 803e a527 95be b24f 95bd
000000d0: 073e 03be dd8a 6b3e 530c 903e c72a d93c
000000e0: 1f21 ea3d 2dee 0dbf 4387 5abd 5a30 c03e
000000f0: 0075 473d 9b46 993d 696f 38bd e3be 31be
00000100: 41b6 22bc 9613 273e 82f8 ff3d da71 fcbd
00000110: 2e9f c73c 5560 ca3c a316 0abe 8a9e 8d3d
00000120: 0712 693c 6a53 ca3d 157d d9be 5472 d5bd
00000130: 08a6 283e e032 213e b68a a73d 66fe 783e
00000140: 7cd5 a33d f238 a4be 8dba e63c 2623 403d
00000150: 60b3 cc3e 527c e1bd 6721 1b3e e3cd c7bd
00000160: 0033 47be 540a 6c3e 3036 513d 6bb7 80be
00000170: 057f 10be 9b1c 97bd 1bf5 a6be e679 873e
00000180: 61b9 f43d 4808 20bd d6f5 853d 304d 1bbe
00000190: d98f d2bd b946 0b3e 2ae6 3a3e f0c4 083d
000001a0: 6995 6abd bd36 063d f819 a9bd 1815 e33b
000001b0: 18ec ecbe fb29 87bc 4269 90be 0d23 993e
000001c0: 57f0 ee3e 5bdb cbbe 90ee f5be fe98 573e
000001d0: 6223 763e ba1a a33e 00d2 de3e 2738 80be

encoder_mean.16.bias f4 [10]
-0.22149101 -0.17334127 -0.12946813 0.24863711 -0.4565682 -0.1425078 -0.16230808 -0.13323145
-0.13696617 0.22670773
00000000: 8ace 62be 6080 31be 4b93 04be ba9a 7e3e
00000010: 4fc3 e9be 91ed 11be 1734 26be d36d 08be
00000020: dc40 0cbe 1226 683e

encoder_var.0.weight f4 [20, 30]
0.00017153578 -0.00010556527 -0.00031247368 9.0472866e-05 -0.0005980861 -0.00011484148 -1.0820524e-05 -0.00065752957
6.4653983e-07 -7.3282135e-05 4.281398e-06 2.1307716e-05 -0.00021350356 -0.0002357697 0.00028579475 0.0004683028
-9.804049e-05 -0.000113067996 -0.00010474847 -0.00011978196 9.0514295e-05 6.0160808e-05 1.14689055e-05 5.308078e-05
-0.0007242678 -0.00024461406 -6.552366e-05 3.002318e-05 0.0010295709 -0.0009843934 5.231552e-06 3.0555148e-07
-6.1755204e-06 5.7989955e-06 2.0529335e-05 -7.4169047e-06 5.562084e-06 6.838539e-06 6.195904e-07 -3.2349926e-05
7.28117e-07 2.5421893e-06 1.2384868e-05 -7.1921004e-06 -1.3861028e-06 2.1375407e-05 2.503661e-05 2.9478515e-06
-1.4278997e-06 -2.373936e-06 1.7755899e-06 -4.3505515e-06 6.5089775e-06 1.97533e-07 -2.1700853e-06 -9.755945e-06
5.42572e-06 -2.1733857e-05 -5.539454e-06 2.9796376e-05 -1.921311e-05 -8.905115e-06 0.00014502059 1.212232e-06
4.3749565e-06 1.524468e-06 4.3750075e-05 -6.688378e-05 -7.6192144e-08 -9.4121446e-05 -5.618897e-07 -1.248903e-06
-6.2754248e-06 0.00012282425 -8.525523e-06 8.492484e-05 -9.28644e-05 -1.1246036e-06 -9.896695e-06 5.0355284e-06
-1.3171483e-06 6.91815e-05 1.7229004e-06 -1.1818636e-06 -5.278904e-05 8.898973e-05 2.2896509e-06 9.128597e-05
0.00012040547 -8.637494e-06 -1.5050983e-05 3.1639195e-06 3.433434e-06 -9.0085683e-07 1.715042e-05 2.5000134e-06
-8.485696e-07 1.7446522e-05 8.47427e-07 1.5914136e-06 -5.2800726e-07 -1.1155342e-06 6.537574e-06 -6.5136476e-07
-1.9602774e-06 -1.7752536e-05 4.5731556e-07 -1.3744634e-07 5.512121e-07 7.853313e-06 4.3155273e-07 -1.1897235e-05
3.3709753e-06 -3.0893532e-06 -5.705108e-06 1.7331133e-05 5.333617e-06 6.83067e-06 -8.461441e-06 -6.977339e-05
0.15214927 0.14373031 0.05094434 -0.01836648 0.1292 0.013693746 0.014675743 -0.07573245
-8.861617e-07 0.06711546 0.043663815 0.004596363 -0.009199835 0.045173317 0.063002385 0.06022793
0.09777968 -0.057883337 -0.00037627222 0.0149892615 -0.01835745 0.024165705 0.0036426468 -0.002850251
0.117310375 0.121733196 0.039203912 0.070079714 0.056732234 0.16482821 -0.001992232 -0.0020586024
0.0010089446 -4.1211388e-06 0.004820305 -0.0003707285 0.003755174 0.00090848544 -9.1700895e-07 0.00018334386
-0.002846581 -7.768863e-05 8.4017796e-05 0.00053929427 0.0034099894 0.0004436931 0.0002940401 -0.0031634907
8.321087e-05 0.00020671095 -4.8279885e-06 -0.0021228904 0.0007237113 0.00040843707 -0.001175813 0.00020053984
0.0062762666 0.000837791 0.0064393 0.005153713 1.702186e-05 1.8875966e-05 -1.7885211e-06 2.056064e-07
-1.312368e-05 -1.0440049e-05 8.539221e-07 4.543309e-06 -6.6537797e-07 -3.973529e-06 -6.1329325e-07 1.8436499e-06
1.6344591e-05 2.5621837e-06 2.308509e-06 1.9161955e-05 -1.475423e-07 2.4221563e-06 2.1710728e-06 -9.6707445e-06
-1.5797326e-06 -4.075551e-06 2.2590252e-06 7.1609634e-06 2.5340125e-06 -2.9136376e-05 1.666764e-05 5.400324e-06
7.833727e-05 8.045186e-05 -0.00035207198 0.0010315002 -0.0006161283 -0.0004396531 -0.0027295079 0.00028131457
-0.0010142266 0.00025616225 7.3722845e-08 0.0022361632 8.621811e-05 4.100946e-06 -0.00020933927 -0.00044689092
0.00011269298 -0.00023526428 -0.0017660249 0.0012566509 0.00014226999 -4.0849587e-05 -0.00043897022 -0.00012297687
-0.000326866 -0.00012300054 -0.00029704877 -0.00088203565 -0.005895809 0.004939488 -0.002877089 -0.0034899865
6.7828514e-06 -2.0508707e-05 -1.1622556e-06 6.452106e-08 -2.875506e-05 -3.424071e-06 1.7135038e-05 3.103842e-05
-5.9011825e-07 2.2272593e-06 -6.6539667e-07 -1.3373802e-06 -1.0041637e-05 -3.4848235e-05 1.5771884e-06 1.7925194e-06
00000000: 49de 3339 ec62 ddb8 82d3 a3b9 40bc bd38
00000010: e1c8 1cba 0dd7 f0b8 cc89 35b7 105e 2cba
00000020: e18d 2d35 0caf 99b8 eea8 8f36 f9bd b237
00000030: eddf 5fb9 f238 77b9 b9d6 9539 8a86 f539
00000040: 169b cdb8 eb1e edb8 68ac dbb8 7333 fbb8
00000050: 7ed2 bd38 2d55 7c38 936a 4037 0ea3 5e38
00000060: cadc 3dba 8b3f 80b9 bf69 89b8 4ada fb37
00000070: abf2 863a c306 81ba b18a af36 ad0a a434
00000080: 5137 cfb6 fe94 c236 6936 ac37 bade f8b6
00000090: f0a1 ba36 9a76 e536 ee51 2635 78af 07b8
000000a0: d273 4335 7b9a 2a36 9ac8 4f37 ac53 f1b6
000000b0: 210a bab5 564f b337 b605 d237 b4d3 4536
000000c0: 43a6 bfb5 e94f 1fb6 ce50 ee35 f4fa 91b6
000000d0: b167 da36 7519 5434 c8a1 11b6 77ad 23b7
000000e0: 940e b636 1a51 b6b7 8cdf b9b6 3bf3 f937
000000f0: d72b a1b7 2d67 15b7 ab10 1839 f9b3 a235
00000100: 97cc 9236 529c cc35 4980 3738 f543 8cb8
00000110: 139f a3b3 1163 c5b8 c4d4 16b5 fb9f a7b5
00000120: 7d91 d2b6 62ca 0039 d808 0fb7 ad19 b238
00000130: 32c0 c2b8 16f1 96b5 fb09 26b7 dcf6 a836
00000140: dfc8 b0b5 8915 9138 683e e735 86a0 9eb5
00000150: cd69 5db8 ff9f ba38 e7a7 1936 c870 bf38
00000160: 3282 fc38 c1e9 10b7 7b83 7cb7 b953 5436
00000170: f269 6636 69d2 71b5 3fde 8f37 e7c5 2736
00000180: 42c9 63b5 1f5a 9237 bd7a 6335 8e98 d535
00000190: 62bc 0db5 77b9 95b5 555d db36 72d9 2eb5
000001a0: 4f8d 03b6 48eb 94b7 f984 f534 f694 13b4
000001b0: 02f7 1335 b9c1 0337 28b0 e734 3c9a 47b7
000001c0: ea38 6236 af52 4fb6 816e bfb6 5362 9137
000001d0: 6cf7 b236 0233 e536 9df5 0db7 4e53 92b8
000001e0: 05cd 1b3e 0a2e 133e 03ab 503d 4d75 96bc
000001f0: 014d 043e bc5b 603c 8772 703c 9d19 9bbd
00000200: 91e0 6db5 d573 893d d4d8 323d 169d 963b
00000210: e8ba 16bc a807 393d 6507 813d 90b1 763d
00000220: b640 c83d 1417 6dbd 6746 c5b9 8595 753c
00000230: 5d62 96bc 28f7 c53c 79b9 6e3b 47cb 3abb
00000240: 6c40 f03d 414f f93d 4894 203d f485 8f3d
00000250: 0f60 683d bac8 283e 1b90 02bb 9ee9 06bb
00000260: 903e 843a 5048 8ab6 a6f3 9d3b 565e c2b9
00000270: 5e19 763b 6d27 6e3a 6028 76b5 fe3f 4039
00000280: b48d 3abb c4ec a2b8 b632 b038 6d5f 0d3a
00000290: 217a 5f3b 7b9f e839 6529 9a39 9152 4fbb
000002a0: 7f81 ae38 8cc0 5839 1b00 a2b6 3120 0bbb
000002b0: 71b7 3d3a 7f23 d639 bd1d 9aba 0148 5239
000002c0: 24a9 cd3b 349f 5b3a c300 d33b 7ae0 a83b
000002d0: 2aca 8e37 d457 9e37 1e0d f0b5 a8c4 5c34
000002e0: c72d 5cb7 ab27 2fb7 1439 6535 ba72 9836
000002f0: 6d9c 32b5 5b54 85b6 31a1 24b5 5473 f735
00000300: be1b 8937 fbf1 2b36 e2eb 1a36 fcbd a037
00000310: 1e6c 1eb4 548c 2236 bfb2 1136 883f 22b7
00000320: 3307 d4b5 b7c0 88b6 c299 1736 3548 f036
00000330: 010e 2a36 e469 f4b7 7cd1 8b37 6e34 b536
00000340: 0049 a438 43b8 a838 4d96 b8b9 6733 873a
00000350: ac83 21ba 3d81 e6b9 8be1 32bb 677d 9339
00000360: ccef 84ba 844d 8639 9051 9e33 988c 123b
00000370: ffcf b438 dc9a 8936 1582 5bb9 af4c eab9
00000380: 9555 ec38 46b1 76b9 f679 e7ba 35b6 a43a
00000390: 4f2e 1539 e955 2bb8 9625 e6b9 5af3 00b9
000003a0: 365f abb9 b5f9 00b9 36bd 9bb9 6938 67ba
000003b0: a131 c1bb 6edb a13b 8b8d 3cbb 42b8 64bb
000003c0: 4098 e336 1d0a acb7 ccfe 9bb5 d48e 8a33
000003d0: 0537 f1b7 18c9 65b6 37bd 8f37 402f 0238
000003e0: 9e68 1eb5 0678 1536 b69d 32b5 0980 b3b5
000003f0: 8178 28b7 022a 12b8 c8af d335 7f96 f035

encoder_var.0.bias f4 [20]
-0.0009901802 2.8121369e-05 0.00013715189 -2.9847393e-05 0.16833034 0.005121325 5.26933e-05 -0.0034936846
-2.0518095e-05 1.1969711e-05 2.1264463e-05 -1.8900368e-05 1.0724287e-05 0.0027575863 -7.1503982e-06 -1.2988797e-06
8.02207e-06 -1.6447291e-05 5.95739e-06 3.0122497e-05
00000000: efc8 81ba 2ee6 eb37 6ed0 0f39 ca60 fab7
00000010: ca5e 2c3e cad0 a73b 0003 5d38 4df6 64bb
00000020: 461e acb7 84d1 4837 1661 b237 3b8c 9eb7
00000030: 76ec 3337 9fb8 343b 74ed efb6 2b55 aeb5
00000040: 8796 0637 4af8 89b7 97e5 c736 92af fc37

encoder_var.1.weight f4 [20]
0.004927615 4.5739358e-05 -0.00041981248 -2.0265636e-06 0.14301497 -0.0925746 -2.876898e-05 0.008973683
-7.060851e-05 -0.0001702233 -4.564854e-06 0.00039120356 8.870767e-06 0.03016994 7.096409e-05 1.2890498e-05
0.00019805614 -6.0041213e-05 3.5135305e-05 -0.0001438728
00000000: d577 a13b 43d8 3f38 471a dcb9 1900 08b6
00000010: 8472 123e c097 bdbd ea54 f1b7 5b06 133c
00000020: a813 94b8 f87d 32b9 cc2b 99b6 741a cd39
00000030: a7d3 1437 f326 f73c 8ed2 9438 4444 5837
00000040: 4aad 4f39 c3d4 7bb8 3f5e 1338 90dc 16b9

encoder_var.1.bias f4 [20]
0.0011206619 -0.00018114752 -0.00045080652 -1.1173252e-05 0.0682299 0.007028472 -1.2572746e-05 0.0005002276
0.00010690952 -2.4078088e-05 -5.444183e-06 0.00011629294 4.2288888e-05 0.00058219454 -5.4437594e-05 0.00010717258
-0.0002534309 7.660805e-05 2.263002e-06 -5.8358073e-06
00000000: 2ce3 923a 6bf2 3db9 3a5a ecb9 c074 3bb7
00000010: 1ebc 8b3d 194f e63b 88ef 52b7 b521 033a
00000020: 9d34 e038 4dfb c9b7 2dad b6b6 4ce2 f338
00000030: 595f 3138 6a9e 183a ec53 64b8 d7c1 e038
00000040: ebde 84b9 a2a8 a038 14de 1736 34d1 c3b6

encoder_var.1.running_mean f4 [20]
0.08270074 -0.00094419095 0.078721166 -0.14188978 0.0069842716 0.012716061 -0.0632876 0.010509949
-0.09012592 0.12606408 0.12292872 0.123425536 0.058895852 -0.13100944 -0.12020803 0.012558029
-0.21729633 0.02619849 0.081368774 -0.18031657
00000000: 015f a93d 9583 77ba 9038 a13d 8e4b 11be
00000010: 51dc e43b 0757 503c ee9c 81bd ec31 2c3c
00000020: f093 b8bd f116 013e 0ec2 fb3d 87c6 fc3d
00000030: c73c 713d 5727 06be a12f f6bd 31c0 4d3c
00000040: ee82 5ebe 379e d63c aca4 a63d e8a4 38be

encoder_var.1.running_var f4 [20]
0.0019971335 0.0010732245 0.0020530906 0.00222865 0.0012080879 0.0007877464 0.0030141734 0.0010641263
0.001536155 0.004105629 0.006967365 0.007884612 0.0049041547 0.0026188805 0.0029234816 0.0035086675
0.006424411 0.0010868972 0.0039132484 0.0046528564
00000000: 57e2 023b 70ab 8c3a 258d 063b 8b0e 123b
00000010: b458 9e3a c480 4e3a 7089 453b 277a 8b3a
00000020: cf58 c93a 8388 863b 7e4e e43b 762e 013c
00000030: 08b3 a03b 86a1 2b3b e297 3f3b acf1 653b
00000040: de83 d23b 3876 8e3a b53a 803b fd76 983b

encoder_var.4.weight f4 [16, 20]
-2.810074e-06 1.5488956e-07 2.104079e-06 -1.4208697e-06 2.5990057e-05 -5.7553593e-06 -4.069108e-07 -6.2117724e-06
-5.1611432e-06 5.552257e-06 2.7909916e-06 5.2641394e-07 7.869975e-07 -4.547626e-06 -1.1566955e-06 5.237085e-06
7.8435437e-07 -3.6889315e-07 3.6687934e-06 3.5226645e-08 -2.3459201e-07 8.455762e-07 -9.860565e-07 1.9323235e-07
-4.787253e-06 1.2752054e-07 -8.785009e-07 -1.3337882e-06 1.1382427e-06 1.1190917e-06 -2.2797876e-06 -1.0735763e-06
1.8174181e-06 1.6245547e-06 -5.417077e-07 3.337895e-06 -3.4396427e-07 2.4552066e-06 -1.5889228e-07 -8.8017816e-07
2.397333e-07 -4.9271915e-07 -6.059293e-07 4.762543e-06 7.5222342e-06 -1.2409109e-06 -3.6436227e-06 -3.5771836e-07
-2.399178e-05 -1.3204997e-06 -8.6468737e-07 -9.303629e-07 8.470933e-07 -3.8009296e-07 -6.987474e-06 -6.9497156e-07
-3.5899438e-07 -7.467535e-06 2.6656985e-06 -7.1551763e-06 -1.9098104e-06 -3.40704e-06 -8.965176e-06 -8.39759e-06
5.1412575e-05 -3.7249e-06 9.3573715e-07 1.4105192e-05 -3.824161e-06 7.975933e-06 -2.1576927e-06 -8.713595e-06
-1.1170102e-06 3.368394e-06 -2.4341532e-06 2.6728745e-07 5.7732177e-07 -3.8899934e-06 3.902817e-06 -1.213644e-05
2.736948e-07 3.4725495e-06 -1.6753897e-06 -3.2475718e-06 -2.5263605e-06 -6.364295e-06 -1.4260854e-06 1.5005909e-06
-1.402978e-05 -1.0770926e-06 7.113527e-07 4.4883262e-07 -1.0060081e-06 3.6165543e-06 8.092353e-06 2.1448168e-06
4.176728e-06 9.234575e-07 4.2264505e-06 -1.6708136e-06 -0.00012764885 -2.0074634e-05 0.0001469707 1.33964095e-05
0.05217873 0.011944911 5.68504e-06 -0.0031941542 2.5251915e-05 -3.3895427e-05 -1.9940613e-05 -4.9809412e-05
5.854069e-06 0.0009493584 -4.2868145e-05 1.4729438e-05 -5.5068544e-05 -1.4964645e-05 4.466465e-05 -4.751001e-06
-5.3061876e-07 6.3901354e-07 -1.1754934e-06 -6.313286e-07 -2.264936e-07 -1.2706068e-06 7.2870296e-07 6.8284027e-07
5.216752e-07 -1.0328666e-07 -2.3541984e-06 5.8385615e-07 1.6387557e-06 -9.2254686e-07 -5.3556624e-07 -1.5904584e-06
-4.2976058e-07 1.0613606e-06 3.2996472e-06 -2.1829162e-07 5.449129e-07 -6.6839534e-06 -4.9336345e-06 -7.2210987e-06
4.170225e-06 1.276245e-05 -4.1738854e-08 -2.4824533e-06 7.5359645e-07 -2.5982895e-06 -1.4796957e-06 1.771673e-05
7.899991e-07 -1.8572977e-06 -4.3808714e-06 2.696846e-07 1.8365827e-07 -7.8111435e-07 1.3746849e-05 -2.8950033e-06
-1.0217239e-05 -5.1047016e-07 7.216544e-07 2.1101537e-06 5.458984e-06 -9.347831e-06 -5.6208455e-07 -1.4286725e-05
-1.9508395e-06 -1.4282799e-06 -3.4490195e-06 2.5239658e-06 -3.677377e-06 2.2809281e-06 2.0338598e-06 -1.8671464e-06
1.5766409e-06 -5.909325e-07 -7.2870257e-06 -5.385036e-07 -2.512749e-06 6.208658e-07 7.552284e-08 6.977785e-07
-8.869994e-06 4.9306004e-06 2.260224e-06 5.5391547e-06 1.6394529e-06 5.5110513e-07 -6.792752e-08 6.596652e-07
-4.94101e-07 1.4534778e-06 -3.0839678e-06 -3.3270308e-07 1.925976e-06 6.249155e-07 4.5543384e-06 -6.880276e-07
1.0137531e-05 3.8746166e-06 1.8284563e-06 -3.15647e-06 -3.4760113e-05 -3.942438e-06 -1.4365575e-06 -3.8427825e-05
5.8892425e-07 6.354201e-06 -1.5870767e-06 4.0256386e-06 -1.2442291e-06 -1.1638043e-08 3.495746e-08 -1.1351652e-05
1.4544564e-07 2.0471796e-06 -2.607017e-06 -4.364225e-06 0.0022978254 -0.00015104999 -0.00065633026 -1.3384104e-07
0.099069275 0.063471824 7.784549e-06 -0.00021373444 8.891912e-05 0.00012891553 5.988983e-05 -9.5070354e-05
-9.661988e-06 0.016614363 2.7217706e-05 -0.00012907387 -2.6949938e-05 -8.7019675e-05 0.0016489386 -2.2020851e-05
-0.0002706435 -6.968569e-05 -0.00027167858 -3.869686e-06 0.04828592 0.02548753 1.9791489e-05 -0.0042964662
0.00013887468 4.5162033e-05 1.8486047e-05 6.589302e-05 -9.518907e-06 -0.0068971827 -1.4295296e-05 -1.1539895e-05
00000000: b494 3cb6 b84f 2634 cd33 0d36 b6b4 beb5
00000010: 3905 da37 291e c1b6 6575 dab4 b86e d0b6
00000020: e22d adb6 864d ba36 df4c 3b36 e44e 0d35
00000030: 0e42 5335 cf97 98b6 c13f 9bb5 38ba af36
00000040: 6c8c 5235 4a0c c6b4 6435 7636 1b4c 1733
00000050: 29e4 7bb4 8efb 6235 a558 84b5 4e7b 4f34
00000060: 31a2 a0b6 94ec 0834 1fd2 6bb5 9d04 b3b5
00000070: b9c5 9835 b333 9635 74fe 18b6 cd17 90b5
00000080: 03ee f335 460b da35 df69 11b5 9900 6036
00000090: 17aa b8b4 21c4 2436 fa9b 2ab4 6245 6cb5
000000a0: b2b4 8034 6743 04b5 25a7 22b5 efcd 9f36
000000b0: 8067 fc36 608d a6b5 f684 74b6 700c c0b4
000000c0: f541 c9b7 063c b1b5 dd1c 68b5 0dbe 79b5
000000d0: cf63 6335 940f ccb4 f275 eab6 158e 3ab5
000000e0: d0bb c0b4 a391 fab6 5ae4 3236 7f16 f0b6
000000f0: 4b2a 00b6 80a4 64b6 2369 16b7 60e3 0cb7
00000100: d5a3 5738 4bf9 79b6 5e2f 7b35 57a5 6c37
00000110: 4b51 80b6 5fd0 0537 e1cc 10b6 9b30 12b7
00000120: 2eec 95b5 910c 6236 6f5a 23b6 b57f 8f34
00000130: 40f9 1a35 ca86 82b6 f1f4 8236 9d9d 4bb7
00000140: 54f0 9234 f209 6936 f4dd e0b5 dcf0 59b6
00000150: 8b8a 29b6 e18c d5b6 ec67 bfb5 e967 c935
00000160: 7261 6bb7 9f90 90b5 c9f3 3e35 16f7 f034
00000170: 2d06 87b5 eeb3 7236 64c4 0737 acef 0f36
00000180: d225 8c36 84e3 7735 efd0 8d36 b840 e0b5
00000190: 7ad9 05b9 f365 a8b7 261c 1a39 24c1 6037
000001a0: 5db9 553d 97b4 433c 1fc2 be36 0455 51bb
000001b0: 13d4 d337 f02a 0eb8 2446 a7b7 73ea 50b8
000001c0: 126e c436 5dde 783a 52cd 33b8 741e 7737
000001d0: 66f9 66b8 a910 7bb7 4e56 3b38 ca6a 9fb6
000001e0: d86f 0eb5 ad88 2b35 a5c5 9db5 9278 29b5
000001f0: 1632 73b4 b889 aab5 169c 4335 6d4c 3735
00000200: 3f09 0c35 71ce ddb3 d2fc 1db6 4aba 1c35
00000210: 38f3 db35 f0a4 77b5 d5c3 0fb5 bc77 d5b5
00000220: d8b9 e6b4 1374 8e35 826f 5d36 8b63 6ab4
00000230: 2146 1235 b946 e0b6 998b a5b6 c44c f2b6
00000240: f6ed 8b36 4e1e 5637 5b44 33b3 3998 26b6
00000250: c14a 4a35 465e 2eb6 f599 c6b5 639e 9437
00000260: 5310 5435 4348 f9b5 66ff 92b6 2bc9 9034
00000270: 9a33 4534 c5ad 51b5 44a2 6637 c747 42b6
00000280: b56a 2bb7 3e07 09b5 b6b7 4135 2a9c 0d36
00000290: 512c b736 a1d4 1cb7 28e2 16b5 04b1 6fb7
000002a0: 2beb 02b6 53b3 bfb5 b475 67b6 6761 2936
000002b0: dbc8 76b6 0c12 1936 727d 0836 a99a fab5
000002c0: f89c d335 92a0 1eb5 1383 f4b6 b08d 10b5
000002d0: b3a0 28b6 93a9 2635 1f2f a233 f94e 3b35
000002e0: 56d0 14b7 8971 a536 5aae 1736 fadc b936
000002f0: 2c0b dc35 a8ef 1335 8ddf 91b3 d913 3135
00000300: 5da2 04b5 1e15 c335 2af6 4eb6 5d9e b2b4
00000310: 0440 0136 debf 2735 78d1 9836 e6b0 38b5
00000320: 5d14 2a37 b402 8236 4869 f535 bed3 53b6
00000330: 63cb 11b8 4949 84b6 bdcf c0b5 902d 21b8
00000340: 9116 1e35 2c36 d536 8a03 d5b5 f913 8736
00000350: 63ff a6b5 a8f0 47b2 2224 1633 f972 3eb7
00000360: cb2b 1c34 4762 0936 36f4 2eb6 6870 92b6
00000370: 1d97 163b 2c63 1eb9 940d 2cba f2b5 0fb4
00000380: d5e4 ca3d 84fd 813d 629a 0237 e71d 60b9
00000390: 177a ba38 802d 0739 3732 7b38 8260 c7b8
000003a0: ec19 22b7 d81a 883c 9451 e437 0158 07b9
000003b0: 8d12 e2b7 557e b6b8 3321 d83a 6bb9 b8b7
000003c0: 28e5 8db9 3824 92b8 1570 8eb9 5ad8 81b6
000003d0: 75c7 453d 39cb d03c e605 a637 5fc9 8cbb
000003e0: e39e 1139 5d6c 3d38 7c12 9b37 0c30 8a38
000003f0: 65b3 1fb7 c301 e2bb d4d5 6fb7 799b 41b7

encoder_var.4.bias f4 [16]
-0.0052377833 -2.97579e-07 -0.012222404 -0.030140217 -0.013990355 0.13039844 2.8826169e-06 -0.014398626
6.352127e-05 7.694219e-08 -0.0037532044 0.20593213 0.16428138 -4.1897297e-06 0.00022132149 3.2946073e-06
00000000: b6a1 abbb f2c2 9fb4 7a40 48bc 9ee8 f6bc
00000010: cd37 65bc 2b87 053e fb72 4136 37e8 6bbc
00000020: b936 8538 6b3b a533 52f8 75bb dfdf 523e
00000030: 6139 283e 8195 8cb6 8912 6839 ec18 5d36

encoder_var.5.weight f4 [16]
-1.0751784e-05 -1.3281949e-05 -1.3610942e-05 -1.6843818e-05 -4.8440443e-06 0.1374657 -9.0085465e-05 2.8852308e-05
-5.5467033e-05 2.3303644e-05 1.5936112e-05 0.22754203 0.15384997 -2.270229e-05 -0.0004625864 -1.3705253e-06
00000000: 9062 34b7 89d5 5eb7 8d5a 64b7 d34b 8db7
00000010: 068a a2b6 cfc3 0c3e 44ec bcb8 dc07 f237
00000020: 46a5 68b8 327c c337 8aae 8537 c700 693e
00000030: d98a 1d3e cc70 beb7 4c87 f2b9 e4f2 b7b5

encoder_var.5.bias f4 [16]
9.1972965e-05 1.37487295e-05 -1.6601089e-05 8.7075765e-05 5.2558215e-05 0.02686162 0.00029836356 -3.448311e-05
4.0359602e-05 6.836572e-06 -1.9141598e-05 0.052630093 0.0192062 -2.0000907e-05 -0.0008394714 3.8300925e-05
00000000: 9ce1 c038 58aa 6637 9142 8bb7 729c b638
00000010: f471 5c38 e60c dc3c ae6d 9c39 f5a1 10b8
00000020: cb47 2938 b565 e536 4592 a0b7 a792 573d
00000030: 5256 9d3c 9fc7 a7b7 f90f 5cba 4ea5 2038
