generativecf/models/adult-eval-case-0-supervision-limit-100-const-case-0-margin-0.084-oracle_reg-5999.0-validity_reg-159.0-epoch-50-oracle-gen.pth (torch_old, 37228 bytes, 78 tensors)

encoder_mean.0.weight f4 [20, 30]
-0.35228643 -0.16644423 0.066928335 0.092982724 -0.03541331 -0.20824859 -0.27859032 0.02647759
0.0009197514 0.013051596 0.14051871 -0.0030090131 -0.14549634 0.14938353 0.102846876 -0.11898945
0.03722282 -0.0007463694 0.19779077 -0.02651399 0.06766729 0.09628663 0.21416509 0.10359191
-0.22247504 0.045017064 0.08108538 -0.07032371 0.08237408 0.08718673 -0.14300929 0.020311577
0.00353694 0.044542115 -0.05601623 0.00073520426 -0.17622028 0.07483633 -0.0019047402 0.19087149
0.11832822 0.001113539 -0.040334236 -0.19302379 -0.078672126 0.018959988 -0.0038331964 0.06284435
0.09043734 -0.17729709 0.11877735 -0.07119157 -0.019557644 -0.06969698 -0.022556432 -0.07745056
-0.016817272 -0.060453612 -0.12854977 0.18454295 -0.042570032 0.013068491 0.15636155 -0.011231028
-0.1349944 -0.090516515 -0.12329188 -0.0062607094 0.00054348854 -0.011629224 0.041470822 0.0011027424
0.029756896 0.0900982 0.021537658 -0.048251137 -0.11995714 0.11809747 0.06873522 -0.0103000505
-0.13651292 0.023384968 0.036486268 0.07652396 -0.03801245 0.08697502 -0.15779513 -0.0050682714
-0.09968531 -0.041003313 -0.91103286 -0.11195986 -0.014182651 -0.012855893 -0.04790322 -0.10089111
0.02908126 0.037140317 -0.0016947967 0.026856057 0.067703635 -0.0021895238 0.08772709 0.0049290727
0.08347334 0.104044154 0.056274284 0.06078773 0.22734609 -0.0044566737 -0.04492583 0.050372194
0.028220357 0.036710735 -0.0183411 0.046581235 0.06920596 -0.0042427303 -0.014829275 0.16914253
0.37469697 0.054338496 0.020271594 -0.026387013 -0.020083943 -0.0724371 -0.07438807 -0.082810156
-1.8198678e-05 -0.026882851 -0.046103682 -0.0030082231 -0.0788876 -0.056620736 0.10180859 0.02811056
0.060405444 -0.0013556769 0.016309274 0.029472409 -0.056651827 -0.015627827 0.00031330643 -0.08181585
-0.022512026 -0.107665926 -0.03845786 -0.050888598 -0.06912801 -0.13781743 0.43972504 0.1591649
-0.009799691 -0.12591767 0.090364374 0.10529674 0.046545435 0.032769043 -0.00069344154 0.010711447
0.015381256 0.00089960115 -0.047608513 -0.13928996 0.055598862 0.109133504 -0.014468278 -0.041414727
0.25428504 0.013804339 -0.12522924 -0.079422414 0.15516011 -0.096273944 0.03219744 0.06814972
-0.087639816 -0.18661639 0.062082384 -0.14148372 -0.24152121 -0.9626524 0.033104703 0.047333904
0.09024273 0.06194396 0.027021475 -0.12858394 0.0012063689 -0.054105476 -0.068894066 6.0179053e-05
0.023246534 0.12746967 0.034076516 0.05995501 0.0013529037 0.038472448 0.09826453 0.02816507
-0.0071617155 -0.087270334 -0.05656125 -0.0018809655 0.06258053 0.0076994384 0.025790691 0.050453253
0.034595165 0.15426178 0.068857364 0.21472995 0.0020246843 -0.05512612 -0.026313875 0.0006451133
-0.2312992 0.22176473 -0.0018205048 0.03275056 -0.11472511 -0.0006417392 -0.20323183 -0.014063772
-0.08111837 0.06798096 -0.14787039 -0.021965481 -0.099307716 -0.13027184 -0.18429433 -0.02134482
0.22518554 0.12774572 0.062394567 -0.23782025 -0.07587378 -0.0028428452 -0.054752838 -0.24372858
0.1709841 -0.23657148 -0.04160885 0.14435615 0.026723625 -0.0023211846 0.0049844035 0.08700526
-0.0007797692 -0.034550793 -0.056519005 -0.00033741634 0.064867884 -0.09115039 0.09111444 0.005303398
00000000: e35e b4be 5b70 2abe b911 893d ba6d be3d
00000010: 8c0d 11bd 1e3f 55be 64a3 8ebe 88e7 d83c
00000020: 791b 713a 5cd6 553c 23e4 0f3e dd32 45bb
00000030: fefc 14be fff7 183e 62a1 d23d beb0 f3bd
00000040: f576 183d 01a8 43ba aa89 4a3e de33 d9bc
00000050: 2695 8a3d ed31 c53d 184e 5b3e ff27 d43d
00000060: 7fd0 63be d063 383d 1710 a63d e105 90bd
00000070: beb3 a83d f58e b23d 0771 12be 7764 a63c
00000080: 02cc 673b cb71 363d 4671 65bd b9ba 403a
00000090: 1773 34be ca43 993d 7aa8 f9ba d173 433e
000000a0: 1156 f23d 2bf4 913a 8335 25bd 07a8 45be
000000b0: da1e a1bd fa51 9b3c 5d36 7bbb 8ab4 803d
000000c0: 3637 b93d 5e8d 35be 8a41 f33d e3cc 91bd
000000d0: 5a37 a0bc 4abd 8ebd 44c8 b8bc 669e 9ebd
000000e0: 60c4 89bc 359e 77bd 8da2 03be d4f8 3c3e
000000f0: ea5d 2ebd 391d 563c 3e1d 203e 5802 38bc
00000100: f93b 0abe b960 b9bd 7480 fcbd a326 cdbb
00000110: e678 0e3a 8088 3ebc 4fdd 293d e589 903a
00000120: bcc4 f33c 6885 b83d be6f b03c fca2 45bd
00000130: 17ac f5bd 16dd f13d 0dc5 8c3d 8bc1 28bc
00000140: 0bca 0bbe d591 bf3c a072 153d 98b8 9c3d
00000150: f1b2 1bbd f61f b23d 0c95 21be be13 a6bb
00000160: d027 ccbd 17f3 27bd 7339 69bf 364b e5bd
00000170: 5a5e 68bc 86a1 52bc 2b36 44bd 00a0 cebd
00000180: d33b ee3c 7220 183d f123 deba 3c01 dc3c
00000190: 34a8 8a3d 1d7e 0fbb 43aa b33d 0f84 a13b
000001a0: 12f4 aa3d 1a15 d53d dd7f 663d 8efc 783d
000001b0: 6acd 683e 4a09 92bb 2604 38bd 1353 4e3d
000001c0: 612e e73c ff5d 163d 1340 96bc f7cb 3e3d
000001d0: dbbb 8d3d 9a06 8bbb 7df6 72bc b333 2d3e
000001e0: 48d8 bf3e 0b92 5e3d 9d10 a63c 9429 d8bc
000001f0: 1587 a4bc e759 94bd c658 98bd 5f98 a9bd
00000200: 5da9 98b7 6d39 dcbc 37d7 3cbd 9c25 45bb
00000210: d28f a1bd 25eb 67bd 0681 d03d 1e48 e63c
00000220: b36b 773d f8b0 b1ba 079b 853c 1f70 f13c
00000230: bf0b 68bd ee05 80bc 4743 a439 128f a7bd
00000240: 246b b8bc f47f dcbd fd85 1dbd 9070 50bd
00000250: fc92 8dbd 0320 0dbe a423 e13e 20fc 223e
00000260: e28e 20bc 90f0 00be f510 b93d d1a5 d73d
00000270: 6da6 3e3d d538 063d 13c8 35ba 117f 2f3c
00000280: aa01 7c3c 36d3 6b3a 2501 43bd 07a2 0ebe
00000290: a2bb 633d 6381 df3d 5b0c 6dbc 7da2 29bd
000002a0: a631 823e 982b 623c 183c 00be 38a8 a2bd
000002b0: 4be2 1e3e 462b c5bd 76e1 033d 1592 8b3d
000002c0: 817c b3bd 5e18 3fbe 194a 7e3d 1ce1 10be
000002d0: 5651 77be 6370 76bf cc98 073d 32e1 413d
000002e0: 2ed1 b83d f3b8 7d3d 245c dd3c 82ab 03be
000002f0: 061f 9e3a b49d 5dbd 5518 8dbd c468 7c38
00000300: 846f be3c 6987 023e d193 0b3d 6293 753d
00000310: ea53 b13a 4995 1d3d ea3e c93d 6fba e63c
00000320: d3ac eabb caba b2bd c5ac 67bd bb8a f6ba
00000330: 392a 803d 924b fc3b 0047 d33c 12a8 4e3d
00000340: a9b3 0d3d cdf6 1d3e 1705 8d3d 2be2 5b3e
00000350: 91b0 043b edcb 61bd 3290 d7bc d21c 293a
00000360: b3d9 6cbe 4b16 633e 019e eeba 7425 063d
00000370: 00f5 eabd 643a 28ba 011c 50be bc6b 66bc
00000380: 6321 a6bd 9a39 8b3d 566b 17be f4f0 b3bc
00000390: d861 cbbd fb65 05be a7b7 3cbe 55db aebc
000003a0: 0a97 663e c6cf 023e 7291 7f3d 2787 73be
000003b0: b663 9bbd 074f 3abb 8344 60bd fc93 79be
000003c0: 7516 2f3e cb3f 72be 0b6e 2abd 19d2 133e
000003d0: 81eb da3c 041f 18bb 3554 a33b d02f b23d
000003e0: 6d69 4cba 2285 0dbd 7980 67bd 41e7 b0b9
000003f0: 74d9 843d 0ead babd 359a ba3d 20c8 ad3b

encoder_mean.0.bias f4 [20]
0.006440541 -0.040511813 -0.032346737 0.01772908 -0.057654966 0.002895277 0.0060508265 -0.040087767
-0.09071965 -0.015091652 -0.022138612 -0.016469516 0.019783346 0.0068668774 0.0071971687 -0.068451725
0.014948237 -0.08771534 0.0077674915 0.009313094
00000000: 2c0b d33b b7ef 25bd 037e 04bd 933c 913c
00000010: 9d27 6cbd b0be 3d3b 0346 c63b 1233 24bd
00000020: 39cb b9bd fa42 77bc 095c b5bc 14eb 86bc
00000030: af10 a23c 8b03 e13b 3ad6 eb3b 6b30 8cbd
00000040: 73e9 743c 1aa4 b3bd 7186 fe3b f395 183c

encoder_mean.1.weight f4 [20]
0.37902313 0.56153095 0.28309396 0.9252727 0.44286597 0.45389703 0.86089176 0.572194
0.33319166 0.84021604 0.47556904 0.69279605 0.44018435 0.55166286 0.30221513 0.71376973
0.6884269 0.7890791 0.6729817 0.3206255
00000000: 520f c23e 7ec0 0f3f b1f1 903e acde 6c3f
00000010: 54bf e23e 3165 e83e 6763 5c3f 4e7b 123f
00000020: 1998 aa3e 6618 573f c97d f33e 155b 313f
00000030: d85f e13e c739 0d3f f1bb 9a3e 9db9 363f
00000040: bf3c 303f 1701 4a3f 8748 2c3f 0729 a43e

encoder_mean.1.bias f4 [20]
-0.02378152 -0.067882106 -0.09260753 -0.037304662 -0.14020853 0.0010560416 0.016623298 -0.11151511
-0.15111299 0.33007678 0.14332151 0.36487094 -0.11654604 0.21246538 -0.09198615 -0.22941606
0.1473527 -0.22450626 0.064844266 -0.15424435
00000000: 76d1 c2bc c605 8bbd 04a9 bdbd c6cc 18bd
00000010: d392 0fbe e06a 8a3a 952d 883c 0962 e4bd
00000020: 5dbd 1abe d3ff a83e e0c2 123e 5dd0 ba3e
00000030: b1af eebd 8690 593e 3c63 bcbd 0bec 6abe
00000040: a0e3 163e f8e4 65be 12cd 843d 3bf2 1dbe

encoder_mean.1.running_mean f4 [20]
-0.06529927 0.10542952 -0.03820695 -0.22790305 0.31852207 0.10525355 -0.19414537 -0.11022639
-0.04237709 0.8017875 0.49035934 -0.011838308 0.13029727 0.28251192 0.41623685 -0.080544986
-0.11479775 -0.1496569 0.07549501 0.5212191
00000000: a0bb 85bd 6feb d73d e47e 1cbd 6b5f 69be
00000010: 5315 a33e 2c8f d73d 0bce 46be 60be e1bd
00000020: 9993 2dbd f241 4d3f 6110 fb3e 76f5 41bc
00000030: a66c 053e 67a5 903e ff1c d53e c5f4 a4bd
00000040: 151b ebbd a93f 19be 219d 9a3d 9d6e 053f

encoder_mean.1.running_var f4 [20]
0.019149719 0.050528523 0.033045296 0.014315728 0.011658218 0.018991034 0.014868163 0.026730679
0.03221343 0.01808368 0.011203289 0.017787326 0.022087285 0.014519148 0.02992605 0.0124332
0.020330401 0.019825751 0.019601662 0.035190176
00000000: dfdf 9c3c fff6 4e3d 815a 073d 848c 6a3c
00000010: 1c02 3f3c 1693 9b3c 9899 733c 4cfa da3c
00000020: 3bf2 033d 3a24 943c 008e 373c bab6 913c
00000030: 65f0 b43c b8e1 6d3c 7a27 f53c 9fb4 4b3c
00000040: f18b a63c 9d69 a23c aa93 a03c 9323 103d

encoder_mean.4.weight f4 [16, 20]
0.07587446 0.045369457 -0.022205578 0.259898 -0.046293832 -0.087932914 0.12382655 -0.034129784
0.037818138 -0.31119308 -0.21610798 -0.27059525 0.1296989 -0.10103961 0.0073148366 -0.025379235
0.11169503 -0.049242347 -0.018282961 -0.17084208 -0.07201004 0.0338036 -0.003915527 -0.13435374
0.08237878 0.1486324 -0.32795775 -0.14917248 -0.011132305 0.31109798 0.072617665 0.14613587
-0.15293936 0.17618227 0.117748454 -0.15579657 -0.08109989 -0.025521347 0.19153774 0.044298146
-0.24606264 -0.11204843 0.030742891 0.066916086 0.13396189 0.018032374 0.29564738 -0.07650801
-0.042127714 0.040847898 -0.0492032 0.13536765 0.04432808 0.13128133 0.10790609 0.2984618
-0.12229012 0.16812296 0.13121384 0.11698027 -0.04773735 -0.061204627 -0.07550251 -0.17185888
-0.09801983 -0.11752732 -0.12048939 -0.02784798 -0.06889368 -0.14633559 -0.0057156556 -0.07106178
-0.14607662 -0.07378531 -0.12738444 -0.11071228 -0.1492427 0.38838285 0.011196619 -0.0333576
-0.12522984 -0.14244175 -0.07246424 0.09367836 0.061039217 0.16359863 -0.081875615 -0.006292787
-0.15728067 -0.07852189 0.025369134 -0.005352127 0.09339282 -0.09826131 -0.115656935 -0.0030036066
0.25693023 -0.18489845 0.24470945 -0.039484624 -0.09689798 -0.18606295 -0.14386356 -0.1500632
0.061479077 -0.017126836 -0.25402814 0.17466374 0.030594168 0.004626532 0.09171038 -0.0423312
-0.097536564 -0.14656265 -0.08482078 -0.10712488 0.036801267 -0.057938635 0.15740639 0.022319548
-0.10593237 0.09254297 -0.08044307 0.14419796 0.020918109 -0.20623758 0.048381723 0.008110764
0.12147478 -0.0674962 -0.237881 -0.08155233 -0.1517887 -0.058658376 -0.11492977 0.1853789
-0.12492808 0.113164 0.0007118859 -0.21390884 0.13574164 0.020433173 0.01163128 0.17771034
-0.09135779 0.004978204 -0.039008405 0.14990743 -0.030158509 -0.21483645 -0.09679721 -0.005174478
0.16870813 -0.2193163 -0.05045586 -0.09463206 0.1910978 -0.04535202 -0.09932481 -0.010776925
-0.05233294 0.056771904 -0.045350417 -0.16449997 -0.006099509 0.04487209 0.34104228 0.025740992
0.050940007 0.17158663 0.031376455 0.29861283 -0.011568441 0.11701227 0.10828221 0.31237137
-0.23238313 0.14871863 0.09341284 0.19654329 -0.122547455 0.12477261 0.119594336 -0.1489619
0.028689304 0.010042989 -0.1234874 0.102204084 0.00016202357 0.32823566 0.04840595 -0.023314444
-0.059915684 0.2258789 -0.0500339 0.039021093 0.09055717 -0.0367489 0.2657557 0.15700653
0.12522787 0.09266174 -0.014001795 0.18833235 -0.06843138 -0.051190928 0.1533823 0.01723005
-0.0023371833 -0.33376932 -0.21899416 -0.26261857 0.08922741 -0.1796889 -0.017283022 0.019319778
0.3085828 -0.06897267 -0.2114055 -0.19919218 0.18596536 0.109967135 -0.011182333 0.18219018
0.040898267 -0.07287285 -0.04883557 0.051913586 0.09319139 -0.19663307 0.01862728 -0.075465515
0.08954934 -0.06971908 0.0332673 -0.13289168 0.19128573 -0.06802109 -0.07855191 0.012264455
-0.038076945 0.004331095 -0.10053415 -0.14324468 -0.12264904 -0.05434798 -0.13865755 -0.11031635
-0.04997701 -0.014708042 -0.100982614 -0.120630845 -0.1221037 -0.08981405 -0.045745358 0.0278894
00000000: 1264 9b3d 53d5 393d 79e8 b5bc 5a11 853e
00000010: 9a9e 3dbd 2c16 b4bd c698 fd3d accb 0bbd
00000020: 31e7 1a3d b354 9fbe 694b 5dbe 768b 8abe
00000030: cacf 043e dbed cebd 4cb1 ef3b 1de8 cfbc
00000040: 5dc0 e43d 58b2 49bd 26c6 95bc 3af1 2ebe
00000050: 007a 93bd a575 0a3d d24d 80bb 0794 09be
00000060: 35b6 a83d 1833 183e 14ea a7be acc0 18be
00000070: 4564 36bc 3c48 9f3e 92b8 943d a4a4 153e
00000080: 239c 1cbe 2069 343e 1a26 f13d 2389 1fbe
00000090: b317 a6bd 2512 d1bc 7822 443e f971 353d
000000a0: d8f7 7bbe a679 e5bd 84d8 fb3c 4d0b 893d
000000b0: 4e2d 093e a1b8 933c 185f 973e 3bb0 9cbd
000000c0: 1c8e 2cbd 2050 273d 4b89 49bd d19d 0a3e
000000d0: 5c91 353d 9d6e 063e defd dc3d fccf 983e
000000e0: 3e73 fabd 6d28 2c3e ec5c 063e 5a93 ef3d
000000f0: 3d88 43bd b4b1 7abd 0fa1 9abd c6fb 2fbe
00000100: 9fbe c8bd 2ab2 f0bd 24c3 f6bd 7221 e4bc
00000110: 2118 8dbd ffd8 15be 654a bbbb d788 91bd
00000120: 1c95 15be c11c 97bd 1171 02be 1fbd e2bd
00000130: 14d3 18be 1eda c63e 0672 373c fba1 08bd
00000140: 403c 00be 40dc 11be 2268 94bd 71da bf3d
00000150: 4204 7a3d 6686 273e 67ae a7bd b933 cebb
00000160: 2f0e 21be 16d0 a0bd eed2 cf3c e560 afbb
00000170: bc44 bf3d 3a3d c9bd 8bdd ecbd 28d8 44bb
00000180: 5c8c 833e 0556 3dbe 1d95 7a3e a1ba 21bd
00000190: 7372 c6bd 4987 3ebe f850 13be 2baa 19be
000001a0: 7cd1 7b3d 944d 8cbc fa0f 82be 0ddb 323e
000001b0: 9fa0 fa3c 2a9a 973b a7d2 bb3d 7b63 2dbd
000001c0: 40c1 c7bd 8514 16be 84b6 adbd 4a64 dbbd
000001d0: edbc 163d 1051 6dbd 242f 213e 7cd7 b63c
000001e0: 12f3 d8bd 2b87 bd3d 56bf a4bd a1a8 133e
000001f0: 745c ab3c f22f 53be ea2b 463d 03e3 043c
00000200: c5c7 f83d 733b 8abd 1497 73be e804 a7bd
00000210: 7f6e 1bbe c443 70bd 4d60 ebbd f7d3 3d3e
00000220: 4bda ffbd 87c2 e73d db9d 3a3a eb0a 5bbe
00000230: dbff 0a3e 7863 a73c 2091 3e3c b3f9 353e
00000240: cb19 bbbd 3420 a33b 47c7 1fbd 5581 193e
00000250: fa0e f7bc 16fe 5bbe 9e3d c6bd ab8e a9bb
00000260: d3c1 2c3e 7494 60be ceaa 4ebd 74ce c1bd
00000270: 24af 433e 0ac3 39bd ce6a cbbd b391 30bc
00000280: 115b 56bd a889 683d 5cc1 39bd ae72 28be
00000290: 64de c7bb cccb 373d 189d ae3e c6de d23c
000002a0: 78a6 503d 68b4 2f3e 9984 003d c8e3 983e
000002b0: 8f89 3dbc 21a4 ef3d 10c3 dd3d 24ef 9f3e
000002c0: d8f5 6dbe b249 183e 3b4f bf3d a542 493e
000002d0: 29fa fabd c888 ff3d e0ed f43d 7889 18be
000002e0: d505 eb3c 598b 243c f6e6 fcbd 6050 d13d
000002f0: dfe4 2939 810e a83e 5145 463d effd bebc
00000300: 266a 75bd cc4c 673e 59f0 4cbd 95d4 1f3d
00000310: 0a76 b93d 0486 16bd 2211 883e 52c6 203e
00000320: bc3b 003e 70c5 bd3d c967 65bc 32da 403e
00000330: c025 8cbd 94ad 51bd 4010 1d3e 0926 8d3c
00000340: 6e2b 19bb d0e3 aabe 0140 60be f175 86be
00000350: dcbc b63d 5e00 38be 2095 8dbc 8344 9e3c
00000360: 91fe 9d3e 8b41 8dbd af7a 58be 09f9 4bbe
00000370: b46d 3e3e 7336 e13d 1b36 37bc 1090 3a3e
00000380: f184 273d 5c3e 95bd cf07 48bd 57a3 543d
00000390: 21db be3d 2e5a 49be 3d98 983c aa8d 9abd
000003a0: a565 b73d e1c8 8ebd 4b43 083d c214 08be
000003b0: 68e0 433e a44e 8bbd d3df a0bd daf0 483c
000003c0: 92f6 1bbd dceb 8d3b d9e4 cdbd bcae 12be
000003d0: 6b2f fbbd fd9b 5ebd 3ffc 0dbe 8aed e1bd
000003e0: b1b4 4cbd 00fa 70bc f9cf cebd 4e0d f7bd
000003f0: 8111 fabd 6ef0 b7bd 7c5f 3bbd 5078 e43c

encoder_mean.4.bias f4 [16]
-0.01140398 0.015263862 -0.008305428 -0.058608994 0.021617755 -0.04696845 -0.099027514 -0.0021347841
-0.0073404727 0.012974893 0.009334338 0.012067804 -0.061734762 0.030430073 -0.0061781644 -0.06417435
00000000: c2d7 3abc 4715 7a3c 7d13 08bc fc0f 70bd
00000010: b817 b13c fd61 40bd f0ce cabd bce7 0bbb
00000020: 5988 f0bb a594 543c 0def 183c 0ab8 453c
00000030: 97dd 7cbd 7d48 f93c 3372 cabb d76d 83bd

encoder_mean.5.weight f4 [16]
0.6093585 0.66915125 0.46527004 0.5942044 0.5778512 0.7067948 0.6174069 0.5381357
0.6444866 0.44696173 0.7440352 0.562275 0.62670225 0.7166586 0.56589866 0.3467935
00000000: ebfe 1b3f 7f4d 2b3f e037 ee3e c81d 183f
00000010: 0eee 133f 81f0 343f 610e 1e3f 43c3 093f
00000020: 13fd 243f 2bd8 e43e 1779 3e3f 41f1 0f3f
00000030: 8f6f 203f f076 373f bcde 103f eb8e b13e

encoder_mean.5.bias f4 [16]
0.0051276707 0.16684404 0.18763088 -0.0019722108 0.056590557 -0.05394968 -0.11678081 0.07626865
0.044708166 0.14895496 -0.05154774 0.103435226 -0.10006096 -0.21496531 0.12951739 -0.10823134
00000000: 0506 a83b 2ad9 2a3e 4f22 403e 3540 01bb
00000010: 80cb 673d 57fa 5cbd c72a efbd bd32 9c3d
00000020: e91f 373d a687 183e b923 53bd d9d5 d33d
00000030: c3ec ccbd de1f 5cbe 35a0 043e 65a8 ddbd

encoder_mean.5.running_mean f4 [16]
-0.26529095 0.09483759 0.26804334 -0.02707769 -0.012543133 0.07495599 0.30269584 -0.15582459
0.302132 0.2146016 -0.28140578 -0.087643474 -0.0155199785 -0.2872888 0.18720151 -0.091136836
00000000: 37d4 87be 363a c23d fa3c 893e 08d2 ddbc
00000010: b781 4dbc 8782 993d f3fa 9a3e 7b90 1fbe
00000020: 0cb1 9a3e 86c0 5b3e 6b14 90be 6c7e b3bd
00000030: 8247 7ebc 8517 93be c1b1 3f3e f3a5 babd

encoder_mean.5.running_var f4 [16]
0.19382302 0.16107993 0.2782646 0.07246324 0.17791258 0.10638359 0.16308853 0.1502182
0.2861461 0.07163512 0.31588775 0.116642855 0.11428993 0.28757256 0.30083 0.060358983
00000000: 8b79 463e 23f2 243e b378 8e3e 9b67 943d
00000010: b72e 363e a4df d93d ae00 273e cdd2 193e
00000020: be81 923e 6fb5 923d 0abc a13e 73e2 ee3d
00000030: d710 ea3d b63c 933e 6406 9a3e fb3a 773d

encoder_mean.8.weight f4 [14, 16]
0.25550824 -0.18361731 0.105714515 -0.026788205 -0.15601239 -0.17039004 0.11278892 -0.0031515453
-0.117262915 -0.14784072 0.22090028 -0.015883464 -0.101036474 0.2861489 0.020952564 -0.100393735
-0.12501977 0.25227162 -0.0075241844 0.15410969 0.15179387 0.065715924 -0.002750916 0.07923601
0.1180389 0.11856507 0.1265582 -0.0129715605 0.115441315 0.02876844 -0.009655476 0.14471975
0.05838834 -0.26963192 0.115882814 -0.18254782 -0.027995262 0.063666195 0.07478733 0.1400781
-0.23396705 -0.24583063 0.08198702 -0.006300948 -0.037533488 0.31012768 0.1724992 -0.13475391
-0.13712695 0.10574342 -0.12188846 0.024417248 0.05029215 0.08047359 0.029604556 -0.12896353
-0.14702255 0.05319991 -0.21391311 -0.08694561 -0.038613427 -0.23694125 -0.1838952 -0.11422384
-0.122000456 0.05835515 0.15225458 0.03544305 0.1538698 0.068768546 0.10550374 -0.08660935
0.17789933 0.20459378 -0.26830325 -0.2028999 -0.026902283 -0.25667512 0.111190446 -0.08778133
0.16778214 -0.18930295 -0.07017078 -0.015025223 0.03940607 0.035541203 0.008815932 0.14137295
-0.0542635 -0.13164537 0.2062451 0.20447518 -0.052431736 0.23346232 -0.014255352 0.0007345347
0.17250545 -0.16549729 -0.14227536 -0.004582916 -0.15740135 -0.045361098 0.048319843 0.15532818
-0.1529985 -0.08090143 0.13713099 0.07408728 0.004205299 0.061266176 -0.17524143 0.12033998
0.06932444 -0.14358218 0.09885258 0.16392374 -0.11578745 -0.072282225 0.039362926 -0.14082772
0.008988842 -0.15839359 -0.0012365293 -0.2072604 0.106793374 -0.04587377 -0.22140656 -0.16752806
0.00024479424 0.1504286 -0.026874365 -0.11365107 0.13123545 0.17684342 -0.015032574 0.002393913
-0.18584637 -0.094626844 -0.00042670843 -0.020224914 -0.050656967 0.0013770451 0.003668375 -0.0014644538
-0.25754178 0.041395288 0.07703068 0.26387966 -0.24568065 0.10130602 0.14627463 -0.27748284
0.10388223 0.08253722 -0.20309706 -0.2791161 0.2551191 -0.16677557 0.09740153 -0.025495967
-0.28945112 0.06933666 0.010589043 0.267567 -0.19645755 -0.0069600116 0.046773124 -0.1790349
0.23239225 0.06489436 -0.2207488 -0.25128606 0.18153705 -0.19961837 0.28385478 0.032398954
0.23786642 -0.19782025 -0.07934964 -0.015804961 -0.046014305 -0.08433191 -0.055802133 0.08240631
-0.12197521 -0.1106638 0.2843166 0.022157354 -0.0024549293 0.04809921 -0.093098864 -0.059401263
0.17421152 -0.2778185 0.02647722 -0.011125424 0.03557011 -0.07123147 0.049152374 0.13090865
-0.13752975 -0.09682389 0.193297 0.20484573 -0.0031935694 0.31853437 0.045499634 0.024066035
-0.06236358 0.04800692 0.16218026 -0.2103361 0.092596985 -0.029100103 -0.102155946 -0.012596127
0.27785406 0.089969195 -0.12069689 0.08013446 -0.178862 0.05762746 0.0015334868 0.081605196
00000000: fad1 823e 2d06 3cbe da80 d83d f072 dbbc
00000010: b6c1 1fbe ba7a 2ebe e1fd e63d 288a 4ebb
00000020: 8a27 f0bd 8f63 17be af33 623e 0a1e 82bc
00000030: 36ec cebd 1c82 923e b6a4 ab3c 3b9b cdbd
00000040: 2f05 00be bf29 813e 6f8d f6bb eece 1d3e
00000050: da6f 1b3e 1296 863d b648 34bb 7d46 a23d
00000060: 61be f13d 3ed2 f23d 7998 013e ab86 54bc
00000070: 7f6c ec3d cbab eb3c 0032 1ebc 6a31 143e
00000080: 9d28 6f3d 320d 8abe f853 ed3d d1ed 3abe
00000090: 5256 e5bc 6c63 823d 1a2a 993d a270 0f3e
000000a0: 0f95 6fbe 06bb 7bbe d0e8 a73d 2f78 cebb
000000b0: b7bc 19bd 0ec9 9e3e a1a3 303e eefc 09be
000000c0: 026b 0cbe 0290 d83d a8a0 f9bd ae06 c83c
000000d0: 24ff 4d3d 56cf a43d 4185 f23c 040f 04be
000000e0: 148d 16be 26e8 593d 0a0c 5bbe 8a10 b2bd
000000f0: 1d29 1ebd baa0 72be 064f 3cbe 30ee e9bd
00000100: 60db f9bd cf05 6f3d a0e8 1b3e bb2c 113d
00000110: 0b90 1d3e 86d6 8c3d 5812 d83d 3e60 b1bd
00000120: 3e2b 363e 0881 513e 0b5f 89be fec4 4fbe
00000130: 2d62 dcbc ec6a 83be d1b7 e33d b3c6 b3bd
00000140: 15cf 2b3e a2d8 41be b3b5 8fbd 5a2c 76bc
00000150: 4268 213d a793 113d b370 103c 12c4 103e
00000160: 6743 5ebd 0bce 06be ea31 533e f161 513e
00000170: a9c2 56bd bf10 6f3e 488f 69bc ca8d 403a
00000180: 45a5 303e 1f78 29be a2b0 11be 492c 96bb
00000190: d22d 21be 8fcc 39bd 07eb 453d 5a0e 1f3e
000001a0: a4ab 1cbe a6af a5bd 116c 0c3e 12bb 973d
000001b0: 9bcc 893b 3ef2 7a3d 7d72 33be cf74 f63d
000001c0: f9f9 8d3d 3507 13be 3973 ca3d a0db 273e
000001d0: f821 edbd b408 94bd 053b 213d 2435 10be
000001e0: f045 133c ee31 22be 0a13 a2ba 123c 54be
000001f0: 7cb6 da3d 22e6 3bbd 67b8 62be 7a8c 2bbe
00000200: ba57 8039 f409 1a3e a127 dcbc e4c1 e8bd
00000210: 9662 063e 7116 353e 2f4b 76bc 32e3 1c3b
00000220: 834e 3ebe b8cb c1bd d6b7 dfb9 b8ae a5bc
00000230: ae7d 4fbd f77d b43a 1f69 703b eaf2 bfba
00000240: 84dc 83be 1b8e 293d 43c2 9d3d 3c1b 873e
00000250: b593 7bbe 8879 cf3d 04c9 153e 3b12 8ebe
00000260: 35c0 d43d 4609 a93d adf8 4fbe 4ee8 8ebe
00000270: f89e 823e 37c7 2abe 747a c73d ebdc d0bc
00000280: f032 94be 6100 8e3d aa7d 2d3c 8bfe 883e
00000290: 2b2c 49be cf10 e4bb 2d95 3f3d ed54 37be
000002a0: 3cf8 6d3e 56e7 843d f90b 62be 91a8 80be
000002b0: d9e4 393e c268 4cbe 6a55 913e c4b4 043d
000002c0: 4193 733e 6491 4abe 1082 a2bd 6879 81bc
000002d0: 7f79 3cbd 35b6 acbd c790 64bd a4c4 a83d
000002e0: 24ce f9bd b4a3 e2bd f291 913e 5783 b53c
000002f0: e1e2 20bb ad03 453d 9eaa bebd bd4e 73bd
00000300: 8164 323e 3a3e 8ebe c1e6 d83c 6947 36bc
00000310: f7b1 113d cee1 91bd 0054 493d eb0c 063e
00000320: 99d4 0cbe 9b4b c6bd a6ef 453e 14c3 513e
00000330: 344b 51bb f016 a33e d35d 3a3d 2226 c53c
00000340: f470 7fbd e7a2 443d 9512 263e 5962 57be
00000350: 7da3 bd3d 5763 eebc 2337 d1bd fc5f 4ebc
00000360: e342 8e3e c541 b83d ee2f f7bd 891d a43d
00000370: 9a27 37be c60a 6c3d 47ff c83a a020 a73d

encoder_mean.8.bias f4 [14]
-0.030106653 -0.00015733278 -0.018879743 0.034670122 0.059838776 -0.007916285 -0.0077002477 -0.035163105
-0.059185963 0.030884705 0.043792877 -0.014225164 -0.008986168 0.058551997
00000000: 3aa2 f6bc b2f9 24b9 b1a9 9abc 4202 0e3d
00000010: 8119 753d 4eb3 01bc 5c52 fcbb 3007 10bd
00000020: fb6c 72bd ec01 fd3c 2960 333d aa10 69bc
00000030: b83a 13bc 38d4 6f3d

encoder_mean.9.weight f4 [14]
0.61278063 0.45970193 0.81158304 0.75582904 0.5627158 0.59600306 0.6429283 0.53899425
0.47302812 0.8897856 0.90523535 0.73001647 0.47942293 0.5040355
00000000: 31df 1c3f 0d5e eb3e e8c3 4f3f 037e 413f
00000010: 250e 103f a893 183f f396 243f 87fb 093f
00000020: be30 f23e fdc8 633f 81bd 673f 5ce2 3a3f
00000030: ec76 f53e 7808 013f

encoder_mean.9.bias f4 [14]
0.111019805 -0.10206797 0.1289183 -0.028767062 0.094682604 0.12873611 0.0062147304 0.0099081695
-0.11162495 0.2425047 0.19947898 0.030797236 0.14387901 -0.10379329
00000000: 5a5e e33d 0309 d1bd 2903 043e e7a8 ebbc
00000010: f4e8 c13d 66d3 033e f0a4 cb3b e055 223c
00000020: 9f9b e4bd 2753 783e 3844 4c3e 7c4a fc3c
00000030: 0555 133e 9491 d4bd

encoder_mean.9.running_mean f4 [14]
-0.022095118 0.30701354 -0.055496946 -0.28868896 -0.09475181 -0.016358348 -0.16270126 -0.1495241
0.16760528 -0.110239945 -0.033962965 -0.13574217 0.021729413 -0.06286778
00000000: d200 b5bc e130 9d3e c450 63bd 0acf 93be
00000010: 3d0d c2bd f101 86bc 299b 26be d81c 19be
00000020: b8a0 2b3e 7bc5 e1bd c01c 0bbd ffff 0abe
00000030: e201 b23c d3c0 80bd

encoder_mean.9.running_var f4 [14]
0.14674538 0.052217945 0.09767654 0.1506955 0.0868791 0.16421087 0.1697689 0.18326329
0.11244554 0.33013126 0.37928733 0.15306605 0.12135529 0.040818583
00000000: 6c44 163e 7ce2 553d a30a c83d ec4f 1a3e
00000010: abed b13d e526 283e e6d7 2d3e 5fa9 3b3e
00000020: d949 e63d f706 a93e f331 c23e 59bd 1c3e
00000030: 1f89 f83d 6331 273d

encoder_mean.12.weight f4 [12, 14]
0.0009345566 0.03038781 0.21102074 -0.29443052 -0.2408798 0.09977646 -0.042296898 -0.1125453
-0.2102792 -0.2640691 -0.16838036 0.21249524 0.01774486 0.11429594 0.00642572 -0.05926369
0.016618578 -0.072608665 -0.21762711 -0.12027975 -0.13931961 -0.14311296 -0.0028312274 0.40257856
-0.2449823 -0.096290775 -0.13700892 -0.036614124 -0.14292872 0.021489497 -0.14454654 0.10735715
-0.062428575 -0.15460505 -0.045947853 -0.20614317 -0.17038721 -0.21897656 -0.24271944 -0.08971917
-0.17382817 -0.26316798 0.15554291 -0.045515817 -0.18088067 0.002432462 -0.060135946 0.06619306
0.039940763 0.1840412 0.0044024857 -0.06509333 0.040131807 0.17337011 -0.07467115 -0.00016668548
-0.23101346 0.16511872 -0.21498325 -0.057477057 0.23891783 -0.24659087 -0.061734293 0.11220779
0.018036867 0.11055953 0.16758366 -0.20873548 -0.07794771 0.20361534 0.22211064 0.009011981
0.06950012 -0.071900204 -0.11902387 0.19741681 0.13706964 0.1206174 -0.11242657 -0.24600308
-0.119629495 -0.012212132 0.33040625 -0.028648714 0.12989667 0.033935986 0.024825007 -0.29784
-0.22234143 0.057824783 0.103848 0.041953474 -0.041743927 -0.1304271 -0.12894362 0.10107353
0.12530635 0.08014982 -0.02193814 -0.20801711 0.031818207 0.02340711 -0.04138492 -0.21649124
-0.23227598 0.041814264 0.005062809 -0.20645487 0.35350186 -0.17977192 -0.13937928 0.04741699
-0.056536138 0.02466569 -0.07455888 0.0018003341 0.20489742 -0.06400957 -0.24628204 0.09466434
-0.035469882 0.12422584 0.078069985 -0.18221101 -0.046991676 0.20638119 -0.22488345 -0.10141936
-0.2240429 0.32795322 0.01812011 -0.19054657 -0.113957755 -0.16521049 0.060193885 0.10422556
0.036774322 -0.13431047 -0.27026457 -0.045217805 -0.14616337 -0.043582983 -0.13381462 0.1330257
0.21588011 -0.2392615 -0.14345194 0.069590956 -0.1177432 0.2112906 0.40923962 -0.22728476
-0.14244294 0.23865308 0.22704637 -0.065738335 0.11569236 -0.26644513 -0.05282205 0.12466372
0.09496361 0.09955442 0.032182004 -0.29457372 -0.06594398 0.121864915 0.19615942 -0.020472014
00000000: 08fd 743a dbef f83c d215 583e 99bf 96be
00000010: 32a9 76be 9a57 cc3d 833f 2dbd 267e e6bd
00000020: 6e53 57be 1134 87be e76b 2cbe 5a98 593e
00000030: ab5d 913c fd13 ea3d d98e d23b 7cbe 72bd
00000040: af23 883c dab3 94bd a4d9 5ebe 3b55 f6bd
00000050: cda9 0ebe 348c 12be 1d8c 39bb c71e ce3e
00000060: a4dc 7abe 1934 c5bd 114c 0cbe b1f8 15bd
00000070: e85b 12be be0a b03c 0204 14be 11de db3d
00000080: 1bb5 7fbd c950 1ebe d133 3cbd 3217 53be
00000090: fc79 2ebe 643b 60be 728b 78be afbe b7bd
000000a0: 0300 32be f4bd 86be a446 1f3e cb6e 3abd
000000b0: c838 39be f169 1f3b 1c51 76bd 3a90 873d
000000c0: ed98 233d 4c75 3c3e ba42 903b a74f 85bd
000000d0: 4061 243d ef87 313e 30ed 98bd 4bc8 2eb9
000000e0: cb8e 6cbe e214 293e 9224 5cbe 106d 6bbd
000000f0: e0a6 743e 5182 7cbe 19dd 7cbd 33cd e53d
00000100: 0dc2 933c 096d e23d 0d9b 2b3e c1be 55be
00000110: 0da3 9fbd 8a80 503e f970 633e fda6 133c
00000120: 1456 8e3d 6a40 93bd c9c2 f3bd a227 4a3e
00000130: fc5b 0c3e 4106 f73d e73f e6bd 3be8 7bbe
00000140: 4f00 f5bd 6515 48bc 022b a93e b5b0 eabc
00000150: a203 053e 7600 0b3d d05d cb3c 7c7e 98be
00000160: 79ad 63be aed9 6c3d 43ae d43d 68d7 2b3d
00000170: aefb 2abd af8e 05be cc09 04be a4ff ce3d
00000180: 4f50 003e 9725 a43d 9db7 b3bc 7002 55be
00000190: cf53 023d 44c0 bf3c 3c83 29bd e1af 5dbe
000001a0: c1d9 6dbe 6f45 2b3d ece5 a53b e868 53be
000001b0: 32fe b43e 2116 38be 71b9 0ebe 5138 423d
000001c0: 7092 67bd b30f ca3c 53b2 98bd 30f9 eb3a
000001d0: a1d0 513e 7317 83bd 5c31 7cbe 61df c13d
000001e0: de48 11bd 1e6a fe3d 28e3 9f3d 8695 3abe
000001f0: 587a 40bd 9755 533e d947 66be f4b4 cfbd
00000200: 816b 65be 7ce9 a73e a070 943c a41e 43be
00000210: af62 e9bd f02c 29be dd8d 763d 3674 d53d
00000220: aca0 163d af88 09be 1e60 8abe 4e36 39bd
00000230: daab 15be 1284 32bd b306 09be e437 083e
00000240: ad0f 5d3e f700 75be 11e5 12be b485 8e3d
00000250: 5923 f1bd 905c 583e db87 d13e 56bd 68be
00000260: 90dc 11be 7961 743e d87e 683e d2a1 86bd
00000270: 1ef0 ec3d 7f6b 88be ef5b 58bd b14f ff3d
00000280: 487c c23d 30e3 cb3d 47d1 033d 5ed2 96be
00000290: a30d 87bd 5094 f93d 04de 483e edb4 a7bc

encoder_mean.12.bias f4 [12]
-0.01397666 -0.088064745 -0.03848961 -0.09670813 0.12138855 0.005332582 -0.012047805 0.050724328
0.08165337 0.09168163 0.1058745 -0.011051056
00000000: 5cfe 64bc 4a5b b4bd 48a7 1dbd e90e c6bd
00000010: 8f9a f83d f1bc ae3b 2864 45bc 50c4 4f3d
00000020: e239 a73d 94c3 bb3d bbd4 d83d 7d0f 35bc

encoder_mean.13.weight f4 [12]
0.86962515 0.7781714 0.8339976 0.5032949 0.914566 0.80524546 0.7148103 0.7861105
0.75759476 1.112617 0.88324213 0.71026206
00000000: c19f 5e3f 3e36 473f de80 553f efd7 003f
00000010: ff20 6a3f 9124 4e3f cffd 363f 8a3e 493f
00000020: bbf1 413f 3c6a 8e3f 281c 623f bcd3 353f

encoder_mean.13.bias f4 [12]
0.22155325 -0.10346085 0.3203416 -0.09748821 0.33954424 0.38419375 0.40251246 0.10731928
0.30255014 0.36257538 0.35679024 0.44438183
00000000: dbde 623e 48e3 d3bd d003 a43e e6a7 c7bd
00000010: bed8 ad3e 0bb5 c43e 1d16 ce3e 36ca db3d
00000020: dae7 9a3e 7ba3 b93e 36ad b63e 0486 e33e

encoder_mean.13.running_mean f4 [12]
-0.11630189 0.04449155 -0.35586858 0.34030235 -0.20232944 0.12226242 0.011813224 -0.04639964
0.030628541 -0.4121109 -0.062157206 0.14279984
00000000: af2f eebd c63c 363d 6834 b6be 1c3c ae3e
00000010: 732f 4fbe b864 fa3d 418c 413c 8d0d 3ebd
00000020: b5e8 fa3c 3300 d3be 8e98 7ebd 1f3a 123e

encoder_mean.13.running_var f4 [12]
0.21952175 0.032499216 0.163139 0.11435489 0.29812843 0.18691117 0.096119046 0.049253445
0.1513606 0.21486573 0.45500585 0.18090628
00000000: 4fca 603e e61d 053d e90d 273e e632 ea3d
00000010: 4aa4 983e a465 3f3e 10da c43d fbbd 493d
00000020: 46fe 1a3e c305 5c3e 87f6 e83e 7f3f 393e

encoder_mean.16.weight f4 [10, 12]
-0.19490197 0.24215321 -0.21380225 0.018228326 0.1076477 -0.06937106 0.1554626 0.06934863
0.287715 -0.122282155 0.17847227 0.019981015 0.042272836 0.080123216 -0.11147968 0.029862985
-0.16069227 0.10093917 -0.022290848 -0.20116132 -0.010255249 -0.20077036 0.10607516 0.26986274
0.22246501 0.059796926 -0.24059512 0.042862926 -0.1096395 -0.0014277961 0.11340356 0.022528507
-0.07678155 -0.2860058 -0.10896729 0.18929459 -0.24672739 -0.20022488 0.3310015 0.007766142
0.055875156 -0.36075023 -0.15357399 -0.06760718 0.015732063 0.53048646 0.23859245 -0.16933332
0.32457745 0.1925819 -0.39555207 0.12368028 -0.16602579 0.28807572 0.32242835 0.02182407
0.06220538 -0.6140232 -0.069067165 0.42483371 0.06491662 -0.032516316 -0.20112558 0.07097603
-0.051294148 0.1770528 0.10754888 -0.12740186 0.007934045 -0.05460099 -0.17543875 0.062250666
-0.011807669 0.21396807 -0.47508422 -0.013189563 0.067606226 0.1733431 0.08930817 0.27033156
0.012204911 -0.4270114 -0.04655075 0.06101044 0.4012738 -0.20776539 0.012054817 0.08184818
-0.22971764 0.21479912 0.030352822 -0.26827365 -0.19672547 -0.11835358 -0.34860772 0.24598299
0.14610332 -0.16286315 -0.06645685 0.1383743 -0.17399593 0.1594681 0.17701313 -0.04169138
-0.14615853 -0.037502274 -0.14936525 0.009845262 -0.4989655 0.123798616 -0.16040114 0.16472247
0.55691993 -0.4156476 -0.48685583 0.24533997 0.33273238 0.40156388 0.5104085 -0.26327878
00000000: 6294 47be 03f7 773e faee 5abe 9253 953c
00000010: 6676 dc3d 6a12 8ebd 9631 1f3e a806 8e3d
00000020: 614f 933e 116f fabd 6fc1 363e 3aaf a33c
00000030: 4826 2d3d a417 a43d 754f e4bd 38a3 f43c
00000040: 848c 24be 32b9 ce3d 4c9b b6bc 3cfd 4dbe
00000050: a205 28bc bf96 4dbe ef3d d93d 732b 8a3e
00000060: decd 633e 9fed 743d 915e 76be 0991 2f3d
00000070: ad8a e0bd e324 bbba 2040 e83d b48d b83c
00000080: a53f 9dbd 5a6f 92be 3e2a dfbd 71d6 413e
00000090: 1ba6 7cbe c007 4dbe 0779 a93e 1f7b fe3b
000000a0: 59dd 643d 41b4 b8be 8042 1dbe a275 8abd
000000b0: 87e0 803c f6cd 073f 9451 743e b765 2dbe
000000c0: 042f a63e 3134 453e cd85 cabe 164c fd3d
000000d0: aa02 2abe a97e 933e 5415 a53e 64c8 b23c
000000e0: 12cb 7e3d a030 1dbf 1673 8dbd ce83 d93e
000000f0: 01f3 843d d42f 05bd ddf3 4dbe e15b 913d
00000100: d019 52bd 544d 353e 9642 dc3d a275 02be
00000110: ccfd 013c 4aa5 5fbd 37a6 33be 8efa 7e3d
00000120: f474 41bc 721a 5b3e 3d3e f3be 0919 58bc
00000130: 2275 8a3d db80 313e 34e7 b63d e668 8a3e
00000140: 1bf7 473c 3da1 dabe 00ac 3ebd 15e6 793d
00000150: c273 cd3e 73c0 54be 9181 453c 05a0 a73d
00000160: 1a3b 6bbe 4df4 5b3e 7ba6 f83c 2a5b 89be
00000170: 6772 49be 5d63 f2bd b67c b2be f7e2 7b3e
00000180: 1c9c 153e 99c5 26be 871a 88bd feb1 0d3e
00000190: fd2b 32be 9b4b 233e ee42 353e 95c4 2abd
000001a0: 95aa 15be fc9b 19bd 34f3 18be 064e 213c
000001b0: 6878 ffbe 218a fd3d 3240 24be 02ad 283e
000001c0: 4e92 0e3f c3cf d4be 2b45 f9be 673a 7b3e
000001d0: e65b aa3e c899 cd3e 22aa 023f 7acc 86be

encoder_mean.16.bias f4 [10]
-0.23646572 -0.2402367 -0.18466416 0.3071755 -0.4962246 -0.21380836 -0.22840704 -0.19407135
-0.21664687 0.27670652
00000000: 1224 72be 9c00 76be 9a18 3dbe 1b46 9d3e
00000010: 2711 febe 94f0 5abe 89e3 69be a4ba 46be
00000020: add8 5dbe 7aac 8d3e

encoder_var.0.weight f4 [20, 30]
0.0046411976 0.00252429 -0.0022093586 -0.0030899975 0.011813972 -0.0011483062 -0.00087511545 0.0010454647
4.2631185e-05 0.0058882283 0.0031148917 0.0004355233 -0.0069323024 -0.0017028691 -0.00019517203 0.002294044
-8.222077e-05 -0.0035333806 -0.008490446 -0.00015267104 -0.0031061298 -0.004213843 0.0004885302 -6.0999395e-05
0.00055113435 -0.01264242 0.023367776 0.010168975 -0.0064413412 0.033582818 0.0057634027 0.0023314026
-0.0019778628 -0.0022190742 0.0017117179 0.0056252265 -0.00044566861 0.0039310576 -6.228567e-05 0.0055073625
-0.0009947608 -0.000386198 0.0023102057 -0.00048962934 0.0047953143 0.005404933 -0.001114999 0.0017984621
-0.00340884 0.0014874514 -0.0020895023 0.004210964 0.0016751634 -0.00071699143 0.00056265556 -0.0013008919
-0.0051126517 -0.0019533662 -0.004918435 -0.0062859314 0.000978826 0.0050178175 0.0007168433 0.0013995323
-0.008579532 -0.0020768177 -0.0011887501 -0.0024899566 0.00052854273 -0.0013962446 -0.00026577935 0.00050048064
-0.00056479947 0.0028312209 0.00037726536 -0.010498909 0.00069308456 0.0011493561 0.0019493683 -0.0034704523
0.0013572761 0.00085380295 0.0010865395 0.0029103898 0.00033610946 0.002619421 -0.0051152045 0.0014350272
-0.010908924 -0.008910721 0.0026296822 -0.0013438265 0.002365423 -0.011211156 0.02107289 0.004997137
-0.0020094297 -0.0027712912 -0.00056669366 0.00027064374 -0.0017773 0.0004369018 -0.010713881 -0.0004613819
-0.0058180625 0.011172486 0.0026207266 0.0014147441 0.0031763066 0.00076783926 -0.011183901 0.0014292412
0.004035934 3.0796702e-05 -0.005947389 -0.0040447596 0.024996255 0.00554406 0.009595906 0.003607897
0.049848467 0.034107167 -0.021285139 0.008774713 0.05811019 0.00799214 -0.0013784578 0.045321725
-0.00046384535 0.032339573 0.005323375 0.0005561172 0.048432395 0.007196988 0.026865494 0.05843212
0.0010248479 -0.01662377 0.050407734 0.022768592 0.008752826 0.04649965 -0.0027193436 0.0073886015
0.021939868 -0.0053776274 0.0710409 0.046569668 0.043596383 0.042785868 -0.034935385 -0.017747685
0.021869645 -0.00786707 -0.029391738 0.0012145966 0.0035649906 -0.048368447 0.00057110575 -0.018587075
-0.011003062 0.00059257844 -0.024227088 0.013162482 -0.03795537 -0.015734889 -0.0017393944 0.011531764
-0.033993136 0.01228597 -0.007850424 -0.03310971 -0.0012968885 0.0046356777 -0.038637366 0.023927597
-0.041537102 -0.025763648 -0.01943198 -0.0032067979 -0.0051154275 -1.8023346e-05 -0.0014061353 -1.1007692e-06
-0.0024467087 -0.0024512256 0.00204177 0.0025868628 -0.00044030542 -0.0020185364 -0.00010231263 0.00058047497
-0.0030625432 -0.002768605 -0.0024159893 0.003300645 0.0017987314 0.0037874498 -0.00038310263 0.002327049
-0.00038527587 -0.0013148629 0.0010188951 0.0020583074 0.0023370541 -0.003061018 0.0013170927 -0.0016511227
-0.0016591119 -0.00054735044 -0.0026406918 0.0015494123 -0.0016343734 -0.0010353783 -0.0011451474 -0.00012248172
0.0011613731 0.0009771634 -0.00052841357 -0.001929942 -0.0010317729 0.0004580414 -0.00057391165 -0.0015367346
-0.0027036273 -0.0027971757 0.00023552537 -0.0010340979 -0.0007720156 -0.00049490895 -0.00094487885 0.0008496857
0.00093051913 -0.0003812165 -0.00077026855 0.0007288778 0.0044094934 0.0015609395 0.004762186 0.0035346374
-0.003906732 -0.004124215 -0.0016294967 -0.00025872572 -0.002959313 -0.0008885175 0.00034577315 0.0034076653
-0.00030077525 -0.0008568555 0.0014342428 -0.0005238198 -0.00069679844 7.306971e-05 0.0013215106 0.0031423813
00000000: 3015 983b 8f6e 253b e3ca 10bb 8e81 4abb
00000010: 648f 413c c382 96ba 0168 65ba f907 893a
00000020: e3ce 3238 0af2 c03b 3623 4c3b f356 e439
00000030: 5e28 e3bb ce32 dfba 18a7 4cb9 ac57 163b
00000040: f16d acb8 4a90 67bb 831b 0bbc 5216 20b9
00000050: 3690 4bbb 4714 8abb b510 003a 9ad9 7fb8
00000060: 007a 103a 2722 4fbc c76d bf3c c69b 263c
00000070: e311 d3bb 238e 093d edda bc3b 72ca 183b
00000080: 089f 01bb e36d 11bb b95b e03a d253 b83b
00000090: a1a8 e9b9 1ad0 803b 5d9f 82b8 1b77 b43b
000000a0: a262 82ba 9e7a cab9 d266 173b 785a 00ba
000000b0: 0322 9d3b dd1b b13b 2825 92ba 60ba eb3a
000000c0: d866 5fbb 96f6 c23a 08f0 08bb 20fc 893b
000000d0: 2891 db3a 7bf4 3bba 2d7f 133a b082 aaba
000000e0: 0888 a7bb 0c04 00bb d32a a1bb 37fa cdbb
000000f0: f34b 803a 816c a43b 8aea 3b3a 8370 b73a
00000100: 2a91 0cbc 381b 08bb d6cf 9bba 8a2e 23bb
00000110: e78d 0a3a 3202 b7ba 4d58 8bb9 b032 033a
00000120: 0d0f 14ba 018c 393b b3cb c539 9e03 2cbc
00000130: 1eb0 353a fea5 963a f281 ff3a 8770 63bb
00000140: a1e6 b13a bfd1 5f3a 376a 8e3a 3dbc 3e3b
00000150: d937 b039 98aa 2b3b 729d a7bb 8617 bc3a
00000160: 58bb 32bc 46fe 11bc bf56 2c3b 5623 b0ba
00000170: 3605 1b3b ffae 37bc 0ea1 ac3c 06bf a33b
00000180: a3b0 03bb 8d9e 35bb 2b8e 14ba 30e5 8d39
00000190: 4bf4 e8ba f80f e539 4689 2fbc a1e5 f1b9
000001a0: 72a5 bebb cd0c 373c 7fc0 2b3b ef6e b93a
000001b0: 9529 503b d248 493a ae3c 37bc 6055 bb3a
000001c0: de3f 843b b52b 0138 51e2 c2bb e789 84bb
000001d0: f2c4 cc3c f2aa b53b 2638 1d3c 7872 6c3b
000001e0: e82d 4c3d f5b3 0b3d 2c5e aebc d0c3 0f3c
000001f0: f304 6e3d 77f1 023c 5ead b4ba 46a3 393d
00000200: 4530 f3b9 8076 043d b56f ae3b 65c8 113a
00000210: 0c61 463d b6d4 eb3b 0615 dc3c 8556 6f3d
00000220: 3054 863a 932e 88bc 5778 4e3d 3385 ba3c
00000230: 0368 0f3c 6b76 3e3d 0437 32bb 151c f23b
00000240: 3dbb b33c cf36 b0bb e47d 913d d6bf 3e3d
00000250: 1f92 323d 3c40 2f3d 6818 0fbd 9863 91bc
00000260: f827 b33c e2e4 00bc f1c6 f0bc 1933 9f3a
00000270: 9ea2 693b fe1d 46bd 42b6 153a ec43 98bc
00000280: 3046 34bc 4457 1b3a e377 c6bc 73a7 573c
00000290: 1777 1bbd 74e6 80bc 64fc e3ba b9ef 3c3c
000002a0: 633c 0bbd 184b 493c 119f 00bc 0c9e 07bd
000002b0: 5bfc a9ba e2e6 973b 3742 1ebd cf03 c43c
000002c0: cf22 2abd 490e d3bc d12f 9fbc 2429 52bb
000002d0: 519f a7bb d730 97b7 124e b8ba 24be 93b5
000002e0: f658 20bb bea4 20bb 37cf 053b 5b88 293b
000002f0: cbd8 e6b9 6c49 04bb ad90 d6b8 042b 183a
00000300: f3b4 48bb 7c71 35bb 9355 1ebb a24f 583b
00000310: 69c3 eb3a dd36 783b 2adb c8b9 6781 183b
00000320: dafe c9b9 7a57 acba 728c 853a abe4 063b
00000330: 4329 193b 5c9b 48bb 4ca2 ac3a 7c6a d8ba
00000340: 8f76 d9ba 117c 0fba 750f 2dbb a615 cb3a
00000350: 7938 d6ba 88b5 87ba c518 96ba 706e 00b9
00000360: 3739 983a 2a14 803a 3c85 0aba 1cf6 fcba
00000370: 8e3c 87ba 4725 f039 8f72 16ba 426c c9ba
00000380: 572f 31bb d250 37bb 5cf7 7639 918a 87ba
00000390: 1761 4aba c7bc 01ba bfb1 77ba 71bd 5e3a
000003a0: 15ee 733a 03de c7b9 d9eb 49ba 2912 3f3a
000003b0: 837d 903b 7098 cc3a 1d0c 9c3b 60a5 673b
000003c0: 0b04 80bb 6c24 87bb d694 d5ba 94a5 87b9
000003d0: 09f1 41bb 66eb 68ba e348 b539 2353 5f3b
000003e0: 5fb1 9db9 999e 60ba 34fd bb3a f450 09ba
000003f0: 5aa9 36ba 003d 9938 8a36 ad3a 69f0 4d3b

encoder_var.0.bias f4 [20]
0.011759517 -0.006218036 -0.009129323 0.028829698 0.04937141 -0.020579834 0.0011736613 0.0035239386
0.0054981336 0.004117649 0.00011541798 0.012807657 0.006635809 0.013254917 0.00044655055 0.066199765
-0.0041162986 0.00121124 -0.0016131697 0.0054857777
00000000: fdaa 403c abc0 cbbb 2893 15bc 422c ec3c
00000010: ad39 4a3d 0a97 a8bc 8ad5 993a e1f1 663b
00000020: b029 b43b 58ed 863b 8e0c f238 35d7 513c
00000030: 3371 d93b 272b 593c 001f ea39 be93 873d
00000040: 04e2 86bb 78c2 9e3a fe70 d3ba 0ac2 b33b

encoder_var.1.weight f4 [20]
0.017879097 0.004487621 0.004919765 -0.009274056 0.13719434 0.048981037 0.0065985625 0.006097834
-0.011740371 -0.0051341928 0.003854175 0.015490497 -0.007455098 -0.015192621 0.004311571 0.11929391
0.0049988986 0.0019977628 0.007083432 -0.00288494
00000000: 2f77 923c e50c 933b fb35 a13b 36f2 17bc
00000010: ac7c 0c3e 57a0 483d c138 d83b 57d0 c73b
00000020: af5a 40bc bb3c a8bb 5496 7c3b dbcb 7d3c
00000030: e549 f4bb 79ea 78bc 1448 8d3b 5e50 f43d
00000040: cdcd a33b e6ec 023b 221c e83b 4311 3dbb

encoder_var.1.bias f4 [20]
0.0038696125 -0.0011520006 -0.00031072507 -0.003999216 0.02475496 -0.014928743 0.0017227705 0.0013501322
0.0026087246 -0.0030533557 0.0022572957 0.0010403262 -0.0027127007 -0.006481837 0.0003759609 0.041305304
0.0029560449 0.00065415143 0.001292148 -0.0035466396
00000000: 5399 7d3b bafe 96ba d0e8 a2b9 db0b 83bb
00000010: eaca ca3c b097 74bc 96ce e13a ebf6 b03a
00000020: 23f7 2a3b cf1a 48bb 23ef 133b 8e5b 883a
00000030: 91c7 31bb 9765 d4bb 9e1c c539 c02f 293d
00000040: 34ba 413b 5c7b 2b3a 4b5d a93a bd6e 68bb

encoder_var.1.running_mean f4 [20]
0.08270074 -0.00094419095 0.078721166 -0.14188978 0.0069842716 0.012716061 -0.0632876 0.010509949
-0.09012592 0.12606408 0.12292872 0.123425536 0.058895852 -0.13100944 -0.12020803 0.012558029
-0.21729633 0.02619849 0.081368774 -0.18031657
00000000: 015f a93d 9583 77ba 9038 a13d 8e4b 11be
00000010: 51dc e43b 0757 503c ee9c 81bd ec31 2c3c
00000020: f093 b8bd f116 013e 0ec2 fb3d 87c6 fc3d
00000030: c73c 713d 5727 06be a12f f6bd 31c0 4d3c
00000040: ee82 5ebe 379e d63c aca4 a63d e8a4 38be

encoder_var.1.running_var f4 [20]
0.0019971335 0.0010732245 0.0020530906 0.00222865 0.0012080879 0.0007877464 0.0030141734 0.0010641263
0.001536155 0.004105629 0.006967365 0.007884612 0.0049041547 0.0026188805 0.0029234816 0.0035086675
0.006424411 0.0010868972 0.0039132484 0.0046528564
00000000: 57e2 023b 70ab 8c3a 258d 063b 8b0e 123b
00000010: b458 9e3a c480 4e3a 7089 453b 277a 8b3a
00000020: cf58 c93a 8388 863b 7e4e e43b 762e 013c
00000030: 08b3 a03b 86a1 2b3b e297 3f3b acf1 653b
00000040: de83 d23b 3876 8e3a b53a 803b fd76 983b

encoder_var.4.weight f4 [16, 20]
0.0022224558 0.00050510274 -7.127769e-05 0.0017399731 0.0010772503 0.0006870991 -0.00074591814 -0.00018922238
-0.001024745 0.0038179613 -0.011720668 -0.00020146821 0.0044556456 0.00029224347 0.00081587356 -0.0083480505
0.000335682 -0.00010952093 0.0018224756 -0.0018534507 0.0016153462 -0.0008097756 0.0010764251 -0.0007151239
0.00029752357 0.00010458508 -0.0009977977 0.00027709923 -0.000609445 -0.004000768 0.00265335 0.00067787844
0.0018510987 -0.00043223755 0.00042921028 0.0035709795 -0.0005039714 -0.0014465225 -3.635067e-05 0.0002791605
0.0006695325 0.0048296703 6.282891e-05 0.0042928606 0.0012655935 -0.0019446533 -0.00058450573 -0.0034495587
-0.0024008031 -0.0012080166 0.00029901252 -0.00047589027 -0.00019365898 0.0016887544 -0.0012494917 0.0004819609
-0.00055302866 0.0007468817 0.0007912024 0.00084140274 -0.0041018436 0.0047293073 -0.0024455448 0.0063794423
0.0067259273 -0.0027554003 0.002559298 0.0038558168 -0.0033621094 -0.0023442518 -0.0005094457 0.0013841086
-0.002034595 0.00089253316 -0.002680498 0.0011999602 0.000888563 -0.0015315975 0.004263939 -0.003567967
-0.0007449303 0.004244455 0.001861807 0.004283776 -0.0018948783 -0.0006002474 -0.0033978485 -0.0030622678
0.0033660957 -0.0011068763 0.0005405802 0.00093417004 -0.00048772275 -0.0016388678 -0.0025341648 -0.00061260024
-0.003716676 0.00085687276 -0.0015367894 -0.00073696766 0.03162099 -0.004193563 -0.0057908203 0.019971589
0.0668516 0.06857531 0.0017867556 -0.0014535342 0.0005442649 0.0029083223 0.00095518044 0.028571164
0.0005206942 -0.0037186225 0.00043471754 0.07048078 0.00020376602 -0.0017991975 -0.0032489311 0.000841423
-0.0018674459 0.0013789169 -0.0006175559 -0.00074157724 -0.0014492276 0.00014798155 0.0012693041 -0.00089173776
1.6368807e-05 0.0031645491 4.0547893e-05 -0.00016912194 0.0018862551 -0.00039816846 0.00020457372 0.005043622
0.0005576784 -0.0006836544 0.0020081068 -0.0015347928 -0.000915356 -0.0014901814 -0.00023056233 0.0015588657
-0.0011214265 0.0015840878 -0.0003755477 0.0011728927 -0.0021473607 0.0015488926 -0.0010071975 0.00047535417
0.0005686088 -0.00033069082 -0.0016519199 0.0010090026 0.0026452777 -0.0014310871 0.0014476757 -9.048103e-05
0.0007616909 -0.00019332275 -0.00023481839 -0.0013981402 -0.0006038772 0.00024500795 0.00068667735 0.00029454863
0.0010104486 0.0016100337 0.00021455128 -0.0014640609 -0.00033666915 -0.0014147458 -0.0005285074 -0.0017142578
0.0002923637 0.0003485564 -0.00011384442 0.0005884102 -0.0055393525 -4.2557094e-05 -0.0018880679 -0.0039042602
0.039532226 0.026888536 0.00060492835 0.00041653073 -0.0009288656 -0.0005532082 0.0007666995 -0.0072855875
0.00035908388 -0.0031383377 -0.0019870999 0.0083116945 0.0027404965 -3.9463863e-05 0.000121585545 0.00045653217
0.0001825227 0.0013877928 -0.0015360576 -0.0019959193 -0.0032299124 -2.9724302e-05 -0.001255674 -0.0026356063
0.0014401164 0.005115082 -0.0039880495 0.00093407906 0.0039378493 -0.0012010547 -0.0013153091 0.001892292
-0.00013823943 0.00088340306 0.0008013627 0.0016447804 0.024566555 0.0024674486 0.0027980264 0.048650052
0.06548838 0.03957528 -0.0012289885 0.007378712 -0.006146819 0.01323119 0.05516369 0.032413732
0.007248008 0.016388211 -0.0014865786 0.12068922 -0.0027259006 0.0019157293 0.005328962 0.0013134826
-0.031876415 0.0028974123 -0.0018871939 -0.0063614505 -0.04372397 -0.046605345 -0.0006463742 -0.004234431
-0.00020608415 0.0027690248 0.0051525705 -0.015030011 -0.0031368707 0.0033428364 -0.0017736709 -0.0013511141
00000000: 9fa6 113b df68 043a eb7a 95b8 cf0f e43a
00000010: 8632 8d3a 711e 343a b889 43ba ff69 46b9
00000020: bd50 86ba c336 7a3b 0b08 40bc 3641 53b9
00000030: aa00 923b 4138 9939 59e0 553a 43c6 08bc
00000040: 7afe af39 9aae e5b8 22e0 ee3a 7cef f2ba
00000050: 06ba d33a 1f47 54ba d516 8d3a 2777 3bba
00000060: f0fc 9b39 b054 db38 89c8 82ba a147 9139
00000070: 29c3 1fba e018 83bb d3e3 2d3b a7b3 313a
00000080: 91a0 f23a f19d e2b9 a107 e139 1807 6a3b
00000090: f31c 04ba 3e99 bdba 3c77 18b8 4a5c 9239
000000a0: 9183 2f3a 3642 9e3b 04c3 8338 20ab 8c3b
000000b0: 45e2 a53a bde3 feba 8439 19ba fe11 62bb
000000c0: cb56 1dbb 5056 9eba c8c4 9c39 e980 f9b9
000000d0: f010 4bb9 3259 dd3a fcc5 a3ba b2af fc39
000000e0: 20f9 10ba 62ca 433a b268 4f3a 9591 5c3a
000000f0: c268 86bb 4ef8 9a3b 6f45 20bb a40a d13b
00000100: 2b65 dc3b f293 34bb e5b9 273b dfb1 7c3b
00000110: d656 5cbb 05a2 19bb 528c 05ba fa6a b53a
00000120: d756 05bb e3f8 693a 4bab 2fbb fc47 9d3a
00000130: 74ee 683a e2bf c8ba 83b8 8b3b 8ed4 69bb
00000140: 6d47 43ba 1215 8b3b e007 f43a eb5e 8c3b
00000150: 915d f8ba ec59 1dba 70ae 5ebb 54b0 48bb
00000160: b799 5c3b 9b14 91ba b9b5 0d3a 17e3 743a
00000170: 0ab5 ffb9 47cf d6ba 3b14 26bb e896 20ba
00000180: 7a93 73bb c29f 603a 186e c9ba 1031 41ba
00000190: 0385 013d 286a 89bb ecc0 bdbb 759b a33c
000001a0: 7ee9 883d 3671 8c3d 9231 ea3a 8484 beba
000001b0: 00ad 0e3a 8d99 3e3b 1365 7a3a 130e ea3c
000001c0: 327f 083a 22b4 73bb cdea e339 3a58 903d
000001d0: 06aa 5539 0dd3 ebba 05ec 54bb f192 5c3a
000001e0: 16c5 f4ba c6bc b43a 7ae3 21ba 6866 42ba
000001f0: 02f4 bdba 7f2b 1b39 c75e a63a 82c3 69ba
00000200: bf4f 8937 5364 4f3b f811 2a38 5356 31b9
00000210: 383c f73a 44c1 d0b9 d782 5639 f844 a53b
00000220: 2a31 123a 4537 33ba 719a 033b 1a2b c9ba
00000230: 80f4 6fba 3152 c3ba 1bc3 71b9 da52 cc3a
00000240: d4fc 92ba 2ba1 cf3a 29e5 c4b9 c0bb 993a
00000250: bcba 0cbb 3604 cb3a f103 84ba f538 f939
00000260: b10e 153a 9260 adb9 3c85 d8ba 8240 843a
00000270: 655c 2d3b 5193 bbba f0bf bd3a a2c0 bdb8
00000280: 36ac 473a aeb6 4ab9 9539 76b9 cd41 b7ba
00000290: 834d 1eba 6974 8039 2302 343a a66d 9a39
000002a0: 0771 843a c407 d33a 2cf9 6039 bbe5 bfba
000002b0: f882 b0b9 fe6e b9ba 888b 0aba f2b0 e0ba
000002c0: 6448 9939 73be b639 c2bf eeb8 8a3f 1a3a
000002d0: 7583 b5bb 557f 32b8 0c79 f7ba 9ede 7fbb
000002e0: 8bec 213d 5945 dc3c 0e94 1e3a cf61 da39
000002f0: 1d7f 73ba 2d05 11ba 55fc 483a f0bb eebb
00000300: 6c43 bc39 92ac 4dbb 013a 02bb c62d 083c
00000310: e799 333b 0086 25b8 befb fe38 b65a ef39
00000320: 9063 3f39 99e6 b53a 8a55 c9ba f8cd 02bb
00000330: f0ac 53bb 7458 f9b7 6e95 a4ba 23ba 2cbb
00000340: 4ac2 bc3a 6b9c a73b 2fae 82bb fcdc 743a
00000350: 1309 813b b56c 9dba 7366 acba c906 f83a
00000360: 5df4 10b9 2d94 673a 8a12 523a ac95 d73a
00000370: cd3f c93c ebb4 213b 185f 373b 4745 473d
00000380: c61e 863d b019 223d 0316 a1ba 1fc9 f13b
00000390: 416b c9bb a2c7 583c 52f3 613d 43c4 043d
000003a0: b380 ed3b 9240 863c 4dd9 c2ba e92b f73d
000003b0: 06a5 32bb 3519 fb3a 939e ae3b 2a29 ac3a
000003c0: d890 02bd 83e2 3d3b b85b f7ba b773 d0bb
000003d0: e817 33bd 3fe5 3ebd 7071 29ba fbc0 8abb
000003e0: 4b18 58b9 8778 353b e5d6 a83b 6f40 76bc
000003f0: f593 4dbb 7d13 5b3b 857a e8ba de17 b1ba

encoder_var.4.bias f4 [16]
-0.04638333 -0.014199469 -0.030482335 -0.049846534 -0.041334983 0.08131812 -0.027320666 -0.009983081
0.0048960466 0.059145946 -0.04652693 0.07308145 -0.030219937 -0.044606507 -0.013296726 -0.036933802
00000000: 72fc 3dbd e4a4 68bc 17b6 f9bc e12b 4cbd
00000010: df4e 29bd 1d8a a63d 97cf dfbc 1490 23bc
00000020: 046f a03b 0543 723d 0693 3ebd baab 953d
00000030: cd8f f7bc 50b5 36bd 83da 59bc e647 17bd

encoder_var.5.weight f4 [16]
-0.010111583 0.0022439146 0.004436756 -0.011301102 0.0013784878 0.16112228 0.006239926 -0.01993252
-0.006143079 -0.01879829 0.002575177 0.16167922 0.014862744 -0.008969265 -0.0018831446 -0.0058344062
00000000: 0eab 25bc a40e 133b 3562 913b 4228 39bc
00000010: 60ae b43a 3dfd 243e 4b78 cc3b 8649 a3bc
00000020: e24b c9bb dffe 99bc 4dc4 283b 3d8f 253e
00000030: de82 733c d3f3 12bc d9d3 f6ba 8c2e bfbb

encoder_var.5.bias f4 [16]
0.0021636162 0.0073285704 0.004473116 -0.0017786216 -0.011821456 0.06204459 0.0013637141 -0.0033691854
0.0021421637 0.009293378 -0.0015240888 0.072855376 -0.0171553 -0.01122702 -0.002355009 0.0074926643
00000000: 75cb 0d3b 8124 f03b 3793 923b a320 e9ba
00000010: c8ae 41bc 7822 7e3d a7be b23a 8dcd 5cbb
00000020: 8b63 0c3b 4143 183c efc3 c7ba 3335 953d
00000030: 4689 8cbc 89f1 37bc 7f56 1abb 0685 f53b

encoder_var.5.running_mean f4 [16]
0.0028674204 0.007829742 0.003261094 -0.010774172 0.008955096 -0.0050305375 0.0060371747 0.009837741
0.007911526 0.011889473 -0.0039428365 0.001483949 -0.0014448155 0.009909153 0.013598538 0.019024875
00000000: 55eb 3b3b 5148 003c 14b8 553b 2786 30bc
00000010: 65b8 123c 35d7 a4bb 7ed3 c53b 7a2e 213c
00000020: 589f 013c 10cc 423c e932 81bb 1181 c23a
00000030: f75f bdba 005a 223c 67cc 5e3c 0eda 9b3c
