generativecf/models/adult-2048-50-target-class-1-auto-encoder.pth (torch_old, 35771 bytes, 78 tensors)

encoder_mean.0.weight f4 [20, 29]
000000 85 ef df bd a3 38 02 bf cb 7d 87 bd 98 24 3f 3d
       -0.109343566 -0.5086767 -0.0661579 0.046665758
000010 8c cc 2f bd d8 97 50 bd ce 0f 2b 3d ff ba 5e 3d
       -0.04291968 -0.05092606 0.04176312 0.054377552
000020 b7 f2 cc bd 81 44 d4 3c 3e b1 84 3d 7a 31 ce 3d
       -0.10007232 0.025911571 0.06479119 0.10068031
000030 6b 7f 3c 3d 7d e8 ab 3c f6 91 b7 bb 9e 45 00 bd
       0.046019953 0.020984882 -0.0056021167 -0.031316392
000040 7d 42 83 bc bd d3 10 bd e0 b9 fa 3a 6f bd b3 3d
       -0.016022915 -0.03535818 0.0019128881 0.08776366
000050 08 60 b4 3c 2c e6 8b 3d 29 b1 3f 3d 94 81 90 3d
       0.022018448 0.06831011 0.046799812 0.07055965
000060 93 52 9f 3d d3 14 92 3d 2c cb a9 3d 00 d3 d5 bb
       0.07779422 0.07132878 0.08290705 -0.0065253973
000070 6a 34 b3 3a 73 3a 6e bd c7 4f 18 bf 81 2e 95 3c
       0.0013672237 -0.05816121 -0.5949673 0.018210651
000080 3a 6e d7 3d 81 7f d5 3c b7 e4 a9 3c 42 82 0e 3e
       0.10519071 0.026061775 0.020738943 0.13916877
000090 3d ce d5 bd c7 51 e3 3d be d1 c3 3d 3d 16 8b 3c
       -0.104397275 0.11099582 0.095614895 0.016978377
0000a0 b9 74 aa 3c 56 2b b9 3d 0e 23 5b 3d e0 77 3d bd
       0.02080761 0.09041469 0.053500228 -0.0462569
0000b0 75 a9 0f bd 77 ec 81 3d cd b5 18 bc 33 a9 30 3c
       -0.035073716 0.0634393 -0.009320688 0.010782528
0000c0 79 a7 d2 bb 16 e5 53 bd d5 7d d6 bc fb b2 2d 3d
       -0.0064286557 -0.051732145 -0.026183048 0.042407017
0000d0 4c b0 ff bb 2a d3 8c bd 3c 13 93 bd c1 73 23 bd
       -0.0078029986 -0.06876214 -0.07181403 -0.039905313
0000e0 d8 cf d0 3c f9 29 8f 3d 7b 08 82 bd e4 91 e0 3e
       0.025489733 0.069904275 -0.06349274 0.43861306
0000f0 a5 39 a2 bd cf d5 80 bc 0b dd cc 3d af 75 cb 3d
       -0.07921151 -0.015726952 0.10003098 0.09934556
000100 f8 89 14 3d 5e bc 48 bc de 2f e0 3d 28 6c 8e bd
       0.03626439 -0.0122519415 0.1094663 -0.06954223
000110 b2 ae a9 bd 93 d5 31 3d 20 5b b4 bd dd 5d 72 3d
       -0.082852736 0.04341657 -0.08806443 0.059171546
000120 42 28 83 3d 23 3f 8f 3c cf d1 5c bb 7b ce 48 3d
       0.06404163 0.01748616 -0.0033694392 0.04902504
000130 ba 80 2d 3d c1 e0 a1 3d 2b 3b 9c bc bc 91 03 3d
       0.04235909 0.079041965 -0.019071182 0.032121405
000140 dc 2b 92 bd 26 06 12 bd 87 29 42 3d 70 a0 5a 3a
       -0.07137272 -0.035650395 0.047402885 0.0008339947
000150 d8 c3 20 3d 83 5b 43 3d 5b 97 8e bd 72 fa 62 bd
       0.03924927 0.047694694 -0.069624625 -0.055414625
000160 9d 57 a9 be f6 48 1b 3e a1 b6 26 bd 4d 54 4d bd
       -0.33074656 0.15164551 -0.040701512 -0.050129224
000170 48 74 a8 bd 6d c5 f9 3c d5 be 4a be 40 98 96 bc
       -0.08225304 0.030489648 -0.19799359 -0.018383145
000180 66 78 8e bd 41 7b c5 bc fa 86 81 bd c8 cd 00 3e
       -0.06956558 -0.024106624 -0.06324573 0.125785
000190 45 5d a0 3c eb c7 15 3d 82 7d 5c bd a5 e4 b6 3d
       0.019575724 0.03656761 -0.05383063 0.08930329
0001a0 79 aa 43 3e 56 6c 01 3c 51 f4 c9 bd 4c 77 79 bd
       0.19107999 0.007899364 -0.09861053 -0.060904786
0001b0 a4 a8 29 3d 68 a8 ba bd d2 0a e6 3d 76 df 83 3d
       0.041420594 -0.09114152 0.112325326 0.06439106
0001c0 c6 3e ac 3c 75 69 c8 3c e2 90 dc bd 9a 6b 10 3e
       0.021026026 0.024464348 -0.10769822 0.14103547
0001d0 03 6f 4b 3d e5 e4 de be 07 30 f4 3d f1 8f 1f 3d
       0.049666416 -0.43534008 0.11923223 0.038955633
0001e0 f8 94 c3 3c 58 cf 5c 3b c8 f5 59 3a e8 f2 66 3d
       0.023874745 0.0033692922 0.00083145173 0.056383997
0001f0 7a a4 dc 3d 79 14 59 bc 05 f2 06 be 08 7d 0d bd
       0.10773559 -0.01324951 -0.1317826 -0.034543067
000200 8a 39 f7 3d a8 2e 8b bb dd 07 ea 3d a9 ce 0f bd
       0.120715216 -0.004247505 0.11427281 -0.035109196
000210 73 ad 11 3d f5 1a 00 bd da 9b d4 3b d1 45 0e 3e
       0.035565805 -0.03127571 0.0064883055 0.1389382
000220 2e e1 93 bc b4 bd d6 3d 0d fe 0b 3e 78 b6 a9 3d
       -0.01805171 0.10485402 0.13671131 0.08286756
000230 5e dd cc 3a 31 14 fc 3d 1a 5c 85 3d 2d ac 4a bd
       0.0015629937 0.12308539 0.065117076 -0.049480606
000240 47 96 c0 bd df 7a 46 bc 2d dd a1 3e 8c 83 96 be
       -0.09403663 -0.012114256 0.31614056 -0.29397237
000250 1f b1 90 3d c3 f7 a0 3a c7 ad 02 3e d5 70 f3 3c
       0.07065033 0.001228087 0.12761603 0.029716888
000260 af 27 0d 3d 83 d8 3b 3d 77 c7 33 be 24 e2 6e bb
       0.034461673 0.04586078 -0.17556559 -0.0036450708
000270 ad 5f 3f 3e 2d 43 5d 3d 61 84 f1 3d 8b 4f 0e 3d
       0.18688841 0.054019142 0.117928274 0.034743827
000280 44 50 43 bc 82 3e f9 bc 3c 94 71 bc f0 bd 8d 3c
       -0.011920992 -0.030425314 -0.0147448145 0.017302483
000290 8f ea c3 bd cb 1c 7d 3d 99 5d 03 be 69 99 3d 3e
       -0.09566223 0.061795037 -0.12828673 0.18515553
0002a0 0c df 16 be f5 a2 46 bd 0a 8c f1 bb 79 4b a9 3d
       -0.14733523 -0.04849525 -0.0073714303 0.082663484
0002b0 a0 e4 b4 bc 18 7e 2d b9 28 b7 ca bc 82 5c c2 3e
       -0.022081673 -0.00016545539 -0.024745539 0.37961203
0002c0 09 24 b5 bd de 3c 84 3d 1b 3f 09 bd fa e5 3f 3d
       -0.08844764 0.06456922 -0.033507448 0.046850182
0002d0 02 01 08 3e ee 7a f1 bb 0b c1 29 bd 1a bd b1 3d
       0.13281634 -0.0073693907 -0.041443866 0.086786464
0002e0 79 de 11 3d a3 13 f2 bd 4a 7c e2 3d 9f da 84 bb
       0.035612557 -0.11820152 0.110588625 -0.004054382
0002f0 28 40 e9 ba ad 75 9d 3c 90 b7 0f 3d 68 ba 96 bb
       -0.0017795609 0.019221151 0.03508717 -0.004599858
000300 57 54 19 bd cd fc 15 bd e1 6a c1 3d 4e 22 90 bd
       -0.03743395 -0.036618043 0.09444214 -0.07037793
000310 4b 4c 88 3d 67 18 ac bc 38 45 25 3d d6 1b da bd
       0.06655177 -0.02100773 0.040349215 -0.106498405
000320 64 24 b3 bd d1 06 45 be 7c 5e ec bc 09 17 cd 3d
       -0.08747175 -0.19240882 -0.028853647 0.10014159
000330 4c 7e bc be 78 8e 6c 3d 38 7c 27 3c d8 91 df 3d
       -0.36815107 0.057753056 0.010222487 0.10916489
000340 4a 88 d7 3c af 23 8f 3d 13 7d b9 3c fa 89 04 3e
       0.026310105 0.06989228 0.022642648 0.12943259
000350 db 8f f7 3c 05 18 c8 3d 0b d4 e0 bd 4e 61 fa ba
       0.030219963 0.09770206 -0.10977944 -0.0019102485
000360 7a 35 a5 3d 1f 2f 98 3d 90 c7 20 3d 87 64 78 bc
       0.080668405 0.07430863 0.039252818 -0.015160686
000370 a3 73 91 3d c8 cb f6 3b 43 be 8b be b6 07 8c 3c
       0.07102134 0.007531617 -0.27293596 0.01709352
000380 9a c3 0e be 58 5e 32 3e a8 ef d6 3d 14 1f 14 bd
       -0.13941804 0.17418802 0.104949296 -0.03616245
000390 de df 4b bd 88 36 3e bd 00 59 fd bc 07 ec 45 bd
       -0.049774043 -0.046438724 -0.030926228 -0.048320796
0003a0 48 ba 93 39 35 22 06 3f 30 1c 34 bc c7 8c df bd
       0.00028176815 0.52395946 -0.010993049 -0.10915523
0003b0 fd 0d 1a bd eb 36 de bc 1c 98 95 3b b6 08 c9 3c
       -0.037610997 -0.027125796 0.004565252 0.024540287
0003c0 10 fc 04 3d e5 88 87 bd be bb 89 3c ef 00 a1 3c
       0.032466948 -0.066179074 0.016813155 0.019653765
0003d0 24 dd 82 3c da 89 50 bd 97 65 9e 3d 8f b0 6c 3d
       0.015974589 -0.050912715 0.077342205 0.057785567
0003e0 95 47 d4 3c 35 67 49 3d 6c 4d df bd 4a 6b fb 3c
       0.02591304 0.04917069 -0.10903439 0.030690808
0003f0 2e 61 cb bc 08 54 81 b9 0f 2e 27 3b 2c 0b 11 bc
       -0.024826612 -0.00024667406 0.002550963 -0.008852761

encoder_mean.0.bias f4 [20]
000000 2b 58 58 3a ad 41 79 ba 88 50 19 bb cb 11 9d 3b
       0.0008252884 -0.00095083826 -0.0023393948 0.004793381
000010 cb 33 d8 ba 53 1b 3c 3b 0e 42 f1 bb ea 31 6a 3b
       -0.0016494928 0.002870281 -0.0073626107 0.0035735318
000020 6b 95 ba bb 82 c0 88 ba 3b 6b cf ba fa b5 a2 3a
       -0.0056940815 -0.0010433348 -0.0015824804 0.0012413852
000030 97 b2 77 ba 90 ce f4 b9 fe 50 09 3c 48 f7 e8 bb
       -0.0009448914 -0.00046693208 0.008381126 -0.0071095563
000040 73 38 9d bb 5c 3d 9f 3a af 06 0e 3c 7a be f0 3b
       -0.004797989 0.0012149024 0.008668586 0.0073469253

encoder_mean.1.weight f4 [20]
000000 2b e4 5c 3f aa ea 39 3f 8a 02 2b 3f 9c ba 0c 3f
       0.86285657 0.72623694 0.6680075 0.54972243
000010 52 25 29 3f 9c a9 21 3f 04 a2 1d 3f 1a e3 19 3f
       0.6607257 0.6314943 0.6157534 0.60112154
000020 d3 d0 46 3f 81 69 1a 3f 09 e8 17 3f 63 84 5a 3f
       0.7766239 0.60317236 0.5933843 0.85358256
000030 e3 a5 18 3f 75 7d 76 3f 13 32 4b 3f d8 63 1c 3f
       0.59628123 0.9628518 0.7937328 0.6108985
000040 9e 9e 25 3f 98 e1 51 3f 8c 4e 40 3f 71 6d 62 3f
       0.64695156 0.81984854 0.75119853 0.88448244

encoder_mean.1.bias f4 [20]
000000 e8 c8 e9 3d 99 5d 1d 3e 1e 8a c8 bc 3b 9e 3f be
       0.11415273 0.15367736 -0.024479922 -0.18712704
000010 59 46 0f bd e9 e8 15 bd ce f5 03 be f2 04 06 be
       -0.034979198 -0.036599074 -0.12886736 -0.13087824
000020 fa 18 40 3b 38 99 62 bd 80 3e 5c 3d c5 4d d4 3d
       0.0029311762 -0.055321902 0.053770542 0.10366396
000030 ff de 4d bd 66 12 51 3d 52 7b d3 3b 4e 2b 92 bd
       -0.050261494 0.051042937 0.00645391 -0.07137166
000040 61 e7 05 3e 51 9b 5e bb 70 ed 4d 3e dd 67 2c 3d
       0.13076545 -0.0033967088 0.20110106 0.04209124

encoder_mean.1.running_mean f4 [20]
000000 6e cf 18 be 98 a1 8e be 97 ef 99 3e ae 6d bf bd
       -0.14922878 -0.2785766 0.30065605 -0.093470916
000010 20 96 c2 bd 2a b1 14 3e 88 2a 13 3c 50 a6 cc bd
       -0.0950129 0.14520708 0.008982308 -0.09992659
000020 b7 ad a3 3d 1f 46 da 3e 7c 84 74 3e f0 48 1e 3e
       0.07992118 0.42631623 0.23878664 0.15457511
000030 95 84 56 3d cc ea 89 3e 84 b9 40 3d 0d 00 0d be
       0.052372534 0.26936948 0.04705192 -0.1376955
000040 27 e3 d5 be 7a 51 a9 3e b4 3c 00 bf f1 72 27 3d
       -0.41774866 0.33069974 -0.50092626 0.0408811

encoder_mean.1.running_var f4 [20]
000000 7f ad 9c 3b 8d 5c 7f 3c 16 17 b1 3c 28 37 fd 3c
       0.0047814245 0.015586031 0.021617454 0.03091009
000010 44 e3 7f 3c 69 7c 3e 3d b5 e7 b6 3c 1c 7f f1 3c
       0.015618149 0.046505366 0.022327283 0.029479556
000020 68 4d 27 3c be ff 3e 3d 52 5d de 3c 8d dd ba 3b
       0.010211326 0.046630614 0.027144108 0.0057026804
000030 4c 5e df 3c 95 9e a6 3b a1 72 9a 3d f9 d5 a8 3d
       0.027266644 0.0050848224 0.07541395 0.08243937
000040 15 26 8c 3c 54 75 cd 3b 2b 84 71 3c fb 43 d6 3b
       0.017108003 0.00627009 0.014740984 0.0065388656

encoder_mean.4.weight f4 [16, 20]
000000 c9 51 42 3e 9a eb 94 bc 16 bd 89 3d 0a 54 7f bc
       0.18976511 -0.01817875 0.067255184 -0.015584001
000010 e8 6b 86 3d b5 f8 53 bd 78 83 88 3d 0e 31 93 3c
       0.0656355 -0.051750857 0.06665701 0.017967727
000020 03 09 5d 3d 59 6c 0d be c3 80 1f be 35 86 04 be
       0.053963672 -0.13810863 -0.15576462 -0.12941821
000030 e1 9b 11 be 50 6d 22 3d 6a 15 13 3e 42 d5 cc 3d
       -0.1421962 0.03965503 0.14363638 0.10001613
000040 7c 29 61 3d 8d 77 1f bc 70 e8 b7 3c 5c c2 a6 3d
       0.054971203 -0.009733093 0.022449702 0.0814254
000050 2f cd c5 bc 73 84 d9 3d 6a 9a fc bc ca 6f 85 3d
       -0.02414569 0.10620966 -0.03083535 0.06515463
000060 e0 c4 85 3a 10 87 e2 bc 6d 54 8a bd 66 a5 bb bd
       0.0010205768 -0.027652293 -0.06754384 -0.091624066
000070 c2 2e 6b bc df d3 78 be 93 97 d6 bd 6e f2 72 bd
       -0.01435441 -0.24299572 -0.10478129 -0.05931323
000080 d6 fc 11 bd 38 d4 a1 bd 8e 9c 6c 3e 6d 6c 83 3d
       -0.035641514 -0.07901806 0.23106596 0.06417165
000090 3e 85 5f 3d 20 fc 07 3e 43 82 5e 3e a8 1c 1f bd
       0.05457043 0.13279772 0.21729378 -0.038845688
0000a0 11 ef 27 3d bc eb f3 3d d0 5e 26 bd 6c 75 16 bd
       0.040999476 0.11910197 -0.040617764 -0.036733076
0000b0 5c 26 3c 3d 8d 77 ad bd d0 c2 01 be 2e 26 f7 bd
       0.04593502 -0.08470068 -0.12671971 -0.12067829
0000c0 f7 60 bc 3c f6 ee a3 3b 2e dd c3 bd 39 cb 2c 3d
       0.022995455 0.0050028516 -0.09563671 0.042185996
0000d0 04 26 4e bd cc 73 c9 bc 2d 0f 43 3e 4f 68 14 3d
       -0.050329223 -0.024591349 0.19048758 0.03623229
0000e0 86 f9 54 3e 54 e3 9e bd 85 47 9a 3e aa d3 c1 3d
       0.2079831 -0.07758203 0.3013269 0.094642
0000f0 30 99 76 be 12 cc 11 be 00 44 d4 3d 93 6d a0 ba
       -0.24081874 -0.14238003 0.103645325 -0.0012239687
000100 92 6e 4e bd 3d 19 fd 3c e1 b0 7e 3d b4 57 0a bd
       -0.050398417 0.030895824 0.062180404 -0.033775046
000110 cc 9b 49 3e ae e4 d2 3d e9 6f 03 3d 0f 69 57 3e
       0.19688338 0.102975234 0.032089148 0.2103617
000120 e0 0f 12 3e c6 2e bf 3e 36 d7 07 3e 87 6f 4a 3d
       0.14263868 0.37340373 0.1326569 0.049422767
000130 5d 31 09 be 48 2c 50 3e d0 71 41 bd dc 2f 8e be
       -0.13397737 0.20329392 -0.04722768 -0.2777089
000140 4e 0c e6 bd 3e 4c 72 be 0f fa aa 3c 42 61 a1 bd
       -0.11232816 -0.23661897 0.02087119 -0.078798786
000150 e8 6d dc bd 27 05 a8 bd 7b d1 3a 3e e2 1a 39 bd
       -0.107631505 -0.08204108 0.18243973 -0.045191653
000160 25 3f 05 3e de 4e e5 3c f6 34 9e 3d ba 33 3e 3e
       0.13012369 0.027991708 0.07724945 0.1857442
000170 bc a2 69 bd 6c 26 e7 3d a0 1f f8 bc 50 95 6c bd
       -0.05703996 0.11286625 -0.030288517 -0.057759583
000180 9c 95 75 be 87 cc 29 3e a4 88 02 be 1f 71 40 be
       -0.23982853 0.16581927 -0.12747437 -0.18793152
000190 1c 93 9f bc 6c 55 1f be 8b 41 39 3d bd cf 1e 3e
       -0.019479327 -0.1555993 0.045228522 0.15508933
0001a0 70 da 06 3e 33 6f a3 3d 64 9a 14 be 0f f9 30 3d
       0.13169265 0.07980194 -0.1451202 0.04320627
0001b0 89 0d 5d be 15 f1 6c 3c bf dd 74 bd c0 34 34 be
       -0.21587195 0.014461775 -0.059781786 -0.17598248
0001c0 9e 05 a0 3d 47 a6 8c be ca dc fc bc 94 f1 ae 3d
       0.078135714 -0.2747061 -0.030867 0.08542171
0001d0 b2 40 57 3e 70 42 5e be 0d 53 3c 3e 5b c8 19 3e
       0.21020773 -0.21705031 0.18391056 0.15017836
0001e0 4c d9 72 3e 92 f2 ab 3d 2d 38 50 be 60 6d bd 3d
       0.23715705 0.08395876 -0.2033393 0.09249377
0001f0 24 f6 de 3d b6 04 e8 3d 58 72 b5 bd 7e fa 0d 3e
       0.10886791 0.113290235 -0.088597 0.13865086
000200 79 82 ca bd 3f ad fa bd c0 98 a1 bd 7f 08 a4 be
       -0.09888167 -0.12240075 -0.07890463 -0.32037732
000210 23 d9 b8 3d 66 92 7e be 94 0f 15 bc b8 07 f5 bc
       0.090257905 -0.24860534 -0.009097952 -0.029910907
000220 05 ef f2 3d af c0 35 bc c4 d5 08 3e 9b 15 71 3d
       0.118619956 -0.011093303 0.13362795 0.058858495
000230 5c ca 14 3e 0b 61 0c 3d 6d 93 13 be 8d 99 5f 3e
       0.14530319 0.034272235 -0.14411707 0.21835919
000240 f1 2c ce 3d 53 62 40 bd 72 d1 eb bd d2 8a 48 3e
       0.10067166 -0.04696877 -0.11514558 0.19584206
000250 94 81 d7 3c 55 4f 95 bd df 16 09 be d3 3c b8 bd
       0.026306905 -0.07290522 -0.13387631 -0.08995976
000260 23 91 9b bc e0 19 0a be b5 48 27 3d 17 1c 4a 3e
       -0.018990105 -0.13486433 0.040840823 0.19737278
000270 1c d5 cf 3d e4 b6 8e 3a 12 34 3c 3e 3e 68 76 3d
       0.10148069 0.0010888246 0.18379238 0.060158007
000280 5d 5e 9d be b6 a7 c3 bd d2 81 d4 3d 42 a2 11 bd
       -0.30736056 -0.09553473 0.10376324 -0.03555513
000290 03 fd 3d be 0b cd c9 3d c5 72 7d 3d bd 08 09 3d
       -0.18553548 0.09853562 0.06187703 0.0334556
0002a0 fd 87 74 3e dd 4c 72 3d 17 21 02 3d 01 20 af 3e
       0.2388 0.059155334 0.03176984 0.34204105
0002b0 3f eb 90 3d a6 f8 81 3e aa b1 89 bd b1 9d e2 3d
       0.0707612 0.25385016 -0.0672334 0.110652335
0002c0 e1 52 da bd 99 df 53 3e 53 96 48 be 07 01 6d bd
       -0.10660339 0.20690764 -0.19588594 -0.057862308
0002d0 89 5c 59 3d 40 b1 16 3e 34 ba 56 bd 75 f4 2d 3e
       0.053066764 0.14716053 -0.05242367 0.16987784
0002e0 59 ed 6b bb 77 47 25 bd 49 47 be bc ca 81 6a bd
       -0.0035999625 -0.040351357 -0.02322735 -0.057252683
0002f0 70 e6 74 bd d1 1b 90 bd dc 49 07 be 1a 16 19 bd
       -0.059790075 -0.070365556 -0.13211769 -0.037374593
000300 09 97 44 bd de 8e 82 be c2 ad 08 3e e5 8c 87 3d
       -0.0479956 -0.25499624 0.13347533 0.066186704
000310 a7 77 ab 3d 58 f9 b6 bd c1 0e c9 3d 8e 59 7f 3e
       0.08372431 -0.08934277 0.09817267 0.24936506
000320 2b b2 43 3e 70 cd 05 3e 49 59 22 3e 60 1b 87 3c
       0.19110934 0.1306665 0.15854372 0.016492546
000330 51 ff f5 3d 3d c7 5b bd ab be b5 bd 14 28 b2 3c
       0.12011588 -0.053656805 -0.08874258 0.021747626
000340 e3 cb a7 bd c0 97 a9 3d c5 7f 17 be 9f 97 5b be
       -0.08193185 0.08280897 -0.14794834 -0.21444558
000350 d7 c5 96 3a ac 8f 46 be c0 3e ae bd 94 66 ab 3d
       0.0011503053 -0.19390744 -0.08508062 0.083691746
000360 dd b3 ab 3d e7 f4 b8 bd 55 c2 20 3e f9 7c a6 3e
       0.083839156 -0.090310864 0.15699132 0.32517222
000370 3e 4b ef 3d 03 e1 5f 3e 2e 97 14 be 8d 9e 5b 3d
       0.11684273 0.21863179 -0.14510795 0.053618003
000380 bc 27 af 3b 69 73 1b bd d2 a3 fd bc 5c 3c f6 3c
       0.005345313 -0.03795186 -0.030961905 0.030058078
000390 40 b8 24 be 3c 2d dd bd 66 f0 a8 bd 51 3c 96 bd
       -0.16085911 -0.107996434 -0.08248977 -0.07335723
0003a0 78 cb a9 bd 7e 92 42 be 45 c0 4d 3e df e8 d8 3d
       -0.08290762 -0.19001195 0.20092876 0.10591292
0003b0 13 88 4b 3e 89 5e 73 bc bf e0 a4 3d 39 76 1a 3e
       0.19876127 -0.014854082 0.080506794 0.15084161
0003c0 fc 94 28 3e a6 c2 fc 3d 23 08 7c bd 08 52 9c 3d
       0.16463083 0.12341814 -0.061531197 0.07632834
0003d0 22 76 42 3d ae 4d 39 be 24 7d 15 3c 27 5a fc 3b
       0.04747594 -0.18096039 0.009124074 0.0077011767
0003e0 12 68 01 be 2e 5a 9f bd 49 36 6b 3d f7 2f df bd
       -0.12637356 -0.07780872 0.057424817 -0.108978204
0003f0 dc 5f 49 bd 96 4b c2 be 13 fc 0f bc d5 62 f2 bd
       -0.049163684 -0.37948292 -0.0087881265 -0.11835257

encoder_mean.4.bias f4 [16]
000000 43 14 2c 3c d0 78 1a 3a 8a ad 4e 39 0e 5b 77 3b
       0.010502878 0.0005892636 0.00019710339 0.0037743482
000010 d8 7b 2a bb 5d 32 00 3b 92 45 5c bc 00 9f 29 3b
       -0.0026013758 0.001956127 -0.013444321 0.0025882125
000020 bf e6 0d 3b 4a 0c 6a b9 50 7b 91 bb a4 fa ac ba
       0.0021652428 -0.00022320557 -0.004439749 -0.0013197255
000030 d6 03 b9 3a 50 dc 0a 3c 8e ba 44 3b 72 e6 0d bc
       0.0014115523 0.008475378 0.0030018422 -0.0086608995

encoder_mean.5.weight f4 [16]
000000 96 09 0f 3f 09 a7 1e 3f 9a 7b 2a 3f fb 07 72 3f
       0.55874 0.61973625 0.6659485 0.9454343
000010 29 a2 3b 3f 9d 64 2b 3f 38 37 2a 3f 51 c1 02 3f
       0.7329431 0.669504 0.6649051 0.5107623
000020 32 db 50 3f da b8 12 3f 3a cf 35 3f e3 6b 27 3f
       0.81584466 0.5731331 0.7101933 0.65399
000030 ec 03 3f 3f c8 2c 26 3f 53 84 40 3f 76 30 1c 3f
       0.7461536 0.6491208 0.7520191 0.61011446

encoder_mean.5.bias f4 [16]
000000 7a 95 3a be 47 ed cd bc 2c 02 0e 3d ab 12 b4 3c
       -0.18221083 -0.025137557 0.03467004 0.021981558
000010 5e c4 85 be 23 62 5f 3d 2e f0 cb bc 0e 4e 54 bc
       -0.2612638 0.05453695 -0.0248948 -0.012958063
000020 e8 df 84 bd 8a 82 39 3d 88 1d 5c 3e 9f 1d 43 3d
       -0.06488019 0.045290507 0.2149564 0.04763567
000030 39 ac c1 bb 15 e0 08 3d f8 65 2b 3e fd d2 de bd
       -0.005910423 0.033416826 0.16738117 -0.108800866

encoder_mean.5.running_mean f4 [16]
000000 09 a3 de 3d bf dd 9a 3d f9 b2 98 3e 0f ba 21 3e
       0.1087094 0.07561826 0.29824045 0.15793632
000010 1f 4e 88 be 27 64 6b bd bd a3 6b bb e5 80 74 3e
       -0.26622102 -0.05746856 -0.003595575 0.23877294
000020 53 25 d5 3c 49 75 eb 3d 9e 02 36 3e cb 90 12 3e
       0.026018774 0.1149698 0.17774436 0.14313047
000030 75 50 fd bd 3c b8 2a bd 95 58 2d be 61 32 d2 bc
       -0.123688616 -0.041679606 -0.16928323 -0.025658788

encoder_mean.5.running_var f4 [16]
000000 51 b9 78 3d 22 14 0c 3e ca d9 1e 3e 1b 81 ec 3e
       0.060723606 0.13679555 0.15512767 0.4619225
000010 dd 1c 7b 3e 7d 76 83 3e 74 e5 98 3e 68 ca 27 3e
       0.24522729 0.25676337 0.2986256 0.16385806
000020 82 d6 03 3f 20 8e 52 3e b8 da 8b 3e 0f 79 82 3e
       0.5149919 0.20562029 0.27315307 0.25482985
000030 3d 31 78 3e 87 9b 97 3e 7f cf a2 3e ae 5e 54 3d
       0.24237533 0.29610845 0.31798932 0.051848106

encoder_mean.8.weight f4 [14, 16]
000000 49 45 5e bd 21 f0 ec 3c 5f f0 04 bc 0d 1b aa bd
       -0.054265294 0.028923096 -0.00811395 -0.08305941
000010 15 07 e4 3d 23 5d ba bd cb 79 af bc 44 48 38 be
       0.11134163 -0.09099796 -0.02142038 -0.17996317
000020 80 96 38 3e 4c 4b 58 bd 52 d4 3d be 96 f1 ef bd
       0.18026161 -0.052806184 -0.18538025 -0.11716001
000030 6e 79 07 be 5e a5 3c be e0 bc 02 be 12 79 29 3d
       -0.13229915 -0.18422458 -0.12767363 0.041375227
000040 75 c4 c3 3c 38 a3 31 3e 52 d9 25 bd 82 bf a5 be
       0.023897389 0.1734742 -0.040490456 -0.3237267
000050 aa 3f 25 bc 27 92 1d 3e 6f 0f 68 3d 50 11 89 3c
       -0.0100859795 0.15387784 0.056655344 0.016731888
000060 77 b4 7e be 1d 96 e3 bc 32 fd a1 3e d7 c6 f0 3c
       -0.2487353 -0.02778154 0.31638485 0.02939169
000070 9c 12 c4 bc 4f 72 51 3d c2 4f 45 3e 2e 33 46 bc
       -0.023934655 0.051134404 0.19268706 -0.012097163
000080 09 77 09 bd 8c 8b 04 3c 91 26 21 bd 5d d2 a3 be
       -0.033560786 0.008089911 -0.03934342 -0.31996432
000090 6d 0a fb bd 85 1e 8a 3e 58 10 0a 3e 13 06 a2 3d
       -0.12257848 0.2697641 0.13482797 0.07911315
0000a0 79 57 0d bd 18 cd 92 3c 33 73 b6 3c f1 7a 53 3e
       -0.03450725 0.017920062 0.022271728 0.20652367
0000b0 f7 10 1b 3e 6e 6c 3b 3e bd 1d 19 3e 51 59 ec 3d
       0.1514319 0.18303081 0.1495275 0.11540473
0000c0 1f 14 89 3d 52 91 63 3e 1d f1 bd 3d 92 f2 f6 bc
       0.06693291 0.22223404 0.09274504 -0.030144963
0000d0 dc c5 9e bd c0 2f ef 3c 5e d5 5e 3e c4 ec 2a bd
       -0.077525824 0.029197574 0.2176108 -0.041729704
0000e0 71 67 18 be 2e a8 47 3e 29 ae 2a 3e ed 6e 3c 3e
       -0.1488321 0.19497749 0.16668 0.1840169
0000f0 d0 e9 41 3d 01 55 09 bd e1 bc 48 3e 8b c5 9b bd
       0.04734212 -0.03352833 0.19603302 -0.07606038
000100 dc 7b 5e 3c af a4 e3 3d 45 7d 28 3d 28 52 06 3e
       0.013579335 0.11115395 0.04113509 0.13117278
000110 ce a5 86 3e 95 a1 c0 bd 69 18 12 be a6 90 e0 bc
       0.26298374 -0.09405819 -0.14267124 -0.027412724
000120 05 bf b3 3e 44 2c 69 ba 24 7a e9 bd 44 31 10 bd
       0.35106674 -0.0008894841 -0.114002496 -0.035203233
000130 7e eb 47 be c5 fd ab bc 7d 38 8d be ab a6 24 bb
       -0.19523427 -0.02099503 -0.2758216 -0.0025123756
000140 8e a6 ad bd a3 96 51 3c 04 17 92 bc 6d a8 96 be
       -0.084790334 0.012792262 -0.01783324 -0.29425374
000150 d0 a4 c7 3c 2e a6 87 3e 91 af 9c 3c c3 8f 7f bc
       0.02437058 0.26493973 0.019126685 -0.01559824
000160 93 2e ed bc a3 8b c1 3d 97 80 dd 3c 8e c2 30 3e
       -0.028952872 0.09450462 0.027038855 0.17261717
000170 54 cb 37 3e 81 f8 57 3e e0 0c 95 3d a3 d2 28 be
       0.17948657 0.2109089 0.07277846 -0.16486602
000180 e8 63 1b bd 50 76 80 bc 3d 58 23 3e 48 d7 20 be
       -0.037937075 -0.015681416 0.15951629 -0.15707123
000190 cf 05 c6 bd dd 1a dc 3d 81 50 dd bd 17 74 ad bd
       -0.09669077 0.10747311 -0.108063705 -0.08469408
0001a0 19 6f 50 be 13 88 d7 3d 9c 2e 07 3e 11 57 ee 3c
       -0.2035488 0.10524001 0.13201374 0.02909425
0001b0 61 67 4a 3e 4f 95 b0 3d 42 cc 95 3e c2 9d 3c 3e
       0.19765998 0.08622228 0.292574 0.18419555
0001c0 e6 61 3c bd 79 94 3c 3e 7f 60 58 3e fd 50 03 be
       -0.0459918 0.18416013 0.2113056 -0.12823863
0001d0 c7 c6 51 bd cd d0 11 3e ca e9 38 bd 5d f4 87 3e
       -0.05121496 0.14239807 -0.045144834 0.26553622
0001e0 70 7d 0b be b6 f3 02 3e 95 aa 1e 3e 34 6f 07 3e
       -0.1362207 0.12788281 0.1549476 0.13226014
0001f0 47 80 82 3d da e7 22 bc 85 23 a0 3d 31 a4 02 be
       0.06372123 -0.009942973 0.07819275 -0.12757947
000200 86 9f 38 bd fb cd eb 3c 7c 31 04 3d 2c 3f cc 3e
       -0.04507401 0.028784743 0.032273754 0.39891946
000210 aa d9 55 3e 88 43 18 be b0 e9 b3 3d 49 62 b2 bc
       0.20883814 -0.14869511 0.08784807 -0.021775382
000220 3d 26 76 3d f7 0a a2 bd 67 f0 de 3b 0f 40 be bc
       0.06009506 -0.07912248 0.0068035605 -0.023223905
000230 f9 be 2d be 47 8a d0 bd b9 bf 6f be 1a bb 60 bd
       -0.16967382 -0.10182624 -0.2341298 -0.054865934
000240 20 f3 28 bd ba 9f 23 be e2 27 4a be 95 00 3a 3e
       -0.041247487 -0.159789 -0.19741777 0.18164285
000250 b5 7b 9c 3d 64 00 9a bd 77 2e fc bb f7 50 c8 bd
       0.07640783 -0.07519606 -0.0076959687 -0.09781068
000260 d6 c5 75 3e da 17 f9 3c bf b0 8f bd 96 00 59 3d
       0.2400125 0.030406881 -0.070161335 0.052979074
000270 59 be 52 bd dc 2a ff bd e8 1f f2 bd 0f a2 d6 bc
       -0.05145106 -0.12459347 -0.11822492 -0.026200322
000280 d5 8d 27 be de f6 5a be ce af 7a 3d e1 d1 0f be
       -0.16362698 -0.21383235 0.061202817 -0.14044906
000290 12 9a 82 bd 83 2d 3b 3e fb a2 13 3c f5 18 0c 3d
       -0.06377043 0.1827908 0.009011026 0.03420349
0002a0 3b d6 1e be 9c 6a 2f 3d 48 f6 87 3b da 3a 79 be
       -0.1551141 0.04282628 0.004149232 -0.24338856
0002b0 9b 59 46 3e fa 98 7b bd 01 0c 8e bb 43 6f 33 3d
       0.1937012 -0.061425187 -0.004334927 0.04380728
0002c0 01 9c 21 3e 0c d0 36 bd 49 5c 2b 3e 43 14 23 be
       0.15782167 -0.044632003 0.16734423 -0.15925698
0002d0 dc ab e8 bd 29 15 c6 3d a1 38 bf 3c 78 9a 16 3e
       -0.113609046 0.09672005 0.023342432 0.14707363
0002e0 3e bf 36 be 0c 4a 3c 3d 4a 0d 32 bc ca aa 37 3d
       -0.1784639 0.045969054 -0.010867426 0.04484061
0002f0 27 d1 7c 3e 71 9a 41 3e b0 fe b0 bd d8 2d 8c bd
       0.2468916 0.18906571 -0.08642328 -0.068446815
000300 3f 94 1f bc e4 fc 81 bd 82 ff b6 3d 7c 2e 47 3e
       -0.0097399345 -0.06347063 0.08935453 0.19451326
000310 ad e9 3a 3e b2 5e 14 be 0f 76 f5 bd 28 3d 3e 3d
       0.18253203 -0.14489248 -0.119854085 0.046445042
000320 56 ae 8f 3e 40 a6 62 bd 29 fd 1a be 89 e1 a2 3c
       0.28062695 -0.05533433 -0.15135635 0.019882934
000330 b5 85 3e be e6 36 91 bd f9 c7 e0 bd 1a 6e 86 3a
       -0.18605693 -0.07090549 -0.10975642 0.0010256201
000340 6f 37 31 3c 25 57 37 3d 94 85 73 bc 05 4e a9 be
       0.010816439 0.044760842 -0.0148633905 -0.33067337
000350 d4 23 00 be de ba 1a bd 33 ca d4 3d de 7c dc 3c
       -0.12513667 -0.037775867 0.10390129 0.02691501
000360 2f 87 85 be 40 7c 1e 3e 5d 96 89 3e c9 ad ff 3d
       -0.260797 0.15477085 0.2687253 0.12484319
000370 6a 95 56 3c 67 95 2c 3e 8f b9 77 3e c5 1e de 3c
       0.0130971465 0.16853867 0.24191879 0.027114281

encoder_mean.8.bias f4 [14]
000000 36 3b cb bb 13 e7 ea ba 40 ff 91 b7 65 09 98 3c
       -0.006202127 -0.0017921649 -1.7404207e-05 0.018559167
000010 c1 5c 9c 3b d5 61 ed 39 40 f2 0d 3c da 28 9d 3b
       0.0047717993 0.00045277053 0.008663714 0.0047961297
000020 08 5b d3 ba 04 55 30 b9 1c f6 d3 3a 67 c3 0d bc
       -0.0016125152 -0.00016816339 0.0016171369 -0.008652545
000030 41 91 04 3c b9 a8 8a 3c
       0.008091272 0.016926156

encoder_mean.9.weight f4 [14]
000000 88 18 2c 3f 21 d6 33 3f e1 c3 33 3f c9 a3 44 3f
       0.6722493 0.7024861 0.7022076 0.76812416
000010 ab 14 48 3f f5 3c 13 3f 13 9e 34 3f cd 98 55 3f
       0.78156537 0.5751489 0.705537 0.8343628
000020 04 b8 48 3f 9a 36 23 3f 90 87 1f 3f 6b 88 30 3f
       0.78405786 0.6375519 0.62316227 0.6895816
000030 10 dd 41 3f 3a d8 4a 3f
       0.7572794 0.79236186

encoder_mean.9.bias f4 [14]
000000 68 4f 4e 3c 48 eb 08 bd 8a 84 2e 3e f7 33 dd 3d
       0.012592174 -0.033427507 0.17042747 0.10800927
000010 c0 bf 0e bd b3 33 aa bd 4b eb dc bb aa 17 61 3e
       -0.034850836 -0.08310642 -0.0067419163 0.21981683
000020 ea 09 91 3b d5 12 cb bb 13 69 55 3e 9b 2d 5e 3d
       0.0044262307 -0.0061973133 0.20840864 0.05424271
000030 09 91 3c 3e 68 88 0f 3d
       0.18414702 0.035042197

encoder_mean.9.running_mean f4 [14]
000000 3e 57 9d be 84 cb 50 3d b5 bb 62 3e 2a 78 ad 3e
       -0.30730623 0.050975338 0.22141917 0.3388074
000010 2b fc f4 bd d4 3e bc 3d a7 1e 04 3e 76 7e 84 3e
       -0.1196216 0.09191671 0.12902318 0.25877732
000020 5a 85 87 bd a8 2a 1e be 81 d2 9d bd b4 8a 6f 3c
       -0.06617232 -0.1544596 -0.07706166 0.014620472
000030 79 77 69 bd 56 3d ae 3d
       -0.056998704 0.08507793

encoder_mean.9.running_var f4 [14]
000000 ab 96 4f 3e 97 6f 99 3e 5e c0 b2 3e 88 a7 9a 3e
       0.20272319 0.2996795 0.3491239 0.3020594
000010 33 40 ad 3e 8e fd 22 3e 52 58 54 3e 10 4d ab 3e
       0.33838043 0.15917036 0.20736817 0.33457232
000020 c8 05 90 3e 2b 0c 87 3e 2f 66 98 3d 7c f6 36 3e
       0.2812941 0.2637647 0.07441365 0.17867464
000030 8c 99 7d 3e 9c ac df 3e
       0.24765605 0.43686378

encoder_mean.12.weight f4 [12, 14]
000000 84 7e 15 be 6a 6c 79 3e 90 9a d4 bc 1b 82 10 3d
       -0.14599043 0.24357763 -0.025952607 0.03528033
000010 d0 84 33 be 3b b2 9d 3d c6 c3 c2 3d 64 d3 37 bb
       -0.17531133 0.077000104 0.09509997 -0.0028049583
000020 c7 25 24 be c7 37 b6 bd 2e d4 2e 3d 96 f9 0c 3e
       -0.16030036 -0.088973574 0.04268282 0.13767084
000030 5f a3 53 be 8f 26 b4 3d 0e f3 0e 3d f5 d4 d6 3d
       -0.2066779 0.08796417 0.034899764 0.10489837
000040 eb 9c 88 be 7f 86 76 3d 10 95 97 3d bc dc 4a 3d
       -0.2668222 0.06018686 0.07401478 0.049526915
000050 2b e1 24 bd 8e 21 ad bd a0 b0 df 3d 21 17 d6 3c
       -0.0402538 -0.08453666 0.109223604 0.026134076
000060 71 78 92 be f4 31 6f be ee d1 0c 3e 1d 39 a9 bc
       -0.28607515 -0.233589 0.13751957 -0.020657117
000070 62 75 6f be 38 27 11 be 6b ff 02 3e 1c f8 24 3e
       -0.23384622 -0.14175117 0.12792747 0.16110271
000080 db 32 48 be 4c da 90 bc b0 fc 85 bc f4 3a 3a 3e
       -0.1955065 -0.017682217 -0.016355842 0.18186551
000090 cf 99 07 be 6b 2f 70 be e7 64 2d 3e 21 a1 1b 3d
       -0.13242267 -0.23455589 0.16933022 0.03799546
0000a0 ff ad 5f be d9 73 32 3c 10 8a 17 be 13 c6 92 3d
       -0.21843718 0.010891878 -0.1479876 0.07166686
0000b0 6b ae 0f 3c 1b 10 0f 3e 16 3d 06 be a1 1f 97 bd
       0.008769612 0.13970987 -0.1310924 -0.073790796
0000c0 3a 38 d8 3c 51 0b 84 3e 68 a4 92 bd ee 23 a8 bd
       0.026393998 0.25789884 -0.07160264 -0.08209978
0000d0 df 04 ee 3d 07 a3 86 3d 59 91 96 3a ac 1d 49 be
       0.11622023 0.06574064 0.0011487409 -0.19640225
0000e0 19 4a 57 be b1 96 cb bd ca 7a 91 3d d5 05 06 3d
       -0.2102436 -0.099408515 0.07103498 0.032720406
0000f0 9f 73 9c 3b 7d 6d 63 be be 5c ae 3d 1b 0e ac 3d
       0.0047745253 -0.22209735 0.08513783 0.08401128
000100 83 c7 92 be 3a ac 65 bd ef ed 00 3e f0 0b c2 3d
       -0.2866784 -0.05607245 0.12590764 0.09474933
000110 e3 24 55 be d7 1d 55 3e 37 03 b3 bd 72 e0 57 3e
       -0.20814852 0.20812164 -0.087408476 0.21081713
000120 f7 b7 3f 3e 10 59 37 3e ef 92 a5 be 94 e7 91 3d
       0.18722521 0.17905068 -0.32338664 0.07124248
000130 88 cc 91 3c fe 15 88 3d 11 35 ac be 94 e8 2e be
       0.017797723 0.0664482 -0.33634236 -0.17080909
000140 2b ae 35 3d 6a 3d 45 be cb 6e 27 be 9c cf 0a 3e
       0.044355553 -0.19261709 -0.16350858 0.13555759
000150 5f 54 bd 3d 9e ff 29 be c9 f2 31 be 67 dd 42 be
       0.09244608 -0.16601416 -0.17377771 -0.19029771
000160 9b 33 87 3e 84 80 06 bd 38 fd 83 be 98 e0 a3 3c
       0.2640656 -0.032837406 -0.25779128 0.020004556
000170 6a 53 d5 3d 83 88 5f 3e a6 7f 8d bd c8 8a 56 bd
       0.104163006 0.21829419 -0.06909113 -0.052378446
000180 e8 35 82 3e 65 96 46 be 73 7c 9a 3c b8 4f 3c be
       0.25431752 -0.19393308 0.01885817 -0.18389785
000190 85 ec b5 bd 6a 3c 0c be 1f bd 93 3e 2b bf 3e bd
       -0.08883003 -0.13694921 0.28855225 -0.04656903
0001a0 d4 ee ea bd 66 53 da bd 29 8f b2 3e af 44 96 3d
       -0.11471334 -0.10660438 0.34874848 0.07337319
0001b0 50 7c 78 bd b0 5e 0e be b8 94 a6 3e a1 58 47 be
       -0.06066543 -0.13903308 0.32535338 -0.19467403
0001c0 34 63 f9 3c 60 0c 6e 3d 5b bf 14 3d 3e e9 3a be
       0.030442812 0.05811727 0.036315303 -0.18253037
0001d0 6f 1a 69 be 91 9c 12 3e da e9 4c 3e c7 8e 15 be
       -0.2276399 0.14317538 0.20011082 -0.14605246
0001e0 1b fe 63 bd 9c 3b db bd 4d 08 07 3e d8 e3 ad 3a
       -0.055662256 -0.10704729 0.1318676 0.0013266755
0001f0 3d 0a 8b be 42 e9 2c 3e 9c a2 52 be 9e e1 43 3e
       -0.2715625 0.16885856 -0.20569843 0.19129035
000200 ee 86 54 3e c0 d0 03 be 7c 48 2f be 65 5e 7e 3d
       0.20754597 -0.128726 -0.17117494 0.06210174
000210 c3 99 11 3e 33 9c ff bd f2 06 30 be 4c 86 ef bd
       0.14218812 -0.124809645 -0.1719015 -0.11695537
000220 10 9d 66 bd be 34 ec 3d 7f f6 9f be b4 ea 06 3e
       -0.05630213 0.11533497 -0.3124275 0.1317547
000230 92 e5 82 3d 97 07 c3 bd b0 84 f6 bd 34 cf 64 bd
       0.06391443 -0.09522932 -0.12037027 -0.055861667
000240 ee a2 5f 3e fc f9 58 bd 3c d3 77 be 8e 26 f3 bd
       0.21839496 -0.05297278 -0.24201673 -0.11872588
000250 21 c9 4f bc d0 6c 84 3e 69 17 ea bd 96 2c 98 bd
       -0.01268223 0.25864267 -0.114302464 -0.07430379
000260 f3 4f e4 3d ed 56 a9 be ce 42 7e 3e b3 83 72 be
       0.111480616 -0.33074132 0.24830171 -0.23683052
000270 a7 c1 2c be c6 81 0f bd 53 84 cd 3d d6 42 35 be
       -0.16870748 -0.03503587 0.100350045 -0.17701277
000280 ed 1b 3b be 2c 93 a4 bd aa 71 2b 3e 3c f6 69 3e
       -0.18272372 -0.08035883 0.16742578 0.22847837
000290 bc e9 62 bc 9a b0 82 bd 25 93 06 3d 47 fa 92 be
       -0.013849672 -0.0638134 0.03285517 -0.2870657

encoder_mean.12.bias f4 [12]
000000 84 c0 4e 3c 83 27 01 3c 85 ff a3 bc c9 85 37 3b
       0.0126191415 0.0078829555 -0.020019302 0.0028003326
000010 60 63 fb bb 64 41 43 bc c3 ea 3d bc 39 b2 6d 3c
       -0.0076717585 -0.011917446 -0.011591616 0.014507824
000020 3f 09 a3 bc 4e 1a 3e 3b 36 77 49 bc 2e 25 a6 3a
       -0.01990187 0.0029007378 -0.0122964885 0.0012675875

encoder_mean.13.weight f4 [12]
000000 66 3f 3f 3f f9 18 1a 3f c3 f5 65 3f 00 df 24 3f
       0.74706113 0.60194355 0.8982813 0.6440277
000010 f6 f1 3a 3f 6c b5 45 3f db af 61 3f 03 4e 7d 3f
       0.73025453 0.7722995 0.8815896 0.9894716
000020 b8 8c 4a 3f c2 73 6e 3f 9d c1 57 3f 2b b8 77 3f
       0.7912097 0.9314538 0.84279805 0.96765393

encoder_mean.13.bias f4 [12]
000000 21 66 b5 3d d0 6f ff bd 64 1c 12 3e 8d b9 72 be
       0.0885737 -0.124724984 0.14268643 -0.23703595
000010 1a f4 fc 3d fb 3b 47 3e 90 6e 18 3e 94 63 96 3e
       0.12351246 0.19456474 0.14885926 0.29372847
000020 1b 42 69 bc 5d 9a ba 3d a9 9c 26 3e 76 e6 16 3e
       -0.014236952 0.09111474 0.16270699 0.14736351

encoder_mean.13.running_mean f4 [12]
000000 88 82 80 bd 8d ae 5b be 22 2e 90 bd f8 ea 91 3d
       -0.06274897 -0.21453305 -0.07040049 0.07124895
000010 24 e5 ce bb cd 70 b1 bd 57 d8 37 bd b1 9c 0d 3c
       -0.006313937 -0.08664093 -0.044884052 0.008643315
000020 e2 15 37 bd 54 f0 30 be f4 99 7d be 35 ea 37 be
       -0.044698603 -0.17279178 -0.2476576 -0.17960437

encoder_mean.13.running_var f4 [12]
000000 59 e5 7f 3e 71 c2 1f 3e e3 8f d0 3e 0c c2 13 3e
       0.24989833 0.15601517 0.40734777 0.14429492
000010 9c 05 69 3e e1 cc 0e 3f 3a 7f 12 3f 72 68 2c 3f
       0.22756046 0.5578137 0.5722538 0.6734687
000020 e4 6d 2b 3e 23 f5 a3 3e a4 45 dc 3e d7 80 e7 3e
       0.16741139 0.32022962 0.43021882 0.45215484

encoder_mean.16.weight f4 [10, 12]
000000 f3 0c 4c 3e e8 d8 4f be e2 67 75 3e 67 a7 05 be
       0.19926815 -0.20297587 0.2396541 -0.1305214
000010 1c e0 16 3e f6 d7 ba 3e e2 93 8b be 64 04 c4 be
       0.14733928 0.3649289 -0.27261263 -0.382846
000020 21 d7 75 3e 9c a6 84 3d 07 d2 0b be dd 22 55 be
       0.24007846 0.06477091 -0.13654338 -0.2081408
000030 6e 5d 6a 3e 97 71 bb 3d 0a 8f 3b 3e 61 b0 3f 3d
       0.22887203 0.09152525 0.18316284 0.046799067
000040 07 42 d1 bc 58 00 b9 3b 7d 6d ca bd a1 3b 08 be
       -0.02554418 0.005645793 -0.098841645 -0.13303997
000050 c4 4e cd ba 02 1a ac 3e 5f b1 68 be 42 65 21 be
       -0.0015663733 0.33613592 -0.22723912 -0.15761283
000060 ef 9a 87 bc 7c 6b 94 3d db 97 cc 3d cd d2 fa bd
       -0.01655337 0.072470635 0.09989902 -0.12247238
000070 36 f2 d2 b9 c4 12 81 3c 49 50 31 3e 72 bd 4c 3d
       -0.00040234783 0.015756018 0.17315783 0.049985357
000080 76 24 40 be f3 7a db bd 96 45 e8 bb e5 20 37 3e
       -0.18763909 -0.1071681 -0.0070883734 0.17883642
000090 54 a8 93 be eb 54 10 3d 93 58 2a bc bb bd 13 bd
       -0.28839362 0.035237234 -0.010397094 -0.036069613
0000a0 a5 94 b9 bd 47 a0 c4 bd f2 a5 bb 3d db b3 89 3d
       -0.09061555 -0.09600883 0.09162511 0.06723758
0000b0 d1 78 6b 3c 63 c5 d5 bd a6 55 01 3d b3 17 0b 3e
       0.014372067 -0.10438039 0.03157582 0.1358326
0000c0 2f 1b 51 be e2 fb 1b 3e 31 6e 8c 3c 9a dd 2b be
       -0.20420526 0.15232804 0.017142387 -0.16783753
0000d0 e4 51 8e be a6 8c b4 be 1c 17 81 3e 93 bc e7 3e
       -0.27796853 -0.35263556 0.25212944 0.45261058
0000e0 a1 94 32 be 52 d8 b9 be e0 41 af 3e 82 8a e0 3e
       -0.1743951 -0.36297852 0.34229946 0.43855673
0000f0 cb ce 40 3d 0c dc 98 be 41 e0 aa 3d 96 b9 67 bb
       0.047072213 -0.29855382 0.08343554 -0.003535842
000100 66 eb f5 3d 48 0a f9 3d 32 bb b4 3b 1c 36 36 be
       0.12007789 0.12160164 0.0055154795 -0.17794079
000110 53 46 c5 bc 0d d1 1f 3e 3b d1 66 be e0 6f 0b bd
       -0.024081385 0.1560709 -0.22540753 -0.03404224
000120 19 8f a8 bd db 5b 10 3e d1 94 ae ba 00 90 5e bd
       -0.08230419 0.1409754 -0.0013319497 -0.054336548
000130 7d 33 ab 3d 5f b6 7b bd 03 45 a8 3d e4 b8 33 3e
       0.0835943 -0.06145322 0.08216288 0.17550999
000140 56 39 bb 3c ff ca f7 bd 36 06 83 bd 32 16 72 3d
       0.022854488 -0.12099265 -0.06397669 0.0591032
000150 15 aa 8f 3e 80 03 a0 3c d8 fc 65 3e c0 14 cf bc
       0.2805945 0.019532919 0.22459733 -0.025278449
000160 17 94 fe 3d c6 39 58 3e 65 9d bd be 87 9a c2 be
       0.1243059 0.21115789 -0.37034145 -0.3800852
000170 83 3d b6 3e 15 c3 86 3e 7f 09 a9 be ff 86 b9 be
       0.35593805 0.2632071 -0.33015057 -0.36235806
000180 54 36 09 be 1f d9 08 3e e6 22 5e 3b 19 b8 a7 3d
       -0.13399631 0.13364075 0.0033895313 0.08189411
000190 7b 44 ee bd 82 77 33 be be e7 65 bd e5 8d 25 3d
       -0.11634155 -0.17526057 -0.05612921 0.040418524
0001a0 93 7c f0 3d 4e 9f fc bc af 55 a0 3d d6 a6 1f 3e
       0.11742511 -0.030837681 0.07828843 0.15590987
0001b0 89 d3 31 be 78 49 f6 3d 04 5a 80 be 77 80 09 be
       -0.1736585 0.12025732 -0.25068676 -0.13427912
0001c0 97 b5 1e bd a5 ac 9d bc 65 17 37 3e da ef 5c 3e
       -0.038747396 -0.019247362 0.17880018 0.21575871
0001d0 46 df f5 bd 9e 71 cc be a8 33 87 3e c7 6f 9e 3e
       -0.12005477 -0.39930433 0.26406598 0.30944654

encoder_mean.16.bias f4 [10]
000000 37 42 19 3d 35 70 ff 3d 62 6c 04 be 92 c8 50 bc
       0.037416663 0.12472574 -0.1293197 -0.012743132
000010 44 b1 30 be 3f 87 b9 3d 20 a1 af bd 5c b8 10 3e
       -0.17255121 0.09058999 -0.08575654 0.14132828
000020 0e 42 be bc fc 67 09 be
       -0.023224857 -0.13418573

encoder_var.0.weight f4 [20, 29]
000000 81 7d 18 bd 68 a4 6c 3d 50 6b c6 ba 55 1e c6 bb
       -0.037229065 0.057773978 -0.0015138183 -0.0060460963
000010 ed 45 3e 3d d7 3a be bc cb 93 be 3c 46 8c 83 3c
       0.046453405 -0.023221416 0.023263833 0.016058099
000020 42 4d ca 3a ac 48 80 3b f4 d0 ab bc 40 52 12 bd
       0.0015434402 0.003914913 -0.02097366 -0.03572297
000030 e6 1c 8c 3b 07 03 b5 3c 16 fc 6b 3b 7f 5b b8 3c
       0.004275906 0.02209617 0.003600841 0.022504566
000040 36 17 26 bb f3 e7 22 bc a7 20 01 3c 6c b2 5d 3d
       -0.0025343425 -0.009942996 0.00788132 0.054125234
000050 92 bf 3e bc a1 fe 50 bd 9a be 0d bb 98 83 82 3c
       -0.011642354 -0.051024083 -0.00216285 0.01593189
000060 65 86 06 3c f6 e8 c5 3c 6a e9 9f bb ad 1d e9 bc
       0.008210753 0.024158936 -0.00488012 -0.028456533
000070 da 52 f9 3c 05 ef 18 3b 10 05 b0 3b d2 2a 58 3b
       0.030435015 0.0023335826 0.0053716972 0.0032984507
000080 6b f3 e8 bb 2a d0 23 bb bd b1 47 bc ea 7c 38 bc
       -0.007109096 -0.0024995902 -0.012188372 -0.011260251
000090 52 9f c8 3b 5c 05 33 3c 79 c2 9e 3c 0e ca 95 3b
       0.006122508 0.010926571 0.019379841 0.004571206
0000a0 f4 84 e6 3b d0 3d f3 bb 3e 27 cf 3c 8b a7 a3 3a
       0.007034892 -0.00742314 0.025287267 0.0012485845
0000b0 a7 36 3a 3c e1 37 fb bb 0d a1 d9 bc 09 f9 05 bc
       0.011365569 -0.0076665734 -0.026566053 -0.00817705
0000c0 ee 4f 74 3a d8 8f b9 bb d6 0b 7b bc 72 35 d8 ba
       0.0009319772 -0.0056628995 -0.015322646 -0.001649542
0000d0 57 f6 a7 3a 2d f0 b6 3b 92 69 35 3c 39 f3 78 bc
       0.0012814504 0.0055828304 0.011072533 -0.015194708
0000e0 dd 16 fd bc 1a f7 d3 3c a8 25 00 b9 1c 8c 13 bd
       -0.030894691 0.025874663 -0.0001222106 -0.03602229
0000f0 84 ae d9 3c 9c 00 70 3a 29 29 06 bd 36 0e b9 bb
       0.026572473 0.0009155364 -0.032754097 -0.005647446
000100 7d 5b b0 bb be 9a 66 bd 02 7b 90 3a 2b d3 3d 3d
       -0.005382 -0.056299917 0.0011022987 0.046343964
000110 d5 b2 01 3d 9a f9 0d bc 15 11 19 3c 68 9c 0c 3d
       0.03166469 -0.008665467 0.009342452 0.034328848
000120 40 0f 85 3a 9a fa 27 3d 25 1a 1e 3b 77 95 a6 bb
       0.001015164 0.041010477 0.002412447 -0.0050837356
000130 e7 14 b3 3b 8a d7 27 3d 06 6a c3 bb 8c 4a ea 3c
       0.0054651382 0.04097704 -0.0059635667 0.0286
000140 74 4d 66 3c 8c e4 30 3c a6 49 c8 bc 69 af 38 bc
       0.014056552 0.010796677 -0.02444918 -0.01127229
000150 da a8 14 3c 0c d6 9b 3b ae 61 26 bd dd 3e 77 3b
       0.0090734605 0.004755741 -0.0406205 0.0037726678
000160 19 02 87 bb 63 37 2c bd 93 e8 cc 3a c5 95 05 3d
       -0.004120123 -0.04204501 0.0015633277 0.032613534
000170 c0 7b 2e b8 95 1b 33 3c ff e1 d0 3b 54 0f 81 b9
       -4.1600084e-05 0.010931869 0.006374597 -0.00024616218
000180 ca 46 50 3c 65 4d ca bc bd 11 56 bc 34 75 28 bb
       0.01271219 -0.024695108 -0.013065753 -0.0025704624
000190 0e 56 98 3c 1d f3 08 bb b9 e2 39 bc 3b 1c e7 ba
       0.018595722 -0.002089686 -0.011345559 -0.0017632315
0001a0 7f 92 9d 3c 4e f2 8f bb 39 ba 42 3c 82 75 bc bb
       0.019234894 -0.0043928986 0.011885219 -0.0057513127
0001b0 ed 5e 34 bd 9d a7 b8 3c 5a 23 87 bb c7 3e 1b 3c
       -0.04403584 0.022540862 -0.0041240873 0.0094754165
0001c0 7d e6 0a 3c 89 1c 05 bc 47 f1 47 bc bb a0 aa bb
       0.008477804 -0.008124479 -0.012203521 -0.005207149
0001d0 20 78 59 bc ca af 31 3d 08 4e 02 3d f0 95 19 bc
       -0.013273269 0.043380536 0.031812698 -0.009374127
0001e0 18 95 b1 bc 2c 6b 7d bc 04 98 67 3b 2a 02 a3 3b
       -0.021677539 -0.015467446 0.003533841 0.004974623
0001f0 bc ae f1 3a 3f 86 4e 3c 88 ba 6d 3a 42 62 f7 3a
       0.0018438916 0.012605249 0.0009068628 0.0018873888
000200 55 d1 56 3b 59 23 0d 3c 8c 85 27 bc 96 a8 bc bc
       0.003277858 0.008614385 -0.010224711 -0.023029607
000210 61 6a 50 bc 7c 21 5c 3c 15 16 1f ba 18 56 bb 3b
       -0.012720675 0.013435718 -0.0006068659 0.0057170503
000220 7c 79 b5 3b 36 3f 2c bd 18 44 72 bb dd c6 92 3c
       0.0055381637 -0.04205247 -0.0036966857 0.017917091
000230 75 1e e8 3b 95 64 9c 3c a3 33 f0 bc 90 33 12 3d
       0.007083709 0.01909093 -0.029321497 0.035693705
000240 c4 a4 09 bd 6a 93 b1 3a f9 03 3c bd 7c 95 21 3d
       -0.0336044 0.0013547961 -0.045902226 0.0394492
000250 00 04 82 ba f0 67 2a bd 8d 8d 8c 3c ae 51 55 bc
       -0.0009919405 -0.04160303 0.01715734 -0.013019962
000260 c4 8a f5 3b c0 0d 52 3c 95 aa e2 ba 04 04 5c bc
       0.007493349 0.012820661 -0.0017293269 -0.013428692
000270 e0 af 88 3c 24 24 89 bb b6 98 42 bb b0 6f 0e 3b
       0.016685426 -0.0041852165 -0.0029693074 0.0021734051
000280 56 c1 5f 3d 54 28 bb 3b c4 d2 25 bd 28 07 9c ba
       0.05462774 0.0057115946 -0.040484205 -0.0011903988
000290 4a 81 6d 3c c0 2d 01 bc 65 f5 2f 3c 87 da fb 3a
       0.014496157 -0.007884443 0.010739659 0.0019214906
0002a0 93 43 0d bc ce 48 46 3c 3b bb 57 bc f0 dc 59 3c
       -0.008622068 0.012102319 -0.013167198 0.0132973045
0002b0 25 89 fa bc 9c bb f8 3c ac 12 d9 bc 9c 9c 75 3c
       -0.030582974 0.030362897 -0.026498161 0.014990952
0002c0 d5 f8 d8 bc e2 51 9a 3b 81 63 97 3c aa d8 58 bc
       -0.02648584 0.004709468 0.018480064 -0.0132352505
0002d0 d5 cd a8 3c ec f0 86 3c 12 4c 96 bb 50 75 46 bc
       0.02060596 0.016472302 -0.004586705 -0.01211293
0002e0 33 66 3a 3d de 32 b4 bc 3a 22 32 ba c9 f2 86 bc
       0.04550762 -0.021996912 -0.0006795261 -0.01647319
0002f0 c0 52 30 bd 6d 7a 87 3d e3 47 d4 bc e5 92 01 bd
       -0.043047667 0.06615148 -0.025913185 -0.03163423
000300 10 43 63 3a fc a2 fd bc 13 1f e6 3b 25 ab 13 3c
       0.0008669356 -0.030961506 0.0070227473 0.009012972
000310 4b ae 69 3c 8e 46 71 bc dd e9 05 bb b9 79 99 bc
       0.014262746 -0.014726294 -0.0020433583 -0.0187348
000320 fe 23 c1 3c f4 3c 93 3d 70 f6 8b bd cd d9 d3 3c
       0.023576733 0.0718936 -0.068341136 0.025860691
000330 96 81 82 bd d0 f2 49 bb ec d2 97 3c f6 5c 91 bc
       -0.06372373 -0.0030814894 0.018533193 -0.017744523
000340 4f ae 5e 3c 19 c2 00 bc 2e 89 a0 3c 88 b5 3e bb
       0.013591363 -0.0078587765 0.019596662 -0.00290999
000350 57 8d 0a bd 11 33 0d 3c e5 bc 6f bc cc 56 8b 39
       -0.0338262 0.008618132 -0.014632438 0.00026576815
000360 3e b8 e4 3c a7 a7 a5 bb 9e fd 15 3d f5 95 d2 3b
       0.027919885 -0.005055386 0.03661882 0.0064265677
000370 a2 7c ce bc cc 3f 8c 3a 09 f7 b2 bc 83 56 9b 3c
       -0.025205914 0.0010700165 -0.021846311 0.01896215
000380 5f 05 fd bc c1 56 24 bc 46 9c a2 bb 1e 5f 9f 3d
       -0.03088635 -0.010030449 -0.004962477 0.07781814
000390 c1 9e f4 bb 6c dc 95 3c 7f 60 be bc ce 53 eb 3c
       -0.007465214 0.018293582 -0.023239372 0.028726485
0003a0 9c d0 58 bc 31 e4 3d 3c 99 1e 30 3d 66 c2 a7 3b
       -0.01323333 0.01159005 0.04299793 0.0051196096
0003b0 3f b0 c2 bc 24 6e 7d bc fd ab 8e bc 54 91 ba bc
       -0.023765681 -0.015468154 -0.017415995 -0.022774376
0003c0 5d be 65 bb 5f 72 53 3d d0 0d 30 3d d4 a8 5c bc
       -0.0035056092 0.051622745 0.042981923 -0.013467986
0003d0 e9 c2 87 bc 36 bb 0a 3d 3d c6 44 bc a4 d5 f5 3c
       -0.016572433 0.033869945 -0.012010154 0.030009098
0003e0 76 c5 8c 3a 87 f9 7c bc 50 1a b8 bb 69 3b e9 bc
       0.001074 -0.015440351 -0.005618371 -0.028470712
0003f0 e6 04 ca ba eb 59 54 bc a2 8b 4b 3b eb 60 ad bb
       -0.0015412837 -0.012960891 0.003105857 -0.0052910945

encoder_var.0.bias f4 [20]
000000 e0 03 83 ba 5c 0c 0e bc 39 b6 aa 3a e9 39 b6 ba
       -0.0009995662 -0.008669939 0.0013024277 -0.0013902757
000010 69 f1 3b ba ca a0 90 3a e4 92 f9 bb 57 03 2b 3a
       -0.0007169457 0.0011034247 -0.0076163877 0.000652363
000020 62 aa 94 39 c7 5b f0 3b d9 8f e9 bb 84 55 ed b9
       0.00028355705 0.0073351595 -0.0071277437 -0.00045267877
000030 28 23 c1 3a 28 ef 25 3a 39 74 9d 3b 59 91 79 3b
       0.0014735209 0.00063298875 0.0048051146 0.0038081019
000040 e8 1a 95 3a 4b d6 e8 3a 71 0e f9 3a 69 7d 33 3b
       0.0011375817 0.001776406 0.0019001496 0.0027387983

encoder_var.1.weight f4 [20]
000000 8d 06 0c 3f ba c4 09 3f 3a aa 0a 3f 44 12 0a 3f
       0.54697496 0.53815806 0.54165995 0.5393412
000010 cb 13 0a 3f 55 89 08 3f 9a 9e 08 3f 50 8a 08 3f
       0.5393645 0.5333455 0.53367007 0.5333605
000020 3c ec 08 3f 07 e8 08 3f 25 d5 09 3f 46 a7 09 3f
       0.53485465 0.53479046 0.5384086 0.53770864
000030 72 cc 0b 3f 43 8d 09 3f a6 85 09 3f c3 48 0a 3f
       0.54608834 0.53731173 0.53719556 0.54017276
000040 6b e2 07 3f d8 b1 09 3f cb bb 09 3f 7b 7b 09 3f
       0.5307986 0.53786993 0.53802174 0.5370404

encoder_var.1.bias f4 [20]
000000 84 cd f3 bb 42 ac fa 3b 7a 06 33 3c 58 37 dd 3b
       -0.007440271 0.0076499293 0.010926837 0.0067509823
000010 23 08 ca 3a de 0a f6 bb 7c a7 75 3c 22 21 70 bb
       0.0015413802 -0.0075086197 0.014993545 -0.0036640842
000020 68 4c c8 bb a4 37 30 3a 41 8d 09 bc 23 6f 44 3b
       -0.006112624 0.0006722158 -0.008395494 0.002997347
000030 62 69 0c 3c 10 7c 15 3c 8c d1 48 bb 61 40 27 3c
       0.008570047 0.009123817 -0.0030642478 0.01020822
000040 de c6 90 bb 80 2a 7e bc 76 6a 8f bb 6a b8 d2 3b
       -0.004418238 -0.0155130625 -0.004376705 0.0064306753

encoder_var.1.running_mean f4 [20]
000000 f3 0e a5 3d ee e7 4c 3d ce b5 a5 bc 24 59 75 3c
       0.08059492 0.050025873 -0.020228293 0.014974866
000010 16 a1 a9 bd 15 57 9c 3c b8 f1 02 3b 8d 9f 72 3d
       -0.08282678 0.019084493 0.0019980501 0.05923419
000020 0f 00 20 bb 9b 4c a9 bc 68 cd 46 3c 50 5d bc 3d
       -0.0024414097 -0.020666411 0.012133934 0.091974854
000030 a5 1b 51 bd b7 f5 c1 3c ec 6b dc bb 80 2c 43 bc
       -0.051051755 0.023676736 -0.0067267325 -0.011912465
000040 c9 3e 71 bd 3b 06 b5 bd e7 cd 4a 3d 98 9a a2 bd
       -0.058897767 -0.08839079 0.04951277 -0.07939643

encoder_var.1.running_var f4 [20]
000000 27 95 ab 3b c4 b0 26 3b 24 64 c3 3b 2d ab 7a 3b
       0.005236286 0.002543495 0.0059628654 0.0038249001
000010 46 f9 82 3b 96 1b 9e 3b 5f ed 97 3b 17 93 cb 3b
       0.003997001 0.004825066 0.004636451 0.006212603
000020 00 41 76 3b c9 4e 2b 3b 36 aa 95 3b e9 98 c9 3b
       0.0037575364 0.002613949 0.00456741 0.0061522615
000030 59 21 2a 3c 0f ba 66 3b 1d 5c 01 3b 1d a7 71 3b
       0.010383927 0.0035206114 0.0019738742 0.003687329
000040 e5 c0 0c 3c 6a ac 7b 3c 5d 26 4f 3b b7 3f 16 3c
       0.0085909115 0.015360931 0.003160856 0.009170464
