generativecf/models/adult-2048-50-target-class--1-auto-encoder.pth (torch_old, 35771 bytes, 78 tensors)

encoder_mean.0.weight f4 [20, 29]
000000 c5 6a 7f bf f0 86 36 3c 42 b5 0d 3c ea 7d 2a 3d
       -0.9977229 0.01114057 0.008649172 0.041623987
000010 f6 4f f4 3b ab af 09 3c 68 c6 df 3b 05 55 f6 3b
       0.007455821 0.008403699 0.006829072 0.0075174593
000020 de a4 17 3c c0 4b 27 3c 44 99 bb 3b 89 31 0a 3c
       0.009255616 0.010210931 0.005725058 0.008434662
000030 c3 00 2c 3c 0b 10 d3 3b 34 94 03 bc 88 e3 7e bb
       0.0104982285 0.0064411215 -0.00803094 -0.0038892943
000040 ea 65 b6 bb 7c 22 08 bc 33 be 64 bb 0f 90 99 3d
       -0.0055663483 -0.008309003 -0.0034903407 0.0749818
000050 b1 49 06 3d f4 e5 94 3d 82 d2 96 3d ed 99 8d 3d
       0.03278512 0.072704226 0.0736437 0.06914125
000060 c3 b2 98 3d bb e0 98 3d aa de 9c 3d 29 9a 0b bb
       0.07455971 0.07464739 0.07659657 -0.0021301603
000070 91 b6 44 bb 48 63 21 bd 56 81 0d bd ee 6a 09 3c
       -0.0030016045 -0.039401323 -0.034547172 0.00838731
000080 25 02 0a 3c 9a 00 a3 bc c1 f5 fd 3a e0 0c 26 bb
       0.008423363 -0.019897748 0.0019375609 -0.0025337264
000090 dd 73 88 bc 7e 43 86 ba 8d d6 64 3c 4c ed 1d bc
       -0.01665681 -0.0010243503 0.0139671685 -0.0096390955
0000a0 7e 98 14 3b c2 b3 00 3b 90 15 b2 3c 90 e4 a0 b9
       0.00226739 0.0019638394 0.021738797 -0.0003068787
0000b0 31 24 cf bc fe fb 6e bb 35 1c 36 3a b7 c1 b3 3c
       -0.025285812 -0.0036466117 0.0006946952 0.021942956
0000c0 6e 45 c8 bc 11 03 10 bc da 6d 87 39 93 e6 39 3c
       -0.02444717 -0.008789794 0.00025831052 0.011346477
0000d0 6d fe 0c 3b f7 8e 54 3b 89 f3 76 bc a4 52 85 3b
       0.0021513954 0.0032433846 -0.015072712 0.0040686894
0000e0 dc 3d db 3c 7c 9c 97 bc d7 14 bb 3d 40 cf e0 bd
       0.026762895 -0.018507235 0.09134834 -0.1097703
0000f0 aa 47 85 bc 97 f8 83 3c b7 b7 95 3c 18 9b 2c bc
       -0.016269524 0.016109748 0.018276079 -0.010535024
000100 3c 3d ac 3b 04 5a d7 3c 0e 65 04 bc ea c7 05 bc
       0.005256323 0.02628804 -0.008080734 -0.008165339
000110 ba 2d 7c bc ee 9e 91 bc 88 eb 00 3d 23 fc ba bb
       -0.015391761 -0.017775979 0.03147462 -0.0057063266
000120 95 af 1f bc 88 fc c3 3c 8c 37 ba 3b 14 d6 d3 bc
       -0.009746452 0.023924127 0.0056828912 -0.025858916
000130 38 73 81 3c 33 14 79 bd 57 57 d0 3c b0 f4 1e b9
       0.01580201 -0.06081028 0.025432272 -0.00015159207
000140 26 c8 96 3c 47 41 84 3d 28 c4 09 bd 51 d8 72 bc
       0.018405985 0.06457763 -0.033634335 -0.014822082
000150 b6 10 77 3c a1 8c 8b 3c eb 3e 97 bc 1f a8 19 bf
       0.015079668 0.01703483 -0.018462619 -0.6002216
000160 0e 6e 55 3d 8c 53 20 3d 81 b6 97 bc 20 51 39 3c
       0.05210691 0.039142177 -0.018519642 0.011310846
000170 7e 4e d3 3c e0 0a b6 bc 48 ec e4 3b 5b f5 e2 3b
       0.025794264 -0.022221982 0.0069861747 0.0069262213
000180 b2 d0 c2 bc 04 86 88 3a 48 a1 a8 3b ae e5 96 bc
       -0.023781154 0.0010415916 0.0051461793 -0.018420067
000190 6e 29 a7 3b e1 d6 01 3d 9c cb 11 3d 19 41 25 3d
       0.0051013744 0.031699065 0.035594568 0.040345285
0001a0 9e fe f6 3c f5 4e 09 3d 0c 88 88 3c c1 ed 40 3d
       0.030150708 0.033522565 0.016666435 0.04710174
0001b0 53 e4 7f bc 2c 0a b4 bc e5 0c 97 ba 5c 77 bb 3c
       -0.015618402 -0.021977507 -0.0011524229 0.022884063
0001c0 12 d7 a0 3c e3 9d 04 3d de e6 57 3c 66 56 bc 3c
       0.019633804 0.032377135 0.013177602 0.022990417
0001d0 f7 8f 5b 3e 5c b5 45 bf a0 94 a2 3c 96 fa 0a 3e
       0.21441637 -0.7722986 0.01984626 0.13572153
0001e0 5b 8a 0a 3d 20 05 ec 3c 1f b0 12 3d 3c a4 a2 3d
       0.033823352 0.028811038 0.035812493 0.079414815
0001f0 c4 65 27 3d 69 c5 c9 3c db ac 87 3d 97 cb 28 3c
       0.040868536 0.024630265 0.066247664 0.010302446
000200 23 cd 6c 3d 56 d2 43 3d a9 9b 51 3d 57 fe 80 3c
       0.05781282 0.047808014 0.05117384 0.015746279
000210 61 91 5e 3c 73 cc d4 bc 97 17 16 3d 24 53 63 3d
       0.013584466 -0.025976395 0.03664359 0.05549921
000220 3b f7 76 bd 94 5c 22 3d b8 31 58 3d d1 f8 5e 3d
       -0.06029437 0.03963907 0.05278179 0.05443651
000230 84 10 87 3d 17 5a cf 3d 5c ec 8f 3d 06 96 9b bd
       0.06594947 0.10124605 0.07027504 -0.07596974
000240 4d b0 ad bd 76 63 20 bf 1a c1 7a bd e2 7d 72 3b
       -0.08480892 -0.62651765 -0.061219312 0.0037001302
000250 83 18 48 3d bc c5 06 3d e2 56 19 3b 6b 62 22 3c
       0.0488515 0.032903418 0.0023397733 0.00991116
000260 08 5d 64 3b f8 03 18 3d eb 87 9f 3c c6 32 f8 bb
       0.003484549 0.03711316 0.01947399 -0.007574412
000270 59 20 80 3b 44 1b 00 3c 26 1a c2 bc 98 b9 a2 bb
       0.003910106 0.007819001 -0.02369411 -0.004965972
000280 5b 59 ff bb a8 12 2a ba 29 a0 2a bc e2 b9 ca bc
       -0.0077926344 -0.00064877653 -0.010414162 -0.024746839
000290 2d 69 b0 ba 14 41 1f 3d 76 56 42 3d c7 8e e6 3c
       -0.0013459079 0.038880423 0.047445737 0.028144253
0002a0 b4 9c d5 3c 03 2d 96 3c f7 66 58 3d 4e 3e 07 3d
       0.026075698 0.01833201 0.05283257 0.033018403
0002b0 87 50 ac bc 28 fa 81 3a 32 2b c2 be 68 f5 e8 3c
       -0.021034492 0.0009916471 -0.3792358 0.028437331
0002c0 1b 94 09 bc 86 bd 8b bb ee 48 e5 3b 8b 59 bb 3c
       -0.0083971275 -0.0042645363 0.0069972193 0.022869846
0002d0 72 0b 80 3c 6b 2c 38 3c f7 d3 dc 3c 33 ac a0 3b
       0.015630458 0.011241059 0.026956541 0.0049033402
0002e0 57 a9 71 3c c5 3a fa 3c d5 f0 ac bb 92 59 5d 3c
       0.014749846 0.030545602 -0.005277733 0.013510125
0002f0 6c 7c b1 3a b8 09 a1 3c f8 22 33 bc f1 2d f0 3c
       0.0013541109 0.019657955 -0.01093363 0.029318782
000300 50 2c cb 3a 19 6a bf 3b 60 a5 42 3c 54 58 23 3c
       0.0015500877 0.0058415052 0.011880249 0.00996979
000310 89 a0 46 3c fa 6f f6 bb 8c 89 16 3c ae e9 f7 bb
       0.0121232355 -0.007520673 0.009188067 -0.0075656986
000320 a0 be c6 bc a1 bc 18 bd 46 d7 37 bd d2 72 4e be
       -0.024260819 -0.037289266 -0.044883035 -0.20160988
000330 14 3f 20 bb a0 5d 28 3d d3 41 46 bc 24 a9 60 3b
       -0.002445166 0.041104913 -0.012100655 0.0034280503
000340 40 a1 9a bb 62 51 e8 3c 28 9a 2c 3d 1c 06 e2 3b
       -0.0047189295 0.028359119 0.042139202 0.006897701
000350 bf f9 6a bd 81 0d 4b 3d 0e b7 04 bc 75 0a 17 bd
       -0.057367083 0.049573425 -0.008100284 -0.036875207
000360 c4 d3 63 3c 2a e9 f0 bc 2f 10 fc 3c d8 b9 aa bb
       0.013905469 -0.029408056 0.030769436 -0.0052101426
000370 5b 13 ef 3b c0 7d 48 3d 56 b5 9c 3b 59 76 20 bc
       0.0072960085 0.04894805 0.004782359 -0.009793841
000380 ca 1a c6 3b ea fc 03 3d e1 e1 fe bb 4d 13 09 3d
       0.006045674 0.03222362 -0.0077783917 0.033465672
000390 65 0d e2 3c b6 b3 19 bd eb 7f 84 bc 08 50 de bb
       0.027594278 -0.0375249 -0.016174277 -0.006784443
0003a0 ed b0 40 3f 81 7c 0e 3c ca de 76 bd 60 2f b4 bd
       0.7526997 0.008696676 -0.060271062 -0.087980986
0003b0 28 1b 6c bd c4 ae 5d bd 9e f4 79 3b 9a 56 9a 3b
       -0.057643086 -0.054121748 0.0038140188 0.0047100307
0003c0 5e ba 2f 3c 90 a3 c3 3b 30 ec 69 ba fa 37 c2 3c
       0.010725586 0.005970426 -0.00089234393 0.023708332
0003d0 96 41 66 3c ea dd 54 3c 82 9e 82 3d a4 1e 72 3d
       0.014053723 0.012992362 0.06377889 0.059111252
0003e0 4e 0f 5f 3d f4 01 7e 3d cb de 3f 3d 42 43 89 3c
       0.054457955 0.06201358 0.04684333 0.016755704
0003f0 66 6e 4b 3d 4d 02 be 3c 2c 6a 45 3c 62 46 aa 3c
       0.04966583 0.023194456 0.012049239 0.020785514

encoder_mean.0.bias f4 [20]
000000 32 66 f9 37 40 69 66 b2 8b 72 ec b5 28 23 60 36
       2.9730701e-05 -1.3411693e-08 -1.7616707e-06 3.3399065e-06
000010 4a 40 2d 37 79 30 96 b6 fd 48 1f 36 e4 53 96 b4
       1.0326572e-05 -4.4759913e-06 2.373533e-06 -2.8000716e-07
000020 a3 8b 45 b6 5c e8 59 b5 c8 6d 29 37 7f fa c4 b5
       -2.9436567e-06 -8.1176927e-07 1.0098745e-05 -1.4676042e-06
000030 7e 5e 57 36 20 c9 88 b6 9c 1b 20 32 49 b8 6a 36
       3.2092498e-06 -4.07653e-06 9.319503e-09 3.4975985e-06
000040 6e 29 62 37 f1 07 8f 35 ce d3 fc 35 db 8f 9e b5
       1.3480296e-05 1.0656642e-06 1.8837106e-06 -1.1813785e-06

encoder_mean.1.weight f4 [20]
000000 21 17 29 3f ff 9c 1b 3d 90 10 b2 3d c3 87 9e 3e
       0.66050917 0.03799152 0.08694565 0.30962953
000010 58 f8 0c 3f f9 67 a0 3e 2b f0 0c 3e 4c 74 34 3d
       0.5506644 0.31329325 0.13763492 0.04405622
000020 c1 99 28 3f e2 be c7 3e 57 7b f4 3e 81 38 c4 3e
       0.6585961 0.3901282 0.4775035 0.3832436
000030 21 ea ab 3e 19 4f eb 3e 1c 07 98 3d 73 47 e7 3e
       0.33577064 0.45958784 0.07423231 0.451717
000040 d6 bb e3 3e 01 ab 0b 3f 01 10 ff 3e 94 e0 eb 3d
       0.44479245 0.54557806 0.49816898 0.11517444

encoder_mean.1.bias f4 [20]
000000 38 f2 87 3e 5d 2e 94 bc 4e 5e ac bb 1b d8 ca 3c
       0.26551986 -0.018088514 -0.0052602654 0.02476125
000010 a1 c9 0d bf 3e 4c 89 3e b8 ac e3 3c ef fc 44 3d
       -0.55385786 0.2681598 0.02779232 0.04809278
000020 5c 01 4d be 58 d6 5a 3e 70 60 6a be bf b7 98 3d
       -0.2002005 0.21370828 -0.2288835 0.07456922
000030 16 97 85 be 4f b9 28 be 48 d6 99 bd d1 26 a1 bd
       -0.26091832 -0.1647694 -0.07511574 -0.07868732
000040 aa c7 8e be ce 86 14 3e c8 1e bf be 55 a4 a5 3d
       -0.27886707 0.14504549 -0.37328172 0.080879845

encoder_mean.1.running_mean f4 [20]
000000 b7 51 6d be a8 ba 71 bd f7 2e e9 3b b3 63 f2 bd
       -0.23175703 -0.0590159 0.0071161943 -0.11835422
000010 9f c5 b4 bd 06 2b 54 be 70 22 25 be 9e da b1 bd
       -0.08826756 -0.20719537 -0.16126418 -0.08684276
000020 41 21 5e 3e c9 58 d3 bc d1 64 dd 3e df ef 96 be
       0.21692373 -0.025799172 0.4324098 -0.29479882
000030 5e 80 16 bd 4e 85 82 3e 50 3a dc bb e3 da cc bd
       -0.036743514 0.25492328 -0.0067208186 -0.10002687
000040 d6 2b ab be c6 f0 27 be 98 a0 e1 be 01 db 38 bd
       -0.33431882 -0.16400442 -0.44067836 -0.045130733

encoder_mean.1.running_var f4 [20]
000000 cf ba b4 3c 87 e9 fb 3a 03 94 7b 3b d9 5d 20 3c
       0.022061734 0.0019219377 0.0038387782 0.009788
000010 5f 20 5c 3c cf 90 14 3c 71 47 98 3b 4b 52 b8 3b
       0.013435452 0.009067728 0.0046471884 0.0056250445
000020 d9 9c 4f 3c 45 a0 6c 3c 73 ec 4d 3c e0 45 2b 3c
       0.012671673 0.014442508 0.012568581 0.010453671
000030 1a df 2d 3c 4a e6 28 3c 3c aa 66 3b 6b 40 1f 3c
       0.010612274 0.010308811 0.0035196682 0.009719948
000040 22 6b 4e 3c 8f c4 14 3c 25 23 42 3c 8f ef 0d 3c
       0.012598785 0.009080066 0.011849199 0.008663072

encoder_mean.4.weight f4 [16, 20]
000000 0a 95 cf 3e 6b 1d db 3b ce 54 9c 3c c0 ca e3 bd
       0.40543395 0.0066868565 0.019083407 -0.11122656
000010 b6 14 31 bc 69 f0 45 bc 6e 27 3a bd 9f 70 79 bb
       -0.0108081605 -0.012081244 -0.04544776 -0.0038061512
000020 8b fa 1b 3d 6c 4e b4 bc 8c 40 a1 3c f3 37 d5 bd
       0.038080733 -0.02201005 0.019684099 -0.10411062
000030 97 22 ad bc 4d 28 d9 3c f3 59 c7 3b 27 47 24 be
       -0.021134658 0.026508475 0.006083721 -0.16042767
000040 f4 71 75 3d 5e 84 5c bd 6b f6 84 3c 77 21 12 bd
       0.059923127 -0.053837173 0.016230782 -0.035676446
000050 ab a7 8e bd 4b 4c 2e 3b 5c 7d 5b 3d f9 58 8a bc
       -0.06965574 0.0026595767 0.05358635 -0.016888129
000060 7d 9f 99 3d 82 e1 82 be 0c ea 66 bd b4 c7 8e bd
       0.07501123 -0.25562674 -0.05637555 -0.06971684
000070 5c 4d ce bd 66 dd 6d be cf 8e 3a 3d 62 ea 68 bd
       -0.10073349 -0.23228988 0.04554635 -0.05686415
000080 55 f6 35 3e 2c fe 65 3d 62 66 36 bc 95 28 98 3d
       0.1776975 0.0561506 -0.011132808 0.074296154
000090 26 ff 1a 3e 63 2d 98 be 92 40 d2 3d b8 d3 b4 bd
       0.15136394 -0.29722127 0.10266222 -0.08829445
0000a0 cb d0 57 bd 4b be 95 3c 5a 6e 59 3d c7 8e 8d bd
       -0.052689355 0.018279215 0.053083755 -0.06911998
0000b0 4e 9d 67 3e 69 01 24 be 79 38 c7 bc b2 54 69 bd
       0.226186 -0.16016163 -0.02431892 -0.056965537
0000c0 f9 10 dc 3c fa 5a 45 be 6e 02 64 3d f3 1c 01 bd
       0.026863562 -0.19272986 0.05566638 -0.03152175
0000d0 e6 97 8b 3d 63 09 69 bd 77 96 7f bb c9 77 5f bc
       0.06816082 -0.056893717 -0.0038999596 -0.013639399
0000e0 cd ab 55 3e de bb 69 be 5d 12 5c 3e 98 da da bd
       0.20866318 -0.22825572 0.2149138 -0.10686225
0000f0 80 95 07 be ea 90 35 b9 c6 a2 ff 3c be c0 df 3c
       -0.13240623 -0.0001731549 0.031205546 0.027313586
000100 97 15 7c 3e 02 3a 47 be ce 4b 19 3c 4e 5c c6 bc
       0.24617611 -0.19455722 0.009356452 -0.024213936
000110 22 7d 08 3c 87 57 7f be 26 b9 b2 bc ca 7f 5b 3c
       0.008330615 -0.24935733 -0.021816801 0.0133971665
000120 08 ac ab 3d ad 79 0c 3e 85 3b c5 bc 1d b9 3c 3d
       0.08382422 0.1371829 -0.024076233 0.046074975
000130 a6 c5 e1 3d fb e5 4b be d9 74 14 3e b3 96 bf bd
       0.110240266 -0.1991195 0.14497699 -0.093549155
000140 93 32 b2 bd a9 58 af 39 f3 27 e9 bc 2a 21 0e 3e
       -0.087010525 0.00033444658 -0.028461432 0.13879839
000150 6d 9a 4b bd f9 34 c4 3c f4 a2 c6 3d 6f c8 33 3c
       -0.04970782 0.02395104 0.096990496 0.01097308
000160 51 1a e9 bd 81 a6 90 3b a0 44 6b bd 6e 7c 91 3d
       -0.113819726 0.00441438 -0.057438493 0.07103811
000170 0e 0e 9b bc fb ee d1 bd e5 96 02 3d e0 3e 30 3e
       -0.0189276 -0.1025066 0.031882185 0.17211485
000180 f1 f0 2c bd ad b1 c7 3d 4e 58 3c bd fb 8e 55 3d
       -0.042221967 0.09750686 -0.04598265 0.05213831
000190 a0 50 d4 bc 22 c9 f2 bc c1 fc cf bc d4 a6 ea 3d
       -0.025917351 -0.029636923 -0.025389077 0.11457601
0001a0 ca dd 0b 3e 2f de ba 3c ef a2 87 3d c2 1b 20 3d
       0.13658825 0.022811024 0.06622874 0.039088972
0001b0 58 2f 45 be 9a 90 ef 3b 69 1f 28 be af 83 09 3e
       -0.19256341 0.007310939 -0.16418232 0.1342914
0001c0 3a f1 03 bc a8 9f 47 be 7d c4 0c bc 19 f6 c3 3d
       -0.008053118 -0.19494498 -0.008591768 0.09568424
0001d0 ec ff a4 3c f6 d5 67 bb e4 d4 82 3d 49 64 49 3d
       0.020141564 -0.0035375333 0.06388262 0.049167905
0001e0 31 13 ac 3e fa ed a1 bc da 7a db 3c 31 62 e3 bd
       0.33608392 -0.019766796 0.026791979 -0.11102713
0001f0 56 3e 91 3c 80 79 8b bd 37 48 90 bd 47 9a a8 bc
       0.01772992 -0.06810284 -0.07045024 -0.020581378
000200 b6 f9 1c bd 0a 83 13 bd 6e 51 c2 bc d9 cb eb bd
       -0.03832408 -0.03601364 -0.02372047 -0.1151349
000210 34 2e 2a 3c 70 9d 2a bd 42 3f 93 3b bf b6 a4 bd
       0.010386992 -0.04165405 0.004493625 -0.080426686
000220 55 de e4 bc 61 82 13 bd f1 19 28 bb 6e db 25 bd
       -0.027938047 -0.03601301 -0.0025650228 -0.040492468
000230 b3 64 41 be 16 0d ab b8 da 88 a9 bb bd 1a 3c 3e
       -0.1888607 -8.156353e-05 -0.0051737847 0.18369575
000240 ab 40 cd bc 54 ef d3 3d 22 86 cd 3d e0 66 26 3d
       -0.02505525 0.103483826 0.100353494 0.040625453
000250 31 51 0c bd df b3 11 3d 5a 4e c2 bc 03 6d 4a 3e
       -0.034257118 0.03557193 -0.023719002 0.19768147
000260 e6 7f a4 bd 86 21 37 bd 02 6c d1 3b e0 a9 47 3e
       -0.08032207 -0.044709705 0.0063910494 0.19498396
000270 bc 4a 47 3a 6a e6 f0 3d 5a 92 99 3b 05 f1 9d 3d
       0.0007602384 0.11762698 0.004686636 0.077119865
000280 c0 8c 08 bc c1 34 1e bb a7 4f 0b bd f2 15 e2 3d
       -0.008334339 -0.002414033 -0.03401151 0.11039342
000290 cb 6a 6e bd 72 ef 47 3d 34 8b 85 3d f6 33 2b 3c
       -0.058207314 0.048812337 0.065206915 0.0104494
0002a0 ae e2 1e be d0 42 1c 3d 13 df c7 bd 94 72 29 3e
       -0.15516159 0.038149655 -0.09759345 0.16547614
0002b0 10 26 1a bd ea 46 eb bd 1e 52 55 3c cd b4 03 3e
       -0.037633955 -0.11488135 0.013020067 0.12861939
0002c0 34 46 96 bd 71 10 ab 3d 30 a0 a0 bd 9f d9 26 3d
       -0.07337609 0.08352745 -0.07843053 0.040734883
0002d0 6d fe d7 bc f3 42 51 bb 3a c0 f6 bc 5f a0 02 3e
       -0.026366437 -0.0031930774 -0.030120958 0.12756489
0002e0 cf 38 78 3d 9c af 46 3d b0 80 7f 3d 73 88 18 3d
       0.060601052 0.048507318 0.062378585 0.037239503
0002f0 b8 76 41 be 90 28 0a 3d be 05 22 be 85 b0 16 3e
       -0.18892944 0.03373009 -0.15822503 0.14715774
000300 18 f1 e5 bc b8 a6 05 be 26 5d eb 3b 47 d5 ba 3d
       -0.028069064 -0.1305188 0.007182735 0.09122711
000310 b3 f1 1e 3d a5 fb 95 3c 7a dc cf 3d 53 e5 48 3d
       0.03880472 0.01830847 0.101494744 0.049046826
000320 4f 21 41 bd 55 ed 85 3c 4e 23 21 3c c9 39 45 3d
       -0.047150906 0.01634852 0.009835077 0.04815081
000330 59 d2 7b 3e 86 c0 25 be 4b 8e 2b 3c 4f 63 51 bc
       0.2459196 -0.16186723 0.010470937 -0.012780025
000340 92 60 44 3e 93 a4 fd bd 40 1c 9b bd 2c f9 88 bc
       0.19177464 -0.12384906 -0.07573748 -0.016720377
000350 41 1c a5 3d c1 26 a5 bd a0 8e cc bc f4 ac 4f 3d
       0.0806203 -0.08064032 -0.024970353 0.05070205
000360 8c 74 29 3e bc de 9e be 45 7b 2b 3e 41 53 15 bd
       0.16548365 -0.31029308 0.16746242 -0.03645635
000370 95 97 04 be d0 84 8f bc 43 57 03 bd c7 f3 04 3e
       -0.12948449 -0.017519385 -0.03206564 0.12983619
000380 1f ea 4a bc f7 6e 5e 3d 37 fd 81 3d 31 3e f1 3c
       -0.01238492 0.054305043 0.06347125 0.0294486
000390 ba c5 ae bd 8f 05 58 3d 5d ea 62 bd 42 1f 1a 3e
       -0.08533807 0.052739676 -0.055399287 0.15050986
0003a0 54 9a 4b bd ee a9 c1 bd 7b 60 44 3b aa 12 1b 3e
       -0.049707726 -0.0945624 0.0029964733 0.15143839
0003b0 e0 fa 9c bc 82 d8 73 3d be bc 99 bc b7 4e ad 3c
       -0.019162595 0.05953265 -0.018766757 0.021155698
0003c0 df c3 47 be 9f 1d f5 3c 3e 52 38 3c 29 1b b6 bd
       -0.19508313 0.029921351 0.011250077 -0.08891899
0003d0 6c 70 e9 bc 6c 43 c6 3c 50 cc 17 bd da 86 56 3b
       -0.02849599 0.024202071 -0.037060082 0.0032734186
0003e0 8c a8 9a bd c7 66 00 3d 72 47 2e be df fd 03 be
       -0.07551679 0.031348016 -0.17019442 -0.12889813
0003f0 8d 9d 25 be dd 78 07 be bd f4 02 3c df 9b 2a bd
       -0.16173382 -0.132297 0.0079929205 -0.041652557

encoder_mean.4.bias f4 [16]
000000 da c9 37 b5 a7 c6 06 b6 58 ba d4 b7 2f f5 c3 35
       -6.8466545e-07 -2.0083187e-06 -2.5359142e-05 1.459999e-06
000010 67 65 10 b6 a6 25 80 36 c0 ed bc b4 9b d1 07 35
       -2.1516696e-06 3.81908e-06 -3.5190715e-07 5.0596435e-07
000020 6b 49 14 35 1e 18 96 36 08 6a 3f 36 a2 e2 05 37
       5.5241134e-07 4.473156e-06 2.8522936e-06 7.980185e-06
000030 5b 01 c8 35 f8 ee 3f b6 62 0d b3 b6 c3 bc b9 b5
       1.4901556e-06 -2.8600316e-06 -5.3361737e-06 -1.3838511e-06

encoder_mean.5.weight f4 [16]
000000 12 4e ef 3e a1 1c f8 3e 77 8e f7 3e 67 00 0a 3f
       0.4673925 0.48459342 0.4835088 0.53906864
000010 ba 9d b6 3e 74 4f dd 3e 52 be ad 3e f2 73 8b 3e
       0.3566721 0.4322468 0.33934265 0.27236897
000020 75 f8 bb 3e ce 49 c4 3e b5 a2 14 3f 8b 73 b8 3e
       0.36712995 0.38337559 0.5806077 0.36025652
000030 34 da 90 3e f6 d5 ca 3e 38 90 0d 3f 21 e3 f3 3e
       0.28291476 0.39616364 0.55298185 0.47634223

encoder_mean.5.bias f4 [16]
000000 01 df 11 be 3e c2 e3 be 87 80 a5 be 38 08 d2 be
       -0.14245225 -0.44484133 -0.3232462 -0.41021895
000010 66 20 2a 3c 59 eb f3 3c 28 a7 66 3c b0 c5 ea bd
       0.010383701 0.029775308 0.014077939 -0.11463487
000020 fe 94 63 3d af 8e b5 3d 65 35 c1 be 4c 08 bf bc
       0.055562012 0.08865105 -0.3773605 -0.023319386
000030 9a 6f 7d 3d 73 01 89 3e 78 33 49 3e 10 2c 31 3e
       0.06187401 0.26758918 0.1964854 0.17301965

encoder_mean.5.running_mean f4 [16]
000000 23 c3 ce 3d a7 6b 8c be 18 ac 40 be 80 41 54 be
       0.10095813 -0.27425882 -0.18815649 -0.20728111
000010 8d 81 1f 3c 56 02 26 3b 20 67 bd 3c e6 c0 be 3d
       0.009735477 0.0025330982 0.023120463 0.09314136
000020 a2 a5 4f 3d 96 7f 09 3d 7f 50 12 be f1 f0 d0 3c
       0.05069507 0.03356894 -0.1428852 0.025505515
000030 5c 1a 20 be 30 53 0f bc 6b ae 19 3e 41 61 80 bc
       -0.15635055 -0.008747861 0.15007941 -0.015671374

encoder_mean.5.running_var f4 [16]
000000 b2 92 4d 3c 50 f5 8f 3d d5 64 97 3d ce 88 9f 3d
       0.012547182 0.070292115 0.07392279 0.07789765
000010 f5 17 a5 3c fb a2 0b 3d 86 29 17 3c 32 18 b9 3c
       0.020153025 0.034090977 0.009226209 0.022594545
000020 b4 d9 57 3d d4 bf 1d 3d 2b 11 82 3d 64 58 98 3c
       0.052697852 0.03851302 0.06350931 0.018596835
000030 14 a4 90 3c b8 5f 05 3d c0 ec 91 3d 5c 9c 28 3d
       0.017656364 0.032561988 0.071252346 0.04116474

encoder_mean.8.weight f4 [14, 16]
000000 b5 1d 03 3d 35 fa 61 bd 39 9d e7 bd 4e 0b 1a be
       0.032010753 -0.055170257 -0.11309285 -0.15043375
000010 14 02 6a 3d 71 6e c6 3d a0 bb 0a 3e 9b 19 f9 3c
       0.057130888 0.09689034 0.13548136 0.030407717
000020 24 26 18 3e b7 ca a7 3d fb 07 1d be a6 b7 16 3e
       0.148583 0.08192962 -0.15335076 0.14718494
000030 75 0f 7a bb 3a 7a ca bc 61 e3 27 3e 82 99 11 3d
       -0.0038156186 -0.024716485 0.16395332 0.035546787
000040 8c ca 2a be f0 d9 14 3c dc bd 1d 3c 59 2e e6 3b
       -0.16678828 0.0090851635 0.0096277855 0.007024568
000050 15 f7 e3 bd a5 88 bf bd 00 17 ef bd 30 af 5a bd
       -0.111311115 -0.09352235 -0.11674309 -0.053389728
000060 76 e8 d4 bd 9e f5 9e bd a7 95 08 3d 7a aa d9 bd
       -0.10395901 -0.077616915 0.033345845 -0.10628219
000070 74 77 b9 3d ff 6e 54 bc ab ec e8 3e bb b8 b9 bc
       0.09055987 -0.012965917 0.45493063 -0.022671094
000080 5d f8 7a 3e ba 11 fa bc e8 94 c1 b9 14 06 85 bd
       0.24508806 -0.03052603 -0.00036922772 -0.064953
000090 cd 42 27 3e c9 14 f6 3d c0 b1 40 3e ef 34 4b 3e
       0.16334076 0.12015683 0.18817806 0.19844411
0000a0 ff c2 39 3e 38 2b d2 3d 32 49 c8 bc a8 44 53 3e
       0.18140791 0.102621496 -0.024448965 0.20631659
0000b0 a0 70 aa bb 5c d3 67 3c ec c6 99 3d 8a 34 5e 3c
       -0.005201414 0.014149513 0.075086445 0.013562331
0000c0 02 1d fa 3c ab 63 73 3e d6 18 80 3c ac d1 fa 3d
       0.03053141 0.23768489 0.015636843 0.12247023
0000d0 3f 74 24 3c 5f 69 e2 bd e1 23 16 3d e1 78 03 3d
       0.010037481 -0.11055254 0.03665531 0.0320977
0000e0 2e 93 04 3d ca 3c dc bc 44 65 e5 3d aa f2 5b 3d
       0.032366924 -0.026884455 0.112009555 0.05369822
0000f0 4e 4e 3a be 20 86 65 be 6b 16 2d bc 76 96 34 be
       -0.18193933 -0.22414446 -0.010564427 -0.17635521
000100 1f e8 b1 3e 70 88 29 3c dc 6c 72 bc e5 29 2e bd
       0.34747407 0.010347471 -0.014796462 -0.042520422
000110 5b ce fc 3d c1 17 8c 3d c0 ac a9 3c 05 ed ce 3c
       0.12344047 0.06840468 0.020712256 0.025259504
000120 ce 3a 19 3e 35 f0 58 3d fd 7b f3 bb d9 25 2d 3c
       0.14963838 0.052963454 -0.007430552 0.010568106
000130 6c 7a 00 3c 4a 28 2a bb d9 e0 96 be e4 5d b5 bb
       0.007841688 -0.0025963956 -0.2946842 -0.0055348743
000140 10 1e 4b 3d 20 6e 94 bd 04 21 12 be 69 0e a8 bd
       0.049589217 -0.07247567 -0.14270407 -0.082058735
000150 05 11 80 3d 74 aa 2c 3d 0b 7a c9 3d 2c d3 84 3d
       0.06253246 0.042154744 0.09837731 0.0648559
000160 ef e0 09 3e c1 74 1e 3d 17 6a e5 bd e4 e1 c1 3d
       0.13464712 0.038685564 -0.11201876 0.09466913
000170 31 d1 b9 bd d2 49 38 3e e5 e7 9b 3b 7b cd 07 be
       -0.09073103 0.1799691 0.0047578686 -0.13261978
000180 a4 6b d7 3a 14 55 70 3e e4 f0 be 3d 6c dd cc 3c
       0.0016435278 0.23469955 0.0932329 0.025007926
000190 2d 29 51 bd 25 16 1f be ee 99 9d bd 16 76 cd 3c
       -0.05106466 -0.15535791 -0.076953754 0.025080722
0001a0 f4 a4 44 ba 92 0a 3c be b9 3f 01 3e ae 1b f8 ba
       -0.00075013866 -0.18363407 0.12621965 -0.0018929148
0001b0 43 c3 27 be 47 18 c9 bd 90 8d 00 bd 16 2c 11 be
       -0.1638308 -0.09819084 -0.031385005 -0.14176974
0001c0 cb 32 46 3d 4d 74 4d 3e 27 48 4f 3d b6 5b 9f 3d
       0.048388284 0.20063896 0.05060592 0.07781164
0001d0 d2 08 80 3d 1e f5 e9 bd 6c e3 d3 bc fc 3c 7b 3d
       0.06251682 -0.114237055 -0.02586528 0.061337456
0001e0 b8 49 0b 3c ac ed d9 bd 43 93 1f 3e 59 38 23 3d
       0.008501463 -0.106410354 0.1558352 0.03984866
0001f0 3e 96 1c be 62 1b 3e be 65 95 7c bc 0b bb 4f be
       -0.15291688 -0.18565133 -0.015416478 -0.20286195
000200 03 fd 22 bb 80 1e 1d 3e 04 00 be 3b c7 cd 61 3e
       -0.0024870045 0.15343666 0.0057983417 0.22051154
000210 af d8 4c bd 8d ff 51 be 83 51 3b 3c 64 ba d9 ba
       -0.050011333 -0.20507641 0.011433008 -0.0016611335
000220 8f 3e b2 bd 4d 74 49 be b1 e8 16 3e 2a 40 e1 bc
       -0.08703338 -0.19673271 0.14737202 -0.027496416
000230 99 cf cd bd 93 c0 b3 bd c0 8c 31 be a6 38 1f be
       -0.10049362 -0.08776965 -0.17338848 -0.15548953
000240 c3 cc be 3d 3d 8b a4 bd eb 0c 0f be 14 a3 ca bd
       0.09316399 -0.0803437 -0.13969772 -0.09894386
000250 93 76 11 3d 99 98 53 3d ba 2a 00 3e 4c 94 9f 3d
       0.03551347 0.0516592 0.12516299 0.07791957
000260 1a e0 bb 3d c1 ef ec 3d 4f 64 a4 bd fd 4b 1e 3e
       0.09173603 0.11569167 -0.08026945 0.15458675
000270 eb 85 93 3b b3 da fe bd 3a 82 67 3c 8c c5 36 3d
       0.0045020483 -0.12444057 0.0141301695 0.04462199
000280 b4 24 26 3e ac 87 4b bd ce c7 a8 3e 62 11 21 bd
       0.16224939 -0.049689934 0.3296494 -0.03932322
000290 1c 07 05 3e 9c 3b f3 bb f5 6f b8 3d b8 e2 a2 3d
       0.12990993 -0.0074228775 0.09005729 0.079533994
0002a0 b2 f0 94 3d d8 91 70 3a 14 f9 3f be 25 bf 8f 3d
       0.072724715 0.0009177006 -0.1874736 0.0701888
0002b0 d7 aa 36 be 88 c8 6a bd f0 f2 cb 3c 0e 93 c4 bb
       -0.17838608 -0.057320148 0.024896115 -0.0059989756
0002c0 cb e5 90 3d 01 b6 53 3e 52 d8 da 3d 16 e8 88 3d
       0.070750795 0.20674898 0.10685791 0.06684892
0002d0 4e cb 9a 3b dd fd de bd 39 16 30 bd d0 b6 5e 3d
       0.004723943 -0.10888264 -0.042989943 0.054373562
0002e0 7d 29 d4 bc 4d 35 26 be 8a 0c e7 3d cd 39 17 3d
       -0.02589869 -0.1623127 0.112816885 0.036920357
0002f0 f7 35 f8 bd 70 4c 0d be ae a4 81 bd ec 6a 6e be
       -0.12119668 -0.1379869 -0.06330238 -0.23282975
000300 1f c0 3a 3e 5d 6f 03 bd 25 0c e1 bc b2 2d 18 bd
       0.18237351 -0.032088626 -0.027471611 -0.037152953
000310 10 90 87 3d 76 5a a1 3c 6d d2 3c 3d 7e 32 43 3e
       0.066192746 0.019696455 0.046099115 0.1906223
000320 4f 22 b7 3c 98 91 3a 3d ef 6a 4f bd ec 00 a0 3d
       0.022355227 0.045549005 -0.05063909 0.07812676
000330 73 d4 9a 3c 1a 87 0d 3d f0 5c ec bc b3 c5 c1 bb
       0.018900132 0.03455267 -0.02885291 -0.00591346
000340 58 8e bc 3c db aa 55 bd 95 bf aa bd eb 4a fb bd
       0.023017094 -0.052164894 -0.083373226 -0.12270149
000350 e5 51 fa 3c 8a 01 b9 3d e1 23 f8 3d cf fd 29 3c
       0.030556628 0.09033497 0.12116218 0.010375454
000360 6d 30 c0 3d c4 53 93 3d 57 7c 94 bd 6c c2 af 3d
       0.093842365 0.071937114 -0.072502784 0.08582005
000370 39 fb b0 bd e0 28 4e 3d 13 eb 53 3e c1 2a eb 3d
       -0.08641667 0.05033195 0.20695142 0.11482764

encoder_mean.8.bias f4 [14]
000000 f2 23 1e 36 7e d9 44 b5 96 90 7c 36 0e c2 f1 b4
       2.3564758e-06 -7.333218e-07 3.7635086e-06 -4.5030941e-07
000010 c6 fb 5c b6 39 b1 94 b7 6b 84 13 36 bf 0e 16 36
       -3.2929106e-06 -1.77255e-05 2.1981784e-06 2.2360325e-06
000020 d4 c2 b8 36 3a 7e ec 36 43 e0 c3 b6 1a c8 48 b6
       5.5063083e-06 7.048043e-06 -5.8375604e-06 -2.9918797e-06
000030 bc 9c bf 34 f4 8d 5f 35
       3.5690562e-07 8.328054e-07

encoder_mean.9.weight f4 [14]
000000 4c 2b f0 3e d7 f3 01 3f 1f f2 e8 3e 6a f3 05 3f
       0.46908033 0.50762695 0.45497224 0.52324545
000010 62 e8 a3 3e d2 a2 ce 3e b1 87 db 3e b9 98 ff 3e
       0.32013232 0.40358597 0.42876962 0.49921206
000020 52 05 fc 3e 6d 72 c5 3e 6a 42 c4 3e cf b4 d5 3e
       0.4922281 0.38563862 0.3833192 0.41739509
000030 5b db b8 3e a8 30 d5 3e
       0.36104855 0.41638684

encoder_mean.9.bias f4 [14]
000000 5a da 9b 3e 56 b5 8a be 04 0e de 3e 10 b5 31 be
       0.30440027 -0.27091473 0.43370068 -0.17354226
000010 4a 72 2f bd d6 62 57 3e e6 f0 bf bd 17 22 2b be
       -0.042833604 0.21033797 -0.093721196 -0.16712223
000020 32 98 27 be 2f 9f 41 3e 88 16 c1 3d e8 48 34 be
       -0.16366652 0.1890838 0.094281256 -0.17605937
000030 57 65 05 3e 97 77 a9 3e
       0.1302694 0.33099052

encoder_mean.9.running_mean f4 [14]
000000 96 4b 0e 3e d9 d9 53 3d 8e 9c 65 3e 29 a2 07 be
       0.13896021 0.051721428 0.22423002 -0.13245453
000010 2f 81 8a 3c 2d 30 83 3d 9c c2 2b be 76 ad 12 be
       0.016907303 0.06405673 -0.16773456 -0.14323983
000020 94 37 60 be 16 3f 6f 3d 4f 4b a2 3c 39 26 37 be
       -0.21896201 0.058409773 0.0198113 -0.17885675
000030 38 bc 90 3d fb 56 2e 3e
       0.0706715 0.17025368

encoder_mean.9.running_var f4 [14]
000000 30 eb 78 3d 39 8a 48 3c b8 5f 8b 3d d4 94 00 3d
       0.060771167 0.012239986 0.06805366 0.031391934
000010 36 32 f5 3b d5 e1 ea 3c 7a ab 1e 3d 67 e9 10 3d
       0.0074827923 0.028672138 0.03873775 0.03537884
000020 73 68 98 3d 7c 91 e9 3c b6 36 3a 3c 50 51 2e 3d
       0.07441797 0.028511755 0.011365583 0.042558014
000030 32 87 40 3c e3 2d 60 3d
       0.011750983 0.05473126

encoder_mean.12.weight f4 [12, 14]
000000 f8 0a ed bd 5b 7e fb 3b 3f a4 0b be 90 e9 9b 3d
       -0.11574358 0.007674975 -0.13636874 0.07612908
000010 5e 5e 7f bc f6 79 08 be 6c ca 7e 3d f6 95 83 3d
       -0.015586464 -0.13327774 0.062204763 0.06425087
000020 5b 41 8a 3d 64 da ad bd 0a ca 0f 3e 07 b5 23 3e
       0.06750747 -0.0848892 0.14041916 0.15987025
000030 e5 84 83 3d 14 4d 0b be 93 7e e4 bd c1 72 69 bd
       0.06421832 -0.13603622 -0.111569546 -0.056994203
000040 ac 01 09 be ac 45 15 3e d6 63 8d bc 80 2a 0f be
       -0.13379544 0.14577359 -0.01725952 -0.13981056
000050 c2 d9 64 3d a7 07 15 3d 6e 62 15 3e 81 e7 b5 bd
       0.055871733 0.03638425 0.14588329 -0.088820465
000060 bf de 11 3e 31 53 fc 3d be 0a af 3c 73 b6 07 be
       0.14245127 0.12320555 0.021367427 -0.13253193
000070 b1 37 fa bd 4d 3b 6f bd d7 b4 ea bd 42 c5 de 3d
       -0.122176535 -0.058406163 -0.11460274 0.10877468
000080 ed 2d 14 bd 14 f3 c1 bd 2f 2a bd 3d 8b ad cf 3d
       -0.03617661 -0.094701916 0.092365615 0.101405226
000090 81 36 dd 3d 5d d6 0a be 58 db 23 3e 0e 53 f3 3d
       0.108014114 -0.13558336 0.16001642 0.11881076
0000a0 b2 38 18 bc e8 d9 ca bd 8e 10 f3 bd 7a 70 15 3b
       -0.009290861 -0.099048436 -0.11868392 0.0022802637
0000b0 ce 2a ee bd 3c 92 ec 3d b1 22 a8 bc 4a 8b d9 bd
       -0.11629258 0.115513295 -0.020524355 -0.106222704
0000c0 0d 03 d2 3d 95 6a c4 3d 1f dd c0 3d 70 5d 94 bd
       0.10254488 0.095906414 0.094171755 -0.07244384
0000d0 f9 23 3b 3e 79 a4 f2 3d 28 a5 21 3d c8 2e 09 be
       0.18275441 0.11847777 0.039464146 -0.13396752
0000e0 8c 92 db bd 86 b7 50 bc 66 94 e9 bd 2e 72 9e 3d
       -0.10721311 -0.012739068 -0.11405258 0.07736622
0000f0 8a 5e 02 bd c1 04 15 be 18 1a e8 3d d6 c0 bb 3d
       -0.03182844 -0.14552595 0.11333102 0.0916764
000100 cc c9 47 3d 24 2a c6 bd dd 21 13 3e 38 31 2e 3e
       0.048776433 -0.096760064 0.14368387 0.17010963
000110 06 42 2b 3d cc 84 d0 bd 00 b7 fc 3d 61 a2 53 3e
       0.04181101 -0.10181579 0.12339592 0.20667411
000120 a4 0d 17 bd 59 c8 4b 3b 57 89 e2 3d 1a 89 cc 3d
       -0.036878243 0.0031094758 0.11061352 0.099870875
000130 b8 b9 e6 bd 64 82 1b bd bf 1c 22 be 84 a0 3c 3d
       -0.11265892 -0.037966147 -0.15831278 0.046051517
000140 ac 87 a2 3d d1 22 aa bd f7 08 3b 3e 9f 56 95 3d
       0.079360336 -0.08307422 0.18265139 0.07291912
000150 68 4f 9a 3d 44 31 68 3e 0d d0 85 bd 20 3e 0f be
       0.07534677 0.22675043 -0.06533823 -0.13988543
000160 0f 75 dd 3d 6a fb 9e 3d 67 18 30 bd 9b 53 6b bd
       0.10813343 0.07762797 -0.042992022 -0.05745278
000170 91 c3 9a bd a4 10 d8 3d 56 f3 bd 3d ab 44 09 bd
       -0.075568326 0.10550049 0.09274928 -0.033512753
000180 a9 c9 31 3e 4b 50 97 3d e6 35 bf bd 60 19 0f bd
       0.17362083 0.073883615 -0.09336452 -0.03493631
000190 9f 2d cf bd 52 9b 97 3d e3 bf 22 bd 04 f7 0a be
       -0.101161234 0.07402672 -0.03973378 -0.13570791
0001a0 ec 50 0b 3e 4b 6d b7 3d 30 0c 01 3e bb 16 f1 bd
       0.13605088 0.08956393 0.12602305 -0.117719136
0001b0 89 c9 00 3e e7 8e a7 3d ca f1 f9 3c 1f c2 c6 bd
       0.1257688 0.08181553 0.030510802 -0.097049944
0001c0 ec 51 11 3e 0c c8 4b 3e 42 1d 4b bd 29 15 11 be
       0.14191407 0.1990053 -0.04958845 -0.14168228
0001d0 81 40 ec 3d 8a b1 e1 3d 66 5e 46 3c 21 27 d8 bd
       0.11535741 0.11020191 0.012107467 -0.10554338
0001e0 c4 82 24 bd 87 29 dc 3d 5a 2a df 3d 6c 56 ac bd
       -0.04016377 0.10750108 0.1089675 -0.08414921
0001f0 b6 a2 07 3e 32 19 cb 3d e6 97 f9 bd 0a 1e 2c 3d
       0.13245663 0.09916915 -0.121871755 0.042020835
000200 df c4 d8 3e 86 8e 9b bb a0 81 68 3b 59 7e 9f bd
       0.423377 -0.0047472147 0.0035477653 -0.07787771
000210 77 87 84 bc 89 a3 43 bc 82 7d 0d bd 65 8f a4 bd
       -0.016177876 -0.011940845 -0.03454352 -0.08035163
000220 49 fa 6b bd c9 dc ac bc 9e bf ea bd 6d 53 a9 bd
       -0.057611737 -0.021101372 -0.11462329 -0.08267865
000230 76 f2 88 3d bd 49 83 3e cf a2 76 bd 92 ca 50 bd
       0.06686871 0.25642195 -0.06021386 -0.050974436
000240 5a 7c b9 3d ac 85 c8 3d 48 41 2a bd 49 10 b8 bd
       0.09056921 0.09791121 -0.041566163 -0.08987481
000250 ec d6 e1 bd 88 42 db 3d 3a 53 d8 3d a3 4e 88 bd
       -0.11027321 0.10706049 0.10562749 -0.06655624
000260 18 28 01 3e dd 5c 44 3d 71 1e 0a 3e 5d 5f 71 3e
       0.12612951 0.047940124 0.13488175 0.23571534
000270 a1 8f b6 bd c7 3a ac bc 09 7f d3 3d 51 6c 39 3d
       -0.08914114 -0.021024121 0.103269644 0.045269314
000280 e5 f9 8a bd 78 7d dc bd 71 db ac bd 78 4a fe 3d
       -0.06785945 -0.10766119 -0.084402926 0.124165475
000290 8c 05 d7 3d fd c2 3a bd 7d cf db 3d 2a b8 5e 3d
       0.10499105 -0.04559611 0.107329346 0.05437485

encoder_mean.12.bias f4 [12]
000000 d7 63 e2 b5 72 ee 68 36 73 6f 80 b4 22 69 c4 b4
       -1.6867369e-06 3.4709487e-06 -2.3922948e-07 -3.658434e-07
000010 08 70 29 33 61 55 23 35 e2 e8 29 b3 63 95 a5 35
       3.945027e-08 6.0846475e-07 -3.9560184e-08 1.2336935e-06
000020 ea ef 07 35 a4 11 f7 b6 18 db f8 35 18 a8 cc b5
       5.064054e-07 -7.3632273e-06 1.8541205e-06 -1.5248106e-06

encoder_mean.13.weight f4 [12]
000000 1f f9 15 3f a5 56 2a 3f d9 ed 29 3f 53 0d 2a 3f
       0.58583254 0.6653846 0.6637855 0.6642658
000010 71 c0 18 3f b5 19 0a 3f 57 ab 06 3f b5 81 13 3f
       0.5966864 0.53945476 0.52605194 0.5761979
000020 7d 82 09 3f 11 f8 37 3f 7b f0 07 3f 9d 21 07 3f
       0.53714734 0.71862894 0.5310132 0.52785665

encoder_mean.13.bias f4 [12]
000000 58 be a3 bd f8 ed 96 bd f1 84 00 bd 96 6d 2b bd
       -0.079952896 -0.07369608 -0.031376783 -0.041852556
000010 ed 94 e7 bc 1f 8e 8a 3e fe 9f 90 3e 5a 85 a1 bb
       -0.028269256 0.27061555 0.28247064 -0.004929227
000020 7f 54 98 3e d6 47 7f 3d 85 99 8f 3e 35 86 91 3e
       0.29751965 0.062324367 0.28046814 0.28422704

encoder_mean.13.running_mean f4 [12]
000000 e1 2b 00 be 79 c1 f7 bd 1b 8c df bd 6e c1 b5 bd
       -0.12516738 -0.12097449 -0.10915395 -0.088747844
000010 de c9 c7 bd 8f ea fa 3d 41 ad e1 3d d8 6c ba bd
       -0.097553 0.1225177 0.11019374 -0.091027915
000020 2e 7c 1b 3e 5a e3 21 3d 28 79 c8 3d 09 b6 d4 3d
       0.1518409 0.03952346 0.09788734 0.10386283

encoder_mean.13.running_var f4 [12]
000000 29 65 90 3d eb 7e b6 3d 2e 88 b7 3d 01 24 a0 3d
       0.07050545 0.089109264 0.08961521 0.07819367
000010 97 e9 99 3d aa db 91 3d cb 64 80 3d 7f f2 98 3d
       0.07515257 0.07121976 0.06269225 0.074681275
000020 b7 03 ac 3d 0f 1d 4a 3c d5 1d 65 3d 6f 5d 58 3d
       0.08399146 0.01233603 0.055936653 0.05282348

encoder_mean.16.weight f4 [10, 12]
000000 b4 5f 0b 3a 27 1e 68 3b 57 03 e8 3c 58 cc ba bc
       0.000531669 0.0035418363 0.028321905 -0.022802517
000010 1a 00 2a bb 03 94 7f 3b 04 52 eb ba 34 25 af bb
       -0.0025940002 0.0038998134 -0.001795352 -0.005345011
000020 96 89 04 bb 06 36 19 3b 7c 9d a4 3a ca ab 5e b9
       -0.002022361 0.0023378148 0.0012559141 -0.00021235566
000030 bd 01 88 3e 1a 5a 9d 3e 89 69 97 3e 01 03 82 3e
       0.26563826 0.30732805 0.29572704 0.25392917
000040 84 7d 8b 3e d6 a8 a1 be 90 a9 8d be 42 70 97 3e
       0.27244198 -0.31574124 -0.27668428 0.29577833
000050 40 3a 84 be 53 3d c5 be 17 15 ca be c3 3e aa be
       -0.2582569 -0.3852335 -0.39469215 -0.33251008
000060 9c 91 8e bb 98 bf d2 bb e7 31 02 3c 38 98 be ba
       -0.004350854 -0.006431531 0.007946468 -0.0014541214
000070 27 84 7e 3a ec 80 83 3a 8f d8 2f 3b 2e 32 92 b9
       0.0009709023 0.0010032929 0.002683196 -0.00027884677
000080 88 71 76 bb 98 8b d4 3a 24 54 4c 3a 18 8f d7 39
       -0.003760429 0.0016215919 0.00077945204 0.0004111461
000090 06 eb ed be ea df be be f4 e7 c4 be 76 d0 d7 be
       -0.4646837 -0.37280208 -0.38458216 -0.4215123
0000a0 5b 22 da be 18 1b c2 3e 07 95 d4 3e bf 78 cb be
       -0.42604336 0.37911296 0.4151995 -0.3974056
0000b0 73 1f c7 3e 8d 91 15 3f e8 44 a5 3e e0 b8 bb 3e
       0.3889118 0.5842522 0.32279134 0.36664486
0000c0 45 7b 4d ba 86 f8 6f bb bb 7a 0f 3c 10 14 65 3b
       -0.0007838498 -0.0036616637 0.008757289 0.0034954585
0000d0 4d 4f 08 bb b5 ad a9 39 13 4e c2 3a d2 5e fe 39
       -0.002079922 0.00032363614 0.0014824293 0.00048517302
0000e0 5a 0c 18 3a 19 d0 55 3a ea 5e d2 b9 30 88 22 b8
       0.00058001804 0.0008156314 -0.00040125038 -3.8750644e-05
0000f0 b4 11 1b 3b aa 8b 33 39 81 99 10 3c 48 58 06 bc
       0.0023661675 0.00017122799 0.008825661 -0.008199759
000100 eb 9b 89 bb 75 72 a2 3a 28 1f 6c 3b b0 dc 21 b9
       -0.004199495 0.001239373 0.0036029313 -0.00015436369
000110 d7 f9 15 bc 77 d0 fb b9 a8 20 23 3a 0b c2 b9 3a
       -0.009153805 -0.0004802977 0.00062228227 0.0014172209
000120 a7 a3 05 bc 28 af a3 3d 4a 64 d5 bb 5f da 81 bd
       -0.008156694 0.07992393 -0.0065121995 -0.06340479
000130 b4 b7 58 bc c1 f6 7a bc af 57 37 3c 14 5c 56 3c
       -0.013227392 -0.01531762 0.011190339 0.013083477
000140 f9 c1 3e 3b 1e 9f a1 3a d2 5e aa ba 8c 07 6f 3a
       0.0029107316 0.0012330746 -0.0012998229 0.0009118251
000150 40 d2 3b 39 75 12 bf 3c a0 23 10 3c d6 ca df bc
       0.00017912034 0.02332423 0.008797556 -0.0273184
000160 65 ed 14 3c 90 9d d1 39 98 14 a8 bb 35 28 4b bc
       0.009089802 0.0003998098 -0.005129408 -0.012399723
000170 6f cf 06 3c d1 81 8c ba 5d 01 28 bb 21 1c 00 3b
       0.008228167 -0.0010719841 -0.0025635578 0.0019548016
000180 d5 48 ac 3a 1a 0c 62 3b 06 a0 28 bb c7 a2 a7 3b
       0.0013144264 0.0034492076 -0.0025730147 0.00511584
000190 73 0b d9 39 59 2a 94 b9 7c 0e 1f 3a 2a 68 f7 b9
       0.00041397996 -0.0002826031 0.0006067527 -0.0004718912
0001a0 20 33 a5 3b 94 e7 8a 3b 6a 23 03 ba 31 88 e3 ba
       0.005041495 0.004239032 -0.00050025305 -0.0017359314
0001b0 6d 28 67 3a bd 00 9c 3c ee 37 a3 bc 3b 8d 1f bc
       0.00088179746 0.01904332 -0.01992413 -0.009738262
0001c0 d7 f2 91 3b db 4b a7 3b e8 cc 2d bb a3 94 92 3b
       0.0044539976 0.005105478 -0.0026519839 0.0044732853
0001d0 23 e1 86 bb c4 95 1d 3b 4b 16 25 3b 8a a3 9f ba
       -0.004116194 0.0024045566 0.002519029 -0.0012179476

encoder_mean.16.bias f4 [10]
000000 8d bf 8a ba a6 9c a5 3e 54 5d 55 ba b6 4f a7 be
       -0.0010585651 0.32346076 -0.0008139212 -0.32678002
000010 78 49 63 bb 55 d0 a9 3a ed 55 b7 3a 88 54 1c b9
       -0.0034681242 0.0012955765 0.00139874 -0.0001490881
000020 98 55 76 bb c4 f3 bb 3a
       -0.003758764 0.0014339616

encoder_var.0.weight f4 [20, 29]
000000 68 74 84 b7 62 e0 4b 39 21 fe 4e 38 5e 78 16 b8
       -1.5789832e-05 0.00019443178 4.9350903e-05 -3.5874888e-05
000010 1f 6d 59 b7 32 d5 f6 b8 a4 6d b8 b7 d6 ba 09 38
       -1.2959615e-05 -0.00011769905 -2.1985565e-05 3.283735e-05
000020 45 06 e7 b7 75 c9 12 b7 a2 fa cc b7 5c d9 87 37
       -2.7540265e-05 -8.7491835e-06 -2.4435405e-05 1.619447e-05
000030 e2 7c 5d b8 d4 96 56 38 f4 e9 c6 38 e3 aa 00 38
       -5.2806812e-05 5.1162046e-05 9.484953e-05 3.067673e-05
000040 94 e8 5d 38 61 a0 65 b6 86 70 37 b9 69 90 08 b6
       5.290711e-05 -3.4217012e-06 -0.00017494158 -2.0349637e-06
000050 c2 74 e7 b7 ba 61 25 b7 2a be ba b6 09 aa 1d 38
       -2.7591715e-05 -9.85752e-06 -5.56537e-06 3.7590074e-05
000060 a0 d7 e0 b8 2e 45 5a b7 69 82 86 36 eb 2d d8 38
       -0.000107213156 -1.300992e-05 4.008693e-06 0.000103082355
000070 31 f3 c4 b8 25 38 4b b6 3e 1a 98 36 e5 59 9a 37
       -9.391306e-05 -3.0282038e-06 4.533008e-06 1.8400091e-05
000080 3b 38 07 b5 e2 c3 ea b7 d3 02 92 37 2d f7 ac 36
       -5.0373245e-07 -2.7986189e-05 1.7405871e-05 5.1547745e-06
000090 1f 9c 80 37 06 fd 12 b6 5d aa 0d 34 8c 94 94 b5
       1.5331489e-05 -2.1902974e-06 1.3193626e-07 -1.1070092e-06
0000a0 a5 ff 07 37 d2 55 24 37 7d 7a 63 b6 2c d6 35 b8
       8.106149e-06 9.795143e-06 -3.3896933e-06 -4.3353226e-05
0000b0 1d a6 c1 37 64 ee 6b 35 84 bf 25 b6 98 2b d6 b5
       2.3084745e-05 8.7891226e-07 -2.4698393e-06 -1.595693e-06
0000c0 02 f1 a8 b6 30 d5 42 34 8d c4 63 37 b2 42 05 b7
       -5.034847e-06 1.8145215e-07 1.3576017e-05 -7.9429465e-06
0000d0 fc 2d f3 b6 76 50 db b6 e6 35 9d 36 71 84 ce b6
       -7.2473176e-06 -6.5360755e-06 4.685239e-06 -6.1546966e-06
0000e0 b7 0b 38 36 24 8c cf b6 19 63 41 36 76 48 ef 37
       2.7424956e-06 -6.1853953e-06 2.8816924e-06 2.8524762e-05
0000f0 c0 f6 ae 37 8e da 00 b6 a8 be 87 36 0c a0 53 b7
       2.0857318e-05 -1.9200702e-06 4.045509e-06 -1.2613844e-05
000100 01 a7 bd b6 87 20 82 b7 c0 ca 08 b5 32 d2 8a b7
       -5.6520807e-06 -1.5512354e-05 -5.095899e-07 -1.6548762e-05
000110 cb d8 1d 36 7e 53 54 37 88 fb 45 b6 d2 5d 3d b7
       2.3521013e-06 1.2655624e-05 -2.9501698e-06 -1.1287122e-05
000120 f1 49 3c b8 e1 12 0a b7 59 6e 2a b6 28 5d 9f 34
       -4.4891556e-05 -8.229837e-06 -2.5396205e-06 2.9683838e-07
000130 1b 87 9e b7 20 f8 ca 33 64 72 cc b6 38 07 14 b6
       -1.8897981e-05 9.451492e-08 -6.0929906e-06 -2.205792e-06
000140 0d d4 5c 37 1e 48 a9 b7 50 39 e3 b6 ca 5e 3d 37
       1.3162394e-05 -2.0179952e-05 -6.7717992e-06 1.1287348e-05
000150 46 56 09 b7 74 a8 eb b7 93 da f7 37 c4 c1 37 b7
       -8.185923e-06 -2.8092625e-05 2.9546476e-05 -1.0952765e-05
000160 b3 0c 5c b7 9a 24 27 b7 85 b5 93 37 96 95 c7 37
       -1.3115979e-05 -9.962498e-06 1.7608292e-05 2.3792305e-05
000170 11 76 2c b6 f5 5e 36 b7 c6 11 a0 36 fe 36 16 b7
       -2.569872e-06 -1.0870154e-05 4.7704407e-06 -8.953501e-06
000180 08 60 9a b5 d5 4d a5 b6 12 30 c3 b6 41 08 af 36
       -1.1501843e-06 -4.926444e-06 -5.817049e-06 5.2163673e-06
000190 f4 a4 d0 b7 6e 0e 75 37 a8 7d 99 36 44 2c 7e 37
       -2.4872345e-05 1.4606498e-05 4.5743836e-06 1.5149886e-05
0001a0 d6 8a a4 35 0b 7e 9d 37 0e 5d 2e 36 b7 a9 64 37
       1.2259359e-06 1.8774552e-05 2.5982185e-06 1.3629374e-05
0001b0 d8 1f 4a 37 bf e9 fd b6 b6 df 32 37 2b 8a dd b7
       1.2047552e-05 -7.567199e-06 1.06617135e-05 -2.6409592e-05
0001c0 4e 7f 50 37 4b 0e 51 b7 90 0e 1e 38 33 0c 1b b8
       1.2427407e-05 -1.2460699e-05 3.7683698e-05 -3.696624e-05
0001d0 0b 79 35 b7 60 21 fb b6 03 ca 47 b7 70 1a 7b 38
       -1.0816623e-05 -7.4842683e-06 -1.1908359e-05 5.9867685e-05
0001e0 e8 12 0e 37 67 1e 7b 37 8d b3 95 37 4e 28 a3 b7
       8.4682615e-06 1.4967844e-05 1.7845794e-05 -1.9449883e-05
0001f0 18 46 60 b7 80 e5 a7 b7 a6 40 83 b7 c0 0c 94 35
       -1.336776e-05 -2.001482e-05 -1.5646521e-05 1.103057e-06
000200 40 5a 84 b7 d9 6d 1b 38 ac 44 8e 37 6f 03 21 38
       -1.5777652e-05 3.7057183e-05 1.6959697e-05 3.838859e-05
000210 3f 39 f6 b7 4f 62 8c 37 ba a4 e3 37 61 77 6e 38
       -2.9352143e-05 1.6735079e-05 2.7137216e-05 5.6854802e-05
000220 8a 16 cd b6 d5 43 00 b7 fe 86 07 b7 59 b8 94 37
       -6.1121e-06 -7.645188e-06 -8.078057e-06 1.7728818e-05
000230 82 90 02 b7 19 a1 ec b7 4c 23 01 38 6e 1e 96 b7
       -7.78225e-06 -2.820841e-05 3.078887e-05 -1.7895563e-05
000240 59 85 a3 37 1b 14 91 b6 31 fc 9f 37 c7 0a c2 b6
       1.9493209e-05 -4.3236773e-06 1.9071713e-05 -5.782905e-06
000250 26 f4 b6 37 f2 13 15 37 14 4b 46 b7 4e 92 82 b6
       2.1809781e-05 8.885736e-06 -1.18192e-05 -3.891334e-06
000260 b7 ae e8 36 98 17 fb b6 85 d2 b7 b7 b5 e5 cf b7
       6.9344783e-06 -7.4831296e-06 -2.191333e-05 -2.4783289e-05
000270 c8 bb 1b 37 3a 6b 80 37 e8 22 f5 b6 06 b0 e9 37
       9.282441e-06 1.530872e-05 -7.3056326e-06 2.7857732e-05
000280 eb ab bc b7 f1 09 05 37 5d 22 1d 37 ae b0 94 b7
       -2.2491402e-05 7.929732e-06 9.36593e-06 -1.7725248e-05
000290 c0 5b f5 37 85 2c d7 37 4f 64 91 b7 b2 97 45 b7
       2.9249e-05 2.5650728e-05 -1.7332057e-05 -1.1777434e-05
0002a0 04 a9 a1 b7 7d 5b 3e 37 9e b7 1c 37 47 c9 1c b7
       -1.92714e-05 1.1346184e-05 9.341076e-06 -9.345188e-06
0002b0 6d 70 36 38 cc ef 34 b8 14 9b 7c b5 76 3c ac 36
       4.3496886e-05 -4.3138672e-05 -9.4102984e-07 5.133038e-06
0002c0 1e 86 56 36 3c 8f 10 b7 11 0d 1d 36 36 e2 ce b6
       3.1966551e-06 -8.616418e-06 2.3402429e-06 -6.165613e-06
0002d0 28 71 fe 36 02 c9 9d b7 83 c0 b4 35 21 b1 68 37
       7.582963e-06 -1.880946e-05 1.3467073e-06 1.3869519e-05
0002e0 fc 53 3f b6 b2 11 04 b6 12 47 fd 36 a2 63 72 b7
       -2.8510103e-06 -1.9679833e-06 7.5482612e-06 -1.4447522e-05
0002f0 9b 7d 00 b6 19 0f 14 36 46 03 42 37 17 ff 00 b6
       -1.9146598e-06 2.2062507e-06 1.1564063e-05 -1.9221968e-06
000300 6a 89 74 36 e0 29 c7 b6 d9 16 f2 b6 d9 96 f5 b6
       3.6438819e-06 -5.935537e-06 -7.214822e-06 -7.31913e-06
000310 98 10 cc 36 c0 2b b5 b7 80 58 f2 36 ad be 2f 37
       6.0816055e-06 -2.1597254e-05 7.222465e-06 1.0475208e-05
000320 4d 8f 2e b7 21 db 31 37 ac 62 2d b7 84 6b d2 36
       -1.0404573e-05 1.0601042e-05 -1.0334577e-05 6.271004e-06
000330 59 a6 d8 37 4c 29 c7 36 dc bc 02 37 16 b6 8f 36
       2.5826668e-05 5.9354697e-06 7.792576e-06 4.2829297e-06
000340 c7 f6 f9 35 2d 72 91 36 20 62 c4 b7 45 7c 08 37
       1.8623767e-06 4.3346286e-06 -2.3410714e-05 8.135165e-06
000350 10 3d 0d 35 b9 7a 8d 37 53 a2 94 36 50 2d 76 37
       5.261545e-07 1.6865657e-05 4.4296407e-06 1.4673293e-05
000360 64 8a 9d b6 7e 87 83 b6 c9 e8 ef b6 72 07 a6 36
       -4.6950754e-06 -3.9198776e-06 -7.149855e-06 4.9480523e-06
000370 91 09 c9 36 18 91 6c b4 55 a7 65 b5 59 b8 38 37
       5.9913805e-06 -2.2031998e-07 -8.555265e-07 1.1010176e-05
000380 43 7c be 37 53 5f 8e 36 26 03 b3 36 c8 0e 8f b7
       2.2707629e-05 4.243027e-06 5.3349822e-06 -1.7053811e-05
000390 8a d1 71 36 6f 1e 74 b6 b0 1f b8 b5 cf 79 db 35
       3.6033766e-06 -3.6376548e-06 -1.3718291e-06 1.6352222e-06
0003a0 3a be ec b7 ca 1b ea 35 52 15 03 b8 c0 9c 12 38
       -2.8221973e-05 1.7442446e-06 -3.125269e-05 3.4955097e-05
0003b0 83 7c ef 36 1b 16 26 38 65 49 a7 b5 be 45 17 b7
       7.13725e-06 3.959807e-05 -1.246383e-06 -9.0165395e-06
0003c0 6b 24 9d 36 9e 0e 4d 37 04 5d 2e b7 2c e7 e8 b6
       4.683204e-06 1.22223555e-05 -1.0392865e-05 -6.9410507e-06
0003d0 0a 7b 84 b7 76 3c 8b 38 5a 68 bd b7 60 21 0a 38
       -1.579292e-05 6.639298e-05 -2.2579148e-05 3.2932847e-05
0003e0 99 c6 54 37 5e 7c 49 37 05 18 09 38 94 2f c6 37
       1.2682424e-05 1.200949e-05 3.2685715e-05 2.3625595e-05
0003f0 4f f1 0f 38 bf b7 ce 35 65 bc 0a b8 80 e9 23 37
       3.4318593e-05 1.5401673e-06 -3.307722e-05 9.769923e-06

encoder_var.0.bias f4 [20]
000000 da 41 94 31 fc f5 96 b2 9e 2f 21 b2 de e2 12 b1
       4.3148534e-09 -1.7574159e-08 -9.38226e-09 -2.1374755e-09
000010 65 36 4c b1 a0 a4 03 af e0 2f 9f 32 9e ef b9 b0
       -2.9716827e-09 -1.1972867e-10 1.8531807e-08 -1.3528625e-09
000020 d8 4d 81 31 c9 13 d6 b1 c8 a2 2b b0 1b d5 ab b1
       3.763244e-09 -6.230469e-09 -6.2440764e-10 -5.0009823e-09
000030 e5 d8 ce b0 70 06 05 31 40 3e 33 34 d4 2e 04 32
       -1.5050118e-09 1.9357707e-09 1.669332e-07 7.694059e-09
000040 72 a6 a1 35 65 ea 8e b2 d4 b8 4b b1 54 ce 58 30
       1.2043877e-06 -1.6637566e-08 -2.964545e-09 7.887355e-10

encoder_var.1.weight f4 [20]
000000 e1 d2 01 38 0c a3 b4 b8 69 9a b2 b8 7c 32 da b8
       3.0952393e-05 -8.613439e-05 -8.5164625e-05 -0.000104044535
000010 9d a5 19 b7 46 5f 10 b9 1a 3d d2 b7 0d 2b 61 b8
       -9.1580705e-06 -0.00013768402 -2.5062403e-05 -5.3684274e-05
000020 b7 fd c2 b8 8d ff 3d 37 7d c9 5f b8 5f 55 14 39
       -9.297899e-05 1.1324778e-05 -5.3354994e-05 0.00014146183
000030 c1 1a a6 b8 8c 94 08 b8 45 16 ad 3d 52 9e 12 b9
       -7.92048e-05 -3.256327e-05 0.08451513 -0.00013982624
000040 d2 a3 f1 3d 7f 3b 1d b8 8d 5d 8c b7 e7 ed 06 b9
       0.11798824 -3.7487127e-05 -1.6732864e-05 -0.00012867861

encoder_var.1.bias f4 [20]
000000 fe 86 7e b8 6e a4 ab 38 27 d3 91 37 66 28 74 38
       -6.068404e-05 8.184543e-05 1.7383672e-05 5.8211757e-05
000010 00 dc 85 39 e2 97 b5 37 2e f1 00 38 40 2e aa 37
       0.0002553165 2.1647607e-05 3.0742194e-05 2.0287116e-05
000020 b8 19 9d 36 b4 0a df 38 dc 03 f7 36 72 65 c4 38
       4.6819587e-06 0.00010635462 7.361623e-06 9.364904e-05
000030 ae 89 e0 37 63 4c 50 38 c3 a6 70 bd 68 1e 03 39
       2.6766993e-05 4.9662205e-05 -0.058752786 0.00012504461
000040 50 06 ef bb c8 e2 0a b8 be c2 64 38 04 07 44 b7
       -0.0072944537 -3.311297e-05 5.4540804e-05 -1.1684144e-05

encoder_var.1.running_mean f4 [20]
000000 e7 3e 56 38 2d f3 1b 37 6a fa c3 36 cd 49 cf 36
       5.108016e-05 9.295339e-06 5.840605e-06 6.1776723e-06
000010 af f6 ac 38 d8 43 2d b8 25 4f da b6 70 69 b4 37
       8.2475475e-05 -4.13096e-05 -6.50612e-06 2.150677e-05
000020 51 4e 0b 39 e3 11 b5 36 e2 b7 d2 37 1b 43 3d 39
       0.00013285248 5.3963026e-06 2.5119578e-05 0.00018049443
000030 c0 68 8e 38 0e 53 45 b7 18 9a 2a bd 8b 0c 95 37
       6.790599e-05 -1.1761453e-05 -0.04165086 1.7768025e-05
000040 38 ed 9e bd a3 67 dd b6 81 28 8d 37 2a 7d f4 37
       -0.0776009 -6.598378e-06 1.6827371e-05 2.914535e-05

encoder_var.1.running_var f4 [20]
000000 61 d4 3e 33 5f b3 5f 31 0e c2 95 31 bf 5a 6d 31
       4.443098e-08 3.2552732e-09 4.358532e-09 3.4539622e-09
000010 52 be 42 32 f1 97 e7 31 d3 fb a2 30 d7 75 80 30
       1.133556e-08 6.7402586e-09 1.1858624e-09 9.346718e-10
000020 e7 fd 2e 33 38 ce 8e 31 94 7b 7d 30 b9 10 dd 32
       4.0743455e-08 4.1561883e-09 9.221648e-10 2.573539e-08
000030 19 34 cc 31 a8 2c d0 30 c1 b9 70 3a 19 c6 dc 31
       5.9431042e-09 1.5146684e-09 0.0009182953 6.425364e-09
000040 3f 36 9d 3a b0 85 51 30 c8 d5 25 31 9d 84 a9 31
       0.0011994316 7.622374e-10 2.413218e-09 4.9336237e-09
