generativecf/models/adult-margin-0.165-validity_reg-42.0-epoch-25-base-gen.pth (torch_old, 37228 bytes, 78 tensors)

encoder_mean.0.weight f4 [20, 30]
000000 8d b2 a4 be 69 1a 20 be 4b 6d bf 3c 05 03 c4 3d
       -0.32167473 -0.15635075 0.023367545 0.095708884
000010 82 2b 6e bd 4a 54 20 be 01 84 16 bd 02 4e 71 3c
       -0.05814696 -0.15657154 -0.036746982 0.014728071
000020 70 99 a9 bc bc 8f 4f 3d 90 5f bd 3c ec 9a 57 bd
       -0.020703048 0.050674185 0.023116857 -0.05263798
000030 c4 cd 97 bc 08 f2 9a 3d b7 23 45 3d 7c 42 f9 bd
       -0.018530734 0.07565695 0.048129763 -0.12170884
000040 d5 c7 7b 3d 76 43 15 3d 85 03 fa 3c 84 b9 5f 3c
       0.06146987 0.03644129 0.030519256 0.01365507
000050 33 19 90 3d 88 da b5 3d a0 27 ea 3d 07 20 1b bc
       0.07036056 0.08879572 0.11433339 -0.009468085
000060 b1 68 04 bd 7b 5f 2a 3c ed 1e a6 3d 29 de b1 bd
       -0.032326404 0.010398741 0.081113674 -0.08684952
000070 82 bc a9 3d 8f af a5 3d 5e 3d ce bd 91 1a 85 3d
       0.08287908 0.08090126 -0.100702986 0.06499208
000080 1a b2 85 3d 9e 76 50 3d d4 e3 c2 bd 52 d0 6f 3d
       0.06528111 0.050894372 -0.09516111 0.05854828
000090 77 a0 3d bc 5c 28 5d 3d 93 22 41 bd 19 2a 4a 3e
       -0.011573902 0.053993568 -0.047152113 0.19742621
0000a0 ff d9 64 3c 8b 05 a0 bc f5 23 bd bc 7d 3f ba bd
       0.01396799 -0.019533893 -0.023088435 -0.09094141
0000b0 65 31 df 3c a1 2f cc bd 4e 33 41 3d e7 3b 02 3e
       0.027245233 -0.09970022 0.04716807 0.12718163
0000c0 5e 19 9f 3c 4c 24 03 be ca 4d 00 3e 46 bf f2 bc
       0.019421276 -0.12806815 0.12529674 -0.029632222
0000d0 4f 3c 12 3d a9 b4 9a bb ef 8d 06 bd f0 ec ac bd
       0.035702046 -0.0047212434 -0.032850202 -0.0844363
0000e0 98 82 12 3d ea 0d 4d bc 65 85 c6 bd bf ed 66 3e
       0.035769075 -0.012515524 -0.09693412 0.2255163
0000f0 9f a0 70 bc b7 b7 5d 3d ab 53 bb 3d fb 3f ba 3d
       -0.014686733 0.054130282 0.09146818 0.090942346
000100 47 72 9f bc 8c e7 76 bd 6a e5 22 bd f2 5b 8f 3d
       -0.019463671 -0.060279414 -0.039769568 0.06999959
000110 2e d9 67 ba 5f 5a 4b 3d 3e 14 1f bc 0a 09 a3 bc
       -0.0008844313 0.04964673 -0.009709416 -0.019901771
000120 9f 18 22 bc 9e 16 ce 3d af 87 ce 3d 34 26 58 bd
       -0.009893565 0.10062908 0.10084473 -0.05277081
000130 88 14 bf 3c 7a 79 f8 3d 26 9e c0 3d 18 5f a9 bc
       0.02332522 0.12132545 0.094051644 -0.020675227
000140 46 17 4d bd 09 57 97 bd bb 7a 97 bc 75 82 99 3d
       -0.050071023 -0.073896475 -0.01849114 0.07495586
000150 2c 43 7b 3d a1 4b c5 3d 18 60 da bd d6 2a 31 3c
       0.061343357 0.09633566 -0.1066286 0.010813436
000160 0c f5 84 bd 7b 35 0f bc fa ed 61 bf fd ba d4 bd
       -0.064920515 -0.008740778 -0.8825375 -0.10387228
000170 58 9e b5 bd e7 e7 87 bc 0d f7 a0 bd 6e 28 8c bd
       -0.08868092 -0.016590072 -0.07859621 -0.06843649
000180 01 e3 59 3c df 4c ae 3c ca 33 1f 3d d3 a2 05 3c
       0.013298751 0.02127689 0.03886775 0.008156496
000190 d7 2d 63 3d 80 4e 6d bd 75 5a 4d 3d 0d 90 d9 3c
       0.05546364 -0.05793619 0.050135095 0.026557947
0001a0 97 f7 97 3d f4 07 af 3d 00 c5 4f 3d 47 72 91 3d
       0.07420271 0.08546439 0.050724983 0.07101875
0001b0 f1 a1 9d 3d 53 c6 24 ba a7 56 47 bd 65 94 cd 3c
       0.076969035 -0.0006285656 -0.048666622 0.025095174
0001c0 07 0e 8a 3a 73 28 92 3b ce 6c cc bb 91 35 0e 3d
       0.0010532745 0.0044603883 -0.0062385565 0.034719054
0001d0 8f f4 46 3d 4d e6 a2 bc 1d 42 f5 bc 70 13 1b 3e
       0.048573073 -0.019885207 -0.029938752 0.15144134
0001e0 bf 42 e2 3e b1 04 e2 3d 42 62 84 3d 3d 05 6a 3d
       0.44191548 0.11036051 0.06464054 0.057133902
0001f0 b3 73 74 3c 3c 10 20 bd fa 65 93 bc 1d 2d 8f bd
       0.014920163 -0.039077982 -0.017992962 -0.069910266
000200 01 7a 82 3d 88 e4 14 3c f2 e7 be 3c ee 5a 57 bd
       0.06370927 0.009087689 0.02330396 -0.05257695
000210 d2 66 fe bb 7f b9 e1 bb 27 c4 0a 3e ac ba de 3d
       -0.007763722 -0.006888568 0.13551389 0.108754486
000220 41 76 d0 3d d6 53 7d 3d 68 cd d0 3d ea e4 55 3d
       0.10178805 0.06184753 0.10195428 0.052220263
000230 5d e5 d6 3c 4a 71 23 3d 93 b0 de ba b9 04 0b bd
       0.026232416 0.039902963 -0.0016989879 -0.03394005
000240 a4 88 a7 3c a8 26 ab bd d4 50 9e 3c 7b 12 e3 3b
       0.020450898 -0.083569825 0.019325651 0.0069296933
000250 70 8c 4a bc 35 31 a5 bd 10 1b d0 3e 96 00 08 3e
       -0.0123625845 -0.08066026 0.40645647 0.13281474
000260 01 3d 7a 3d 2f 90 1d bd 75 a3 b5 3d 43 41 01 3d
       0.061093334 -0.038467582 0.088690676 0.03155638
000270 38 13 3b 3d f3 47 81 bc 37 18 7e bd 78 d3 44 bd
       0.045672625 -0.015781378 -0.06203481 -0.048053235
000280 80 09 8f 3c be fe 97 bc 4e 11 76 bd 7b 49 0d bd
       0.017460585 -0.018554088 -0.060075097 -0.034493905
000290 a2 03 d2 3c ec b8 f8 3d 0c 6a b6 bd fa c9 20 3d
       0.025636498 0.12144646 -0.089069456 0.03925512
0002a0 06 34 8f 3d b8 5a f0 bc c3 5c 1a bd f1 0c 59 bc
       0.069923446 -0.029340133 -0.03768612 -0.013247714
0002b0 d7 2a 92 3d 33 5a 35 3d a0 5a 8c 3d fd e5 6d bd
       0.07137077 0.044275474 0.06853223 -0.058080662
0002c0 0a 12 86 bd 00 38 c7 bd fc 01 40 3d 8f eb 13 be
       -0.065464094 -0.09727478 0.046876892 -0.14445327
0002d0 99 8a 66 be 21 fb 75 bf 1a 2b 88 3d 87 e8 87 3d
       -0.22513808 -0.9608632 0.06648846 0.06636148
0002e0 90 63 47 3d 99 64 87 3d 5f 43 3a bc e1 74 e5 3b
       0.048678935 0.06610984 -0.011368602 0.0070024584
0002f0 82 07 cb 3c 89 0b 37 bb 9a 10 63 3b ad 01 8b bb
       0.024783853 -0.002793046 0.0034647346 -0.004242143
000300 fc 8d 21 3c ab af 5f bc f3 ad 4d 3d 20 8c 37 3d
       0.009860512 -0.013652722 0.05021472 0.044811368
000310 22 fe 31 3d 0b 07 1a 3d 06 7b 3d 3d 20 b4 c4 3b
       0.04345525 0.037604373 0.046259902 0.006002918
000320 89 25 42 3c 4d 74 a4 3b 73 d3 58 ba 9f dd cc bb
       0.011849769 0.005018747 -0.00082712545 -0.006252005
000330 6b 4d 87 39 85 06 5b 3c 03 38 42 3c 1f 3d ea 3c
       0.00025806887 0.013368254 0.011854175 0.028593598
000340 c0 5d 01 3d 49 cf 17 3e 4b 04 16 3e 83 50 8d 3e
       0.031583548 0.14825167 0.14650075 0.27600488
000350 c1 28 d0 3c 3a 67 76 3d 24 9b d5 bd 73 2d d5 3b
       0.025410058 0.06015704 -0.10429981 0.006505662
000360 eb 5c 56 bd 19 de ca 3d 52 bd 0d 3d b1 11 a9 3c
       -0.052334707 0.09905643 0.034604378 0.020638319
000370 50 d4 26 3d 60 d8 44 3c 77 3c 8b bd 62 ed 69 bb
       0.04072982 0.012014478 -0.06798642 -0.003569447
000380 e2 2a d0 3b 7a 0b b1 3d 53 fe c2 3a 10 7a bb bd
       0.0063527683 0.08644767 0.001487682 -0.09154141
000390 bf ea b5 3c ea f7 a1 bc 43 41 90 bd b0 80 b3 3d
       0.022206662 -0.019771535 -0.07043698 0.087647796
0003a0 a0 a0 0d 3e 61 30 07 3d 9d bb 38 3d 29 1f ca bd
       0.13830805 0.033005122 0.045100797 -0.098692246
0003b0 fc 30 67 bd f5 6f 57 bd 86 b9 94 3b 51 21 51 be
       -0.0564432 -0.052597005 0.0045387177 -0.20422865
0003c0 28 7e 78 3e 23 d0 22 be 8e 32 e9 3c 00 a5 43 3e
       0.24266875 -0.1589971 0.02846649 0.19105911
0003d0 93 81 ae 3d 71 1a 46 bd 22 88 3c bd af 92 e5 3c
       0.08520808 -0.04836506 -0.046028264 0.028024046
0003e0 71 1f cb 3d dd cc 26 3d b8 53 9d 3b 72 d2 f4 bc
       0.09918106 0.040722717 0.00480124 -0.029885504
0003f0 d0 a3 0d 3e 8a cc 7f 3b 68 29 0b 3e bc ca bb bd
       0.13832021 0.0039031827 0.13590014 -0.09169528

encoder_mean.0.bias f4 [20]
000000 8f 02 07 39 62 fa 79 39 7e ed db b7 ab 33 bb 37
       0.00012875556 0.00023839765 -2.6217425e-05 2.2316197e-05
000010 3c e7 32 38 ef 6b a0 b6 10 8e 07 38 71 38 00 b9
       4.265386e-05 -4.7809367e-06 3.2318814e-05 -0.00012228057
000020 a3 27 57 b9 ea 5a 15 39 73 b4 97 38 86 11 cc b7
       -0.00020518764 0.00014243615 7.2338524e-05 -2.4326855e-05
000030 36 73 5e 39 23 ab af 38 9e ed 01 b8 a7 be f1 b7
       0.00021214489 8.376527e-05 -3.0977295e-05 -2.8818218e-05
000040 8c f3 c2 37 5c 4b d2 b8 89 1b 83 38 4e 43 25 b7
       2.3240013e-05 -0.00010027617 6.2516956e-05 -9.850437e-06

encoder_mean.1.weight f4 [20]
000000 a2 83 9c 3e 51 58 20 3f 2a 00 b4 3e 22 c2 58 3f
       0.30569178 0.6263476 0.35156375 0.84671223
000010 04 7e 08 3f c9 29 fa 3e 09 e7 66 3f 62 73 23 3f
       0.53317285 0.48860005 0.9019628 0.63847935
000020 12 52 dc 3e 3e 34 37 3f 12 c6 e6 3e 06 e9 23 3f
       0.43031365 0.7156409 0.4507299 0.6402744
000030 4a 19 da 3e bd 9f 07 3f c2 5e a5 3e 18 e3 50 3f
       0.4259742 0.52978116 0.32298857 0.8159652
000040 1d 75 29 3f 99 11 62 3f 21 94 26 3f b7 db 8b 3e
       0.66194326 0.883081 0.65069777 0.27316067

encoder_mean.1.bias f4 [20]
000000 05 5c 05 bd 2b db eb bc 25 b7 81 bd c7 24 65 bd
       -0.03255846 -0.02879103 -0.0633376 -0.055943277
000010 65 6d b1 bd 9d 18 af bb 98 e0 23 3c f8 04 97 bd
       -0.086634435 -0.0053435103 0.010002278 -0.073739946
000020 c8 63 77 bd 70 5d b0 3e 18 f0 27 3e 63 4d c3 3e
       -0.060397893 0.34446287 0.16400182 0.3814498
000030 84 87 0d be 54 c9 51 3e 21 9f d0 bd 5e f3 23 be
       -0.13821226 0.20486957 -0.101866014 -0.16010806
000040 eb 80 06 3e 96 84 0e be c3 3d 62 3d 1c 69 2d be
       0.13135116 -0.13917765 0.05523468 -0.16934627

encoder_mean.1.running_mean f4 [20]
000000 a0 bb 85 bd 6f eb d7 3d e4 7e 1c bd 6b 5f 69 be
       -0.06529927 0.10542952 -0.03820695 -0.22790305
000010 53 15 a3 3e 2c 8f d7 3d 0b ce 46 be 60 be e1 bd
       0.31852207 0.10525355 -0.19414537 -0.11022639
000020 99 93 2d bd f2 41 4d 3f 61 10 fb 3e 76 f5 41 bc
       -0.04237709 0.8017875 0.49035934 -0.011838308
000030 a6 6c 05 3e 67 a5 90 3e ff 1c d5 3e c5 f4 a4 bd
       0.13029727 0.28251192 0.41623685 -0.080544986
000040 15 1b eb bd a9 3f 19 be 21 9d 9a 3d 9d 6e 05 3f
       -0.11479775 -0.1496569 0.07549501 0.5212191

encoder_mean.1.running_var f4 [20]
000000 df df 9c 3c ff f6 4e 3d 81 5a 07 3d 84 8c 6a 3c
       0.019149719 0.050528523 0.033045296 0.014315728
000010 1c 02 3f 3c 16 93 9b 3c 98 99 73 3c 4c fa da 3c
       0.011658218 0.018991034 0.014868163 0.026730679
000020 3b f2 03 3d 3a 24 94 3c 00 8e 37 3c ba b6 91 3c
       0.03221343 0.01808368 0.011203289 0.017787326
000030 65 f0 b4 3c b8 e1 6d 3c 7a 27 f5 3c 9f b4 4b 3c
       0.022087285 0.014519148 0.02992605 0.0124332
000040 f1 8b a6 3c 9d 69 a2 3c aa 93 a0 3c 93 23 10 3d
       0.020330401 0.019825751 0.019601662 0.035190176

encoder_mean.4.weight f4 [16, 20]
000000 9d 75 02 bc 1d 05 85 3c ea 5e 8d 3b cd 16 3d 3e
       -0.0079626115 0.01623779 0.004314293 0.18465729
000010 75 12 92 bd be 94 69 bd 8a 0f c4 3d 34 c6 ba bd
       -0.07132427 -0.057026617 0.09573276 -0.091198355
000020 5b 26 01 bd c5 31 69 be 76 15 f3 bd ae db 7c be
       -0.03153072 -0.22772892 -0.11869328 -0.24693176
000030 ba e4 04 3e 39 12 c3 bd bf 77 5d 3c 9d ac ec bc
       0.12977877 -0.0952496 0.013517319 -0.028890902
000040 82 c4 c5 3d 2d ed 0c be 19 1b 50 3d 9c ec c8 bd
       0.096566215 -0.1376235 0.050807092 -0.09810755
000050 da 77 86 bd 84 ea 31 3d 4c 45 c5 3c a1 e9 d6 bd
       -0.065658286 0.043436542 0.024080895 -0.1049378
000060 d7 40 b0 3d c9 d7 f3 3d 70 bc a0 be d9 3f d8 bd
       0.08606117 0.11906392 -0.31393766 -0.10559053
000070 5b 44 a1 3c 6d 28 85 3e ca dc f8 3c e7 72 06 3e
       0.019685915 0.26007405 0.030378718 0.1312977
000080 f3 26 e6 bd f1 08 20 3e 4e 08 ff 3d 79 5f 7d be
       -0.11237898 0.15628411 0.12452756 -0.24743451
000090 b6 44 b8 bd 37 20 11 bd 54 0c 2e 3e 92 9f cc 3c
       -0.089974806 -0.035431113 0.1699689 0.024978433
0000a0 cb 51 f5 bd 6e 6f eb bd 2a cb 1a 3d f0 06 23 3e
       -0.119784914 -0.11495863 0.03779141 0.15920615
0000b0 de ce d4 3d 56 71 fd bd ff c4 ba 3e 23 fb 21 be
       0.10391019 -0.12375133 0.3647842 -0.15818457
0000c0 27 61 22 bd b4 31 65 bc 50 0a c9 bd 21 7d 0f 3e
       -0.039643433 -0.013988901 -0.0981642 0.14012577
0000d0 ca 19 ee 3d c1 0a b2 3d 6b 1d 6c 3d 73 0d b6 3e
       0.116260126 0.086934574 0.057645243 0.35557136
0000e0 1c 45 85 bd ec be 09 3e 08 c4 a7 3d 44 7d d7 bc
       -0.06507322 0.13451737 0.08191687 -0.026304848
0000f0 a2 ea d2 3b 25 00 4d bb fb a3 9d bc b1 df f0 bd
       0.006436662 -0.0031280604 -0.019243231 -0.11761416
000100 e9 d4 3f bd b8 f0 ae bd 26 b7 83 bd ba 1a ff 3c
       -0.046833906 -0.08542007 -0.06431417 0.031140674
000110 da b1 39 bc f6 06 b8 bd 1a 37 5c 3d 79 6f 5d bc
       -0.011333907 -0.08985703 0.053763486 -0.013515347
000120 62 b7 d5 bd 30 f4 8e bc f0 2a 96 bd a6 15 64 bd
       -0.10435368 -0.017450422 -0.073324084 -0.055684708
000130 bb df 22 be 46 44 e7 3e 04 05 93 3d af 1f ce bd
       -0.15905659 0.45169276 0.07178691 -0.10064637
000140 69 60 c8 bd f0 9c ea bd 4a fb 0e 3d c7 42 8d 3c
       -0.09784014 -0.11455715 0.034907617 0.017243756
000150 ac 7a 28 3e fc 58 ad 3d 18 bb 0d be ee 4b 3e 3d
       0.16453046 0.08464238 -0.13840902 0.04645913
000160 03 01 21 be ce 69 01 bd e5 e1 87 3d db 46 22 bd
       -0.15723042 -0.031595044 0.06634883 -0.039618354
000170 ff 24 e1 3c 81 db 82 bd 37 4e f2 bd b7 5a 81 bd
       0.027483461 -0.06389523 -0.118313245 -0.063161306
000180 b0 a8 49 3e f0 0e 40 be 9e d5 90 3e 8d fc 51 3c
       0.19693255 -0.18755698 0.28287977 0.01281656
000190 36 b1 28 bd 36 b9 09 be ca 27 21 be 7b d5 eb bd
       -0.041184627 -0.13449559 -0.15737835 -0.115153275
0001a0 53 5e f0 3d 36 bd de 3c b4 d9 58 be c0 41 57 3e
       0.11736741 0.027189832 -0.21176797 0.21021175
0001b0 1d 40 bb 3d 1b 99 54 3d 6b c9 17 3e 00 59 6a 3c
       0.09143088 0.051903825 0.14822929 0.014303446
0001c0 50 8e 56 bd ae 91 bb bd 8b 4e 3a bd 79 03 6b bd
       -0.052381814 -0.091586456 -0.04548506 -0.05737636
0001d0 ec c7 cd 3d ed e5 c8 ba e7 2e 54 3e ec fc b3 3d
       0.10047898 -0.0015327312 0.20721017 0.087884754
0001e0 b0 57 49 b9 ad 21 2b 3e ff 32 27 bc 91 8e 7d 3e
       -0.0001920152 0.16712065 -0.0102050295 0.24761416
0001f0 39 5c 32 3d 80 5f d2 bd 77 8e 21 3e a3 03 d6 3d
       0.04354498 -0.102721214 0.15777002 0.104499124
000200 ce 47 14 3e a5 ea 37 3d 69 87 56 be d7 86 05 3d
       0.14480516 0.04490151 -0.20950092 0.032599296
000210 ed d8 1f bd c9 68 a5 3c 69 84 d7 bc fb 0d 98 3e
       -0.039025236 0.020191567 -0.026308255 0.29698166
000220 86 a9 7b bc 9f 7d 30 3e 31 88 42 3d 62 dd 47 be
       -0.015360242 0.1723542 0.047493163 -0.19518045
000230 4c 24 46 3d 0b 46 fb bc ed 55 42 3d 8b fd b1 3d
       0.04837446 -0.030673048 0.047445226 0.086909376
000240 02 e6 01 be 2b ca cd 3c 0a c9 9f bd a6 c6 db 3d
       -0.12685397 0.025120815 -0.07802017 0.107312486
000250 00 62 6e bd 4f 10 21 be 0f c0 86 bc be 70 6d 3b
       -0.05819893 -0.15728877 -0.016449003 0.003623053
000260 43 b9 22 3e 08 c7 5c be 27 db 97 bd 40 8a bc bd
       0.15890984 -0.215603 -0.07414847 -0.092060566
000270 25 ad 26 3e d7 78 0f be 7f d1 98 bd d9 8b 44 3d
       0.16276987 -0.1401094 -0.07461833 0.04798493
000280 3c b1 0e 3d 03 f3 58 3d de 3a e1 bd 91 c9 11 bd
       0.034836993 0.05296613 -0.10997556 -0.03559262
000290 da 7c b6 bd 38 17 78 3c bb f1 b7 3e bb ab 0c 3d
       -0.08910532 0.0151422545 0.35926613 0.034343462
0002a0 38 88 49 3c 2a a3 89 3d b0 49 5d bd 6a 3c 62 3e
       0.0123005435 0.06720574 -0.054025352 0.22093359
0002b0 67 6c 00 3d ab d7 76 3d c1 1a b1 3d d5 5d 94 3e
       0.03135338 0.06026427 0.08647681 0.28977838
0002c0 f4 ab 1d be 81 fa ca 3d 39 61 b3 3c 6f f2 4b 3d
       -0.15397626 0.09911061 0.021896945 0.04979175
0002d0 e8 ab b0 bd 31 28 1d 3e b1 cd fc 3d 6e 15 a4 bd
       -0.086265385 0.15347363 0.1234392 -0.080119
0002e0 3f 6a 5d bb 8c ac 42 bd 26 56 00 be 97 8d e7 3d
       -0.0033785251 -0.047527835 -0.12532863 0.11306303
0002f0 e7 d8 75 3c 2b c1 8b 3e ff ad 14 bd ca 5a 3a bd
       0.015005327 0.27295813 -0.036298748 -0.04549674
000300 95 06 db bc f8 f7 5c 3e 4b 6f 32 bd a2 e1 dc bc
       -0.026736537 0.21578968 -0.04356317 -0.026963059
000310 d8 86 b9 3d 56 6d c8 bd 9a 65 62 3e ef c4 a0 3d
       0.090589225 -0.09786479 0.2210907 0.07850062
000320 e4 29 25 3d e1 bf 7d 3d 12 b6 f2 3b 06 1c ef 3d
       0.040323153 0.061950568 0.0074069584 0.11675267
000330 a7 b1 0e bd 5e c3 2a bd 48 0c f1 3d 0e 73 79 bd
       -0.03483739 -0.041690223 0.117699206 -0.06090074
000340 06 b1 bc bd 08 bc 8c be 32 65 c7 bd ad d3 8a be
       -0.09213452 -0.27487206 -0.09736098 -0.2711462
000350 43 34 b9 3d 57 6d 4d be ff d1 86 bc cc 88 5e 3b
       0.09043171 -0.20061241 -0.016457556 0.003395605
000360 ee 87 9f 3e af aa 2c be 3f f7 02 be 41 8b f5 bd
       0.31158394 -0.16861986 -0.1278963 -0.11989451
000370 23 5e ea 3d fc bb b1 3d 77 07 11 bd 8f 7b b9 3d
       0.114437364 0.08678433 -0.03540751 0.0905677
000380 e8 6d 9c 3d 39 91 1e bd 70 e3 e2 bd 8e c4 12 3d
       0.076381505 -0.038712714 -0.110785365 0.03583198
000390 54 ec 6c bc c7 e8 06 be 57 73 ba 3d 73 1e be bd
       -0.014460642 -0.13174735 0.091040306 -0.092831515
0003a0 61 2d 79 3a 47 39 b1 bd 25 8b 9d 3c d0 12 17 be
       0.0009505358 -0.08653503 0.019231388 -0.1475327
0003b0 dd 26 28 3e c2 c1 1e be ff 9b aa bc f2 48 44 3d
       0.16421075 -0.155036 -0.020826338 0.04792113
0003c0 ca 2f 2e 3d 30 dd 4e 3d 2e c4 44 bd f5 5a 86 bd
       0.042526044 0.05050391 -0.048038654 -0.065603174
0003d0 15 39 a2 bd e4 d0 86 bc 4c 7e 76 bd cd dd 98 bd
       -0.07921044 -0.016457029 -0.06017904 -0.0746418
0003e0 be a8 3c 3c 02 f4 c6 3c 49 c5 b9 bd ba a0 9f bd
       0.011514841 0.024286274 -0.09070832 -0.07794328
0003f0 82 5f 88 bd f5 3c 92 bd d5 e4 a7 3c 75 03 c6 3d
       -0.06658842 -0.07140533 0.020494858 0.09668628

encoder_mean.4.bias f4 [16]
000000 da aa 9f 38 75 75 24 b7 73 4a 7b b9 1e 6d cb 36
       7.6135344e-05 -9.802509e-06 -0.0002396496 6.0625744e-06
000010 30 76 f5 b7 76 bc f5 37 9a 1b cc 38 b5 ca 3d 38
       -2.9261311e-05 2.9294035e-05 9.732619e-05 4.5249897e-05
000020 a1 34 45 b9 0c 19 3c b8 64 d9 a7 38 97 48 a6 39
       -0.0001880699 -4.484602e-05 8.003673e-05 0.0003171607
000030 bf e8 08 b9 72 ce 1b b9 45 b3 54 39 4d 33 0e b8
       -0.00013056675 -0.00014858859 0.00020284679 -3.3903216e-05

encoder_mean.5.weight f4 [16]
000000 db 73 12 3f f3 da 23 3f be 30 0e 3f 05 71 31 3f
       0.5720803 0.64005965 0.55543125 0.6931308
000010 26 f6 1c 3f bc ad 48 3f 07 2e 3c 3f db 58 fd 3e
       0.6131309 0.783901 0.7350773 0.49481854
000020 e8 87 1d 3f 73 77 c2 3e aa 3f 34 3f e4 20 08 3f
       0.615355 0.37981758 0.70409644 0.5317519
000030 05 d6 35 3f 35 a0 2d 3f 9a 52 20 3f 37 2e de 3e
       0.7102969 0.6782258 0.6262604 0.43394634

encoder_mean.5.bias f4 [16]
000000 5b 2e 80 3c 51 d3 19 3e c6 ca 45 3e 98 11 6a 3d
       0.015647104 0.15022017 0.19315633 0.057145685
000010 f8 e0 03 3d 37 81 f3 bb db 88 97 bc f7 4b 9e 3d
       0.03219697 -0.007431175 -0.018497875 0.07729333
000020 84 ca 4f 3d d6 ca 09 3e e6 c5 7d bd 75 ef b8 3d
       0.050730243 0.13456282 -0.06195631 0.09030048
000030 28 51 28 bd 3b 1a 7d be b3 5a 09 3e 4a 0d 3c bd
       -0.04109302 -0.24717037 0.13413505 -0.04591111

encoder_mean.5.running_mean f4 [16]
000000 37 d4 87 be 36 3a c2 3d fa 3c 89 3e 08 d2 dd bc
       -0.26529095 0.09483759 0.26804334 -0.02707769
000010 b7 81 4d bc 87 82 99 3d f3 fa 9a 3e 7b 90 1f be
       -0.012543133 0.07495599 0.30269584 -0.15582459
000020 0c b1 9a 3e 86 c0 5b 3e 6b 14 90 be 6c 7e b3 bd
       0.302132 0.2146016 -0.28140578 -0.087643474
000030 82 47 7e bc 85 17 93 be c1 b1 3f 3e f3 a5 ba bd
       -0.0155199785 -0.2872888 0.18720151 -0.091136836

encoder_mean.5.running_var f4 [16]
000000 8b 79 46 3e 23 f2 24 3e b3 78 8e 3e 9b 67 94 3d
       0.19382302 0.16107993 0.2782646 0.07246324
000010 b7 2e 36 3e a4 df d9 3d ae 00 27 3e cd d2 19 3e
       0.17791258 0.10638359 0.16308853 0.1502182
000020 be 81 92 3e 6f b5 92 3d 0a bc a1 3e 73 e2 ee 3d
       0.2861461 0.07163512 0.31588775 0.116642855
000030 d7 10 ea 3d b6 3c 93 3e 64 06 9a 3e fb 3a 77 3d
       0.11428993 0.28757256 0.30083 0.060358983

encoder_mean.8.weight f4 [14, 16]
000000 75 fb 71 3e d8 b1 02 be 17 5c 05 3e b4 c3 bf bd
       0.2363108 -0.12763155 0.1302341 -0.09363499
000010 50 d9 e9 bd d1 66 8b be 30 34 17 3e 56 93 53 bc
       -0.11418402 -0.2722688 0.14766002 -0.012913546
000020 fd 08 81 bd db 38 ce bd e7 97 45 3e e5 1f 0f bd
       -0.063005425 -0.10069438 0.19296227 -0.034942526
000030 1c 2f 00 be 6a 62 84 3e b5 0f 70 3d b6 86 c7 bd
       -0.12517971 0.25856334 0.05860873 -0.09742491
000040 e9 7f 07 bd 6a e6 34 3e 05 f2 27 3d 66 ba c9 3d
       -0.03308097 0.17666021 0.041002292 0.09850006
000050 16 b9 46 3e 41 d2 64 3c 1b 2b 82 3b 8f 1d 28 3e
       0.19406542 0.013966144 0.0039724237 0.16417526
000060 66 07 07 3e 0a 0d 8d 3c 77 03 5e 3e 84 a0 18 bc
       0.13186416 0.017218132 0.21681009 -0.009315614
000070 b6 a1 85 3d 5e f2 e9 3d 49 f8 08 3d 2a 3d 64 3d
       0.065249845 0.11423181 0.03343991 0.055722393
000080 a8 e9 d0 3c 72 aa 6d be 6d 37 01 3e 32 22 84 be
       0.025502041 -0.23209551 0.126188 -0.2580734
000090 06 8c 02 3d 64 ef 32 3d 6f a4 bc 3d 4d dd 03 3e
       0.031871818 0.043685332 0.09211051 0.12877388
0000a0 be af 4f be 36 92 5d be 4b 70 23 3d 75 0c 16 bd
       -0.20281884 -0.21637806 0.039902013 -0.036632974
0000b0 b0 47 98 bd da 3b 8b 3e 93 74 47 3e f9 87 13 be
       -0.07435548 0.271941 0.19478063 -0.14407338
0000c0 b6 3a 26 be 9e 48 99 3d 1f a6 0e be 71 4b 06 bd
       -0.16233334 0.07484554 -0.13930558 -0.03278679
0000d0 3b ea 9c bc 86 27 91 3d 09 3c f2 bc 5d 83 18 be
       -0.019154659 0.070876166 -0.029569643 -0.14893861
0000e0 07 3f 01 be 2b f5 62 3d b3 88 5f be 80 fe c6 bd
       -0.126217 0.05540959 -0.2182949 -0.09716511
0000f0 6c 0c f1 bd 59 4f 45 be e4 8e 3b be 32 fb 0a be
       -0.117699474 -0.1926855 -0.18316227 -0.13572386
000100 79 fb 7d bd 8d 41 72 bd 2b d3 19 3e 0c 08 c4 bc
       -0.0620074 -0.059144545 0.1502196 -0.023929618
000110 70 02 f9 3c 1b 7d 98 bc 32 d6 d0 3d 90 74 72 bd
       0.03039667 -0.018614342 0.101971045 -0.059193194
000120 55 b8 13 3e 40 6c a9 3d ab d7 4a be 9e 97 44 be
       0.14425786 0.082726 -0.19808833 -0.19198462
000130 2d db e9 bd cf 41 35 be 40 f7 d5 3d 94 c9 c6 bd
       -0.114187576 -0.17700885 0.1044755 -0.09706417
000140 9e 34 03 3e 96 68 11 be 78 82 d5 bd bb 73 0a be
       0.1281304 -0.14200053 -0.104252756 -0.1352071
000150 b7 40 bb 3d 5a c8 ee 3b cb b3 ec bc 72 71 da 3d
       0.09143203 0.0072870674 -0.028894326 0.10666169
000160 a1 57 8c bd 3a ae c5 bd 74 de 21 3e c9 8e 33 3e
       -0.068526514 -0.09652372 0.15807515 0.17534937
000170 cd 66 19 be 2a 0b 31 3e 82 51 20 bd e9 2e 91 bc
       -0.14980622 0.17289415 -0.039140232 -0.017722564
000180 da 78 07 3e 19 e9 dd bd 56 63 4c be c1 15 b9 bd
       0.13229695 -0.108354755 -0.19959769 -0.09037352
000190 ad 52 c6 bd 79 7d 5e bd 9e 22 6f 3d 8a 83 0b 3e
       -0.09683738 -0.05431888 0.058382623 0.13624397
0001a0 55 8f 44 be 4f cb a0 bd b6 8e a6 3d 5a 12 09 3d
       -0.19195302 -0.07851278 0.08132689 0.033464767
0001b0 62 9c 9a bd a7 a6 e5 bb 8e 75 54 be bf 2c db 3d
       -0.07549359 -0.007008392 -0.20747969 0.10701894
0001c0 10 e8 12 3e 9c 69 27 be 15 c1 2f 3e 5b 59 f8 3d
       0.14346337 -0.1634888 0.17163499 0.12126418
0001d0 3a 0b 1c be d6 bd 45 be be 35 e4 3d 04 1f ea bd
       -0.15238658 -0.19310698 0.11143063 -0.11431697
0001e0 a3 94 b0 3d 78 cd 1e be f1 c8 7c 3d 75 db 44 be
       0.086221 -0.15508068 0.06171507 -0.19224341
0001f0 1c a9 9c 3d 24 dd be 3c 74 8c 11 be 63 ef b7 bd
       0.076494426 0.023298807 -0.14213735 -0.08981206
000200 4c 47 5c 3c bd b1 58 3e 3f 72 f6 3c af d3 aa bd
       0.013444733 0.21161552 0.030083774 -0.08341157
000210 ed 51 4e 3e ad 91 76 3e 25 55 5e b9 a6 d4 81 3d
       0.2014844 0.24079008 -0.00021203289 0.063393876
000220 d6 07 0d be 88 7d 16 bd 1f 26 00 3d 09 d7 02 3d
       -0.1377252 -0.03674081 0.031286355 0.031943355
000230 e7 62 11 be 27 41 23 bd 89 d7 90 3d 47 d6 71 3d
       -0.14197885 -0.039857056 0.0707236 0.05904224
000240 f0 22 41 be 4a 46 61 bd 59 80 50 3d 6b 50 58 3e
       -0.18860984 -0.054998673 0.050903652 0.21124427
000250 8b 79 7c be b7 a0 84 3d d1 67 13 3e 8e ea 74 be
       -0.2465574 0.064759664 0.14395072 -0.239176
000260 81 1e 4e 3d 29 1c 34 bd ff c2 00 be c1 60 6e be
       0.05032206 -0.043972168 -0.12574385 -0.23279096
000270 d3 1a 61 3e d3 ca d7 bd cd 2d 92 3d 8d 8e d0 bd
       0.21982889 -0.105367325 0.07137642 -0.101834394
000280 fd a0 3d be 5d 06 fe bb fe 0d 1d 3c 32 fb 5a 3e
       -0.18518443 -0.0077522234 0.0095858555 0.21384886
000290 49 4f 4b be 13 c6 b4 bd d0 b2 19 3d f5 af b5 bd
       -0.19854464 -0.08826842 0.037524045 -0.08871452
0002a0 fd 5b 41 3e e3 9f da bc 16 cd df bd e3 4e 3d be
       0.18882747 -0.026687568 -0.10927789 -0.18487124
0002b0 b0 e8 07 3e 50 19 cf bd 1e c5 8d 3e a3 60 03 bb
       0.13272357 -0.1011225 0.2768945 -0.0020046614
0002c0 74 b8 52 3e c5 36 03 be ad 92 e1 bd 2b e1 f2 bd
       0.20578176 -0.12813862 -0.11014304 -0.11859354
0002d0 33 5f bb 3c ea 2d d9 bd 7d 80 94 bd 74 17 7d 3d
       0.022872543 -0.106044605 -0.0725107 0.061789945
0002e0 c4 8e 09 be ce d6 62 bd 11 ac 79 3e a1 90 80 3b
       -0.13433367 -0.055380635 0.24382044 0.003923491
0002f0 74 fa 47 bd 3a d0 08 3c 21 52 e4 bd 0e c5 a8 bd
       -0.048822835 0.008350426 -0.11148477 -0.0824071
000300 70 c1 09 3e 8f 5a 73 be ee 2e 3b 3c 74 a9 ab bd
       0.13452697 -0.23765014 0.011424763 -0.0838193
000310 e0 89 92 3d d3 da b9 bd d1 08 14 3d 27 61 c8 3d
       0.07155204 -0.090749405 0.03614122 0.09784155
000320 5a 25 01 be 52 dd 8f bd 4a 67 15 3e 95 94 2f 3e
       -0.12611905 -0.070246354 0.14590183 0.17146523
000330 e2 4d 96 bd 26 8b 73 3e 9a 97 38 3d 68 7f 0f 3b
       -0.07339074 0.2378355 0.045066454 0.0021896008
000340 11 90 3f 3b 81 f9 d2 bc 26 2d 45 3e 9e 5f 8a be
       0.0029230157 -0.025753738 0.19255504 -0.27026075
000350 9b 9e 4a bd 99 a0 b5 bd c9 66 ac bd 77 1d 8d bb
       -0.049467664 -0.08868522 -0.08418042 -0.004306491
000360 ac 50 8f 3e 30 86 0a 3c 44 9d 31 bd 93 0b 80 3d
       0.27991235 0.008454844 -0.04336287 0.062522076
000370 12 f5 6d be 01 18 14 3e f8 4e 33 3d b4 7b ef 3c
       -0.23238018 0.14462282 0.043776482 0.029233791

encoder_mean.8.bias f4 [14]
000000 21 34 ae 38 7e ff 18 38 e6 39 02 38 d1 c3 15 b8
       8.306676e-05 3.647757e-05 3.1048337e-05 -3.5706737e-05
000010 0c 6d 18 39 91 24 fd b7 46 97 49 37 64 8c 1a 39
       0.00014536473 -3.0176978e-05 1.2015755e-05 0.00014738884
000020 38 29 62 37 b6 2b a3 37 81 36 ae b9 33 00 f3 38
       1.3480247e-05 1.9451469e-05 -0.00033228475 0.0001158718
000030 1c b3 94 b8 3d 31 78 b8
       -7.090552e-05 -5.9173664e-05

encoder_mean.9.weight f4 [14]
000000 b8 4d 1c 3f bf dc 0a 3f e0 d5 54 3f 9d 69 37 3f
       0.6105609 0.5424308 0.8313885 0.7164553
000010 eb a2 02 3f cc 23 0c 3f 13 70 2e 3f 83 b7 1b 3f
       0.51029843 0.5474212 0.6813976 0.6082689
000020 92 16 0d 3f 3f 9c 57 3f 88 5a 58 3f 85 13 36 3f
       0.55112565 0.8422279 0.8451314 0.71123534
000030 c4 c9 dd 3e 25 4c 08 3f
       0.43317997 0.5324119

encoder_mean.9.bias f4 [14]
000000 60 39 10 3e 32 bb d5 bd 75 27 17 3e 8c 0c 86 bd
       0.14084387 -0.10436095 0.14761145 -0.06545362
000010 5e df 09 3d 48 45 0b 3e 03 26 51 3c c8 ad 37 3d
       0.033660285 0.13600647 0.01276541 0.044843465
000020 e9 34 5b bd 5c 31 5a 3e b7 7f 1e 3e 30 08 35 3d
       -0.053517256 0.21307892 0.15478407 0.04419726
000030 4e f9 1b 3e 11 8e 29 be
       0.15231821 -0.165581

encoder_mean.9.running_mean f4 [14]
000000 d2 00 b5 bc e1 30 9d 3e c4 50 63 bd 0a cf 93 be
       -0.022095118 0.30701354 -0.055496946 -0.28868896
000010 3d 0d c2 bd f1 01 86 bc 29 9b 26 be d8 1c 19 be
       -0.09475181 -0.016358348 -0.16270126 -0.1495241
000020 b8 a0 2b 3e 7b c5 e1 bd c0 1c 0b bd ff ff 0a be
       0.16760528 -0.110239945 -0.033962965 -0.13574217
000030 e2 01 b2 3c d3 c0 80 bd
       0.021729413 -0.06286778

encoder_mean.9.running_var f4 [14]
000000 6c 44 16 3e 7c e2 55 3d a3 0a c8 3d ec 4f 1a 3e
       0.14674538 0.052217945 0.09767654 0.1506955
000010 ab ed b1 3d e5 26 28 3e e6 d7 2d 3e 5f a9 3b 3e
       0.0868791 0.16421087 0.1697689 0.18326329
000020 d9 49 e6 3d f7 06 a9 3e f3 31 c2 3e 59 bd 1c 3e
       0.11244554 0.33013126 0.37928733 0.15306605
000030 1f 89 f8 3d 63 31 27 3d
       0.12135529 0.040818583

encoder_mean.12.weight f4 [12, 14]
000000 b8 3a 02 bd 11 ff a9 bd 1e d7 3f 3e d3 12 44 be
       -0.03179428 -0.08300603 0.18734404 -0.19147806
000010 20 6f 30 be da f7 8f 3d aa 9a 9a bb 35 b2 03 be
       -0.17229891 0.07029696 -0.0047181444 -0.1286095
000020 8e f1 51 be e8 aa 56 be 66 66 f3 bd d4 5b 49 3e
       -0.20502302 -0.20963633 -0.11884765 0.19663936
000030 65 c5 90 bc b9 9e e5 3d 9e 3b d2 3d 64 8b af bb
       -0.01767225 0.112119146 0.10265277 -0.005357193
000040 72 79 ea 3d ee 0b cc bd 96 69 43 be 89 76 95 bc
       0.11448945 -0.09963213 -0.19083247 -0.018244999
000050 ef 45 66 bd 0f d9 a9 bd 93 be 61 bd 29 f8 d7 3e
       -0.056219038 -0.08293354 -0.055113386 0.4218152
000060 12 24 5d be 10 c3 07 ba 1a 56 16 bd 10 14 59 3d
       -0.21595791 -0.0005178908 -0.036703207 0.05299765
000070 8f da ab bd d1 24 f3 3c c2 4c c2 bd 13 3d e0 3d
       -0.08391296 0.029680641 -0.09487297 0.10949149
000080 6b 68 ca bc e1 77 c8 bd 5c e7 36 bb 1a 80 42 be
       -0.024707993 -0.0978849 -0.0027908897 -0.1899418
000090 73 1f 7b be ea b2 30 be 67 4a 4b be f7 a4 0d bd
       -0.24523716 -0.1725575 -0.19852601 -0.03458115
0000a0 72 8d e7 bd 50 23 69 be 8e 70 7e 3e 43 6b 28 3d
       -0.113062754 -0.22767377 0.24847624 0.041117918
0000b0 28 5b bb bd 7a b7 20 3c 21 24 74 3d b4 05 fd 3d
       -0.09148246 0.009809369 0.059604768 0.123546034
0000c0 88 72 94 3d b9 be 91 3e b8 0e b1 bd bd e5 00 3d
       0.072484076 0.28465822 -0.086453855 0.031469095
0000d0 91 ed 1b 3e 2d 3e 59 3e d8 64 81 ba 5a 18 05 3e
       0.15227343 0.21215124 -0.0009871973 0.1299757
0000e0 1e b3 44 be 1f be 82 3e f9 77 2f be 17 85 72 be
       -0.19208953 0.25535676 -0.1713561 -0.23683582
0000f0 14 5f 2b 3e 1b 13 65 be 47 3b 22 be aa b8 cf 3d
       0.16735488 -0.2237057 -0.15842925 0.10142644
000100 29 96 29 bd 4f 7b 3f 3d 11 a9 c6 3d 63 5c 64 be
       -0.04140297 0.046748456 0.097002156 -0.22300868
000110 ea cc 1d bd f2 fa 42 3e df 06 47 3e 72 95 c7 bd
       -0.0385255 0.1904104 0.19436215 -0.09745301
000120 78 ea 5f 3d 00 c4 2d bd 67 65 7d bd 6c d2 30 3e
       0.054666966 -0.04242325 -0.061864283 0.1726777
000130 cd 33 28 3e ad 80 dd 3d e1 1b 62 be a8 8e 54 be
       0.1642601 0.108155586 -0.22080947 -0.20757544
000140 ef b5 a2 bd 9e d3 f0 bc c1 8e 9a 3e 32 d7 04 bd
       -0.07944857 -0.029397782 0.30187038 -0.03243179
000150 ff 05 e8 3d 92 f6 28 bd 38 a7 98 3c 89 a2 88 be
       0.11329269 -0.041250773 0.018634424 -0.26686504
000160 e8 54 05 be 22 cb 16 3d 2d 2d 07 3e 57 6d 2d 3d
       -0.1302067 0.036814816 0.13200827 0.042340603
000170 9a 0d f2 bd 8d 12 8d bd e7 ea 60 bd be 4c b2 3d
       -0.118190005 -0.06888304 -0.05491152 0.08706044
000180 e8 8f d0 3d 09 89 e5 3d c9 14 96 3d 0d 8f 7b bd
       0.10183698 0.11207778 0.07328183 -0.06141572
000190 f5 7d 02 3e d2 cc a1 bd 89 4c 69 bd 45 54 f4 bd
       0.12743361 -0.079003945 -0.056957755 -0.11930136
0001a0 bb e0 fd bd 43 27 92 3d cf 63 d9 bd 13 d2 68 be
       -0.123963796 0.07136395 -0.1061474 -0.22736387
0001b0 75 a3 ab 3e 9e 02 a3 bd 95 a9 1d bd 13 38 ce 3d
       0.33523145 -0.079594836 -0.038491804 0.10069289
0001c0 60 d1 c8 3c d8 e5 19 3e ac 21 d2 3b 79 13 1d be
       0.0245139 0.15029085 0.0064127054 -0.1533946
0001d0 14 36 27 3e 1a 6b 56 3c 51 1c 80 be 96 b8 e0 3d
       0.16329223 0.013087058 -0.25021604 0.10972707
0001e0 a1 3b d2 bd 92 73 b1 3d d5 4f 18 3d bb 57 e5 bd
       -0.102652796 0.086646214 0.03718551 -0.11198374
0001f0 7d 76 1c 3d 36 24 6e 3e 2a 21 52 be 16 b1 bf bd
       0.038198937 0.23256001 -0.20520464 -0.09359948
000200 7d 34 5a be 74 cd 39 3e 69 66 8e bd 7c 31 2d be
       -0.21309085 0.1814478 -0.06953127 -0.16913408
000210 60 17 fa bd 8c 28 75 be fd d6 8e 3a 98 90 bb 3c
       -0.1221149 -0.23941249 0.0010897812 0.022896096
000220 24 2e 4b bd 69 f0 f0 bd 82 26 7c be 07 d1 ac bd
       -0.04960455 -0.117646046 -0.24624065 -0.08438306
000230 bf a0 c3 bd c7 d6 3d 3d b7 e6 9f bd e0 65 1d bd
       -0.09552144 0.046347406 -0.07807677 -0.038427234
000240 0e 2b 14 3e 04 51 4e be 29 f6 56 be 64 62 72 3d
       0.14469549 -0.20148093 -0.2099234 0.059175864
000250 b7 ed 39 be 97 8a 19 3e d3 c9 ad 3e c6 09 62 be
       -0.18157087 0.14994274 0.33943042 -0.22074041
000260 23 0f b8 bd 35 64 6c 3e 99 74 56 3e 98 37 12 be
       -0.08987262 0.23085101 0.20942916 -0.1427902
000270 b1 7b df 3d 8d a8 64 be 00 03 2e 3d 80 94 d0 3d
       0.10912264 -0.22329922 0.04248333 0.10184574
000280 9f f4 f7 3d 5b 4c d2 3d b6 25 57 bb df b7 69 be
       0.12107205 0.1026847 -0.0032828874 -0.22824048
000290 d7 8f 24 3c 2f 07 d7 3d 41 06 2f 3e 7f 28 20 3c
       0.01004406 0.10499417 0.1709223 0.00977528

encoder_mean.12.bias f4 [12]
000000 14 69 40 38 c6 ac a5 b9 e2 1a 1e b9 b7 fe f7 38
       4.587423e-05 -0.0003159998 -0.00015078069 0.00011825322
000010 93 c9 ad b8 35 8a 55 b9 1e 2a ac 39 23 93 5d 38
       -8.286829e-05 -0.00020364749 0.00032837776 5.2827538e-05
000020 f4 15 aa 37 17 b2 a8 b9 92 ca 79 39 9e b3 b8 38
       2.0275802e-05 -0.00032176144 0.00023821954 8.80726e-05

encoder_mean.13.weight f4 [12]
000000 73 63 52 3f 0a de 61 3f a3 2f 60 3f 92 af 1a 3f
       0.82183 0.8822943 0.8757269 0.6042415
000010 4f 19 5b 3f aa 08 4a 3f 33 c8 36 3f b1 93 52 3f
       0.8558549 0.7891947 0.7139923 0.8225661
000020 9b 2a 48 3f 00 13 78 3f 89 7e 52 3f 30 82 34 3f
       0.7819001 0.9690399 0.8222433 0.7051115

encoder_mean.13.bias f4 [12]
000000 87 c0 70 3e d2 9d 86 bc 11 bc b7 3e e2 36 66 ba
       0.23510943 -0.016432676 0.3588567 -0.0008781982
000010 4f b4 5e 3e 46 d4 c1 3e 65 73 d4 3e 7e f9 65 3d
       0.2174847 0.37857264 0.4149429 0.056146137
000020 bc 84 61 3e 44 d6 89 3e 1b 4a 80 3e dc 40 e9 3e
       0.2202329 0.26921284 0.25056538 0.45557296

encoder_mean.13.running_mean f4 [12]
000000 af 2f ee bd c6 3c 36 3d 68 34 b6 be 1c 3c ae 3e
       -0.11630189 0.04449155 -0.35586858 0.34030235
000010 73 2f 4f be b8 64 fa 3d 41 8c 41 3c 8d 0d 3e bd
       -0.20232944 0.12226242 0.011813224 -0.04639964
000020 b5 e8 fa 3c 33 00 d3 be 8e 98 7e bd 1f 3a 12 3e
       0.030628541 -0.4121109 -0.062157206 0.14279984

encoder_mean.13.running_var f4 [12]
000000 4f ca 60 3e e6 1d 05 3d e9 0d 27 3e e6 32 ea 3d
       0.21952175 0.032499216 0.163139 0.11435489
000010 4a a4 98 3e a4 65 3f 3e 10 da c4 3d fb bd 49 3d
       0.29812843 0.18691117 0.096119046 0.049253445
000020 46 fe 1a 3e c3 05 5c 3e 87 f6 e8 3e 7f 3f 39 3e
       0.1513606 0.21486573 0.45500585 0.18090628

encoder_mean.16.weight f4 [10, 12]
000000 a5 9e 0f be 46 53 af 3e de 07 94 be 3e 06 b2 3d
       -0.14025362 0.3424322 -0.28912252 0.08692597
000010 c9 b2 f3 3d 20 8d 02 bc f4 41 63 3e 90 5a 1f 3e
       0.11899335 -0.007968217 0.22193128 0.1556189
000020 4a 93 bb 3e 98 48 3d be e1 d1 4b 3e 41 df af 3d
       0.3663581 -0.18484724 0.19904281 0.08587504
000030 da 8b 43 bc 54 7b cf 3d 25 d5 99 3c 69 3d fe 3d
       -0.011935199 0.10130945 0.018778393 0.12414057
000040 b1 f6 8e bd 03 81 88 3d d3 a7 8c bd c3 5a 04 be
       -0.069806464 0.06665232 -0.068679474 -0.12925248
000050 c0 fe 69 3d a4 c3 8c bd 04 ad 4f 3e 86 4d 68 3e
       0.057127714 -0.06873253 0.20280844 0.22685823
000060 29 19 54 3e c0 f2 8b 3d ad 4e 07 be d9 2e d6 3d
       0.20712723 0.0683341 -0.13213606 0.10458154
000070 49 6f 44 bc ae 28 b0 bc 36 bf d9 3d 36 fd bb 3d
       -0.011989423 -0.021503773 0.10632174 0.091791555
000080 31 cd 34 bc f6 af 17 be 81 3c 3e bc 58 6b 3b 3e
       -0.01103525 -0.14813218 -0.011611105 0.18302667
000090 5f 8e 6b be 20 36 69 be be 58 70 3e 6d ce b1 bd
       -0.23003529 -0.22774553 0.23471352 -0.08681951
0000a0 d7 d6 91 bd a7 86 b0 be 67 f1 17 be 9c 4e 2b be
       -0.071210556 -0.34477732 -0.14838181 -0.16729206
0000b0 7e ed a7 bd c9 bc c3 3e 13 f4 e6 3d 84 58 2a be
       -0.08199595 0.3822997 0.11277022 -0.16635329
0000c0 f3 50 a2 3e e1 93 66 3e 98 75 a4 be 2f 15 69 3e
       0.31702384 0.22517349 -0.32120967 0.22761987
0000d0 3b 57 21 bd d7 99 91 3e 39 ff a6 3e c3 b4 f9 3d
       -0.03938983 0.28437683 0.32616594 0.12192681
0000e0 01 39 24 3e 98 97 ef be 15 90 65 3d 7f 5a dd 3e
       0.1603737 -0.46795344 0.05604561 0.43233106
0000f0 02 65 2b 3d 75 d0 20 bd 41 20 93 bd 88 60 b1 3d
       0.041844375 -0.0392613 -0.07183886 0.0866099
000100 5f f5 09 3d 1a ce 19 3e 1b 4e bc 3d 5f eb a5 bd
       0.03368127 0.15020028 0.09194585 -0.08101534
000110 f7 9a 5f 3d a0 19 9e 3d 0f 7a bb bd 1d 7f 3e 3d
       0.054591145 0.07719731 -0.0915414 0.046507943
000120 56 a2 18 3d 90 a0 9f 3e 74 4e fd be 58 8c 9a 3d
       0.03726419 0.31177187 -0.49473917 0.075463
000130 1d b8 5c 3e cd d0 70 3e d4 df 18 3e b7 b8 d1 3e
       0.21554609 0.23517151 0.14929134 0.4096124
000140 f9 46 20 3e 49 a4 ba be c8 3a d6 3d a5 52 03 3e
       0.15652074 -0.36453465 0.104604304 0.12824495
000150 11 12 bd 3e 43 2e 8b be 1f 63 21 3e cc 35 82 3d
       0.36927846 -0.27183732 0.15760468 0.06357917
000160 31 b2 1d be 61 e8 33 3e ef 37 af 3b 37 e5 7c be
       -0.15400006 0.17569114 0.005347244 -0.24696814
000170 f2 f3 2c be 61 fd 49 3c ed b9 8c be e5 d0 61 3e
       -0.16889933 0.012328477 -0.274856 0.22052343
000180 63 e3 d2 3d 7c fa 61 be 34 e4 a2 3d ca f3 02 3e
       0.10297277 -0.22068208 0.079536825 0.1278831
000190 47 7a b1 bd c8 b2 df 3d 08 03 10 3e ea 2c 26 bb
       -0.08665901 0.10922772 0.14063656 -0.002535636
0001a0 e1 fd d4 bd 4e f7 ca 3d 1e a3 81 bd e9 f0 e8 bc
       -0.10399986 0.09910451 -0.0632994 -0.028435187
0001b0 61 5c f3 be f5 52 32 3e 13 be 99 be 44 9f 2d 3e
       -0.47531417 0.17414458 -0.30027828 0.16955286
0001c0 3d 1c ef 3e 11 ae c4 be 19 a7 f1 be 26 c0 55 3e
       0.46701232 -0.38414052 -0.47197798 0.2087408
0001d0 6a 3e 94 3e 84 00 86 3e fa e9 d8 3e a5 db 7c be
       0.28953868 0.26172268 0.4236601 -0.24693163

encoder_mean.16.bias f4 [10]
000000 e2 4f 68 be 55 7b 27 be 85 13 fe bd a2 c3 6e 3e
       -0.22686723 -0.16355641 -0.12406067 0.23316815
000010 52 16 db be 4d 90 15 be 7e c4 39 be c6 b6 e3 bd
       -0.42790467 -0.14605828 -0.18141362 -0.11118846
000020 d9 5f 07 be 32 4c 46 3e
       -0.13220157 0.19365004

encoder_var.0.weight f4 [20, 30]
000000 22 a8 64 3b 94 3d 7d 3a d5 de 31 3c 48 84 3f bb
       0.0034890254 0.000966036 0.01085635 -0.0029223133
000010 7f 28 3f 3b ec f4 f0 bb 69 7c 9c ba 2a 46 24 3b
       0.0029168425 -0.0073534157 -0.0011938933 0.0025066235
000020 22 6e 9f 3b 15 d7 fb 3b 1d 2c 38 bb d0 7a ca ba
       0.004865424 0.007685552 -0.0028102465 -0.0015447978
000030 67 f0 53 3b b7 9c c5 3c ad 9b e1 3c e2 8a bd bb
       0.0032339336 0.024122579 0.027540052 -0.0057843784
000040 ca 07 24 bc d7 c0 1c bc 0e bf dd 3b 30 8b 14 3a
       -0.010011623 -0.009567461 0.0067671603 0.00056664925
000050 b7 c7 4b bb 13 ad c9 3b ea fb 1a 3c 90 cc 81 bb
       -0.003109438 0.0061546653 0.009459475 -0.0039611533
000060 4c 6e 0f bb 62 6b 34 bc fb 65 2d 3c 3a ee 7f 3c
       -0.002188581 -0.01101193 0.010583396 0.0156207625
000070 a7 69 86 bc 9a 9f 5b 3d 37 8e 8f bb e8 25 6c 3b
       -0.0164078 0.053619005 -0.004380967 0.0036033336
000080 0a 99 ff bb d5 a4 a7 ba 29 c7 34 3c b5 0e eb 39
       -0.007800226 -0.0012790213 0.011033812 0.0004483365
000090 d0 6d 30 ba 04 06 16 3b a8 88 8d 3b 7e 04 ad bb
       -0.00067302305 0.002289177 0.004319269 -0.0052800765
0000a0 5d db 3e bc d9 d0 a0 b8 5e 19 6b bc ec f8 71 3c
       -0.01164898 -7.6682954e-05 -0.01434931 0.01476882
0000b0 ba 9d 0c 3c 46 33 f6 bb d4 13 75 ba 5f d2 98 3c
       0.008582527 -0.0075134365 -0.0009348963 0.018655
0000c0 37 fe 55 bb f5 bb 92 3b c2 63 14 39 2e f6 4c 3c
       -0.0032652745 0.0044779726 0.00014151543 0.012509866
0000d0 86 83 b6 3b 8c 3a 8e bc 67 79 3d 3c 80 b0 9b bb
       0.005569878 -0.017361902 0.011564589 -0.004751265
0000e0 49 f1 a6 3b a0 b0 2f bc 47 bd 36 3c 4e 34 04 bc
       0.0050946814 -0.010723263 0.011153526 -0.008069111
0000f0 a5 1b 30 bb b5 00 c4 3b ad 1f bf bb 0c 39 24 bc
       -0.0026871946 0.0059815296 -0.0058326335 -0.010023367
000100 f1 e3 d6 3c a7 3c 3d ba a5 3e 94 bb d4 31 06 bc
       0.026231738 -0.0007218816 -0.0045240694 -0.008190591
000110 5f 9b b4 ba 54 8c 11 3c 88 b9 36 bc 8d a0 95 b5
       -0.0013779214 0.0088835545 -0.011152633 -1.1148092e-06
000120 2f 1c 77 3b 3f 24 71 3c a1 d0 fa 3c 97 39 39 bc
       0.0037706008 0.014718114 0.03061706 -0.011305234
000130 28 76 bf 3a ba 23 6d 3c a1 89 0b bc 3f 51 99 3a
       0.0014607357 0.01447385 -0.0085167 0.0011697187
000140 6b 93 27 bc 39 ea 5a bc 36 12 30 ba e7 f9 c7 bb
       -0.010228018 -0.013361507 -0.0006716581 -0.0061027887
000150 15 a8 b5 3c 1b e9 4f 3c 0f ed 4f bc 7a 78 5a 3b
       0.022174874 0.012689854 -0.0126907965 0.003333597
000160 57 36 e7 ba e7 b2 1a 3d 4e a0 11 bc 73 dd 22 bc
       -0.0017640096 0.03776827 -0.008888317 -0.009940493
000170 58 2a de b4 16 76 82 3b dc 9a 09 bb c8 a1 eb 3b
       -4.1381531e-07 0.003981362 -0.0020996844 0.0071909167
000180 49 1d ab 39 8a 7a e7 bb 47 e1 a4 3a b7 99 92 bb
       0.0003263748 -0.0070641683 0.0012579345 -0.0044738906
000190 2d 11 2c 3c 7a 37 ca ba d1 3d 61 bb f8 77 0f bb
       0.010502142 -0.001542791 -0.003436912 -0.0021891575
0001a0 99 7f 5a bc e0 9b f1 3b ec 79 d6 3b b6 bb 59 bc
       -0.013336086 0.007373318 0.006545296 -0.013289383
0001b0 12 56 de bb 33 dd d2 bb 62 2f 4d 3b 55 8a 02 3c
       -0.0067851627 -0.0064350604 0.003130876 0.007967551
0001c0 22 7b 2f 3b 49 87 9d bb d0 d7 c9 bb 7e 40 45 bb
       0.0026776274 -0.004807387 -0.00615976 -0.0030098255
0001d0 b9 4c 64 bb 7a 6c ea bb eb f2 e2 3b 59 69 f0 bd
       -0.003483577 -0.0071540447 0.0069259307 -0.117388435
0001e0 62 c0 d2 3b 7e a6 ac ba 36 9b 85 bc ac 10 69 bb
       0.006431625 -0.0013172177 -0.016309362 -0.0035562916
0001f0 97 e4 a0 3b 9d 31 e6 3c 77 37 32 bc b7 65 2d 3b
       0.0049100625 0.02809983 -0.010877482 0.0026458332
000200 29 0f 26 3a 94 0f 85 3c bb 2d 13 3b 44 7c 74 ba
       0.00063346565 0.01624278 0.0022457677 -0.00093263783
000210 39 ec b2 3c 9d 10 8b 3a 53 3a 91 3b a9 66 3c 3b
       0.021841155 0.001060981 0.0044320016 0.0028747714
000220 08 74 83 bc 25 77 50 bb 9b fe d3 3c fa a8 7f 3c
       -0.016046539 -0.0031809297 0.025878241 0.015604252
000230 f4 33 49 bb 7a 48 0b bc 7b ca 79 3c f8 ba 31 3c
       -0.0030701132 -0.0085011665 0.015246029 0.0108477995
000240 1a 28 4f bc 93 d1 13 3c d8 26 25 bc 33 97 9e bb
       -0.012643838 0.009022134 -0.010080062 -0.0048398017
000250 ca 3c 29 3c 4d 50 03 bc ed 87 bc bc 6c 11 91 bb
       0.010329435 -0.008014751 -0.023014033 -0.0044271257
000260 23 5a b1 39 1c b7 8b ba 4f ac 8e 3c e5 1a 78 bc
       0.00033827228 -0.0010659429 0.017416148 -0.015143131
000270 fc 7c 77 3c ad 16 2e bb 14 f2 a1 ba c1 b9 9a 3a
       0.015105482 -0.0026563809 -0.001235547 0.0011804627
000280 dd 3d a4 3b f0 24 4d b9 bf 1f fa bb ce 0a af ba
       0.0050122575 -0.00019564084 -0.007633179 -0.001335466
000290 68 c6 27 bc 89 9f cb 3b 34 e9 5f bb c6 38 82 3a
       -0.010240175 0.0062140864 -0.00341661 0.0009935133
0002a0 70 d7 0a bc bb 1a ba 3c d3 05 c7 ba 3d a5 50 3c
       -0.008474216 0.022717824 -0.0015184231 0.012734708
0002b0 10 64 53 3b 5f 59 32 bc bd de 67 bc f7 bb c5 3a
       0.0032255687 -0.010885566 -0.014152226 0.0015085925
0002c0 ae 58 e7 ba b9 be 6a 3b e2 12 5b bc 52 9c ad 3c
       -0.001765033 0.0035819246 -0.013371201 0.021192703
0002d0 f0 99 d9 bd 1c ee 13 ba 28 98 49 bb 83 42 8b bc
       -0.106250644 -0.0005643086 -0.0030760858 -0.016999489
0002e0 d5 28 b0 3c 7b 06 37 3c 6a 2f 9f 3c 6c d3 b5 b9
       0.021503845 0.011170979 0.019431788 -0.00034680532
0002f0 7d 5e 08 3a 14 fe 30 3c 12 ab ef bb c9 5a 96 ba
       0.0005202068 0.010802764 -0.0073140943 -0.0011471148
000300 00 e4 04 bb a5 45 03 3c c0 bb e2 3b f4 ea b4 3c
       -0.00202775 0.00801221 0.006919354 0.02208469
000310 8e 53 7a 3c 22 df 9b 3c e5 44 bd bc 41 94 46 3d
       0.01527871 0.019027296 -0.02310414 0.04848123
000320 27 68 86 bc a3 99 f0 bb 31 f2 16 3c ce c2 3e bb
       -0.016407086 -0.0073425337 0.009213016 -0.0029107812
000330 bd 85 71 ba 39 19 0a 3b 88 0b 9c bb 0a 59 dd 3a
       -0.0009213349 0.0021072163 -0.004762117 0.0016887498
000340 3f 96 94 bb 47 68 0c bd bc 2a 19 bc c9 35 03 3b
       -0.0045345123 -0.034279134 -0.009348568 0.0020021072
000350 4c 6b 0b bc 94 c2 f0 3b 40 a9 9b bb 2e ac b0 3a
       -0.008509468 0.0073474143 -0.004750401 0.0013479048
000360 b7 ed fb bb ce b1 0c bb b4 a5 b4 3a e9 d6 e2 3b
       -0.00768825 -0.0021468285 0.0013782294 0.006922592
000370 f8 6b be 3b 3a 07 c6 ba 9e db f1 39 46 bb 2f 3c
       0.0058112107 -0.0015108355 0.0004613073 0.010725802
000380 be 0b 55 bc 5d 87 23 3c 33 53 5d 3b dd ee b4 3b
       -0.013003288 0.009981004 0.0033771514 0.005521639
000390 65 d3 b2 3a 7e 8c 59 3c 50 42 07 3c 04 21 54 3b
       0.0013643323 0.013278125 0.008255556 0.0032368312
0003a0 ab 35 aa bb c0 04 b8 bb 85 96 1f bc 44 b6 13 bc
       -0.005194386 -0.0056158006 -0.0097404765 -0.0090156235
0003b0 ed ae 1e 3c cf ac 92 bb 28 bc 92 3b a6 44 56 3a
       0.00968526 -0.004476167 0.0044779964 0.00081736816
0003c0 41 96 3f bc 7d dc 9b bc 41 f2 9c ba 58 df 12 b9
       -0.011693538 -0.019026035 -0.0011974053 -0.00014006847
0003d0 8b c0 0c bb 76 72 94 bb b8 1f 67 3c 4e ea 23 3d
       -0.002147707 -0.0045302464 0.014106683 0.040018372
0003e0 51 5d 55 bb b7 8a 98 39 ac 1d 43 3c 36 cb 56 3a
       -0.0032556842 0.0002909505 0.01190893 0.0008193733
0003f0 f1 2c bd 3b 66 42 2f bb 50 41 58 bc 29 11 ff 3b
       0.0057731797 -0.0026742457 -0.013199165 0.007784028

encoder_var.0.bias f4 [20]
000000 1c 50 f2 b7 d3 8d db 35 28 9d 2e 39 30 a5 cd b8
       -2.8885952e-05 1.6358048e-06 0.00016652478 -9.80593e-05
000010 a5 b1 4f 37 96 53 13 39 c8 a7 cc 38 67 c6 08 39
       1.2379523e-05 0.0001405015 9.75873e-05 0.00013043881
000020 b5 f8 3e b8 5c 47 cb b8 38 0c 07 38 4b 41 67 38
       -4.5531157e-05 -9.693086e-05 3.2197888e-05 5.51355e-05
000030 2a 06 0f 38 94 fb fb 37 63 c9 8f b8 9b 76 7d 38
       3.4099598e-05 3.0038682e-05 -6.8562826e-05 6.043036e-05
000040 c3 88 8c b8 b8 35 f7 b8 89 d8 0c 38 37 0b e4 b8
       -6.701194e-05 -0.00011787884 3.3580265e-05 -0.00010873976

encoder_var.1.weight f4 [20]
000000 02 af f2 3d 5b d8 11 3e b1 0b 00 3e ee c7 24 3e
       0.11849786 0.1424269 0.1250446 0.16091892
000010 b8 29 19 3e 85 c9 09 3e 64 ff 0e 3e f8 0e 19 3e
       0.1495732 0.1345578 0.13964611 0.14947116
000020 a2 c6 55 3e 8f 06 37 3e 86 45 3e 3e 22 72 1f 3e
       0.20876554 0.17873596 0.18581209 0.15570882
000030 0b c7 0b 3e 5f 2e 40 3e 38 c7 1c 3e a8 a6 32 3e
       0.13650148 0.18767689 0.15310371 0.17446387
000040 d3 e0 20 3e cf 31 c5 3d 07 45 fe 3d ed e3 30 3e
       0.15710764 0.09628641 0.1241551 0.17274447

encoder_var.1.bias f4 [20]
000000 86 38 43 ba 21 bb 2b 3b 3d 8e 9b 3b 24 af 42 bb
       -0.00074470823 0.0026204067 0.0047471807 -0.0029706443
000010 b2 46 4a bc 14 d7 ae bb 1e 67 54 bc 8e fe 60 bb
       -0.012345957 -0.005335698 -0.012964038 -0.0034331414
000020 0f f4 10 bc 26 41 18 bc 95 76 0a bc 83 22 70 bb
       -0.008847251 -0.009292876 -0.008451124 -0.0036641664
000030 60 a7 01 bd 2d 1d 4f bc 87 fa ab ba 74 25 cd bb
       -0.031653762 -0.012641233 -0.0013120928 -0.0062605683
000040 4f 69 18 bc 4d f8 9e bb 89 21 63 bc ab fc e6 bb
       -0.009302451 -0.004851377 -0.013862976 -0.0070491633

encoder_var.1.running_mean f4 [20]
000000 01 5f a9 3d 95 83 77 ba 90 38 a1 3d 8e 4b 11 be
       0.08270074 -0.00094419095 0.078721166 -0.14188978
000010 51 dc e4 3b 07 57 50 3c ee 9c 81 bd ec 31 2c 3c
       0.0069842716 0.012716061 -0.0632876 0.010509949
000020 f0 93 b8 bd f1 16 01 3e 0e c2 fb 3d 87 c6 fc 3d
       -0.09012592 0.12606408 0.12292872 0.123425536
000030 c7 3c 71 3d 57 27 06 be a1 2f f6 bd 31 c0 4d 3c
       0.058895852 -0.13100944 -0.12020803 0.012558029
000040 ee 82 5e be 37 9e d6 3c ac a4 a6 3d e8 a4 38 be
       -0.21729633 0.02619849 0.081368774 -0.18031657

encoder_var.1.running_var f4 [20]
000000 57 e2 02 3b 70 ab 8c 3a 25 8d 06 3b 8b 0e 12 3b
       0.0019971335 0.0010732245 0.0020530906 0.00222865
000010 b4 58 9e 3a c4 80 4e 3a 70 89 45 3b 27 7a 8b 3a
       0.0012080879 0.0007877464 0.0030141734 0.0010641263
000020 cf 58 c9 3a 83 88 86 3b 7e 4e e4 3b 76 2e 01 3c
       0.001536155 0.004105629 0.006967365 0.007884612
000030 08 b3 a0 3b 86 a1 2b 3b e2 97 3f 3b ac f1 65 3b
       0.0049041547 0.0026188805 0.0029234816 0.0035086675
000040 de 83 d2 3b 38 76 8e 3a b5 3a 80 3b fd 76 98 3b
       0.006424411 0.0010868972 0.0039132484 0.0046528564
