generativecf/models/adult-margin-0.344-constraint-reg-87.0-validity_reg-76.0-epoch-25-unary-ed-gen.pth (torch_old, 37228 bytes, 78 tensors)

encoder_mean.0.weight f4 [20, 30]
00000000: f4ac a4be 6bf0 1fbd e275 093d 0344 db3d
00000010: a716 0bbe 557e 88bd c4a4 82bd 5269 19be
00000020: 501b 1bbb 6ae7 9f3d 7907 e9bb e859 bf3c
00000030: 978e 883d 7a55 ef3d b51c b33d 8f63 1fbe
00000040: a34f ed3d dced ec3d 421f 333c 5ed5 223d
00000050: 4bd7 9e3d 74e5 3ebc 6b37 b93d ac83 fc3c
00000060: bac3 ca3c e291 4e3e 8b04 93bd 5739 f83b
00000070: bec4 48bc fbf2 3b3d d750 22bf c767 a33c
00000080: cc22 d33c 6089 30bd c147 873d cab9 5f3d
00000090: fba9 7a3d 926d bb3d 09bb f9bc 716a 9f3d
000000a0: da41 893d fb45 b63c 0985 113d 0270 803d
000000b0: a6a6 b93c d731 363c 516f 9f3c 9ed6 d43d
000000c0: 9dd7 a6bd 825e 483c 98d5 c9bb 71d4 70bc
000000d0: dca5 293c 1646 1fbb 9f2d db3b c05a 97bd
000000e0: 444c e6bb fd71 81bd f42c 8fbd 7f79 8c3e
000000f0: 7345 e6bc 333e b9bb aa75 433e af45 503e
00000100: a56a fabd cab1 fd3b f5ea 9bbd a708 d23d
00000110: 74aa 37bc ce2c 4ebd 077f 0b3b 7abb 0f3c
00000120: a5e2 173e 57e7 cc3d 55cc 1b3e 7a8e 253a
00000130: a558 5c3d 2606 bdbd 21d9 bf3d df75 9fbd
00000140: 6b18 d1bc ae7a 13bd db97 36bc d1a2 093d
00000150: e6de 013d a891 1e3e 638b 31be 6ad7 31bd
00000160: 2e5a c1bc 72e8 a8bd 2f3e 6bbf cfc0 cdbd
00000170: 5df2 bbbd 061e 92bb 3833 f1bd e328 fabd
00000180: 4c1c e73b b667 df3b fa24 5f3d 257b 313c
00000190: 76d1 c8ba fef9 f83b 5335 ba3c 87f3 a23a
000001a0: 8fe5 813d 15fb 993d c9de a93d b254 583d
000001b0: 9c26 fe3d 44d7 87bb ae31 78bd 4d32 143b
000001c0: 49e1 7b3c 6329 7f3c f7cb 243c 1d38 7b3d
000001d0: 1ab0 433d c98b 03bd d0d4 debc 19e1 133e
000001e0: 7ef1 0e3c 5868 f73d 930f e5bd 600f 473d
000001f0: 435e ba3d dc35 4e3c 258d 17be c454 a8bd
00000200: a911 633d 02fa 563d 0a00 553a b0b7 93bb
00000210: 2b6f 58bd 7b66 103d 4737 033e 1d25 023e
00000220: 234d 93bd b389 013e cc5c a63d bb1a 143e
00000230: f6e1 273c c493 e03d cc4f 3abd 8838 10be
00000240: 759f d0bd 9f24 0bbe e7dd 0e3d 0bb7 3fbe
00000250: a715 373e c89b c9bd 3061 febd d8e6 433d
00000260: 362a 4e3d 783f d0bc c1b0 473d f532 243d
00000270: 21e4 ffbb 0af7 6cbb 19c3 24bd e648 a1bd
00000280: ac03 cebc 0972 15bd 63bb 93bd 00a2 87bd
00000290: 4d3e 1c3d c100 003e 79ed 623b bd49 883c
000002a0: 4e55 993d ccb1 3dbc 9ff7 b8bb 94b6 ecbb
000002b0: 00cb 5c3c 42c8 153d 6119 a23b ab9d d5bd
000002c0: 846c d7bd b6b7 23bd e69f 20bd 127a a5be
000002d0: 9ec6 3d3f acbd 19be cd24 7e3d 5951 593d
000002e0: ad77 993d 8eae 7a3d 90b1 98bb cf87 403c
000002f0: bd33 7c3d cfa4 3db9 f476 463c ba0c 313d
00000300: 0879 acbc 0e29 a83c 4ce7 d73c ca9f 0d3d
00000310: 2517 db3c 2d64 a8bc a54a 933c 7cff 0ebd
00000320: d633 1ebc 3fbe 36bd d482 12bd db8e b3bc
00000330: 4432 02bd 693a c13b 4af5 ab3c c81e 363d
00000340: 7265 a83c cd27 213e 17e0 61be 5332 e93d
00000350: 1970 00bd af7c bf3d 338e 9abd 982b 32bd
00000360: 06dc 863c e121 843b d5a8 0e3d 328d a2bc
00000370: edea ee3c 1f8d 81bb 8471 a6bc b834 9dba
00000380: 31d0 8c3c 95c6 283c 2f67 f73d e5ca fb3d
00000390: b287 8cbd f7b8 2c3d 6b82 50bd f2f3 413d
000003a0: 72bb c13c 9961 703d 8c46 bb3d 561b 01be
000003b0: b086 25be 4843 1dbd d7bc 4cbd faef c1be
000003c0: 365c 893e 981c 97bd e65f 003e 4ae3 063e
000003d0: 9f5e 343e 77f6 45be ca60 2e3d 4bbe 873d
000003e0: f53a db3d a6b9 d03c cbfb d93c 80c3 4cbc
000003f0: 55d3 fe3c 1639 e53d 2ae5 273d 25cc 833b
-0.32163203 -0.03904764 0.033559687 0.107063316 -0.1358286 -0.06664721 -0.06379083 -0.14981583
-0.0023667403 0.078078106 -0.0071114865 0.0233583 0.06667822 0.11686225 0.0874571 -0.15565322
0.11587455 0.115688056 0.010932745 0.039754264 0.077559076 -0.011651386 0.09043773 0.030824505
0.024751533 0.20172837 -0.07178601 0.007575195 -0.012253938 0.04588602 -0.634046 0.019946946
0.025773428 -0.04309976 0.06605483 0.05462054 0.061197262 0.09151758 -0.030484693 0.07783974
0.06702013 0.022250166 0.035527263 0.06271364 0.022662472 0.011120281 0.01946226 0.103924975
-0.08146594 0.012229564 -0.0061594956 -0.0146990875 0.010354485 -0.002430325 0.006688788 -0.07390356
-0.0070281345 -0.0632057 -0.06990996 0.27436444 -0.028109288 -0.0056531667 0.19087854 0.20339082
-0.12227372 0.0077421414 -0.07613174 0.102555566 -0.011210073 -0.050335698 0.002128543 0.008772725
0.14832552 0.10005062 0.15214665 0.0006315481 0.053795476 -0.09229688 0.09367586 -0.07786154
-0.025524339 -0.03600567 -0.011144604 0.03360254 0.031706713 0.15485251 -0.17338328 -0.043418325
-0.023602571 -0.082474604 -0.9189176 -0.10046541 -0.091770865 -0.0044591455 -0.11777347 -0.1221483
0.007052934 0.006817783 0.054478623 0.010832583 -0.0015321213 0.0075981608 0.022730505 0.0012432196
0.06342613 0.07518593 0.08294446 0.052815147 0.12409708 -0.0041455347 -0.060594253 0.002261299
0.015373536 0.015573832 0.010058395 0.06133281 0.047775365 -0.03211573 -0.027201086 0.14441337
0.008724568 0.12080449 -0.11184611 0.048598647 0.0910001 0.012586083 -0.14799936 -0.08219293
0.055436764 0.05248452 0.0008125311 -0.0045079812 -0.052840393 0.035253983 0.12814055 0.1270947
-0.07192447 0.12650184 0.08123168 0.14463322 0.010246744 0.10965684 -0.045486256 -0.14084065
-0.10186664 -0.13588189 0.03487959 -0.18722169 0.17879353 -0.09844166 -0.12420881 0.04782757
0.050333224 -0.02542089 0.04875255 0.04008766 -0.0078091775 -0.003615799 -0.040225122 -0.078752324
-0.025148235 -0.036485706 -0.072134756 -0.06622696 0.038145352 0.12500288 0.0034626408 0.016636724
0.07486974 -0.011578035 -0.005644753 -0.0072239134 0.013476133 0.036567934 0.004946873 -0.104304634
-0.105187446 -0.039970122 -0.03921499 -0.32319695 0.7413119 -0.1501376 0.062046815 0.053056095
0.074935295 0.061201625 -0.004659839 0.011751129 0.06157278 -0.0001808584 0.012113322 0.043225028
-0.021053806 0.020527389 0.026355408 0.034576215 0.026744435 -0.02055558 0.01797993 -0.034911618
-0.009655913 -0.044615027 -0.0357693 -0.021918705 -0.03178622 0.0058968556 0.020990986 0.04446295
0.020556185 0.15737839 -0.2205814 0.11386552 -0.031356905 0.093499534 -0.075466536 -0.043498605
0.016462337 0.004032359 0.03482898 -0.019842718 0.029164756 -0.0039535905 -0.0203178 -0.0011993861
0.017189117 0.010301252 0.120802276 0.122945584 -0.06861819 0.042168584 -0.050905626 0.047351785
0.023648951 0.058686826 0.09144315 -0.12608084 -0.1616466 -0.038394243 -0.04998478 -0.378784
0.26828164 -0.07378501 0.12536582 0.13172641 0.1761422 -0.193323 0.042572774 0.066280924
0.107046045 0.02547915 0.026609322 -0.012497783 0.03110663 0.11192529 0.040990032 0.0040221387

encoder_mean.0.bias f4 [20]
00000000: d829 0739 4010 7839 31a4 ecb7 b145 ae37
00000010: c60f 5937 4743 1eb7 2a38 2038 7898 f3b8
00000020: 2c94 57b9 fbd4 a138 fd31 8438 7d18 f8b7
00000030: 6b66 5d39 81ca c238 9104 07b8 c2d0 19b8
00000040: 8d76 ef37 2f97 c0b8 1233 8338 7b95 b3b6
0.00012890191 0.00023657177 -2.820985e-05 2.0774869e-05 1.29378805e-05 -9.433198e-06 3.819928e-05 -0.000116155425
-0.00020559196 7.716749e-05 6.3035615e-05 -2.9575307e-05 0.00021114356 9.28836e-05 -3.219076e-05 -3.6672463e-05
2.8546225e-05 -9.1834336e-05 6.256079e-05 -5.3520175e-06

encoder_mean.1.weight f4 [20]
00000000: 7f20 113f ec19 5c3f c5d9 0a3f 7544 863f
00000010: e7f9 243f d492 623f d4ef 553f 4168 613f
00000020: 5c1a 2c3f a3e4 803f 2601 de3e c8b1 1e3f
00000030: 635d 2e3f b9dc 3e3f bbae 143f a125 053f
00000040: 592d 593f 919b 8e3f 4d0b 603f 6f21 c33e
0.5669021 0.85977054 0.5423854 1.0489641 0.6444382 0.8850529 0.83569074 0.88049704
0.6722772 1.0069774 0.4336025 0.6199002 0.68111247 0.74555546 0.5807912 0.5201054
0.8483482 1.1141225 0.87517244 0.38111445

encoder_mean.1.bias f4 [20]
00000000: 93e0 90bd e947 b43d c8b0 9bbd 0fb7 1d3d
00000010: 44d9 fbbd ca24 11be cd21 443d 38fd 34bd
00000020: 68e2 41bd bd2f 103e 9d45 f2bc 9040 d2bd
00000030: 5e9e fabc a89e 143e f27d 6dbc cefc 03be
00000040: 6f0d 56be 61e4 943d a5fc 293d f656 27be
-0.07074084 0.08802778 -0.07602078 0.038504656 -0.122972995 -0.1417419 0.047883797 -0.0441868
-0.04733506 0.1408071 -0.02957421 -0.102662206 -0.030593093 0.14513648 -0.01449536 -0.12889406
-0.20903562 0.07270122 0.041500706 -0.16341767

encoder_mean.1.running_mean f4 [20]
00000000: ad64 46be 7f5f 803d 938a 71be 7b1d 78be
00000010: feda 3a3e a505 ccbe 3639 013f f989 13bf
00000020: 6828 dc3c bc27 763f 4985 1b3e 205d 5fbe
00000030: 34f2 b0bc 8e9e b63e fb1a f73e 0881 373e
00000040: b8d4 28be e11e e33e c9a3 353d 81ef c73e
-0.19374342 0.062682144 -0.23588018 -0.24229996 0.18247601 -0.39848056 0.5047792 -0.57632405
0.026874736 0.9615438 0.15187563 -0.21812868 -0.021599866 0.35667843 0.48262772 0.17920315
-0.16487396 0.44359496 0.04434565 0.39049914

encoder_mean.1.running_var f4 [20]
00000000: 79a2 4f3d f4b9 d23c 77c5 563d 9d2f 593c
00000010: 90d5 c53d e230 903c c285 983c 43a0 9c3c
00000020: 83aa 123d 983e e73c 29b2 2c3d beae 203d
00000030: 08a9 833d 31e3 933c a61e 6e3d e641 3d3d
00000040: b40d 6a3c 5a1e ac3c 5a5e 003d abc4 873d
0.050692055 0.025723435 0.05243441 0.013255981 0.096598744 0.017601434 0.018618468 0.019119387
0.035807144 0.02822809 0.042162094 0.039229147 0.064287245 0.01805267 0.058134697 0.046205424
0.014285494 0.021010567 0.03133998 0.06629308

encoder_mean.4.weight f4 [16, 20]
00000000: c620 60be f9f2 c33b 32b3 8fbd 5ef4 5a3d
00000010: aff4 04be 8e1f a8bc 8f48 433d 2be7 03be
00000020: ae33 9f3c ed60 4dbd 912a debd 20b5 19be
00000030: 12d7 9dbd fff1 75bd 4a19 7d3c c2c3 d9bd
00000040: 714d 6a3c 4d04 9b3e 9a5b c13d d2aa f8bd
00000050: 1a40 cc3a 70c6 903b f92f 0f3e bbc4 12be
00000060: 663d cb3d b3f9 06bd 15f1 a03d f126 2abe
00000070: dbbf 763c fabd a73e a72e dcbc f120 863d
00000080: eca2 30be 33c0 873e 50b2 af3d dd1e 2d3d
00000090: 2cdb 243e 6c37 51bd aae3 563e 5e3c 83bd
000000a0: f4d1 2dbe 2af3 1fbe bb99 ee3a 3496 8a3e
000000b0: 2d80 2e3e 5a49 15be 128c 3dbd f6d3 36be
000000c0: ff80 f3bd f65b 5f3c 1a85 cfbd 9b86 6c3d
000000d0: 5f53 2b3e f349 d93d cdec fd3d 8dc6 00be
000000e0: bada b6bd a3fb f3bd 4b3c 263e 0609 9ebc
000000f0: 692e 013d 4d49 49bd 1fbe 81bd 3564 aebd
00000100: 7f4e b5bc 78f9 7dbe 623c 903e 0de7 42bc
00000110: 6a9c 7e3d 6a9f 693e 1190 d93d 89b3 5b3d
00000120: c729 02be 0e7c 763d 2079 f5bd 46c1 ca3d
00000130: 365b 77be cede a43e 8970 f83c c603 debd
00000140: b9f6 67bd 999b fbbd 14fc 153e 0087 e2bc
00000150: 2267 c03d 662f 933e 26fd 5cbd 5ccd 253e
00000160: dbb7 cd3b 30a7 5abd 9b44 a43d b4dc bb3d
00000170: 775a 133e 4e85 77bd 0c09 4fbe fe4b 853d
00000180: 6ad0 903e ea6d 47be 584f 993e e1fb 8dbd
00000190: 5401 bc3d f8dc 9dbd ccd8 7ebd 07f1 96bd
000001a0: 2d30 183e f6c2 103e 816e 03be 1d6f 883e
000001b0: 5ba7 f03d bc72 1ebe 5e14 b43c 8166 edbc
000001c0: 3fcc 23bd 6b0e 52bc ad71 13be c0c3 6ebd
000001d0: d3da 3a3e b120 c5bd 4fc6 7a3e 73d9 ff3b
000001e0: 10d8 f8bb a33b 903e 9583 ffbc 8638 8f3e
000001f0: ae54 953d 1532 8ebd 11f7 43bc 1f01 053e
00000200: 4c50 2c3d fe8c 83bd f069 20be fc15 c73d
00000210: 2d53 a038 418b 32bd d427 a23d 8698 683d
00000220: b22e cfbc cc9a 62be 9a83 603d c5f9 4cbe
00000230: 60aa 7dbd 7c17 2dbe 7457 26bd c636 4d3c
00000240: a685 72bd 4fc7 5e3e 4367 49be 3f09 a73e
00000250: d070 aa3d b455 88be 41af 8d3c 2035 4fbd
00000260: be13 8f3d 7f36 dcbd 2d0e 9fbe cb9a 79bd
00000270: 4901 583e 005c 28be f43e 8a3d 2dd8 913c
00000280: 6c15 a8bd a4ef 0e3e 26e1 4fbe f3c3 aebb
00000290: 3418 a2bd 4fb8 7f3c dd21 8c3d a42b 9dbc
000002a0: 637f 20be 26f8 aa3e d3ca e2bd a453 3e3d
000002b0: 68ce 6cbd 6c92 e63d 8818 3d3e 5e77 2cbd
000002c0: 113a 58bd d672 dbbc c9db ac3d 25f0 0e3e
000002d0: edd6 f23a af8e 823e 6142 6e3e dd19 703e
000002e0: d92a bdbd b270 2ebe 7553 9d3c c66e 5dbc
000002f0: 44a7 0fbd 99cd 233e 4da9 bdbd c649 3abd
00000300: 6ca3 22bd 62ba 123e 548b acbd 366b 323e
00000310: 576d 6abb a81b 4dbe b796 b13c aa18 cf3c
00000320: 16b2 2f3d c319 2f3e 17e5 d2bb 2505 1a3d
00000330: 9b02 91be e5a3 87be fd5c d9bd b088 b5bd
00000340: e8e9 97bd e515 bfbc 894e f3bd 9cb6 fe3c
00000350: 926d 9cbe d29e 22be c714 b83a 74dd a6bc
00000360: b9ab 03bd ef51 dfbc fa8c 0dbe d6e8 5abe
00000370: 3f02 953d 59dc f93d 7391 363d 453e b63e
00000380: 9ea1 75bb 1ea1 84bd b33a 9bbd 134a 61bd
00000390: 0d53 58be b911 8ebe 66bb c73d 17e1 e3bd
000003a0: 9811 c13d 25f3 47be b5e7 0fbd f7bd a4ba
000003b0: 2ea3 82bd 5ef8 81be fb27 53be 57f8 fe3d
000003c0: 0a8d 27bd ba1c 81bd ead6 72bc cb99 4ebd
000003d0: 6fc4 5dbc 5d1b 7abe b195 463e 6280 a3be
000003e0: 28b0 863d 2126 9f3e 1fd0 873c 9ee5 e23d
000003f0: c5df 3abd 6cc9 9b3d 3d9b 113d 35d0 343e
-0.21887502 0.0059798923 -0.07016601 0.053455703 -0.12983964 -0.020522859 0.04767662 -0.12881152
0.019433822 -0.050141264 -0.10847963 -0.150105 -0.07707037 -0.06004524 0.015447924 -0.10633041
0.01430069 0.3027672 0.094413 -0.121419564 0.0015583069 0.004418187 0.13983144 -0.14332859
0.0992382 -0.032952975 0.07858483 -0.16616417 0.01506039 0.32762128 -0.026877714 0.06549252
-0.1724965 0.26513824 0.08578932 0.04226576 0.16099232 -0.051078245 0.20985284 -0.064079985
-0.16974622 -0.15620103 0.0018203774 0.2706772 0.17041083 -0.14578763 -0.04627616 -0.17854294
-0.118898384 0.013632765 -0.10132809 0.057745557 0.16731022 0.10609808 0.12398682 -0.12575741
-0.089284375 -0.1191323 0.16233937 -0.019291412 0.0315384 -0.04914217 -0.06335091 -0.08515207
-0.022132156 -0.24802196 0.28171068 -0.011895907 0.062160887 0.22814718 0.106231816 0.053638015
-0.1271125 0.0601769 -0.119859934 0.09900145 -0.24155888 0.32201236 0.030327098 -0.108405635
-0.056631777 -0.12285537 0.14646941 -0.027652264 0.09394671 0.287471 -0.05395236 0.1619162
0.006278021 -0.0533821 0.08020898 0.09172955 0.14389978 -0.060429864 -0.20218295 0.06508635
0.28284007 -0.19475523 0.29943347 -0.06932808 0.09179941 -0.07708162 -0.062218472 -0.07370191
0.14862128 0.14136872 -0.12835123 0.26647273 0.117506705 -0.15473455 0.021982368 -0.028979542
-0.039989706 -0.01282082 -0.14398833 -0.05829215 0.18247537 -0.09625376 0.24489711 0.0078079044
-0.007594116 0.281705 -0.031190673 0.2797281 0.07291542 -0.06943146 -0.011960761 0.12988709
0.042068765 -0.064233765 -0.15665412 0.0972099 7.644887e-05 -0.043589834 0.07917753 0.056786083
-0.02529082 -0.22129363 0.054813005 -0.20017155 -0.06193006 -0.1690349 -0.040610746 0.012525266
-0.05920949 0.21755718 -0.19668297 0.32624242 0.083222985 -0.26627886 0.017295482 -0.050587773
0.069861874 -0.10752582 -0.31065503 -0.060938638 0.2109424 -0.16441345 0.067502886 0.017803276
-0.08207211 0.13958603 -0.20300731 -0.0053334176 -0.07914773 0.015607907 0.068423964 -0.019185849
-0.15673594 0.33392447 -0.11073842 0.046466485 -0.05781403 0.112583965 0.18466389 -0.042106025
-0.05278975 -0.026788156 0.08440358 0.13958795 0.0018527188 0.25499484 0.23267509 0.23447366
-0.09236688 -0.17035177 0.019204834 -0.01351518 -0.035071626 0.15996398 -0.09260807 -0.045480512
-0.039706632 0.14328912 -0.08425012 0.1742371 -0.0035770738 -0.20030081 0.021678312 0.025280315
0.042894445 0.17099671 -0.006436001 0.037602562 -0.283223 -0.2649223 -0.10613439 -0.08863962
-0.07417661 -0.02332587 -0.11880214 0.031092934 -0.30552346 -0.15880898 0.0014044278 -0.020369269
-0.03214619 -0.027260749 -0.1382331 -0.21377882 0.07275819 0.12200231 0.044572305 0.35594383
-0.0037480365 -0.06476043 -0.07579555 -0.055002283 -0.21125431 -0.27747896 0.0975254 -0.11126917
0.09427184 -0.19526346 -0.035133082 -0.0012568821 -0.0637878 -0.25384802 -0.2062072 0.12449711
-0.04090599 -0.06304307 -0.014821747 -0.050439637 -0.013535603 -0.24424501 0.1939304 -0.31933886
0.06576568 0.31083778 0.016578732 0.11078952 -0.04562356 0.076067775 0.035548437 0.1765755

encoder_mean.4.bias f4 [16]
00000000: cc45 a138 204b 29b7 07bd 7ab9 21f5 da36
00000010: d0ee f5b7 78d2 f537 9d17 ce38 2ed2 3d38
00000020: db68 44b9 20b4 3cb8 22be a738 4750 a639
00000030: 45b3 09b9 d2b6 19b9 0254 5439 3fd9 0bb8
7.690079e-05 -1.0090676e-05 -0.00023912276 6.525443e-06 -2.9317482e-05 2.9304283e-05 9.827244e-05 4.5256857e-05
-0.00018731078 -4.4990447e-05 7.9985955e-05 0.000317218 -0.00013132121 -0.00014659323 0.00020249191 -3.334251e-05

encoder_mean.5.weight f4 [16]
00000000: e48d 0f3f edc3 383f 27db 383f 3c92 563f
00000010: 4dc5 343f 78ce 7b3f 3f31 613f 088d 423f
00000020: cfa7 253f e650 113f 4cec 4c3f 8478 6e3f
00000030: 1355 6c3f 2a37 5d3f 2e79 193f 607b 593f
0.5607588 0.7217396 0.722094 0.83816886 0.7061356 0.9836192 0.8796577 0.75996447
0.6470918 0.56764066 0.8004806 0.9315264 0.9231731 0.864123 0.5995053 0.8495388

encoder_mean.5.bias f4 [16]
00000000: 0e5b 88bd fbbd b73c 11bf e0bd 1103 a23e
00000010: 0131 32be 7587 d8bd 0389 87bd 5c94 d7bd
00000020: a20f 283d d9b0 fbbd 5af8 373d 848a c3bd
00000030: efc8 6c3e 956c 70be 0c24 17be 8911 623d
-0.06657992 0.022429457 -0.10973943 0.31642964 -0.17401506 -0.105727114 -0.0661793 -0.10526344
0.041030534 -0.122895904 0.04491458 -0.09547904 0.23123525 -0.23478921 -0.14759845 0.055192504

encoder_mean.5.running_mean f4 [16]
00000000: 4962 2bbd 6de4 823e e8e2 04bc 81c0 213e
00000010: 5f17 143e 899f ff3c 209e 073e 2c47 6abe
00000020: 5e90 253e c115 483e fd22 d2be b45f 99be
00000030: 6eda 2c3e 9ab6 c3be dee1 053e efff bb3d
-0.04184178 0.255649 -0.008110739 0.1579609 0.1446204 0.031204002 0.13243914 -0.22878712
0.16168353 0.19539548 -0.4104232 -0.29955828 0.168802 -0.3822525 0.13074443 0.09179675

encoder_mean.5.running_var f4 [16]
00000000: 0d32 843d 91c9 5f3e 1c19 d43d 3d2c 1f3f
00000010: f605 233f d0ab df3e 6deb 583e 0b79 313f
00000020: 9fde b83d 36e6 043e 7e25 7d3e 3a41 1d3f
00000030: 8b0f 673f b4e0 fc3e 0fe3 343e 338a 923e
0.06454859 0.21854235 0.10356352 0.6217688 0.6368097 0.4368577 0.21183558 0.6932532
0.090268366 0.12978444 0.24721333 0.6142765 0.9025809 0.49390185 0.17664741 0.28621063

encoder_mean.8.weight f4 [14, 16]
00000000: a7e7 473e a9cc 28bc c85f 0f3e b67a 29be
00000010: 5ec4 afbb 0150 71be 78bb 533e e0d1 543d
00000020: d916 83bd 3b04 193e ee34 2a3e 70a9 2c3e
00000030: ffec 50be 1f46 aa3e 1ad8 5c3d 1f70 1dbe
00000040: f58a f83c f4e4 1f3e fed9 443e b207 443e
00000050: bc7c 873a 5d85 59be 6c9e 56bd 0d64 873c
00000060: 0ed5 653e 1898 2c3d 9e3c 813e fdbc f1bd
00000070: 19c3 7e3e d7e2 bf3d 90f3 243e cdbb 953d
00000080: 30a5 0abe 24f2 63bd 9a93 e93c 44a6 a2be
00000090: 8038 253e f0d3 173e 7ddd 813d d434 203e
000000a0: 1ac4 88be 8e84 72be d994 adbc 3a32 c5bd
000000b0: 008f a8be 411b 213e e39f eb3d 3af3 80be
000000c0: b7a5 53bc b0ea 3cbd 3a1f 39be dcf5 3fbe
000000d0: 310a 923e 5923 393e fc68 cabd f66f 193e
000000e0: b127 f1bd 4d49 b6bd 0f86 25be 8b03 8abe
000000f0: c3fb 13be cf1f 10be fe70 cfbd cb93 1bbe
00000100: 7286 35bd 0461 a6bd 0ca2 82bc 9197 36be
00000110: 1632 233e 6794 2a3e 4990 2ebe 6d23 d33d
00000120: a2e7 19be ac87 4fb9 7156 2ebe 16ae 6abe
00000130: de93 3cbe 7551 08be aba8 61bd 2f33 61be
00000140: 3ca4 03be ef17 19be 08ae 8d3c 946b 42be
00000150: 4369 ad3d 31cf 12bd 6b48 543e 043a c53d
00000160: df9a b5bb a2c0 563d 8a9b fe3d a623 973e
00000170: 64f3 48be 80b7 bf3e fce4 e73d 8cff 20be
00000180: 1126 d33d 06b7 b1bd 8c00 1abe 1d17 023e
00000190: 815c 04be 97e4 16bd 05cf 323d ce41 923b
000001a0: f462 0bbe 00bb 17be 3e92 4cbc b062 08bd
000001b0: b8c8 2c3e d47c 7abd 5b8c ec3c ca93 953e
000001c0: 9d2b 3c3e b222 bcbc 1d85 173e b78f 283d
000001d0: b871 94be 621d 88be dbc3 fb3a 0304 8fbe
000001e0: 887c 33bd 7971 23be c891 7fbe 0597 0dbe
000001f0: a286 813c a021 f7bd 8f2f a9bd ae3d 863e
00000200: 9a91 02be 9982 033e bbff 563d 0265 18be
00000210: d28a 443e d8eb 803e 5cb8 4d3b 3723 963e
00000220: 7bf9 92bd 8f12 49be e3df 03bd 0209 f7bb
00000230: 4c0f 2dbe cdfc 20be b38d c33d 529e 8abd
00000240: 039c 473c a979 733e d8a3 cb3d dc8c 393e
00000250: 30ef 56be bf2d c43d e7e7 803d cb21 79be
00000260: 3d40 b53d 3997 2f3d 2785 96bd cb92 42be
00000270: 0142 643e 2a99 81be 2085 513e 21a5 843d
00000280: 346b 503d 47c7 913e a998 cf3b 0d0e 363d
00000290: 78ea 723b ea66 50be 9824 13be ca97 75bd
000002a0: 1f3f 973d 5c51 cc3d 75bb 47be e5a5 1abe
000002b0: a9ee 0c3d 88c1 4abe f732 8d3e cda2 0e3e
000002c0: 1404 643e 38a1 cf3d e549 5ebd 1398 313e
000002d0: 0404 9abd 0d85 4dbe 827e 6bbe 976f 93be
000002e0: edbf 71bd fb2e 0ebe b031 c83d b902 ffbd
000002f0: 8b3e 363e be92 c2bd ef21 933d 8de2 8e3e
00000300: 7341 9bbc 4c38 8dbe b3ff 973d c10b 19be
00000310: a4e6 12bd 5797 c0bd 8cc4 003e eff3 9ebc
00000320: fc40 06be 4259 273e db9e e93d 4f2a 7e3e
00000330: fa16 3dbe 9041 8f3e ec3a 0d3d bc7e 60be
00000340: b1ad 1fbd 115e 8abd f8ab f03d 4df8 87be
00000350: 3b1b d9bd df56 febd f050 07be 8412 eabd
00000360: d4cd c43d 0c92 19be cf4e 64be d17a 5c3e
00000370: a4dc 6abe 3a21 aa3d f3e4 80bd b361 fabc
0.19521962 -0.010302701 0.14001381 -0.16550717 -0.005363985 -0.23565675 0.20676982 0.051957965
-0.06400842 0.1494302 0.16621754 0.1686151 -0.20402907 0.33256623 0.053917028 -0.15374802
0.030339697 0.15614682 0.19223782 0.1914356 0.0010336856 -0.2124228 -0.052397177 0.0165272
0.22444555 0.042137235 0.2524156 -0.11803625 0.24879111 0.09369438 0.16108537 0.07311211
-0.13539577 -0.055650845 0.028512765 -0.31767476 0.16134834 0.14826941 0.06341074 0.15645152
-0.26712114 -0.23683378 -0.02118914 -0.096287206 -0.329216 0.15733053 0.11505105 -0.25185567
-0.0129179275 -0.046122253 -0.18078318 -0.18746132 0.285234 0.1807989 -0.098833054 0.14984116
-0.11775149 -0.089007 -0.1616442 -0.26955828 -0.14451508 -0.14074634 -0.101289734 -0.15193097
-0.04431767 -0.08123973 -0.01594641 -0.17831255 0.15937075 0.16658174 -0.17047228 0.10309491
-0.15029767 -0.000197916 -0.17025162 -0.22917971 -0.18415782 -0.13312323 -0.055092495 -0.21992181
-0.12855619 -0.14950536 0.017294899 -0.1898635 0.08467343 -0.035842124 0.2073075 0.09630206
-0.0055421437 0.052429803 0.124320105 0.29519385 -0.19624096 0.37444687 0.11322972 -0.15722483
0.10309995 -0.08677487 -0.15039271 0.1270413 -0.12925912 -0.036839094 0.04365446 0.004463411
-0.13611966 -0.14817429 -0.012486039 -0.03329724 0.16873443 -0.0611542 0.02887552 0.29214317
0.18376012 -0.022965763 0.14796872 0.041152682 -0.2899301 -0.26584917 0.001920815 -0.27932748
-0.043819934 -0.15961255 -0.24957955 -0.1382714 0.015811268 -0.1206696 -0.08261024 0.26218933
-0.12750855 0.12842788 0.052489977 -0.14882281 0.19193581 0.25179935 0.0031390404 0.29323742
-0.07176491 -0.19635986 -0.032195937 -0.0075389156 -0.16900367 -0.15721436 0.09548511 -0.067684785
0.012183192 0.23776878 0.0994336 0.1812014 -0.2098968 0.09579038 0.06294232 -0.24329297
0.08850143 0.042868827 -0.073496155 -0.1900131 0.22290803 -0.25312167 0.2046094 0.06476808
0.050883487 0.2847235 0.006335337 0.044446994 0.0037066024 -0.20351759 -0.14369428 -0.05995921
0.07385086 0.099764556 -0.19505103 -0.15102346 0.03440729 -0.19800389 0.27577946 0.13929291
0.2226718 0.10138172 -0.05426969 0.17343168 -0.07520297 -0.20070286 -0.22997478 -0.28796074
-0.059020925 -0.13885109 0.09775102 -0.12451691 0.17797296 -0.09500645 0.07184207 0.2790722
-0.018952107 -0.27582014 0.07421818 -0.1494589 -0.035864487 -0.09403866 0.12574977 -0.019403426
-0.13110727 0.16342643 0.114072524 0.24820827 -0.18465796 0.27979708 0.03448002 -0.21923345
-0.038984004 -0.06756223 0.117515504 -0.26556626 -0.10600897 -0.12418913 -0.13214469 -0.11429313
0.09609571 -0.14997119 -0.22295688 0.21531226 -0.2293573 0.08307119 -0.062936686 -0.030564165

encoder_mean.8.bias f4 [14]
00000000: 24d2 ad38 4a1e 0d38 9a39 0338 82c4 14b8
00000010: 5e8b 1839 8c9f f9b7 b677 3237 6472 1a39
00000020: 1407 3c37 6780 a537 b325 aeb9 334a f138
00000030: dfc9 93b8 0ac7 75b8
8.2884246e-05 3.364523e-05 3.128648e-05 -3.5468962e-05 0.00014547768 -2.9757408e-05 1.0637499e-05 0.00014729198
1.1207321e-05 1.9729325e-05 -0.00033215954 0.00011505596 -7.047108e-05 -5.859792e-05

encoder_mean.9.weight f4 [14]
00000000: 7ae2 643f f70f 463f bfd4 523f f83b 673f
00000010: 0a77 313f 7654 813f 6452 4a3f bc68 443f
00000020: 358d 5a3f 04a9 4f3f e846 503f c85a 563f
00000030: 0ede 783f af78 3a3f
0.89408076 0.7736811 0.82355875 0.9032588 0.69322264 1.01039 0.7903197 0.7672231
0.85371715 0.8111727 0.81358194 0.8373227 0.9721383 0.728404

encoder_mean.9.bias f4 [14]
00000000: 2b98 b33b 1638 163e 679a 863e 52ec 9c3c
00000010: f460 1c3e 0e12 023e f09c b43a de30 e93d
00000020: 6ced 95bd 362c 8c3b 5e0d 9d3d b721 b63e
00000030: ca23 b83d 8819 02be
0.0054807863 0.14669833 0.26289675 0.019155655 0.1527136 0.127022 0.0013779681 0.11386274
-0.07320675 0.0042777313 0.07668565 0.35572597 0.08991201 -0.12705052

encoder_mean.9.running_mean f4 [14]
00000000: eaa6 af3c 3ddd d03e 177e cebe 2a60 cabe
00000010: 5c43 ddbe 6136 793c 713d 9a3d 864d 9abe
00000020: a4b0 88bd 8d2e f73d 3a33 38bd 1fc8 e43c
00000030: 77a0 00be 833f b6be
0.021441896 0.4079379 -0.40330574 -0.39526492 -0.43215454 0.015210719 0.0753125 -0.3013727
-0.066743165 0.12069426 -0.04497073 0.027927456 -0.12561212 -0.3559533

encoder_mean.9.running_var f4 [14]
00000000: 8020 d93e 9642 ae3e 7fb7 3a3f 0d8e ec3e
00000010: ce9d c43e 3905 193f 102a 2f3e c0f5 dc3e
00000020: 1ff5 cb3e a69b d23e f298 c43e ef33 1a3f
00000030: 6b80 203f 2242 383e
0.42407608 0.34035176 0.7293624 0.46202126 0.38401645 0.59773594 0.1710589 0.43156242
0.3983545 0.41134375 0.38397938 0.60235494 0.6269595 0.17993978

encoder_mean.12.weight f4 [12, 14]
00000000: 66d8 40be e7c7 0d3c 3437 613d 961b 45be
00000010: 415e 8dbe 2893 99be ec16 9b3d 2470 d2bd
00000020: ea66 76be c7e8 44bd 13db 5a3e dde8 7f3e
00000030: 046a 87be 8ae7 e13c 92c5 a8bd 3117 0c3e
00000040: 82f8 12bc a52b e0bd 4264 51be 7af1 68be
00000050: 99f8 ea3d af67 1c3d 8f65 adbd 29d1 973e
00000060: 2dd0 a53d 74c3 413d fa35 8cbe 8b01 22be
00000070: 7fa4 86bc 6e30 ef3d 305c d3bd 31ab a9bd
00000080: 172c 1dbe c563 9dbd 33f3 613e 3f2a 84bc
00000090: ed62 7dbe 2934 5dbe 2314 4cbd 401f 0a3e
000000a0: 5261 253d a28e 9bbe 02ca 223d 6f5a ff3d
000000b0: cd76 85be ae35 8d3c 3a1f a23c dbfa 1fbe
000000c0: 0597 233e 7146 b23e d470 90bd a30b 233e
000000d0: 560b a73e 351a 7b3e 7758 97be acd2 3fbd
000000e0: ceee b2be 8ae5 133e 1670 9bbe 8a50 d4bd
000000f0: c07c e63b 5884 a8be fec3 503e 3afe 073e
00000100: afcb 1fbd 9ea0 9d3e 30ac 8d3e b324 8cbd
00000110: 0ec6 aabd e2af 95bd 7f25 923e 3546 8bbc
00000120: 8f94 573d 3497 09bb 62b2 31bd 8441 9c3e
00000130: 5e4e c53c 1ba1 073e b0c6 03be 8da3 ddbd
00000140: a62c f0bb 8d5f 87be de33 ac3e 0702 bf3d
00000150: 1cd8 c53e 94be c8bb 1c8c 2a3e c82f 1cbe
00000160: 19c9 71be 01c7 1e3e 057c 4f3c 508c 21be
00000170: 421a ccbb 8733 bcbd 4a90 9fbd 52e1 60be
00000180: 0ae7 483e da76 5b3e 9d7f 9e3c f66a b0be
00000190: 5dc4 293e ef1a d13d 391d 213e af59 80be
000001a0: bcbf 2ebe ff1e 8d3d 9a46 6bbd 7cfc 6abe
000001b0: 6513 493d 5804 92be 0d3b 0ebe 153d d0bd
000001c0: 687a 13bd f255 24be 6715 d4bd bbf9 1fbe
000001d0: 5570 16be ecec 9ebc 20cc 49be 2ced bd3d
000001e0: 4237 9bbe cfec 9e3e 70cb a03e d3c3 50bd
000001f0: 5340 ffbd cba6 323d b011 efbd 0547 4cbe
00000200: a850 1e3d 7e4c 423e 49a4 43bd b2d9 a1bd
00000210: da21 37be ac09 92be 5c68 a03e 2e3b 8dbe
00000220: c722 9cbe 08bd 51be 2d86 8bbd b92e 0ebe
00000230: 8ab5 9abe 7372 9bbe 1e32 783e 86ba 8c3e
00000240: 6e1f 1e3e 6112 6abe 32a7 50be f03f a7be
00000250: 17ee e1bc ba12 323c 44cb 153e bbc5 89be
00000260: ff09 9dbe 8ace 93bb e165 d5bc 4bcb b2bd
00000270: 3828 b73e 8ad2 293e 63aa c73e 0e85 633d
00000280: 8027 823d 82eb 07be b341 d33e b9ed c5bc
00000290: 62e1 3b3d b526 b4bc 94b0 e2bd 007a 45be
-0.1883255 0.008653617 0.054984286 -0.19248804 -0.27610973 -0.29995084 0.075727314 -0.102752954
-0.24062696 -0.048073556 0.21372633 0.24991174 -0.2644807 0.027576227 -0.082408085 0.13680722
-0.008970382 -0.109458245 -0.20448402 -0.22748366 0.114731975 0.038184818 -0.084666364 0.29651764
0.08096347 0.04730554 -0.2738493 -0.15820901 -0.01643586 0.11679159 -0.10320318 -0.08284605
-0.1534885 -0.07685045 0.2206543 -0.016133426 -0.24744768 -0.21601929 -0.04982389 0.13488483
0.040376015 -0.30382258 0.03974343 0.12468421 -0.260672 0.01723751 0.01979028 -0.15623038
0.15975578 0.34819368 -0.0705277 0.15922408 0.32625836 0.24521716 -0.2955968 -0.04683177
-0.3494782 0.14443031 -0.30358952 -0.10366924 0.0070339143 -0.3291347 0.20387265 0.13280573
-0.039012607 0.30786604 0.2767043 -0.06842937 -0.08338557 -0.073089376 0.28544232 -0.01700125
0.05263191 -0.0020994665 -0.04338301 0.30518734 0.02408522 0.1324505 -0.12868762 -0.108222105
-0.0073295413 -0.26440087 0.33633322 0.093265586 0.3864144 -0.0061262343 0.1665501 -0.15252602
-0.23611869 0.15505601 0.012663846 -0.15776181 -0.006228716 -0.091895156 -0.07791193 -0.21960953
0.19619384 0.21432057 0.01934796 -0.34456605 0.16578813 0.10210215 0.15733804 -0.25068423
-0.17065328 0.06890678 -0.057440378 -0.22947878 0.04909076 -0.2851894 -0.13889714 -0.101679005
-0.036005408 -0.1604841 -0.10355645 -0.15622608 -0.14691289 -0.019400083 -0.19706774 0.092737526
-0.30315596 0.31040046 0.3140521 -0.050968003 -0.12463441 0.043616097 -0.116732955 -0.19948967
0.03865114 0.18974492 -0.047764096 -0.0790285 -0.17884007 -0.28523004 0.3132962 -0.27584213
-0.30495283 -0.20482266 -0.068127014 -0.13885011 -0.30216628 -0.30360755 0.24237868 0.27486056
0.15441677 -0.22858573 -0.2037628 -0.32665968 -0.02757935 0.010868723 0.14628321 -0.2690867
-0.3067169 -0.0045107054 -0.026049556 -0.08730181 0.35772872 0.1658422 0.38997182 0.055546813
0.0635519 -0.13273433 0.41261062 -0.024161207 0.04586924 -0.021991113 -0.11068836 -0.1928482

encoder_mean.12.bias f4 [12]
00000000: 0401 3e38 4c4e a5b9 2eaa 1eb9 a3d6 f638
00000010: 8092 abb8 3040 56b9 3530 ac39 fceb 5938
00000020: 4770 ac37 93f3 a8b9 86d1 7939 e7f1 ba38
4.5300476e-05 -0.00031529588 -0.00015131451 0.00011770173 -8.181203e-05 -0.00020432542 0.00032842314 5.195661e-05
2.0556281e-05 -0.00032224934 0.00023824544 8.914229e-05

encoder_mean.13.weight f4 [12]
00000000: d572 833f 3f2f 763f 8755 543f 6afd 833f
00000010: da9e 883f aeda 973f dff4 873f 5be6 303f
00000020: a97e 473f 7abe 583f 6ccd 363f 746d 813f
1.0269419 0.9616584 0.82943004 1.0311711 1.0673478 1.1863611 1.0621604 0.69101495
0.77927643 0.84665644 0.714072 1.0111527

encoder_mean.13.bias f4 [12]
00000000: 11e4 353e 2767 213e f8d9 c13b 5c4d 993e
00000010: a30f 803e 7973 9a3e d9c0 b73e ec07 3b3d
00000020: 7523 9f3d eab3 f53a 506b af3c d537 9f3d
0.17762782 0.15762006 0.0059158765 0.29941833 0.2501193 0.30166224 0.3588932 0.04566185
0.07770435 0.0018745635 0.021413475 0.07774321

encoder_mean.13.running_mean f4 [12]
00000000: c34b aabe e05a 47be 7add 3bbe 2be5 3b3e
00000010: 0749 68be 6417 843e f03b df3d 4f10 cfbe
00000020: 9627 5abe ff4d 05bf eee6 03bf fbdd 963e
-0.33260927 -0.1946826 -0.18346205 0.1834914 -0.22684108 0.25799096 0.10900104 -0.4044213
-0.21304163 -0.5207214 -0.51524246 0.29466233

encoder_mean.13.running_var f4 [12]
00000000: 3411 073f 6395 fe3e a099 523e 255f 623f
00000010: dabc 633f 80d3 f63e e1f4 053f bce2 cb3e
00000020: efb7 9a3e 783f 443f 0e8f 063f 38fa 3f3f
0.52760625 0.49723348 0.20566416 0.8842643 0.8896004 0.48208237 0.5232678 0.39821422
0.30218455 0.76659346 0.52562034 0.7499118

encoder_mean.16.weight f4 [10, 12]
00000000: 536b 09be 3624 a23e 42f8 8a3c ce40 6d3d
00000010: ff4f f33d d6e3 b2bd 329e 083e ddd9 c33c
00000020: 10dc 813e f576 22bd 3375 ee3d 1d22 b6bd
00000030: 001d c8be 9da3 2abe 3980 aebd e09e 043c
00000040: d894 9fbe 51b4 ea3d 6c1a 3c3d 7924 28be
00000050: 0957 48be 10e8 a63e a351 e53d 34ba a23e
00000060: ce3c 4d3e 0b72 b43d 510a 3ebe a1dc 2b3d
00000070: d407 dfbd bb7c 78be d339 6fbd 2ca5 e13d
00000080: cf3d ccbd ce8b 96bb 9678 f83d 6dbd 993e
00000090: 9621 b63d 080e 87bd 8d48 083e 10b2 903e
000000a0: 87a8 85bc cec8 ecbe 0b33 a2be d021 3d3c
000000b0: 28ae 21bd 7010 c13d d169 973e 8bc0 eb39
000000c0: 8669 8a3e 137b 003f a881 c73d eac2 c63e
000000d0: 092b 333e 1c12 b43b 650f 97be dff0 dcbd
000000e0: 8cd2 903d 38c1 8dbe a1bc 5e3d 17ce a63d
000000f0: 3c26 663e 9125 c93d 8431 0bbd 60ef 743e
00000100: e15a 6a3e c721 2fb8 65fd d33a 6bd3 2ebe
00000110: f067 0c3e eb21 b0bd 262e ffbd 644e bcbe
00000120: fe64 e6bd 1812 b5bd f46d 28be f5d8 80bd
00000130: 51f9 53bd 2630 9f3e 4c77 c53d eb40 8f3e
00000140: da9b 41be 07f1 65bd aa30 82bd cfe7 1d3e
00000150: 5d6c d43e e336 cc3e f819 8b3e afd6 cf3e
00000160: 3748 c73e ca55 8fbe 9771 02bf 7893 12be
00000170: 1a3e 7a3d 4df8 7dbd 6b16 8dbd 83ff 05bd
00000180: a9b5 433d b391 8abe d3ac 9c3d 9c5a 473e
00000190: 11a2 20bd cddd be3d 47f5 b53d 9f7a a13d
000001a0: 1341 4fbd 91cf 373e a6dd 273c 318f 96bd
000001b0: 189f 17bd da0f f23d 23ad 84be 623a 583e
000001c0: 0f1c cb3e 9fba 18bf af4a bcbe 892d 9b3d
000001d0: caf6 41be 62e3 ba3e 2348 f43d 5e75 123e
-0.13419847 0.31668252 0.016964082 0.05792313 0.118804924 -0.087348625 0.13341597 0.023907596
0.25363207 -0.039664228 0.11643448 -0.08893225 -0.39084625 -0.16663976 -0.0852055 0.008094519
-0.31168246 0.11460174 0.045923635 -0.16420163 -0.19564451 0.32598925 0.111972116 0.31782687
0.20042726 0.088108145 -0.18558623 0.041958455 -0.10890165 -0.24266331 -0.058404755 0.11017832
-0.099727266 -0.0045943027 0.12132375 0.30027333 0.08893125 -0.06594473 0.13308926 0.2826085
-0.016315712 -0.46246952 -0.31679568 0.011543706 -0.03947273 0.09426963 0.2957292 0.0004496615
0.27033633 0.50187796 0.09741527 0.38820583 0.17496885 0.005495323 -0.29503933 -0.1078813
0.07071409 -0.27686477 0.05437911 0.08144777 0.22475523 0.09821618 -0.03398277 0.2391944
0.2288623 -4.175471e-05 0.001617354 -0.17072837 0.13711524 -0.08600219 -0.12459974 -0.36778557
-0.112497315 -0.08841342 -0.16448194 -0.06291381 -0.05175144 0.31091422 0.09641895 0.27979216
-0.18907109 -0.056138065 -0.06356938 0.15420459 0.41488925 0.39885625 0.2716825 0.40593478
0.38922283 -0.2799514 -0.50954574 -0.14314067 0.06109438 -0.062004376 -0.068890415 -0.032714378
0.047780667 -0.27064285 0.07650151 0.19468158 -0.03921706 0.09319649 0.088846736 0.07884716
-0.05059917 0.17950274 0.010245716 -0.0735153 -0.037016958 0.1181943 -0.25913343 0.21116021
0.39669845 -0.5965976 -0.3677573 0.075770445 -0.18941799 0.36501604 0.119278215 0.14302585

encoder_mean.16.bias f4 [10]
00000000: f353 6fbe 7d6b 643e c413 eebb afa0 3e3e
00000010: 272a bebe 897e 50be 2c8e 82bd 8ed6 8bbe
00000020: 2817 27be 8d10 203e
-0.23371868 0.22306629 -0.00726554 0.18615983 -0.37141535 -0.2036077 -0.063747734 -0.2731213
-0.16317427 0.15631314

encoder_var.0.weight f4 [20, 30]
00000000: 32f2 d73d 6ad9 12bc 15a6 74bc 41a4 733a
00000010: 1e78 423c e91f bf38 0acb 95b8 e3d4 0dbb
00000020: b2a5 02ba e059 323d 4100 7cbb 63b3 63b8
00000030: a6e1 4c3c db41 7c3d 9ecf 703d ca00 393d
00000040: e6c0 1dbb 7924 703a 84c4 463b 966a 2cbd
00000050: 4f28 ad37 ab0f 503b 2875 da3c e6c5 08bc
00000060: c455 b2bc f614 5c3a b4ec 00ba 9634 23bd
00000070: 70fc d1ba 24b9 413e 6607 cbbd b738 ddbb
00000080: 299e 063d ede2 0abb 553e b13b 0541 d3bc
00000090: 78dd 873c 17fa 1c36 eca8 59bb 6c4d 7ebc
000000a0: 1093 dc3b 1295 e03a 44b6 c53c c5ff c03b
000000b0: 5642 be3c 7a33 a4bb 48c6 3e3c 350f 953b
000000c0: 8e4a 133c 1168 bc3b fc4f 09bb 042f c83c
000000d0: f279 c7bc cde3 64bc 2b68 e5ba 3512 a83c
000000e0: 7395 0fbd 9bd4 c53c cea6 97bc a65d 033a
000000f0: 40b9 093e 7640 3ebc 298e 05bd dfe9 bb3c
00000100: 25e3 8f3c 43ff 0ebc 79b6 9abc 124a 4ebc
00000110: c95f 363b 63fb 62bc a36a ec3c 446e 903b
00000120: 65d9 863d e99f d93a a725 a0bb e025 9f3d
00000130: 3d6b 39bb 4c94 cfbc bcab 473d f541 a0bd
00000140: b348 c13b a4a9 483c 4bfa a43b 465c e6bb
00000150: 31a0 173b d1a2 75bc 2e79 7a3c de5b 65bc
00000160: 0184 1a3d 3fcf 493e e033 5ebe dacb eb3b
00000170: da8d 023d a224 2b3c 159e 253b 7dba 343d
00000180: af72 5ebd 3af0 40bd fe29 cfbb c81d be3d
00000190: 74ff abbc 67aa c2bb 5a2d 18bb 8c32 cbbc
000001a0: e503 2f3d a714 afbd 53b3 e73b 0657 ee3c
000001b0: f589 73bc a8e3 b63a 46a8 f4bb ec6c 29ba
000001c0: 33cd 353c 73cb 5fbc bd26 2abd d8e7 68bd
000001d0: c96d 19bd b260 88bd 0c1d 4e3d df2c 8dbe
000001e0: dfb2 2bbe 673b 463b 7f77 1b3d 0645 ee3b
000001f0: 9670 b53b 66a1 243c bf48 bc3c 8d5a b63d
00000200: fd05 1138 ce41 1cbd 98da cabc 3a43 e1bb
00000210: 9408 bd3c 864e 633d 7689 623d c79d a7bc
00000220: 9d3b 1e3b e156 203d ddb7 b5bb 489e c9bc
00000230: f18d fd3b 69db 893b 687b 9e3c 6fbc 1b3c
00000240: 17a3 09bd 28f3 4fbb 2af7 71bc b9e7 033c
00000250: 1218 d23c f99f 08be 7ecc 44be 72ca 20bb
00000260: ed4c 133c 102c 78bb 9457 913c f61a ea3c
00000270: 6d40 1c3c e866 3e3b 12ef 57bb fbf8 bcbb
00000280: e0da 85ba 3696 38bc 7bf5 303b 435a 9abc
00000290: e6a1 5ebc 7f7f 40bd e75f 923c fa65 483c
000002a0: 1095 533c c87e 003d 3d5a 5abb a62b c33b
000002b0: 0b7f 133c d7ad 9d3c d11b b7bb d40c 9abb
000002c0: c9ea 6d3c 663f 8ebd ace1 49bc 3389 713d
000002d0: e540 22be 7c03 65bb eb27 b7bc 3e79 ed3c
000002e0: c82e 183d 73ea 953b 60f9 d83c 6ff1 803c
000002f0: 25fc 223b f4f0 733d 1450 1d3c 3aa1 a3bb
00000300: 5c62 153b 8fb2 efbc 5c51 3f3c 58b8 093d
00000310: 5906 bf3a 5dbd 3e3d b00d 71bc d7d8 4b3c
00000320: 6092 8f3a 5c77 bc3c a7d9 b93b 1c44 a23c
00000330: d90b 8dbc b269 82bc 8464 0d3c be08 f03c
00000340: e54b 11bd c94c 61bd 32af 253a c887 8c3b
00000350: e068 9dbb e42f 64bb 7ab7 8e3c 9756 8bbb
00000360: 3ef4 233b 076b 71bb b880 50bb d227 053d
00000370: 576f 213b 584b e43a a488 b1bc 9ca2 f1bc
00000380: 38b6 283c 1061 2b3b da41 553b 60a1 94bc
00000390: a0f7 7abb 7f9e 8cbb 97ed 01bb f27e 553b
000003a0: 4fc7 1aba 7c75 1b3b 1db3 113c bc19 3fbb
000003b0: 3caf a03c 3993 2bbb 6416 273b 49bb a2bc
000003c0: 710f aebd 3aa8 2cbb ad3c 943b e6d8 2238
000003d0: 8bb6 033c 42ba 1dbc efae 6e3d 3c0d da3c
000003e0: 9b13 d03a 431d b6b9 5ece 1c3c 20cd 7cbb
000003f0: 8d7b 6a3c f34c 5f3d 9821 2b3d bee3 0ebe
0.10544242 -0.008962968 -0.014932175 0.000929419 0.0118694585 9.1135335e-05 -7.1426926e-05 -0.0021641783
-0.0004983797 0.043542743 -0.00384523 -5.4288084e-05 0.012504971 0.061586242 0.05879175 0.045166768
-0.0024071275 0.0009160708 0.0030329535 -0.042093836 2.0641977e-05 0.003174762 0.026667193 -0.008347964
-0.021769412 0.00083954574 -0.0004918084 -0.03984507 -0.0016020667 0.18918282 -0.099135205 -0.0067511457
0.032865677 -0.0021192387 0.005409042 -0.02578784 0.016585097 2.3391383e-06 -0.0033212258 -0.0155213885
0.0067313984 0.001713427 0.024134763 0.005889865 0.02322499 -0.0050110193 0.011643954 0.004548932
0.008989943 0.0057497104 -0.0020952215 0.024436481 -0.02435014 -0.013970328 -0.0017502358 0.020516494
-0.035054635 0.02414923 -0.018512156 0.0005011208 0.13449574 -0.011612048 -0.032606278 0.022938667
0.017564366 -0.008727851 -0.018885838 -0.012590902 0.0027828088 -0.013853881 0.028859442 0.004407676
0.065844335 0.0016603443 -0.004887301 0.07770896 -0.0028292679 -0.025339268 0.048747763 -0.0782508
0.005898559 0.012247477 0.00503472 -0.007030043 0.0023136253 -0.014992432 0.015287681 -0.013998954
0.037723545 0.19707964 -0.21699476 0.007195932 0.03187356 0.010445746 0.0025271226 0.04412316
-0.05430859 -0.047104098 -0.0063221445 0.09283024 -0.020995833 -0.0059407237 -0.002322039 -0.024804376
0.042728323 -0.08548861 0.0070709377 0.02909423 -0.0148644345 0.0013953345 -0.007466349 -0.0006463069
0.011096287 -0.013659346 -0.04154085 -0.05686173 -0.037458215 -0.06659068 0.05032067 -0.27573296
-0.16767453 0.003024781 0.037955757 0.007271412 0.005537103 0.010048246 0.022983907 0.0890399
3.457627e-05 -0.038148694 -0.024762437 -0.006874469 0.02307538 0.055494808 0.055306874 -0.020460976
0.002414442 0.039145354 -0.0055456 -0.024611607 0.007737868 0.004207064 0.019345954 0.009505375
-0.0336028 -0.0031730626 -0.014768401 0.008050852 0.025646243 -0.13342275 -0.19218633 -0.002453473
0.0089905085 -0.003786806 0.017741956 0.02857731 0.009536845 0.0029053036 -0.0032948893 -0.0057669855
-0.0010212325 -0.011266282 0.0027001787 -0.018841868 -0.013588404 -0.04699659 0.017867995 0.012231344
0.012913957 0.031370908 -0.0033317946 0.005956131 0.009002457 0.019247932 -0.005588033 -0.0047012363
0.014521309 -0.06945686 -0.012321871 0.058968734 -0.15845068 -0.0034944704 -0.022357902 0.028988477
0.03715399 0.0045750677 0.026486099 0.015740125 0.0024869528 0.059555963 0.009601612 -0.004993585
0.0022794222 -0.029259948 0.011677112 0.03362307 0.0014574035 0.04656731 -0.014712736 0.012441835
0.0010953657 0.023006134 0.005671698 0.019807868 -0.017217563 -0.01591954 0.008629922 0.029301044
-0.03547277 -0.05500487 0.00063203566 0.0042886473 -0.004803762 -0.0034818584 0.017421473 -0.0042522657
0.0025017406 -0.0036837475 -0.0031815004 0.03250868 0.0024633014 0.0017417474 -0.0216716 -0.029496484
0.010297351 0.0026150383 0.0032540471 -0.018143356 -0.0038294569 -0.004291355 -0.0019825452 0.0032576886
-0.0005904333 0.002372115 0.008892802 -0.0029159626 0.019614808 -0.002618028 0.0025495524 -0.019864695
-0.08499039 -0.0026345388 0.0045238347 3.8825812e-05 0.008039127 -0.009626927 0.0582723 0.026617639
0.0015874984 -0.00034735547 0.009570686 -0.0038574412 0.014311683 0.054516744 0.041780084 -0.13954064

encoder_var.0.bias f4 [20]
00000000: 06f4 f1b7 ae26 2235 9e75 2e39 d0ec ccb8
00000010: 1544 5537 b464 1339 7b8f cd38 0fda 0839
00000020: 59cc 3eb8 8952 cbb8 830a 0a38 5018 6538
00000030: f6fd 1238 92c5 fd37 e631 90b8 a4a7 7d38
00000040: 9711 8cb8 ba1e f7b8 3fd4 0c38 b2a5 e3b8
-2.8843071e-05 6.040599e-07 0.00016637749 -9.771588e-05 1.2711641e-05 0.00014056527 9.801887e-05 0.00013051204
-4.5489844e-05 -9.695168e-05 3.2911554e-05 5.4620497e-05 3.5045632e-05 3.0251951e-05 -6.8757494e-05 6.0476028e-05
-6.6789966e-05 -0.00011783601 3.357627e-05 -0.00010855067

encoder_var.1.weight f4 [20]
00000000: e16e 033e dc6d 403e 0ed7 9b3e fc87 403e
00000010: 71e9 6f3e b5f8 613e b104 623e fa7b 273e
00000020: 2be1 be3e 2132 853e fc4c 803e 0453 2f3e
00000030: b742 ab3e 23e6 6c3e e920 363e 0c2c 583e
00000040: 956c ba3e 4f32 663e f75e 283e 8258 853e
0.12835266 0.18791908 0.3043751 0.18801874 0.23428895 0.2206753 0.22072102 0.16355887
0.37281165 0.26014808 0.25058734 0.17121512 0.33449337 0.23134665 0.17785992 0.21110553
0.36410967 0.22480129 0.16442476 0.2604409

encoder_var.1.bias f4 [20]
00000000: 26ac c0bb 8364 303c 4547 03bc 422c 7d3c
00000010: 7c88 2c3c 1a1c 5a3d c166 1eba c2c6 14bb
00000020: 11fc bdbc f79a 70bb 528b afbb 3814 06bc
00000030: 8161 27bd 86c1 06bc baf2 ba3c aba7 8bba
00000040: 64ac 74bd cf1b a13c f7b6 abbc 01d8 ef3c
-0.0058798967 0.010766151 -0.008012597 0.015452446 0.010530587 0.053249456 -0.0006042533 -0.0022701477
-0.023191484 -0.003671346 -0.0053571844 -0.008183531 -0.04086447 -0.0082248505 0.02282082 -0.0010654827
-0.059734717 0.01966658 -0.020961268 0.029277803

encoder_var.1.running_mean f4 [20]
00000000: 706d 8b3e 33cb b0bd 2cc1 9e3e 4157 ccbe
00000010: a812 3bbe 3b9b 6fbd 5956 79bd d2d7 b83c
00000020: b68d 1fbe 231c 883e 1d05 9b3e 9331 4e3e
00000030: 270f 8c3e b5fe 81bd 2e3b 41be 45fd 043e
00000040: e8ff 90be 9d3b 7a3e 6ece 243e de59 9fbe
0.27231932 -0.08632507 0.31006753 -0.3991032 -0.18268836 -0.05849765 -0.060873363 0.022563849
-0.15581402 0.26583967 0.3027734 0.20136099 0.2735531 -0.0634741 -0.18870232 0.1298724
-0.2832024 0.24436803 0.16094372 -0.3112325

encoder_var.1.running_var f4 [20]
00000000: 026c c33b 27fe 463b f3d0 3a3c e73a 7f3c
00000010: f74d 0c3c e98e 5c3b 0634 c33b ba1e 173b
00000020: 8be9 373c b85a 313c de40 e13b 6c51 7b3b
00000030: f25f 1d3c 05b6 bf3b 32ab 353c 6dcc bb3b
00000040: 6139 b83c d10c 5e3c fbbc 913b f71c 443c
0.0059638033 0.003036389 0.011402356 0.015578008 0.00856351 0.0033654517 0.0059571294 0.0023059086
0.011225115 0.010824852 0.006874188 0.0038348092 0.009605395 0.005850556 0.011088179 0.0057311566
0.022488298 0.01355286 0.004447577 0.011969796

encoder_var.4.weight f4 [16, 20]
00000000: ad06 9e3b 48d5 99bb aa3d 863c 407f 59bc
00000010: ba78 56bb 56ac 6abb 0389 e7bb 6771 da3a
00000020: 5f18 a0bb a71b d33a 54cc 233d 5c0a a43c
00000030: 1569 6a3d a86c 3dbb 703f 74bb 823b fb3b
00000040: 7c6c d63a d5fe a4bb 7950 143d 2c52 f9bb
00000050: 4b6f 273b 4a54 43bd 0d7e 883c d94e 8c3c
00000060: 9c72 2ebc 40bb 2ebd d8b2 9b3b 1f3c 10bc
00000070: 6680 fe3b c8e0 32bc 6f44 c13d b9bf 153d
00000080: f18c 053e d38b 1dbc b610 d1bc 8a3c 933c
00000090: b950 883c a059 0dbc 192c e4bb 01fe 3ebc
000000a0: f09f f93a de6d d4bc 5b5b a23c 4108 aebc
000000b0: 9b6b 8dbc 34c3 e3bc b9ea 8d3b 90e4 5bbb
000000c0: 81f8 dcbb 46de 203c fbcc 283d 7263 8b3d
000000d0: 33bd 993d e149 f7ba 13e1 07bc de0c 163c
000000e0: 4347 2dbc 1796 fbbb 753c eb3b b3bb 6f3b
000000f0: 8b3a 113b bff3 94bb f007 4bbc d69a 5abd
00000100: 8dda adbc bf6f 1cb9 335b 183b b289 cdbb
00000110: f075 4b3d 73de 32bc c967 823c 838c 2f3d
00000120: 534b ed3c 42df 13bb 5660 d8bc dbba 70bb
00000130: 1522 aebd 3891 733d 197d d1ba 6f1f 76bd
00000140: 822a 7abd 5482 73bb 5e35 3bbe fcac df3c
00000150: 09e8 fdbc bbb1 4c3d a358 46bc 2de1 3bbd
00000160: cae9 e13d 375c 11bd 84ac 54bd ae73 1cbd
00000170: afdf c1bd dff2 283d 3906 843d 3be5 5abd
00000180: f861 d43d 820f 0ebd 2735 89bd 9b0c 323d
00000190: 5e3b 3c3d f414 1fbd 427f 263c adbf 89bd
000001a0: a5be 80bc 24b7 51bd a16f 1d3b 48ac fdba
000001b0: eedc 133c e9a1 ee3b f47e fa3d 433e 3f3d
000001c0: 484e 923d 4c48 1cbd 8111 77bd cfc9 8dbc
000001d0: 88fe 17bd 6377 27bd 5c8e 3ebb 7ffa 52bd
000001e0: 19b8 7fba e6f9 4fbc 6700 253d d06d a63b
000001f0: a081 a23b f5f9 42bc 1026 61bc 66ba 5b3c
00000200: af94 58bc 33b8 8fbc 8b4a 263d 660c 6e3c
00000210: 949a 823d adc9 38bc 63b1 19bc 892d 3f3a
00000220: 2519 2a3c d1cc e2bc 340c 1d3c 5283 02bb
00000230: 584e 47bd 1eaa 0e3c 0075 46be d68c 0b3e
00000240: 9411 a83d 8432 003e c44e f13d 6754 09bc
00000250: c811 48bb 456b c0bb 1f45 5ebd ffd9 ecbc
00000260: 0f3a edbd 81fa d83c 45ef 363d 000e 75bc
00000270: 072b 3a3d b903 a5bd 38ee 87bd e458 1a3e
00000280: b378 603d e0ab 46bd 233d 083e 880a a9bd
00000290: 8f91 043d b2ca 22bc 7f34 beba 2d15 afbb
000002a0: c91e 04be 1b82 233b ef37 e63d 5c7d 153c
000002b0: 3387 213d e3e5 c53c fe59 ab3c a2fe e1bb
000002c0: 3b5b 5c3d 80dc 063e bd0c 263e 8569 3d3d
000002d0: 5c88 023b 4b9f 343d 9250 b1bc a602 193c
000002e0: 5b40 643d f2c0 2c3d dd1c 8d3d 1f65 98bb
000002f0: a6c9 033d 9478 5cbd 1f29 dbbb f3d2 2fbd
00000300: f717 66bd fb42 533b af8f 493d 60e3 6c3d
00000310: d744 bf3d e77b 853c bc4b a7bc bafc 133d
00000320: ae02 483c 3ff1 e8bb d0ac 74bc 3194 b5bc
00000330: 637f 30bb 7a9a dabc 18e8 303c 817b 69bb
00000340: dfed 33bc d11c 16bd cdea d9bc 53c6 e7bc
00000350: cc3f 0cbd 2b9d 2abd fe86 62bd 4b0f b0bb
00000360: c1b8 5fbd 742f 993b 0209 d2bc 3f61 5dbd
00000370: 14aa 8c3c 6d2a 9dbc 1ea0 373c 5510 bdbb
00000380: dce3 99bc 9802 37bd 2466 80bc d80e 84bc
00000390: c634 abbc 50f6 9abc 6d48 823d 0b15 a23b
000003a0: 6734 7f3d 319b 71bc 5b87 43bd 2e0a a63b
000003b0: 322e 4bbd 5dae 72bc c3eb 903c 1a85 d4bc
000003c0: 4d28 d03b e5ee 45bc 10da 613c 1a4b 7c3b
000003d0: d6a4 c53b 22f0 8bbc 6a0f 40bc be80 873c
000003e0: e301 8dbb 7fbc e1bb 2ddc 263d d471 7b3c
000003f0: 7e4f 883d 5fb9 b8bb 1270 47bc abf2 a53b
0.004822573 -0.0046946146 0.016386826 -0.013274968 -0.0032725767 -0.0035808287 -0.0070658936 0.0016665877
-0.0048857178 0.0016106264 0.039989784 0.020024471 0.05722912 -0.0028903875 -0.0037269257 0.007667006
0.0016359235 -0.005035261 0.036209557 -0.0076086726 0.0025548514 -0.047687806 0.016661668 0.017127441
-0.010647442 -0.042659044 0.0047515444 -0.0088033965 0.007766771 -0.01091785 0.09436881 0.036559794
0.13042046 -0.009615856 -0.025520664 0.017973203 0.016640054 -0.008627325 -0.0069632647 -0.011657239
0.0019044857 -0.025931295 0.019818952 -0.02124417 -0.017263224 -0.027803041 0.0043309596 -0.0033552982
-0.006743491 0.009818619 0.04121111 0.06806077 0.0750679 -0.0018866622 -0.008293408 0.009158341
-0.010576072 -0.007677804 0.007178838 0.0036580383 0.0022160138 -0.0045456584 -0.012392029 -0.05337032
-0.021222377 -0.00014918948 0.0023247718 -0.006272518 0.04967302 -0.010917294 0.01591863 0.04285861
0.028966581 -0.0022563492 -0.026413124 -0.0036732468 -0.085025944 0.059464663 -0.0015982717 -0.06008857
-0.061075695 -0.003715654 -0.18282077 0.027304165 -0.030994432 0.049974184 -0.012106094 -0.04586904
0.1103092 -0.035488334 -0.051922336 -0.03819626 -0.094664924 0.041247245 0.064464994 -0.053441267
0.103702486 -0.03468276 -0.06699591 0.043469053 0.045955054 -0.03883834 0.010162177 -0.067260124
-0.015715906 -0.051200047 0.0024022835 -0.0019353712 0.009024842 0.007282485 0.12231246 0.046690237
0.07143837 -0.038154885 -0.060319427 -0.017308144 -0.037107974 -0.04088534 -0.0029076552 -0.051508423
-0.0009754911 -0.012693858 0.040283587 0.0050790086 0.0049593 -0.011900415 -0.013741985 0.01341114
-0.013219043 -0.017543888 0.040598433 0.014529323 0.0637714 -0.011278552 -0.009380671 0.0007292857
0.0103819715 -0.027685555 0.009585429 -0.0019914699 -0.0486587 0.008707551 -0.1938057 0.13627943
0.08206478 0.1251927 0.117826015 -0.0083819395 -0.0030528177 -0.0058721625 -0.054265138 -0.028912542
-0.115833394 0.026486637 0.04466178 -0.014956951 0.04545119 -0.08057351 -0.066372335 0.15072972
0.054802608 -0.048503757 0.13304572 -0.08253962 0.032365378 -0.009936022 -0.0014511495 -0.0053431005
-0.12902369 0.0024949375 0.11241137 0.009124126 0.039435577 0.02415747 0.020916935 -0.0068968097
0.05379794 0.13170052 0.16215797 0.04624321 0.0019917702 0.044097226 -0.021644864 0.00933901
0.055725437 0.042176194 0.06890271 -0.0046507264 0.03217473 -0.05382593 -0.0066882516 -0.042925786
-0.0561752 0.0032235968 0.049209293 0.05783403 0.09339302 0.016294433 -0.020421855 0.03612969
0.01220767 -0.007108837 -0.01493378 -0.02216539 -0.0026931397 -0.026684988 0.010797523 -0.0035626593
-0.010982006 -0.036648575 -0.02660122 -0.02829281 -0.03424053 -0.041653793 -0.05530452 -0.005372917
-0.054619554 0.0046748463 -0.02563906 -0.05404782 0.017170943 -0.01918527 0.0112076085 -0.005769769
-0.01878541 -0.044680208 -0.015673704 -0.01612036 -0.020899188 -0.01891628 0.0636147 0.004946356
0.062305834 -0.014746473 -0.047736507 0.0050671315 -0.049604602 -0.014812079 0.017690545 -0.025942374
0.0063524605 -0.012080883 0.0137849 0.0038496912 0.006031613 -0.017082278 -0.011722425 0.016540881
-0.0043032034 -0.0068889256 0.04073732 0.015346963 0.06655787 -0.0056373323 -0.012172716 0.0050643287

encoder_var.4.bias f4 [16]
00000000: 8520 d338 4fc1 7d39 0faf 71b9 2ca9 b738
00000010: 36f6 0438 dff6 4d39 b563 9fb9 84a4 5f38
00000020: 7b54 15b7 c38a 7038 61cc a6b7 529b 7938
00000030: 8cab 43b9 b9c9 6239 4e63 84b7 8326 1937
0.00010067321 0.00024199973 -0.00023048765 8.757631e-05 3.1700554e-05 0.0001964229 -0.0003040113 5.332056e-05
-8.900762e-06 5.734969e-05 -1.9883913e-05 5.951088e-05 -0.00018660555 0.00021628187 -1.5781869e-05 9.128477e-06

encoder_var.5.weight f4 [16]
00000000: 0bf6 423e 5ed9 643e f867 543e 197e 783e
00000010: 7fd8 a33e 5252 423e e5ac 513e 273e 203f
00000020: 5d61 f23e a152 9c3e f21a 3c3e c59e ad3e
00000030: 449e 693e db98 823e 00dc 923e a255 293e
0.1903917 0.22348544 0.20742786 0.24266852 0.3200111 0.18976715 0.2047611 0.62594837
0.47339907 0.3053179 0.18369654 0.33910194 0.2281428 0.25507244 0.28683472 0.16536573

encoder_var.5.bias f4 [16]
00000000: f4e9 05bd 0858 ea3c ee0a 0cbd bccb 3abc
00000010: 3971 5abd c714 30bd ddfa c8bc 62dc e4bc
00000020: 7573 38bd dfa9 8ebb 2bf6 b73c 334f bfbc
00000030: ee95 7bbc 954c dbbc 79a6 04bd 1b57 c5bb
-0.03269382 0.02860643 -0.03419011 -0.011401113 -0.053330634 -0.042988565 -0.024533683 -0.027937118
-0.045031983 -0.0043537463 0.02245625 -0.023353195 -0.01535557 -0.026769916 -0.032385323 -0.0060223467

encoder_var.5.running_mean f4 [16]
00000000: fd20 563c 3ba3 ab3c d1fb d23b bcc8 2dbc
00000010: bbf2 d8bc 2b72 91bc 325e 8b3c e136 e03a
00000020: 0b4e 873d 886e 183d 8db6 68bd f4a8 febc
00000030: 1fca 223c 87c7 993b ad9c f63a 8560 073c
0.013069388 0.020951858 0.0064387103 -0.010606941 -0.02648293 -0.017754635 0.01701269 0.0017106199
0.066066824 0.037214786 -0.05681472 -0.031086423 0.009935885 0.004692975 0.0018815004 0.008262758

encoder_var.5.running_var f4 [16]
00000000: bf5c 103b a2c4 c33b 604f 433b 4981 603b
00000010: 0ac9 a63c 6d06 fa3b d544 3c3b 68f4 fc3c
00000020: 2efe 423c 0e8f f43b d445 aa3a 2ce6 623b
00000030: 4e31 2a3b 8b0e c73b 9be4 a93b 23bc 9c3a
0.0022027937 0.005974368 0.002980195 0.0034256747 0.020359535 0.0076301605 0.002872755 0.03087826
0.0119014215 0.0074633425 0.0012990781 0.0034622056 0.002596933 0.0060747317 0.0051847226 0.0011957925
