generativecf/models/adult-2048-50-target-class-0-auto-encoder.pth (torch_old, 35771 bytes, 78 tensors)

encoder_mean.0.weight f4 [20, 29]
-0.79958975 -0.0012046435 -0.018647902 -0.007510416 -0.015374682 -0.016280279 0.016809776 0.024694378
0.03765232 0.025162745 0.021038534 0.0039151674 0.023998553 0.0252266 0.002426038 0.0017901853
-0.0023181182 -0.00066496327 0.0030383188 0.055948462 0.015696567 0.055503532 0.0536539 0.052009776
0.047650713 0.08076275 0.077019624 -0.0015744405 -0.0036517745 -0.6296164 -0.040625133 0.0332502
0.07808001 0.023592338 0.013527834 -0.0065937904 -0.0095567815 -0.0071481746 -0.009997318 0.0089833075
-0.0045411116 -0.020918261 -0.0066359253 0.028208522 -0.007098556 0.023027265 -0.0104336245 0.01766041
-0.019711107 -0.07734728 -0.017815959 -0.015019119 -0.006867153 -0.01016674 -0.045150205 -0.054690424
0.049779892 0.03518104 -0.016581304 0.022455977 0.016265918 0.0012738798 0.043933555 -0.02039405
0.00056991645 -0.0012302531 -0.0018572805 0.063763276 -0.008587698 -0.0060363663 -0.014541601 -0.020332126
0.05762822 0.0031840059 -0.0018498488 -0.0024838536 -0.007735659 0.033669323 -0.004915947 -0.021828135
-0.011824567 0.016186811 0.017154893 -0.010324239 0.012103133 -0.024931174 0.022044215 0.13975824
-0.8773085 0.010810369 -0.111121885 -0.005524678 0.010569265 -0.011367903 -0.014145152 -0.029493947
-0.025727265 -0.007217692 -0.032537285 -0.021909272 -0.02394713 0.016001862 -0.006529671 -0.006457142
-0.007563325 0.020278366 -0.0050090626 0.10623166 -0.0011450723 -0.027339973 -0.015787233 -0.0035554047
0.04672195 0.04533385 0.022213133 0.03203921 0.10077544 -0.8852984 0.021804467 0.13104257
0.03508403 0.010823113 0.03421802 0.0052484553 0.025935901 0.052546814 0.071888216 0.02676159
0.031712398 0.0071287686 0.06269533 0.03806257 0.011050753 0.024027074 0.045748025 0.05349626
-0.04699505 0.035533447 0.09253992 0.03796029 0.04198999 0.09724798 0.07765109 -0.101629816
-0.052917115 -0.6215081 -0.057304032 0.037628733 0.024760157 0.056890234 0.047323767 -0.0011348991
0.0011194049 0.010652872 -0.0041107587 -0.025667109 0.006619878 -0.01667408 -0.009132088 -0.20650446
0.06286073 0.070696734 0.04981635 0.058964282 -0.008629432 0.018626042 -0.00874594 0.0032060116
0.0022798802 -0.00032591465 0.040981285 0.03872452 -0.0029478974 -0.017005553 -0.4167409 -0.09488099
-0.055134308 -0.020329906 0.11114436 -0.024493568 0.063017644 -0.0058621867 -0.022025755 0.034717314
-0.025664352 0.022866184 0.018587187 0.037099503 0.018087886 0.0017744703 0.025132071 -0.0148483515
-0.017716413 -0.006075813 0.027533982 -0.008991033 -0.01765394 0.0033404583 -0.017719954 -0.047771722
-0.04696664 -0.07875729 -0.09259472 0.18989766 -0.5484424 0.046512425 0.012415875 0.007509927
0.0004748602 -0.006872173 0.038045686 0.0192877 0.012288777 0.02167026 -0.029953869 0.016872076
0.05682222 0.012143489 0.01017577 0.057434887 0.019827634 0.053340755 0.0062410505 0.026393626
-0.0052480064 -0.009319073 0.02998386 0.0019679558 -0.027995205 -0.031927504 -0.0127679175 -0.040343564
0.59881335 -0.22450168 -0.03891958 -0.1091759 -0.050538592 -0.03310872 0.017790053 0.006446882
0.026093455 0.016700847 0.029621424 0.053707946 0.023169639 0.02311081 0.06956349 0.05900378
0.060035635 0.05560899 0.064590335 0.02029585 0.0982575 0.0012705605 0.00817449 0.023127867
00000000: eab1 4cbf 21e5 9dba 7cc3 98bc f019 f6bb
00000010: 17e6 7bbc 385e 85bc a8b4 893c dd4b ca3c
00000020: 5239 1a3d 1a22 ce3c 0159 ac3c ce4a 803b
00000030: 9d98 c43c 04a8 ce3c 2afe 1e3b a7a4 ea3a
00000040: 92eb 17bb ee50 2eba 881e 473b 372a 653d
00000050: 1696 803c ac57 633d 31c4 5b3d 3408 553d
00000060: 652d 433d f166 a53d 77bc 9d3d 755d ceba
00000070: 9c52 6fbb 8a2e 21bf 8a66 26bd 5d31 083d
00000080: 6ae8 9f3d b844 c13c d9a3 5d3c b910 d8bb
00000090: 0c94 1cbc 3c3b eabb cacb 23bc b92e 133c
000000a0: 9bcd 94bb c65c abbc 2d72 d9bb 8f15 e73c
000000b0: 019b e8bb ada3 bc3c cbf1 2abc 90ac 903c
000000c0: 3079 a1bc 4068 9ebd c6f2 91bc c012 76bc
000000d0: db05 e1bb 6692 26bc 6cef 38bd 1103 60bd
000000e0: 00e6 4b3d ff19 103d 84d5 87bc 99f5 b73c
000000f0: 1a40 853c 50f8 a63a acf3 333d 6c11 a7bc
00000100: 7266 153a 7240 a1ba fe6f f3ba 5296 823d
00000110: 6bb3 0cbc b6cc c5bb e53f 6ebc 8f8f a6bc
00000120: 920b 6c3d c1aa 503b a076 f2ba 26c8 22bb
00000130: 697b fdbb d8e8 093d f415 a1bb ebd0 b2bc
00000140: d4bb 41bc 349a 843c 6b88 8c3c ff26 29bc
00000150: 384c 463c 763c ccbc 1296 b43c c91c 0f3e
00000160: 4a97 60bf f91d 313c df93 e3bd 5c08 b5bb
00000170: b62a 2d3c 7140 3abc 11c1 67bc 4a9d f1bc
00000180: fcc1 d2bc 6482 ecbb d145 05bd 137b b3bc
00000190: c62c c4bc 5616 833c daf6 d5bb 6f96 d3bb
000001a0: c5d5 f7bb d11e a63c 1023 a4bb fc8f d93d
000001b0: 4016 96ba 14f8 dfbc 3a54 81bc cb01 69bb
000001c0: 845f 3f3d fdaf 393d 51f8 b53c 8c3b 033d
000001d0: 5b63 ce3d eaa2 62bf 489f b23c 0630 063e
000001e0: 46b4 0f3d 6d53 313c 3228 0c3d 3cfb ab3b
000001f0: 8777 d43c 543b 573d 213a 933d 1f3b db3c
00000200: dce4 013d 7298 e93b 6966 803d 7fe7 1b3d
00000210: 380e 353c 6dd4 c43c 4862 3b3d e51e 5b3d
00000220: e27d 40bd 858b 113d 9285 bd3d 407c 1b3d
00000230: b2fd 2b3d f329 c73d 8907 9f3d 4b23 d0bd
00000240: 9ebf 58bd 281b 1fbf a2b7 6abd 9620 1a3d
00000250: d0d5 ca3c bc05 693d 91d6 413d e5c0 94ba
00000260: ffb8 923a 6289 2e3c 8bb3 86bb d443 d2bc
00000270: 90eb d83b 1598 88bc c19e 15bc e875 53be
00000280: 20bd 803d 73c9 903d 3b0c 4c3d 8884 713d
00000290: 7662 0dbc a495 983c 224b 0fbc f31b 523b
000002a0: 0b6a 153b 86df aab9 fedb 273d 9a9d 1e3d
000002b0: 8331 41bb 3b4f 8bbc 105f d5be f750 c2bd
000002c0: 83d4 61bd e78a a6bc a79f e33d bca6 c8bc
000002d0: 650f 813d 9617 c0bb 5b6f b4bc be33 0e3d
000002e0: 0c3e d2bc dd51 bb3c 2844 983c a6f5 173d
000002f0: 0c2d 943c 5895 e83a c6e1 cd3c 8046 73bc
00000300: 0322 91bc 9d17 c7bb f28e e13c 204f 13bc
00000310: ff9e 90bc 97eb 5a3b 7029 91bc 48ac 43bd
00000320: 1760 40bd 814b a1bd 4da2 bdbd 8874 423e
00000330: b966 0cbf d083 3e3d f46b 4b3c d515 f63b
00000340: a8f6 f839 f72f e1bb cbd5 1b3d 3d01 9e3c
00000350: de56 493c d485 b13c d161 f5bc 4f37 8a3c
00000360: 6bbe 683d 7cf5 463c 46b8 263c d840 6b3d
00000370: 906d a23c d67b 5a3d ba81 cc3b 7237 d83c
00000380: 78f7 abbb 06af 18bc b6a0 f53c d2f8 003b
00000390: 3356 e5bc 6ac6 02bd 8730 51bc 4b3f 25bd
000003a0: d54b 193f c5e3 65be 236a 1fbd 9d97 dfbd
000003b0: 8e01 4fbd 029d 07bd 72bc 913c 5e40 d33b
000003c0: f1c1 d53c 37d0 883c a1a8 f23c ddfc 5b3d
000003d0: 41ce bd3c e252 bd3c 4e77 8e3d f3ad 713d
000003e0: ede7 753d 41c6 633d f047 843d 7b43 a63c
000003f0: 3a3b c93d f088 a63a 4cee 053c a776 bd3c

encoder_mean.0.bias f4 [20]
-8.712403e-05 3.6788715e-06 2.9787427e-07 1.0069509e-05 -2.4226124e-06 5.9149085e-07 1.6528164e-06 -1.7608504e-06
-8.9126825e-06 -1.7055743e-07 8.6131575e-07 2.6024509e-06 8.0344225e-06 1.8531456e-06 -3.999556e-06 -2.2754043e-06
-1.6715204e-06 2.1317228e-06 -3.2590106e-06 1.5580399e-06
00000000: 5cb6 b6b8 88e2 7636 87eb 9f34 36f0 2837
00000010: 2a94 22b6 f1c6 1e35 57d6 dd35 5c56 ecb5
00000020: ae87 15b7 7822 37b4 2b35 6735 c4a5 2e36
00000030: 95cb 0637 99b9 f835 ed33 86b6 26b3 18b6
00000040: 0159 e0b5 b80e 0f36 60b5 5ab6 d81d d135

encoder_mean.1.weight f4 [20]
0.7120361 0.43968102 0.1282228 0.6852939 0.6071213 0.45470217 0.23446521 0.2433749
0.45629364 0.76025224 0.46217218 0.56914264 0.5727195 0.33782086 0.19741435 0.41734374
0.30305025 0.28499717 0.17888968 0.20887546
00000000: ff47 363f df1d e13e d64c 033e 6c6f 2f3f
00000010: 4d6c 1b3f b9ce e83e a617 703e 4537 793e
00000020: 529f e93e e49f 423f d5a1 ec3e 55b3 113f
00000030: bf9d 123f dbf6 ac3e fd26 4a3e 14ae d53e
00000040: 6729 9b3e 26eb 913e db2e 373e 73e3 553e

encoder_mean.1.bias f4 [20]
0.4010658 0.25217703 -0.040212408 -0.36647364 -0.5018833 0.09242284 0.0371277 -0.099805064
-0.17215836 0.21398152 -0.27519566 0.2522612 -0.41878495 -0.10958995 -0.049589276 0.4308056
-0.18157703 0.0549059 -0.049043447 0.013977844
00000000: 7f58 cd3e 591d 813e c4b5 24bd 6fa2 bbbe
00000010: 6d7b 00bf 3048 bd3d 3713 183d 9966 ccbd
00000020: 484a 30be f91d 5b3e 72e6 8cbe 6128 813e
00000030: fb6a d6be b270 e0bd 201e 4bbd 8d92 dc3e
00000040: 54ef 39be 02e5 603d c8e1 48bd 5403 653c

encoder_mean.1.running_mean f4 [20]
-0.21389711 -0.29404575 0.09438348 -0.23838964 -0.15716942 -0.23524156 -0.27586028 -0.11882399
0.12226549 -0.024337938 0.24262969 -0.38012642 -0.1971783 0.34300336 0.15168819 -0.12635331
-0.2435089 -0.08529445 -0.25486013 -0.16557303
00000000: d807 5bbe 2a8d 96be 204c c13d 6a1c 74be
00000010: 05f1 20be 2ae3 70be 8f3d 8dbe fe59 f3bd
00000020: 5466 fa3d 5b60 c7bc eb73 783e ee9f c2be
00000030: 1ce9 49be 239e af3e 2654 1b3e c362 01be
00000040: 665a 79be dbae aebd 077d 82be fa8b 29be

encoder_mean.1.running_var f4 [20]
0.01293257 0.008161769 0.004207249 0.014122297 0.0145617565 0.019632194 0.009894022 0.008594252
0.010102876 0.012652636 0.010202733 0.0098188305 0.01220118 0.007936175 0.0097559625 0.010209551
0.009620893 0.00868766 0.007073116 0.0055195894
00000000: 21e3 533c f1b8 053c f6dc 893b 3561 673c
00000010: 6f94 6e3c b2d3 a03c 891a 223c e8ce 0c3c
00000020: 8986 253c 004d 4f3c 5d29 273c 29df 203c
00000030: 75e7 473c bb06 023c 79d7 1f3c f645 273c
00000040: f3a0 1d3c b056 0e3c 99c5 e73b acdd b43b

encoder_mean.4.weight f4 [16, 20]
-0.12959807 0.11387566 0.009330686 -0.054985754 -0.06804257 0.04507339 0.072780706 -0.056588713
0.06531768 -0.17623024 0.06028114 0.29780123 -0.06028715 0.09214794 0.027795047 0.025466288
-0.108898334 0.14928047 0.05921302 0.10491362 -0.22265065 -0.13536255 -0.021451466 0.16670284
0.20601031 -0.16422746 -0.095731705 -0.008619439 0.046627052 -0.215623 0.09657834 -0.1890275
0.15602477 0.047691487 -0.00258167 -0.1265713 0.030263266 -0.045879047 -0.04917964 -0.076688975
-0.10483757 -0.08380738 -0.0042284536 0.0051218793 0.01603015 -0.03888249 -0.045249723 -0.014714551
-0.031417996 0.48400247 -0.051111136 -0.07819652 0.020316856 0.012511658 -0.01433631 -0.042102594
0.015325827 -0.041989964 -0.007217095 -0.015808402 -0.21484272 -0.19620253 -0.012571011 0.2442164
0.25115368 -0.2248613 -0.0914546 0.02290839 0.020274974 -0.0646263 0.1163451 -0.08976643
0.16311982 0.019935537 0.021795675 -0.19137058 0.074012026 -0.00599062 -0.12014712 -0.089548245
0.4235783 -0.087585665 0.0006524933 -0.3022602 0.1002008 -0.05613008 -0.058588076 0.05778006
0.038300376 -0.13430262 0.017059432 -0.08699286 0.11388141 0.016457343 -0.007884468 -0.08326728
0.078733094 -0.043186963 -0.0025463633 -0.03326025 -0.15419045 0.13498554 0.03417627 0.14169069
0.05064566 0.08740563 0.06519801 -0.049676348 -0.067572154 0.20822929 -0.03857331 0.13491164
-0.024218662 -0.16253495 0.040380746 0.15622129 -0.04856688 0.07645337 0.018526321 0.02647423
-0.09184523 -0.0794907 -0.08115153 0.3191246 0.098087445 0.010332917 0.038908795 0.12286073
0.039566215 -0.21843229 0.08432745 -0.2201818 0.12582642 -0.024565598 -0.117332466 -0.06672887
0.19455999 -0.052460447 0.073989116 0.136004 0.14746219 0.0596387 0.009086659 0.043802056
-0.033148 0.0038742528 0.017543448 0.05935726 0.032794055 0.0005280678 -0.019291 0.05688021
-0.00040116574 0.05388496 0.0778554 0.16823113 0.02350882 0.1095509 0.006774368 -0.01145439
-0.2621949 -0.1694406 0.013183958 0.14722991 0.17720129 -0.15214553 -0.055487473 0.03434147
0.0390471 -0.24271089 0.07729925 -0.13948472 0.22122236 0.12188069 -0.02215843 -0.16052616
0.040526427 -0.13180324 -0.06316227 -0.006970676 -0.076195225 0.10556834 -0.017549863 0.065641165
-0.06817689 0.13925406 0.028274959 -0.027726898 -0.12119665 0.1925727 -0.13852367 0.08021155
0.05132746 -0.11097381 0.045263495 0.037892874 -0.13161768 0.05900778 0.0040372973 0.041650906
-0.12586895 -0.11398742 -0.0017242982 0.18074873 0.26027256 -0.1920667 -0.096804515 0.065858506
0.0483296 -0.08455655 -0.0030586221 -0.16848883 0.14482787 0.01948135 0.009995043 -0.17602949
0.13549347 -0.08666434 -0.05280269 -0.046134938 0.16129659 0.06690268 0.01199478 -0.04419597
-0.097070016 0.0034638788 0.04247155 0.0024933373 -0.12370611 -0.04960452 -0.2230416 0.12666902
-0.05533291 -0.09789969 0.026876824 0.05675591 0.091059916 0.049619395 0.026493568 0.0370908
0.15128142 0.0959793 0.020438695 0.01078053 -0.064170964 0.06302955 0.041566305 0.05070058
-0.18686995 0.13979784 -0.15111811 0.09386639 -0.07124018 -0.16552292 0.022431076 -0.0026746672
00000000: 5bb5 04be a437 e93d bcdf 183c be38 61bd
00000010: e759 8bbd e09e 383d 0d0e 953d 91c9 67bd
00000020: 47c5 853d b375 34be 5be9 763d 6779 983e
00000030: a9ef 76bd 0fb8 bc3d 70b2 e33c ad9e d03c
00000040: 1706 dfbd fbdc 183e 5a89 723d f4dc d63d
00000050: 88fe 63be 7b9c 0abe fcba afbc 26b4 2a3e
00000060: 5ef4 523e 3e2b 28be fc0e c4bd 8c38 0dbc
00000070: 02fc 3e3d 47cc 5cbe ddca c53d 6d90 41be
00000080: f5c4 1f3e 2658 433d 3c31 29bb e89b 01be
00000090: abea f73c abeb 3bbd 9770 49bd 1c0f 9dbd
000000a0: 14b5 d6bd 34a3 abbd d78e 8abb 70d5 a73b
000000b0: a951 833c 3f43 1fbd c657 39bd 4d15 71bc
000000c0: 28b0 00bd 2ccf f73e e959 51bd 7f25 a0bd
000000d0: 896f a63c b2fd 4c3c d8e2 6abc c573 2cbd
000000e0: 2d19 7b3c abfd 2bbd 617d ecbb 9f80 81bc
000000f0: bbff 5bbe 51e9 48be a4f6 4dbc dd13 7a3e
00000100: 3797 803e 0a42 66be 8d4c bbbd 60aa bb3c
00000110: b417 a63c cb5a 84bd 5746 ee3d 76d7 b7bd
00000120: e208 273e da4f a33c d88c b23c a6f6 43be
00000130: 9e93 973d f64c c4bb b10f f6bd 1265 b7bd
00000140: 41df d83e 1d60 b3bd 160c 2b3a d9c1 9abe
00000150: 1436 cd3d a8e8 65bd 0dfa 6fbd c9aa 6c3d
00000160: dbe0 1c3d a086 09be 39c0 8b3c 5029 b2bd
00000170: a83a e93d 8dd1 863c db2d 01bc 0988 aabd
00000180: d13e a13d d0e4 30bd e3e0 26bb e63b 08bd
00000190: 1ae4 1dbe a639 0a3e 6bfc 0b3d 5d17 113e
000001a0: d371 4f3d b901 b33d 8986 853d 6d79 4bbd
000001b0: 4563 8abd 0f3a 553e 0cff 1dbd 4726 0a3e
000001c0: 3766 c6bc 906f 26be 4866 253d 79f8 1f3e
000001d0: 11ee 46bd 9693 9c3d 83c4 973c 7ce0 d83c
000001e0: 5a19 bcbd 05cc a2bd c632 a6bd 4d64 a33e
000001f0: 12e2 c83d 654b 293c d45e 1f3d 689e fb3d
00000200: 2f10 223d b7ac 5fbe dfb3 ac3d 5677 61be
00000210: a4d8 003e cb3d c9bc 014c f0bd 25a9 88bd
00000220: bc3a 473e c4e0 56bd 9b87 973d a244 0b3e
00000230: 5400 173e b647 743d 36e0 143c c969 333d
00000240: 32c6 07bd 2de7 7d3b 47b7 8f3c 9920 733d
00000250: 0f53 063d 086e 0a3a 2908 9ebc 39fb 683d
00000260: 8e53 d2b9 7ab6 5c3d a772 9f3d c844 2c3e
00000270: 9295 c03c 395c e03d 85fb dd3b 32ab 3bbc
00000280: 693e 86be d681 2dbe 8701 583c 70c3 163e
00000290: 4174 353e 0acc 1bbe d546 63bd a4a9 0c3d
000002a0: daef 1f3d 3489 78be 124f 9e3d 15d5 0ebe
000002b0: 1d88 623e 959c f93d 9985 b5bc f860 24be
000002c0: 0aff 253d 6ef7 06be 385b 81bd 456a e4bb
000002d0: 3e0c 9cbd 3734 d83d bbc4 8fbc e06e 863d
000002e0: 53a0 8bbd 9e98 0e3e e3a0 e73c 8523 e3bc
000002f0: f335 f8bd c731 453e 26d9 0dbe f445 a43d
00000300: be3c 523d 3d46 e3bd 3766 393d 8f35 1b3d
00000310: c9c6 06be 24b2 713d 4e4b 843b 249a 2a3d
00000320: cae3 00be 3d72 e9bd d901 e2ba 3216 393e
00000330: 7242 853e 22ad 44be 7241 c6bd d3e0 863d
00000340: 42f5 453d fc2b adbd 2a73 48bb 5688 2cbe
00000350: c24d 143e 5a97 9f3c 40c2 233c 1341 34be
00000360: cdbe 0a3e 137d b1bd a247 58bd fdf7 3cbd
00000370: ef2a 253e 4604 893d c185 443c d506 35bd
00000380: a5cc c6bd 3e02 633b a6f6 2d3d 4267 233b
00000390: a159 fdbd 1c2e 4bbd 0465 64be 86b5 013e
000003a0: c3a4 62bd a27f c8bd c92c dc3c e378 683d
000003b0: 9f7d ba3d b53d 4b3d 0a09 d93c 86ec 173d
000003c0: 84e9 1a3e cc90 c43d 0d6f a73c d2a0 303c
000003d0: 116c 83bd a315 813d 6e41 2a3d 69ab 4f3d
000003e0: d65a 3fbe 2a27 0f3e b5be 1abe 063d c03d
000003f0: 5fe6 91bd d77e 29be 60c1 b73c 7849 2fbb

encoder_mean.4.bias f4 [16]
-1.9886077e-06 3.836536e-06 9.38659e-06 -4.2890383e-06 3.5406874e-06 -5.849074e-07 -4.2488664e-06 1.6747543e-06
-2.8598947e-06 1.2618345e-06 4.689571e-06 -6.9666403e-06 -1.3006455e-06 1.07636424e-07 1.5154407e-06 3.3084827e-06
00000000: 0574 05b6 98bb 8036 197b 1d37 8fea 8fb6
00000010: 8c9c 6d36 8802 1db5 7c91 8eb6 1fc8 e035
00000020: 9eec 3fb6 4e5c a935 1c5b 9d36 fcc2 e9b6
00000030: d791 aeb5 c025 e733 2566 cb35 4d07 5e36

encoder_mean.5.weight f4 [16]
0.31157467 0.5796431 0.43722928 0.7104024 0.45304745 0.5220403 0.65661746 0.32964942
0.5234049 0.45390406 0.62832826 0.34809726 0.5121494 0.49409932 0.38643768 0.5024374
00000000: b786 9f3e 7d63 143f 84dc df3e efdc 353f
00000010: d6f5 e73e 6fa4 053f 1518 283f cfc7 a83e
00000020: ddfd 053f 1d66 e83e 1fda 203f ce39 b23e
00000030: 391c 033f 96fa fc3e 29db c53e bd9f 003f

encoder_mean.5.bias f4 [16]
-0.22985053 -0.40666866 -0.16029832 -0.49092555 -0.03572839 -0.045224458 -0.20216376 0.01857855
-0.3384379 0.17903534 -0.44213176 0.28943023 0.30800337 0.12826528 -0.24487925 0.073393226
00000000: f05d 6bbe e036 d0be 3e25 24be 985a fbbe
00000010: ef57 12bd 483d 39bd 0404 4fbe 0b32 983c
00000020: bc47 adbe 0a55 373e 185f e2be 3330 943e
00000030: 9eb2 9d3e f957 033e a0c1 7abe 304f 963d

encoder_mean.5.running_mean f4 [16]
0.09307036 -0.38930142 0.037886478 -0.335832 0.04545213 0.22362527 -0.18665588 0.25192273
-0.4313651 0.14573321 -0.29869527 0.10946739 0.19126835 0.12097511 0.20174539 0.22762361
00000000: ac9b be3d 8452 c7be da2e 1b3d 2cf2 abbe
00000010: 032c 3a3d 06fe 643e b822 3fbe 04fc 803e
00000020: e3db dcbe 163b 153e 96ee 98be 7030 e03d
00000030: dadb 433e ccc1 f73d 5896 4e3e 2a16 693e

encoder_mean.5.running_var f4 [16]
0.010661643 0.23665622 0.016636994 0.21776147 0.01730162 0.050038785 0.15399869 0.030539181
0.2890524 0.052575167 0.16892846 0.063820355 0.09375892 0.05556494 0.035862375 0.08424918
00000000: 2cae 2e3c 0256 723e 4e4a 883c ddfc 5e3e
00000010: 21bc 8d3c 78f5 4c3d d5b1 1d3e 4e2d fa3c
00000020: adfe 933e 0f59 573d 95fb 2c3e 3fb4 823d
00000030: ad04 c03d 1098 633d 6de4 123d d68a ac3d

encoder_mean.8.weight f4 [14, 16]
0.08485145 -0.15493946 0.15162207 -0.15456735 0.16855392 0.14178048 0.07418269 -0.021135708
-0.1184169 0.10558799 -0.14684793 -0.011282967 -0.016968861 0.082713924 0.04505856 0.19600412
0.0993017 -0.13684505 0.13923429 -0.17642397 0.16093317 0.12546659 0.014816613 0.07884176
-0.19737034 0.077130705 0.03264955 -0.026549367 0.047599662 0.09045932 0.14962725 0.053697404
0.11863953 -0.010073975 0.18211287 -0.015173016 -0.02529213 -0.08757756 -0.0016225539 0.06419497
-0.000115356175 0.035250828 0.0077348147 0.24325237 -0.045052376 -0.029805962 0.20205049 -0.015635524
-0.0084674405 0.2040814 -0.036459375 0.25500876 -0.031739123 -0.13104115 0.07353641 -0.09493563
0.16334802 -0.04024104 0.21910319 -0.011134194 -0.17160997 -0.11696314 -0.016573219 -0.14619763
-0.1541647 0.2260104 -0.014561186 0.15363918 0.08869985 0.0077481293 -0.045711588 -0.018603923
0.053268705 0.0044086073 0.191915 -0.12188839 -0.17325452 -0.02952377 -0.08376279 -0.04076135
-0.05371579 -0.12950866 -0.13129438 -0.13122128 0.22611095 0.22533758 0.32434362 -0.07264786
-0.07152803 -0.02853135 -0.12964231 -0.11096056 -0.047747195 0.017507209 0.09746543 0.009263174
-0.12475419 0.20879714 -0.012016731 0.15222539 -0.03344238 -0.025990004 -0.01978124 -0.061010446
0.20116442 -0.068355665 0.25912544 -0.11317249 -0.16136532 -0.042848483 0.03422997 0.045427114
-0.09945215 0.19661683 -0.0025654158 0.16584617 0.05722614 -0.017920626 -0.05620026 0.036780436
0.060174637 -0.1061718 0.24279854 -0.09893456 -0.10588241 -0.14557362 -0.004972281 -0.07684982
-0.048687566 0.1159937 -0.07416428 0.3073802 -0.0059496677 -0.090284504 0.17655781 -0.0850434
0.06605422 -0.18961383 0.17835504 -0.090633705 -0.21849097 -0.13872744 -0.074756734 -0.11204919
0.12230015 -0.14370187 0.1404535 -0.09775623 0.11349098 0.07252518 0.1201009 0.085286014
-0.07072146 0.13668174 -0.03162575 0.114903316 -0.06310129 0.0056775548 0.14595693 0.05250602
0.06699951 -0.158631 0.15345342 -0.085953444 0.14014694 0.114072524 0.022191042 0.1122017
-0.11097982 0.09916838 -0.030192116 -0.16115071 0.14245008 0.054707903 0.06350281 0.06416941
0.15823114 0.0076603307 0.12876308 0.016351359 -0.10597816 -0.034851175 -0.013765059 0.034403402
0.007993781 -0.09653033 0.028331086 -0.014767315 0.33936456 -0.04266916 0.050698068 -0.07493412
-0.098757155 0.1707683 0.021711916 0.228979 0.07163776 -0.062410224 0.0056258873 -0.027344203
0.18480156 -0.097216085 0.15713784 -0.0862389 -0.18076769 -0.06100051 0.029467221 -0.08572185
0.1173789 -0.20909862 0.0990261 -0.21773599 0.09535448 0.06877143 0.06004852 0.06623448
-0.18689936 0.041711923 0.058472686 0.0008755059 -0.017530281 0.16895053 0.13911097 0.18569638
00000000: 99c6 ad3d 73a8 1ebe d142 1b3e e746 1ebe
00000010: 6699 2c3e e72e 113e 18ed 973d cb24 adbc
00000020: 8f84 f2bd 843e d83d 4e5f 16be 32dc 38bc
00000030: 4802 8bbc eb65 a93d 538f 383d 4eb5 483e
00000040: b15e cb3d 1c21 0cbe 6f93 0e3e 7ca8 34be
00000050: aacb 243e 507a 003e 61c1 723c ca77 a13d
00000060: 731b 4abe b4f6 9d3d 89bb 053d 0f7e d9bc
00000070: ddf7 423d bc42 b93d e337 193e cff1 5b3d
00000080: 48f9 f23d 500d 25bc cc7b 3a3e 3e98 78bc
00000090: 7131 cfbc dd5b b3bd e0ab d4ba a778 833d
000000a0: 60eb f1b8 2c63 103d 5474 fd3b 2617 793e
000000b0: d788 38bd a22b f4bc 53e6 4e3e 1216 80bc
000000c0: 05bb 0abc b7fa 503e 6d56 15bd 8290 823e
000000d0: e200 02bd a72f 06be 429a 963d 9d6d c2bd
000000e0: b444 273e cad3 24bd 965c 603e 326c 36bc
000000f0: 86ba 2fbe 5f8a efbd 8fc4 87bc d5b4 15be
00000100: 5add 1dbe 456f 673e 0a92 6ebc 9753 1d3e
00000110: 44a8 b53d 05e4 fd3b 133c 3bbd 4167 98bc
00000120: 4930 5a3d 1476 903b 5e85 443e 9fa0 f9bd
00000130: a269 31be d5db f1bc d38b abbd 60f5 26bd
00000140: 1705 5cbd eb9d 04be 0972 06be df5e 06be
00000150: a189 673e e5be 663e 5e10 a63e 67c8 94bd
00000160: 4a7d 92bd 94ba e9bc f4c0 04be 4a3f e3bd
00000170: 9092 43bd 476b 8f3c f59b c73d 91c4 173c
00000180: 207f ffbd ebce 553e d3e1 44bc f9e0 1b3e
00000190: e1fa 08bd fde8 d4bc 440c a2bc 17e6 79bd
000001a0: 0cfe 4d3e 0efe 8bbd 17ac 843e fac6 e7bd
000001b0: f33c 25be e481 2fbd ba34 0c3d c811 3a3d
000001c0: 92ad cbbd ec55 493e 8920 28bb 94d3 293e
000001d0: f565 6a3d 47ce 92bc 3e32 66bd 15a7 163d
000001e0: ae79 763d 9a70 d9bd 2ea0 783e 349e cabd
000001f0: e1d8 d8bd 4011 15be 84ee a2bb 7063 9dbd
00000200: 9d6c 47bd 1b8e ed3d 71e3 97bd f060 9d3e
00000210: 6ef5 c2bb 15e7 b8bd 92cb 343e 3c2b aebd
00000220: 6f47 873d 212a 42be b4a2 363e 2a9e b9bd
00000230: 19bc 5fbe 910e 0ebe 0f1a 99bd 0c7a e5bd
00000240: 8078 fa3d 9526 13be 0bd3 0f3e 6b34 c8bd
00000250: f56d e83d 1588 943d 76f7 f53d 6faa ae3d
00000260: 6ad6 90bd 4cf6 0b3e 018a 01bd 6e52 eb3d
00000270: 403b 81bd c80a ba3b bc75 153e 8d10 573d
00000280: 0a37 893d 2a70 22be e522 1d3e 5c08 b0bd
00000290: ae82 0f3e db9e e93d fdc9 b53c 01ca e53d
000002a0: 6349 e3bd cb18 cb3d 7555 f7bc b104 25be
000002b0: 6fde 113e 6515 603d c30d 823d 406b 833d
000002c0: 5807 223e 8303 fb3b 78da 033e 49f3 853c
000002d0: 140b d9bd 1bc0 0ebd d886 61bc 95ea 0c3d
000002e0: 59f8 023c b2b1 c5bd 9816 e83c 9cf2 71bc
000002f0: 31c1 ad3e dbc5 2ebd c7a8 4f3d 0f77 99bd
00000300: 3141 cabd e3dd 2e3e 30dd b13c 7979 6a3e
00000310: d1b6 923d dda1 7fbd 5d59 b83b f300 e0bc
00000320: 9f3c 3d3e 3a19 c7bd bee8 203e 059e b0bd
00000330: 2a1b 39be acdb 79bd 3e65 f13c f08e afbd
00000340: 5964 f03d f31d 56be 32ce ca3d 2ff6 5ebe
00000350: 3649 c33d 09d8 8c3d 70f5 753d f1a5 873d
00000360: 8c62 3fbe 1fda 2a3d 0e81 6f3d 3582 653a
00000370: aa9b 8fbc 5e01 2d3e 1b73 0e3e 3127 3e3e

encoder_mean.8.bias f4 [14]
-3.3274916e-06 1.9754787e-06 9.569743e-08 1.0695148e-06 5.4756947e-06 2.556687e-05 1.2258005e-06 -9.058293e-06
9.532516e-08 -3.40948e-06 -6.4779874e-07 -1.8293732e-06 4.1761814e-06 7.4592e-06
00000000: df4d 5fb6 7792 0436 3882 cd33 408c 8f35
00000010: dcbb b736 6f78 d637 2f86 a435 12f9 17b7
00000020: 90b5 cc33 6cce 64b6 64e4 2db5 c988 f5b5
00000030: 2021 8c36 0a4a fa36

encoder_mean.9.weight f4 [14]
0.50694716 0.5032507 0.4592873 0.6192271 0.4592736 0.60098517 0.5248605 0.47671738
0.57801163 0.44046387 0.4744491 0.47183856 0.5066948 0.5389757
00000000: 4ac7 013f 0ad5 003f b427 eb3e ab85 1e3f
00000010: e925 eb3e 2ada 193f 425d 063f 4d14 f43e
00000020: 92f8 133f 7b84 e13e feea f23e d394 f13e
00000030: c0b6 013f 50fa 093f

encoder_mean.9.bias f4 [14]
0.28890112 0.2802563 0.08554911 -0.12078102 -0.06085045 -0.043887783 -0.047073845 -0.074630834
-0.17551744 0.18658537 0.27798542 -0.04715107 -0.10887273 0.27749148
00000000: d9ea 933e c17d 8f3e 5f34 af3d 0a5c f7bd
00000010: 523e 79bd adc3 33bd 81d0 40bd 0dd8 98bd
00000020: d8ba 33be 3c10 3f3e 1b54 8e3e 7b21 41bd
00000030: aaf8 debd 5d13 8e3e

encoder_mean.9.running_mean f4 [14]
0.1206344 0.1161706 0.09908241 -0.11353313 -0.07725573 0.018858131 -0.07630114 -0.10600753
-0.19971879 0.124103874 0.11692092 0.07862205 -0.11016061 0.1164669
00000000: 2b0f f73d daea ed3d b8eb ca3d 0f84 e8bd
00000010: 4138 9ebd 5e7c 9a3c c643 9cbd 7a1a d9bd
00000020: 1583 4cbe 2c2a fe3d 3c74 ef3d 9904 a13d
00000030: e39b e1bd 3386 ee3d

encoder_mean.9.running_var f4 [14]
0.06554267 0.06150389 0.010741911 0.1595699 0.05311336 0.007770066 0.08783289 0.07153364
0.21950468 0.028229773 0.05345361 0.008804718 0.1022595 0.06348816
00000000: 3c3b 863d 81eb 7b3d d7fe 2f3c 4b66 233e
00000010: 658d 593d 0a9c fe3b bbe1 b33d 3b80 923d
00000020: d6c5 603e 2042 e73c 2cf2 5a3d aa41 103c
00000030: 6e6d d13d 1506 823d

encoder_mean.12.weight f4 [12, 14]
-0.14342669 -0.09365452 -0.08727894 0.06739529 0.092293985 0.19870837 0.048716906 0.15860383
0.074769504 -0.07149328 -0.13192435 -0.026020356 0.117518105 -0.14323841 -0.16615069 -0.1397462
-0.034437075 0.13411026 0.13515672 0.20372139 0.09729106 0.048916094 0.0806104 -0.0848366
-0.13215442 -0.028725903 0.10869227 -0.19165635 -0.16033806 -0.17162263 -0.065943636 0.07655887
0.12223588 0.2532654 0.103047214 0.1008265 0.06656476 -0.10684236 -0.11118634 -0.0465305
0.07913683 -0.14029129 -0.1355544 -0.07227325 -0.019380454 0.1015477 0.09137773 0.19330943
0.121937275 0.1100552 0.08540124 -0.06852903 -0.1407294 -0.03947356 0.062033597 -0.13640797
0.033181336 -0.053825382 0.07677329 -0.1243772 -0.075246155 0.08380723 -0.082703926 -0.12371847
-0.11435018 0.12424574 0.12180667 0.12145491 -0.12278302 0.15033463 0.095597684 0.11376275
0.15933427 -0.08696889 -0.1417501 0.097936384 -0.16635744 -0.0759632 -0.13591996 0.04809321
0.08921799 0.09325989 -0.090108514 0.079173826 0.008228332 0.13140272 0.112223566 -0.17319466
-0.032747153 0.11166788 -0.1296536 -0.09801091 -0.1295935 0.10659937 0.051028464 0.13892123
-0.118640706 0.05477376 -0.13354826 -0.18498287 0.03635124 -0.037092254 0.15949968 0.2122656
0.0988626 0.05519277 0.17178859 -0.102106854 -0.18175428 -0.061804403 0.1480128 -0.113888174
0.107460156 0.045815807 0.07866132 -0.22244659 -0.08186884 0.11840885 -0.072137125 -0.1346313
-0.09239019 0.115306295 0.08620212 0.13028193 -0.1384945 0.102751024 -0.0026657186 0.05252672
0.14636497 -0.18910092 -0.084786996 0.12515864 -0.1102057 -0.10722084 -0.138444 0.055120822
0.057649333 0.115485266 -0.16363047 0.03914908 0.039154436 0.13617152 0.10997214 -0.12156089
-0.05299765 0.0978721 -0.11938411 -0.13836591 -0.115114234 0.10542199 0.012815024 0.092787504
-0.13578115 -0.002649906 0.13630547 0.04704266 0.06945332 -0.108434096 -0.07948461 0.08749447
-0.10733532 -0.09500687 -0.10014997 0.10314022 0.06109427 0.12636378 -0.12357065 0.02963828
00000000: 72de 12be f1cd bfbd 4dbf b2bd 8b06 8a3d
00000010: a104 bd3d 357a 4b3e 618b 473d 0b69 223e
00000020: c120 993d 126b 92bd 2d17 07be a428 d5bc
00000030: 55ad f03d 17ad 12be 6823 2abe a119 0fbe
00000040: e40d 0dbd 3354 093e 8666 0a3e 579c 503e
00000050: 8940 c73d 3e5c 483d 1117 a53d d0be adbd
00000060: 7d53 07be 9652 ebbc 0e9a de3d 9041 44be
00000070: a92f 24be d8bd 2fbe 750d 87bd e6ca 9c3d
00000080: ce56 fa3d 01ac 813e 6b0a d33d 207e ce3d
00000090: 1b53 883d 2bd0 dabd aab5 e3bd c496 3ebd
000000a0: 7e12 a23d 85a8 0fbe c6ce 0abe ff03 94bd
000000b0: c2c3 9ebc 3ef8 cf3d 3f24 bb3d e8f2 453e
000000c0: 40ba f93d 9f64 e13d d8e6 ae3d f358 8cbd
000000d0: 5e1b 10be 07af 21bd f116 7e3d 88ae 0bbe
000000e0: 27e9 073d 0178 5cbd 513b 9d3d 79b9 febd
000000f0: a81a 9abd 20a3 ab3d ad60 a9bd 1c60 fdbd
00000100: 6d30 eabd 8d74 fe3d c775 f93d 5abd f83d
00000110: aa75 fbbd 52f1 193e b8c8 c33d 72fc e83d
00000120: 8628 233e bf1c b2bd f026 11be df92 c83d
00000130: 9b59 2abe 9892 9bbd 9a2e 0bbe 63fd 443d
00000140: ecb7 b63d 0bff be3d d08a b8bd e325 a23d
00000150: 20d0 063c 6f8e 063e 78d5 e53d f159 31be
00000160: e121 06bd 21b2 e43d eac3 04be f2b9 c8bd
00000170: 29b4 04be c550 da3d 3903 513d 5e41 0e3e
00000180: e6f9 f2bd 735a 603d e0c0 08be 266c 3dbe
00000190: 0ae5 143d 0cee 17bd e253 233e 275c 593e
000001a0: 7a78 ca3d d011 623d 59e9 2f3e 661d d1bd
000001b0: cb1d 3abe 9d26 7dbd ab90 173e 343e e9bd
000001c0: 1214 dc3d 5ba9 3b3d 3019 a13d 0ac9 63be
000001d0: daaa a7bd 5780 f23d a1bc 93bd cadc 09be
000001e0: 1137 bdbd b525 ec3d bd8a b03d a068 053e
000001f0: 81d1 0dbe 216f d23d 56b3 2ebb 4226 573d
00000200: b3e0 153e aca3 41be cea4 adbd 9629 003e
00000210: 87b3 e1bd 9a96 dbbd 44c4 0dbe 5fc6 613d
00000220: b521 6c3d 8a83 ec3d bf8e 27be c95a 203d
00000230: 6760 203d 8c70 0b3e 1339 e13d eaf4 f8bd
00000240: 1014 59bd 2b71 c83d a87f f4bd cbaf 0dbe
00000250: 03c1 ebbd 7ce7 d73d 1bf6 513c 6007 be3d
00000260: 370a 0bbe 0caa 2dbb a993 0b3e ceaf 403d
00000270: 8b3d 8e3d b212 debd d4c8 a2bd 4d30 b33d
00000280: 9fd2 dbbd f692 c2bd 6d1b cdbd 2e3b d33d
00000290: fc3d 7a3d 8265 013e 9c12 fdbd facb f23c

encoder_mean.12.bias f4 [12]
3.0797464e-06 -1.1484829e-06 9.9287045e-06 -2.0234436e-06 -4.2015126e-06 -1.5959707e-06 -9.804126e-07 5.79543e-06
7.7717905e-06 3.7891573e-06 -1.278282e-06 2.6157945e-06
00000000: a4ad 4e36 9225 9ab5 7693 2637 7fca 07b6
00000010: b8fa 8cb6 2335 d6b5 b896 83b5 5d76 c236
00000020: 9663 0237 3a49 7e36 6f91 abb5 028b 2f36

encoder_mean.13.weight f4 [12]
0.61884046 0.76898015 0.78597003 0.67091703 0.5429607 0.5624415 0.5861139 0.695977
0.592325 0.6227001 0.57498986 0.5618626
00000000: 546c 1e3f e2db 443f 5535 493f 38c1 2b3f
00000010: 79ff 0a3f 2bfc 0f3f 900b 163f 8c2b 323f
00000020: 9ca2 173f 4669 1f3f 8932 133f 3ad6 0f3f

encoder_mean.13.bias f4 [12]
-0.0013944814 -0.0634856 -0.066767916 0.023820061 0.28521776 0.28584194 0.2559139 -0.07990343
0.29034126 0.22142935 0.26540595 0.27096263
00000000: 08c7 b6ba bd04 82bd 9ebd 88bd 4a22 c33c
00000010: 1008 923e e059 923e 2607 833e 69a4 a3bd
00000020: 9ca7 943e 60be 623e 4ae3 873e 9dbb 8a3e

encoder_mean.13.running_mean f4 [12]
-0.1058868 -0.14232758 -0.13702239 -0.08200273 0.08519644 0.10894105 0.08326421 -0.13246568
0.101626016 0.024074476 0.053800527 0.08697964
00000000: 2edb d8bd 52be 11be 994f 0cbe 0cf1 a7bd
00000010: 797b ae3d 7c1c df3d 6d86 aa3d 15a5 07be
00000020: 4d21 d03d d637 c53c f15d 5c3d 6222 b23d

encoder_mean.13.running_var f4 [12]
0.15427764 0.19742781 0.18505861 0.1436852 0.1272744 0.16799496 0.1432837 0.17802964
0.17798 0.14165974 0.12032298 0.1211943
00000000: f5fa 1d3e 842a 4a3e 0180 3d3e 3722 133e
00000010: 3854 023e df06 2c3e f6b8 123e 674d 363e
00000020: 6440 363e 400f 113e e56b f63d b834 f83d

encoder_mean.16.weight f4 [10, 12]
0.018429311 -0.0029124422 0.04292838 -0.015435816 0.0029077895 0.029278759 -0.005339581 -0.046641894
0.00040345918 -0.036716737 0.0018114044 0.0027524885 -0.048074972 0.0010863758 0.01677519 0.06511945
0.0073783714 0.0034988725 -0.036082037 -0.025374783 0.0032062263 0.06155252 -0.008463679 -0.0015182795
-0.0019442771 -0.002230733 0.0105958665 -0.0028058172 0.0016663191 0.009363711 0.024650587 -0.0009410741
-0.032457754 -0.00018522907 0.00020867908 0.0018389311 -0.5030661 -0.34823304 -0.46583602 -0.5044652
0.43277055 0.4570575 0.5595203 -0.37268433 0.5033244 0.4747411 0.42215803 0.488591
-0.06667978 -0.054107625 0.04279745 -0.005959734 0.0010793858 0.00042601733 0.004920829 0.09222987
0.0068260194 -0.015190705 0.00704248 0.0010365784 0.02640986 -0.056365658 0.05905715 -0.02273636
0.0003580937 -0.0026214046 0.016984832 -0.012067238 -0.038632512 0.016065056 -0.0033126308 0.0049732765
0.11558977 0.31591824 0.15428346 0.048517473 -0.2776171 -0.22134274 -0.10434738 0.3753102
-0.15410292 -0.29165623 -0.32930738 -0.17173095 -0.0026141799 0.0544264 0.044363026 -0.0404352
0.0060869553 0.0025033904 -0.019358056 -0.059688818 0.029701067 -0.016160183 -0.019049399 0.010193146
-0.002165585 0.0018529791 -0.007888469 0.010194786 -0.002760936 -0.012397846 -0.0048448974 -0.003122329
0.015931098 -0.001138668 -0.00019544906 -0.0015606827 0.0008307956 0.05649646 -0.053777643 -0.018152952
0.005580681 0.030221269 0.0004978837 0.022453845 -0.009309071 -0.025205208 0.017638749 -0.010634632
00000000: 11f9 963c acde 3ebb abd5 2f3d 81e6 7cbc
00000010: 9d90 3e3b 02da ef3c a7f7 aebb 920b 3fbd
00000020: 6087 d339 4a64 16bd a56c ed3a 1863 343b
00000030: 43ea 44bd b964 8e3a 206c 893c 595d 853d
00000040: 44c6 f13b 574d 653b c2ca 13bd c7de cfbc
00000050: 8d1f 523b 7f1e 7c3d 3eab 0abc 0201 c7ba
00000060: 1dd7 feba 7d31 12bb 499a 2d3c cde1 37bb
00000070: 6468 da3a 406a 193c 07f0 c93c 6ab2 76ba
00000080: 6cf2 04bd 0d3a 42b9 ddd0 5a39 4a08 f13a
00000090: f1c8 00bf 9a4b b2be 0f82 eebe a224 01bf
000000a0: 1a94 dd3e 7103 ea3e b93c 0f3f 7bd0 bebe
000000b0: ded9 003f 4411 f33e 1925 d83e 9928 fa3e
000000c0: 698f 88bd f59f 5dbd 614c 2f3d df49 c3bb
000000d0: 2d7a 8d3a 145b df39 e83e a13b 04e3 bc3d
000000e0: cdac df3b 6fe2 78bc 9bc4 e63b cddd 873a
000000f0: 7e59 d83c addf 66bd e9e5 713d 9a41 babc
00000100: 86be bb39 dfcb 2bbb c623 8b3c aab5 45bc
00000110: 203d 1ebd dd9a 833c b918 59bb def6 a23b
00000120: 54ba ec3d 09c0 a13e 7cfc 1d3e 42ba 463d
00000130: d423 8ebe aca7 62be 14b4 d5bd a928 c03e
00000140: 28cd 1dbe f753 95be fa9a a8be 3dda 2fbe
00000150: a952 2bbb 38ee 5e3d 01b6 353d 619f 25bd
00000160: 1575 c73b ec0f 243b c994 9ebc 437c 74bd
00000170: a74f f33c 5c62 84bc 7c0d 9cbc 2701 273c
00000180: 7dec 0dbb a9df f23a a33e 01bc 0808 273c
00000190: d2f0 34bb 5620 4bbc f2c1 9ebb fd9f 4cbb
000001a0: ef81 823c 5c3f 95ba 75f1 4cb9 d28f ccba
000001b0: c0c9 593a d568 673d f245 5cbd 80b5 94bc
000001c0: 25de b63b 9892 f73c 6984 023a 20f1 b73c
000001d0: 1385 18bc 277b cebc 237f 903c e13c 2ebc

encoder_mean.16.bias f4 [10]
-0.0011750563 -0.01456502 -0.00079294323 -0.66695917 -0.0028673173 0.0061558015 0.35299304 -0.00077264785
0.001318355 -0.0041858875
00000000: 5904 9aba 1fa2 6ebc 85dd 4fba d6bd 2abf
00000010: 9ae9 3bbb 9bb6 c93b 81bb b43e 858b 4aba
00000020: a7cc ac3a c529 89bb

encoder_var.0.weight f4 [20, 29]
0.0043774936 -0.0009046698 0.000682176 -0.0011568693 -0.001406834 0.0009355784 0.0005546451 0.001145472
0.00033654377 -0.0047085998 -0.00039561096 -0.0009460551 0.004445049 -0.0015111913 -0.0050812126 0.0031396903
-0.0014940972 -0.00052533945 0.0001231486 -0.0006861209 -0.0025437209 0.0014053464 0.00051208 0.0005619829
0.0007672895 -0.0020991743 0.0021333327 -0.0007348971 0.00070120505 -0.0020071391 -0.0045362553 0.00042900332
-0.00357437 0.0033789172 -0.0034204759 0.0012692675 0.00024430247 -0.000760462 -0.0018012456 -0.00028260262
0.00023561352 -0.00049025955 -0.0008257847 -0.00037299737 -0.0041749524 0.005862612 -0.0019445663 0.0017750696
-0.0043801656 -0.003322625 0.00081309094 0.0021815293 0.0047497028 -0.0010623315 0.0017008635 -0.0016939152
0.009434814 -0.009324177 0.0028478021 0.0014089202 -0.0021504841 -0.0011495319 0.0006085536 0.0032181577
-0.0011586496 -0.0026491098 0.0009522357 0.0057020006 -0.0005052091 -8.373652e-05 0.0021239775 -0.005082419
0.0008499671 -0.00063820754 0.00018763854 0.0007250833 0.00024526118 0.005371003 -0.0011103415 -0.00027553597
-0.0011289798 -0.0018796637 -0.00016857343 -0.00053857564 0.00056505355 -0.0011139747 0.001054217 0.0020665457
-4.3339925e-05 0.00081361044 -0.00082391733 -0.00072409253 0.0014395979 -0.0018440733 0.00072216894 -0.0003305516
-0.003534278 -0.0009740822 -8.039193e-05 -0.002712838 0.0036506706 0.001231997 8.476734e-06 -0.0004981956
-0.00097253465 0.0006634642 0.0027911793 -0.0008537783 0.00046872473 0.0006556618 -0.0059488937 0.00021087452
-0.0027979303 0.0027977999 0.0018469903 -0.0018538448 -0.0028471253 0.00084095536 0.00069867366 -0.0018493632
0.0003153071 -0.00029590965 0.0004465046 -0.0012351667 -0.00038304942 0.002828937 -0.00019249372 -0.00014079243
0.00058142503 0.0007101559 -7.2458155e-05 -0.000738701 0.0001906245 -0.0007183546 -0.0044708103 0.0008518121
-0.0019878969 -6.680408e-05 0.001255919 0.000719066 0.00022474866 -0.0027585411 0.0027848508 0.0034776854
-0.003456397 -0.0047002905 0.0024037936 -0.0029659478 -0.0012874944 0.010395016 -0.005278713 0.0054953042
-0.004816671 -0.0013501891 0.0016595165 -0.002489888 0.0003629205 -0.004733692 0.0024488715 -0.009467234
-0.0035068186 0.003074652 0.011864909 -0.0047960673 -0.0004595678 -0.0013671182 0.00349501 -0.009626568
0.0054624286 0.0051519414 -0.0065004337 0.0065007242 -0.011580564 0.011610585 -0.18073878 0.018858751
0.0037362587 -0.0048042475 0.0020248909 -0.0013414797 0.003987507 0.0009591655 0.011114892 -0.00021887309
-0.004545803 0.0006762826 0.00538173 0.0014117892 0.0031534184 0.001060824 0.0033412573 7.7300065e-06
0.0033832896 0.016272562 -0.0003168141 0.02003791 0.018748926 -0.040929202 0.017596561 0.002644971
0.0006658641 0.0005517461 0.0010894254 -0.0011426418 0.0049819206 -0.0014577805 -0.0030821736 0.0031142323
-0.00013479534 -0.0035833656 -0.0022181896 0.0006249257 0.006448853 0.00064526004 -0.0011063346 -0.0010685859
-0.0035539805 0.0036822455 0.0030674709 -0.0043440037 0.0053552883 -0.007127043 0.005643127 -0.0034901553
0.0061109816 -0.0012395069 0.010488794 -0.008377465 -0.0017019006 0.0017317273 -0.005298955 0.0053450763
0.026633728 -0.13465993 0.0012900004 -0.0008006152 0.0042106984 -0.0024088966 0.0068616304 -0.011614895
0.005529683 0.0013181297 0.004733784 0.0073334607 0.002042129 -0.002879118 -0.015331956 0.0053639105
-0.005589515 0.0113302795 0.008768513 -0.0001441905 0.0072107203 -0.00045945006 0.005746435 -0.0014528089
00000000: 1471 8f3b 5d27 6dba 0ed4 323a 18a2 97ba
00000010: 8465 b8ba 9b41 753a 9a65 113a aa23 963a
00000020: 2472 b039 994a 9abb 016a cfb9 af00 78ba
00000030: c6a7 913b 2a13 c6ba 4d80 a6bb 43c3 4d3b
00000040: 95d5 c3ba efb6 09ba 7321 0139 cbdc 33ba
00000050: 8eb4 26bb 9a33 b83a 1b3d 063a 0952 133a
00000060: ed23 493a 4d92 09bb 62cf 0b3b 1ca6 40ba
00000070: 13d1 373a 358a 03bb dea4 94bb daeb e039
00000080: fa3f 6abb d370 5d3b 102a 60bb 8d5d a63a
00000090: b915 8039 be59 47ba c617 ecba 482a 94b9
000000a0: 060f 7739 c384 00ba 7979 58ba dc8e c3b9
000000b0: 0ace 88bb 271b c03b d1e0 feba 74a9 e83a
000000c0: 7e87 8fbb 66c0 59bb 9c25 553a fdf7 0e3b
000000d0: 65a3 9b3b ee3d 8bba 82ef de3a 5d06 deba
000000e0: 7a94 1a3c 6fc4 18bc 31a2 3a3b 84ab b83a
000000f0: 23ef 0cbb e4ab 96ba 5787 1f3a bae7 523b
00000100: d4dd 97ba b09c 2dbb 759f 793a d9d7 ba3b
00000110: 0270 04ba b49b afb8 6e32 0b3b 6c8a a6bb
00000120: 54d0 5e3a 624d 27ba d6c0 4439 8413 3e3a
00000130: 6696 8039 3dff af3b e188 91ba d075 90b9
00000140: 47fa 93ba 0c5f f6ba 16c3 30b9 332f 0dba
00000150: 1a20 143a ca02 92ba a72d 8a3a e26e 073b
00000160: e4c7 35b8 7948 553a 28fc 57ba 07d1 3dba
00000170: e4b0 bc3a d5b4 f1ba f04f 3d3a e24d adb9
00000180: 589f 67bb 8d59 7fba 1798 a8b8 dec9 31bb
00000190: 1740 6f3b f67a a13a 4c37 0e37 5799 02ba
000001a0: b2f1 7eba 54ec 2d3a 38ec 363b 18d0 5fba
000001b0: 2bbf f539 b8e0 2b3a f0ee c2bb 331e 5d39
000001c0: 7b5d 37bb 4b5b 373b b616 f23a b6fc f2ba
000001d0: d696 3abb 8f73 5c3a 3227 373a 5566 f2ba
000001e0: cd4f a539 5224 9bb9 d518 ea39 51e5 a1ba
000001f0: 06d4 c8b9 b065 393b 24d8 49b9 aea1 13b9
00000200: c66a 183a c129 3a3a adf4 97b8 63a5 41ba
00000210: 60e2 4739 f64f 3cba e07f 92bb 244c 5f3a
00000220: 6047 02bb 2b19 8cb8 a69d a43a b47f 3c3a
00000230: 82aa 6b39 a4c8 34bb 0b82 363b e1e9 633b
00000240: b884 62bb e504 9abb f788 1d3b 5960 42bb
00000250: 25c1 a8ba db4f 2a3c 0ef9 acbb f411 b43b
00000260: 2ad5 9dbb d4f8 b0ba 2284 d93a 642d 23bb
00000270: 5d46 be39 161d 9bbb 3f7d 203b 751c 1bbc
00000280: a7d2 65bb 1a80 493b 0965 423c 5428 9dbb
00000290: 25f2 f0b9 e030 b3ba 8a0c 653b c1b8 1dbc
000002a0: 2cfe b23b 9ed1 a83b 9701 d5bb 0704 d53b
000002b0: 68bc 3dbc 533a 3e3c 9613 39be ab7d 9a3c
000002c0: 05dc 743b f36c 9dbb 08b4 043b 97d4 afba
000002d0: a2a9 823b 8270 7b3a 3c1b 363c 4c81 65b9
000002e0: f6f4 94bb 8f48 313a 3959 b03b c90b b93a
000002f0: 95a9 4e3b 590b 8b3a fff8 5a3b 20b0 0137
00000300: 2eba 5d3b 094e 853c 121a a6b9 8b26 a43c
00000310: 5997 993c 61a5 27bd aa26 903c 4057 2d3b
00000320: 628d 2e3a 0ea3 103a 0dcb 8e3a b2c4 95ba
00000330: 613f a33b ff12 bfba 4bfe 49bb 2618 4c3b
00000340: d957 0db9 e6d6 6abb 0c5f 11bb 0ed2 233a
00000350: e650 d33b ab26 293a 6e02 91ba cb0f 8cba
00000360: e6e9 68bb d451 713b 9f07 493b 2558 8ebb
00000370: 6a7b af3b f889 e9bb fbe9 b83b 17bb 64bb
00000380: a13e c83b f376 a2ba 31d9 2b3c a341 09bc
00000390: 4f12 dfba 20fb e23a dba2 adbb c025 af3b
000003a0: fa2e da3c 4be4 09be 3b15 a93a 60e0 51ba
000003b0: e6f9 893b 94de 1dbb 87d7 e03b 674c 3ebc
000003c0: 5832 b53b 18c5 ac3a dc1d 9b3b 874d f03b
000003d0: 3dd5 053b 96af 3cbb e232 7bbc bec3 af3b
000003e0: 4028 b7bb a3a2 393c cfa9 0f3c d831 17b9
000003f0: e847 ec3b 58e2 f0b9 974c bc3b 2d6c beba

encoder_var.0.bias f4 [20]
-1.2405428e-06 1.6093595e-06 6.680532e-07 5.396901e-07 1.8457891e-07 3.4771784e-07 8.6111754e-07 2.6923084e-07
8.317773e-07 4.085865e-06 -3.778586e-06 -1.9492695e-06 5.7112726e-07 1.907101e-06 7.6252434e-07 -5.952209e-07
-1.7038019e-07 -2.2646861e-07 -4.6080703e-07 -1.0320734e-06
00000000: ba80 a6b5 2c01 d835 4454 3335 39df 1035
00000010: aa30 4634 faad ba34 8c27 6735 ce8a 9034
00000020: 4d47 5f35 5019 8936 9d93 7db6 32d0 02b6
00000030: 914f 1935 7ef7 ff35 46b0 4c35 45c7 1fb5
00000040: c0f1 36b4 382b 73b4 d664 f7b4 c685 8ab5

encoder_var.1.weight f4 [20]
3.1912903e-05 0.0010572999 0.0046210852 -0.0009793167 -0.003896135 -0.00012925873 0.0879791 0.0007763942
0.06429783 -0.0008789501 -0.005182978 0.06605507 0.00010052388 0.0005511755 0.0005283121 0.0028553517
0.1418781 0.00076217874 0.058621954 0.0036426033
00000000: 38da 0538 1995 8a3a 796c 973b 6a5c 80ba
00000010: 4c56 7fbb a089 07b9 632e b43d ef86 4b3a
00000020: 95ae 833d 5869 66ba f9d5 a9bb e147 873d
00000030: 59d0 d238 c37c 103a 6d7e 0a3a da20 3b3b
00000040: 7e48 113e f3cc 473a 931d 703d beb8 6e3b

encoder_var.1.bias f4 [20]
-0.0060532745 -0.0069053625 -0.0019991903 -0.0010339324 0.006069008 -0.008831965 -0.018639091 -0.011228527
-0.054526616 -0.0032533105 -0.016080506 -0.049211856 0.005024899 -0.0018579668 -0.0037093475 0.008332259
-0.04737098 0.0015228796 -0.005906725 0.0019311779
00000000: 8c5a c6bb 6146 e2bb d904 03bb 0485 87ba
00000010: 87de c63b f2b3 10bc 02b1 98bc dbf7 37bc
00000020: 4d57 5fbd 7e35 55bb 44bb 83bc 5f92 49bd
00000030: e8a7 a43b 0587 f3ba 8618 73bb 0784 083c
00000040: 1308 42bd 5c9b c73a 338d c1bb 941f fd3a

encoder_var.1.running_mean f4 [20]
0.00065467117 -0.01067131 0.0063271318 0.0026330533 0.003113579 0.0083994 -0.07041352 0.012871041
-0.046644263 0.00088361587 -0.015438661 -0.04725944 -0.0005446912 0.0019371198 0.0120679615 0.010618505
-0.14027336 0.006872774 -0.071735375 0.006151495
00000000: 3d9e 2b3a b8d6 2ebc d453 cf3b 4e8f 2c3b
00000010: 300d 4c3b a39d 093c f734 90bd 0fe1 523c
00000020: 0e0e 3fbd 75a2 673a 70f2 7cbc 1d93 41bd
00000030: 9cc9 0eba f4e6 fd3a b3b8 453c 3df9 2d3c
00000040: d2a3 0fbe 0235 e13b ffe9 92bd 7b92 c93b

encoder_var.1.running_var f4 [20]
4.3964857e-05 0.00020792126 4.0458395e-05 5.3625095e-05 4.734531e-05 0.00030652605 0.0014764093 0.00019383631
0.0005755758 3.420263e-05 0.00036356822 0.00058533996 1.12205835e-05 1.04238015e-05 0.00011380826 0.000108565866
0.0023510715 0.00011159927 0.0009835922 5.0549635e-05
00000000: e866 3838 7005 5a39 dfb1 2938 82eb 6038
00000010: a494 4638 3bb5 a039 1384 c13a 8a40 4b39
00000020: 3de2 163a cb74 0f38 4d9d be39 8071 193a
00000030: 0a40 3c37 e3e1 2e37 58ac ee38 dbad e338
00000040: 6f14 1a3b 670a ea38 e1eb 803a 4205 5438

encoder_var.4.weight f4 [16, 20]
0.0018502625 -0.0010364765 0.0018328123 0.0029480306 -0.0032824643 -0.0016791049 -0.006585167 -0.0014798313
-0.017973067 -0.002397045 -0.006221497 -0.02266998 -0.00017875734 0.0028006625 0.0005512176 0.0016106513
-0.010930378 -0.003769935 -0.009833672 -0.0028265666 -0.0012751855 -0.0030822167 0.0041186363 0.0012515406
0.00027813553 0.0044470932 0.020171301 -0.0033385446 -0.004835078 0.0010551609 -0.009624121 0.019861322
-0.00070637313 0.0002857495 0.0008123453 0.0017802661 0.057498656 0.0012347559 0.0031751385 -0.0009320776
-0.0021909266 -0.0023609078 0.0007749608 0.00012823958 -0.0017014571 -0.0021766778 0.033409066 0.0023077521
0.012126912 -0.0003073658 -0.0047831736 0.010597665 0.0016793894 0.0014662861 -0.00074452703 0.0016221016
0.02638508 0.0021615638 0.034415916 -0.0019813655 -0.00032534113 -0.0043341583 0.0040501803 0.0014227926
0.0008368147 0.0024321983 -0.043923385 -0.001743389 -0.028321851 -0.0018000214 -0.0022702543 -0.011394271
-0.0007815767 0.00026150793 0.0031080712 -0.0013796615 -0.017506035 -0.0074845213 -0.013300097 -0.0012373447
-0.00050408556 -0.003145876 0.005760718 0.00067973894 8.359553e-05 -0.0025678845 -0.03402927 -0.0023537276
0.0019088298 0.0016045419 -0.0022642321 -0.013556231 -0.0001820481 -0.0012111913 0.0008804052 -0.00026265526
0.060134016 0.000593557 -0.0068256315 -0.00013928133 0.0005165665 -0.0030471568 0.004408308 0.0013700294
-0.00021904559 2.5482834e-05 -0.027744314 -0.0005636053 -0.023972165 -0.0013590814 0.0005002219 -0.023859091
0.0009951812 0.000511797 0.001602844 -0.0006327879 -0.036941577 -0.0050561684 -0.020623337 0.0010744574
-0.0029662608 -0.0018366438 0.0018988112 -0.0018938178 -0.00056850887 -0.0016589628 0.04661429 -0.00033952895
0.021067126 0.00069691625 -0.010176783 0.013059497 0.00026671428 -0.0021603014 -0.0009661654 0.0007776059
0.025734786 0.004173022 0.020754145 0.0009864124 -0.00064810616 -0.0008803178 -0.0008777436 0.0011571689
-0.00022412011 -0.0021852122 0.0074178805 0.0011887648 0.0026472278 0.0011380473 -0.0013200367 -0.00529585
-0.00036560645 0.00064942753 -0.0009439752 0.001105044 0.025774118 0.0018178116 0.013139311 0.0016386113
6.079534e-05 -0.00095340173 -0.0009317897 -0.0006672102 0.0025102275 -0.00096752925 0.029598188 0.0012163359
0.03373172 0.0005854649 -0.0038580091 0.025466947 -0.00056333403 -0.00019589227 0.00040256244 1.796645e-05
-0.019370632 0.00023328369 0.038917605 0.0023148858 -0.0031168014 -0.0060963733 0.0010927524 -0.0011465353
-0.00029845594 -0.0011013645 0.04023981 -0.0022196693 0.008673285 -0.00015983864 -0.014132535 0.0035972176
0.0014356013 -0.0015610636 -0.00045005922 0.0015431538 0.02993568 0.0023466365 0.025464145 0.00024321278
-0.0023125438 -0.002194101 0.0005132833 -0.0011275405 -0.0004439143 -0.001764959 0.034290135 -0.00074559555
-0.010349546 0.00045982326 -0.010309337 -0.014519308 -0.0007497013 -0.0011703322 -0.0016684999 -0.0004759645
0.022571534 0.002863194 0.025045455 0.0035154198 -0.0033369744 -0.005204763 0.0029189582 -0.0018994358
0.0011525888 -0.0020621931 -0.035471745 -0.0048112636 -0.0018489528 -0.0010126444 -0.004757463 -0.013485477
-0.0002752801 -0.00054400554 -0.00011772923 -0.0006799665 0.061387833 -0.00052500126 -0.012103099 -0.00033758738
0.0030796828 0.0002499393 0.0026295017 0.0035843141 -0.00041224307 0.004337281 0.001636507 0.004652053
0.015055417 0.0015448635 -0.004058767 -0.003221354 0.00020764965 0.0008300552 0.0029566016 0.0044858404
00000000: 8284 f23a 61da 87ba fa3a f03a bf33 413b
00000010: 9d1e 57bb 6915 dcba 62c8 d7bb e6f6 c1ba
00000020: 413c 93bc be17 1dbb b3dd cbbb 65b6 b9bc
00000030: cf70 3bb9 528b 373b 967f 103a 7d1c d33a
00000040: 5415 33bc 0411 77bb 691d 21bc eb3d 39bb
00000050: 2024 a7ba 04ff 49bb a0f5 863b bc0a a43a
00000060: b8d2 9139 ecb8 913b 493e a53c 7ccb 5abb
00000070: 936f 9ebb 534d 8a3a 7dae 1dbc 36b4 a23c
00000080: e62b 39ba a6d0 9539 92f3 543a d157 e93a
00000090: b683 6b3d 88d7 a13a fc15 503b ab56 74ba
000000a0: a695 0fbb 76b9 1abb bd26 4b3a 0d78 0639
000000b0: 6d03 dfba 98a6 0ebb f2d7 083d a83d 173b
000000c0: f5af 463c f025 a1b9 2bbc 9cbb d4a1 2d3c
000000d0: f51e dc3a 6630 c03a 5d2c 43ba b39c d43a
000000e0: 8625 d83c 06a9 0d3b b4f7 0c3d ccd9 01bb
000000f0: 8c92 aab9 8e05 8ebb 60b7 843b ff7c ba3a
00000100: af5d 5b3a 8465 1f3b 02e9 33bd 6d82 e4ba
00000110: 3a03 e8bc b2ee ebba 8cc8 14bb 09af 3abc
00000120: b9e2 4cba 001b 8939 c8b0 4b3b c2d5 b4ba
00000130: d168 8fbc b740 f5bb a6e8 59bc 662e a2ba
00000140: 9c24 04ba 0b2b 4ebb 68c4 bc3b 8230 323a
00000150: 0250 af38 f449 28bb 4762 0bbd ff40 1abb
00000160: b331 fa3a 7e4f d23a 8363 14bb f41a 5ebc
00000170: 2ae4 3eb9 d6c0 9eba feca 663a feb4 89b9
00000180: 164f 763d f098 1b3a 8ca9 dfbb 0c0c 12b9
00000190: 316a 073a cfb2 47bb 9173 903b 8f92 b33a
000001a0: 9aaf 65b9 f8c3 d537 0b48 e3bc e9be 13ba
000001b0: 4661 c4bc 3423 b2ba 5321 033a 2474 c3bc
000001c0: bd70 823a 1e2a 063a 8516 d23a ade1 25ba
000001d0: 0d50 17bd 37ae a5bb 46f2 a8bc cfd4 8c3a
000001e0: 9965 42bb 8abb f0ba 88e1 f83a fb39 f8ba
000001f0: fc07 15ba 8e71 d9ba a0ee 3e3d ce02 b2b9
00000200: f794 ac3c 42b1 363a 86bc 26bc 80f7 553c
00000210: c9d5 8b39 d893 0dbb 4346 7dba 40d8 4b3a
00000220: c2d1 d23c d9bd 883b 9904 aa3c 824a 813a
00000230: abe5 29ba 21c5 66ba 6018 66ba 25ac 973a
00000240: c901 6bb9 c735 0fbb b111 f33b 54d0 9b3a
00000250: 1d7d 2d3b 882a 953a 1505 adba cf88 adbb
00000260: deae bfb9 583e 2a3a 1a75 77ba 20d7 903a
00000270: 3e24 d33c a343 ee3a 4446 573c acc6 d63a
00000280: 80fe 7e38 b5ed 79ba 5943 74ba b8e7 2eba
00000290: a182 243b caa1 7dba e677 f23c 766d 9f3a
000002a0: 462a 0a3d e279 193a a7d6 7cbb 0fa0 d03c
000002b0: b5ac 13ba 6e68 4db9 040f d339 a8b6 9637
000002c0: 29af 9ebc 9d9d 7439 1168 1f3d 57b5 173b
000002d0: 4043 4cbb 16c4 c7bb b03a 8f3a 5747 96ba
000002e0: 147a 9cb9 a95b 90ba 80d2 243d df77 11bb
000002f0: 651a 0e3c 5c9a 27b9 268c 67bc 4cbf 6b3b
00000300: c92a bc3a 9a9c ccba edf5 ebb9 a643 ca3a
00000310: ac3b f53c 07ca 193b 2f9a d03c ef06 7f39
00000320: 0c8e 17bb e8ca 0fbb dc8d 063a fbc9 93ba
00000330: 2bbd e8b9 3256 e7ba d073 0c3d 1274 43ba
00000340: 2491 29bc 6f14 f139 7ee8 28bc 64e2 6dbc
00000350: 9a87 44ba d565 99ba 91b1 daba e08a f9b9
00000360: f0e7 b83c 6da4 3b3b 202c cd3c f562 663b
00000370: 24b1 5abb b78c aabb fe4b 3f3b 7df6 f8ba
00000380: 7612 973a dc25 07bb d24a 11bd cea7 9dbb
00000390: 9058 f2ba b5ba 84ba 7ee4 9bbb 31f2 5cbc
000003a0: 7853 90b9 989b 0eba 66e5 f6b8 c83f 32ba
000003b0: cf71 7b3d 3da0 09ba 144c 46bc 36fe b0b9
000003c0: 81d4 493b 490a 8339 b853 2c3b d0e6 6a3b
000003d0: 5422 d8b9 c01f 8e3b 1080 d63a 4070 983b
000003e0: ffaa 763c 047d ca3a 68ff 84bb 5a1d 53bb
000003f0: 87bc 5939 1098 593a 8bc3 413b f5fd 923b

encoder_var.4.bias f4 [16]
-6.309124e-07 -2.4973858e-07 -4.7517756e-06 2.2884578e-06 -3.602048e-07 -8.3338523e-07 -3.7080215e-06 -1.1705467e-06
-3.239729e-06 -1.97806e-08 3.518261e-07 -4.473444e-06 -8.5166215e-07 -1.0139761e-06 2.9202565e-06 1.2640384e-06
00000000: f85b 29b5 cf13 86b4 7171 9fb6 6893 1936
00000010: 2c62 c1b4 ccb5 5fb5 53d7 78b6 ae1b 9db5
00000020: 1f6a 59b6 00ea a9b2 9ce2 bc34 971a 96b6
00000030: c79d 64b5 f417 88b5 a0f9 4336 07a8 a935

encoder_var.5.weight f4 [16]
0.03790935 0.053469364 0.04652934 0.05125053 0.05264229 0.053185396 0.048163112 0.032411356
0.044860356 0.047593232 0.047294393 0.05969506 0.03859922 0.031366937 0.047047403 0.04087615
00000000: d646 1b3d b102 5b3d 8d95 3e3d 13ec 513d
00000010: 719f 573d eed8 593d af46 453d c5c1 043d
00000020: 7ebf 373d 1ff1 423d c4b7 413d cf82 743d
00000030: 371a 1e3d 9e7a 003d c7b4 403d c06d 273d

encoder_var.5.bias f4 [16]
-0.06795216 -0.033699237 0.013303555 0.007335246 0.009575827 0.022365995 0.036281288 0.02118874
0.001335039 0.002170872 0.016485475 0.0053043966 0.021242458 -0.007659568 0.013148738 -0.024900302
00000000: 812a 8bbd 3608 0abd 27f7 593c 815c f03b
00000010: eee3 1c3c e438 b73c b09b 143d 0294 ad3c
00000020: 7afc ae3a 3045 0e3b 8c0c 873c 81d0 ad3b
00000030: aa04 ae3c 1dfd fabb ce6d 573c b8fb cbbc
