generativecf/models/adult-eval-case-0-supervision-limit-100-const-case-1-margin-0.117-oracle_reg-3807.0-validity_reg-175.0-epoch-50-oracle-gen.pth (torch_old, 37228 bytes, 78 tensors)

encoder_mean.0.weight f4 [20, 30]
-0.36206785 -0.19488911 -0.04827894 0.11564144 -0.07043864 -0.19673422 -0.083630055 -0.029926172
0.0009197514 -0.017157787 -0.07840526 -0.0030090131 0.057722695 0.12222733 0.111387506 -0.22165567
0.023367548 -0.0070864027 -0.059332494 -0.025720747 0.090392426 0.111573994 0.06229929 -0.04597534
-0.06458264 -0.109360754 0.1153982 -0.17727618 0.09688343 0.06893179 -0.13924003 0.02078367
-0.011142239 0.07864628 -0.117782444 0.043896988 -0.034007873 -0.006742254 -0.0019047402 0.18255866
-0.11112368 0.001113539 0.01810219 -0.12875527 -0.0030299535 -0.11933209 0.056359846 -0.006174023
-0.050383598 -0.24304119 0.15248428 -0.18410245 -0.0046630944 -0.09083852 0.11493612 -0.17126088
0.07830147 -0.04892862 -0.0977556 0.1877418 -0.08824492 -0.043454032 0.06963597 0.22169209
-0.1520932 -0.081362724 -0.09116289 0.11285468 0.00054348854 0.00016029947 -0.16836707 0.0011027424
-0.04858725 0.04103082 0.05832642 -0.097545065 -0.08321985 -0.00362415 0.12819092 -0.05900502
0.083454974 -0.100298546 0.05124746 -0.06942251 0.00669282 0.059421282 -0.275413 -0.077182434
-0.04669453 -0.10962894 -0.9038247 -0.09836798 -0.10741757 -0.051394284 -0.04521299 -0.055829
0.09820198 0.06652533 -0.0016947967 0.027145026 -0.0037762187 -0.0021895238 0.056263894 0.02206462
0.08894195 0.10518363 0.09496368 0.06816661 0.13802989 0.02131043 -0.08345116 0.0764493
0.08209191 0.03784711 0.012051747 0.04501967 0.07708665 0.004795944 -0.015323849 0.16979897
0.41513386 0.08689126 0.09589441 -0.0723479 -0.069322765 -0.060649272 -0.15293324 -0.04947423
-1.8198678e-05 -0.08443763 0.16436823 -0.0030082231 -0.139927 -0.0053805006 0.1504846 0.0017272169
0.060799245 -0.002654296 -0.0023347414 -0.06572497 -0.10270555 0.18277253 -0.04033183 -0.114453636
-0.014574607 -0.07991407 -0.013471651 0.058592405 -0.10847476 -0.11404077 0.39212343 0.12126224
0.17786881 -0.07964012 0.0056710886 -0.007038438 0.05123276 -0.096622005 -0.00069344154 -0.05843973
-0.0155707095 0.00089960115 -0.08483424 -0.060305238 0.0037567269 0.034637168 0.025069116 0.085843734
0.01794876 -0.032544434 -0.07902325 -0.10175008 -0.008064336 -0.040479008 0.1242748 0.019329302
-0.14765094 -0.08864446 0.025191687 -0.1631721 -0.25297382 -0.95734555 0.061977237 0.019739991
0.071047895 -0.0035469083 0.027792819 0.00246682 0.0012063689 -0.005674445 -0.04312942 6.0179053e-05
-0.042142484 0.02282623 0.051814318 0.08330354 -0.05651159 0.018884204 -0.04874166 0.045515906
-0.034735538 -0.04830121 -0.12549227 -0.03408707 0.027951024 -0.050735824 0.03228938 0.04163448
0.029825378 0.1510226 0.08853126 0.2355818 0.07614541 0.0249471 -0.17467105 -0.02146805
-0.15641396 -0.019764213 -0.0018205048 -0.065168455 0.15219085 -0.0006417392 -0.12066492 0.03241523
-0.022564225 0.08152182 -0.10653778 -0.121389404 -0.016697988 -0.042378467 -0.10337309 0.21277606
0.08928906 -0.00027402336 -0.0668291 -0.2053644 -0.09161238 -0.010733327 -0.055434797 -0.25255165
0.2540057 -0.13198233 0.17269827 0.19150189 -0.0035584092 -0.0023211846 -0.038427997 -0.041353364
-0.0007797692 0.010543792 0.25526085 -0.00033741634 0.00077509123 -0.0913249 0.17013426 -0.14811568
00000000: f560 b9be 0391 47be 23c0 45bd 6bd5 ec3d
00000010: 2242 90bd b274 49be 3c46 abbd bb27 f5bc
00000020: 791b 713a 7d8e 8cbc f092 a0bd dd32 45bb
00000030: a26e 6c3d 5352 fa3d 221f e43d b4f9 62be
00000040: 4d6d bf3c 0e35 e8bb a106 73bd 51b4 d2bc
00000050: aa1f b93d e880 e43d 8a2d 7f3d a350 3cbd
00000060: e743 84bd 88f8 dfbd e455 ec3d e387 35be
00000070: d26a c63d 1c2c 8d3d f094 0ebe 8442 aa3c
00000080: f08d 36bc 4d11 a13d ec37 f1bd 54cd 333d
00000090: d74b 0bbd 20ee dcbb 7aa8 f9ba a8f0 3a3e
000000a0: d094 e3bd 2bf4 913a 0b4b 943c 6cd8 03be
000000b0: 2f92 46bb 6264 f4bd 95d9 663d 754f cabb
000000c0: 085f 4ebd cadf 78be d724 1c3e 5a85 3cbe
000000d0: dfcc 98bb 8c09 babd a163 eb3d 035f 2fbe
000000e0: 855c a03d 6069 48bd 1734 c8bd 633f 403e
000000f0: c1b9 b4bd dbfc 31bd 4e9d 8e3d 4003 633e
00000100: 52be 1bbe 80a1 a6bd 9cb3 babd 5b20 e73d
00000110: e678 0e3a 1016 2839 6b68 2cbe e589 903a
00000120: 6d03 47bd ef0f 283d afe7 6e3d b5c5 c7bd
00000130: 2b6f aabd 2683 6dbb 7b44 033e 3faf 71bd
00000140: 71ea aa3d 5369 cdbd dbe8 513d 642d 8ebd
00000150: 724f db3b bb63 733d ef02 8dbe d311 9ebd
00000160: c342 3fbd 2385 e0bd 0e61 67bf 2775 c9bd
00000170: befd dbbd d082 52bd 4231 39bd f3ac 64bd
00000180: 1f1e c93d 6f3e 883d f123 deba 3f5f de3c
00000190: 707a 77bb 1d7e 0fbb f874 663d ddc0 b43c
000001a0: 3227 b63d 846a d73d 517c c23d f09a 8b3d
000001b0: b557 0d3e 3693 ae3c 71e8 aabd 7391 9c3d
000001c0: ce1f a83d 9205 1b3d b174 453c 8c66 383d
000001d0: 9bdf 9d3d 4b27 9d3b e210 7bbc c8df 2d3e
000001e0: 6d8c d43e 0cf4 b13d 4a64 c43d 232b 94bd
000001f0: 18f9 8dbd 5f6b 78bd 889a 1cbe 7da5 4abd
00000200: 5da9 98b7 a3ed acbd 2550 283e 9c25 45bb
00000210: 0649 0fbe e94e b0bb a318 1a3e c863 e23a
00000220: a108 793d b3f3 2dbb 7602 19bb d09a 86bd
00000230: 4a57 d2bd b928 3b3e fd32 25bd ab66 eabd
00000240: 55ca 6ebc fda9 a3bd 33b8 5cbc 97fe 6f3d
00000250: 0428 debd 358e e9bd 67c4 c83e 5658 f83d
00000260: 3e23 363e 5c1a a3bd 8ad4 b93b b3a2 e6bb
00000270: 71d9 513d c2e1 c5bd 13c8 35ba 805e 6fbd
00000280: 4a1c 7fbc 36d3 6b3a 93bd adbd a002 77bd
00000290: 6b33 763b b4df 0d3d bf5d cd3c d7ce af3d
000002a0: 4709 933c 504d 05bd f1d6 a1bd 5962 d0bd
000002b0: 4720 04bc 51cd 25bd c983 fe3d 7c58 9e3c
000002c0: cf31 17be 3a8b b5bd cc5e ce3c 9616 27be
000002d0: c985 81be 9914 75bf d8db 7d3d c3b5 a13c
000002e0: 8f81 913d 3f73 68bb c4ad e33c 5faa 213b
000002f0: 061f 9e3a b2f0 b9bb 7aa8 30bd c468 7c38
00000300: 999d 2cbd 13fe ba3c 403b 543d 0c9b aa3d
00000310: b278 67bd 0cb3 9a3c 56a5 47bd e36e 3a3d
00000320: da46 0ebd 7dd7 45bd 0c81 00be e29e 0bbd
00000330: 8cf9 e43c 5ed0 4fbd de41 043d eb88 2a3d
00000340: 5a54 f43c aba5 1a3e e14f b53d 5b3c 713e
00000350: 20f2 9b3d dc5d cc3c f8dc 32be c4dd afbc
00000360: fb2a 20be 8fe8 a1bc 019e eeba 0a77 85bd
00000370: ebd7 1b3e 643a 28ba 2b1f f7bd d5c5 043d
00000380: 9cd8 b8bc e9f4 a63d 7b30 dabd 029b f8bd
00000390: 38ca 88bc 0b95 2dbd 45b5 d3bd f8e1 593e
000003a0: 2fdd b63d cbaa 8fb9 b2dd 88bd 0c4b 52be
000003b0: 469f bbbd d6da 2fbc 990f 63bd 734e 81be
000003c0: 090d 823e 6026 07be d1d7 303e 1219 443e
000003d0: 3334 69bb 041f 18bb ad66 1dbd 2562 29bd
000003e0: 6d69 4cba debf 2c3c 8db1 823e 41e7 b0b9
000003f0: 7e2f 4b3a 8d08 bbbd ad37 2e3e a3ab 17be

encoder_mean.0.bias f4 [20]
-0.011751557 -0.03682838 -0.100956835 0.01838919 -0.033409197 -0.019408306 0.0028179518 -0.048651855
-0.019935679 -0.013945599 -0.009161871 -0.00042242376 0.017523522 0.0068116263 -0.04166308 -0.043195635
0.0052140597 -0.089753605 -0.01679522 -0.08015032
00000000: 9a89 40bc 5bd9 16bd 75c2 cebd eda4 963c
00000010: 15d8 08bd 2bfe 9ebc 63ad 383b 2b47 47bd
00000020: 2650 a3bc 157c 64bc ac1b 16bc c278 ddb9
00000030: 7d8d 8f3c 1034 df3b e8a6 2abd e8ed 30bd
00000040: b4da aa3b bdd0 b7bd 2196 89bc da25 a4bd

encoder_mean.1.weight f4 [20]
0.37731713 0.5939961 0.32414258 0.9024363 0.514738 0.4675693 0.8350826 0.6142675
0.3970665 0.8409062 0.38720584 0.66055745 0.47557265 0.5840062 0.27201897 0.74886334
0.6429116 0.7778175 0.6173716 0.18797225
00000000: b62f c13e 2110 183f 04f6 a53e 1106 673f
00000010: dfc5 033f 3e65 ef3e f9c7 553f a340 1d3f
00000020: 4d4c cb3e a145 573f d83f c63e 4b1a 293f
00000030: 427e f33e 6e81 153f 1246 8b3e 82b5 3f3f
00000040: db95 243f 0c1f 473f 110c 1e3f cc7b 403e

encoder_mean.1.bias f4 [20]
-0.040674537 -0.06409079 -0.16004394 -0.036582686 -0.1168471 -0.022982892 0.013583862 -0.120965436
-0.07589599 0.3311623 0.15534581 0.38050318 -0.11897863 0.21257928 -0.14126787 -0.20235012
0.13720511 -0.22600739 0.039348163 -0.24672695
00000000: 589a 26bd 0842 83bd 8fe2 23be bad7 15bd
00000010: 884d efbd 9e46 bcbc d98e 5e3c babc f7bd
00000020: 5b6f 9bbd 1b8e a93e f912 1f3e 50d1 c23e
00000030: 11ab f3bd 62ae 593e 86a8 10be df34 4fbe
00000040: 7f7f 0c3e 7b6e 67be 8a2b 213d fda5 7cbe

encoder_mean.1.running_mean f4 [20]
-0.06529927 0.10542952 -0.03820695 -0.22790305 0.31852207 0.10525355 -0.19414537 -0.11022639
-0.04237709 0.8017875 0.49035934 -0.011838308 0.13029727 0.28251192 0.41623685 -0.080544986
-0.11479775 -0.1496569 0.07549501 0.5212191
00000000: a0bb 85bd 6feb d73d e47e 1cbd 6b5f 69be
00000010: 5315 a33e 2c8f d73d 0bce 46be 60be e1bd
00000020: 9993 2dbd f241 4d3f 6110 fb3e 76f5 41bc
00000030: a66c 053e 67a5 903e ff1c d53e c5f4 a4bd
00000040: 151b ebbd a93f 19be 219d 9a3d 9d6e 053f

encoder_mean.1.running_var f4 [20]
0.019149719 0.050528523 0.033045296 0.014315728 0.011658218 0.018991034 0.014868163 0.026730679
0.03221343 0.01808368 0.011203289 0.017787326 0.022087285 0.014519148 0.02992605 0.0124332
0.020330401 0.019825751 0.019601662 0.035190176
00000000: dfdf 9c3c fff6 4e3d 815a 073d 848c 6a3c
00000010: 1c02 3f3c 1693 9b3c 9899 733c 4cfa da3c
00000020: 3bf2 033d 3a24 943c 008e 373c bab6 913c
00000030: 65f0 b43c b8e1 6d3c 7a27 f53c 9fb4 4b3c
00000040: f18b a63c 9d69 a23c aa93 a03c 9323 103d

encoder_mean.4.weight f4 [16, 20]
0.08574511 0.05676943 -0.07819675 0.2441355 -0.076953985 -0.07025731 0.11599514 -0.058610994
-0.058181565 -0.28844488 -0.12697111 -0.25206476 0.1798959 -0.11818477 0.042111315 0.034346756
0.10227477 -0.041752864 0.037140097 -0.03875041 -0.06955369 0.0039166813 0.0869011 -0.14679775
0.10967684 0.15963832 -0.23272182 -0.08807782 0.08181666 0.31489834 0.022319758 0.2025579
-0.18727805 0.18481348 0.11308731 -0.192992 -0.10290876 -0.02313117 0.17340282 -0.018544039
-0.23721647 -0.21472995 0.004242948 0.04892577 0.069552116 -0.03811171 0.2770979 -0.18003342
-0.079261 -0.057849266 -0.16956845 0.08302182 -0.008883427 0.030148411 0.00520257 0.2984205
-0.14835408 0.14339507 0.039317027 -0.03800354 -0.04676684 -0.060867563 -0.07426123 -0.17026788
-0.09528772 -0.10666731 -0.11973669 -0.026873142 -0.068338536 -0.14532383 -0.0056836787 -0.070603706
-0.14312151 -0.07269346 -0.12588447 -0.1095767 -0.14302789 0.3866066 0.010217729 -0.055329815
-0.10472302 -0.14424133 -0.06002995 -0.05787034 0.0010689929 0.054826163 -0.19851439 -0.08284627
-0.15112008 -0.15356398 -0.020096503 -0.1265092 -0.04138677 -0.241073 -0.22456928 -0.10410159
0.106291726 -0.15380307 0.09475042 -0.0791121 -0.07331715 -0.1616955 -0.20835136 -0.14793846
0.1898713 0.003997363 -0.2948436 0.24346022 0.20497805 0.009770141 0.11213306 -0.042190935
-0.095295385 -0.1760113 -0.10632882 -0.044292666 0.08630505 -0.055688906 0.14970712 0.08767729
-0.006133341 0.12719646 -0.10711589 0.21700338 0.04887911 -0.07825384 0.14022864 0.116836414
0.06355526 0.023764176 -0.30027157 0.017565 -0.08946809 0.009134007 -0.037236992 0.240372
-0.06326968 0.12344588 0.0035884208 -0.14287204 0.10023795 -0.010774901 -0.036433373 0.16276994
-0.14956532 0.0063804653 -0.04654674 0.109107494 -0.09927819 -0.21108373 -0.031886555 -0.013946862
0.21687223 -0.23326664 -0.034667246 -0.07801853 0.18165667 -0.035743106 -0.009520507 0.079612635
-0.09249472 0.046494264 -0.016792478 -0.11136539 -0.08163738 0.10071507 0.32851174 -0.022760633
0.060417145 0.16954765 0.027781954 0.29069266 0.016059536 0.13852027 0.1690536 0.28418925
-0.16510664 0.11111926 0.07908178 0.10027061 -0.13182583 0.10606671 0.18287459 -0.13285029
0.041911744 -0.02103052 -0.09108641 0.12547372 0.046115093 0.31944022 -0.0012860864 -0.017971702
-0.100903034 0.22296154 -0.049483467 0.011992187 0.07461147 -0.05755983 0.21017735 0.030827759
0.11867349 0.09144976 -0.07576822 0.17784508 -0.09398499 -0.018560981 0.1384254 -0.02182237
-0.1401018 -0.3210927 -0.13513282 -0.25836235 0.13163476 -0.21669157 0.06013183 0.08010778
0.32340708 -0.067972906 -0.16297252 -0.06880074 0.17840809 0.10405216 -0.14742045 0.13984154
-0.023317529 0.015591825 -0.09307942 0.0070974184 -0.050093204 -0.20691155 0.09720491 -0.103498064
0.058451578 -0.1339164 0.05617448 -0.11619092 0.14365695 -0.06625387 0.009641933 0.074597254
-0.037328158 0.00048869377 -0.084260695 -0.14060618 -0.11685128 -0.053899206 -0.14600179 -0.14355934
-0.05627196 -0.023831341 -0.10309583 -0.13250248 -0.1223425 -0.09549887 -0.05156774 0.008165009
00000000: 229b af3d 1087 683d 9e25 a0bd a8fe 793e
00000010: 0d9a 9dbd 11e3 8fbd dc8e ed3d 1512 70bd
00000020: cb4f 6ebd 0caf 93be b704 02be a20e 81be
00000030: a136 383e db0a f2bd ea7c 2c3d 2faf 0c3d
00000040: 6f75 d13d 0d05 2bbd 3720 183d c0b8 1ebd
00000050: 2a72 8ebd 8157 803b 34f9 b13d 2652 16be
00000060: 409e e03d 3a78 233e a14e 6ebe 2562 b4bd
00000070: 7e8f a73d 5b3a a13e edd7 b63c 576b 4f3e
00000080: d1c5 3fbe bf3f 3d3e 529a e73d b29f 45be
00000090: d4c1 d2bd 947d bdbc 8290 313e abe9 97bc
000000a0: e0e8 72be 2be2 5bbe 6d08 8b3b 6366 483d
000000b0: 5771 8e3d 061b 1cbd c7df 8d3e ae5a 38be
000000c0: 9753 a2bd 5af3 6cbd 5aa3 2dbe 5807 aa3d
000000d0: cb8b 11bc cdf9 f63c 527a aa3b 92ca 983e
000000e0: 22ea 17be 28d6 123e e40a 213d 9aa9 1bbd
000000f0: 968e 3fbd 4450 79bd 4616 98bd b45a 2ebe
00000100: 3526 c3bd 6474 dabd 8238 f5bd 1025 dcbc
00000110: 13f5 8bbd c5cf 14be 273e babb ad98 90bd
00000120: 728e 12be 4fe0 94bd dce7 00be c069 e0bd
00000130: e775 12be 4df1 c53e 4368 273c 84a1 62bd
00000140: 0679 d6bd 00b4 13be f7e1 75bd 7309 6dbd
00000150: 731d 8c3a 6691 603d 5b47 4bbe 4eab a9bd
00000160: 39bf 1abe e03f 1dbe 6ca1 a4bc a18b 01be
00000170: 2c85 29bd d7db 76be 7df5 65be 3733 d5bd
00000180: 7aaf d93d 8d7e 1dbe 820c c23d 8605 a2bd
00000190: 4d27 96bd 8193 25be 0f5a 55be 2e7d 17be
000001a0: 9f6d 423e 50fc 823b bef5 96be a34d 793e
000001b0: c4e5 513e f112 203c 05a6 e53d 67d0 2cbd
000001c0: 3a2a c3bd 4e3c 34be edc2 d9bd 3a6c 35bd
000001d0: b4c0 b03d 0d1a 64bd d34c 193e 2790 b33d
000001e0: 32fa c8bb ca3f 023e 935f dbbd 2236 5e3e
000001f0: 7635 483d 8d43 a0bd 1998 0f3e ee47 ef3d
00000200: 4329 823d 17ad c23c 32bd 99be 7ae4 8f3c
00000210: 0c3b b7bd cda6 153c d185 18bd 1424 763e
00000220: 8993 81bd 32d1 fc3d b62b 6b3b 0c4d 12be
00000230: 8e49 cd3d 3689 30bc 293b 15bd 2aad 263e
00000240: a727 19be 3913 d13b cba7 3ebd c073 df3d
00000250: 5d52 cbbd 5526 58be 7a9b 02bd 6181 64bc
00000260: c113 5e3e 73dd 6ebe 3eff 0dbd 2ec8 9fbd
00000270: 3504 3a3e 5d67 12bd e7fb 1bbc f30b a33d
00000280: df6d bdbd c570 3e3d 6190 89bc 8a13 e4bd
00000290: 8031 a7bd b443 ce3d b132 a83e 8274 babc
000002a0: f877 773d e69d 2d3e fb96 e33c abd5 943e
000002b0: 4a8f 833c 42d8 0d3e 631c 2d3e 4181 913e
000002c0: b711 29be 7f92 e33d a1f5 a13d ad5a cd3d
000002d0: 5afd 06be 8139 d93d 7a43 3b3e e809 08be
000002e0: a6ab 2b3d 3248 acbc 838b babd 2f7c 003e
000002f0: 2ee3 3c3d ab8d a33e e691 a8ba 6439 93bc
00000300: 40a6 cebd 0850 643e 2daf 4abd e17a 443c
00000310: e6cd 983d dbc3 6bbd bb38 573e 7f8a fc3c
00000320: 160b f33d 034a bb3d 5e2c 9bbd 051d 363e
00000330: 347b c0bd 330d 98bc 63bf 0d3e d4c4 b2bc
00000340: d976 0fbe 4366 a4be 4260 0abe 1248 84be
00000350: 43cb 063e 65e4 5dbe cb4c 763d 8c0f a43d
00000360: 9d95 a53e 6135 8bbd 45e2 26be 67e7 8cbd
00000370: 9cb0 363e 4d19 d53d 63f5 16be 9f32 0f3e
00000380: 6704 bfbc db74 7f3c 6ca0 bebd 7691 e83b
00000390: 882e 4dbd 9fe0 53be 5e13 c73d cbf6 d3bd
000003a0: ec6a 6f3d 6121 09be 3617 663d 81f5 edbd
000003b0: cf1a 133e 1cb0 87bd 33f9 1d3c 72c6 983d
000003c0: 69e5 18bd af1b 003a df90 acbd 11fb 0fbe
000003d0: b94f efbd 6ac5 5cbd 7e81 15be 3801 13be
000003e0: 6d7d 66bd f239 c3bc e823 d3bd bbae 07be
000003f0: b48e fabd e994 c3bd b238 53bd 88c6 053c

encoder_mean.4.bias f4 [16]
0.002208405 0.014677526 -0.06957034 -0.0583783 -0.093485 -0.04962929 -0.016996248 0.0021828562
0.04179079 0.007528526 0.015613775 -0.011841386 -0.07571712 0.034967482 -0.040232304 -0.012550072
00000000: e3ba 103b 027a 703c e57a 8ebd 161e 6fbd
00000010: 1075 bfbd 1548 4bbd b73b 8bbc 400e 0f3b
00000020: d22c 2b3d dab1 f63b ebd0 7f3c 5f02 42bc
00000030: 9411 9bbd 103a 0f3d a1ca 24bd d19e 4dbc

encoder_mean.5.weight f4 [16]
0.6182099 0.59337544 0.48479953 0.57331675 0.46058184 0.80789655 0.6713531 0.5421047
0.6058707 0.4127485 0.755447 0.5940921 0.6077286 0.71871316 0.54772437 0.38693634
00000000: 0143 1e3f 74e7 173f a537 f83e e3c4 123f
00000010: 62d1 eb3e 4fd2 4e3f ccdd 2b3f 60c7 0a3f
00000020: 581a 1b3f c553 d33e f964 413f 6b16 183f
00000030: 1a94 1b3f 96fd 373f aa37 0c3f 851c c63e

encoder_mean.5.bias f4 [16]
0.019140026 0.16668154 0.12208642 -0.0019213177 -0.06216455 -0.055569343 -0.034356855 0.08040644
0.09329051 0.14342058 -0.045306753 0.07921372 -0.11321206 -0.21062703 0.09408059 -0.054742184
00000000: 8bcb 9c3c 91ae 2a3e 7208 fa3d b9d4 fbba
00000010: 41a0 7ebd ae9c 63bd c6b9 0cbd 22ac a43d
00000020: 180f bf3d d8dc 123e 9393 39bd ce3a a23d
00000030: b9db e7bd 9dae 57be 53ad c03d 5739 60bd

encoder_mean.5.running_mean f4 [16]
-0.26529095 0.09483759 0.26804334 -0.02707769 -0.012543133 0.07495599 0.30269584 -0.15582459
0.302132 0.2146016 -0.28140578 -0.087643474 -0.0155199785 -0.2872888 0.18720151 -0.091136836
00000000: 37d4 87be 363a c23d fa3c 893e 08d2 ddbc
00000010: b781 4dbc 8782 993d f3fa 9a3e 7b90 1fbe
00000020: 0cb1 9a3e 86c0 5b3e 6b14 90be 6c7e b3bd
00000030: 8247 7ebc 8517 93be c1b1 3f3e f3a5 babd

encoder_mean.5.running_var f4 [16]
0.19382302 0.16107993 0.2782646 0.07246324 0.17791258 0.10638359 0.16308853 0.1502182
0.2861461 0.07163512 0.31588775 0.116642855 0.11428993 0.28757256 0.30083 0.060358983
00000000: 8b79 463e 23f2 243e b378 8e3e 9b67 943d
00000010: b72e 363e a4df d93d ae00 273e cdd2 193e
00000020: be81 923e 6fb5 923d 0abc a13e 73e2 ee3d
00000030: d710 ea3d b63c 933e 6406 9a3e fb3a 773d

encoder_mean.8.weight f4 [14, 16]
0.25725788 -0.17207661 0.11026662 -0.03331139 -0.047607817 -0.22722366 0.15391715 0.030559942
-0.09442102 -0.12701015 0.21750732 0.031719238 -0.08213988 0.2859005 0.02164396 -0.106157035
-0.13660938 0.19020773 -0.035807386 0.14953066 0.1635953 0.053173814 -0.070131995 0.098846614
0.047560677 0.02940962 0.108290344 -0.013448471 0.0917861 0.0005032324 -0.057361446 0.056868397
0.048911136 -0.2621384 0.11076336 -0.17972331 0.06897854 -0.01371905 0.103381656 0.16212516
-0.2251519 -0.22973463 0.06488111 0.019325644 -0.044017777 0.30080187 0.16199635 -0.15244278
-0.19567095 0.07579805 -0.06764484 0.021077914 -0.018313296 0.14026976 0.10294235 -0.18011004
-0.03021904 0.12131725 -0.27304098 -0.15774962 0.007756362 -0.17488642 -0.09715782 -0.10192753
-0.1151758 0.003977208 0.14521687 0.035004895 0.05616468 0.18661126 0.043281548 -0.085810065
0.13149036 0.13873942 -0.2769887 -0.21419924 -0.049493782 -0.28363228 0.10115966 -0.057869405
0.18594776 -0.17003961 -0.08044224 -0.0005062605 0.12151381 -0.09023006 0.07508924 0.14610356
-0.053067748 -0.12757584 0.20255373 0.22836345 -0.06215574 0.24506183 -0.033377256 -0.053602878
0.19567862 -0.13649538 -0.19121762 0.0019359026 -0.0707166 -0.1484602 -0.0893772 0.18967633
-0.22453818 -0.13395076 0.11855315 0.09360007 0.004205299 0.022313884 -0.25165123 0.073981434
0.153707 -0.13816382 0.09833667 0.15568091 -0.07244401 -0.09800235 0.035474073 -0.052886326
-0.015927527 -0.1557057 0.07002875 -0.09390761 0.087620564 -0.03432765 -0.23556052 -0.107531905
0.09208093 0.079382315 -0.02509312 -0.09742837 0.21545085 0.20371214 0.10233833 0.18306176
-0.2599646 -0.14476138 0.0774043 0.1853399 -0.015764587 0.10645992 0.060305633 0.050594162
-0.24705747 0.01734901 0.056093697 0.25722256 -0.18004166 0.23855564 0.038383987 -0.24862221
0.052536596 0.03694942 -0.2095328 -0.2204704 0.22025947 -0.212405 0.06964601 -0.03260137
-0.24630997 0.056668986 0.011230873 0.26221097 -0.09628544 0.044404466 -0.046720866 -0.11133386
0.18635546 0.03400455 -0.20044082 -0.17857926 0.16106863 -0.2152331 0.26451328 0.032656692
0.23703602 -0.18809856 -0.13201301 -0.0036165852 0.059253585 -0.17045279 -0.07492116 0.09258813
-0.16848426 -0.10558469 0.25838155 0.056028433 -0.0024549293 0.020871388 -0.1579079 -0.15454547
0.18657295 -0.26613048 0.017313275 -0.003496917 0.103645444 -0.17644508 0.0942681 0.13618065
-0.13021593 -0.09263364 0.18276085 0.2297479 0.012771997 0.3253915 0.030265674 -0.02520686
-0.026585542 -0.0036774953 0.15405345 -0.21145433 -0.041084785 0.022555806 -0.13657255 -0.015350025
0.23006079 0.028853847 -0.09377997 0.0651544 -0.19010329 0.06315781 -0.016647877 0.030190347
00000000: 4eb7 833e da34 30be 77d3 e13d 8671 08bd
00000010: 6a00 43bd 52ad 68be 759c 1d3e d858 fa3c
00000020: cf5f c1bd f30e 02be 3dba 5e3e 08ec 013d
00000030: f438 a8bd 8d61 923e ad4e b13c dc68 d9bd
00000040: 54e3 0bbe d1c5 423e c4aa 12bd 911e 193e
00000050: 8785 273e c9cc 593d 5da1 8fbd 1870 ca3d
00000060: fcce 423d 72ec f03c 54c7 dd3d fa56 5cbc
00000070: 5afa bb3d 5beb 033a d6f3 6abd d6ee 683d
00000080: 0b57 483d 0137 86be e7d7 e23d 6309 38be
00000090: 9f44 8d3d dec5 60bc c3b9 d33d 2304 263e
000000a0: 388e 66be 8e3f 6bbe 63e0 843d d050 9e3c
000000b0: fc4b 34bd b402 9a3e 5fe2 253e f619 1cbe
000000c0: f75d 48be 023c 9b3d 6189 8abd 97ab ac3c
000000d0: c405 96bc e0a2 0f3e 70d3 d23d c46e 38be
000000e0: ec8d f7bc 2e75 f83d 07cc 8bbe 1e89 21be
000000f0: 1529 fe3b 6d15 33be aefa c6bd 61bf d0bd
00000100: 4ae1 ebbd 3d53 823b bbb3 143e 4b61 0f3d
00000110: ef0c 663d 0617 3f3e fe47 313d 30bd afbd
00000120: 69a5 063e b511 0e3e 76d1 8dbe 0c57 5bbe
00000130: feb9 4abd 4038 91be cc2c cf3d 7808 6dbd
00000140: 1769 3e3e dd1e 2ebe e7be a4bd 91b6 04ba
00000150: 3bdc f83d 8aca b8bd 63c8 993d 2c9c 153e
00000160: 915d 59bd 3ea3 02be 3f6a 4f3e 1cd8 693e
00000170: 0497 7ebd 7df1 7a3e 97b6 08bd b18e 5bbd
00000180: fa5f 483e 72c5 0bbe 8dce 43be 1dbe fd3a
00000190: ddd3 90bd f305 18be 650b b7bd 833a 423e
000001a0: 56ed 65be 632a 09be fecb f23d 65b1 bf3d
000001b0: 9bcc 893b 9bcb b63c 6ed8 80be 9483 973d
000001c0: 5e65 1d3e d17a 0dbe bc64 c93d d16a 1f3e
000001d0: 865d 94bd 75b5 c8bd 434d 113d 559f 58bd
000001e0: 727a 82bc 5171 1fbe 3c6b 8f3d a252 c0bd
000001f0: 6972 b33d 269b 0cbd c736 71be b039 dcbd
00000200: ed94 bc3d 3293 a23d 1690 cdbc 8688 c7bd
00000210: 269f 5c3e ea99 503e c296 d13d 8b74 3b3e
00000220: 141a 85be 543c 14be 2586 9e3d bec9 3d3e
00000230: bc24 81bc a907 da3d 0a03 773d d33b 4f3d
00000240: a2fc 7cbe 831f 8e3c 81c2 653d adb2 833e
00000250: d75c 38be ee47 743e 8738 1d3d d296 7ebe
00000260: 9d30 573d 4658 173d c48f 56be fec2 61be
00000270: b38b 613e b280 59be 91a2 8e3d 0489 05bd
00000280: ae38 7cbe bd1d 683d b201 383c 8440 863e
00000290: 4d31 c5bd 75e1 353d 615e 3fbd 0203 e4bd
000002a0: f7d3 3e3e 5b48 0b3d 5c40 4dbe 7bdd 36be
000002b0: 2def 243e 1166 5cbe 496e 873e 06c3 053d
000002c0: 92b9 723e e99c 40be 6b2e 07be 3b04 6dbb
000002d0: e3b3 723d 2d8b 2ebe 4470 99bd d89e bd3d
000002e0: 2387 2cbe c93c d8bd 964a 843e 127e 653d
000002f0: e1e2 20bb 79fa aa3c 9cb2 21be 2b41 1ebe
00000300: fb0c 3f3e 4142 88be 92d4 8d3c 882c 65bb
00000310: 1044 d43d 05ae 34be a20f c13d f172 0b3e
00000320: 5357 05be b5b6 bdbd a925 3b3e 0943 6b3e
00000330: a341 513c b799 a63e b8ef f73c 9e7e cebc
00000340: ecc9 d9bc 2202 71bb 30c0 1d3e 7c87 58be
00000350: 8548 28bd f4c6 b83c add9 0bbe ac7e 7bbc
00000360: 0e95 6b3e e75e ec3c b70f c0bd ac6f 853d
00000370: 70aa 42be e258 813d 2161 88bc bf51 f73c

encoder_mean.8.bias f4 [14]
-0.0076610423 -0.07071863 -0.005729655 0.025496572 0.040308446 -0.0017701791 0.024443973 0.0001599286
-0.051781733 0.04731386 0.06356845 -0.016526602 0.00076086883 0.0070219464
00000000: 7b09 fbbb eed4 90bd d4bf bbbb 30de d03c
00000010: 781a 253d 5b05 e8ba ba3e c83c 82b2 2739
00000020: 1519 54bd 2ecc 413d 2d30 823d cc62 87bc
00000030: 0b75 473a 5b18 e63b

encoder_mean.9.weight f4 [14]
0.6038804 0.4391535 0.82080466 0.71364874 0.52931684 0.588982 0.7271317 0.54393333
0.56722456 0.8922003 0.8552062 0.73993003 0.47053418 0.45705423
00000000: e897 1a3f bad8 e03e 4120 523f afb1 363f
00000010: 4f81 073f 86c7 163f 4e25 3a3f 373f 0b3f
00000020: a135 113f 3d67 643f cbee 5a3f 0e6c 3d3f
00000030: dbe9 f03e 0303 ea3e

encoder_mean.9.bias f4 [14]
0.1336305 -0.17321338 0.14244027 -0.037316732 0.0748644 0.13446106 0.03841441 0.04565057
-0.10199084 0.25934902 0.21843183 0.02836617 0.15362455 -0.15598427
00000000: 6fd6 083e d95e 31be dddb 113e 6ed9 18bd
00000010: 8252 993d 29b0 093e 6e58 1d3d 18fc 3a3d
00000020: 93e0 d0bd 65c9 843e 98ac 5f3e 2c60 e83c
00000030: c14f 1d3e 57ba 1fbe

encoder_mean.9.running_mean f4 [14]
-0.022095118 0.30701354 -0.055496946 -0.28868896 -0.09475181 -0.016358348 -0.16270126 -0.1495241
0.16760528 -0.110239945 -0.033962965 -0.13574217 0.021729413 -0.06286778
00000000: d200 b5bc e130 9d3e c450 63bd 0acf 93be
00000010: 3d0d c2bd f101 86bc 299b 26be d81c 19be
00000020: b8a0 2b3e 7bc5 e1bd c01c 0bbd ffff 0abe
00000030: e201 b23c d3c0 80bd

encoder_mean.9.running_var f4 [14]
0.14674538 0.052217945 0.09767654 0.1506955 0.0868791 0.16421087 0.1697689 0.18326329
0.11244554 0.33013126 0.37928733 0.15306605 0.12135529 0.040818583
00000000: 6c44 163e 7ce2 553d a30a c83d ec4f 1a3e
00000010: abed b13d e526 283e e6d7 2d3e 5fa9 3b3e
00000020: d949 e63d f706 a93e f331 c23e 59bd 1c3e
00000030: 1f89 f83d 6331 273d

encoder_mean.12.weight f4 [12, 14]
-0.0021324444 0.02132341 0.20038812 -0.29439977 -0.23138854 0.09523082 0.021349661 -0.12191339
-0.36410612 -0.27648926 -0.16183603 0.2124287 0.012736899 0.118165046 0.016355116 -0.043426123
0.027620085 -0.09584656 -0.23129776 -0.100193314 -0.13261186 -0.13623616 -0.0028312274 0.39119875
-0.2505747 -0.07550006 -0.12182684 -0.03449018 -0.13993068 0.013023872 -0.13431023 0.08786171
-0.015581647 -0.16991939 -0.067976266 -0.19859867 -0.2165845 -0.18053621 -0.21001923 -0.11041175
-0.18221216 -0.2272027 0.15925366 -0.018470049 -0.17420624 -0.0033990475 -0.031103434 0.048090007
0.0028660547 0.19282672 -0.047962956 -0.037133954 0.070586994 0.13922057 -0.08066809 0.028360741
-0.26167557 0.17889516 -0.24794105 -0.14884378 0.22127752 -0.2575593 -0.17902708 0.123175666
0.019114818 0.12017614 0.14845388 -0.22704713 -0.11426673 0.16015187 0.2189315 0.010847128
0.06030389 -0.07426333 -0.11165675 0.19692272 0.19402282 0.11108176 -0.31115034 -0.26179492
-0.11360511 -0.0104656415 0.3273545 -0.023917235 0.13144869 0.05260839 0.021314725 -0.29446575
-0.18744692 0.05832807 0.15986489 0.04131187 -0.21694675 -0.12384505 -0.09728866 0.103014626
0.123653665 0.10442367 -0.0021130613 -0.17185992 0.044598307 -0.04739512 -0.08426018 -0.16495842
-0.1872022 0.040283002 -0.12229195 -0.23793508 0.30418688 -0.09068245 -0.105555974 -0.0055053122
-0.09070916 0.050306335 -0.11648494 -0.08027887 0.19038068 -0.070430815 -0.25452036 0.06577612
-0.037971616 0.13206744 0.053017326 -0.13190731 -0.07434302 0.12971224 -0.19669534 -0.08495478
-0.19621186 0.27433732 0.02155647 -0.2084017 -0.211967 -0.19382082 0.023867102 0.117104
0.043479614 -0.18073054 -0.272254 -0.03544076 -0.17064995 -0.02582064 -0.16281037 0.05139929
0.19960159 -0.2347183 -0.21857873 0.07618291 -0.11859499 0.22343159 0.38873735 -0.21556053
-0.16726238 0.19735108 0.22788365 -0.04275631 0.11190292 -0.26535028 -0.018249815 0.12479929
0.15050638 0.100978106 -0.11390866 -0.28627986 -0.034298684 0.123368114 0.19419411 0.0009631387
00000000: 7bc0 0bbb 6fae ae3c 8b32 4d3e 91bb 96be
00000010: 1ef1 6cbe 6008 c33d 7ce5 ae3c baad f9bd
00000020: 1e6c babe 0090 8dbe 58b8 25be e986 593e
00000030: 6dae 503c 8400 f23d 2afb 853c 97df 31bd
00000040: 8443 e23c 344b c4bd 52d9 6cbe 2732 cdbd
00000050: 67cb 07be 7e81 0bbe 1d8c 39bb 344b c83e
00000060: 544b 80be c79f 9abd 5a80 f9bd 9345 0dbd
00000070: fd49 0fbe 1462 553c 9f88 09be d7f0 b33d
00000080: 2a4a 7fbc 59ff 2dbe 2437 8bbd 735d 4bbe
00000090: 54c8 5dbe 7cde 38be 480f 57be 8e1f e2bd
000000a0: d395 3abe d3a7 68be 6413 233e 804e 97bc
000000b0: 1f63 32be 8ec2 5ebb a1cc febc 07fa 443d
000000c0: 6bd4 3b3b 5e74 453e ce74 44bd c619 18bd
000000d0: ea8f 903d d68f 0e3e 5035 a5bd c954 e83c
000000e0: 57fa 85be 4b30 373e 42e4 7dbe 816a 18be
000000f0: 9396 623e d0de 83be e052 37be 8643 fc3d
00000100: ae96 9c3c e81e f63d 4b04 183e 0b7f 68be
00000110: ad04 eabd dafe 233e 942f 603e 27b8 313c
00000120: 3601 773d 5f17 98bd 4bac e4bd 1ca6 493e
00000130: ebad 463e d57e e33d 194f 9fbe fc09 86be
00000140: cca9 e8bd 1578 2bbc 029b a73e 14ee c3bc
00000150: 7c9a 063e e57b 573d 389c ae3c 37c4 96be
00000160: 16f2 3fbe 6ae9 6e3d 9fb3 233e a336 293d
00000170: 4a27 5ebe 79a2 fdbd 473f c7bd 55f9 d23d
00000180: 223e fd3d 14dc d53d 497b 0abb 0cfc 2fbe
00000190: b7ac 363d 6321 42bd 9a90 acbd dcea 28be
000001a0: efb1 3fbe caff 243d 3474 fabd 41a5 73be
000001b0: 62be 9b3e b8b7 b9bd bb2d d8bd e865 b4bb
000001c0: b9c5 b9bd 040e 4e3d a88f eebd 4069 a4bd
000001d0: 27f3 423e 083e 90bd 7e50 82be a1b5 863d
000001e0: 2088 1bbd b03c 073e b228 593d b612 07be
000001f0: 2741 98bd 49d3 043e 816a 49be c6fc adbd
00000200: c3eb 48be f175 8c3e 3297 b03c 4167 55be
00000210: e10d 59be f778 46be f184 c33c 39d4 ef3d
00000220: ae17 323d 6d11 39be e064 8bbe 552a 11bd
00000230: dcbe 2ebe cf85 d3bc c3b7 26be 1088 523d
00000240: 5c64 4c3e fe59 70be 1ad3 5fbe c905 9c3d
00000250: eee1 f2bd 40cb 643e 9508 c73e e6bb 5cbe
00000260: d446 2bbe 6716 4a3e 555a 693e 3e21 2fbd
00000270: 5c2d e53d fedb 87be a380 95bc c596 ff3d
00000280: 581e 1a3e 9ccd ce3d f248 e9bd 4693 92be
00000290: c77c 0cbd 6ca8 fc3d d2da 463e 257b 7c3a

encoder_mean.12.bias f4 [12]
0.00023970594 -0.079756245 -0.03919893 -0.08479196 0.09844574 0.01757665 0.009619054 0.03272176
0.08861097 0.0783774 0.09638497 0.008434817
00000000: 9359 7b39 3e57 a3bd 0f8f 20bd 68a7 adbd
00000010: ec9d c93d e8fc 8f3c 3d99 1d3c 4107 063d
00000020: ab79 b53d 5584 a03d 7c65 c53d 3032 0a3c

encoder_mean.13.weight f4 [12]
0.86877424 0.78982264 0.8010478 0.51634896 0.9203442 0.8040501 0.7149806 0.70596784
0.72794724 1.0813334 0.8770247 0.7069087
00000000: fd67 5e3f d131 4a3f 7811 4d3f 722f 043f
00000010: ad9b 6b3f 3ad6 4d3f f808 373f 4fba 343f
00000020: c05a 3a3f 2269 8a3f b184 603f f8f7 343f

encoder_mean.13.bias f4 [12]
0.23541923 -0.09481512 0.31788677 -0.08611148 0.3168148 0.3960109 0.4239202 0.088383175
0.30807406 0.34889463 0.34723946 0.46357888
00000000: bd11 713e 6e2e c2bd 0ec2 a23e 375b b0bd
00000010: 8d35 a23e f1c1 ca3e 120c d93e 3d02 b53d
00000020: e2bb 9d3e 51a2 b23e 5fc9 b13e 365a ed3e

encoder_mean.13.running_mean f4 [12]
-0.11630189 0.04449155 -0.35586858 0.34030235 -0.20232944 0.12226242 0.011813224 -0.04639964
0.030628541 -0.4121109 -0.062157206 0.14279984
00000000: af2f eebd c63c 363d 6834 b6be 1c3c ae3e
00000010: 732f 4fbe b864 fa3d 418c 413c 8d0d 3ebd
00000020: b5e8 fa3c 3300 d3be 8e98 7ebd 1f3a 123e

encoder_mean.13.running_var f4 [12]
0.21952175 0.032499216 0.163139 0.11435489 0.29812843 0.18691117 0.096119046 0.049253445
0.1513606 0.21486573 0.45500585 0.18090628
00000000: 4fca 603e e61d 053d e90d 273e e632 ea3d
00000010: 4aa4 983e a465 3f3e 10da c43d fbbd 493d
00000020: 46fe 1a3e c305 5c3e 87f6 e83e 7f3f 393e

encoder_mean.16.weight f4 [10, 12]
-0.1841275 0.25152382 -0.21913947 0.028454753 0.09088152 -0.05516835 0.1626385 0.046286035
0.2703283 -0.15011165 0.14742066 0.030737698 0.029322157 0.06885452 -0.06573448 0.047042605
-0.18079683 0.10578758 -0.035424534 -0.15650743 -0.024032611 -0.1979757 0.0960907 0.25315076
0.24445786 0.03972606 -0.18507656 0.03027085 -0.1003911 -0.00063330325 0.13687168 0.0805125
-0.06401873 -0.26460886 -0.09247947 0.21112716 -0.26355475 -0.19065191 0.2767527 -0.0013370407
0.02854641 -0.37807292 -0.17317766 -0.14258754 -0.016352432 0.50434846 0.20463482 -0.18911505
0.3394104 0.1870843 -0.34468552 0.13231616 -0.13633211 0.30396742 0.33979228 0.09585552
0.095789835 -0.58479357 -0.033801407 0.44207087 0.068741985 -0.037323937 -0.14308266 0.035806473
-0.06943463 0.18090707 0.1148298 -0.1148512 -0.011937878 -0.04395222 -0.18690914 0.07060833
0.05734568 0.23412508 -0.46150938 0.010823067 0.1304528 0.22993134 0.13716812 0.35490564
0.10141581 -0.41854858 0.02319591 0.112929344 0.4115186 -0.15268211 0.06850517 0.07528038
-0.239194 0.22902797 0.044083368 -0.2423467 -0.20929867 -0.10514514 -0.3528781 0.25731897
0.18286163 -0.10598149 -0.014290173 0.107013516 -0.1965864 0.18721186 0.21718174 -0.012764721
-0.16536696 -0.027342517 -0.16700228 0.050034437 -0.49918064 0.07414784 -0.20403367 0.16964345
0.5463172 -0.41091648 -0.4891716 0.1963736 0.32827604 0.3760379 0.4960207 -0.26120776
00000000: eb8b 3cbe bbc7 803e 1966 60be f119 e93c
00000010: 1720 ba3d 35f8 61bd b58a 263e 6d96 3d3d
00000020: 7968 8a3e deb6 19be 71f5 163e a0cd fb3c
00000030: 0535 f03c 9903 8d3d cd9f 86bd bfaf 403d
00000040: ce22 39be 29a7 d83d 5119 11bd 7c43 20be
00000050: 0ae0 c4bc 24ba 4abe 33cb c43d fa9c 813e
00000060: 2953 7a3e cbb7 223d b684 3dbe 93fa f73c
00000070: d999 cdbd 4304 26ba 1728 0c3e bde3 a43d
00000080: 401c 83bd d07a 87be e065 bdbd b831 583e
00000090: a6f0 86be 413a 43be 88b2 8d3e a43f afba
000000a0: 29da e93c c692 c1be 7c55 31be 7802 12be
000000b0: 89f5 85bc fb1c 013f ca8b 513e 60a7 41be
000000c0: 33c7 ad3e 0793 3f3e 9f7a b0be e37d 073e
000000d0: a59a 0bbe 9ea1 9b3e 41f9 ad3e e64f c43d
000000e0: 762d c43d 08b5 15bf 5873 0abd 1d57 e23e
000000f0: 99c8 8c3d fce0 18bd 4384 12be cfa9 123d
00000100: be33 8ebd b43f 393e e32b eb3d 1b37 ebbd
00000110: 1797 43bc 3e07 34bd 1c65 3fbe 1a9b 903d
00000120: 4ee3 6a3d 7cbe 6f3e f54a ecbe 3c53 313c
00000130: 6b95 053e 1f73 6b3e cd75 0c3e 31b6 b53e
00000140: 18b3 cf3d 004c d6be 5905 be3c 8047 e73d
00000150: 91b2 d23e b358 1cbe 704c 8c3d 9a2c 9a3d
00000160: 46ef 74be 4f86 6a3e c390 343d bc29 78be
00000170: 6452 56be 5656 d7bd 70ac b4be 50bf 833e
00000180: 1440 3b3e d30c d9bd 5421 6abc e729 db3d
00000190: f24d 49be 77b4 3f3e e464 5e3e 1f23 51bc
000001a0: f555 29be 6afd dfbc a502 2bbe e9f0 4c3d
000001b0: 9b94 ffbe d3da 973d 34ee 50be 03b7 2d3e
000001c0: 72db 0b3f a563 d2be b374 fabe 2916 493e
000001d0: cc13 a83e 0a88 c03e 6df6 fd3e 06bd 85be

encoder_mean.16.bias f4 [10]
-0.22743022 -0.23666324 -0.16737457 0.274879 -0.4656295 -0.20196404 -0.20451546 -0.1691793
-0.19828892 0.2551348
00000000: 78e3 68be d957 72be 3d64 2bbe f1bc 8c3e
00000010: fd66 eebe a9cf 4ebe 806c 51be 573d 2dbe
00000020: 400c 4bbe 07a1 823e

encoder_var.0.weight f4 [20, 30]
-0.0016085451 -0.0020185367 -0.00044813872 -0.0059096883 -0.0042485213 -0.0029318884 -0.0027823816 -0.0029379365
4.2631185e-05 -0.002572415 -0.0015138149 0.0004355233 -0.00031481884 -0.0049653114 0.010596524 -0.013299009
0.0005038943 -0.0038868627 -0.0035333969 -0.011193979 -0.0059234616 0.005640716 0.0047671567 -0.0031852135
0.010937158 -0.0019376967 0.01601344 0.009836482 -0.010257676 0.023132402 6.8322166e-05 -0.005981147
0.00675304 -0.0022708836 -0.002119734 0.0023715654 0.002734394 -0.0058076433 -6.228567e-05 0.0012768637
-0.00037083536 -0.000386198 0.0015548012 -0.0052129244 -0.0043891245 0.004755083 0.00057507306 0.0026748353
0.0015199337 -0.0028870301 -0.0023002748 -0.0009013864 0.0011009095 -0.0010275089 -0.007098147 0.0026829964
0.007014785 -0.0072179153 0.0047807856 0.010189799 0.008905049 0.009938181 -0.007893735 -0.0010430447
-0.0031712302 -0.009509284 -0.0054039056 0.0027164526 0.00052854273 0.0016794692 -0.0041974774 0.00050048064
0.0023644045 0.004846403 0.009839641 0.007866582 0.0017108917 -0.0030799492 -0.009089261 0.0028434428
-0.0010633088 -0.0002036381 0.0010050939 -0.0024158794 0.008415367 0.006586733 0.011226266 0.015122619
0.0037369574 0.0017630836 -0.0034454851 -0.0035987135 -0.0014050086 -0.00024975947 -0.0044749314 8.7556786e-05
0.0006820406 -0.0042247754 -0.00056669366 0.002482154 -0.00044178063 0.0004369018 0.0006291062 -0.0022354126
-0.001710853 0.0021206404 0.0011012411 0.00066801545 0.002165672 -0.0021104491 -0.00020830242 0.005050215
-0.0005909793 -0.0020551023 0.00015216204 -0.0033946345 0.002151833 0.004429602 -0.0008591231 0.014717867
-0.031375658 -0.036581796 -0.0061016623 -0.0004975195 -0.048885114 -0.0029283555 4.2597432e-05 -0.007785676
-0.00046384535 -0.030338248 0.0038488128 0.0005561172 -0.005348129 4.751374e-05 -0.03816871 -0.03084435
0.0054680943 -0.008206858 -0.009698171 -0.032673866 -0.0005376842 -0.0007334368 -0.0036473505 -0.0084994845
-0.03875823 -0.025155585 -0.04384294 -0.025575152 -0.03827853 -0.052698065 -0.015887594 -0.0066245105
0.013294074 -0.022134498 0.010697353 -0.011005468 0.009796943 -0.012093437 0.00057110575 -0.0010891436
0.0007389707 0.00059257844 -0.00042421723 -0.0038236892 0.0021003392 -0.0054732813 0.016285356 -0.0012813673
-0.019865714 0.020211045 -0.022179835 0.0028020763 0.0056818654 0.0077272253 -0.01555479 0.020406872
-0.027708486 0.0013681214 -0.028386313 0.009254334 -0.100643136 -0.02911526 0.0034716022 -0.0013962596
-0.013554143 -0.021058409 -0.007841076 -0.025706578 -0.00044030542 -0.021794599 -0.004051239 0.00058047497
-0.01640353 -0.002008711 -0.042858772 -0.021996008 0.0022991763 -0.01010541 -0.0026238153 0.0032676538
-0.0014424955 -0.011987659 -0.018242748 -0.0014106547 -0.027425252 -0.021614036 -0.038584538 -0.05886848
-0.029034618 -0.08091059 -0.0022052322 -0.0051043523 0.0041955407 -0.001253609 0.0041251453 0.0023329216
0.004209327 -0.003001491 -0.00052841357 0.0034510237 0.0008715914 0.0004580414 0.0011532179 -7.4871576e-05
-0.008436257 0.0039027184 -0.00070887525 0.0015862867 0.0018485176 0.005660837 -0.0013196833 0.0009783859
-0.0017120014 0.0013272456 -0.012352563 -0.012666836 0.004980918 -0.0046888213 0.008546221 0.010473983
0.0014829823 0.000211246 -0.0036840397 0.0002556167 -0.0036916768 -0.0010498671 -0.0015739483 0.0007590834
-0.00030077525 -0.0033252 0.0014429038 -0.0005238198 0.0007387964 0.0009913117 0.007635309 0.0002925078
00000000: d1d5 d2ba 6d49 04bb 29f4 eab9 0fa6 c1bb
00000010: 2e37 8bbb ed24 40bb 9e58 36bb 658a 40bb
00000020: e3ce 3238 f695 28bb 336b c6ba f356 e439
00000030: 450e a5b9 0db4 a2bb 0b9d 2d3c 16e4 59bc
00000040: c617 043a bcba 7ebb 9090 67bb f366 37bc
00000050: 9919 c2bb c1d5 b83b cf35 9c3b 04bf 50bb
00000060: c431 333c 50fa fdba 9e2e 833c 3229 213c
00000070: d00f 28bc 2a80 bd3c 2f48 8f38 7ffd c3bb
00000080: 9b48 dd3b 1bd3 14bb 3ceb 0abb 446c 1b3b
00000090: 8533 333b 0b4e bebb 5d9f 82b8 705c a73a
000000a0: ae6c c2b9 9e7a cab9 79ca cb3a 2ed1 aabb
000000b0: a5d2 8fbb 87d0 9b3b 80c0 163a 4a4c 2f3b
000000c0: 8338 c73a 5434 3dbb 35c0 16bb 044b 6cba
000000d0: 654c 903a 7aad 86ba 9397 e8bb 36d5 2f3b
000000e0: 48dc e53b 4384 ecbb 23a8 9c3b 1df3 263c
000000f0: 7ce6 113c c1d3 223c b954 01bc c6b6 88ba
00000100: 6ad4 4fbb d4cc 1bbc 3f13 b1bb 8306 323b
00000110: e78d 0a3a a321 dc3a fe8a 89bb b032 033a
00000120: 20f4 1a3b 93ce 9e3b 7236 213c d6e2 003c
00000130: 0040 e03a f9d8 49bb 20eb 14bc 0e59 3a3b
00000140: b95e 8bba b087 55b9 5bbd 833a bb53 1ebb
00000150: 9ce0 093c 85d5 d73b 5fee 373c ddc4 773c
00000160: bee7 743b 4517 e73a a6cd 61bb 65d8 6bbb
00000170: 4428 b8ba 26f2 82b9 72a2 92bb b19e b738
00000180: f8ca 323a fc6f 8abb 2b8e 14ba a2ab 223b
00000190: cb9e e7b9 f80f e539 9aea 243a 0080 12bb
000001a0: b33e e0ba 71fa 0a3b 8557 903a c21d 2f3a
000001b0: f2ed 0d3b 764f 0abb c16b 5ab9 467c a53b
000001c0: f3eb 1aba e5ae 06bb b08d 1f39 8478 5ebb
000001d0: c405 0d3b 3226 913b c636 61ba 3523 713c
000001e0: c383 00bd cbd6 15bd 74f0 c7bb f86b 02ba
000001f0: c23b 48bd a7e9 3fbb a5aa 3238 fc1e ffbb
00000200: 4530 f3b9 eb87 f8bc 5d3c 7c3b 65c8 113a
00000210: 5c3f afbb 7d49 4738 cb56 1cbd 4aad fcbc
00000220: b32d b33b 0f76 06bc 14e5 1ebc 08d5 05bd
00000230: 60f3 0cba 1c44 40ba 6308 6fbb 6c41 0bbc
00000240: f3c0 1ebd 1613 cebc a894 33bd fb82 d1bc
00000250: f3c9 1cbd edd9 57bd b326 82bc 6c12 d9bb
00000260: 63cf 593c 6853 b5bc f343 2f3c 4750 34bc
00000270: 5b83 203c 8d23 46bc 42b6 153a 98c1 8eba
00000280: 7cb7 413a 4457 1b3a 7969 deb9 dc96 7abb
00000290: d8a5 093b 3659 b3bb de68 853c 8df3 a7ba
000002a0: 6cbd a2bc a291 a53c 7cb2 b5bc 0aa3 373b
000002b0: f12e ba3b aa34 fd3b 85d9 7ebc 502c a73c
000002c0: e8fc e2bc 8952 b33a 6a8a e8bc 7d9f 173c
000002d0: fd1d cebd 2083 eebc d283 633b b302 b7ba
000002e0: 3212 5ebc af82 acbc db77 00bc 9a96 d2bc
000002f0: cbd8 e6b9 968a b2bc 42c0 84bb 042b 183a
00000300: b260 86bc 94a4 03bb ae8c 2fbd f930 b4bc
00000310: c7ad 163b 2991 25bc 51f4 2bbb 2226 563b
00000320: 1e12 bdba e367 44bc d171 95bc b8e5 b8ba
00000330: ecaa e0bc eb0f b1bc d20a 1ebd 1320 71bd
00000340: 02da edbc 74b4 a5bd a885 10bb 6942 a7bb
00000350: bf7a 893b 2350 a4ba 3a2c 873b eee3 183b
00000360: 65ee 893b aab4 44bb 3c85 0aba 922a 623b
00000370: 827b 643a 4725 f039 9227 973a 5f04 9db8
00000380: 3a38 0abc c0c4 7f3b d0d3 39ba f3ea cf3a
00000390: f549 f23a 8b7e b93b 39f9 acba 2f3d 803a
000003a0: 3c65 e0ba f9f6 ad3a 6862 4abc 9088 4fbc
000003b0: f836 a33b afa4 99bb 7305 0c3c 129b 2b3c
000003c0: a160 c23a eb81 5d39 ee6f 71bb 4b04 8639
000003d0: 0ff0 71bb b29b 89ba f14c ceba 3afd 463a
000003e0: 5fb1 9db9 99eb 59bb d11f bd3a f450 09ba
000003f0: caab 413a e7ee 813a 9d31 fa3b bb5b 9939

encoder_var.0.bias f4 [20]
0.008415652 0.009422047 0.0010014289 0.0054048556 -0.04658917 -0.0054499195 -0.052038223 0.010495014
0.0025734464 0.005596929 0.00025813255 0.0040706685 0.0052073067 2.3903693e-05 0.0058556534 -0.0023194586
-0.043358795 0.0013920903 -0.001019633 -0.05259973
00000000: cee1 093c ee5e 1a3c 6142 833a 371b b13b
00000010: 49d4 3ebd 3d95 b2bb 0826 55bd 47f3 2b3c
00000020: 44a7 283b 7266 b73b f755 8739 3e63 853b
00000030: 0ea2 aa3b ca84 c837 c8e0 bf3b 0f02 18bb
00000040: fe98 31bd cd76 b63a 35a5 85ba d172 57bd

encoder_var.1.weight f4 [20]
0.016250698 -0.0022142471 0.019594915 0.00012302193 0.041199792 0.022730872 0.056326028 4.971474e-05
-0.004583736 0.0028227423 -0.003957553 0.006403773 0.011397217 -0.004189953 0.00584257 0.04722982
0.02260143 0.010034574 0.007933531 0.06247543
00000000: 2f20 853c e71c 11bb 8485 a03c 73ff 0039
00000010: 1dc1 283d 1836 ba3c 1fb6 663d cc84 5038
00000020: 2a33 96bb c2fd 383b 5cae 81bb bed6 d13b
00000030: 65bb 3a3c e04b 89bb 0873 bf3b 0e74 413d
00000040: a226 b93c 0e68 243c a4fb 013c 3de6 7f3d

encoder_var.1.bias f4 [20]
-0.004480074 -0.006912157 -0.0074711563 -0.00094371836 -0.023260897 -0.012723162 -0.050670333 -0.009939773
-3.3069646e-05 0.0014128315 0.004553766 -0.003384474 -0.007590671 0.002371845 -0.0040834616 -0.017800754
-0.028549965 -0.009465255 0.0003477819 -0.04541211
00000000: 96cd 92bb 607f e2bb 9ad0 f4bb de63 77ba
00000010: a38d bebc cf74 50bc b28b 4fbd 6eda 22bc
00000020: 43b4 0ab8 c22e b93a c237 953b 0dce 5dbb
00000030: 2abb f8bb f570 1b3b 8fce 85bb e3d2 91bc
00000040: 9ee1 e9bc 2814 1bbc 7f56 b639 0c02 3abd

encoder_var.1.running_mean f4 [20]
0.08270074 -0.00094419095 0.078721166 -0.14188978 0.0069842716 0.012716061 -0.0632876 0.010509949
-0.09012592 0.12606408 0.12292872 0.123425536 0.058895852 -0.13100944 -0.12020803 0.012558029
-0.21729633 0.02619849 0.081368774 -0.18031657
00000000: 015f a93d 9583 77ba 9038 a13d 8e4b 11be
00000010: 51dc e43b 0757 503c ee9c 81bd ec31 2c3c
00000020: f093 b8bd f116 013e 0ec2 fb3d 87c6 fc3d
00000030: c73c 713d 5727 06be a12f f6bd 31c0 4d3c
00000040: ee82 5ebe 379e d63c aca4 a63d e8a4 38be

encoder_var.1.running_var f4 [20]
0.0019971335 0.0010732245 0.0020530906 0.00222865 0.0012080879 0.0007877464 0.0030141734 0.0010641263
0.001536155 0.004105629 0.006967365 0.007884612 0.0049041547 0.0026188805 0.0029234816 0.0035086675
0.006424411 0.0010868972 0.0039132484 0.0046528564
00000000: 57e2 023b 70ab 8c3a 258d 063b 8b0e 123b
00000010: b458 9e3a c480 4e3a 7089 453b 277a 8b3a
00000020: cf58 c93a 8388 863b 7e4e e43b 762e 013c
00000030: 08b3 a03b 86a1 2b3b e297 3f3b acf1 653b
00000040: de83 d23b 3876 8e3a b53a 803b fd76 983b

encoder_var.4.weight f4 [16, 20]
0.00037893208 5.689243e-05 0.011695971 0.00047932588 -0.0003715236 -0.002943623 -0.00012179717 0.002251835
-3.6066736e-05 0.0051603396 -0.008077682 0.0007814157 0.005616771 0.00029224347 0.00081586826 0.0060294545
0.00033566653 0.0011406511 -0.0016975497 -0.0011948709 -0.00060038327 -0.0012623641 0.002163271 0.0013007439
0.0002975613 -0.0011207683 -0.00066194 0.0009014128 -0.0006244398 -0.0037217839 0.002828889 0.00067787844
0.0010404756 -0.00038640707 0.0006201629 0.009058163 -0.0005039711 0.0033160034 0.00029024278 0.0013111784
-0.00091953826 0.00090280117 0.0030922696 0.0023859676 0.00020217623 -0.004938444 -0.00042792363 -0.0006819136
-0.0007139242 -0.0004954434 0.00029906182 -0.00045694865 -0.00017876035 0.001133379 -0.00086496753 -0.008457015
-0.00052742497 -0.0011425667 0.0017756942 0.0012259285 0.006635284 -0.0005538652 0.02152186 -0.0031945745
-0.003897862 0.0070487456 -0.0024829935 -0.0024134677 0.0018182271 0.0005114085 0.002107351 0.001219345
0.0018294598 -0.0014112777 0.000306093 -0.034869302 -0.0014837199 0.0041221445 0.00010916912 -0.0019984
-0.0008657345 -0.0032931908 0.0005170482 0.0022172204 0.0015564159 0.001062533 0.0019407774 0.001642845
0.0030411552 -0.0010472009 0.0005405802 0.0004924465 -0.00048772275 0.00071139866 -6.227799e-06 0.0035012788
-0.004171801 -0.00096399017 0.000700723 -0.002587218 -0.013438097 0.0018108028 0.0031494226 0.001645205
0.0020259004 0.02881707 0.021662947 0.0031022213 0.002556085 -0.001897615 0.007348445 -0.00223632
0.0009896826 0.001437141 0.0002088285 -0.03183128 0.00952465 -0.005446254 0.0039390577 0.0014056211
-0.007670398 0.0002679094 0.0033679223 0.0009518646 -0.0014492276 -0.0017036243 0.00022082373 -0.0005088942
0.0019680911 -0.0016126978 0.0033021925 -0.00016912194 -0.0020418074 -0.0015053765 0.00015317334 0.018817773
0.0005576784 0.0020621067 0.0021354055 -0.0009897295 -0.03470283 0.0016266138 0.0020785944 -0.00085039437
-0.0037616808 -0.05845625 0.017402567 0.0025673748 -0.00054871745 -0.0009051286 0.0018596287 0.00022206831
0.000629602 -0.0010401645 0.0019598338 -0.011006612 -0.015268846 -0.0003038634 6.57587e-05 0.025626216
0.00025390185 0.0007821865 -0.0003764035 -0.0013981413 -0.00060380594 -0.0021573443 0.00082879805 0.00025524443
0.0010034939 -0.00096080074 -0.0017842624 -0.0014640609 0.0017689217 -0.0014147474 -0.0005286337 -0.003964518
0.00029236428 0.0016140813 -0.00019387488 -0.0009322326 -0.00029748306 -4.2557094e-05 0.005913544 -0.00020013387
-0.014279653 -0.020857394 -0.012677565 0.00041653073 -0.0009288656 -0.0005532082 -0.00051031966 -0.0024638097
0.00035908388 0.00028079704 -0.0019870999 0.016455512 -0.0036437938 0.001109542 0.00012091028 -0.00787232
0.0013439262 0.0006291142 -0.00028890336 0.0021526131 0.002026051 0.001411767 0.00068824174 0.0022640058
0.0005781769 0.0037702087 0.0015027842 -0.0010500666 0.0006926636 0.0015648279 -0.0012382495 0.007715191
0.00012956193 0.00039936183 0.00097422185 -0.0013453782 -0.03024515 -0.0071766046 -0.01268301 0.0036178513
-0.005600737 -0.001605184 -0.016965955 -0.012880216 -0.012849478 0.011519485 0.04083151 -0.012373058
0.003044015 0.0016673603 -0.0014133368 0.043233633 0.0018359276 0.0045350795 -0.013530511 -0.009333872
-0.036585964 -0.0012647498 0.0023933577 0.0038168055 -0.043768063 -0.029747231 -0.0049326327 0.0024028346
-0.0008560335 -0.0014996866 -0.00078276213 -0.008891855 0.0015356867 0.0015707203 0.0016533949 -3.7208426e-06
00000000: 67ab c639 c89f 6e38 75a0 3f3c 084e fb39
00000010: 0ec9 c2b9 cde9 40bb 5c6d ffb8 8693 133b
00000020: 5d46 17b8 1118 a93b 4158 04bc ecd7 4c3a
00000030: e40c b83b 4138 9939 fedf 553a bb92 c53b
00000040: 66fc af39 e681 953a 5180 deba 379d 9cba
00000050: 0a63 1dba e975 a5ba aac5 0d3b b97d aa3a
00000060: 0002 9c39 bee6 92ba 0b86 2dba ca4c 6c3a
00000070: 72b1 23ba 2ce9 73bb e264 393b a7b3 313a
00000080: 9160 883a ae96 cab9 6d92 223a b068 143c
00000090: ee1c 04ba 4e51 593b ba2b 9839 d9db ab3a
000000a0: 2b0d 71ba f6a9 6c3a ada7 4a3b e55d 1c3b
000000b0: 45ff 5339 acd2 a1bb f05a e0b9 72c2 32ba
000000c0: a426 3bba a5e0 01ba 66cb 9c39 9c92 efb9
000000d0: 9e71 3bb9 e38d 943a fdbe 62ba 4b8f 0abc
000000e0: e442 0aba 2dc2 95ba 69be e83a 56af a03a
000000f0: cc6c d93b 4431 11ba 9d4e b03c 115c 51bb
00000100: 4673 7fbb 2af9 e63b b8b9 22bb 452b 1ebb
00000110: 9451 ee3a 0b10 063a 7c1b 0a3b 6ed2 9f3a
00000120: 7cca ef3a 9ffa b8ba 1b7b a039 1dd3 0ebd
00000130: 6179 c2ba 0e13 873b baf1 e438 97f7 02bb
00000140: 75f2 62ba 93d2 57bb 848a 073a c94e 113b
00000150: a700 cc3a b144 8b3a af61 fe3a bb54 d73a
00000160: 1e4e 473b 3b42 89ba b9b5 0d3a 8617 013a
00000170: 0ab5 ffb9 287d 3a3a 63f8 d0b6 b675 653b
00000180: 9ab3 88bb 49b4 7cba b9b0 373a 518e 29bb
00000190: 772b 5cbc 7658 ed3a 8b66 4e3b eba3 d73a
000001a0: f8c4 043b c711 ec3c 7e76 b13c a34e 4b3b
000001b0: fd83 273b 65b9 f8ba 39cb f03b 398f 12bb
000001c0: 3db8 813a 735e bc3a f9f8 5a39 8461 02bd
000001d0: 470d 1c3c 7d76 b2bb 3613 813b d13c b83a
000001e0: f657 fbbb 3176 8c39 5cb8 5c3b 8d86 793a
000001f0: 02f4 bdba 254c dfba eb8c 6739 5067 05ba
00000200: 17fb 003b 2961 d3ba 9969 583b 5356 31b9
00000210: d8cf 05bb 0e50 c5ba 289d 2039 bb27 9a3c
00000220: 2a31 123a 6924 073b 29f2 0b3b d0b9 81ba
00000230: 8e24 0ebd 1a34 d53a 0739 083b 00ed 5eba
00000240: 8886 76bb d26f 6fbd d48f 8e3c 6741 283b
00000250: ced7 0fba 2746 6dba c9be f33a 02db 6839
00000260: e00b 253a 2156 88ba 8e70 003b 1455 34bc
00000270: 2f2a 7abc db4f 9fb9 efe7 8938 12ee d13c
00000280: 211e 8539 a60b 4d3a 0658 c5b9 d641 b7ba
00000290: bb48 1eba 3b62 0dbb b243 593a 54d2 8539
000002a0: ab87 833a 3fde 7bba e9dd e9ba bbe5 bfba
000002b0: 2adb e73a 0c6f b9ba 0294 0aba cae8 81bb
000002c0: 7848 9939 958f d33a e44a 4bb9 1261 74ba
000002d0: 80f7 9bb9 557f 32b8 67c6 c13b 07db 51b9
000002e0: 35f5 69bc 20dd aabc 90b5 4fbc cf61 da39
000002f0: 1d7f 73ba 2d05 11ba f9c6 05ba de77 21bb
00000300: 6c43 bc39 f137 9339 013a 02bb b6cd 863c
00000310: b7cc 6ebb 0d6e 913a 3691 fd38 e7fa 00bc
00000320: ae26 b03a 24eb 243a f477 97b9 db12 0d3b
00000330: 7fc7 043b 0a0b b93a 1f6b 343a b75f 143b
00000340: cc90 173a 9b15 773b 12f9 c43a 63a2 89ba
00000350: de93 353a e91a cd3a c24c a2ba b7cf fc3b
00000360: 04db 0739 7061 d139 ec62 7f3a 6757 b0ba
00000370: adc4 f7bc b929 ebbb 66cc 4fbc 7919 6d3b
00000380: 6386 b7bb 0a65 d2ba 30fc 8abc 8b07 53bc
00000390: 9e86 52bc 39bc 3c3c f13e 273d 5eb8 4abc
000003a0: 197e 473b 548b da3a b73f b9ba c015 313d
000003b0: 82a3 f03a 019b 943b 14af 5dbc 19ed 18bc
000003c0: 2adb 15bd f6c5 a5ba e1d9 1c3b 5f23 7a3b
000003d0: 2446 33bd 77b0 f3bc eca1 a1bb e078 1d3b
000003e0: 7067 60ba 2291 c4ba 4732 4dba 25af 11bc
000003f0: 1849 c93a a1e0 cd3a bab6 d83a 97b3 79b6

encoder_var.4.bias f4 [16]
-0.01547974 -0.0042388653 -0.019000346 -0.08261043 -0.032893095 0.027575448 4.5349543e-06 -0.03837847
0.009007912 -0.023258893 -0.039096527 -0.009984771 -0.035745386 -0.056944903 -0.0135567235 -0.02797838
00000000: bc9e 7dbc 2ee6 8abb 9da6 9bbc a82f a9bd
00000010: e9ba 06bd e8e5 e13c f62a 9836 be32 1dbd
00000020: ec95 133c 6f89 bebc ae23 20bd 2a97 23bc
00000030: c169 12bd 0f3f 69bd 051d 5ebc ea32 e5bc

encoder_var.5.weight f4 [16]
0.04560099 0.020466374 0.019201042 -0.0792835 0.004630023 -0.029864315 0.010334051 0.16544597
-0.0013658791 0.024827333 0.017742261 0.05006359 -0.008981891 -0.07357976 0.039550435 0.045214206
00000000: 1bc8 3a3d 19a9 a73c 814b 9d3c 635f a2bd
00000010: 73b7 973b 02a6 f4bc 2750 293c ab6a 293e
00000020: 4c07 b3ba b162 cb3c 3858 913c 7b0f 4d3d
00000030: c828 13bc fcb0 96bd a3ff 213d 8832 393d

encoder_var.5.bias f4 [16]
-0.06288944 -0.013201928 -0.019823996 0.08862925 -0.009214946 -0.01818917 -0.009924314 -0.044747986
-0.003417501 -0.04644566 -0.0005287868 -0.021906113 -0.015756011 0.03654597 -0.035854068 -0.0445802
00000000: 2ecc 80bd e64c 58bc ef65 a2bc 4183 b53d
00000010: 49fa 16bc 7401 95bc 9799 22bc aa49 37bd
00000020: 27f8 5fbb ce3d 3ebd 489e 0aba 7374 b3bc
00000030: c012 81bc 3ab1 153d b7db 12bd ba99 36bd

encoder_var.5.running_mean f4 [16]
0.0028674204 0.007829742 0.003261094 -0.010774172 0.008955096 -0.0050305375 0.0060371747 0.009837741
0.007911526 0.011889473 -0.0039428365 0.001483949 -0.0014448155 0.009909153 0.013598538 0.019024875
00000000: 55eb 3b3b 5148 003c 14b8 553b 2786 30bc
00000010: 65b8 123c 35d7 a4bb 7ed3 c53b 7a2e 213c
00000020: 589f 013c 10cc 423c e932 81bb 1181 c23a
00000030: f75f bdba 005a 223c 67cc 5e3c 0eda 9b3c
