generativecf/models/adult-margin-0.764-constraint-reg-192.0-validity_reg-29.0-epoch-25-unary-gen.pth (torch_old, 37228 bytes, 78 tensors)

encoder_mean.0.weight f4 [20, 30]
000000 f5 0b 02 bf 79 60 47 bd 2e 43 5a 3d 1f c8 30 3d
       -0.50799495 -0.048675988 0.053286724 0.0431596
000010 35 90 95 bd 9d 45 95 bd 7c 38 92 be 8e ab 37 3b
       -0.07302896 -0.07288668 -0.2855872 0.0028025839
000020 91 82 c0 bc 2c 6a a9 3d 13 d2 ee 3c e3 04 8f 3d
       -0.023499759 0.08272204 0.029152906 0.06983354
000030 f1 2c 77 3d 9e b2 56 3d f0 f0 4e 3d a0 01 a9 bd
       0.060345594 0.052416436 0.050522745 -0.08252263
000040 6d d5 85 3d 40 ca 10 be 22 e9 39 3e 15 31 4e 3d
       0.06534848 -0.14139652 0.1815534 0.050339777
000050 c2 2b 9f bb b7 7b 03 3e 0e 09 00 3e fb 63 c7 3c
       -0.0048575113 0.12840162 0.12503454 0.024339667
000060 97 d1 21 3c cb e0 bb 3d be 81 32 3d e2 9a ff bc
       0.00987663 0.09173735 0.043580763 -0.031201784
000070 8b 5c d7 3c f9 d8 f9 3d f6 69 40 bf 8a 20 cf bc
       0.026289245 0.121995874 -0.75161684 -0.02528407
000080 cb ef 67 3d da 8e d5 bc cc ce 4a 3d 2a 3a 80 3d
       0.05662517 -0.026069093 0.049513623 0.06261094
000090 31 82 b0 3d c6 ba 72 3d 16 68 b0 3d aa 98 88 3d
       0.08618582 0.059260152 0.08613603 0.06669743
0000a0 20 69 8a 3d 63 34 ac 3d 69 c3 87 3d 03 34 63 3d
       0.06758332 0.084084295 0.066290684 0.055469524
0000b0 12 70 7e bb a6 11 93 3c ae 86 34 3c f4 4a 1b 3c
       -0.0038824123 0.017952751 0.011018438 0.009478319
0000c0 ed 0d b9 3c 88 db fa bc 9c 3d 5d 3d 30 db b3 bc
       0.022589648 -0.030622259 0.054013833 -0.021955103
0000d0 87 cc 02 bd 84 a9 b8 bc 3d 0a 84 bc f5 3e 3c bd
       -0.031933334 -0.022541769 -0.016118163 -0.045958478
0000e0 34 69 30 bd 7e 8e 8e bd 13 06 95 bd 83 16 86 3e
       -0.04306908 -0.06960772 -0.07276549 0.2618905
0000f0 b7 2b 1c bf e9 31 ea bd 51 28 03 3d c1 66 ec 3d
       -0.61004204 -0.11435301 0.03202087 0.11543036
000100 ba 69 a3 3c 08 d7 b0 bc 90 c8 00 3c ac 38 97 3d
       0.019947875 -0.02158691 0.007860318 0.07383856
000110 13 b0 8a 3b 52 30 50 3d 7b b8 38 3d dc 5d 8d bc
       0.0042324155 0.05082733 0.04509781 -0.01725667
000120 9c 90 8d 3c 5d 62 85 3d 2d fb 04 3e dc 93 18 bd
       0.01728087 0.06512902 0.12986441 -0.037250385
000130 9f 39 c7 3d 52 02 0b 3e 82 06 db 3d 10 26 dc 3c
       0.09727787 0.13575104 0.10694601 0.026873618
000140 8c ac c1 bd 10 9e e0 bc 64 49 7e 3d f7 dc b0 3c
       -0.09456739 -0.02741912 0.06208171 0.02158974
000150 1c ed 46 bc 9c 25 75 bc 81 7f 50 bb 41 77 81 bd
       -0.012141492 -0.01496258 -0.003181428 -0.06321574
000160 50 0b 53 3a c9 a9 0f 3e ef c0 1e bf e8 73 8b 3c
       0.0008050697 0.14029612 -0.62013143 0.017023042
000170 6e ea c9 bd 4b 96 40 bc 78 f6 da bd e2 6b ce bd
       -0.09859167 -0.011754583 -0.106915414 -0.10079171
000180 4f 39 47 ba d7 d0 a2 bc 27 c0 80 3b 77 51 ec bb
       -0.0007599787 -0.019874973 0.0039291563 -0.00721186
000190 4d c1 84 3b 67 27 4a 3c 44 0f 17 bc 6b 76 17 bc
       0.0040513636 0.012338496 -0.009219948 -0.009244542
0001a0 06 90 a2 3d 9d d6 c0 3d f2 27 a0 3d e5 3e ad 3d
       0.079376265 0.09415934 0.07820119 0.08459262
0001b0 93 b4 ca 3d 08 de b1 bb 9a 36 9d bd 59 f6 93 bb
       0.09897723 -0.0054280795 -0.0767643 -0.004515451
0001c0 11 d1 39 bb 79 bb 5b 3b b7 36 14 3c 45 8c 72 3d
       -0.0028353373 0.003352849 0.009046248 0.059215803
0001d0 d7 10 64 3d 89 b1 f9 bc af c3 fd bc 90 5f 64 3e
       0.055680122 -0.030480163 -0.030977098 0.22302079
0001e0 78 dc 1b 3f 87 da 7f 39 8b 6f 65 3a d8 72 4b 3d
       0.60883284 0.00024400103 0.0008752278 0.04967007
0001f0 0a ea a7 3c cf 36 e0 3c c8 20 4b bd 6f e3 3f bc
       0.02049734 0.027369885 -0.04959181 -0.011711939
000200 4d 93 83 3d 29 45 b6 bb 94 4d ce bc 1b dd 93 3c
       0.0642458 -0.0055624438 -0.025183477 0.018049767
000210 41 9e 86 3b aa fd a1 bb 59 ef 14 3e b1 58 cd 3d
       0.004108221 -0.004943569 0.14544429 0.10026682
000220 8e c1 12 3e db 71 e3 3d 37 19 13 3e 93 a0 ae 3c
       0.14331648 0.111057006 0.14365087 0.021316802
000230 3f 9f 2a 3a 7f 24 e3 3c db 36 3d 3d ef 9d 07 3d
       0.0006508715 0.027727364 0.046194892 0.0331096
000240 a3 e3 c2 3c 4b a2 36 bd 77 0b 69 bd 09 b6 f1 b8
       0.023790186 -0.04458837 -0.0568957 -0.00011525682
000250 f4 e3 02 bc 2f 0d e4 bd 5b b3 e6 3e 1d 66 31 3c
       -0.007988919 -0.11135327 0.45058712 0.010827568
000260 4f 61 8c 3d 3b 45 06 3d 9e a1 6f 3d 42 20 72 3d
       0.06854498 0.032780867 0.05850374 0.059112795
000270 ae 76 53 bd 23 23 93 bd 68 38 06 bd a7 b0 5a bd
       -0.051626854 -0.07184436 -0.032768637 -0.053391125
000280 86 5f 08 bd 84 cd 17 bd e7 dc 03 bd 9d cf 2a bd
       -0.033294223 -0.03706123 -0.03219309 -0.0417019
000290 2e 2c 4d bd c7 2a f1 3d 26 98 12 3c 68 e6 f3 3d
       -0.05009096 0.11775737 0.008947408 0.11909181
0002a0 12 3a 80 3d 74 a0 a0 3c 2a 80 45 3d 46 e8 6a 3b
       0.06261076 0.01960776 0.04821793 0.0035844012
0002b0 28 ba 5e 3c 6b 0f b0 3b 06 6f e4 3c 23 8b d3 bd
       0.013594188 0.0053729317 0.027884971 -0.103292726
0002c0 4f 6d bd bd f6 09 f7 bc 1c 82 3e bd f6 73 c2 be
       -0.092493646 -0.030156117 -0.0465108 -0.37979096
0002d0 66 6c 21 be b7 4e 6d 3c db 3e 33 bd 9c d7 54 bd
       -0.15764007 0.014484099 -0.043761116 -0.051963434
0002e0 ff c7 88 3e 79 0e 9a bd ec 81 55 bc 41 b4 b8 3d
       0.26715085 -0.07522292 -0.013031464 0.09018756
0002f0 b8 96 92 3c b6 fd 0e 3d 09 30 62 bc 6e fe 94 3d
       0.017894134 0.034909926 -0.013805398 0.07275091
000300 8d c1 5b be 24 65 72 bc e2 5c 05 3e f4 38 6a bd
       -0.21460553 -0.014794622 0.13023713 -0.05718322
000310 8c 7b cf 3d 30 51 e9 3c 49 b8 d2 bd dd 52 3f bd
       0.101309866 0.028481096 -0.10289056 -0.046709884
000320 13 01 ac bd 9b 77 da bc 1d b4 65 bd bd 8d 7d 3d
       -0.083986424 -0.02666836 -0.056079973 0.06190275
000330 f9 4b 6a bc 17 ec 2e 3c 92 22 78 3c 96 59 b6 3d
       -0.01430034 0.010676405 0.015144961 0.08903806
000340 f9 24 0a bd d8 b1 91 3d f6 89 91 bc 83 44 68 3d
       -0.033726666 0.07113999 -0.01776598 0.056705963
000350 44 94 1d bd 82 15 e0 3d 67 46 26 bd 84 d0 2e bd
       -0.038471475 0.10941602 -0.040594485 -0.042679325
000360 e8 21 05 bd 73 46 b7 bb d5 e4 b9 bc 23 76 3c bc
       -0.03250304 -0.005593115 -0.022692123 -0.011502775
000370 cd a5 45 bc f4 f9 5a 3c 74 77 f4 3c 34 9c 2b bc
       -0.012063456 0.0133652575 0.029842116 -0.010474253
000380 d7 e8 91 3d 53 b9 36 3d 11 5b 3f 3d 0c a1 13 3d
       0.07124489 0.044610333 0.046717707 0.03604226
000390 b7 5a 0b 3d ad c0 b6 3d ae b7 8b bc 48 b3 94 3d
       0.03402206 0.08923469 -0.017055359 0.07260758
0003a0 fd da 19 3d 0e bd 52 3d d7 fb 45 3d e1 38 02 be
       0.03756236 0.051449828 0.048335876 -0.1271701
0003b0 0f 69 0e be ee 3f 12 bd 8e ef 40 bd 19 b3 f6 be
       -0.13907264 -0.0357055 -0.047103457 -0.48183516
0003c0 45 74 80 3e f3 9d e9 bc ce f8 08 3e e3 40 f6 3d
       0.25088707 -0.028517699 0.13376161 0.12024095
0003d0 fe 5c 33 3e 35 83 6b be 27 79 ae 3d 1d e4 d4 3d
       0.17515942 -0.2299927 0.08519202 0.10395072
0003e0 13 d7 a2 3d 67 e0 57 3d 45 f5 91 3b fa c7 8b 3d
       0.079511784 0.05270424 0.0044542872 0.06825252
0003f0 d6 b1 8d 3d 83 23 b0 3c 39 b0 10 3d 21 ff 8d bb
       0.06918685 0.021501308 0.03532431 -0.0043333923

encoder_mean.0.bias f4 [20]
000000 d7 8b 05 39 a4 1a 74 39 3b 98 d3 b7 ae 3b 0d 38
       0.00012735963 0.00023279578 -2.5224048e-05 3.36726e-05
000010 a6 cb e4 38 08 4b 0b b7 a4 ed 27 38 00 53 00 b9
       0.0001090982 -8.302515e-06 4.0037223e-05 -0.00012237951
000020 87 de 56 b9 52 97 ae 38 a2 96 82 38 6d 70 5d b8
       -0.00020491528 8.325152e-05 6.2269406e-05 -5.279521e-05
000030 d6 63 50 39 9e fd a6 38 30 3b 53 b8 c0 80 1f b8
       0.00019873618 7.962737e-05 -5.0361443e-05 -3.8028462e-05
000040 e0 6f 57 38 f4 80 c4 b8 e8 6f 58 38 96 7e b4 b7
       5.1364186e-05 -9.370028e-05 5.1602634e-05 -2.1516618e-05

encoder_mean.1.weight f4 [20]
000000 5c 78 02 3f a8 b5 6d 3f a7 07 0c 3f 70 61 64 3f
       0.50964904 0.9285531 0.54699177 0.8921118
000010 18 d9 39 3f 8c 70 46 3f 9a 61 f1 3e d3 51 68 3f
       0.72596884 0.7751548 0.47144777 0.90749854
000020 bd e3 02 3f 1c d2 c7 3e f2 69 40 3f 0c ef 3d 3f
       0.5112875 0.39027488 0.7516166 0.7419288
000030 97 ce 3b 3f 9d 32 87 3f d7 93 03 3f 88 51 31 3f
       0.73362106 1.0562321 0.5139746 0.6926503
000040 fd bb 8b 3f 5c 29 79 3f 59 78 57 3f 20 07 0f 3f
       1.0916744 0.97328734 0.8416801 0.55870247

encoder_mean.1.bias f4 [20]
000000 91 f5 e1 bd d6 5f 20 be 3e c2 c4 3c b2 72 f3 bb
       -0.11033166 -0.15661559 0.024018403 -0.007429444
000010 d2 4e 94 bd 0d 79 82 bd 06 9e 40 be 1d bd d9 bd
       -0.07241596 -0.06370745 -0.18810281 -0.106317736
000020 f9 02 35 bc 21 63 fd bd 7b e6 56 3d 4f ae 11 bc
       -0.011048072 -0.12372423 0.052465897 -0.008891656
000030 83 de 76 bd 2c 0b b0 bb ee 6c ce bd 40 1c 9b bd
       -0.060270797 -0.0053724255 -0.100793704 -0.07573748
000040 c9 92 95 be 48 07 a3 bd 2d 4f 0d be a0 41 bf bd
       -0.2921355 -0.07960373 -0.13799734 -0.09338689

encoder_mean.1.running_mean f4 [20]
000000 9a 7e a6 bd b4 0d b1 bd 2d 2b 9f bd 70 71 43 bc
       -0.08129616 -0.08645192 -0.07771907 -0.011928901
000010 29 85 65 3e 47 a0 36 be c4 53 22 3e fa 82 06 bf
       0.22414078 -0.17834578 0.15852267 -0.52543604
000020 24 bf b6 bd 9d c0 f1 3e 31 bc fb 3d ef b3 ec bd
       -0.08923176 0.47217265 0.12291754 -0.11557757
000030 85 57 82 3e 49 5d 81 3e 18 68 07 3f d4 b9 e8 3e
       0.25457397 0.25266483 0.5289321 0.45454276
000040 01 2d f1 bd b9 e1 f4 3b a5 a7 08 be 74 70 fb 3e
       -0.11776162 0.0074731973 -0.13345201 0.49109232

encoder_mean.1.running_var f4 [20]
000000 fc 63 c4 3c f2 71 40 3c 15 40 c3 3c 60 7f 0e 3c
       0.023973458 0.011745917 0.023834268 0.008697361
000010 91 b1 1a 3c 44 ac b1 3c e9 1b 8b 3d 02 d1 99 3c
       0.009441749 0.021688588 0.06792433 0.01877642
000020 24 e3 07 3d 63 de 3a 3d 22 9b a7 3c e1 9d 45 3c
       0.033175603 0.04562224 0.020459715 0.012061567
000030 f8 5d 74 3c ce a7 04 3c a2 73 d6 3c 3d fe 3e 3c
       0.014914982 0.008096648 0.026178185 0.011657295
000040 bf db 74 3c db a8 26 3c d6 11 8a 3c 2e 3a 19 3d
       0.01494497 0.010172094 0.016854208 0.037409

encoder_mean.4.weight f4 [16, 20]
000000 c7 32 f2 3c 16 4b 2a 3e 8a 2c 91 3b 06 cf 11 3e
       0.029565228 0.16630206 0.0044303583 0.1423913
000010 d7 de df bd f3 f9 fd bd 39 6e 84 bc 7b c6 40 3c
       -0.10931175 -0.1240119 -0.01616584 0.011766071
000020 0c 75 d5 bd 5e 1c da bd 58 cc 91 be d7 8d 81 be
       -0.104227155 -0.10649942 -0.28476214 -0.25303528
000030 de 08 b1 3d 6d 11 47 be 4d 15 a7 bd 07 36 72 be
       0.086442694 -0.19440241 -0.0815836 -0.23653422
000040 0c 43 9c 3e c7 92 79 bd ba 73 71 3d e7 c8 d7 bc
       0.30519903 -0.060930993 0.058948256 -0.026340915
000050 d5 fd d5 bd e9 4a ba bd 04 ae 0a be 3c 19 4b be
       -0.10448805 -0.09096319 -0.13542944 -0.19833845
000060 09 a8 84 3e 0c 77 79 3e 43 d1 29 bd ea bf a2 bd
       0.2590945 0.24361819 -0.041459333 -0.07946761
000070 76 43 a3 3d 17 22 3f 3d be 46 c4 3d 6e 05 c4 3d
       0.079718515 0.04666337 0.095838055 0.09571348
000080 cf 13 1f be 0a 79 ab 3e e3 6e df 3c b0 a0 3a 3d
       -0.155349 0.33490783 0.027274555 0.0455634
000090 3c 58 ec bc 6b ac f4 3d c0 8c 8a 3e 38 fe dc ba
       -0.028850667 0.119469486 0.2706051 -0.0016860431
0000a0 31 df b4 bd 1e 4f 54 be f4 71 09 3d 51 ad 90 3d
       -0.08831633 -0.20733306 0.03355594 0.070643075
0000b0 c4 41 51 3e e9 2a 3a be 04 63 89 3b 20 67 47 be
       0.20435244 -0.18180431 0.004192712 -0.19472933
0000c0 c6 59 0e bb 34 90 93 3d 6b cd f4 3d 7d 5a 6a 3e
       -0.002172099 0.07205239 0.11953243 0.22886081
0000d0 8c a1 f2 bd 81 54 04 3e e0 dc c7 3d 01 26 65 3e
       -0.11847219 0.1292286 0.097589254 0.22377779
0000e0 e3 a4 c8 bd 36 bc 64 3e ea 07 f0 3d cf 6b 1a bb
       -0.09797075 0.22337422 0.117202595 -0.0023562794
0000f0 ad e9 33 bd e2 c9 92 be 10 da 56 be a7 c0 77 be
       -0.043924022 -0.2866965 -0.20981622 -0.24194585
000100 f1 29 c8 3d 89 52 14 3d c2 97 a4 bd 34 44 c2 3d
       0.09773625 0.036211524 -0.08036758 0.09485665
000110 f0 b3 5d bb 82 c8 ce bc 48 c7 3f 3e c9 85 27 3e
       -0.0033829175 -0.025242094 0.18728364 0.16359629
000120 2e dc d6 bd b9 02 94 bc 9e d9 ae 3b dd 53 bc 3d
       -0.10491215 -0.018067705 0.0053360006 0.09195683
000130 90 96 a8 be 35 97 8c 3e 4f dc 42 3e 09 b1 8c 3c
       -0.3292737 0.27459112 0.19029354 0.01717426
000140 33 0c 3d bc 90 70 6e 3d f0 91 dd 3d 56 37 31 3e
       -0.011538553 0.058212817 0.10818851 0.17306265
000150 08 46 99 bd 7f a1 95 bd e8 2c 40 3c ad 44 77 bd
       -0.074840605 -0.073061936 0.0117294565 -0.06036823
000160 65 5d 16 bd 18 f6 26 3d 28 c4 22 be 38 30 be bd
       -0.03671016 0.040762037 -0.1589514 -0.09286541
000170 39 79 49 3e 7c 83 8a be 42 de 1d bd 83 98 87 bd
       0.19675149 -0.2705344 -0.03854204 -0.06620886
000180 4f df f0 3e 5c 28 a0 be b3 ed d5 bd 40 e7 07 3d
       0.4704537 -0.31280792 -0.10445728 0.03317952
000190 39 7e aa bd f4 da 80 be 0c f4 12 be ad 20 17 be
       -0.08324856 -0.25167048 -0.14350909 -0.14758559
0001a0 1c 0d ad 3d 26 3e 7b 3e a2 f3 e8 bc 50 25 82 3e
       0.08449766 0.24535426 -0.028436486 0.25419092
0001b0 26 34 cb 3d 40 7c 01 be 47 0c cc 3d 5f e4 88 bd
       0.09922056 -0.12645054 0.09963279 -0.06684183
0001c0 35 9b aa bd d9 7c c7 3c 7b be 9c bd 85 f4 2a bd
       -0.08330385 0.024351524 -0.07653519 -0.0417371
0001d0 6a a9 ac bd cf 1c a1 3d 54 2a 45 3e f9 5c 4d bc
       -0.08430751 0.07866823 0.19254428 -0.012534373
0001e0 34 12 91 bd bd a4 53 3e 63 06 0f bd 80 c8 53 3e
       -0.0708355 0.20668311 -0.0349182 0.20681953
0001f0 7f c4 9a 3d be 47 5a 3e 98 b4 14 3d aa 74 35 3e
       0.0755701 0.2131643 0.03630504 0.17720285
000200 9c 91 1f 3e 69 e3 8c 3d a5 1c 9b 3d 7f 43 ea 3d
       0.1558289 0.068793125 0.07573823 0.11438655
000210 fb 17 2e be 80 11 fa 3d b2 c3 fc 3c 2c 9a 01 3b
       -0.17001335 0.12210369 0.030855034 0.0019775731
000220 b9 0e a7 3c e8 7f e0 3d ac b5 18 3e 11 aa 73 be
       0.020392762 0.10961896 0.14913052 -0.23795344
000230 0b ba 6e bc 86 75 0d be aa e3 3f bc 5c b8 a9 3c
       -0.014570723 -0.13814363 -0.011711994 0.020717792
000240 63 15 d2 bd c5 ef cc 3c ad 10 33 bc ce ef d0 3e
       -0.102579854 0.025016675 -0.010929269 0.40807956
000250 4c 66 5b bc 2a b7 8d bd 96 40 04 bd 3e 18 b3 bb
       -0.013391089 -0.069197014 -0.032288156 -0.0054655364
000260 c4 5d 5c 3d 0c f6 46 be ce 7e 02 be a2 0d d6 bd
       0.05380036 -0.19429797 -0.12743685 -0.10451819
000270 18 c8 c6 bd 61 f5 39 be ff a9 e9 bd dd e7 f3 bc
       -0.097061336 -0.18160011 -0.11409377 -0.029773647
000280 c4 1d 09 be c6 77 8d bd 57 04 7b be df 09 fd bc
       -0.13390261 -0.069076106 -0.24513374 -0.030888496
000290 2d 47 15 3e e4 92 1f 3d 6e d1 29 bd 16 b7 69 bd
       0.14577933 0.038958445 -0.041459493 -0.05705937
0002a0 d3 84 92 bd 46 c6 58 3e 48 6a 90 bd 2c 41 01 3e
       -0.071542405 0.21169385 -0.070515215 0.12622517
0002b0 b3 8f 0c be 20 cd ba 3d 22 8d 45 3e 59 b3 78 3e
       -0.13726692 0.09121156 0.19292119 0.24287166
0002c0 4a 7f d3 bd d6 7a 86 3d fb d9 8b 3c ca bf 36 3e
       -0.10327013 0.06566398 0.017071715 0.17846599
0002d0 dd f9 3c 3d db 17 8b 3e ee fe 13 3e c3 b0 19 3e
       0.046136726 0.27166638 0.14452717 0.15008835
0002e0 8e d8 04 be 08 7d 35 be 37 c4 e3 3d 60 b0 05 3d
       -0.12973234 -0.17723477 0.111214094 0.032638907
0002f0 7c 85 80 bd 39 e4 d3 bd d5 00 02 be 7b 04 70 be
       -0.0627546 -0.103462644 -0.1269563 -0.23439209
000300 a0 3d 2f 3e ad 7d 53 bd 26 35 77 bd ea f7 ca bd
       0.17113352 -0.051633526 -0.06035342 -0.09910567
000310 f9 c7 bc 3e 2b f4 8b be 8c 9b 96 bc c7 f2 f9 3d
       0.36871317 -0.27334723 -0.018384717 0.12204509
000320 7f 4a 5b 3d cc 3e 92 3e 48 68 7e bc 54 e0 f9 3c
       0.053537842 0.28563535 -0.015527792 0.030502476
000330 78 75 78 be 20 bf ed bd 95 9e 78 bd 22 c9 28 bc
       -0.24263561 -0.1160872 -0.06069811 -0.01030186
000340 e0 3a 48 bb 21 02 68 3b be 31 35 be a1 dd b2 bd
       -0.003055267 0.003540166 -0.17694756 -0.087336786
000350 f0 19 f5 3d 70 77 8a be fd 0c 14 3c e9 2d 00 be
       0.11967838 -0.2704425 0.0090363 -0.12517513
000360 8e e1 aa 3e ea bd 76 be f4 fd 0f be 49 3b 56 bc
       0.3337521 -0.24095884 -0.14061719 -0.013075658
000370 7d c7 43 3d 1b 4a 9f 3e af 06 c0 3d 82 75 14 3e
       0.04779767 0.31111225 0.09376275 0.1449795
000380 72 98 a2 bc fa e3 3a be e2 ca 55 3d b3 03 83 bd
       -0.019848082 -0.18251029 0.052195437 -0.0639719
000390 5c 4f 92 bd 10 1d 59 bd 4c 51 55 bc 32 43 f0 bd
       -0.07144043 -0.05300623 -0.013019871 -0.117315665
0003a0 34 f0 78 3b 3d 44 73 be 09 17 85 bd 38 62 d2 bd
       0.003798497 -0.237565 -0.06498534 -0.1027264
0003b0 33 b2 29 3d 49 c1 1e be cd 51 85 bd 63 4d 0e 3c
       0.04142971 -0.1550342 -0.06509743 0.008685443
0003c0 9e fb 7c bd 2a ba 61 bc 98 4e 87 bd 58 a3 58 bd
       -0.0617634 -0.013777295 -0.066067874 -0.05289015
0003d0 e4 0d 92 3d e4 e4 57 3d 44 86 23 bd ce 35 d4 be
       0.07131556 0.05270852 -0.039922968 -0.414473
0003e0 13 9c 82 3d 54 5d b3 3d 65 ec bc 3d e3 f2 11 3e
       0.06377425 0.08758035 0.09224776 0.1425281
0003f0 ee ed 26 bd 70 f2 46 bd f7 45 18 3e ec 88 b0 3e
       -0.04075425 -0.04857105 0.1487044 0.34479463

encoder_mean.4.bias f4 [16]
000000 53 6b a1 38 b5 a9 29 b7 ee 67 7b b9 a6 e3 c7 36
       7.697069e-05 -1.0112698e-05 -0.00023975942 5.957164e-06
000010 fa d4 fb b7 35 a8 f3 37 cf 20 cc 38 6d 3f 3f 38
       -3.0020707e-05 2.9046185e-05 9.733589e-05 4.559702e-05
000020 e8 b7 44 b9 a5 79 3d b8 7d e7 a7 38 35 47 a6 39
       -0.00018760527 -4.51744e-05 8.0062986e-05 0.0003171504
000030 1c 98 09 b9 6a 76 19 b9 7a fe 51 39 e8 d5 10 b8
       -0.00013122003 -0.0001463533 0.00020026593 -3.453149e-05

encoder_mean.5.weight f4 [16]
000000 4d f2 46 3f 96 25 39 3f 22 87 0f 3f 9a f5 43 3f
       0.7771347 0.72322977 0.5606557 0.76546633
000010 c2 ab 5a 3f ac 91 72 3f 76 1f 39 3f eb 8f 35 3f
       0.8541833 0.9475353 0.7231363 0.70922726
000020 0f 97 f0 3e 7a 9d 44 3f d0 47 5d 3f ff 7f 4b 3f
       0.4699025 0.7680279 0.864377 0.7949218
000030 88 7a 31 3f a7 bc 52 3f 79 b1 0f 3f f1 92 5f 3f
       0.6932759 0.8231911 0.56130177 0.8733359

encoder_mean.5.bias f4 [16]
000000 b8 dc 13 be e9 bf 4e be d2 4d 8b be 2c 56 0c be
       -0.14439666 -0.20190395 -0.2720781 -0.13704747
000010 7e f2 a9 3d df 26 47 bd 20 fb e9 bd 7b 27 ac 3d
       0.08298205 -0.048621055 -0.114248514 0.08405968
000020 63 30 d3 bc 3b 5b 71 be 2d 78 ab bd 7f ab ce bc
       -0.025779909 -0.23569958 -0.08372531 -0.02522826
000030 6b cf c2 be 6e 5d c4 3c 37 9b 1b bf 5a 23 c2 bd
       -0.38048872 0.023970332 -0.60783714 -0.09479399

encoder_mean.5.running_mean f4 [16]
000000 51 f5 35 be 3e f4 8e 3e 09 05 4f 3e 98 87 0e bd
       -0.17769362 0.27920717 0.20216765 -0.03479728
000010 13 6f 0b be 00 eb 04 3c 80 12 ce 3e f0 2f 78 be
       -0.1361659 0.008112669 0.4024849 -0.24237037
000020 48 8c 2b 3d a8 84 6d 3c 35 43 6d be e1 7d 0f be
       0.04188183 0.01449696 -0.23170169 -0.14012863
000030 09 c0 3d 3e 4b 27 a4 be 46 8e ca 3e b9 7a 49 3e
       0.18530287 -0.32061228 0.3956167 0.19675721

encoder_mean.5.running_var f4 [16]
000000 62 cb 0f 3f 30 fa 3b 3f f8 14 d3 3e a2 40 2b 3f
       0.5616971 0.7342863 0.41226935 0.66895497
000010 20 87 40 3f 1c c6 e3 3e 6d 81 81 3e 78 94 50 3e
       0.75206184 0.44487083 0.25294057 0.20369136
000020 65 da 5b 3e 1f 12 30 3f 2f 14 3c 3f 20 57 e1 3e
       0.2147003 0.6877765 0.734683 0.44011784
000030 c4 fa d4 3e b7 e1 54 3f 2c c4 76 3e 8a b1 f6 3e
       0.4159757 0.83156914 0.24098271 0.48182327

encoder_mean.8.weight f4 [14, 16]
000000 4d 41 95 3e c6 b2 3a 3d 2d 67 b8 bc 1c fb 01 be
       0.29151383 0.045580648 -0.022510136 -0.12693447
000010 b7 e0 4c be 56 9f 59 be 63 3a 11 3e 8b 97 7b bc
       -0.20007597 -0.21252188 0.14182429 -0.015355955
000020 7f bc cb bc b7 8d 8c 3e 1f 61 72 3e 62 52 68 3e
       -0.024870155 0.2745187 0.23669861 0.22687677
000030 06 69 12 be 50 08 41 3d fb b9 b9 3c db b2 34 be
       -0.14297876 0.047127068 0.02267169 -0.17646353
000040 c3 8a 22 3e 00 01 08 3d e3 c7 9b bd 5c 0d 01 be
       0.15873246 0.03320408 -0.07606485 -0.12602752
000050 04 d2 03 3e 4c 5b 91 be 43 de 19 bd 38 98 d9 3d
       0.12873083 -0.28389966 -0.03756548 0.106247365
000060 67 b5 2e 3c bf 6f 07 3e c6 61 8b 3e 3a 45 ba 3e
       0.010663367 0.13226222 0.27223033 0.3638094
000070 21 c8 80 bd 1c 60 71 3e 7c cd 0e bc 87 57 58 be
       -0.062881716 0.23571819 -0.0087159835 -0.21127139
000080 71 51 5c be 7a 6c ca bd 64 f8 e0 3c 9d ef 34 be
       -0.21515442 -0.098839715 0.027462192 -0.1766953
000090 d3 72 27 3d 35 91 ee 3d b2 19 f9 3d a4 32 36 3e
       0.04088099 0.1164879 0.12163104 0.17792755
0000a0 a4 15 1e be ec 3b 83 be 42 d6 c5 bd f4 fc ad bd
       -0.15437943 -0.25631654 -0.09660007 -0.084955126
0000b0 b1 7c 28 be 8f 98 de 3d cb bb 43 3e 89 f7 17 be
       -0.16453816 0.10868942 0.19114606 -0.14840521
0000c0 17 5c a9 bd 19 8f 18 3d 2d 7d 3d bc 17 cb 4f bd
       -0.08269518 0.037245844 -0.011565489 -0.05073079
0000d0 a7 3f 0b 3f f9 68 48 3e db aa 3b bd 71 14 39 bd
       0.54394 0.19571294 -0.045817237 -0.04518551
0000e0 f2 65 a7 bd 9b 7c f9 bd 3f c5 10 be 2a 58 36 be
       -0.081737414 -0.1218197 -0.14137743 -0.1780707
0000f0 40 4c 1b 3d 0c b6 f2 bd 18 85 bd 3d 65 a4 ab bd
       0.037914515 -0.11851129 0.09253901 -0.08380965
000100 b6 ac 9a 3e e5 ad cc bd 33 c4 2a bc dd f4 3c be
       0.30209893 -0.09994105 -0.010422754 -0.18452783
000110 bb 53 de 3d 45 a1 b9 bd 99 d3 be bd e9 72 27 3d
       0.10855814 -0.09063963 -0.09317703 0.04088107
000120 2c 8e cb bd d1 2e b4 3e 3a 1a 15 3e b2 82 10 3e
       -0.099392265 0.35191968 0.14560786 0.14112356
000130 19 40 33 be 66 07 34 3e 77 9b 27 3c ec 17 47 be
       -0.1750492 0.17580947 0.010229937 -0.19442719
000140 da db 08 bd 9d 1a 2a be 83 b2 1c be b1 a8 8e be
       -0.03341279 -0.16611715 -0.15302472 -0.27863076
000150 35 e7 4c 3e 6e 93 46 be 7b e3 c6 3d f3 66 05 3d
       0.20010073 -0.19392177 0.09711357 0.032568883
000160 53 43 19 3d 64 aa 87 3d cc 88 55 3e 65 9d aa 3e
       0.03741772 0.06624296 0.20852965 0.33323207
000170 03 b5 09 be 1c cf 5c 3e 0e 67 c2 3d ca 4a 82 be
       -0.13447957 0.21563381 0.09492312 -0.25447685
000180 cf 33 38 3e 64 11 03 3d 39 99 c2 3b 29 ad 1e 3e
       0.17988513 0.031999007 0.0059386757 0.15495743
000190 59 3b 97 3d b7 91 c0 bc fa 53 27 3e 0f cf 9a 3e
       0.073843665 -0.023506982 0.16340628 0.30236098
0001a0 bc 62 77 bb 2f 3b 43 bd dd 75 93 3d f4 21 98 bc
       -0.003774806 -0.047663864 0.07200215 -0.018570878
0001b0 94 2a 87 3e 7d 75 e7 bc 87 7e 88 3e c3 26 90 3e
       0.26399672 -0.028254265 0.26659033 0.28154573
0001c0 b3 48 12 be d7 fb 68 bc 3e 67 8a 3e d3 02 d4 bc
       -0.14285545 -0.0142202 0.27031893 -0.025880253
0001d0 41 02 90 be 0f ff 3c bc 37 97 32 be b5 22 88 be
       -0.2812672 -0.01153542 -0.17440496 -0.2658898
0001e0 ef de 2b 3e 1f 67 25 be e4 0e 82 be 32 96 61 be
       0.16784261 -0.16152619 -0.25401986 -0.22029951
0001f0 33 7b 37 3e fe e6 a3 be 21 e8 32 be 7b 58 c7 3d
       0.1791809 -0.3201217 -0.17471363 0.09733673
000200 d5 7f 2f bc 67 e3 93 3e 63 24 5c 3e 44 0e 23 3e
       -0.01071163 0.28884432 0.21498255 0.1592341
000210 4d ff 7a 3c 38 1e 7f 3e 60 af f7 3d 71 52 16 3e
       0.0153196575 0.24913871 0.12093997 0.14679886
000220 f9 f5 9e bd 07 7c 60 bc db 84 86 3c cf ed 4f 3b
       -0.07761759 -0.013701445 0.016420772 0.0031727438
000230 07 a0 a5 3c 40 f2 14 be 0a 4b 75 3e 75 48 24 3e
       0.020217909 -0.14545536 0.23954406 0.16043265
000240 3a e6 1a be 84 bd 25 3e 98 04 8b 3e 8d 26 02 3e
       -0.15126887 0.16185576 0.27151942 0.12710018
000250 a7 43 2d be 70 7b 29 3e 53 d4 ac bc 97 84 03 be
       -0.16920339 0.16550994 -0.021097338 -0.12843548
000260 54 d8 e8 3d bb 27 d1 bd a5 84 3a be a5 24 00 be
       0.11369386 -0.10212656 -0.18214662 -0.12513979
000270 b8 4b 8a 3e 5d 27 84 be 4a c7 2f 3e 1a 76 15 bd
       0.27010894 -0.25811282 0.17165866 -0.036489584
000280 9e 61 3d be d1 cd 24 3e ee 88 08 3e 45 32 04 3e
       -0.18494269 0.16094138 0.13333485 0.12909801
000290 b6 42 61 be fb b4 44 be 9b bb 13 3c ab bd 94 bd
       -0.21998104 -0.19209664 0.009016897 -0.07262739
0002a0 1f cd 7c 3e 7d ff 86 3c b9 b8 bd bd ba b2 0e be
       0.24687622 0.016479248 -0.09263749 -0.13935366
0002b0 98 23 81 3e a0 a2 68 be ed fc bc 3e cd 40 93 3d
       0.25222468 -0.22718287 0.36911717 0.07190094
0002c0 5a 8c f8 3d 7e 82 32 be 62 b4 d0 bd ae 52 87 be
       0.12136145 -0.17432591 -0.10190655 -0.26430267
0002d0 05 cf 04 3e c3 91 b0 be 15 a4 bd bd cc f8 8a bc
       0.12969597 -0.34486207 -0.09259812 -0.016964339
0002e0 e6 34 e4 bc 65 bc f9 bd 6e 90 19 3e 07 98 bb 3d
       -0.027857255 -0.121941365 0.14996502 0.09159856
0002f0 ef 35 e1 bd fd 93 fb 3c 57 58 25 be 38 02 8f be
       -0.10996615 0.030710215 -0.1614698 -0.2793138
000300 30 ff 58 3d ad cf 41 be ce 53 7a 3d 25 57 f6 bd
       0.05297774 -0.18926878 0.06111508 -0.1202834
000310 b2 92 6e bd 1a d6 06 be 80 80 a5 3d d1 5f 1e 3c
       -0.05824537 -0.13167611 0.0808115 0.009666399
000320 0e b2 fb bd d8 bf 81 3e 71 0d 6b 3e 1a de 53 3e
       -0.122898206 0.25341678 0.22954346 0.20690194
000330 89 89 77 bd 57 20 b3 3d 40 43 f5 3d 21 89 24 be
       -0.060433898 0.08746403 0.119757175 -0.16067936
000340 37 98 5f be 9b 1e 27 be 07 8c 5b 3d e0 b6 18 be
       -0.21835409 -0.16320269 0.053600337 -0.14913511
000350 4f c6 09 be 84 97 32 be d7 3f 38 be 86 17 3b be
       -0.13454555 -0.17440611 -0.17993103 -0.18270692
000360 80 bf bd 3c af e2 6b be f8 74 91 be 54 d3 c3 bd
       0.023162603 -0.23035692 -0.28409553 -0.09561792
000370 7f dd 18 bd 68 fd 23 be 85 27 13 be d4 a5 bd bd
       -0.03732061 -0.16014636 -0.14370544 -0.09260145

encoder_mean.8.bias f4 [14]
000000 1e 44 ad 38 fc 67 0e 38 17 8e 0c 38 80 57 21 b8
       8.261971e-05 3.395228e-05 3.3510933e-05 -3.8466882e-05
000010 2e d4 17 39 d6 a1 02 b8 9d b0 40 37 1a 3d 1c 39
       0.00014479525 -3.1145137e-05 1.1485213e-05 0.00014900081
000020 cc 2a 64 37 b4 8f ad 37 81 3b ae b9 a0 a6 f3 38
       1.3599823e-05 2.0690124e-05 -0.000332322 0.00011618179
000030 f0 68 96 b8 aa 80 7e b8
       -7.1721035e-05 -6.0678147e-05

encoder_mean.9.weight f4 [14]
000000 33 bf 3a 3f ac f2 24 3f e7 5f 54 3f b4 72 55 3f
       0.72947997 0.6443279 0.82958835 0.8337815
000010 03 ed 2f 3f 97 16 55 3f 35 06 31 3f 11 31 4c 3f
       0.68721026 0.83237594 0.69150096 0.7976237
000020 0d 37 43 3f 66 c8 44 3f 75 30 34 3f 22 32 68 3f
       0.76255876 0.76868284 0.7038644 0.90701497
000030 04 cd 31 3f 91 cf 2f 3f
       0.69453454 0.68676096

encoder_mean.9.bias f4 [14]
000000 25 41 f4 3d 0c fa 76 3e 96 37 8f 3d 18 cc 5d bd
       0.11926488 0.24118823 0.06993024 -0.054149717
000010 43 9d aa bb a1 73 5a 3e 8c 04 a0 be de 28 98 be
       -0.0052067353 0.21333171 -0.3125347 -0.2971868
000020 39 74 22 be 74 d1 06 bd 54 bf 12 be 59 6d 32 3e
       -0.15864648 -0.032914594 -0.14330798 0.17424525
000030 1f 55 28 3e dc 18 1a be
       0.16438721 -0.15048546

encoder_mean.9.running_mean f4 [14]
000000 f5 2b 79 3d 04 54 54 3e db 33 0a be c9 be 7d 3d
       0.060832936 0.20735174 -0.13496344 0.061949525
000010 74 0e fd 3d 1e 82 82 3d 8e ce d3 3e 92 ff de be
       0.12356272 0.06372474 0.41368526 -0.4355436
000020 95 80 a3 3e c6 ec d2 bd ee 30 ba bd a3 98 86 be
       0.31934038 -0.10299067 -0.09091364 -0.26288328
000030 1d 3e 47 3d 77 8f 10 bf
       0.04864322 -0.5646891

encoder_mean.9.running_var f4 [14]
000000 48 1b 75 3e 0b 8f 0e 3f b1 44 9e 3d d3 3d d8 3c
       0.23936188 0.55687016 0.077279456 0.026396668
000010 f6 eb 01 3f 79 4a 0c 3f 0b 2e 51 3e e2 62 c0 3e
       0.5075067 0.54801136 0.2042772 0.37575442
000020 f6 67 d4 3e 3a c8 f9 3e b1 fa ba 3e c9 aa 2e 3f
       0.41485566 0.48785573 0.36519387 0.6822935
000030 0b 36 6f 3e 57 a7 57 3e
       0.2336046 0.21059929

encoder_mean.12.weight f4 [12, 14]
000000 10 e6 3e be 09 e0 0b be a4 de 00 3e a8 61 5f be
       -0.1864245 -0.13659681 0.1258493 -0.21814597
000010 82 a7 3f be 02 92 27 be 6f 84 51 be d2 a0 78 3c
       -0.18716243 -0.16364291 -0.20460676 0.015175061
000020 4a 1b 95 be 05 71 3d be f6 ca b1 bd 4b 07 28 3e
       -0.29122382 -0.18500145 -0.0868129 0.16409032
000030 ea f5 12 be 27 f1 9a 3e 2b 90 04 bc 3a 33 06 be
       -0.14351621 0.3026211 -0.008091013 -0.13105479
000040 e8 e0 a8 bd 40 5a 62 bd 9d d4 70 bd 25 a9 77 be
       -0.082460225 -0.05526185 -0.058796514 -0.24185617
000050 4e 55 5a bd c1 f0 07 3e ee e1 40 bd c8 7f 80 3e
       -0.05330401 0.13275434 -0.047090463 0.2509749
000060 1a e1 d9 3d 6f fd 35 be 17 30 88 be 5a 5c 41 be
       0.10638638 -0.17772458 -0.2659919 -0.18882886
000070 a3 61 4b 3e 1b ac e0 3d 83 f2 46 be e1 63 20 3e
       0.19861464 0.109703265 -0.19428448 0.15663101
000080 dc 6d 08 3e 8a be ea bc 8b ec ec bd 7a 98 69 be
       0.13323158 -0.02865531 -0.115685545 -0.22812071
000090 a1 fa 44 be 6c 56 79 be 75 35 b0 bd 06 74 58 bc
       -0.19236232 -0.24349374 -0.08603946 -0.013211256
0000a0 d7 28 79 3e 50 b8 28 be 09 29 7f 3e f7 ae 41 3d
       0.24331985 -0.1647656 0.24917997 0.047286
0000b0 4d 2b 47 be 0a 31 7d 3e e3 82 83 3e 9d 50 37 3e
       -0.19450112 0.24725738 0.25685796 0.17901845
0000c0 b9 6c 9b bc 3f ab dd bd d8 83 56 be 42 48 fa bd
       -0.018972741 -0.10823678 -0.20948732 -0.12220813
0000d0 40 10 18 3b 39 df bf 3e 97 f3 54 bd e4 59 a4 bd
       0.0023203045 0.37474993 -0.051990118 -0.08024958
0000e0 f3 1c 77 be cb 2f 68 be 3b bf ef be 5e ad a4 be
       -0.24132137 -0.22674482 -0.46825585 -0.3216352
0000f0 de 96 6c bd 66 12 9c be 77 0c 88 3b 36 88 a0 3e
       -0.057761066 -0.30482787 0.0041518766 0.3135392
000100 1e 42 92 bd cb c5 4b 3e 59 61 8e 3d 73 6e 63 be
       -0.07141517 0.19899671 0.06952161 -0.22210102
000110 59 ba c7 3c 01 d7 a2 3d dd d5 49 3e fc 59 de 3d
       0.02438085 0.07951165 0.19710489 0.10857007
000120 42 a3 ff bd c5 4a 86 3e da 95 8f 3e 41 1d dc 3c
       -0.12482311 0.2622892 0.28044015 0.026869418
000130 e3 6e 3d bd 5b 74 7d be fe ca 3d be 7b ec 59 be
       -0.046248328 -0.24751417 -0.18534467 -0.21281616
000140 3c a2 a9 bd 4e 40 38 be d3 98 54 3e 0d c1 d3 bd
       -0.08282897 -0.1799328 0.20761423 -0.10339556
000150 a0 0f 01 be 6b ec 41 be 8f 46 c8 3c ec a5 94 3c
       -0.12603617 -0.18937843 0.024447707 0.018145524
000160 4f c6 80 bd 21 ef 69 be d4 47 67 3e 1e b2 24 bd
       -0.06287824 -0.22845127 0.22585994 -0.04020893
000170 83 79 86 3e 97 ba f9 3d 0e 7b 6c 3e 7c d2 a9 be
       0.2626458 0.12193792 0.23093817 -0.331684
000180 d7 4d 1f be 25 a4 15 be 13 1d a5 bd ef 57 96 be
       -0.15557037 -0.14613397 -0.08062186 -0.29363963
000190 b7 f5 2a be b9 1a 64 bd c4 41 7d bd 7a 06 a4 be
       -0.16695295 -0.055689547 -0.061830297 -0.3203619
0001a0 9e 83 ee bd 47 5a 97 3e 9e 45 06 be 88 41 96 3d
       -0.11646198 0.29561064 -0.13112494 0.07336718
0001b0 c9 02 85 3e b4 7a 89 be de eb 74 be 27 d0 b5 bd
       0.25978687 -0.26851428 -0.23918101 -0.088775925
0001c0 b5 a6 37 be 7f 17 6b be b9 78 6a be eb 8c 70 be
       -0.17934687 -0.22958182 -0.22897615 -0.23491256
0001d0 91 24 48 bd a7 f0 3c be 97 e1 b5 be bb fc 49 3e
       -0.048862997 -0.18451177 -0.35523674 0.19725315
0001e0 50 77 7f be 68 49 ae 3d b1 e5 a0 3d 31 b8 65 be
       -0.24947858 0.08510095 0.0785631 -0.22433545
0001f0 f1 52 66 be 07 b6 fb 3d a7 c4 04 be 83 fa a0 bd
       -0.22492577 0.12290578 -0.12965642 -0.07860281
000200 16 c7 1d 3d 2f aa e0 3d e0 b2 e1 bd 36 5e 07 be
       0.03851994 0.1096996 -0.11020446 -0.13219532
000210 b5 dc 25 3e cf 1d 85 bd 6a 39 2c 3e 33 62 08 3e
       0.16197474 -0.06499826 0.16818777 0.1331871
000220 e8 67 5d 3e 2e 10 61 be 31 49 b6 bd 0e ac c5 be
       0.21621668 -0.21978828 -0.08900679 -0.3860783
000230 32 18 5f be f3 09 88 be 6b c1 6a bd 13 3d a9 3d
       -0.21786574 -0.2657009 -0.057313364 0.08263602
000240 a8 17 5e be 45 6f 89 be 91 a2 c8 3d a7 39 87 bd
       -0.21688712 -0.26842704 0.09796632 -0.06602793
000250 73 57 6d ba 2e d1 5f 3e 28 f2 9d 3e 6e 15 94 be
       -0.00090538635 0.2185714 0.30848813 -0.289226
000260 8f 92 86 be a7 98 c0 bd 6a 55 51 3d e2 cd 4f be
       -0.2628369 -0.09404116 0.051106848 -0.20293382
000270 73 f9 8b 3d da 4d 03 3e 57 c7 33 3d c6 b7 1b be
       0.06834688 0.12822667 0.043891277 -0.15206823
000280 01 94 6c 3e 97 b4 51 3c bb 87 67 3e 38 a5 e1 bd
       0.23103334 0.012799404 0.22610371 -0.11017841
000290 19 52 29 3d c7 e6 20 be 5d 78 ea bd 99 1c 71 be
       0.04133806 -0.15713035 -0.11448739 -0.23546065

encoder_mean.12.bias f4 [12]
000000 9c 4e 4b 38 79 b6 a5 b9 9d ba 1e b9 78 51 fa 38
       4.8472182e-05 -0.00031607205 -0.00015137573 0.00011936104
000010 b4 bc b0 b8 d6 59 55 b9 a8 27 ac 39 58 1a 55 38
       -8.427483e-05 -0.0002034673 0.00032835943 5.0807692e-05
000020 2a e1 ba 37 f7 98 a8 b9 f6 2a 79 39 95 d4 b9 38
       2.2277778e-05 -0.00032157425 0.00023762495 8.861084e-05

encoder_mean.13.weight f4 [12]
000000 bc 78 92 3f ab 00 68 3f e7 5e 74 3f b4 92 5c 3f
       1.1443095 0.9062602 0.9545731 0.8616135
000010 4e 20 8d 3f 42 b0 83 3f 46 40 5b 3f 20 dd 87 3f
       1.1025484 1.0288165 0.8564495 1.0614357
000020 be cd 90 3f 11 69 78 3f c0 9e 6c 3f a0 61 30 3f
       1.1312788 0.9703532 0.92429733 0.68898964

encoder_mean.13.bias f4 [12]
000000 6b ef 22 3e f3 69 95 3d 7e 7c 90 3e 9e 5f bb 3e
       0.15911643 0.07295599 0.2821998 0.36596388
000010 37 85 f3 3c 31 90 bd 3e d9 d4 76 bc bc 7c b9 bc
       0.029726608 0.37024072 -0.015065395 -0.022642486
000020 38 2d 21 bd 69 15 45 3d 23 08 83 3c cd 91 58 3d
       -0.039349765 0.04811612 0.01599509 0.05287342

encoder_mean.13.running_mean f4 [12]
000000 7d b3 c3 be 94 0b a4 be 7a 70 7a bc 37 9f b5 3e
       -0.38222876 -0.32040083 -0.015285606 0.35473034
000010 67 7c fd be e6 27 5d 3d 79 59 9f be aa de 00 bf
       -0.49508974 0.05399313 -0.3112295 -0.5033976
000020 79 3c 15 bf fe 64 4b be 03 d8 fb be 80 59 0d be
       -0.582954 -0.19862744 -0.4918824 -0.13803673

encoder_mean.13.running_var f4 [12]
000000 6a fb 98 3e 4d 12 91 3e 4c 9a c8 3e b2 ac cf 3e
       0.29879314 0.28334275 0.3918022 0.40561444
000010 c7 74 f6 3e 9f 99 bd 3e 0c a8 0e 3f c7 2f e4 3e
       0.4813597 0.37031266 0.5572517 0.445677
000020 e1 8e b4 3e 92 2c 99 3e fe 18 2a 3f 3b 1d 26 3e
       0.35265258 0.29916817 0.66444385 0.16222088

encoder_mean.16.weight f4 [10, 12]
000000 1c 78 e2 be 64 e3 97 3e 05 8d fa 3c ea f5 82 3d
       -0.4423226 0.29665673 0.030584821 0.06394561
000010 fa 68 bc 3c ca 08 74 3d 7e 6d a7 3e 74 0d 82 bc
       0.022999275 0.059578694 0.32700723 -0.015875556
000020 cc 1f 3c bc f9 2f 0e 3e 6c 91 7d 3e 13 54 38 3e
       -0.01148219 0.13885488 0.24762505 0.18000822
000030 5d 34 c2 be e5 f1 a6 bc d8 e2 92 3d ff 2d 1b 3e
       -0.37930575 -0.020379016 0.07172173 0.15154265
000040 02 61 c2 be 23 d8 db 3d 42 9c b1 bc 87 11 d6 be
       -0.37964636 0.10734584 -0.021680955 -0.41810247
000050 ae ff 06 bf 24 af a8 3e 4f 28 37 3e 65 32 9d 3e
       -0.52733886 0.32946122 0.1788647 0.3070251
000060 cc 89 2b 3f 73 9b 22 bd 9c 42 9d be eb 86 aa be
       0.67007136 -0.03969903 -0.3071488 -0.3330606
000070 d4 f4 65 be 46 ef ad be 2b 92 0d bd d7 e6 2a be
       -0.22456676 -0.33971614 -0.034563225 -0.16689621
000080 b0 e9 d1 bc 71 3e 4f be 6e 69 17 bd da 43 c7 3c
       -0.025624126 -0.20238663 -0.03696578 0.024324346
000090 28 c7 21 3e 49 17 56 be 17 b9 49 3e 98 4a 12 3e
       0.15798628 -0.2090732 0.19699512 0.14286268
0000a0 42 d5 e0 bc c9 92 8e be 1a 4e 0c be e4 49 76 bc
       -0.02744544 -0.27846363 -0.13701668 -0.015032265
0000b0 64 43 92 3e 77 83 8f bd 8c 3a a5 3d 7a 8b c2 bd
       0.2856704 -0.07007497 0.080678076 -0.09499259
0000c0 5f 82 e8 bd 59 c7 94 bd 75 37 a7 3e 29 e4 b2 3e
       -0.11352991 -0.07264585 0.32659498 0.34939697
0000d0 cb 70 93 be 8f dd ad 3e 40 7a 48 be e8 c2 5a be
       -0.28796992 0.33958098 -0.19577885 -0.21363413
0000e0 b3 e6 e5 bd 7a fc 91 be 79 ee bd bd b5 c1 98 3d
       -0.11225643 -0.28512937 -0.09274001 0.07458822
0000f0 2b b9 10 3e 3d 98 cc be 86 a7 27 bc 5c 5a 2a 3d
       0.14133136 -0.399599 -0.010232812 0.04159008
000100 f7 cd f3 bd a1 08 b8 3d 37 1b c0 bd 59 82 0c be
       -0.11904519 0.08986021 -0.09380191 -0.13721599
000110 12 ff cd 3d 6c 6f 0a be e6 21 ba be 1d 9d d7 be
       0.100584164 -0.13519067 -0.36353987 -0.42112055
000120 70 d7 df be 06 70 41 3e 77 b9 39 3e b0 48 82 3e
       -0.43719053 0.1889039 0.18137155 0.2544608
000130 e0 7b d0 3d b4 98 d8 3e 06 09 20 3e ff 5e 88 3e
       0.10179877 0.42304003 0.15628442 0.26634976
000140 17 8e 4b be e6 1b 02 bd 9e d9 c8 3d 3f 67 33 3e
       -0.19878422 -0.031764887 0.09807132 0.17519854
000150 05 3e 2b 3e 08 cf a5 be 76 f3 d6 3e b1 2e ba 3e
       0.16722877 -0.32384515 0.4198262 0.36363748
000160 a8 7e 39 be c2 81 84 3e 80 05 f2 be a6 89 db be
       -0.18114722 0.25880247 -0.4726982 -0.42878455
000170 56 00 52 be 86 35 bf bd 38 57 af be 50 19 3d bc
       -0.2050794 -0.09336381 -0.3424623 -0.0115416795
000180 b3 1b fb bd a3 e9 d0 be ab 01 3b 3e 50 6b 7f 3e
       -0.122611426 -0.4080325 0.18262355 0.2494328
000190 3c e2 b5 be c9 f1 2a 3e ba 27 46 3e de af 58 be
       -0.35524166 0.16693796 0.19351092 -0.21160838
0001a0 86 62 0c bf c2 9d ae 3e c6 b6 32 bd c7 3b 77 3d
       -0.54837835 0.34104735 -0.043631338 0.060359742
0001b0 89 8a 6a 3e ee db 17 3e de 68 0e bf 66 54 a4 be
       0.2290441 0.1482999 -0.55628765 -0.3209564
0001c0 d1 95 e5 3e 42 8d c2 be 58 71 24 be ab 1b a0 3e
       0.44840863 -0.37998396 -0.16058862 0.3127111
0001d0 3f f7 cd 3e 41 25 03 3e 05 e8 c2 3e 88 1d 01 bc
       0.40227696 0.1280718 0.38067642 -0.007880576

encoder_mean.16.bias f4 [10]
000000 6f c4 3e be 41 b6 a7 3e 2b 50 cf 3e 5e 42 9f bd
       -0.18629621 0.32756236 0.4049085 -0.077763304
000010 32 f7 ce bc 6e 6e ac 3e 69 f3 d6 be 57 ac af 3d
       -0.025264356 0.33678 -0.41982582 0.08577793
000020 4c 8f 34 3e c6 50 f0 bd
       0.17632788 -0.11734156

encoder_var.0.weight f4 [20, 30]
000000 89 b8 90 be ea 65 85 bc 19 d2 3c 3b 82 f5 04 ba
       -0.2826579 -0.016283948 0.0028811751 -0.0005071984
000010 30 ed ce 3b a0 fa 80 bb 52 49 08 3c cd 4d 75 3c
       0.006314896 -0.003936127 0.008318262 0.014972162
000020 bb 97 1a 3c 19 83 d3 3b 55 dd 1f 3b 7a 2a e0 3a
       0.009435589 0.006454837 0.0024393399 0.0017102503
000030 a8 db c2 3c d0 5f 0d 3c 94 ec f8 3b 24 e6 88 3b
       0.02378638 0.0086288005 0.0075965617 0.0041778255
000040 93 fc da 3c e4 60 5b 3c 6a 8e 8e 3c c2 1a 09 bc
       0.026731765 0.0133898 0.017401893 -0.008368196
000050 68 9e c6 39 d4 6b 28 3b 45 83 2e bb 28 ed 1e bc
       0.00037883525 0.0025699036 -0.0026628536 -0.009700097
000060 de 27 c5 3a e4 6c 13 bb d4 d1 50 3b 5d 6c a6 bb
       0.0015041789 -0.0022495324 0.0031863349 -0.005078836
000070 7b b2 db bb a1 f2 86 3d ba b3 3d 3d 6d 50 30 bc
       -0.006704626 0.065892465 0.04631398 -0.0107613625
000080 b4 a9 be 3b e6 2b 80 3b 64 ac 45 bc 61 be c0 3b
       0.00581857 0.003911483 -0.012065027 0.00588207
000090 72 b0 cb bb 94 72 26 3c c9 44 00 bc 56 3b 50 3c
       -0.0062161023 0.0101591535 -0.0078289 0.012709459
0000a0 88 0d b6 bb 74 84 e0 3b c3 78 34 bb 2d eb 89 bc
       -0.0055558123 0.006851727 -0.00275378 -0.016835773
0000b0 30 6a b8 bc b3 2c c0 3c 7a 62 d8 3b b1 07 ad ba
       -0.022511572 0.023458814 0.006603536 -0.0013201145
0000c0 fd b4 4c 3b 12 4e 20 3a a1 8a 3a 3b 7c 5c 8b 3b
       0.0031235807 0.0006115149 0.0028463977 0.0042529684
0000d0 79 d1 b2 b8 df ca f6 3b 10 a3 c4 bc 50 de af 3a
       -8.526719e-05 0.0075315083 -0.024003536 0.0013417695
0000e0 bc f7 78 39 e6 f1 d7 ba f0 31 22 3b 04 88 7d ba
       0.00023743411 -0.001647529 0.0024749003 -0.0009671452
0000f0 ed 4a 3c be 5f fd 73 bc 03 17 ca 3b 6d a8 97 3a
       -0.18387957 -0.014891951 0.006167294 0.001157058
000100 ab dd 84 3a 52 fc 7c bb 34 a3 4c 3c c3 b0 af 3c
       0.0010136863 -0.0038602543 0.0124900825 0.021446591
000110 32 2f 2f 3c eb 0f fa 39 20 9f 6e bb b8 95 27 3c
       0.010692405 0.00047695576 -0.0036410764 0.010228567
000120 24 ef 1d 3c 1d f2 01 3c 1d 69 40 bb 80 d6 99 3b
       0.009639535 0.007931259 -0.0029359527 0.00469476
000130 a9 df 88 3a 5e ff a4 3b 2c be c0 b9 23 ca 2c bc
       0.0010442632 0.005035325 -0.00036762783 -0.01054624
000140 d5 f6 45 bb ea 4f 99 38 2f 6e b1 bb 09 00 e2 b9
       -0.0030206938 7.310494e-05 -0.0054147462 -0.00043106105
000150 95 ad 46 bb d8 6c 59 bb 88 fd 5e 3b f9 ad d6 3b
       -0.0030315865 -0.0033176448 0.0034025628 0.006551501
000160 39 b3 db 3a fc 77 e4 3d c3 9f 99 3d 37 af d0 bc
       0.0016761787 0.11155698 0.07501175 -0.025474174
000170 98 2f 03 3c d9 ee b8 3a 4c 10 46 bb 12 24 8d bb
       0.008006953 0.0014109268 -0.0030222116 -0.0043072784
000180 25 63 d3 3b 21 3e 9c bc 1d 34 89 ba 37 de 0f bc
       0.006451028 -0.019072594 -0.0010467801 -0.0087810075
000190 da 32 7c 3b 00 30 8a 3b 70 cb 14 3c 76 1c 68 3b
       0.0038482458 0.004217148 0.009081706 0.0035417355
0001a0 17 2e dd bb 47 f6 19 bb 68 6e e8 3b cf 7a a3 3c
       -0.006749879 -0.002349274 0.0070932396 0.01995602
0001b0 15 f2 22 bb b5 c2 e2 bc 35 86 91 bb e5 00 b5 ba
       -0.002486353 -0.027680734 -0.0044410476 -0.0013809471
0001c0 1a b2 3f 3a ff 1d 2a 3c ba 69 d2 bb d6 dc cb bc
       0.0007312611 0.010383128 -0.006421295 -0.024885576
0001d0 f8 54 f4 3a 94 cb 0b 3b db 2e d9 bb 7a ca 55 be
       0.0018641045 0.0021331059 -0.0066279 -0.2087802
0001e0 d8 9c bb 3b cc fc 6b bc 16 c6 14 bb 8a a2 2a 3b
       0.0057254843 -0.014403533 -0.0022701076 0.0026036822
0001f0 41 22 f6 bb e3 48 ab 3b c6 ed 87 3c a6 2c 42 bc
       -0.0075114076 0.0052271946 0.016592871 -0.011851465
000200 73 18 7c 3b 2b 18 d9 3b c9 85 8c 3b b3 74 4c bb
       0.0038466721 0.0066251955 0.0042884094 -0.0031197488
000210 a2 94 8d 3b 37 3b 89 bc b5 03 21 bc 1b 63 39 ba
       0.004320697 -0.016751869 -0.009827544 -0.0007071958
000220 6e 6c 90 3b b0 eb a9 bb f3 30 34 3b a2 76 e6 ba
       0.004407457 -0.005185567 0.0027494996 -0.0017582963
000230 60 f6 4b 3b a5 a6 9c ba d3 e6 85 3a 02 9c 0a bc
       0.0031122193 -0.0011951519 0.0010215886 -0.008460047
000240 a9 5f 87 3b 04 4f ba bb ca 62 b7 3b 05 ef 99 3c
       0.0041312766 -0.005685689 0.0055964934 0.018790731
000250 f6 89 99 bc 4f f5 a5 bd be 3c 85 3d ee 15 48 bb
       -0.018742543 -0.081034295 0.06505726 -0.003053065
000260 94 fa d9 bb 66 a9 0b 3b e7 08 74 3b 76 6b de 3b
       -0.0066521857 0.0021310686 0.0037236752 0.0067877127
000270 e7 34 16 bb a7 e9 68 3c 57 b3 05 3b 23 68 b8 bc
       -0.0022919716 0.014215863 0.0020401084 -0.022510594
000280 54 34 94 bb 76 23 aa b9 40 26 bd bb eb df 28 3c
       -0.0045228396 -0.00032451347 -0.005772382 0.010307292
000290 0d c3 94 bb 38 c4 9a 3c 19 4a 43 bc 5d 85 80 bc
       -0.0045398534 0.018892393 -0.011919522 -0.015688593
0002a0 5d 7f e4 bb 2e 9c 25 3b cf bd eb 3a 39 bd 0c 3a
       -0.0069731907 0.0025270092 0.0017985645 0.00053687725
0002b0 fd 0c 75 3c 3e d7 16 bc bf 0f 47 bb 50 4c 8d bb
       0.01495671 -0.009206591 -0.0030374376 -0.0043120757
0002c0 24 d9 93 3b bf 86 8a bc a1 bd 66 3c 40 18 fb 3b
       0.004511969 -0.016909955 0.014083297 0.007662803
0002d0 22 84 ba 3d a9 26 b6 bc fe 60 a5 bb 0b e0 8e bc
       0.091072336 -0.022235231 -0.0050469628 -0.017440816
0002e0 6c 5a fe 3b cb d2 39 3c 71 20 98 3b 8c c1 91 3b
       0.007762244 0.011341761 0.004642539 0.0044481214
0002f0 63 fd b9 3b 9a 91 98 3b fb 22 48 3c dc 89 1a 3c
       0.005675958 0.004656029 0.012215371 0.009432282
000300 24 d4 a3 bc a6 07 15 bc 36 ca 03 3a c2 ee ea b9
       -0.019998617 -0.009096062 0.0005027385 -0.00044809846
000310 cc 28 15 bc 5a b7 27 3c 7e 72 35 3a de 58 2e bb
       -0.009103965 0.0102365855 0.0006921663 -0.0026603262
000320 3f 7a 93 bc dd f7 56 3b f8 0c 6e 3c 87 c1 2e 3c
       -0.018002627 0.0032801547 0.014529459 0.010666258
000330 7a 90 39 bc 36 55 80 bc 22 cf 83 3c 1f 01 ed bc
       -0.01132595 -0.015665632 0.01608998 -0.028931199
000340 2e f4 e9 3c d4 95 7f bd cf 0e 43 bb c2 ab 7d 3c
       0.028558817 -0.062398747 -0.0029763465 0.015482845
000350 53 0b 45 bc 7a ef 28 bc 54 89 87 3c 92 c7 1a bc
       -0.012026626 -0.010311002 0.016544975 -0.009446995
000360 eb 21 03 3b d8 d5 03 bc 8a fc 1f ba f3 d7 1c 3c
       0.002000923 -0.00804659 -0.0006103 0.009572971
000370 61 e3 a3 3b 04 88 44 bb 9f 73 74 ba 66 f4 d8 3b
       0.005001471 -0.0029988298 -0.000932509 0.0066209314
000380 64 a5 43 3c 91 10 25 bc 10 85 9d bc 3b 7f b4 3b
       0.011941288 -0.0100747505 -0.019228488 0.005508331
000390 59 79 7c 3b 6d ef c7 bc 72 89 16 bc ef 75 8c 3a
       0.0038524477 -0.02440616 -0.009188043 0.0010716299
0003a0 f3 d5 2a bb 8b f0 d7 ba f0 44 5d 3b 3c 6d 19 bc
       -0.0026067465 -0.0016474886 0.0033763014 -0.009364422
0003b0 c6 80 41 3c f8 ca 31 bc 69 e6 32 3c 10 c0 fc 3b
       0.011810487 -0.010851614 0.010919192 0.0077133253
0003c0 d1 8c af 3d 9b 7f ad bc df 79 b3 b7 44 14 2b 3c
       0.085717805 -0.021179011 -2.1395213e-05 0.010441843
0003d0 54 be 6f bc 9d 41 51 3b 42 d8 8e 3b 05 c2 1b 3c
       -0.01463278 0.0031929978 0.004359276 0.009506707
0003e0 dd da 40 3c 4b b7 26 bc 59 14 91 bc c4 08 12 3c
       0.011770931 -0.010175536 -0.017709898 0.008913223
0003f0 f7 19 88 3c 4e f5 14 3b 6d 15 24 bc d8 22 2b 3c
       0.016613944 0.002272922 -0.010014874 0.010445319

encoder_var.0.bias f4 [20]
000000 b3 92 f2 b7 57 bf 11 36 ac ab 2e 39 bb a0 ce b8
       -2.891696e-05 2.1718058e-06 0.00016657886 -9.852784e-05
000010 f7 d3 4b 37 a8 48 13 39 76 49 cd 38 be e8 08 39
       1.2149095e-05 0.00014046079 9.788845e-05 0.00013056674
000020 b6 ef 3f b8 97 72 cb b8 da 29 09 38 89 0f 66 38
       -4.5761197e-05 -9.701138e-05 3.2702323e-05 5.485074e-05
000030 d2 d2 0f 38 59 c7 fe 37 22 86 8f b8 aa c1 7e 38
       3.42902e-05 3.0371988e-05 -6.8437555e-05 6.0738683e-05
000040 70 47 8c b8 98 29 f7 b8 9e 76 0d 38 f1 82 e4 b8
       -6.6890265e-05 -0.00011785625 3.372749e-05 -0.00010896277

encoder_var.1.weight f4 [20]
000000 79 01 2a 3e 0b 7a f9 3d 14 4b 0c 3e ea e0 14 3e
       0.16602124 0.12181481 0.13700515 0.14538923
000010 f7 4b 14 3e 4c a2 16 3e e1 ff 08 3e e1 b8 13 3e
       0.14482103 0.14710349 0.1337886 0.14425994
000020 f6 14 57 3e 60 e0 17 3e 03 b6 12 3e 55 90 03 3e
       0.2100409 0.14831686 0.14327244 0.12848027
000030 07 25 21 3e 5a 3c 23 3e b0 36 f9 3d e7 48 fd 3d
       0.15736781 0.15940991 0.12168634 0.12367421
000040 67 b5 3a 3e 16 72 e9 3d e8 fb f8 3d 15 9f 29 3e
       0.18233262 0.11398713 0.12157422 0.16564591

encoder_var.1.bias f4 [20]
000000 f8 ac 8b bd f2 c6 9f bb 38 48 01 bd 6e 0a 6c 3c
       -0.068201005 -0.004876011 -0.031563014 0.0144067835
000010 78 24 64 bc d8 50 e4 3a 76 a9 31 3a d5 96 4d bc
       -0.01392471 0.0017419113 0.0006777266 -0.012548168
000020 17 b0 62 39 f7 6e 69 bc d7 2b 94 bb b7 22 5e bc
       0.00021618638 -0.0142476475 -0.0045218277 -0.013558081
000030 7c e7 94 bb 31 94 af bc c7 9a 3d 3a dd d7 a2 bb
       -0.0045441967 -0.021432968 0.00072328415 -0.0049695806
000040 a5 76 87 3c a5 0d 4d bb 85 a8 09 bc 82 8d 06 bc
       0.016536066 -0.003128865 -0.008401995 -0.008212449

encoder_var.1.running_mean f4 [20]
000000 dc 3c 36 bd f8 68 7f 3c cd 09 50 3d ba 10 4d be
       -0.044491634 0.015588991 0.050790597 -0.20025912
000010 d0 ae ce bd 61 0c 29 3d 42 4a b1 bc 8c 62 bd bb
       -0.100919366 0.04127157 -0.021641854 -0.00577957
000020 f0 d3 cf bc 42 22 94 3d 04 fa d5 bc f9 7b 0c bd
       -0.025369614 0.07233097 -0.026120193 -0.034297917
000030 ff 7c f9 3b a3 8e 0f be 5b c9 05 be 12 2f 92 3d
       0.0076137776 -0.14019255 -0.13065092 0.07137884
000040 78 27 d9 bd 32 8c 3b bc 5f 98 f7 bc b3 d9 2d be
       -0.10603231 -0.011446999 -0.030224023 -0.16977577

encoder_var.1.running_var f4 [20]
000000 74 4f f5 3a fd 6d 98 3a a9 a7 dd 3a a1 d9 8a 3b
       0.0018715695 0.0011629459 0.0016910929 0.004237369
000010 5d 3a 9f 3a a8 bf c2 3a 8c 38 d1 3a 04 52 96 3a
       0.0012148131 0.0014858143 0.0015962287 0.0011468534
000020 14 d0 a5 3a 53 af f8 3a c4 10 8d 3a 09 61 90 3a
       0.0012650513 0.0018973149 0.0010762443 0.0011015247
000030 92 55 0f 3a 01 59 2e 3b 26 38 55 3b 84 e2 98 3a
       0.0005467768 0.0026603343 0.0032534688 0.0011664187
000040 64 00 c5 3b 1d b8 61 3a 54 7f 85 3a f4 27 d9 3b
       0.0060120095 0.0008610504 0.0010185041 0.0066270772
