generativecf/models/adult-margin-0.369-validity_reg-73.0-ae_reg-2.0-epoch-25-ae-gen.pth (torch_old, 37228 bytes, 78 tensors)

encoder_mean.0.weight f4 [20, 30]
0.10831991 -0.6281396 -0.025840642 -0.08859731 -0.021887282 -0.03198968 0.012171067 0.04735504
0.0036757032 0.022586673 0.033962343 0.026940584 0.04936957 0.03203901 0.04490783 0.047819
0.020615878 0.003953923 0.062987715 0.049277954 0.108484134 0.060572524 0.06513984 0.047924176
0.05121868 0.0042754286 0.039853618 0.10849736 0.113556355 -0.36482117 -0.8436016 -0.13798593
-0.027857492 -0.07976746 -0.035851534 -0.052316338 0.033723265 0.0713157 0.012261051 0.040567648
0.059127904 0.07679725 0.05328573 0.03053793 0.025678817 0.03741638 0.008984819 0.0021275443
0.03130457 0.0049723005 -0.07564643 0.023883803 0.034372732 -0.0044748974 0.0002361815 -0.05085352
-0.048630815 -0.038288176 -0.030888971 -0.30514154 0.6676456 -0.81047934 -0.0794894 -0.14160056
-0.09378386 -0.07891129 0.026780853 0.08138192 0.06469174 0.051778954 0.050176095 -0.030266512
-0.06456197 0.06330009 0.102772005 0.055815786 0.06161501 0.092271276 -0.010350194 0.017006207
0.06781577 0.04484178 0.09332356 0.042403422 0.034722645 -0.0175778 -0.022964118 -0.062008347
-0.06606582 0.3678983 -0.6656949 0.12544529 -0.0382421 0.089849986 0.036126677 0.026433276
0.050683424 0.040194735 -0.020083843 -0.053889267 0.06539291 -0.041424446 -0.0066713863 -0.0030356483
-0.009109972 0.026715267 -0.03395618 0.10835947 0.034635786 0.029442625 -0.036079828 -0.08235298
-0.11027318 -0.04630814 -0.0073400936 -0.14656413 0.27299958 0.07594004 -0.047694683 -0.09271198
0.28525394 -0.28870738 -0.03348173 0.010122459 0.02381187 0.14293206 0.10469235 -0.016641043
-0.034431327 0.1359707 0.10676306 0.0030341968 0.17791054 0.058708668 0.024446454 -0.16035788
0.09735283 -0.004318583 0.0040523615 0.024681972 -0.034661394 0.13295554 0.09362472 -0.045908835
0.106739186 0.061692808 0.018390423 0.12033015 -0.1611528 0.05217346 -0.30900455 0.11689664
0.078482136 -0.018391624 0.02003421 -0.060419213 0.112824276 -0.10044532 -0.117884 0.09969744
-0.11995396 0.030682145 -0.0658765 0.093956254 0.07232698 -0.20617938 -0.015065421 0.06577628
-0.06323056 0.1985763 -0.12995818 0.06258045 -0.0028793584 -0.16517797 -0.007796063 -0.08339295
0.20112847 -0.10975877 0.03303859 -0.08331341 -1.0497748 -0.33092877 0.06912405 0.08816054
0.07501393 0.08077154 -0.105453685 -0.08923825 -0.09954832 -0.09966695 -0.093610995 -0.0951247
-0.091563925 -0.08892038 0.0040364377 -0.002012654 0.013620591 -0.0028922884 0.028342044 -0.009497563
0.014264994 0.022072058 0.027558597 -0.0068316306 0.01617853 -0.024643674 -0.030401796 -0.030560948
-0.050986134 -0.22967505 0.1054574 0.17930345 0.100252174 0.103892304 -0.08890183 -0.008042694
0.0317199 0.061793696 0.1415638 -0.14688031 -0.01530095 -0.018240673 0.020278102 -0.115761414
-0.001986298 0.19921644 0.09391658 -0.0099458005 0.20275146 0.0047596646 0.20175312 0.082798064
0.10649713 -0.06652335 0.011960582 0.048720654 0.16431239 -0.15318777 0.09204873 0.20504527
0.04869744 -0.34530294 0.103060976 -0.115686916 0.08739981 -0.010211085 0.11563755 -0.07706726
0.11369556 0.019466687 -0.13405226 -0.009683984 -0.025097411 0.08822652 -0.13675821 -0.110364035
00000000: d4d6 dd3d c2cd 20bf c1af d3bc 8272 b5bd
00000010: f54c b3bc 9c07 03bd 2869 473c 5cf7 413d
00000020: 11e4 703b b007 b93c 191c 0b3d 80b2 dc3c
00000030: bf37 4a3d 563b 033d 46f1 373d dbdd 433d
00000040: a1e2 a83c e98f 813b b4ff 803d aed7 493d
00000050: ee2c de3d e51a 783d 0968 853d 244c 443d
00000060: aeca 513d e518 8c3b 8c3d 233d dd33 de3d
00000070: 3c90 e83d d7c9 babe 46f6 57bf 2f4c 0dbe
00000080: 6535 e4bc 1f5d a3bd 0fd9 12bd a849 56bd
00000090: 6821 0a3d f70d 923d 93e2 483c 432a 263d
000000a0: 1a30 723d e047 9d3d 2342 5a3d ae2a fa3c
000000b0: 625c d23c eb41 193d 1035 133c 456e 0b3b
000000c0: 3939 003d aeee a23b 84ec 9abd f7a7 c33c
000000d0: 6cca 0c3d 29a2 92bb 7da7 7739 c84b 50bd
000000e0: 1b31 47bd 10d4 1cbd de0a fdbc 833b 9cbe
000000f0: d2ea 2a3f 937b 4fbf 57cb a2bd bdff 10be
00000100: c111 c0bd 3e9c a1bd 8563 db3c 90ab a63d
00000110: 1a7d 843d 2b16 543d 7385 4d3d 7af1 f7bc
00000120: 1139 84bd 7aa3 813d 217a d23d 189f 643d
00000130: 0560 7c3d b9f8 bc3d dc93 29bc 9a50 8b3c
00000140: ffe2 8a3d 04ac 373d 6c20 bf3d 36af 2d3d
00000150: 5539 0e3d 52ff 8fbc 3f1f bcbc 77fc 7dbd
00000160: 844d 87bd 2a5d bc3e fb6a 2abf bb74 003e
00000170: c0a3 1cbd 4503 b83d 91f9 133d 998a d83c
00000180: 6c99 4f3d 3ca3 243d df86 a4bc feba 5cbd
00000190: b8ec 853d aeac 29bd a59b dabb baf1 46bb
000001a0: fe41 15bc fad9 da3c a315 0bbd 92eb dd3d
000001b0: 41de 0d3d a931 f13c 71c8 13bd aea8 a8bd
000001c0: e8d6 e1bd 9bad 3dbd 2b85 f0bb e814 16be
000001d0: 9ac6 8b3e 7486 9b3d 805b 43bd c7df bdbd
000001e0: ce0c 923e 74d1 93be 2324 09bd acd8 253c
000001f0: 1c11 c33c c85c 123e f168 d63d cc52 88bc
00000200: dd07 0dbd e73b 0b3e 97a6 da3d 60d9 463b
00000210: 2e2e 363e 8078 703d ee43 c83c db34 24be
00000220: ec60 c73d e682 8dbb acc9 843b d931 ca3c
00000230: 1bf9 0dbd 7f25 083e 51be bf3d e70a 3cbd
00000240: 139a da3d 99b1 7c3d 83a7 963c a76f f63d
00000250: 3d05 25be d7b3 553d d835 9ebe 8167 ef3d
00000260: 3ebb a03d 08aa 96bc c91e a43c 237a 77bd
00000270: 6a10 e73d 47b6 cdbd 2b6d f1bd 2c2e cc3d
00000280: 6caa f5bd 1f59 fb3c 42ea 86bd 236c c03d
00000290: 2b20 943d b020 53be f5d4 76bc b7b5 863d
000002a0: 067f 81bd 9657 4b3e c213 05be 2e2a 803d
000002b0: 9eb3 3cbb 6a24 29be 1e76 ffbb ecc9 aabd
000002c0: 9ff4 4d3e 35c9 e0bd 7953 073d 39a0 aabd
000002d0: 055f 86bf 7f6f a9be e990 8d3d 838d b43d
000002e0: e7a0 993d 8d6b a53d 1af8 d7bd 8bc2 b6bd
000002f0: fddf cbbd 301e ccbd 1fb7 bfbd bdd0 c2bd
00000300: de85 bbbd e31b b6bd 1844 843b bbe6 03bb
00000310: e628 5f3c 8c8c 3dbb 932d e83c ab9b 1bbc
00000320: b9b7 693c 76d0 b43c 91c2 e13c dfdb dfbb
00000330: d688 843c 88e1 c9bc 300d f9bc f45a fabc
00000340: d6d6 50bd f02f 6bbe 0dfa d73d 539b 373e
00000350: 0351 cd3d 7dc5 d43d 2a12 b6bd 81c5 03bc
00000360: baec 013d 631b 7d3d 1af6 103e cb67 16be
00000370: d6b0 7abc 776d 95bc 431e a63c 5214 edbd
00000380: 8d2c 02bb 65ff 4b3e 5657 c03d b6f3 22bc
00000390: 149e 4f3e f6f6 9b3b 5f98 4e3e 0892 a93d
000003a0: 2b1b da3d 653d 88bd 51f6 433c 4f8f 473d
000003b0: 8241 283e 41dd 1cbe 0b84 bc3d 63f7 513e
000003c0: f876 473d 8ccb b0be a211 d33d 43ed ecbd
000003d0: acfe b23d 654c 27bc 61d3 ec3d 71d5 9dbd
000003e0: 38d9 e83d 9a78 9f3c ff44 09be 93a9 1ebc
000003f0: 1699 cdbc 1bb0 b43d 580a 0cbe 8a06 e2bd

encoder_mean.0.bias f4 [20]
-2.8788843e-05 -0.00010355846 -9.4202645e-05 -0.00016575932 -8.211766e-05 -4.437653e-05 0.00027496234 -0.00016407798
-0.0002029034 8.0144404e-05 -7.841826e-05 5.407029e-05 4.749127e-05 -1.6163596e-06 -0.00016222018 0.00024142771
-2.9748013e-05 0.00016737275 0.00010155964 -3.3806253e-05
00000000: 927f f1b7 862d d9b8 a98e c5b8 aecf 2db9
00000010: 9536 acb8 f020 3ab8 d228 9039 590c 2cb9
00000020: 77c2 54b9 3313 a838 7c74 a4b8 88c9 6238
00000030: 5d31 4738 b1f1 d8b5 a619 2ab9 c227 7d39
00000040: 5f8b f9b7 c880 2f39 6bfc d438 30cb 0db8

encoder_mean.1.weight f4 [20]
1.190205 1.0655807 0.8185009 0.6668146 0.43411934 0.5018212 1.151228 0.40730855
0.67766815 0.6180259 0.66117233 0.7358353 0.5695151 0.9065922 0.6540505 0.44873828
0.9742116 0.73667985 0.78495395 0.66636056
00000000: a358 983f f364 883f 4689 513f 5db4 2a3f
00000010: e444 de3e 5b77 003f 705b 933f bf8a d03e
00000020: a97b 2d3f f236 1e3f 9742 293f b45f 3c3f
00000030: becb 113f 6d16 683f db6f 273f 06c1 e53e
00000040: ee65 793f 0d97 3c3f bef2 483f 9b96 2a3f

encoder_mean.1.bias f4 [20]
-0.34865004 0.33427772 -0.1374951 0.0009790148 -0.114273876 -0.23924576 0.24226506 -0.19239625
-0.10164875 -0.16338912 0.061345525 0.1682831 -0.17190687 0.06591387 -0.1565367 -0.14574176
0.01647729 -0.10516115 -0.1815099 -0.14255585
00000000: 4282 b2be 7326 ab3e 84cb 0cbe 4952 803a
00000010: 6c08 eabd d7fc 74be 5514 783e 8603 45be
00000020: 382d d0bd 7a4f 27be 7245 7b3d 6852 2c3e
00000030: 5b08 30be dafd 863d 284b 20be 543d 15be
00000040: 62fb 863c bb5e d7bd bbdd 39be 29fa 11be

encoder_mean.1.running_mean f4 [20]
-0.26744908 -0.6844196 0.25883028 -0.053324535 0.14638515 0.018118361 -0.85868967 0.4763092
0.059632912 0.06000068 0.1106225 0.57455754 -0.26446745 0.279544 -0.049007945 0.4949835
-0.3833931 -0.45587686 0.41999328 -0.00051943015
00000000: 16ef 88be 1f36 2fbf 6785 843e d46a 5abd
00000010: fde5 153e f56c 943c 16d3 5bbf cdde f33e
00000020: a441 743d 46c3 753d 0d8e e23d 3416 133f
00000030: 4768 87be 6420 8f3e 8ebc 48bd 7a6e fd3e
00000040: 1a4c c4be b168 e9be 5c09 d73e 5e2a 08ba

encoder_mean.1.running_var f4 [20]
0.015050265 0.028073866 0.0434565 0.04338085 0.057500668 0.06288817 0.026239555 0.061542306
0.030737003 0.05838958 0.03764282 0.039296083 0.032631174 0.026176145 0.048647877 0.054466173
0.02276941 0.015651299 0.027461221 0.073803835
00000000: 6395 763c 2afb e53c 71ff 313d 1eb0 313d
00000010: d285 6b3d 83cb 803d 56f4 d63c c913 7c3d
00000020: 2bcc fb3c ea29 6f3d 5c2f 1a3d eef4 203d
00000030: 44a8 053d 5b6f d63c ff42 473d ec17 5f3d
00000040: ea86 ba3c 2737 803c 5bf6 e03c 7726 973d

encoder_mean.4.weight f4 [16, 20]
-0.32242724 0.040131513 -0.21544479 0.062786594 0.035466872 -0.039889406 0.18053181 0.10402099
0.01936151 -0.042065453 -0.029413648 0.11246052 0.053348016 0.11447101 0.08200593 0.0131311305
-0.32912177 -0.00096651923 0.07550073 -0.07583855 0.1384857 0.26901263 -0.33337298 0.14231634
-0.19725421 0.052593935 0.1789355 -0.2386859 -0.072295204 0.0701252 -0.24912387 -0.2369891
0.13778378 -0.24310856 -0.18817711 -0.07450212 0.015537536 0.047341254 -0.053039387 -0.038424745
0.07421693 -0.22161074 0.1817418 -0.108423725 0.054421168 -0.026513562 -0.41695112 0.028049463
-0.010660703 -0.09408154 0.19968519 0.17405905 0.0071236496 -0.061234936 -0.04308275 0.039962467
-0.15328857 -0.008858456 0.29245287 -0.005029488 -0.06359636 -0.00063495664 0.104361616 -0.23210208
-0.12585416 -0.06471022 -0.14105642 0.0943965 -0.17395528 0.051782593 -0.05484389 0.13903248
-0.020673627 0.052196812 -0.016770916 -8.76775e-06 0.06078639 0.055546395 -0.22783309 -0.21628533
0.121637985 0.25504005 -0.08660603 -0.04673439 0.028937988 0.15193073 0.075736344 -0.17776626
-0.004673407 0.0314933 -0.12193932 -0.00751753 0.16081633 -0.21665002 -0.01351161 -0.075049676
0.32810462 0.14513904 -0.13657711 0.006148366 0.2170483 0.06333996 -0.04520147 0.068279184
0.014833728 0.108725786 0.27138367 -0.008343549 0.11141071 -0.089864835 -0.016752368 -0.16366455
0.0069502187 -0.16617851 -0.077994876 -0.10112997 0.17111582 -0.108822204 -0.17158736 -0.0942901
0.28162357 -0.33607033 0.05636219 -0.0752868 0.0953772 -0.0065761115 -0.39750865 0.04131032
-0.029202623 0.076389365 0.22356497 0.037065025 -0.046044484 -0.0593262 -0.004510351 0.022860693
-0.077798195 0.04560268 0.1743523 0.048200127 0.020664254 -0.119048074 0.01608444 -0.08315725
-0.18781477 0.16879372 0.10100372 -0.04488735 0.0675189 -0.050593805 0.07251839 0.18574578
-0.19503222 0.09384723 0.29989147 -0.07537933 -0.08889514 0.25729764 -0.02245596 -0.1251212
0.44699475 -0.3718434 0.08398533 -0.09211392 0.09918305 -0.05582991 -0.54691344 -0.101837926
0.08852609 0.07165271 0.054660093 0.023336684 0.07262328 0.005342573 0.068090566 -0.037532363
-0.28175732 0.10013541 0.04927709 -0.09145285 0.06573012 -0.37524074 0.13333549 -0.05829697
0.029590424 -0.070245735 -0.3685191 0.11689162 0.05397808 0.07341493 0.1393414 0.11024009
0.039263397 0.046297323 0.13631481 0.018518299 -0.09209516 0.06305943 0.21721129 0.032284282
0.16055858 0.07286867 -0.110674545 0.06945525 -0.16308358 -0.02678269 0.25132096 0.10242877
-0.09354461 0.024898041 -0.17204845 -0.18386574 0.19706224 -0.027515262 -0.10196172 0.14251676
0.29514828 0.11150502 0.054638688 0.12893991 0.109285146 0.20493373 0.28737843 -0.13710657
-0.03405455 0.10345008 -0.20820703 0.14046071 0.052801542 0.08843238 -0.08886384 -0.02998597
0.0011957621 0.008711992 0.08414423 0.02253791 0.0756278 0.27455387 0.099927016 0.07222515
-0.34068123 -0.1383249 0.058989923 0.0023985733 -0.065626696 -0.04853445 -0.23731378 0.001449878
-0.005545839 -0.10182865 0.016419252 0.13335077 -0.113318264 -0.08294618 -0.15331444 0.13481104
00000000: 2f15 a5be f160 243d 8f9d 5cbe 4296 803d
00000010: b645 113d 1363 23bd 55dd 383e f508 d53d
00000020: 089c 9e3c d34c 2cbd e4f4 f0bc b351 e63d
00000030: 7383 5a3d c76f ea3d baf2 a73d f423 573c
00000040: a682 a8be 025e 7dba 20a0 9a3d 3e51 9bbd
00000050: 32cf 0d3e 06bc 893e ddaf aabe 60bb 113e
00000060: 02fd 49be bd6c 573d de3a 373e 146a 74be
00000070: 820f 94bd cd9d 8f3d 541a 7fbe 45ad 72be
00000080: 3117 0d3e 73f1 78be 80b1 40be 9194 98bd
00000090: 2691 7e3c e7e8 413d d43f 59bd 4463 1dbd
000000a0: 0cff 973d eded 62be 861a 3a3e 420d debd
000000b0: bbe8 5e3d f832 d9bc 9e7a d5be fdc7 e53c
000000c0: 3baa 2ebc d3ad c0bd 467a 4c3e 893c 323e
000000d0: 816d e93b 7cd1 7abd 8a77 30bd afaf 233d
000000e0: aef7 1cbe 0f23 11bc 62bc 953e 67ce a4bb
000000f0: cf3e 82bd 3873 26ba 8bbb d53d 2bac 6dbe
00000100: eadf 00be cb86 84bd 1871 10be f452 c13d
00000110: 5521 32be fc19 543d fda3 60bd 885e 0e3e
00000120: bd5b a9bc 53cc 553d 2963 89bc 3319 13b7
00000130: 26fb 783d 9e84 633d 144d 69be e779 5dbe
00000140: 561d f93d 9c94 823e 815e b1bd 8f6c 3fbd
00000150: 5c0f ed3c bb93 1b3e a81b 9b3d 5c08 36be
00000160: 6123 99bb 1eff 003d 52bb f9bd 9d55 f6bb
00000170: 09ad 243e 81d9 5dbe cd5f 5dbc a5b3 99bd
00000180: 54fd a73e 549f 143e dfda 0bbe 3b78 c93b
00000190: e941 5e3e 62b8 813d 2d25 39bd f5d5 8b3d
000001a0: 2a09 733c a0ab de3d cdf2 8a3e 62b3 08bc
000001b0: 4c2b e43d 0e0b b8bd 433c 89bc ae97 27be
000001c0: a9be e33b b32a 2abe c7bb 9fbd 3b1d cfbd
000001d0: fc38 2f3e 2dde debd 99b4 2fbe 2b1b c1bd
000001e0: f730 903e 6911 acbe 0adc 663d f72f 9abd
000001f0: 1f55 c33d 6c7c d7bb 4186 cbbe 0335 293d
00000200: 573a efbc 0772 9c3d 37ee 643e 7fd1 173d
00000210: 2499 3cbd 0800 73bd 91cb 93bb 5946 bb3c
00000220: a954 9fbd e0c9 3a3d 6989 323e 7f6d 453d
00000230: 1548 a93c 7acf f3bd 84c3 833c 594e aabd
00000240: 8452 40be 43d8 2c3e 0adb ce3d ccdb 37bd
00000250: 5947 8a3d 733b 4fbd 8684 943d 2434 3e3e
00000260: 87b6 47be fa32 c03d 608b 993e 7a60 9abd
00000270: a80e b6bd 84bc 833e 90f5 b7bc c61f 00be
00000280: 7fdc e43e 4262 bebe 8000 ac3d 39a6 bcbd
00000290: 7c20 cb3d e7ad 64bd 8502 0cbf 6790 d0bd
000002a0: 2b4d b53d a8be 923d 43e3 5f3d 932c bf3c
000002b0: 84bb 943d c010 af3b 1173 8b3d 89bb 19bd
000002c0: 7f42 90be cb13 cd3d c6d6 493d a24b bbbd
000002d0: 839d 863d 8e1f c0be 1989 083e cec8 6ebd
000002e0: 9e67 f23c ffdc 8fbd 89ae bcbe e064 ef3d
000002f0: 1f18 5d3d 915a 963d 83af 0e3e 8ec5 e13d
00000300: a8d2 203d 43a2 3d3d 1c96 0b3e b0b3 973c
00000310: 639c bcbd 4d25 813d a36c 5e3e 863c 043d
00000320: 7869 243e 2b3c 953d 56a9 e2bd 8e3e 8e3d
00000330: 62ff 26be 5f67 dbbc 24ad 803e 2dc6 d13d
00000340: 5194 bfbd faf6 cb3c 782d 30be 4d47 3cbe
00000350: afca 493e b067 e1bc 4ed1 d0bd eaef 113e
00000360: ad1d 973e be5c e43d d1cc 5f3d d308 043e
00000370: e4d0 df3d 26da 513e 4423 933e aa65 0cbe
00000380: c97c 0bbd a3dd d33d 3934 55be efd4 0f3e
00000390: 6e46 583d 091c b53d 3ffe b5bd 23a5 f5bc
000003a0: 1ebb 9c3a bebc 0e3c cf53 ac3d 6ca1 b83c
000003b0: bfe2 9a3d 5392 8c3e 89a6 cc3d c8ea 933d
000003c0: c56d aebe 0ba5 0dbe 6b9f 713d 6231 1d3b
000003d0: 4a67 86bd 0fcc 46bd 6202 73be d509 be3a
000003e0: dfb9 b5bb 8a8b d0bd ab81 863c 1b8d 083e
000003f0: 6813 e8bd b0df a9bd 76fe 1cbe e80b 0a3e

encoder_mean.4.bias f4 [16]
2.9261955e-05 -0.00016514985 7.421828e-05 0.00024219476 7.357374e-05 -1.4784277e-05 4.6744567e-06 0.00014736035
5.559794e-05 0.00011431518 0.00014571563 -0.00014370102 -0.00023868248 -0.00014715118 -0.00011555883 -7.6271055e-05
00000000: 9277 f537 132c 2db9 a3a5 9b38 a9f5 7d39
00000010: 9a4b 9a38 fc09 78b7 47d9 9c36 be84 1a39
00000020: d531 6938 7fbc ef38 3ecb 1839 73ae 16b9
00000030: d746 7ab9 984c 1ab9 2d58 f2b8 b6f3 9fb8

encoder_mean.5.weight f4 [16]
0.6760675 0.8596294 1.0070473 0.6215658 1.0694554 0.7916322 1.0047019 0.60623264
0.9377552 1.0237005 0.84450793 0.8100514 0.7629951 0.93600845 0.6990533 0.7658443
00000000: c212 2d3f ac10 5c3f ede6 803f f01e 1f3f
00000010: eae3 883f 68a8 4a3f 129a 803f 1032 1b3f
00000020: ba10 703f 9e08 833f ac31 583f 875f 4f3f
00000030: a653 433f 409e 6f3f 28f5 323f 5f0e 443f

encoder_mean.5.bias f4 [16]
0.041814454 0.11983309 0.14946333 -0.12534162 -0.19191642 0.24202123 -0.04207773 -0.13624448
-0.18666932 0.0887966 -0.13265748 -0.17530695 0.20251997 -0.17159812 -0.05167821 -0.19246987
00000000: a245 2b3d 0d6b f53d ea0c 193e 8e59 00be
00000010: bd85 44be 6ad4 773e b359 2cbd ac83 0bbe
00000020: 3e26 3fbe feda b53d 5dd7 07be aa83 33be
00000030: 6561 4f3e 6bb7 2fbe 88ac 53bd d216 45be

encoder_mean.5.running_mean f4 [16]
-0.06260507 -0.09712211 -0.19440523 -0.16346183 0.19378892 0.07130716 -0.21764958 0.13554257
-0.30098575 -0.092166886 0.25308162 0.24657013 -0.33887723 0.46244317 -0.02166075 -0.31548148
00000000: 1637 80bd f5e7 c6bd 2a12 47be 8a62 27be
00000010: 9a70 463e 7d09 923d 88df 5ebe accb 0a3e
00000020: ce1a 9abe fec1 bcbd ea93 813e e17c 7c3e
00000030: 5181 adbe 5ac5 ec3e e371 b1bc ca86 a1be

encoder_mean.5.running_var f4 [16]
0.17813753 0.6109112 0.5738874 0.050914295 0.5138906 0.40041962 0.47590947 0.10169372
0.67361385 0.5899741 0.5383943 0.10857759 0.33201838 0.5540797 0.19412214 0.16380505
00000000: af69 363e ad64 1c3f 49ea 123f 828b 503d
00000010: 568e 033f cd03 cd3e 68aa f33e cc44 d03d
00000020: f571 2c3f 8b08 173f 35d4 093f ed5d de3d
00000030: 50fe a93e 2bd8 0d3f f4c7 463e 83bc 273e

encoder_mean.8.weight f4 [14, 16]
0.01799311 0.19125803 -0.11265725 -0.04091003 -0.22055982 0.035804506 -0.1571727 -0.010534529
-0.20670265 -0.13177322 -0.11514504 0.16172145 -0.21558115 0.011526278 -0.14165124 0.07494947
-0.1819815 0.24941497 -0.49647662 0.0857167 0.22234449 0.13592939 -0.37546933 -0.019638076
-0.4103 -0.17941703 0.042724196 -0.118496396 -0.28189066 0.15200455 0.028554818 -0.09892307
0.20738462 -0.00495427 -0.26927483 0.049693815 0.14633088 0.15363829 -0.16596128 0.106689714
-0.24439032 -0.36668336 0.025754271 0.031558353 -0.06831907 0.0042861053 -0.23076083 -0.08572977
-0.027365496 -0.13743134 0.062779985 0.08612623 -0.11194173 -0.3148418 0.11359723 0.029347815
0.3856645 0.05791799 -0.15910727 0.1005756 0.0004031283 0.2793138 -0.08372254 -0.06315218
0.11376988 -0.2506861 0.14649953 0.024509406 0.0376609 0.1818965 0.13034564 -0.12569538
-0.06864507 0.022302378 -0.27435288 -0.12221191 0.23573482 -0.3358537 0.077732824 0.18707757
-0.18509181 0.0127457855 -0.2105305 0.03877518 0.19363771 0.044443373 -0.2094755 0.14736639
-0.13961534 -0.32747218 0.27782777 0.07256137 -0.13909742 0.13509768 -0.20116566 0.088834904
0.0051877582 -0.06371758 -0.3456048 -0.006857777 -0.20788085 -0.035583563 -0.3295346 0.03222714
-0.004315708 -0.17773758 -0.1962018 -0.055747416 -0.3427268 -0.16312073 0.13149779 0.035928436
0.023097211 -0.03237523 -0.017769042 0.14534263 -0.2779567 -0.34376085 -0.029664913 0.009543678
-0.045859303 0.12851404 -0.12256537 -0.12565039 -0.090375714 -0.35159895 0.14913672 0.006905649
0.0733694 -0.08963506 -0.13066442 -0.17708705 -0.24908566 0.03028417 -0.14427453 0.15038374
-0.38073787 -0.3923105 -0.18588674 -0.17382114 0.16037035 -0.07596089 -0.12844731 0.041907046
0.052628927 0.037883766 -0.31260073 0.057052176 -0.21550317 0.025067514 -0.24537855 -0.0055176886
-0.18804781 -0.34448436 -0.11002867 -0.09218006 -0.32810935 -0.057608824 -0.040661905 0.054398805
0.043139648 0.08950044 -0.124678455 -0.072423756 0.38926482 0.07196472 -0.24009071 -0.045222484
-0.22344767 -0.26266986 0.34357682 -0.078376144 -0.060463976 -0.09487001 0.05708309 0.11053637
-0.0023126781 0.325211 -0.16890082 0.05331542 0.26354128 0.051950764 -0.29806358 -0.088434875
0.14222497 0.12200808 0.019827865 0.10959411 -0.14208323 0.2770273 -0.06995471 0.016707849
-0.05126818 -0.031059103 0.21929407 -0.25303635 -0.21882007 0.086435206 0.16920595 0.14075533
0.17411998 0.1508084 0.024224063 0.27119967 0.024998032 0.16120629 0.022355078 0.020465499
-0.15505281 -0.24825206 0.1065027 0.19158009 -0.13051471 -0.04780035 0.22896598 0.011492498
0.17755984 0.17897022 -0.10564717 0.3199641 -0.11900533 0.14788792 -0.001061173 0.054691136
00000000: 4966 933c 25d9 433e d8b8 e6bd 4791 27bd
00000010: 6fda 61be bfa7 123d e1f1 20be 0499 2cbc
00000020: dca9 53be 8fef 06be 2ad1 ebbd 4f9a 253e
00000030: 4ec1 5cbe b7d8 3c3c 060d 11be 1c7f 993d
00000040: 5c59 3abe a366 7f3e 2f32 febe 3d8c af3d
00000050: 46ae 633e 1331 0b3e 843d c0be 08e0 a0bc
00000060: d712 d2be 19b9 37be 91ff 2e3d 3dae f2bd
00000070: f953 90be 15a7 1b3e cbeb e93c 2e98 cabd
00000080: a25c 543e 6e57 a2bb 64de 89be be8b 4b3d
00000090: c3d7 153e 5b53 1d3e c1f1 29be 2380 da3d
000000a0: 7541 7abe ecbd bbbe 9ffa d23c 5543 013d
000000b0: deea 8bbd 7572 8c3b 914c 6cbe 1793 afbd
000000c0: 9b2d e0bc cdba 0cbe cb92 803d f362 b03d
000000d0: b541 e5bd f232 a1be aaa5 e83d d46a f03c
000000e0: d175 c53e 6a3b 6d3d 04ed 22be 95fa cd3d
000000f0: f75a d339 3802 8f3e b976 abbd ee55 81bd
00000100: 2f00 e93d ee59 80be f903 163e f3c7 c83c
00000110: 5142 1a3d 1343 3a3e 5479 053e 4ab6 00be
00000120: c995 8cbd 7ab3 b63c fb77 8cbe 3d4a fabd
00000130: 7864 713e 04f5 abbe 6332 9f3d 4391 3f3e
00000140: b588 3dbe b3d3 503c 4f95 57be b9d2 1e3d
00000150: f748 463e 410a 363d bf80 56be 37e7 163e
00000160: 53f7 0ebe 6faa a7be 713f 8e3e 0e9b 943d
00000170: 8e6f 0ebe 0c57 0a3e 5ffe 4dbe 13ef b53d
00000180: 12fe a93b 5d7e 82bd 1df3 b0be 34b7 e0bb
00000190: b8de 54be 12c0 11bd c2b8 a8be 9b00 043d
000001a0: c86a 8dbb d700 36be 20e9 48be 6757 64bd
000001b0: e379 afbe 1f09 27be 5ba7 063e b229 133d
000001c0: 5d36 bd3c e49b 04bd 6290 91bc b3d4 143e
000001d0: 5750 8ebe 6c01 b0be d503 f3bc 165d 1c3c
000001e0: f7d6 3bbd 2f99 033e 8d03 fbbd 7faa 00be
000001f0: e716 b9bd c704 b4be 4cb7 183e c848 e23b
00000200: b242 963d 9692 b7bd e5cc 05be 4f56 35be
00000210: 5010 7fbe 8216 f83c b4bc 13be 32fe 193e
00000220: 13f0 c2be ecdc c8be 1859 3ebe 2bfe 31be
00000230: 2038 243e 6291 9bbd b187 03be b9a6 2b3d
00000240: 6e91 573d 022c 1b3d 340d a0be 8baf 693d
00000250: ddac 5cbe 635a cd3c 8444 7bbe bacd b4bb
00000260: 9b8f 40be 4160 b0be b656 e1bd e6c8 bcbd
00000270: f3fd a7be 3bf7 6bbd 198d 26bd 48d1 5e3d
00000280: 33b3 303d 024c b73d 6b57 ffbd e852 94bd
00000290: b84d c73e 3d62 933d 57da 75be 363b 39bd
000002a0: 77cf 64be aa7c 86be 4de9 af3e ac83 a0bd
000002b0: 13a9 77bd 354b c2bd f5cf 693d e460 e23d
000002c0: 4d90 17bb 0e82 a63e 56f4 2cbe 4561 5a3d
000002d0: e2ee 863e 53ca 543d ca9b 98be 581d b5bd
000002e0: 6ca3 113e 5fdf f93d 0c6e a23c e072 e03d
000002f0: 447e 11be 86d6 8d3e 6a44 8fbd e6de 883c
00000300: 95fe 51bd a96f febc a08e 603e fb8d 81be
00000310: 5e12 60be f104 b13d 5344 2d3e 2a22 103e
00000320: 824c 323e 846d 1a3e 8b71 c63c afda 8a3e
00000330: acc8 cc3c 4313 253e ff21 b73c 43a7 a73c
00000340: 2ac6 1ebe ca35 7ebe 161e da3d 922d 443e
00000350: a6a5 05be 4dca 43bd 0f76 6a3e 084b 3c3c
00000360: 3fd2 353e f843 373e 8b5d d8bd 56d2 a33e
00000370: 11b9 f3bd ee6f 173e 0f17 8bba d003 603d

encoder_mean.8.bias f4 [14]
-6.128653e-05 -0.00017862274 2.5938272e-05 -6.986377e-05 2.7259613e-05 -0.00014067398 0.00018653908 0.00018247607
0.00033314302 0.0001848929 -0.00026365617 1.1902956e-05 0.00013641614 -8.404245e-05
00000000: f586 80b8 ad4c 3bb9 0496 d937 d383 92b8
00000010: 93ab e437 e281 13b9 b499 4339 0c57 3f39
00000020: b3a9 ae39 cfdf 4139 553b 8ab9 cfb2 4737
00000030: ee0a 0f39 f23f b0b8

encoder_mean.9.weight f4 [14]
0.8222301 0.8186214 0.7994345 1.0941302 0.73984337 0.933002 0.86871326 0.84388345
0.82237893 0.77712405 0.75219315 0.7713823 0.91620857 0.9490173
00000000: ac7d 523f 2c91 513f bda7 4c3f 750c 8c3f
00000010: 6066 3d3f 38d9 6e3f fe63 5e3f bf08 583f
00000020: 6d87 523f 9af1 463f bb8f 403f 4f79 453f
00000030: a58c 6a3f ccf2 723f

encoder_mean.9.bias f4 [14]
-0.10809636 0.15708914 0.0147780385 0.22339119 0.0049915505 0.011038807 0.13447621 0.29662699
0.19011042 0.065970436 0.20880133 -0.027137842 0.024082681 0.2993549
00000000: a061 ddbd fadb 203e 961f 723c a9c0 643e
00000010: 2990 a33b 1ddc 343c 22b4 093e 7edf 973e
00000020: 4eac 423e 821b 873d 04d0 553e 2e50 debc
00000030: 0b49 c53c 0c45 993e

encoder_mean.9.running_mean f4 [14]
-0.33602598 -0.5097919 -0.31886777 0.080860615 0.08799098 -0.24616435 -0.66784763 -0.34540814
-0.56517327 -0.6641214 -0.12080062 0.16101792 0.33502498 0.18706605
00000000: 990b acbe b981 02bf a342 a3be 409a a53d
00000010: 9d34 b43d 8212 7cbe 10f8 2abf 56d9 b0be
00000020: 32af 10bf dc03 2abf 5166 f7bd e2e1 243e
00000030: 6588 ab3e 3e8e 3f3e

encoder_mean.9.running_var f4 [14]
0.16123863 1.2823911 0.50843567 0.4104886 0.31518847 0.611392 0.5187125 0.718397
0.56784636 0.5754079 0.86941206 0.5999308 0.359155 0.47608373
00000000: bd1b 253e 6425 a43f d728 023f 902b d23e
00000010: 6260 a13e 3084 1c3f 58ca 043f dee8 373f
00000020: 615e 113f ef4d 133f ca91 5e3f 1195 193f
00000030: 2ae3 b73e 3fc1 f33e

encoder_mean.12.weight f4 [12, 14]
0.31931198 0.1534636 0.22263929 -0.12720972 -0.05441963 -0.025306135 -0.27805313 -0.05757865
-0.19556087 -0.37975162 0.0630509 0.16388181 -0.12938325 -0.04788227 0.023650078 -0.009978437
0.18160342 -0.2936008 -0.24012077 -0.19365446 0.048319705 -0.1605997 -0.18554328 -0.0145071
0.07371487 0.08653773 -0.25630984 -0.24508718 -0.034832917 -0.052598584 -0.07664945 0.45693418
0.00043569334 -0.040150046 0.031309597 0.058618 0.119594686 0.053387556 -0.049956482 0.21541794
-0.21308534 -0.22134563 -0.0103487605 0.1681438 0.12937675 -0.07746617 -0.121677235 0.35545468
-0.18894841 -0.26642624 -0.25333908 -0.25137216 0.18045081 0.15886033 -0.108160324 -0.014384332
0.10934265 0.27449885 0.18985675 0.07271611 -0.09552878 -0.0053703333 -0.33556163 -0.32595038
-0.33616278 -0.033346433 0.170713 0.19540617 0.15500064 0.028610142 0.035750564 0.034802936
-0.11506017 0.20676203 -0.07718121 0.13994715 -0.33879772 -0.20213777 -0.23260437 -0.27557638
0.2103271 -0.16238585 0.29957542 0.21167445 -0.1463817 -0.23518033 -0.43058705 0.08803475
-0.04988474 -0.20342527 0.07433477 -0.11682573 -0.12585616 -0.22986138 -0.18741661 -0.021427782
0.2978342 0.1574224 0.35265243 -0.030069161 -0.013733501 -0.10272104 0.010717675 0.20358893
-0.16921295 -0.2850252 0.0027531665 -0.09162812 -0.14724192 -0.17207196 -0.07697702 -0.2081592
0.15358111 0.1128789 -0.08009131 -0.16771306 -0.13452332 0.2063089 -0.11250532 -0.2805625
-0.03749094 0.056200106 0.31523663 0.20854372 -0.14250484 -0.1965586 0.3723041 0.097520635
0.1490151 -0.27455288 -0.19367115 -0.15837765 0.36435226 -0.094528526 0.33084407 0.38038132
0.1848954 -0.15820886 0.043058988 -0.22046237 -0.26026085 -0.12638801 0.039616436 -0.2768936
-0.13807468 -0.2263103 -0.13271104 -0.03577473 -0.13907176 -0.06655725 -0.14888482 -0.053546432
0.28736797 0.2917221 -0.03659582 -0.15329772 -0.12844568 0.053106237 0.11295433 -0.18421213
-0.110181406 -0.16391557 0.25302696 -0.1513347 0.068513766 -0.017238194 0.37738553 0.40364975
00000000: dc7c a33e 9025 1d3e 8efb 633e 4443 02be
00000010: 1ee7 5ebd d04e cfbc fb5c 8ebe 97d7 6bbd
00000020: 1c41 48be ce6e c2be d520 813d a2d0 273e
00000030: 0b7d 04be 3320 44bd cfbd c13c 997c 23bc
00000040: 3ff6 393e d852 96be 38e2 75be 5b4d 46be
00000050: e2ea 453d 3f74 24be 0fff 3dbe 30af 6dbc
00000060: d2f7 963d b23a b13d 0b3b 83be 22f8 7abe
00000070: f6ac 0ebd 9d71 57bd 63fa 9cbd 47f3 e93e
00000080: c56d e439 6074 24bd 7e3e 003d 6e19 703d
00000090: 0fee f43d e9ac 5a3d 2b9f 4cbd 8596 5c3e
000000a0: 0b33 5abe 6ea8 62be d98d 29bc e32d 2c3e
000000b0: 577b 043e 95a6 9ebd ea31 f9bd 28fe b53e
000000c0: b17b 41be 0569 88be a9b5 81be dab3 80be
000000d0: 19c8 383e 48ac 223e 2983 ddbd 43ac 6bbc
000000e0: 0aef df3d 1d8b 8c3e cf69 423e 2fec 943d
000000f0: 98a4 c3bd 9ff9 afbb bcce abbe f8e2 a6be
00000100: 871d acbe 4596 08bd 64cf 2e3e 8e18 483e
00000110: 7db8 1e3e d15f ea3c 2f6f 123d 868d 0e3d
00000120: aba4 ebbd 6db9 533e 2f11 9ebd 4e4e 0f3e
00000130: e576 adbe 34fd 4ebe d72f 6ebe 5918 8dbe
00000140: fd5f 573e 7a48 26be f361 993e 30c1 583e
00000150: 16e5 15be 1dd3 70be e875 dcbe 904b b43d
00000160: f153 4cbd b74e 50be d43c 983d 5442 efbd
00000170: 70e0 00be c860 6bbe 24ea 3fbe 5189 afbc
00000180: b97d 983e 5633 213e dc8e b43e 9a53 f6bc
00000190: 7a02 61bc 695f d2bd 3099 2f3c 9e79 503e
000001a0: 2946 2dbe d3ee 91be 786e 343b 86a7 bbbd
000001b0: 96c6 16be a233 30be 21a6 9dbd af27 55be
000001c0: 5e44 1d3e 0d2d e73d ea06 a4bd f9bc 2bbe
000001d0: 7bc0 09be a442 533e 3069 e6bd e3a5 8fbe
000001e0: 1a90 19bd 1532 663d b266 a13e 7c8c 553e
000001f0: caec 11be a846 49be a59e be3e e6b8 c73d
00000200: 6a97 183e 3292 8cbe bb51 46be c02d 22be
00000210: 618c ba3e 2c98 c1bd 6564 a93e 57c1 c23e
00000220: 3855 3d3e 8101 22be 9f5e 303d e3c0 61be
00000230: e940 85be dc6b 01be d844 223d ffc4 8dbe
00000240: 7363 0dbe e3bd 67be 67e5 07be 8688 12bd
00000250: d468 0ebe 2b4f 88bd 4375 18be 8153 5bbd
00000260: e521 933e 995c 953e 80e5 15bd 14fa 1cbe
00000270: 4487 03be ed85 593d 9a54 e73d 1ba2 3cbe
00000280: caa6 e1bd 7cd9 27be c08c 813e 7cf7 1abe
00000290: f250 8c3d 1d37 8dbc ad38 c13e 2eab ce3e

encoder_mean.12.bias f4 [12]
3.582707e-05 -5.4268872e-05 -0.00010341881 3.5439083e-05 0.00032680997 -2.223772e-06 2.9529787e-05 3.9348426e-05
0.00023326167 -0.0002795011 4.2497563e-06 -8.287505e-05
00000000: 0645 1638 c29e 63b8 8de2 d8b8 6da4 1438
00000010: b157 ab39 1d3c 15b6 bcb6 f737 0d0a 2538
00000020: b497 7439 018a 92b9 2199 8e36 34cd adb8

encoder_mean.13.weight f4 [12]
0.7957613 0.8584359 1.3042839 0.98591065 0.8434705 0.923705 1.1556553 0.8725326
0.8756919 1.1056471 1.1603926 1.0874938
00000000: 03b7 4b3f 75c2 5b3f c6f2 a63f a464 7c3f
00000010: afed 573f ee77 6c3f 83ec 933f 4c5e 5f3f
00000020: 582d 603f d885 8d3f bf87 943f ff32 8b3f

encoder_mean.13.bias f4 [12]
-0.18416256 0.020288512 -0.025844451 -0.009907663 -0.10644781 0.15488845 0.41285637 -0.1400212
0.13658388 0.27711862 0.29342917 0.3500213
00000000: 1c95 3cbe 1834 a63c beb7 d3bc c053 22bc
00000010: 4f01 dabd 149b 1e3e e961 d33e b861 0fbe
00000020: a5dc 0b3e 7ee2 8d3e 593c 963e fe35 b33e

encoder_mean.13.running_mean f4 [12]
-0.24107614 -0.5293392 0.09272434 -0.22161692 -0.13092218 -0.11967201 -0.40786403 -0.38908288
-0.16192816 0.35248902 -0.3967817 0.14859763
00000000: aadc 76be c682 07bf 42e6 bd3d 8cef 62be
00000010: 7710 06be 9916 f5bd 8ed3 d0be df35 c7be
00000020: 7fd0 25be 7179 b43e f926 cbbe fa29 183e

encoder_mean.13.running_var f4 [12]
0.2521253 0.3664415 0.053991288 0.6307216 0.45454922 0.546711 0.7102352 0.084144875
0.5879206 0.68792236 0.3025562 0.57515275
00000000: 9116 813e 389e bb3e f825 5d3d f976 213f
00000010: adba e83e 41f5 0b3f f9d1 353f 2654 ac3d
00000020: f781 163f ae1b 303f a5e8 9a3e 363d 133f

encoder_mean.16.weight f4 [10, 12]
-0.0052663498 0.32773402 0.15500176 0.000716533 -0.0336498 0.22529547 -0.18680558 0.07784088
-0.067788996 -0.31036183 0.0775933 -0.15922378 -0.22377147 -0.156245 -0.063223645 0.09038707
-0.24591589 -0.048595134 -0.17651698 -0.04293157 0.17082492 0.21478517 -0.15013592 -0.1477237
-0.15181541 -0.14431868 -0.008090125 -0.10934484 -0.22682902 -0.02465514 -0.0144077325 -0.13730441
0.27495953 0.019664519 -0.090403855 0.14340925 0.024543988 -0.0846842 0.6286537 0.2594574
0.31024128 0.31529954 0.32526392 0.099933535 0.06140585 -0.37184846 0.076664224 0.33294162
0.31651154 0.30078158 -0.26476178 -0.22326672 0.14793423 -0.089178085 -0.07263793 0.025482042
0.029976297 0.0380037 -0.28138527 -0.12884535 -0.2456424 -0.2772276 0.24199413 -0.30324024
-0.20045301 -0.22567554 0.51118416 -0.23492382 -0.2196514 -0.09546265 0.56183887 0.39171913
-0.15969345 0.113420635 -0.013049392 -0.28145978 -0.016669288 0.1383325 0.103670925 -0.22178723
-0.2158449 0.18797077 0.085181236 0.27271646 0.122360915 -0.25863624 0.48825228 -0.108439535
0.048789356 0.3321691 0.43579814 -0.19097345 -0.10565323 -0.792555 0.76674104 0.47791594
-0.17610356 0.23125643 0.22340629 0.0898011 -0.11631559 -0.10117566 0.29274243 0.03222162
0.08533016 -0.35109577 0.09658695 0.100347705 -0.266399 -0.1976048 -0.14004794 0.04165862
-0.07025908 -0.11349249 -0.11800407 0.021847267 -0.017976636 0.14269361 -0.0028999967 -0.028168267
00000000: 5891 acbb c1cc a73e c8b8 1e3e b7d5 3b3a
00000010: 5fd4 09bd dbb3 663e f649 3fbe 0a6b 9f3d
00000020: f5d4 8abd bfe7 9ebe 3ce9 9e3d 8f0b 23be
00000030: 5924 65be b0fe 1fbe 667b 81bd db1c b93d
00000040: 60d1 7bbe b10b 47bd dec0 34be 04d9 2fbd
00000050: baec 2e3e a5f0 5b3e 3bbd 19be e244 17be
00000060: 8075 1bbe 47c8 13be 728c 04bc 30f0 dfbd
00000070: de45 68be 93f9 c9bc 690e 6cbc 8799 0cbe
00000080: 7fc7 8c3e 7c17 a13c a825 b9bd e0d9 123e
00000090: 7910 c93c e96e adbd 73ef 203f 9ad7 843e
000000a0: f2d7 9e3e f16e a13e fe88 a63e f4a9 cc3d
000000b0: b384 7b3d ec62 bebe 2202 9d3d 5377 aa3e
000000c0: cd0d a23e 0b00 9a3e db8e 87be 08a0 64be
000000d0: 127c 173e 00a3 b6bd 32c3 94bd b7bf d03c
000000e0: da90 f53c c5a9 1b3d bb11 90be 09f0 03be
000000f0: ae89 7bbe c7f0 8dbe 4fcd 773e 4e42 9bbe
00000100: 8e43 4dbe 7d17 67be f7dc 023f df8f 70be
00000110: 4cec 60be ec81 c3bd acd4 0f3f 698f c83e
00000120: ae86 23be 1449 e83d 1ecd 55bc 7f1b 90be
00000130: 088e 88bc 09a7 0d3e 6c51 d43d 311c 63be
00000140: 7206 5dbe 697b 403e 8073 ae3d 7ea1 8b3e
00000150: 5c98 fa3d f86b 84be 34fc f93e 8c15 debd
00000160: 59d7 473d 1112 aa3e ef20 df3e 8b8e 43be
00000170: b860 d8bd e2e4 4abf 2449 443f 66b1 f43e
00000180: 7e54 34be 7cce 6c3e 9ec4 643e a4e9 b73d
00000190: de36 eebd 2f35 cfbd 56e2 953e d1fa 033d
000001a0: 94c1 ae3d d3c2 b3be 61cf c53d 1983 cd3d
000001b0: 7365 88be ea58 4abe ba68 0fbe 3ba2 2a3d
000001c0: fee3 8fbd c06e e8bd 1eac f1bd 0af9 b23c
000001d0: bd43 93bc 461e 123e df0d 3ebb 23c1 e6bc

encoder_mean.16.bias f4 [10]
0.17513053 0.2646333 0.07977986 -0.71981484 0.24842142 -0.4298095 -0.22423235 -0.58442706
-0.23070611 0.25644618
00000000: 6b55 333e 047e 873e a063 a33d c945 38bf
00000010: 2f62 7e3e fe0f dcbe 2a9d 65be 039d 15bf
00000020: 393e 6cbe ea4c 833e

encoder_var.0.weight f4 [20, 30]
0.022706928 -0.01921073 0.022054208 0.01219568 -0.017010553 -0.028097846 0.0046648714 0.009265883
-0.0037281336 0.010833609 -0.014762421 0.0010341033 -0.0023814386 0.0062731607 -0.035683375 -0.017470788
-0.007036379 -0.025523935 0.06759163 -0.0047058337 0.010648793 0.016398434 0.02304384 -0.00666353
-0.0049782605 -0.0043005287 0.015785309 -0.0067430646 0.0056432798 -0.080070056 0.019438608 -0.0036068766
-0.01718827 0.017449547 0.0121244555 0.002899119 -0.0027955736 0.006580545 0.0015329489 0.012799278
-0.0116382055 -0.00065852405 0.018600648 -0.009315821 0.029553974 -0.026281573 0.005366179 -0.017124813
0.021464601 -0.014555172 0.0130477045 0.02938285 -0.010059746 0.047643617 -0.019680142 -0.012837733
-0.017631771 -0.0045334683 -0.001511054 0.007035402 0.030682003 -0.00407261 0.012101545 -0.0012741134
0.01986162 -0.026167933 0.005050078 0.014074099 -0.0021608355 0.038231242 -0.010313783 -0.0017420271
-0.025334695 0.017578842 0.018140081 0.026071485 -0.0027418565 -0.008686147 -0.001179264 -0.021735486
-0.0025862479 0.0027378646 -0.00042046254 0.0035227526 0.016821858 0.003960929 0.013582509 -0.0006186116
-0.0011576704 -0.13783778 -0.0958135 -2.4137293e-05 0.014432513 -0.0099792415 0.086179964 0.06359118
-0.0104344245 -0.0018573871 0.00054412696 0.028980223 0.01372923 -0.005456905 0.00272725 0.050477527
-0.038512856 -0.08587269 -0.0077542244 -0.053978037 0.08708122 -0.007177053 -0.010364997 0.0030508297
-0.0027277549 0.054886065 -0.014518482 0.0011667068 -0.03507447 -0.055261195 -0.0721563 -0.22778524
0.28127798 0.029952126 -0.0139384195 -0.01312075 -0.0005611003 -0.0015563045 0.0052414136 -0.0071019805
0.011301093 0.011369437 0.021050638 0.013295825 -0.005841838 -0.011111348 0.010902828 -0.006576303
0.018317094 0.0064757033 -0.06806326 0.030905893 -0.015102594 0.011673776 0.013622047 0.018552685
0.0054297135 -0.003213998 0.00030607524 -0.005339312 -0.0008181672 0.06857777 0.5525838 0.0500765
0.06678644 0.05211916 0.010396603 0.03440606 0.010599448 0.02500599 0.046922807 0.024014315
0.01564165 -0.037708156 0.012290093 0.036175743 0.044596683 0.031216392 0.04866813 0.024682954
-0.16208118 0.002435937 0.0334667 -0.028738003 0.0116917575 -0.025883745 -0.011895679 0.010355794
-0.005174413 -0.0049242442 -0.008250955 -0.02147897 0.03197777 -0.017283509 0.011821275 0.0309601
-0.0051831524 0.018136045 -0.012097754 0.00123685 0.008418669 0.017347617 0.0015493874 -0.00035377312
0.046781465 -0.0104089035 -0.017875511 -0.045954388 -0.018057404 -0.00977348 0.062237438 -0.001723002
0.030642495 -0.0022655607 -0.0062487465 -0.013727055 -0.013751591 -0.0058119693 0.0036000176 0.014218408
-0.014575422 0.01641822 -0.0037799722 0.00077289133 -0.014007635 0.0012716767 0.0327945 -0.012116847
0.0065082577 3.136949e-05 -0.00051177054 0.028125226 0.0005218269 -0.000255959 -0.0017321687 -0.0077762916
-0.001905746 -0.03375991 -0.01702373 0.0023117044 -0.0042341184 0.03999528 0.001161556 -0.0073161526
0.022157969 -0.008349633 0.007155747 0.053074967 -0.064161256 -0.02071509 0.028104855 0.04867205
0.093026996 -0.022786463 -0.0099695865 -0.02365014 0.013903689 -0.030574998 0.01839104 -0.010258321
-0.009878424 0.013736798 0.0070905183 0.020543948 -0.00816742 0.005610039 0.0061498513 0.049863774
00000000: e103 ba3c d25f 9dbc 07ab b43c 64d0 473c
00000010: b759 8bbc 742d e6bc c7db 983b eecf 173c
00000020: b453 74bb 737f 313c 15de 71bc c08a 873a
00000030: e911 1cbb 168f cd3b bb28 12bd e61e 8fbc
00000040: 6d91 e6bb 9217 d1bc 7b6d 8a3d 6533 9abb
00000050: 4678 2e3c 0256 863c 6fc6 bc3c be59 dabb
00000060: ad20 a3bb 73eb 8cbb 3150 813c edf4 dcbb
00000070: 43eb b83b c5fb a3bd b73d 9f3c 5961 6cbb
00000080: 6ace 8cbc 5af2 8e3c a7a5 463c 25ff 3d3b
00000090: f135 37bb 9da1 d73b 3bed c83a 10b4 513c
000000a0: 2cae 3ebc cda0 2cba 6360 983c 63a1 18bc
000000b0: 2d1b f23c 744c d7bc c6d6 af3b 5649 8cbc
000000c0: 88d6 af3c d178 6ebc 0ac6 553c 4db4 f03c
000000d0: a2d1 24bc f425 433d 4038 a1bc 5b55 52bc
000000e0: 8170 90bc 7d8d 94bb 8f0e c6ba 3b89 e63b
000000f0: d358 fb3c 8773 85bb 8f45 463c 2700 a7ba
00000100: d6b4 a23c 225e d6bc 207b a53b 0d97 663c
00000110: ce9c 0dbb 5d98 1c3d 24fb 28bc bb54 e4ba
00000120: b58a cfbc 8101 903c 829a 943c de93 d53c
00000130: b8b0 33bb 5750 0ebc 8991 9aba 9e0e b2bc
00000140: 0a7e 29bb bf6d 333b 8771 dcb9 fbdd 663b
00000150: fecd 893c aeca 813b 2c89 5e3c 522a 22ba
00000160: f9bc 97ba 5925 0dbe de39 c4bd 717a cab7
00000170: 5976 6c3c f97f 23bc 1f7f b03d 183c 823d
00000180: 26f5 2abc 9273 f3ba bea3 0e3a ef67 ed3c
00000190: 90f0 603c d6cf b2bb aabb 323b 86c1 4e3d
000001a0: a8bf 1dbd 05de afbd 2617 febb 1318 5dbd
000001b0: a357 b23d 7c2d ebbb f3d1 29bc 6ef0 473b
000001c0: 22c4 32bb 36d0 603d edde 6dbc 2fec 983a
000001d0: 3faa 0fbd 9059 62bd afc6 93bd 8940 69be
000001e0: ab03 903e 295e f53c f85d 64bc 6af8 56bc
000001f0: ce16 13ba eafc cbba 2ac0 ab3b bbb7 e8bb
00000200: 3828 393c e046 3a3c 6372 ac3c bbd6 593c
00000210: e46c bfbb 5f0c 36bc c6a1 323c 077e d7bb
00000220: bb0d 963c 2332 d43b c064 8bbd 5b2e fd3c
00000230: df70 77bc 5e43 3f3c 022f 5f3c cdfb 973c
00000240: bdeb b13b f0a1 52bb b978 a039 65f5 aebb
00000250: 457a 56ba 8072 8c3d 2276 0d3f 041d 4d3d
00000260: 54c7 883d e67a 553d 8356 2a3c 5eed 0c3d
00000270: 4fa9 2d3c 5dd9 cc3c 2132 403d abb9 c43c
00000280: eb22 803c de73 1abd 635c 493c 042d 143d
00000290: 03ab 363d 85b9 ff3c 3c58 473d e833 ca3c
000002a0: 9cf8 25be 3ea4 1f3b 6114 093d f66b ebbc
000002b0: c98e 3f3c 260a d4bc 18e6 42bc 59ab 293c
000002c0: 1f8e a9bb 8e5b a1bb 032f 07bc aaf4 afbc
000002d0: 1ffb 023d 2596 8dbc 05ae 413c 09a0 fd3c
000002e0: 6fd7 a9bb 0b92 943c a835 46bc cd1d a23a
000002f0: 75ee 093c 971c 8e3c d014 cb3a a07a b9b9
00000300: ec9d 3f3d 1b8a 2abc aa6f 92bc ab3a 3cbd
00000310: 1fed 93bc f220 20bc afec 7e3d 5ad6 e1ba
00000320: f805 fb3c cd79 14bb 49c2 ccbb 71e7 60bc
00000330: 5a4e 61bc 5572 bebb 46ee 6b3b 53f4 683c
00000340: c0cd 6ebc 817f 863c 69b9 77bb dc9b 4a3a
00000350: 4880 65bc 64ae a63a 8753 063d bd85 46bc
00000360: 3943 d53b bc92 0338 5728 06ba e066 e63c
00000370: 36cb 083a 3c32 86b9 f009 e3ba 43d0 febb
00000380: 39ca f9ba d547 0abd 5975 8bbc f77f 173b
00000390: 5cbe 8abb 17d2 233d 5a3f 983a 56bc efbb
000003a0: a184 b53c e6cc 08bc c27a ea3b 2365 593d
000003b0: fa66 83bd b1b2 a9bc 273c e63c 585c 473d
000003c0: f084 be3d adaa babc 7a57 23bc f0bd c1bc
000003d0: 4ccc 633c 6b78 fabc cea8 963c 8412 28bc
000003e0: 1dd9 21bc 4f10 613c 9457 e83b c84b a83c
000003f0: a4d0 05bc 6bd4 b73b b184 c93b f53d 4c3d

encoder_var.0.bias f4 [20]
1.38971745e-05 -0.000113005386 1.3524544e-05 4.0197345e-05 -0.00023877129 -2.7582334e-06 -0.00011507507 -1.6017253e-05
5.1215367e-05 -4.74295e-05 3.2809503e-06 -3.0436026e-05 -1.0617046e-05 7.302359e-05 -0.00024248012 -6.0419414e-05
-5.5952445e-05 -0.00013393197 -8.011397e-06 -9.974563e-05
00000000: e927 6937 4efd ecb8 79e7 6237 9299 2838
00000010: ae5e 7ab9 171a 39b6 7554 f1b8 ca5c 86b7
00000020: 15d0 5638 0aef 46b8 4c2e 5c36 de50 ffb7
00000030: de1f 32b7 3e24 9938 4342 7eb9 da6a 7db8
00000040: 7bae 6ab8 1770 0cb9 b068 06b7 872e d1b8

encoder_var.1.weight f4 [20]
0.15913206 0.19704247 0.1367667 0.22022888 0.16721064 0.32642716 0.18781485 0.22951376
0.14133595 0.13321368 0.24679042 0.1727538 0.17665029 0.14874439 0.1573846 0.13124387
0.16700938 0.118621595 0.20189556 0.17589554
00000000: 84f3 223e 80c5 493e 920c 0c3e ae83 613e
00000010: 4439 2b3e 7621 a73e 8952 403e a805 6b3e
00000020: 5fba 103e 2b69 083e a1b6 7c3e 5fe6 303e
00000030: d0e3 343e 7350 183e 6e29 213e cb64 063e
00000040: 8204 2b3e e1ef f23d b6bd 4e3e f61d 343e

encoder_var.1.bias f4 [20]
-0.0032916071 -0.019734157 0.004902798 0.012198764 0.07754868 0.052107263 -0.01748101 -0.004897418
0.018084442 -0.020711107 -0.017715711 0.014751474 -0.0059795403 0.0027728952 -0.0130779585 0.006471302
-0.0028830958 -0.013054922 0.0020426407 -0.013188945
00000000: 01b8 57bb 87a9 a1bc a7a7 a03b 53dd 473c
00000010: d8d1 9e3d 6d6e 553d 5634 8fbc 857a a0bb
00000020: d325 943c 57aa a9bc 8a20 91bc 2bb0 713c
00000030: 05f0 c3bb 76b9 353b ef44 56bc 370d d43b
00000040: 52f2 3cbb 50e4 55bc d3dd 053b 7216 58bc

encoder_var.1.running_mean f4 [20]
-0.09279245 -0.011343921 -0.055131663 -0.32460597 0.25197828 0.33084562 -0.00386104 0.034421034
0.07321743 -0.26803708 -0.028801631 0.14481606 -0.018412568 0.083906144 0.040830053 -0.15169998
0.07855172 0.022422122 0.000616192 -0.10273567
00000000: f809 bebd dadb 39bc bdd1 61bd c132 a6be
00000010: 4c03 813e 9964 a93e 8109 7dbb 12fd 0c3d
00000020: 05f3 953d 283c 89be 66f1 ebbc a94a 143e
00000030: f4d5 96bc fcd6 ab3d 6a3d 273d 3d57 1bbe
00000040: b9df a03d 99ae b73c f287 213a 1467 d2bd

encoder_var.1.running_var f4 [20]
0.003207068 0.0028623485 0.003797291 0.009701389 0.003522964 0.0081830425 0.0036193104 0.0056307456
0.0018077522 0.008620082 0.006265696 0.0024985154 0.007069385 0.0014574622 0.0030520053 0.0044543208
0.0024881363 0.0016442635 0.0018779021 0.003328817
00000000: ac2d 523b 3d96 3b3b f9db 783b 93f2 1e3c
00000010: 87e1 663b 2b12 063c f431 6d3b 1e82 b83b
00000020: 19f2 ec3a 3f3b 0d3c 7850 cd3b 22be 233b
00000030: 4da6 e73b 5108 bf3a 2704 483b 8df5 913b
00000040: 0010 233b 5484 d73a f023 f63a 4828 5a3b

encoder_var.4.weight f4 [16, 20]
0.030691834 0.0034613428 0.008111649 -0.016358247 0.01654693 0.105624095 0.02513533 -0.032730434
0.01248998 0.024184981 0.008411372 -0.004858867 0.0011398135 -0.0042565605 -0.002150686 0.022392439
0.023610698 -0.047064114 0.030417172 0.022821862 -0.03824568 -0.021557916 -0.0011234822 -0.0060794633
-0.07034863 -0.053667113 -0.013020469 -0.005247168 -0.026725568 0.016447883 -0.0006521063 -0.045138277
0.037147988 0.016248621 -0.02847902 0.008195848 -0.0031999864 0.022720756 -0.018121537 0.0015659346
-0.021722421 -0.00064127665 0.006059938 -0.08157555 0.086697295 -0.00063230516 -0.009210442 0.0074778195
0.024339303 0.04112866 -0.015438445 0.00952574 0.0015247077 0.01939938 0.0018420778 -0.0125318905
0.001229157 0.015528368 -0.0136692105 0.008566264 -0.05036277 0.015378902 -0.011088869 -0.061501004
0.06016687 0.05365219 -0.030156048 0.023078935 -0.0110008465 -0.006606771 0.008771609 0.017432962
0.013988065 -0.0067704245 -0.022507764 -0.0116043445 0.020816084 -0.008126665 0.00018160525 -0.01158927
-0.009651362 -0.0010973153 -0.037459128 -0.012579132 -0.05363837 -0.044459254 -0.025224648 -0.004348166
-0.04541087 -0.005835008 0.0024089194 -0.021307888 0.029710216 0.022327032 -0.017096432 -0.00017482502
-0.0040110303 0.00939612 -0.01883091 0.004449534 0.047465846 0.01756752 0.0064387084 0.016829986
-0.0029275913 0.025828453 0.010704064 -0.01017368 0.017249845 -0.00065425 0.0041209315 0.00985846
-0.0003987726 -0.014029777 0.022210406 -0.00837113 0.012102387 -0.011044011 0.023590654 -0.01624139
-0.013366091 -0.016037716 -0.03767566 -0.03228021 -0.080930986 -0.046697214 -0.00020152127 0.021707563
-0.028891524 -0.01012879 0.010132008 -0.038868576 0.010642362 0.0042697736 -0.03694044 -0.0019920238
-0.007473577 0.01411522 0.0104650725 0.022479517 -0.029696424 -0.008678138 -0.038260527 0.022575412
-0.019342873 -0.056774702 0.006925725 -0.024096357 -0.0044019287 -0.022843486 -0.019735938 -0.010056091
0.037989765 -0.004988873 -0.03962175 0.00826914 -0.049891815 0.0061761267 0.02864317 0.013388909
0.02800947 0.0005156617 0.0034507448 -0.015539962 0.030154025 0.18947247 0.017695414 0.00687243
-0.025384244 0.011485218 -0.007936073 -0.025111351 0.015515224 0.02033636 -0.0043849307 0.030836629
-0.008750257 -0.011218615 -0.020789934 -0.008389767 -0.0105710635 -0.008272655 0.08308614 0.036428314
-0.011538231 -0.024242057 0.0010435836 0.0026363486 -0.029297184 0.041018777 -0.014533437 0.013490705
0.0125047015 -0.011893204 -0.007105877 0.059127185 -0.0026066503 -0.008593277 -0.003526521 -0.0066283536
0.076150574 0.017136918 0.06773863 -0.009416066 -0.019803006 -0.059419416 0.0018441015 -0.0012654889
-0.0018136825 0.07024015 0.020635456 0.0095838765 -0.006957909 0.0049401266 0.0038093065 0.0028345746
0.031433832 -0.006573435 -0.014033213 -0.015601709 -0.02367133 0.0044505247 0.017516896 -0.021251066
0.0053583058 0.08652578 0.0002160736 -0.019783748 0.0032626074 -0.028139926 -0.033655442 0.015578756
-0.010625731 0.03298081 0.004445354 -0.0070646456 0.031174134 -0.035093363 0.0028621145 0.008378768
-0.003167027 0.018046286 -0.0342705 -0.017784713 0.048937872 -0.046351362 -0.003960493 0.026377097
0.024107087 -0.0039698654 -0.0041037137 0.05678486 0.017272584 0.003599784 0.054059967 -0.040032636
00000000: 716d fb3c b2d7 623b b9e6 043c bb01 86bc
00000010: 6d8d 873c 7251 d83d 9ce8 cd3c 5910 06bd
00000020: c6a2 4c3c 951f c63c dacf 093c 2137 9fbb
00000030: cb65 953a 9e7a 8bbb 86f2 0cbb 5970 b73c
00000040: 396b c13c 4dc6 40bd 6f2d f93c eaf4 ba3c
00000050: 81a7 1cbd 3a9a b0bc cf41 93ba 3c36 c7bb
00000060: f112 90bd 0cd2 5bbd ce53 55bc 6ff0 abbb
00000070: 94ef dabc b6bd 863c 1df2 2aba eae2 38bd
00000080: 7d28 183d d41b 853c d54c e9bc e147 063c
00000090: ddb6 51bb e120 ba3c 9e73 94bc 0c40 cd3a
000000a0: 38f3 b1bc 591b 28ba 7292 c63b 1511 a7bd
000000b0: 5a8e b13d 48c1 25ba 65e7 16bc 7f08 f53b
000000c0: 3863 c73c 8776 283d 88f1 7cbc d911 1c3c
000000d0: b3d8 c73a 73eb 9e3c e071 f13a 8f52 4dbc
000000e0: aa1b a13a b26a 7e3c d3f4 5fbc 8459 0c3c
000000f0: 3149 4ebd caf7 7b3c 16ae 35bc 7ae8 7bbd
00000100: 8971 763d 66c2 5b3d d109 f7bc 0910 bd3c
00000110: e53c 34bc 9d7d d8bb cbb6 0f3c 92cf 8e3c
00000120: 322e 653c 70da ddbb 3462 b8bc 2620 3ebc
00000130: 7e86 aa3c b425 05bc 4a6d 3e39 ece0 3dbc
00000140: bf20 1ebc cbd3 8fba be6e 19bd b418 4ebc
00000150: e8b3 5bbd e81a 36bd eca3 cebc 0f7b 8ebb
00000160: c000 3abd 9833 bfbb f6de 1d3b e18d aebc
00000170: d762 f33c 2ee7 b63c d10d 8cbc 3c51 37b9
00000180: f66e 83bb 2ff2 193c 4843 9abc 66cd 913b
00000190: 8c6b 423d c2e9 8f3c cdfb d23b 0adf 893c
000001a0: d5dc 3fbb 3196 d33c 1960 2f3c 82af 26bc
000001b0: 8c4f 8d3c f981 2bba e108 873b 6185 213c
000001c0: 5a12 d1b9 26dd 65bc 99f2 b53c 1027 09bc
000001d0: 1749 463c f1f1 34bc 3041 c13c aa0c 85bc
000001e0: 73fd 5abc 8761 83bc cb51 1abd 4138 04bd
000001f0: 25bf a5bd 9445 3fbd 744f 53b9 0fd4 b13c
00000200: ebad ecbc 39f3 25bc b900 263c a834 1fbd
00000210: 4d5d 2e3c 75e9 8b3b dc4e 17bd 9d8c 02bb
00000220: e8e4 f4bb 8643 673c b275 2b3c f726 b83c
00000230: ea45 f3bc c02e 0ebc 12b7 1cbd 12f0 b83c
00000240: f274 9ebc 978c 68bd 31f1 e23b b965 c5bc
00000250: 0e3e 90bb 4322 bbbc 43ad a1bc 4dc2 24bc
00000260: 289b 1b3d b379 a3bb 6b4a 22bd 497b 073c
00000270: 5c5b 4cbd 1b61 ca3b 15a5 ea3c 285d 5b3c
00000280: 1e74 e53c 792d 073a e425 623b 539b 7ebc
00000290: 9305 f73c 1205 423e f9f5 903c 1f32 e13b
000002a0: 9ef2 cfbc 7f2c 3c3c 4d06 02bc 52b6 cdbc
000002b0: 9133 7e3c 7098 a63c 77af 8fbb 199d fc3c
000002c0: 3d5d 0fbc 48ce 37bc a74f aabc 3c75 09bc
000002d0: 4132 2dbc 088a 07bc 1129 aa3d db35 153d
000002e0: d90a 3dbc 4797 c6bc dbc8 883a 97c6 2c3b
000002f0: a600 f0bc 4e03 283d a71d 6ebc 1e08 5d3c
00000300: 85e0 4c3c b7db 42bc 6bd8 e8bb 592f 723d
00000310: 56d4 2abb d1ca 0cbc 341d 67bb a932 d9bb
00000320: d5f4 9b3d b962 8c3c 8dba 8a3d d845 1abc
00000330: ea39 a2bc c661 73bd c7b5 f13a c3de a5ba
00000340: 16b9 edba 11da 8f3d b00b a93c b105 1d3c
00000350: 2cff e3bb c9e0 a13b 8fa5 793b 45c4 393b
00000360: c3c0 003d f865 d7bb 90eb 65bc 4f9e 7fbc
00000370: 61ea c1bc b5d5 913b 987f 8f3c b716 aebc
00000380: ba94 af3b 6e34 b13d d191 6239 8711 a2bc
00000390: 78d1 553b b485 e6bc 4ada 09bd 0a3e 7f3c
000003a0: 8c17 2ebc e316 073d 55aa 913b 8b7e e7bb
000003b0: e660 ff3c 0fbe 0fbd 5092 3b3b 1a47 093c
000003c0: e58d 4fbb ced5 933c 395f 0cbd 3fb1 91bc
000003d0: 1473 483d edda 3dbd 06c7 81bb c814 d83c
000003e0: 3a7c c53c a515 82bb 7278 86bb 3e97 683d
000003f0: 3c7f 8d3c 5bea 6b3b fc6d 5d3d 43f9 23bd

encoder_var.4.bias f4 [16]
-0.00015256599 -0.00010035375 -4.7595795e-06 6.319229e-05 9.727374e-06 -0.0001460103 -0.00014635806 -2.7015736e-05
-8.186877e-05 8.070879e-06 -0.00030112406 7.632544e-05 6.2037734e-06 -4.4472865e-05 -2.220851e-05 -9.2653805e-05
00000000: 1ffa 1fb9 0275 d2b8 7ab4 9fb6 1a86 8438
00000010: c132 2337 571a 19b9 b177 19b9 da9f e2b7
00000020: f6b0 abb8 2968 0737 30e0 9db9 e910 a038
00000030: 022a d036 6088 3ab8 694c bab7 224f c2b8

encoder_var.5.weight f4 [16]
0.17307694 0.1745034 0.17465533 0.17280334 0.15794198 0.09671845 0.18804406 0.21306622
0.2863673 0.12207326 0.20766108 0.20788416 0.18772918 0.16176806 0.14076464 0.13409628
00000000: 153b 313e 05b1 323e d9d8 323e 5cf3 303e
00000010: 8bbb 213e 5314 c63d 9f8e 403e 082e 5a3e
00000020: bc9e 923e 8c01 fa3d 1ba5 543e 96df 543e
00000030: 143c 403e 87a6 253e 9b24 103e 8950 093e

encoder_var.5.bias f4 [16]
-0.04676916 0.038424455 0.032694202 0.033930212 0.0056183413 -0.051623285 0.007048434 -0.022129422
0.028189763 0.0003485458 0.0010922271 0.012519457 0.027511502 -0.013574993 0.023937782 0.02078027
00000000: 0591 3fbd f662 1d3d 5bea 053d 68fa 0a3d
00000010: 101a b83b f072 53bd 8df6 e63b c348 b5bc
00000020: 38ee e63c 06bd b639 0f29 8f3a 691e 4d3c
00000030: cd5f e13c a669 5ebc 2b19 c43c 633b aa3c

encoder_var.5.running_mean f4 [16]
0.031244842 -0.025443798 0.0067510055 0.008654574 -0.029295225 0.022002159 -0.028668562 -0.021864684
0.033740804 0.0018997866 0.0017108556 0.011770882 -0.0010448713 0.017861491 -0.0063082566 -0.006484056
00000000: 2ff5 ff3c 836f d0bc 8a37 dd3b eacb 0d3c
00000010: 8afc efbc df3d b43c 55da eabc 911d b3bc
00000020: cc33 0a3d 4302 f93a ca3e e03a a8da 403c
00000030: 10f4 88ba 4352 923c 7eb5 cebb 3478 d4bb

encoder_var.5.running_var f4 [16]
0.0017939054 0.0016890407 0.0014150618 0.0025338982 0.0013646383 0.0007560195 0.0013445938 0.00088128267
0.0044564013 0.001498151 0.0018763532 0.001625068 0.0011353866 0.0010819909 0.0005702393 0.000831244
00000000: 7a21 eb3a cd62 dd3a 9879 b93a c20f 263b
00000010: aadd b23a 9c2f 463a 153d b03a e105 673a
00000020: 0107 923b 9b5d c43a f7ef f53a 3c00 d53a
00000030: 41d1 943a 97d1 8d3a 1d7c 153a d7e7 593a
