generativecf/models/bn1-delta-case-0-marign-0.087-ae-reg-0.0-constraint_reg-0.1-validity_reg-96.0-epoch-50-model-approx-gen.pth (torch_old, 30881 bytes, 78 tensors)

encoder_mean.0.weight f4 [20, 4]
00000000: 2345 d43e 1cbc 1b3e 85e6 373e 5507 703d
00000010: 2749 e73e 54a2 b9bd 3f81 993e 3b24 1b3e
00000020: b7bf 12bf b060 df3c 06c0 c13d 6834 50be
00000030: 546d 0fbf 36bc e2bc ecf5 8bbe e6f1 5e3e
00000040: 716b 2d3f 14b7 a5bc 5685 093e 6386 38be
00000050: ee04 52bd 9721 26bd fb6d 9f3e 46cd 893e
00000060: 226e bebd 085a 833e 5c89 c83e c7ac 8f3e
00000070: 2221 743b 99aa 19bf 0252 76be 1722 323e
00000080: db6b 02bc 733e 063e 8b38 c93e d3ab be3e
00000090: 7527 a83e 4b06 b73e 167a 143e debb b33e
000000a0: ff5c 2c3f a680 c1bd 34e7 31bd 1e40 853d
000000b0: 2cdd ab3e 15c8 13bf 9dce 28be 5cc3 243e
000000c0: 9e83 30be f163 1abf a3d3 b8bd a990 c13d
000000d0: 2dbb 073f 365f e9bd 11f4 4c3e 7f30 8cbe
000000e0: 1b41 0e3e 47bf 17bf 20fd d3bd b5fd 4b3d
000000f0: 9d68 083f c741 37be 3b24 2dbe d30d 87bd
00000100: 584e febe 0625 8a3e ba1a 83be 4b9a dabd
00000110: 3512 463c 5b95 1bbf e269 963e 641b b03d
00000120: 327f 1abf ff8a 88bb 98d2 203d 6c9c 77be
00000130: 36df 01bf c71e 98bd df03 873d 761f 50be
0.41458997 0.15208477 0.1795903 0.058600742 0.45172998 -0.09064165 0.2998142 0.1515054
-0.57323784 0.027267784 0.09460454 -0.20332491 -0.56026196 -0.027677637 -0.2733606 0.21771964
0.6774207 -0.0202289 0.1342977 -0.18020014 -0.051274233 -0.040559378 0.31138596 0.26914424
-0.0929835 0.25654626 0.39167297 0.28061506 0.0037251194 -0.60025936 -0.24054721 0.17395817
-0.007960285 0.1310976 0.3930095 0.37240466 0.32842603 0.3574699 0.14499697 0.3510427
0.673294 -0.09448366 -0.043433383 0.0650637 0.33567178 -0.57727176 -0.16485067 0.16090149
-0.17237708 -0.6030875 -0.090247415 0.0945142 0.5301998 -0.11395113 0.20014979 -0.2738075
0.13892023 -0.5927624 -0.10351014 0.0498025 0.5328463 -0.17896186 -0.16908352 -0.06594434
-0.49669147 0.26981372 -0.25606328 -0.1067396 0.012089302 -0.60774773 0.29377657 0.08598974
-0.60350335 -0.0041669603 0.039263338 -0.24180764 -0.5073122 -0.07427745 0.06592535 -0.20324501

encoder_mean.0.bias f4 [20]
00000000: e6d9 ae38 e320 89b7 bbd3 0737 cfbe c336
00000010: ef95 5837 fc8b ab35 5c33 2fb6 343f a035
00000020: 4a69 9e36 2c54 5736 c1b9 a537 5874 f2b5
00000030: 112b 6c38 9f90 8bb6 8abe d632 bbba 5bb7
00000040: e54e 6534 db5a e0b6 9dc4 9639 073b 8336
8.337553e-05 -1.6346987e-05 8.095924e-06 5.833666e-06 1.2909512e-05 1.2781234e-06 -2.6106927e-06 1.1939323e-06
4.721024e-06 3.208649e-06 1.9756031e-05 -1.8064266e-06 5.6306893e-05 -4.159359e-06 2.4999526e-08 -1.3096894e-05
2.1355989e-07 -6.686297e-06 0.00028756718 3.910976e-06

encoder_mean.1.weight f4 [20]
00000000: c26d 133f 6c10 0d3f 25ad 3e3f 067e 163f
00000010: 4fc8 353f a064 f23e f2c6 173f 9fa9 1c3f
00000020: dc1d 213f f675 113f f944 303f 7495 1d3f
00000030: 3757 2f3f cdff 3f3f a789 173f 3e23 393f
00000040: c5dc 1e3f d953 173f 623d 3b3f 659b 0e3f
0.5758935 0.5510318 0.7448295 0.58786047 0.7100877 0.47342396 0.5928794 0.6119632
0.62936187 0.5682062 0.68855244 0.6155617 0.68492454 0.74999696 0.59194416 0.723194
0.6205562 0.59112316 0.7314054 0.55705863

encoder_mean.1.bias f4 [20]
00000000: 1663 c4bd c543 04bf b0c0 3abf a51f d8be
00000010: 9ac3 82be 4494 64be 179f a3be 7ecc c1be
00000020: cfab 90be 03fc 09bf bbfb 12bd 6345 3fbf
00000030: f7d0 b5be 4663 33be 05df b2be fecd 35bf
00000040: ff89 b6be 3f64 21bf d785 e1be e081 1fbe
-0.09589212 -0.5166591 -0.7295027 -0.42211643 -0.25539857 -0.22322184 -0.31957313 -0.37851328
-0.2825608 -0.53900164 -0.0358846 -0.7471525 -0.3551099 -0.17518339 -0.34935775 -0.71017444
-0.35652158 -0.6304359 -0.44047424 -0.15576887

encoder_mean.1.running_mean f4 [20]
00000000: 6a3e b83e 9776 b23e f767 91be fe6e a6be
00000010: 9b49 8c3e 2052 3f3e 772e b53e 5765 a5be
00000020: d5df be3e 70ea 083f 1f2d 953e ccba 0cbe
00000030: edfa c2be d3b3 213e 425e 81be 6aa8 923d
00000040: e034 6dbe b622 07be 4d53 b0be b103 97be
0.35985118 0.34856102 -0.2839963 -0.32506555 0.27399907 0.18683672 0.35387012 -0.3230388
0.37280145 0.53482723 0.29135987 -0.13743132 -0.38082066 0.15791254 -0.25267226 0.07161029
-0.23164701 -0.13196835 -0.34438553 -0.29495004

encoder_mean.1.running_var f4 [20]
00000000: 450b 173c 9bde 6f3c e760 633c e829 e43c
00000010: cfcc bf3c 029b 9d3c c508 d83c efc9 df3c
00000020: 819e 1b3d 0ce4 0c3d 3d38 373c 8b0f b83c
00000030: c0d0 8e3c e88e e23c 77f1 603c 3f7b 003c
00000040: 32a1 593c b070 163c bd72 993c 5957 543c
0.009218995 0.014640476 0.013878084 0.027852014 0.02341309 0.019238953 0.02637137 0.02731797
0.037992958 0.03439717 0.011182842 0.022468349 0.017433524 0.027656034 0.013729445 0.007841884
0.013283061 0.00918214 0.01873147 0.012960278

encoder_mean.4.weight f4 [16, 20]
00000000: 10b9 f3bd 0bf9 43be 0c98 f63c 5748 5c3d
00000010: abd5 333e b54c 62be a9f6 e93c 4ed0 7bbd
00000020: 5f0c 44be ea10 5bbd 87e8 3a3e 838e 09be
00000030: f72e edbd c7e1 133e a1a3 9e3d a6b1 a53e
00000040: 1711 b8bd 675c 863d 692a 32bd a1b9 66bd
00000050: 47c3 c83d dc2d 9e3e 62ea d43d 3f2f 0ebe
00000060: 9ad3 453d dd06 b03c b6fd d83d eafa 1dbe
00000070: 41fd 0d3d d19b 643e d1b9 f33d 6c31 5d3e
00000080: b199 81bd 5b69 95bd cf27 c13d 93d0 1cbe
00000090: d7b5 583d be5b 6d3d 97e6 98bc bfec 05be
000000a0: 3b9b e5bd e63c c0bd 24f0 c83e 02ab d4bd
000000b0: 0deb c1bd 409b 8ebc d651 50bc a91d 19be
000000c0: 233f 26be 8248 b8bd 887b e8bd 68ac 0e3c
000000d0: e558 0cbe 562b 893c 28b8 893c dbe6 9fbd
000000e0: a24b 503d 74fb 02bd 63fa 1e3e 6627 963e
000000f0: c4d6 93bc fe0b c1bc 6ad7 523e 851a 5fbe
00000100: 8d8b 16be b207 cfbd e0d5 48bd 4e5e 03be
00000110: 272e 22be f76c 493d d260 15be a7db 573d
00000120: dff5 9e3b e472 a7bd 781d 523d c5a7 4cbd
00000130: 7f42 703e a7ae 133d 0708 8e3e 2de2 193e
00000140: 78c4 23be 49a5 203e e61f 6f3e 2425 88be
00000150: 5570 6fbe 7b95 1bbe 8254 6cbd 4d72 dc3d
00000160: 9eac 16be 9d26 1a3d da8e 493d 457f 733e
00000170: 4d09 e73c 3bda 7dbe afb3 443e 7602 09be
00000180: 1ec3 083e dc5d 893d 07df 1d3e 8128 533d
00000190: 92bd 8bbd 39bb 47be c481 93bc c8e0 283c
000001a0: 0b7e b83c 3ade 8cbd 9655 503d 8ee4 ddbc
000001b0: dacd 573c 4620 2b3e 6970 863d 307e a53b
000001c0: 3130 92bd 3980 733e e538 3d3d 0354 e53e
000001d0: 6ca8 bf3a 451d 183e e230 ffbd e77f bdbd
000001e0: 92e3 5b3e 6c9d 443e 633f 07be 0a60 46be
000001f0: 9e63 52be d7b1 813d 7647 213e 64d0 48be
00000200: 7028 103e 5287 093e 1bdd e13c fbff febd
00000210: 0ea8 62be 5206 7cbd ca35 27be 5a35 e5bd
00000220: d455 153e 68b8 a8bc bee8 1a3e d342 36be
00000230: 6d10 ca3d 6a54 223d 4e92 1c3e e77b 9cbe
00000240: 4d52 e9bd 2c6f 163e c64d 4c3d b4e4 8cbe
00000250: 51ca 14be 8526 4c3e 59a8 113e 9e27 10be
00000260: 6de3 71bd 89ed 3bbe 1241 afbd b113 2fbe
00000270: 9200 d13d 3d05 8ebd f062 f53d 8393 973d
00000280: c702 0c3d 0e31 e13d 6221 073e eb1d 0fbe
00000290: d6f3 87be a4e6 04be 8c2c 72bd 8786 cabd
000002a0: 2511 293d a7af 5a3e 9c1d ecbc 23ff 74bd
000002b0: dfb9 02be e5bb a8be aaf3 50bd 1c10 8fbd
000002c0: 12c9 383e 868a 743c 754b d23d 2107 433e
000002d0: 5f86 5dbe 3deb 18be 2a76 863e b622 f9bd
000002e0: f951 c93d 1570 ccbd 1b11 b6bd 670b 17be
000002f0: bef5 a9bd c9e0 c33b 4905 3d3e 144e 70bd
00000300: 8e55 0dbd 7451 f4bc 7fb0 ca3d 18f1 af3e
00000310: cc8a 003e 776a 283c 3b60 ea3d 2e78 8dbd
00000320: 7e5a ea3c 14c9 28be deb4 11be 7abf 83bd
00000330: 65d8 3a3e ebfe d0bd 38f8 56bc b872 26be
00000340: 6b50 84be 5cbb b8bd 994d a83d 5aff 7d3d
00000350: 85f4 8b3c cc2e 413e ac73 00bd 0345 913e
00000360: ba08 3bbe 3e2f 7bbd 3dc5 c3bd 3b37 683d
00000370: 8290 ae3d fd24 bc3d 1839 3e3c 1f66 efbd
00000380: f66b 163e 53bb b038 c939 8b3d f43d 44be
00000390: 4ef6 583e 2ff5 773d a2a7 7b3e 2f96 96bd
000003a0: 7684 d3be 22b6 99bd e24a 90bd ad59 883e
000003b0: 0916 173b 3b85 92bc 7d1c 91be 53fd 8ebe
000003c0: 550d 07be ae51 8bbc b7bc 6c3d ddfc a9bd
000003d0: 3df3 64be 5a84 e3bd da10 42be d6ac 043e
000003e0: 55fd 70bd 7666 123d 91ef e1bc d9cb e13e
000003f0: 230b 5ebd 1d8b 24be 4242 423e 1999 21bd
-0.11900532 -0.19137971 0.030101798 0.053779926 0.17561977 -0.22099574 0.02856 -0.06147795
-0.19145344 -0.053482927 0.18252765 -0.1343327 -0.115812235 0.14441596 0.077460535 0.32362098
-0.08987635 0.06560593 -0.043497477 -0.056329373 0.09802871 0.30894363 0.103962675 -0.1388521
0.048297502 0.021487648 0.105952665 -0.15427747 0.03466535 0.22325064 0.11900676 0.21600884
-0.063281424 -0.072954856 0.09431421 -0.1531394 0.05290779 0.05794882 -0.018664641 -0.13078593
-0.112112485 -0.093866155 0.39245713 -0.1038418 -0.094686605 -0.017408013 -0.012714824 -0.1495272
-0.16235022 -0.08998205 -0.11351687 0.008708097 -0.13705786 0.016744297 0.016811445 -0.07807704
0.05085338 -0.031978086 0.15525202 0.29326934 -0.018046744 -0.023565289 0.20589986 -0.2178746
-0.14701672 -0.1010889 -0.049032092 -0.12828943 -0.15837918 0.049176183 -0.14587715 0.05269971
0.0048510875 -0.081762105 0.051297635 -0.049964685 0.23462866 0.036055233 0.277405 0.15027685
-0.15992916 0.15688051 0.23352012 -0.26590836 -0.23382695 -0.15193741 -0.05769778 0.10763989
-0.14714286 0.03763448 0.0492085 0.23779018 0.028202677 -0.2479028 0.19209169 -0.13379845
0.13355681 0.067073554 0.1541711 0.0515523 -0.06823267 -0.19505014 -0.018006213 0.010307498
0.02252104 -0.06878324 0.05086287 -0.027086522 0.013171637 0.1671153 0.06564409 0.005050443
-0.07138098 0.23779382 0.046196837 0.44790658 0.0014622337 0.14854915 -0.124604955 -0.09252911
0.2147353 0.19200677 -0.13207774 -0.19372573 -0.20545813 0.063327484 0.15749916 -0.19610745
0.14077926 0.13430527 0.027571252 -0.12451168 -0.2213442 -0.061529465 -0.16329113 -0.11191817
0.14583522 -0.020595744 0.15127847 -0.17798929 0.09866414 0.039631285 0.15290186 -0.3056328
-0.11392651 0.14690846 0.049878858 -0.27518237 -0.14530303 0.19936569 0.14224376 -0.14077613
-0.05905478 -0.18352331 -0.08557333 -0.17097355 0.10205187 -0.06934593 0.119817615 0.074011825
0.034182336 0.109956846 0.13196328 -0.13976257 -0.2655322 -0.12978607 -0.059124514 -0.0988894
0.041276116 0.21356069 -0.028822713 -0.05981363 -0.12766217 -0.32955852 -0.051013626 -0.069854945
0.18045452 0.014925605 0.102682985 0.19045688 -0.2163329 -0.14933486 0.26262027 -0.12164824
0.09830088 -0.099823155 -0.08889981 -0.14750443 -0.08298825 0.005977724 0.18459047 -0.05866821
-0.03450542 -0.029823996 0.09896945 0.34363627 0.12552947 0.010279289 0.11444136 -0.06907688
0.028607603 -0.16482955 -0.14229152 -0.06433006 0.1824661 -0.10204872 -0.013120703 -0.16254699
-0.25842604 -0.09020111 0.082179256 0.0620111 0.01708437 0.18865508 -0.031360313 0.28372964
-0.18265048 -0.06132435 -0.095591046 0.056693297 0.085236564 0.091867425 0.011610292 -0.116894
0.14689621 8.427226e-05 0.06798131 -0.19164258 0.21187708 0.06053656 0.24575666 -0.07352864
-0.41311997 -0.07505442 -0.07045533 0.26630917 0.0023053905 -0.017885795 -0.28342047 -0.27927646
-0.1318868 -0.017006721 0.05779716 -0.08300183 -0.22358413 -0.111092284 -0.18951741 0.12956557
-0.058835346 0.035742246 -0.027580054 0.44100836 -0.05420984 -0.16068693 0.18970588 -0.039452646

encoder_mean.4.bias f4 [16]
00000000: 051d a8b5 54d5 abb5 777c b435 9727 c035
00000010: d60b 2735 13f7 5fb7 e417 cdb5 d69f a134
00000020: 7708 84b4 18df 93b5 8669 d5b5 c881 2db6
00000030: b45a be35 1435 8935 670a 5335 8620 a3b6
-1.2525421e-06 -1.280258e-06 1.3447269e-06 1.4316637e-06 6.222957e-07 -1.3349362e-05 -1.5280643e-06 3.0104883e-07
-2.4593075e-07 -1.1017282e-06 -1.5900448e-06 -2.5854551e-06 1.4182501e-06 1.0222743e-06 7.861876e-07 -4.861565e-06

encoder_mean.5.weight f4 [16]
00000000: 2ea9 1b3f 0704 0a3f e6b4 1d3f 5f66 3e3f
00000010: e4fb 373f 009c 153f 23dd 3f3f b475 4a3f
00000020: 949d 1d3f c72f 343f b333 2d3f a4b7 2b3f
00000030: 0088 223f 4de3 2a3f 6ee0 2c3f 62aa 363f
0.6080502 0.53912395 0.61604154 0.74374956 0.7186873 0.5844116 0.749468 0.7908585
0.6156857 0.703854 0.6765701 0.6707709 0.6348877 0.66753083 0.6752995 0.71353734

encoder_mean.5.bias f4 [16]
00000000: 5af0 1cbe 9693 0dbe df37 b9bc 6ee4 fcbd
00000010: 7c67 a0bd 0f42 97be 6599 fabc 0ab0 d1bd
00000020: a0c6 42be 7804 8bbd c2cc 013b b700 05bd
00000030: 0004 13bd 1051 d4bd 590d 8bbe c7b8 2fbd
-0.15326062 -0.13825831 -0.02260965 -0.12348257 -0.07832238 -0.29542586 -0.030590722 -0.10238655
-0.19021082 -0.06787962 0.0019805883 -0.032471385 -0.035892487 -0.10367024 -0.2715862 -0.042900827

encoder_mean.5.running_mean f4 [16]
00000000: 588b 453b 12d3 7c3d 0d40 a5bd 4f6a a7bd
00000010: 8310 aabd c0b5 733d ee0f febc 6153 19bd
00000020: 66fe d9bd 54e8 b1b9 19eb 40bb 02cd 82bc
00000030: a97e e3bd 8d52 4bbd 669d 163d 8967 fbbd
0.003014287 0.06172473 -0.08068857 -0.08174574 -0.083039306 0.059499502 -0.031013455 -0.037433032
-0.10644226 -0.0003393317 -0.0029437004 -0.015966896 -0.11108143 -0.049639273 0.0367712 -0.12275607

encoder_mean.5.running_var f4 [16]
00000000: da9f 943d facd 4e3d a413 ad3d 509d a93d
00000010: d1dc 953d 7e3e 283d cf21 d33d d9f1 7a3d
00000020: e88d a83d b9e1 433d 01ad 9f3d 778e 1a3e
00000030: 78b7 873d 031c 993d 180a 823d 6998 ea3d
0.07257052 0.050489403 0.08451012 0.08281958 0.07317508 0.041075222 0.10309183 0.0612658
0.082301915 0.047822688 0.0779667 0.15093409 0.06626791 0.07476046 0.063495815 0.11454851

encoder_mean.8.weight f4 [14, 16]
00000000: 41a7 313c 36a4 293e fb08 09be ef68 40be
00000010: 3808 363e f081 2ebd 8a6b 4d3b 840f 86bc
00000020: 04b7 3e3e c242 0cbe f304 1bbe db80 823d
00000030: a62f 723d 2822 523e c6ba 733e 092a 1cbe
00000040: 3947 ffbd 2d0e 5cbd 59cc 563e deac 4e3e
00000050: 7f6d b13d e06e b6bd ec85 b03b f20d 763c
00000060: 4232 213e c98a 043e c1b8 81be 1351 7bbd
00000070: 3daa fc3b 3695 223c 4195 3abe d0f3 cfbb
00000080: ee6f 27be 97c9 293e 8a1e e1bd e087 60be
00000090: a47b 0ebe e5ab 8bbd 2c32 813e 9a4d 163e
000000a0: 89af c43d 78a7 fcbd a7c4 c2bd aae8 f33d
000000b0: 2879 033e d9b2 cd3d 97dc d6bb 5ea5 f2bd
000000c0: b749 85bd d65d 4dbe 692b 273e a9b3 143e
000000d0: e424 8c3e 69e2 d5bd 1610 ab3c 6a3c 3a3d
000000e0: 0ebf 423e 6786 423d 0144 28be 2049 16be
000000f0: f2f1 be3d aefe dbbd c705 b1bd 5f3a 083e
00000100: 498d 183e cfc8 96bc 3ae5 65be 773d 5abe
00000110: 0a50 febd 3bd7 723e 2212 383e 45c6 863e
00000120: 67e2 c3bd bfe6 3f3e 7022 653c e9d4 0d3e
00000130: 8f3f 2fbe b4b5 1abd 0d1c d3bd 0573 4ebe
00000140: ce6b 6c3e f764 053e 0cde 3cbe 9853 4dbe
00000150: a8a3 55be 156b 0c3e 1e9e 0f3e 0916 523d
00000160: 93db 40bb 6c90 8a3e 0244 413d f436 0d3e
00000170: 6758 09be 11a3 1dbe 8467 3dbe 7579 8fbe
00000180: c9c7 5fbe f1b6 533d c37c 043e 413f 9d3d
00000190: b51e 1c3e 25a0 4abe 7b34 063e 0c81 b93e
000001a0: 8d37 623e 6a2b 483e 6fb9 a6be 2f37 aa3d
000001b0: 4098 bb3a 5b04 73be b630 1cbe 4c0b ad3d
000001c0: dc22 1d3e 912c 3bbe a78e 133d 9e8e c3bc
000001d0: 915c 193e d6d5 783e ba09 703d 964c 543e
000001e0: ada8 c43c 9309 d63e 33b2 063e c803 0b3e
000001f0: db71 ed3b eb95 44bd cb79 14bd 316f a63d
00000200: 02e4 69bd e660 123e e8b1 6f3c c5e9 d93d
00000210: 6582 193e 9c56 6ebd 1d50 a23d 6c73 e43d
00000220: 74f5 013e b125 bf3d d802 20be a611 a83d
00000230: 8bb3 3fbe c267 79be 051d 45be 5190 a23d
00000240: 2f0f afbd a0c6 2ebd 5687 ef3a 39ea a7bc
00000250: 1dba 8c3d d580 04be 421a 52be 4d49 09be
00000260: aa26 90bd a4fb 0abe 6182 073b 9edd 6ebe
00000270: 4f1c 993e e21e 923d 7e55 333e 828d 913c
00000280: 2a05 19be 8b47 e73d 5387 34be a113 39be
00000290: ecd1 d93d 28ed 16bd 3095 2e3e 20a0 863e
000002a0: 82aa de3d 3ce7 c43b b708 a5be 7b60 203e
000002b0: 5973 8e3e 0977 2f3e 9e08 18bd 0125 24be
000002c0: 3079 29be ffc4 d0bd 04e6 d73d 5733 c23d
000002d0: f90e a13e 4b2e 32be 0285 21be 33fa 4ebd
000002e0: 5522 403e 9992 1a3e a62c c6bd 97ce 80be
000002f0: 8436 833e 2771 8b3d 866c 163e 8ae6 773e
00000300: 0077 20be e6eb a0bd 54ba 173c 60ee 1cbd
00000310: c161 863b 64b7 a7bd ae0b 97be 473d 14be
00000320: 60a3 21bb 7d6c 93be a583 a6bd 9f36 9fbe
00000330: 210c 93bc bf92 493e bde5 fc3d 03aa 4d3d
00000340: 97d7 003e ef09 afbd 3654 4bbe d37a 80be
00000350: 7bd3 59be 7fb2 5a3e 5446 07be 279d 16be
00000360: a230 dbbd 113f 1c3e 049d 853d 4852 c63d
00000370: f6f5 46be 650d 21be 2383 2cbe 50ea 94be
0.010843099 0.16566548 -0.13382332 -0.18790029 0.17776573 -0.042604387 0.0031344616 -0.01636482
0.18624502 -0.13697341 -0.15138607 0.063722335 0.059127472 0.20520842 0.23801717 -0.1525041
-0.124647565 -0.053724457 0.2097639 0.20183131 0.08663463 -0.089078665 0.0053870585 0.015017973
0.15741828 0.12943567 -0.2533627 -0.061356615 0.0077107237 0.00992327 -0.18220998 -0.0063462034
-0.16351292 0.16580807 -0.10992153 -0.21926832 -0.13914353 -0.06819896 0.2523359 0.1467804
0.09603793 -0.1233663 -0.09510165 0.119096115 0.12839186 0.10043878 -0.006557058 -0.118479475
-0.065082006 -0.20055327 0.16325153 0.1452166 0.27371895 -0.10443575 0.020881694 0.04546777
0.19018194 0.047491457 -0.16432191 -0.14676332 0.09323491 -0.10741936 -0.0864368 0.13303517
0.14897646 -0.0184063 -0.22450724 -0.2131251 -0.1241761 0.23714916 0.17975667 0.26323143
-0.09564667 0.18740366 0.013985261 0.1385075 -0.1711409 -0.03777094 -0.10308085 -0.20161064
0.23087999 0.13026796 -0.18444079 -0.2005142 -0.20863211 0.13712724 0.1402516 0.051290546
-0.0029427751 0.2706331 0.047183998 0.13790494 -0.13412629 -0.15394236 -0.1849652 -0.28022352
-0.21853556 0.05168814 0.12938218 0.0767808 0.15246089 -0.19787653 0.13105957 0.36231267
0.22091503 0.19547811 -0.3256335 0.08311307 0.0014312342 -0.2373213 -0.15252957 0.0844942
0.15345329 -0.1827872 0.036024716 -0.023871716 0.14976718 0.24300322 0.058603026 0.2073234
0.024006212 0.4180418 0.13153915 0.13575661 0.0072462386 -0.047994535 -0.036248963 0.08126677
-0.05710221 0.14294776 0.0146298185 0.10640291 0.14991148 -0.058188066 0.07925437 0.111548275
0.12691289 0.09333361 -0.15626085 0.08206491 -0.18720834 -0.24355987 -0.19249351 0.079376824
-0.08547818 -0.042669892 0.0018274586 -0.020497428 0.06871436 -0.1293977 -0.20517829 -0.13406868
-0.070386246 -0.13572556 0.0020677077 -0.23326728 0.2990441 0.07134797 0.17513081 0.017767671
-0.14943376 0.112929426 -0.17629747 -0.18073894 0.106357425 -0.036847264 0.17049098 0.2629404
0.108723655 0.0060090106 -0.3223321 0.15661804 0.27822378 0.17135252 -0.037117593 -0.16029741
-0.16550136 -0.10193824 0.10541919 0.094824485 0.31456736 -0.17400472 -0.15773395 -0.050531577
0.18763097 0.15094985 -0.09676485 -0.25157616 0.2562753 0.068086915 0.14689836 0.24209037
-0.15670395 -0.07857494 0.009260733 -0.03831327 0.0041010086 -0.08189276 -0.29501098 -0.144765
-0.002466403 -0.28793707 -0.08130578 -0.3109636 -0.01795012 0.19684885 0.123485066 0.050210964
0.12582241 -0.085468166 -0.19856343 -0.25093707 -0.2127208 0.21357153 -0.13210422 -0.14708386
-0.10702635 0.15258433 0.06524089 0.09683663 -0.19429764 -0.15727766 -0.168469 -0.29085016

encoder_mean.8.bias f4 [14]
00000000: 0457 5a34 a664 7634 2090 bb34 a34d bcb1
00000010: 92e9 9db5 6e22 2ab6 c46e 0fb5 5808 3636
00000020: 7c46 6eb4 05e8 43b6 c3f5 8b35 6657 5135
00000030: dd3c 06b7 6921 3eb6
2.0334488e-07 2.2947151e-07 3.493633e-07 -5.4803464e-09 -1.176539e-06 -2.5352015e-06 -5.3432836e-07 2.712497e-06
-2.219112e-07 -2.9192317e-06 1.0427833e-06 7.798575e-07 -8.001193e-06 -2.8331654e-06

encoder_mean.9.weight f4 [14]
00000000: 13fe 1e3f 5558 153f 474d 203f b861 1c3f
00000010: 48df 323f 5fa8 4e3f 254c 333f 8910 133f
00000020: bfab 173f d6a6 103f 0305 123f 0383 3e3f
00000030: 2c83 423f e16d 493f
0.62106436 0.5833791 0.62617916 0.61086607 0.6987195 0.80725664 0.7003806 0.57447106
0.5924644 0.5650457 0.570389 0.7441866 0.759814 0.78683287

encoder_mean.9.bias f4 [14]
00000000: d03a 54bd a6b1 dfbc 3665 0abe 8b1d 283d
00000010: d4ef db3d 326c f23d 63a1 8e3d e84a 303e
00000020: 7dd4 923d 19a2 393d a805 ccbd b67f 883e
00000030: 072f f83d 793b 9d3d
-0.0518139 -0.027306389 -0.13515171 0.0410438 0.10739103 0.11837043 0.06964376 0.17216074
0.07169435 0.045320604 -0.09962016 0.26659936 0.12118345 0.07677359

encoder_mean.9.running_mean f4 [14]
00000000: 740e 26bc 42e9 0f3d 7a4c fbbc 7bce a43d
00000010: 8776 04bd 9229 babd 1cc6 ff3d 610d 943e
00000020: ff01 403d 96e7 cbbd 0000 1e3d e866 0c3e
00000030: 32ca 7abe e3c9 99be
-0.010135282 0.03513456 -0.030676115 0.080471955 -0.0323396 -0.0908996 0.12488958 0.28916457
0.046876904 -0.09956281 0.03857422 0.1371113 -0.24491194 -0.3003684

encoder_mean.9.running_var f4 [14]
00000000: 0b70 063e 28e9 1c3e 3649 313e 3c19 553e
00000010: 1d81 6f3e d78b a93e c393 a73e 2f4c 403e
00000020: 4a62 233e c9ff 3c3e ebaf 363e 9956 b23e
00000030: 24de 773e bd28 ac3e
0.13128679 0.15323317 0.17313084 0.20810407 0.23389097 0.33114502 0.3272992 0.18779062
0.15955463 0.1845695 0.17840545 0.34831694 0.24205834 0.3362483

encoder_mean.12.weight f4 [12, 14]
00000000: 30ab f1bd ee56 443e e8a6 583d e9de d93d
00000010: 03c3 81bd 50ba c2bd b351 373e 1586 1f3e
00000020: 236c 8a3e c506 1abd 1132 bebd 28fc 073e
00000030: f553 4bbd 23fd 50be a5ea f2bd c22d 013e
00000040: 23bc 0bbe 6d5f b33d b1cf 28be 3af3 3fbe
00000050: 9abb 813e 1892 173e 2a20 f63d 748a 88bd
00000060: 1709 19be c817 013e 085a febd f204 57be
00000070: 0775 75be 970f 70be 1f26 54be 54e2 90be
00000080: 1663 333d c0b6 2e3d 817b 82be 9b61 843d
00000090: 42ef 52be db77 95bc 10ba 87be 2b23 1cbe
000000a0: bf62 64bc 41df 2e3e e271 8a3d e3c2 4f3d
000000b0: b81b 38be b61b 8b3e ac94 b2be e8f9 9cbe
000000c0: 5abd c5bd db45 99bd c8e5 88bd 2feb e23d
000000d0: 63be b93d 28f4 063e 75ee d73d 7ec3 38be
000000e0: 3eb7 843e ca46 b0bc 1e3a 5bbd 82ef 2bbd
000000f0: 4a35 34be 4e6f 5ebe 2edf dbbd f783 4fbd
00000100: cb71 a0be a3e1 2f3e 55ab d83c 0f8d e23d
00000110: 0576 2a3d 989f 10be 5ca0 323e ad9d ac3d
00000120: 988e 62bc 702f 7f3d df05 86be 74c6 98be
00000130: 996a 453e 4dac 443e 17e1 073e 390e f83d
00000140: 8244 0e3e fb01 313e a28c c33c 80b2 9fbe
00000150: cf62 013e 2baf 00be b718 363d 8d9e 35be
00000160: ed4f 813e 8d06 143e b5e2 6d3d b0bb a73e
00000170: dd40 253d 4f28 18be 80f6 de3d 0d62 6bbe
00000180: 985d 7abe 4be4 eb3d 88b2 603e abc4 003b
00000190: 06cb 163e bd3d 183c caaf a93d af91 e23c
000001a0: ed5c 813e 92f0 1ebe 0799 7c3d c825 bcbd
000001b0: 9b22 323e fb98 b5bd 9f87 7dbe 908f adbe
000001c0: a4cd 43bd 22f7 60be 737f 2abe 4bbd 89be
000001d0: 70cd f73d 2507 0d3e 832f 4dbe 7d19 4c3e
000001e0: 2f28 c5bd bca2 a1bd 8c2e 19be a2df 6cbe
000001f0: 2013 59be 678a 2a3e 6fc7 873e cc86 263d
00000200: a8de 1d3e 30a2 4bbc 66b5 c4bd 5b22 7cbe
00000210: 09b6 71be c59d 18be 4315 0fbe 9e73 1b3e
00000220: 7059 f43b 18a4 3d3e 0d12 093e 9119 9fbc
00000230: bf1a 283e ebd0 63bd 43ed e83d 8c2f e8bd
00000240: 9857 ec3b 6ae1 833e e51a b73c 3d51 053e
00000250: 5d7b 943c 7fa2 7cbe 507a 343e 0772 8dbe
00000260: 8812 9bbe 8bde 34bd 3782 db3c d448 d4bd
00000270: ec7d 25bd f047 a0bd a3f3 05be 6930 11be
00000280: 5c39 45be 8246 2fbe 781c 6abe fdbb 073e
00000290: 7a33 8b3d d04f 423e 3956 423e 0267 4bbe
-0.118002295 0.19173786 0.05289355 0.1063822 -0.06336024 -0.095081925 0.1790226 0.15578492
0.27035627 -0.037604112 -0.09286893 0.13279784 -0.049640615 -0.20409064 -0.11861161 0.12615111
-0.13645987 0.087584354 -0.16485478 -0.18745127 0.2533844 0.14801824 0.120178536 -0.06667033
-0.14944874 0.12606728 -0.12419516 -0.2099798 -0.23970424 -0.23443447 -0.20717667 -0.28297675
0.043795668 0.042654753 -0.2548485 0.06463929 -0.20599082 -0.018245628 -0.26509142 -0.1524779
-0.0139395585 0.17077352 0.06760003 0.050722968 -0.17979324 0.2716958 -0.34879053 -0.30659413
-0.096552566 -0.07484027 -0.06684452 0.11080014 0.090695165 0.13179076 0.10543529 -0.18043324
0.25921053 -0.02151813 -0.05352222 -0.04197646 -0.17598453 -0.21722147 -0.107359275 -0.05066296
-0.31336817 0.17175917 0.026448885 0.11062061 0.04161646 -0.1412338 0.17443985 0.08428512
-0.013827942 0.0623011 -0.26176354 -0.29838908 0.19278945 0.19206353 0.13269459 0.12112088
0.13893321 0.17285912 0.02387077 -0.31190872 0.12635349 -0.12566821 0.044457164 -0.17736264
0.2525629 0.14455624 0.058077533 0.32760382 0.04034506 -0.14859127 0.1088686 -0.22986622
-0.24449766 0.11518153 0.21943104 0.0019648473 0.14725885 0.009292063 0.08285482 0.027657358
0.2526621 -0.15521458 0.061669376 -0.09186894 0.17396013 -0.08867069 -0.24758767 -0.33898592
-0.047803536 -0.21969274 -0.1665018 -0.26902232 0.12099731 0.13772257 -0.20037656 0.19931598
-0.09626805 -0.07892367 -0.14959162 -0.23132184 -0.21198702 0.16654359 0.26519343 0.040655896
0.15416968 -0.012428805 -0.096049115 -0.2462248 -0.23604597 -0.14903934 -0.13972954 0.15180823
0.007456951 0.18519628 0.13385792 -0.01942137 0.16416453 -0.05561916 0.11373379 -0.11337194
0.0072125904 0.25757915 0.022351691 0.13019271 0.01812523 -0.24671362 0.17624784 -0.27626058
-0.30287576 -0.044157546 0.02679549 -0.10365453 -0.04040329 -0.07826221 -0.13081221 -0.14178623
-0.19260162 -0.1711674 -0.22862422 0.13255306 0.06796928 0.18975759 0.18978204 -0.19863513

encoder_mean.12.bias f4 [12]
00000000: 7462 8cb5 cf23 2fb6 bc8e 3f36 0242 d3b5
00000010: e8f1 bfb5 1b13 0ab6 2d2b b9b4 d161 cfb4
00000020: 3c45 b2b5 371a 3e37 dd0f bcb4 656b 8db3
-1.0459466e-06 -2.6097875e-06 2.85443e-06 -1.5739936e-06 -1.4301013e-06 -2.0574723e-06 -3.449035e-07 -3.8627925e-07
-1.3282183e-06 1.1330986e-05 -3.502927e-07 -6.585359e-08

encoder_mean.13.weight f4 [12]
00000000: ca1d 373f 701c 653f 0284 863f a544 713f
00000010: 7781 623f 39e3 673f d100 8b3f 8f03 703f
00000020: acd1 7b3f 5419 663f e7bf 793f 2173 573f
0.7152983 0.8949652 1.0509036 0.9424537 0.884788 0.9058109 1.0859624 0.9375543
0.9836681 0.898824 0.97558445 0.8416005

encoder_mean.13.bias f4 [12]
00000000: c28b 5e3e 7ad7 e33d 47cb 743e f5a6 b03e
00000010: 743a 043e 34a6 8a3e 8eb4 0f3e 4fc9 4b3e
00000020: 7680 4f3e 8ba6 053e 833a f43d e76e 1b3e
0.21733001 0.11125083 0.23905669 0.34502378 0.12912923 0.27079928 0.1403372 0.19901012
0.20263848 0.13051812 0.11925223 0.15179025

encoder_mean.13.running_mean f4 [12]
00000000: da0c d23d b00c acbd 399a aabe 01e9 21be
00000010: bcf7 39be e714 c13c 5672 f63c 85eb a0bd
00000020: c6ce 7cbe f2e4 22bd 3aa7 d9bd c223 2fbe
0.102563575 -0.084008574 -0.33320788 -0.1581154 -0.1816091 0.023569537 0.030083816 -0.07857422
-0.24688253 -0.03976912 -0.10627599 -0.17103484

encoder_mean.13.running_var f4 [12]
00000000: 1a20 583e 961b 663e c38d c23e ba14 b43e
00000010: 1707 543e b4a0 a53e d2b2 a63e 4520 263e
00000020: a239 ba3e 9a51 613e 0f20 6f3e 015c 793e
0.21105996 0.2247146 0.3799878 0.35172063 0.2070583 0.3234917 0.32558304 0.16223247
0.36372095 0.22003785 0.23352073 0.24351503

encoder_mean.16.weight f4 [10, 12]
00000000: ff30 b03e e122 8b3e fb76 fbbe c7b0 403e
00000010: 5b24 153e 092f c23e 59fe 85bd 8908 b43e
00000020: 8162 e7be f91e 473d 2546 063d 6f79 403d
00000030: bf53 09be 1062 003e c083 0b3e a0a8 49be
00000040: a9aa 233d e56e 113c b2e3 ed3b 4bc8 63be
00000050: c56a cfbb 5163 d83d ba6c 50be c87a 91bd
00000060: 0ed5 123e 3284 873e a37a 0bbe a4e3 2d3e
00000070: 7a67 4f3d 9fc4 483e d8b7 f7be c035 b4bd
00000080: 4318 58be 0e08 103d 790d 19be 0221 083d
00000090: 349d 30be 855f 64bd ff52 463d 0582 793e
000000a0: 031d 1d3e e239 433d ce8f 9fbd 048d 72be
000000b0: b04d 3bbe 8f05 c23e 9831 11be c4bb e13d
000000c0: f607 87bc a4a7 d1bc bd3c 1d3e dccc 91be
000000d0: d06f 18be d5c8 6fbe f481 b83e ea5a 253e
000000e0: 4c88 093e fd07 60be 34a6 973e 4729 9cbe
000000f0: 9b78 f33d 99fb d93d 5b43 55be 6e72 0bbe
00000100: 3859 103e 1b3d 283e 5d61 593e 173d 2f3e
00000110: 93a7 93bd 6bca 463e 3c7c 363e 7fdc 313e
00000120: 8436 eb3e 6ed6 fd3e a5ba 07bf 17e8 8e3e
00000130: 1a3c cabd 3084 fc3e bf7e 97be 899a 003e
00000140: 64e5 1ebf 42ee 59bd 8db4 01be 79e6 22be
00000150: 9b0a b2bd 5eb7 d3bd 559b b2be 4230 9b3d
00000160: e1ee 1e3e 1396 a63e ef2b e33d 8abe 8d3e
00000170: b418 36be 46dc b63e 0c91 4f3e aa6d 0a3e
00000180: 458a c3bd 83d1 f6bd ee84 803e 74db c83e
00000190: 663d fa3e a959 093d 9857 15bf 2302 b6be
000001a0: ca46 a3bc f5e6 a43e 0b85 22bf d5a1 d73e
000001b0: 1845 1c3d 7bca 043e 7d9e 0eba f6c8 54be
000001c0: a32d 2b3c 0c42 c5bd dcd2 4e3b f433 84bd
000001d0: 404c b1bc e300 043e bb5f 35bd 0bdf fabb
0.3441238 0.27175048 -0.49114212 0.18817435 0.1456465 0.3792651 -0.065426536 0.35162762
-0.4519234 0.048613522 0.03278174 0.046990808 -0.13410853 0.12537408 0.13624477 -0.19693232
0.039957676 0.008876537 0.0072598094 -0.22244374 -0.0063298666 0.10565818 -0.20353976 -0.07103497
0.14339086 0.26468045 -0.13621001 0.1698137 0.050635792 0.19606255 -0.4838245 -0.087993145
-0.21103005 0.03516393 -0.14946546 0.033234604 -0.17247468 -0.055755157 0.048418995 0.24366005
0.15343098 0.047662623 -0.077911004 -0.23686606 -0.18291354 0.37894866 -0.14179075 0.110221416
-0.016483288 -0.025592633 0.15355201 -0.28476608 -0.14886403 -0.23416455 0.36036646 0.16147962
0.134309 -0.21878047 0.2961899 -0.30500242 0.11888238 0.106436916 -0.20826475 -0.1361787
0.14096534 0.1642956 0.21228547 0.17113148 -0.072096966 0.19413154 0.17820829 0.17369269
0.4594003 0.4957766 -0.5301917 0.27911445 -0.09874745 0.493196 -0.29588887 0.1255895
-0.6206877 -0.053205736 -0.12666531 -0.15908231 -0.08693429 -0.10337709 -0.34884134 0.07577564
0.15520813 0.32536373 0.11092364 0.27684432 -0.17782861 0.3571493 0.20270175 0.13518396
-0.09547857 -0.1205168 0.25101417 0.3922993 0.48874968 0.033532772 -0.5833678 -0.35548505
-0.019931216 0.32207456 -0.6348426 0.42115656 0.03815183 0.12967865 -0.0005440487 -0.20779786
0.010447892 -0.09631738 0.0031558787 -0.06455222 -0.021642804 0.12890963 -0.04428075 -0.0076559833

encoder_mean.16.bias f4 [10]
00000000: cb62 57be 9e57 383e 1000 083e 2687 6dbd
00000010: 90de 743b 1856 adbe cc73 073e 0b5b a8be
00000020: 26bc 22bd 95cf de3d
-0.2103378 0.18002173 0.13281274 -0.057990216 0.0037364103 -0.33854747 0.13227767 -0.3288196
-0.039730214 0.10879437

encoder_var.0.weight f4 [20, 4]
00000000: 5db9 d2ba 3d4c 22b9 79ab a53a c5ae 883c
00000010: a666 6cbd d6e6 41bc 8318 e3bc a044 97bd
00000020: d507 80bb 89a0 243c 9827 533b ee5c 9d3b
00000030: e9ac 8b3a 4cd1 8bba 4a08 32b9 ea50 963b
00000040: 4eb2 b0ba 8a40 b839 272c bcb6 1bbf 9e3a
00000050: d36d c53d 8b47 02bd cd47 073d e09f 4cbc
00000060: 553d 58bd bf0b da3c 2798 95bb c44b cd3c
00000070: 1c54 26bd 3706 653c 07c3 2fbc 0bc4 193d
00000080: c113 e63d f958 b2bd 100f 4a3c cadd d2bb
00000090: e4a4 0134 59df a3b2 8b1e ef33 c42f d93a
000000a0: 5bca 9bbc c5ff 323d f7b7 033d 0e6e 1f3d
000000b0: 3714 78b8 20bd cbbb 24ff 7cba eea2 cd3a
000000c0: 4ce8 a5bb fb33 103d e85d a83c fc3c 8ebc
000000d0: 790b 40b7 c485 a237 6535 97b8 c5e9 063b
000000e0: 6fd9 00b8 d97c b9b6 38df 00b8 dcf2 bfbc
000000f0: 5613 bbb9 43e5 a6bb c888 e53b 80c2 b738
00000100: c8fb cfba 11cb 42bb 7346 87bb 0a3d 2c3d
00000110: 53be 3d3a 2ba0 5637 5700 1139 6282 dcbc
00000120: be69 1334 0905 9ab5 ab48 ce33 f300 0135
00000130: 7706 473b d373 1fbc 3e15 6c3a 80df f13c
-0.0016076971 -0.00015477925 0.0012639604 0.0166849 -0.05771508 -0.011834821 -0.027721649 -0.07386136
-0.0039071837 0.01004804 0.0032219645 0.004802338 0.001065639 -0.0010667234 -0.00016978491 0.0045872824
-0.0013480873 0.000351433 -5.6079766e-06 0.0012111397 0.09640088 -0.03180651 0.03302746 -0.012489289
-0.052792866 0.02661693 -0.004565257 0.025060542 -0.040607557 0.0139785325 -0.0107276505 0.037540477
0.112342365 -0.087083764 0.012332693 -0.0064351307 1.2074048e-07 -1.9077264e-08 1.11348605e-07 0.0016570021
-0.019017389 0.043700952 0.032157864 0.038923316 -5.9146634e-05 -0.006217614 -0.0009651056 0.0015688816
-0.0050630923 0.035205822 0.02055259 -0.017363064 -1.1446763e-05 1.9374194e-05 -7.2101866e-05 0.0020586115
-3.072008e-05 -5.527964e-06 -3.0725467e-05 -0.023431234 -0.00035681826 -0.005093248 0.007004831 8.7623484e-05
-0.0015867883 -0.0029723088 -0.0041282712 0.0420504 0.00072381384 1.2792686e-05 0.00013828404 -0.02691764
1.372891e-07 -1.147536e-06 9.605841e-08 4.8057626e-07 0.0030368844 -0.0097322045 0.0009005851 0.029525518

encoder_var.0.bias f4 [20]
00000000: 3cae 37a7 59d2 c7b4 b737 9c33 de4b 192d
00000010: 8a62 3aa7 b6f2 5b32 43dd 1533 c269 c1b1
00000020: 9eb6 ab35 4995 8ea7 4811 c133 1adb 8cad
00000030: 36d7 cbb3 e3c5 d625 93eb 8cad 2f8a 3fab
00000040: d677 3a2a cc4e 7e25 6802 28a9 9ba8 9d30
-2.5490804e-15 -3.7219687e-07 7.2744506e-08 8.713889e-12 -2.5866103e-15 1.2802664e-08 3.4893002e-08 -5.6290625e-09
1.2793641e-06 -3.9574773e-15 8.990406e-08 -1.6013458e-11 -9.492071e-08 3.7257176e-16 -1.6020773e-11 -6.80486e-13
1.6561695e-13 2.2057686e-16 -3.730558e-14 1.1471174e-09

encoder_var.1.weight f4 [20]
00000000: d760 00b8 c809 193e b6ac 543c 2a27 5e3a
00000010: 960a 82b7 82d3 fbbc 46f4 823d 5355 683c
00000020: 63e6 df3d 4e03 f836 5a2e 273d a8df e5ba
00000030: 4063 f4bc 45c0 3237 3684 2c3a 7bea 2938
00000040: 0063 193b 037b b3b2 a5a1 90b6 09a5 8eba
-3.0607767e-05 0.14945138 0.012980631 0.0008474464 -1.5502137e-05 -0.030740503 0.06394248 0.014180499
0.10932615 7.3913607e-06 0.04081569 -0.0017537968 -0.029832482 1.0654393e-05 0.000658098 4.0511117e-05
0.0023404956 -2.0894282e-08 -4.3103523e-06 -0.0010882925

encoder_var.1.bias f4 [20]
00000000: d831 deb9 7177 b4bc cc73 e23b 8502 a2ba
00000010: 9194 bab9 01e8 b6bd d829 1bbc 4396 55bd
00000020: cc0b b9bc db03 39b7 57a1 fd39 8192 69bb
00000030: aef5 563c 2c1e 6ab8 87b9 cdba a6ca dab8
00000040: b5fc 9abb 67aa 81b4 e590 22b9 afad 3ebc
-0.00042380276 -0.02202961 0.0069107767 -0.001236037 -0.00035587375 -0.0893097 -0.009470426 -0.052145254
-0.022588633 -1.1027757e-05 0.00048376128 -0.0035640302 0.013120098 -5.5818047e-05 -0.001569555 -0.00010432796
-0.004729832 -2.4152106e-07 -0.00015503501 -0.011638089

encoder_var.1.running_mean f4 [20]
00000000: 7b13 c53b ba39 9bbd 8fde d03b e07b d43a
00000010: 6dc3 3bb8 a7cb 333d cfb5 6d3a 8393 a4bb
00000020: 6e96 c6bb 7367 303a 8919 ff3c b263 4fbb
00000030: 296a 983c 2c01 523a f266 12bc 1c9f 6939
00000040: 1702 3e3c 118b 1fbc cd3b 72b4 2d43 033c
0.006014285 -0.0757937 0.0063741873 0.0016211234 -4.476628e-05 0.04389539 0.0009067924 -0.0050224676
-0.006060413 0.00067292823 0.031140106 -0.0031645116 0.018605309 0.0008011039 -0.008935677 0.00022279884
0.011597178 -0.009737746 -2.2559762e-07 0.008011621

encoder_var.1.running_var f4 [20]
00000000: f7c6 9738 31ee 4a3a 2648 f336 c4af c036
00000010: 3f8d 0735 0f72 f739 3012 ad39 5ba2 f939
00000020: f0c0 0d3a 5f71 5635 01f4 c839 4ecb 3136
00000030: d1ef c138 0268 a335 07df 1139 ac64 3035
00000040: 4fe4 ee39 e13d 3f39 3ec5 382b 7ad4 7439
7.237301e-05 0.0007741182 7.2503635e-06 5.7425077e-06 5.049696e-07 0.00047196492 0.00033010682 0.00047613945
0.0005407473 7.988619e-07 0.0003832877 2.6493394e-06 9.2476264e-05 1.2174717e-06 0.00013911362 6.5711606e-07
0.00045565 0.00018238231 6.564366e-13 0.00023348807

encoder_var.4.weight f4 [16, 20]
00000000: c95b 933c b4f2 0e3b 8c43 e6bb 7ac0 1f3c
00000010: 2a36 0138 ad34 d53c 98e3 dabb a244 07bc
00000020: 3999 c03b 7d7e 8e38 5e6d 853c a9f4 8fb9
00000030: 3ea3 b6b9 318b e3b9 10a9 68b9 e5c2 353b
00000040: 7175 7c3b 0bed 42b6 ca76 a53b 2751 0dbb
00000050: 6146 92b6 4a55 c33c aa90 323b 99a4 39b8
00000060: 2f64 0fb7 c728 2abb 52b3 0fbb 0730 c2bb
00000070: 33d6 853d 92d4 30b8 cd13 1fbc 8a9f b3b7
00000080: f435 2e3c 9cdb abb4 7dda 54b9 5535 c6b9
00000090: 152e a3ba 62bd 053a 975d a8b5 0c7f a3b9
000000a0: 4bb2 79b9 3b11 853d 74f3 183b bc65 4d39
000000b0: 1659 4c37 59b3 f7ba a215 b5bb 2858 fdbb
000000c0: 843c a3bc 2983 09b8 eb00 8dbb 655f 00b8
000000d0: bda0 893b af70 5db7 6d7b 82ba fb95 47b8
000000e0: 1be7 eaba 42ba 3738 e7b1 bbb2 a0d3 beba
000000f0: 28da 8a36 1bd1 5a30 edc2 e2b9 eb3a bf3a
00000100: 0778 1836 54b2 be38 a90b a2b9 609c 5739
00000110: 785a 3838 8ece aa35 5d87 c0b9 c5c0 4db7
00000120: 387c 6938 dd25 1eb9 5af3 1135 cb81 793a
00000130: 22b9 3a3a 17ed 3db4 c20a b939 1eb5 a437
00000140: ed71 12ba 4a32 593d 6e62 b33a 6f10 8e38
00000150: 8a9e 0339 f5e7 84bb ad44 80bc 7b83 38bc
00000160: 3ba9 74bc ce93 aab6 b59c 0ebc 5f2e 97b5
00000170: 564b 343c ec66 bfb8 333e 59b8 dd34 f0b8
00000180: f940 b5b9 a60d 15af e3b4 b4b8 fee9 28bb
00000190: 56e6 b238 ead9 59b7 0907 c13a 8dbb ecb8
000001a0: 5312 11b6 f4d9 95b9 cfd5 ba39 fc39 0536
000001b0: b3d9 7db9 bb63 5cb8 706a 11ba 3a4c 09b3
000001c0: ee19 8fb6 e5c0 feb2 b170 bab6 b8c1 ef3a
000001d0: 4d1f efba d58d 2bb6 291f 2138 fd6d 31b1
000001e0: 9676 6d36 6f8a b83b ad31 9cb7 1df1 2639
000001f0: d550 6b38 0083 a3ba e9de 943b ee9d 7e3b
00000200: 7370 033d 3e4d bfb8 1e4b b33a c74a 0b38
00000210: b101 473a f020 ec37 27be 1aba 2aec b0b8
00000220: ac1c c2ba fe60 f5b9 8650 bd36 2de9 17bc
00000230: 2f3d 3a30 d414 273d 67d8 a03b e648 32b3
00000240: feb0 3236 1361 3fb9 f1a7 a3bc 786d 483b
00000250: c603 3b3d 23a0 cf32 919a 663b e962 5db5
00000260: f84c 23bb e676 e0af 6974 77b8 60da d6b3
00000270: fec0 5ab9 9071 0535 82f0 80b1 6a9e 3bba
00000280: 9c7c 65bb f3d9 083d 25a4 2b3b e9d8 273c
00000290: 0be6 ae3a 1172 1dbc b5ef bcbc e144 bdbc
000002a0: 71f1 a13c a15d d6bc ead8 b8bc e622 833c
000002b0: 6987 503c f086 2a3c 8e2d f03c ed12 35bb
000002c0: 9455 21bd 6974 dc3c a2b8 c0bc 8245 473c
000002d0: 747b 12ba 275f 4b3d db9a 4dbc a673 14b9
000002e0: f313 2fbb 7a61 3dba ff80 0cbd c4d4 98bc
000002f0: f2f1 263d 9a20 90b8 75f0 89bc 08db b63a
00000300: 7944 3c3c 2336 92bb 3d70 dbb8 90f8 2cbc
00000310: aea9 54bb c054 0a3a 3e70 d63a 70da 2d3b
00000320: 0826 58b8 32e4 7239 3287 8437 d16c e0b7
00000330: 179c fa37 1021 3f37 0517 3a39 fc0e 19b9
00000340: 7bca b038 f89e b0b5 6886 1239 e8dc c1b8
00000350: f748 7738 db59 af38 12a2 2eb6 4799 2b37
00000360: ab09 8e39 e412 3fb6 cd1e 4938 1865 37b3
00000370: 60ce 60af fccc 043a a78c f1b9 df8d 40b0
00000380: 6753 e536 cbec b4b2 1d6e 58b8 4124 96b0
00000390: 3f7a bc34 7a89 a1b2 67fa 39b6 cc07 0bb2
000003a0: 646b 07b8 9ebb e938 4c10 02b9 e722 5bb8
000003b0: 92b2 91b4 32af 3a36 630f 98b8 7155 4fb6
000003c0: afa2 eab9 cc53 c03b d786 0e38 fd71 2bb9
000003d0: cdce acb9 4004 76ba c63c 763b cc67 c239
000003e0: 30a1 493a 6d82 8ab9 3a95 18bb c413 373a
000003f0: e566 a5ba b44e 5e3b e6bc 903a f967 0db8
0.017988103 0.0021812143 -0.007027095 0.00975048 3.080644e-05 0.026026094 -0.0066799633 -0.008256109
0.0058776406 6.794648e-05 0.016287502 -0.00027457371 -0.0003483537 -0.0004340052 -0.00022188225 0.0027734574
0.003852215 -2.904623e-06 0.005049561 -0.0021563263 -4.3593323e-06 0.02384438 0.002724687 -4.426073e-05
-8.54679e-06 -0.0025964247 -0.0021926952 -0.0059261355 0.06534996 -4.215964e-05 -0.009709311 -2.1412754e-05
0.010632981 -3.201102e-07 -0.00020299289 -0.00037805238 -0.0012449647 0.00051017676 -1.2544214e-06 -0.0003118444
-0.0002381291 0.06497427 0.0023338469 0.00019588222 1.21800895e-05 -0.0018898054 -0.0055262605 -0.0077314563
-0.019926317 -3.2785498e-05 -0.004303088 -3.060642e-05 0.0042000697 -1.3198863e-05 -0.0009954997 -4.7584977e-05
-0.0017921658 4.3804066e-05 -2.1850566e-08 -0.0014558919 4.138117e-06 7.9605095e-10 -0.0004325131 0.0014589702
2.271963e-06 9.093122e-05 -0.00030907735 0.00020562252 4.3953274e-05 1.2726102e-06 -0.00036721947 -1.2263835e-05
5.5667217e-05 -0.0001508216 5.437083e-07 0.0009517937 0.0007122924 -1.768825e-07 0.00035293965 1.9634663e-05
-0.0005586434 0.053026475 0.001368595 6.774149e-05 0.00012552194 -0.0040559717 -0.015657747 -0.011261816
-0.014932926 -5.0836015e-06 -0.008704354 -1.1263872e-06 0.01100429 -9.1267604e-05 -5.179476e-05 -0.00011453938
-0.0003457142 -1.355632e-10 -8.6167616e-05 -0.0025774236 8.530605e-05 -1.2984945e-05 0.0014726828 -0.00011288291
-2.161735e-06 -0.00028581882 0.00035635984 1.9852296e-06 -0.0002420906 -5.254497e-05 -0.00055471715 -3.1967126e-08
-4.2647507e-06 -2.965721e-08 -5.556351e-06 0.0018291986 -0.0018243581 -2.5563543e-06 3.841441e-05 -2.581941e-09
3.5384778e-06 0.005631737 -1.8619781e-05 0.00015920815 5.6103647e-05 -0.0012474954 0.0045431745 0.0038851458
0.03208966 -9.121977e-05 0.0013679003 3.3209824e-05 0.00075914996 2.814873e-05 -0.00059029687 -8.436323e-05
-0.001480957 -0.00046802306 5.642013e-06 -0.009271902 6.7753353e-10 0.040791348 0.0049086097 -4.1510155e-08
2.662709e-06 -0.00018251342 -0.019977542 0.0030582827 0.045657896 2.4170793e-08 0.0035187344 -8.247285e-07
-0.0024917703 -4.0829845e-10 -5.8997804e-05 -1.0004874e-07 -0.00020861995 4.9711616e-07 -3.752633e-09 -0.00071570894
-0.00350169 0.033410978 0.0026190367 0.0102445865 0.0013343705 -0.009609715 -0.02306352 -0.023104133
0.019768449 -0.026167693 -0.02256437 0.016007852 0.012727597 0.010408148 0.029318597 -0.002762969
-0.039388254 0.026910977 -0.02352554 0.012162568 -0.0005587854 0.04965129 -0.012549127 -0.00014157462
-0.0026714772 -0.0007224303 -0.034302708 -0.018656142 0.04075808 -6.8725276e-05 -0.016838292 0.0013950774
0.0114909345 -0.00446202 -0.0001046364 -0.010557309 -0.003244977 0.0005276911 0.0016360355 0.0026527904
-5.1533832e-05 0.00023163928 1.5798581e-05 -2.6753552e-05 2.9875007e-05 1.1392185e-05 0.00017746918 -0.00014596799
8.430049e-05 -1.3159288e-06 0.00013973715 -9.244104e-05 5.8957343e-05 8.361387e-05 -2.6022358e-06 1.0228082e-05
0.00027091554 -2.8472214e-06 4.795082e-05 -4.2699952e-08 -2.0446e-10 0.00050659454 -0.00046071896 -7.0050804e-10
6.834441e-06 -2.1062439e-08 -5.1600964e-05 -1.092424e-09 3.5106675e-07 -1.8805384e-08 -2.7712902e-06 -8.092638e-09
-3.2286523e-05 0.00011145252 -0.00012403837 -5.2246174e-05 -2.7138282e-07 2.7818137e-06 -7.250791e-05 -3.0895137e-06
-0.00044753167 0.0058693644 3.3981018e-05 -0.00016350295 -0.00032960475 -0.00093847886 0.0037572845 0.00037079898
0.00076915603 -0.00026418586 -0.0023282305 0.00069838413 -0.0012619166 0.0033921422 0.0011042624 -3.371385e-05

encoder_var.4.bias f4 [16]
00000000: 9165 c4ad e0c7 5b35 7ae6 a1b4 9108 ee24
00000010: c6b1 eb33 e90b 9227 5f1c 0a34 aaaa fd35
00000020: 4bea 6b34 606a 2d35 a242 7ea4 bb97 f929
00000030: c0e7 76ae b151 e3b3 24d1 bc26 e290 9b34
-2.2327725e-11 8.1874714e-07 -3.015628e-07 1.0323056e-16 1.0975377e-07 4.0536053e-15 1.2862573e-07 1.8899639e-06
2.1971316e-07 6.460232e-07 -5.513391e-17 1.10841424e-13 -5.613976e-11 -1.0585371e-07 1.3101808e-15 2.8976416e-07

encoder_var.5.weight f4 [16]
00000000: 5b31 d43b 2545 983d 5a63 8b3d 5be6 93b3
00000010: 1f5d 073d a494 a7b7 2e25 fb3c b753 1e3d
00000020: c903 323d d544 9a3d e717 0d36 c38b 5034
00000030: 42aa 73bc 1f90 ac3d 717d beb4 27eb 273d
0.00647561 0.07435063 0.06806059 -6.887122e-08 0.03304779 -1.9977168e-05 0.030657377 0.038654055
0.04346064 0.0753266 2.102455e-06 1.9422355e-07 -0.014872136 0.084259264 -3.5481528e-07 0.040995743

encoder_var.5.bias f4 [16]
00000000: 3444 89bc 7540 7c3c 6f7f 07bc cc0c 9bb5
00000010: a9b0 3b3b bb39 40b6 ccbf 553b 6c2d bd3c
00000020: 0a0b 8e3c bee5 5a3d 3d47 14b7 6d4b 68b5
00000030: 86ab 85bc b6f0 20bb 23c4 e5b4 9fe7 963c
-0.016756155 0.015396227 -0.008270129 -1.1552124e-06 0.0028639233 -2.8643833e-06 0.003261554 0.023092948
0.017339248 0.053441755 -8.838074e-06 -8.6536494e-07 -0.01631714 -0.0024557537 -4.2797282e-07 0.018420992

encoder_var.5.running_mean f4 [16]
00000000: d9e6 4c39 7d7a 123b dbf6 173b af95 a2b7
00000010: 14e5 ef3a 2405 6a37 7b78 b83a 12a1 1f3b
00000020: 4307 8c3a cc8c ec3a 2799 cb37 5710 9037
00000030: 9580 c739 bbd8 623b 8bfc c2b7 2e78 173b
0.00019540954 0.002235084 0.0023187909 -1.9381607e-05 0.0018302524 1.3948684e-05 0.0014073992 0.002435748
0.0010683317 0.0018047332 2.4270803e-05 1.7173747e-05 0.0003805204 0.0034614045 -2.3244202e-05 0.0023112404

encoder_var.5.running_var f4 [16]
00000000: 1738 4c34 a42f 5b37 8022 9a37 b032 6130
00000010: 8531 9d37 4863 4830 9dc2 1d36 018f 4237
00000020: 2047 4137 444c b237 32eb 9e2f 9aa7 f230
00000030: 0893 3834 a154 e137 66da 6931 f34a 0a37
1.9019386e-07 1.3064509e-05 1.8374296e-05 8.1926554e-10 1.8738918e-05 7.2900663e-10 2.3508103e-06 1.1596597e-05
1.15202565e-05 2.1254767e-05 2.890715e-10 1.7655453e-09 1.7189825e-07 2.6861499e-05 3.4030108e-09 8.242891e-06

encoder_var.8.weight f4 [14, 16]
00000000: c1a5 03b8 2a01 2bb8 f4f2 3f38 2a94 07b9
00000010: f6ee 82bb 578f 0cbb 96cf c836 385f 403a
00000020: a231 0d3b f0ad ae38 16fc 3e2e 8ef3 e4b7
00000030: babd 7c36 92e0 f739 2c8e f9b8 9490 933b
00000040: 581a e33c 8bcb b93c fe97 8a3c 85cd bf37
00000050: 51a2 c63b 8e41 8bb9 8516 d83c 7e1d bb3c
00000060: 957e 893b 9e88 3c3c 44c4 8439 beb7 2031
00000070: 6c28 eb38 8dbe 9c3d e05c b736 4b0c b53c
00000080: 7683 e137 a4af 923b d6c0 353b f50d 1db3
00000090: dbf6 393b e631 a837 ac7d f1ba 9a48 9a3b
000000a0: 5ae9 3e3c dae5 b83b e94c e8ad 245a 9236
000000b0: 92ce 61b8 48d7 4039 8067 e82d 1fab 2a3b
000000c0: 1bec 22bc cba5 0dbd aecd d7bc 8edb 19b9
000000d0: 360a 61bc 783d 6239 c4e8 2fbb 247f 0dbc
000000e0: 161f 78bb bd47 a6bc 40ba 84b7 b451 d3b4
000000f0: f07a 0639 ee1e 3ebc 1321 0d37 f8de 82bc
00000100: a274 0b39 5c63 e43b 4c85 e63b 07a1 bcba
00000110: 889b 173c ada4 32bc 86e3 983a b009 0d3c
00000120: 83ad 663c e1cb 833c 3ce2 883b 8041 0a3b
00000130: 5986 6f3b d245 d33b 092b a539 f849 f93b
00000140: 9afa 96bb 76a6 3fbc f09e 3bbc e90c 88b8
00000150: fbe3 59bc 5c96 953a 7a81 8c3a f6bd 9dbb
00000160: 12db a2bc aad8 debc 4333 1339 503d 17b1
00000170: 2050 9839 5171 17bc 1b0e b5b6 cab5 c5bb
00000180: 6171 53bc e253 a23c 4666 333c 7c08 c235
00000190: 1528 9b3c c946 ce38 84f0 e93b dbcd 803c
000001a0: 4758 0c3b 79f2 3a3c 2d4c 1539 baf8 d739
000001b0: f68a b5b7 db06 303c 07fa c237 c27d 6a3c
000001c0: 6cf0 5c3c 9260 e8bc 359b babc c763 10ba
000001d0: 7f4c 63bc 9db2 413c 95e3 fbba c314 cfbb
000001e0: 7088 b4bc bccb 02bd 9c99 53b6 d6e5 1eb9
000001f0: c82d 8f39 48d4 2b3c c0ed 7b3b 146b 233b
00000200: 0b12 b7ba 8d57 e73b 47ac 353c 7188 d2b9
00000210: 90d9 c73b 98d1 8a34 ebfc 00bc 3eec 7d3b
00000220: 20bf 703c 58a6 443c 6f5b f636 3aeb 1b37
00000230: e4c8 173b e77c b0b9 1ff2 8733 c1e0 9c3a
00000240: 9a38 48bc a781 10bd e02d 61bc 3395 5eb9
00000250: 2706 85ba 5897 07ba fc34 adbb 7b53 bdbc
00000260: 2a7a 6ebc 72ab 25bd 5b42 7aba ee8e d938
00000270: 1d39 3e3a f817 81bc e142 79b9 71df b1bc
00000280: 25e9 adbb c0cb 423a 6075 163c 06db 09b9
00000290: 3401 473c eb94 95b5 95ff 65bb a122 033c
000002a0: 1b8c 6a3c 0162 863c 3939 2ab6 5376 103a
000002b0: e6b5 b23b 73c9 7cbb a9e0 aaba a3fe 903b
000002c0: 8c49 6eb2 8685 9f33 0a2a 5f32 1cb9 85b8
000002d0: db5c 70b3 4279 b034 406f d235 3df4 9ab2
000002e0: 3b96 e4b7 cc03 0037 468d a931 bb8d 84b1
000002f0: d40a 01b7 e069 17b5 af54 7dad 69f6 29b5
00000300: 3ab6 c3bb aaec 863b 77d3 373c ce43 0d39
00000310: 34a2 9a3c 30e2 20ba 7055 4cbb e4bf 0a3c
00000320: b058 9e3c 93b5 343c 6195 99af 5d4f 093b
00000330: 8434 0f3b 6a09 f13c de6c 36bb a8e2 293c
00000340: c503 51b8 c74f 453c 7d4a 473c 85ff aab5
00000350: ce6b d83b b0a3 822e 7c8c 20bb 8d64 873b
00000360: 26e9 5b3c 5002 983c 3241 b738 f3e9 e038
00000370: 661b 4a39 520c 123c e31c 2eb4 6e17 3b3b
-3.1387204e-05 -4.077066e-05 4.5764216e-05 -0.00012929799 -0.0039957715 -0.0021447742 5.9846307e-06 0.00073384074
0.0021544476 8.329365e-05 4.3424896e-11 -2.7293132e-05 3.7661362e-06 0.0004727883 -0.00011899727 0.004503319
0.027722523 0.022680065 0.016918179 2.2864677e-05 0.00606183 -0.00026560988 0.026377926 0.022841211
0.004195998 0.011507181 0.0002532323 2.338751e-09 0.000112132024 0.07653532 5.464637e-06 0.022100588
2.6883306e-05 0.0044765044 0.0027733347 -3.6567105e-08 0.0028375897 2.0050396e-05 -0.0018424294 0.004708362
0.011652315 0.005642635 -2.6409501e-11 4.361633e-06 -5.3836564e-05 0.00018390745 2.642131e-11 0.0026041938
-0.009943987 -0.03458194 -0.026343193 -0.00014673008 -0.013735345 0.00021575938 -0.002684162 -0.00863627
-0.0037860326 -0.02029788 -1.5822356e-05 -3.936126e-07 0.00012825034 -0.011604054 8.411956e-06 -0.01597546
0.00013299522 0.0069698524 0.007034933 -0.0014391252 0.00925339 -0.01090352 0.0011664487 0.008608267
0.014079454 0.016088428 0.00417736 0.002109617 0.0036548583 0.006447532 0.00031503316 0.0076076947
-0.0046075108 -0.011697402 -0.011451468 -6.48739e-05 -0.013298984 0.0011412608 0.0010719739 -0.004813905
-0.019879851 -0.027202923 0.00014038109 -2.2008244e-09 0.00029051397 -0.009243325 -5.3958624e-06 -0.006033634
-0.01290545 0.019815389 0.010949677 1.4456596e-06 0.018940011 9.83603e-05 0.0071392674 0.01572316
0.0021414922 0.011410349 0.00014238125 0.0004119331 -2.164159e-05 0.010743822 2.324303e-05 0.01431221
0.013485055 -0.02836636 -0.022779087 -0.0005508032 -0.013873219 0.01182237 -0.0019217605 -0.0063196137
-0.022037715 -0.031932577 -3.1530863e-06 -0.00015153675 0.00027309195 0.0104876235 0.003844127 0.002493565
-0.0013967169 0.0070599974 0.011088437 -0.00040155978 0.0060989335 2.5857003e-07 -0.0078728 0.0038745548
0.014694005 0.01200255 7.3420156e-06 9.293488e-06 0.0023160512 -0.00033662395 6.330469e-08 0.0011968837
-0.012220526 -0.035279896 -0.013743848 -0.00021227151 -0.0010148928 -0.0005172393 -0.0052858572 -0.023111096
-0.014555493 -0.040446706 -0.0009546631 0.00010373989 0.00072564353 -0.0157585 -0.00023771405 -0.02171299
-0.005307334 0.0007430874 0.009183258 -0.0001314693 0.012146283 -1.1144706e-06 -0.0035094966 0.008003862
0.01431563 0.016404154 -2.5365282e-06 0.0005510796 0.005453813 -0.0038572222 -0.0013036925 0.0044248863
-1.3870146e-08 7.428302e-08 1.2989867e-08 -6.3764135e-05 -5.5963806e-08 3.287078e-07 1.5678597e-06 -1.8039026e-08
-2.7249675e-05 7.630279e-06 4.9346083e-09 -3.8578185e-09 -7.69152e-06 -5.640595e-07 -1.44001885e-11 -6.331598e-07
-0.005972651 0.004117568 0.011219851 0.00013472067 0.018876173 -0.000613722 -0.0031178854 0.008468602
0.019329399 0.011029619 -2.7936678e-10 0.0020951845 0.002185137 0.029423434 -0.0027835886 0.0103689805
-4.9832994e-05 0.012042946 0.0121637555 -1.2740353e-06 0.006604648 5.940792e-11 -0.0024497798 0.0041318596
0.013422286 0.01855579 8.7382636e-05 0.00010724729 0.00019274428 0.00891407 -1.6215522e-07 0.00285479

encoder_var.8.bias f4 [14]
00000000: d45d 0eab 8614 2735 b457 63b2 a6eb 30b2
00000010: 31e7 c6b2 6862 7eb4 c733 de33 dd8b 80b3
00000020: f689 a7b3 81ce 1136 d55d 0533 166e d32b
00000030: 84e8 7fb3 30d0 ac33
-5.0578747e-13 6.2242214e-07 -1.323308e-08 -1.0298129e-08 -2.3155367e-08 -2.3691393e-07 1.0347099e-07 -5.9859055e-08
-7.8016384e-08 2.1726885e-06 3.1051815e-08 1.5023007e-12 -5.9583286e-08 8.047243e-08

encoder_var.9.weight f4 [14]
00000000: f8ff 69b7 909b ed3d 6d4c 273c bdee 763d
00000010: 7d1c 043d b8d6 583d 2679 1b3d 30f9 593d
00000020: 2c97 b73c efa0 993d 8e92 973c 3901 8139
00000030: 8040 183d 3c23 ec3c
-1.394748e-05 0.11601937 0.010211092 0.060286272 0.03225373 0.052939147 0.037957333 0.05321616
0.022410952 0.07501399 0.0185025 0.00024605708 0.037170887 0.028825395

encoder_var.9.bias f4 [14]
00000000: 54bf b8b7 6e6d 023d 1449 853b dc7f 4c3d
00000010: 49d2 db3b 36f0 f03c d45b 8c3c 3198 ba3c
00000020: b7c7 473c f4c8 8e3d 5bbf 04bc 5979 26b9
00000030: 7151 7d3c a150 7c3c
-2.2023603e-05 0.03184264 0.0040675495 0.049926624 0.0067084176 0.029411417 0.01713363 0.022777649
0.012193612 0.069719225 -0.008102263 -0.00015876199 0.015461312 0.015400083

encoder_var.9.running_mean f4 [14]
00000000: a332 3a39 4691 8f3b 60ed 933a aeae 99bb
00000010: d2e7 2c3b af9f 89bb 8785 3c3b fe39 8abb
00000020: d2f2 013b 0dfe dabb 7491 253b 8160 88b4
00000030: 3f8b 543b ce9b 2b3b
0.00017757206 0.0043813316 0.0011285953 -0.004690013 0.0026383293 -0.004199944 0.0028766112 -0.004218339
0.001982857 -0.0066831172 0.0025263699 -2.540219e-07 0.003243163 0.0026185396

encoder_var.9.running_var f4 [14]
00000000: 66b6 dc32 8d60 0238 1076 8635 aa3a a437
00000010: 6068 b436 e00b 6e37 193c 0137 8c45 8437
00000020: a6c2 6e36 8042 0938 2b83 a536 9b6d 152b
00000030: 48ab 3537 fff6 cb36
2.5694316e-08 3.1084335e-05 1.0018139e-06 1.9577641e-05 5.376569e-06 1.418867e-05 7.702992e-06 1.5768012e-05
3.5578064e-06 3.272528e-05 4.932653e-06 5.308754e-13 1.082832e-05 6.0786256e-06
