generativecf/models/bn1-margin-0.014-validity_reg-54.0-epoch-50-base-gen.pth (torch_old, 30881 bytes, 78 tensors)

encoder_mean.0.weight f4 [20, 4]
0	0xbf3bb148	-0.73317385
1	0x3da2e7ab	0.079543434
2	0x3d595cc9	0.053067002
3	0xbd335711	-0.043784205
4	0xbd0d19f7	-0.03444859
5	0xbf082511	-0.5318156
6	0x3e35604d	0.17712517
7	0xbe94c58c	-0.29056966
8	0x3e1ce77f	0.15322684
9	0xbef427fc	-0.47686756
10	0xbe161794	-0.14657432
11	0xbe8ea093	-0.27856883
12	0x3e144859	0.14480723
13	0xbf2b6b1c	-0.6696031
14	0xbc63ee94	-0.013911862
15	0x3c874be5	0.016515682
16	0xbee5a63e	-0.44853395
17	0x3ec062d1	0.3757539
18	0x3e4cc558	0.19997156
19	0xbe877fa1	-0.2646456
20	0x3e79cf19	0.24395408
21	0xbf091612	-0.535493
22	0xbd30486b	-0.043037813
23	0xbe961cf6	-0.2931897
24	0x3e677fc2	0.2260733
25	0xbf0a75d3	-0.54086035
26	0xbdb16b3e	-0.08663033
27	0x3e26bdf5	0.162834
28	0xbd6c88c6	-0.057747625
29	0x3f026c42	0.5094644
30	0xbd8ddd93	-0.069270276
31	0xbe832c0b	-0.2561954
32	0x3e4092df	0.18806027
33	0x3ef52c26	0.47885245
34	0x3d432322	0.047640927
35	0xbc8c8833	-0.017154789
36	0x3f4fd36f	0.81182
37	0x3e0e1767	0.13876115
38	0xbe2dfff8	-0.16992176
39	0x3cfae046	0.03062452
40	0x3f24adf1	0.64327914
41	0x3c88fa8a	0.016721029
42	0x3ea8557f	0.32877728
43	0x3ced376a	0.028957088
44	0xbf261761	-0.64879423
45	0xbc91d997	-0.01780395
46	0xbdbcf065	-0.09225539
47	0x3cac7c6d	0.021055425
48	0xbe7b4e9c	-0.24541706
49	0xbf0e8132	-0.55665886
50	0xbda0e6c7	-0.07856517
51	0xbc8f4a9b	-0.01749163
52	0xbf1ea79a	-0.6197449
53	0xbd93ffdd	-0.072265364
54	0xbeba9b8e	-0.36446804
55	0x3c90ad6f	0.017660825
56	0x3ec8fd7b	0.3925589
57	0xbef33f81	-0.47509387
58	0xbcdd07c8	-0.02698125
59	0xbde887b2	-0.11354007
60	0x3ec95c6f	0.39328334
61	0xbeed370d	-0.46331063
62	0xbe2b7625	-0.16744287
63	0x3e6d4d20	0.23173952
64	0xbca27b07	-0.019834055
65	0xbf123f7d	-0.57128125
66	0xbd1e5952	-0.0386594
67	0x3e16dcb4	0.14732629
68	0xbdf20cfd	-0.118188836
69	0x3f0caf45	0.5495494
70	0xbbe8854c	-0.0070959684
71	0x3e3b2007	0.18273936
72	0x3f1a5460	0.60284996
73	0x3deb8e62	0.11501767
74	0x3e980ee9	0.29698876
75	0xbc2c855c	-0.010529842
76	0x3f1550e9	0.58326584
77	0x3e9a1e2e	0.3010115
78	0x3dfcd264	0.12344816
79	0xbd3b499c	-0.045724496

encoder_mean.0.bias f4 [20]
0	0xb5aa5c55	-1.2692859e-06
1	0xb6156db4	-2.2266586e-06
2	0xb6ff474c	-7.6078923e-06
3	0xb6c01d40	-5.725451e-06
4	0xb7f4445c	-2.9118899e-05
5	0x37254e20	9.852956e-06
6	0xb57a48e8	-9.323835e-07
7	0xb65f95cc	-3.3316783e-06
8	0x388ba061	6.6579094e-05
9	0xb608aa20	-2.0364605e-06
10	0xb714c418	-8.867144e-06
11	0xb72136b7	-9.609087e-06
12	0xb6f166d4	-7.1943305e-06
13	0xb6c4f86d	-5.8701758e-06
14	0xb70347ce	-7.824927e-06
15	0xb5bdfbd3	-1.4154888e-06
16	0xb68b10c2	-4.1444737e-06
17	0x37ebcab9	2.8108583e-05
18	0xb6492cf5	-2.9977502e-06
19	0xb77fa138	-1.5236721e-05

encoder_mean.1.weight f4 [20]
0	0x3f0b7449	0.5447431
1	0x3f2c1df5	0.6723321
2	0x3f146b39	0.5797611
3	0x3f01b1ef	0.5066213
4	0x3f1d9153	0.6154987
5	0x3f2f1b89	0.6840139
6	0x3f197372	0.5994178
7	0x3f37b980	0.71767426
8	0x3efdb6f6	0.4955365
9	0x3f1a9daa	0.60396826
10	0x3efecba6	0.49764746
11	0x3f2281d6	0.63479364
12	0x3f134e82	0.5754167
13	0x3f0711f1	0.5276175
14	0x3f11869a	0.5684601
15	0x3f2869e1	0.6578656
16	0x3f134a6f	0.5753545
17	0x3f22c489	0.6358114
18	0x3f28b306	0.6589817
19	0x3f155736	0.583362

encoder_mean.1.bias f4 [20]
0	0xbe3cb8b2	-0.1842983
1	0xbe7a48d2	-0.24441841
2	0xbee0a2ce	-0.4387421
3	0xbb8e5969	-0.0043441546
4	0xbed7ea14	-0.42170775
5	0xbe92872a	-0.28618747
6	0xbeff91fd	-0.49916068
7	0xbf00631e	-0.5015124
8	0xbd8f2ef6	-0.06991379
9	0x3bdee292	0.0068019116
10	0x3d4f5013	0.050613474
11	0xbcd00be0	-0.025396287
12	0xbe27b2ba	-0.16376773
13	0xbd936565	-0.07197074
14	0xbf0ab347	-0.54179806
15	0xbf056d66	-0.52120054
16	0xbe44612f	-0.19177698
17	0xbf0a986a	-0.54138815
18	0xbed260b7	-0.41089413
19	0xbda680be	-0.081300244

encoder_mean.1.running_mean f4 [20]
0	0xbe91179e	-0.2833833
1	0xbea10a87	-0.31453344
2	0xbea929e1	-0.33039764
3	0xbe898311	-0.26857808
4	0xbd20c1f2	-0.03924746
5	0xbe87b30c	-0.2650379
6	0xbe0ea21f	-0.13929032
7	0x3dbe3a31	0.09288443
8	0x3eae3c70	0.34030485
9	0x3ec6181b	0.38690266
10	0x3ee42831	0.44561914
11	0xbead044c	-0.3379234
12	0xbedc4a82	-0.43025595
13	0xbef3bc7a	-0.47604734
14	0xbdea175e	-0.11430238
15	0xbaca18a3	-0.0015418719
16	0xbe817413	-0.2528387
17	0x3e8304b7	0.25589535
18	0x3ee85cd7	0.4538333
19	0x3ee987ff	0.4561157

encoder_mean.1.running_var f4 [20]
0	0x3c460cdc	0.012088027
1	0x3ca80c17	0.020513577
2	0x3cb9f74e	0.022700932
3	0x3c5aacbb	0.013346846
4	0x3cce43fd	0.025178904
5	0x3cd421cb	0.02589502
6	0x3c8dc6be	0.017306682
7	0x3cc1b950	0.023647934
8	0x3c162c1b	0.009165789
9	0x3c4234a1	0.011853368
10	0x3ca3c4dc	0.01999133
11	0x3c530525	0.0128796445
12	0x3c4e22c2	0.012581529
13	0x3cb23d06	0.021757614
14	0x3c51d72b	0.012807648
15	0x3cb8e883	0.022571808
16	0x3c8b5c01	0.017011644
17	0x3c605c31	0.013693855
18	0x3c9a8962	0.018864337
19	0x3c8a5be7	0.016889526

encoder_mean.4.weight f4 [16, 20]
0	0xbda0e4c5	-0.07856134
1	0x3e1f7dbd	0.15575309
2	0x3ddb5d92	0.107112065
3	0x3d15fecf	0.036619958
4	0x3d050937	0.03247949
5	0x3e6d7aa6	0.23191318
6	0xbb76bab8	-0.0037647914
7	0xbd80b8db	-0.062852584
8	0xbe4e21b7	-0.20130049
9	0xbe9b1a5d	-0.3029355
10	0xbe15d513	-0.14632063
11	0x3e14ecf5	0.14543517
12	0x3ea6a6ec	0.32549226
13	0x3db2bbbe	0.08727215
14	0x3dce11d8	0.10061997
15	0xbd91940a	-0.07108314
16	0x3e55445f	0.20826863
17	0xbe0533fa	-0.13008109
18	0xbe2b6e18	-0.16741216
19	0xbe7f9662	-0.2495971
20	0x3da38f62	0.079863325
21	0x3bea7313	0.007154831
22	0x3d94999d	0.07255862
23	0x3d20d559	0.039265964
24	0x3e0e64f9	0.13905706
25	0x3db9c2bc	0.09070346
26	0x3dde703a	0.10861249
27	0x3dad3595	0.084574856
28	0xbe16f6da	-0.14742604
29	0xbe5fdcf7	-0.21861635
30	0xbe53b5e1	-0.2067485
31	0x3e3ea623	0.18618064
32	0x3e3187bb	0.17336933
33	0x3e8f9859	0.2804592
34	0xbd5c4b43	-0.053782713
35	0x3e163362	0.14668038
36	0x3d171761	0.03688753
37	0xbe8df36d	-0.27724782
38	0xbe38cf88	-0.18047917
39	0xbe942c62	-0.2894011
40	0x3cfcbba2	0.030851189
41	0xbe96b747	-0.29436705
42	0xbe13fad3	-0.1445115
43	0x3e8a5d89	0.27024487
44	0x3edaf867	0.4276764
45	0xbe725b63	-0.23667674
46	0x3e6f450d	0.23366185
47	0x3ef6e6d1	0.48222974
48	0x3d5b5342	0.053546198
49	0x3d230c5d	0.039806712
50	0x3bdadc24	0.006679075
51	0xbd25018a	-0.04028467
52	0x3c5094f4	0.012730826
53	0xbd061050	-0.0327304
54	0xbdef37d8	-0.11680573
55	0x3e29e2ad	0.16590376
56	0x3cf2ce23	0.02963931
57	0xbead9325	-0.33901325
58	0xbd75f54c	-0.060048386
59	0x3c0a0853	0.008424836
60	0xbe5d1832	-0.21591261
61	0x3e286fa7	0.16448842
62	0xbdcdcd90	-0.100489736
63	0xbb94b58a	-0.0045382427
64	0xbe18e103	-0.14929585
65	0x3e30ac12	0.1725314
66	0xbe2a7c43	-0.16648965
67	0xbe085260	-0.13312674
68	0xbd21ddc2	-0.039518125
69	0x3e67254f	0.22572826
70	0x3e475fd9	0.19470157
71	0xbe83168d	-0.25603142
72	0xbd7f98db	-0.062401634
73	0xbe37e5da	-0.17958775
74	0x3d9cbdd5	0.07653395
75	0xbd9ff07e	-0.07809542
76	0xbe682e9c	-0.2267403
77	0x3e0eae23	0.13933615
78	0x3d908d9d	0.070582606
79	0x3e6060b9	0.21911897
80	0xbd1bcd5e	-0.03803765
81	0xbcce4e1e	-0.025183734
82	0x3e587536	0.21138462
83	0x3ea5c9b0	0.32380438
84	0xbea35f35	-0.31908575
85	0x3df429a9	0.119220085
86	0xbe30039c	-0.17188877
87	0xbec03e39	-0.37547472
88	0xbe3b2972	-0.18277529
89	0x3e3861ac	0.18006009
90	0xbccfcdf5	-0.025366763
91	0xbd86b26a	-0.065769985
92	0x3e2c0f12	0.16802624
93	0xbc4a16f1	-0.012334571
94	0x3eb80bae	0.3594641
95	0xbe82c8b4	-0.2554375
96	0xbdc09a89	-0.09404475
97	0xbe6db714	-0.2321437
98	0xbb7386f2	-0.003715929
99	0xbd8fbd5a	-0.07018538
100	0x3dcf240a	0.10114296
101	0x3c5e46cc	0.013566684
102	0xbd3cc4a8	-0.046085984
103	0xbd79f703	-0.061026584
104	0x3e018057	0.12646614
105	0xbd77a6d0	-0.06046182
106	0x3da8cd63	0.082422994
107	0xba7f5467	-0.0009740055
108	0xbe4cebce	-0.20011827
109	0xbe80e969	-0.25178078
110	0xbebed6c7	-0.37273237
111	0x3e752d68	0.23943102
112	0xbd5db7d1	-0.05413038
113	0x3e87a4c6	0.264929
114	0xbe4c0c32	-0.19926527
115	0x3d121ebe	0.03567385
116	0xbcdc68ea	-0.026905496
117	0xbe313096	-0.1730369
118	0xbdc978dd	-0.09837506
119	0xbe922fc6	-0.28552073
120	0xbda78d0e	-0.08181201
121	0xbe504c46	-0.20341596
122	0xbe3cab05	-0.18424614
123	0x3e01eea0	0.12688684
124	0xbd888d48	-0.06667572
125	0xbe6b7c4a	-0.22996631
126	0x3ec635e8	0.38713002
127	0x3dae351c	0.085062236
128	0xbe3e5d2c	-0.1859023
129	0x3de9e5e3	0.114208005
130	0x3da53b16	0.080679104
131	0xbd62e1d5	-0.05539115
132	0x3df216f5	0.11820785
133	0xbc80433d	-0.015657062
134	0xbde7ffb7	-0.113280706
135	0x3e9f33e2	0.3109427
136	0x3e3d76c7	0.18502341
137	0xbdb8e22b	-0.09027513
138	0xbd9953b6	-0.0748667
139	0xbdb8fa7f	-0.09032153
140	0x3ea68e21	0.3253031
141	0x3e554d2e	0.20830223
142	0x3db0a8ec	0.08625969
143	0xbd6e5e39	-0.058195326
144	0x3d04308c	0.03227286
145	0x3d77d37b	0.060504418
146	0xbde8beec	-0.113645405
147	0xbba16abc	-0.004926054
148	0xbe3a85f9	-0.18215169
149	0xbda08924	-0.078386575
150	0xbd60b394	-0.05485876
151	0x3e7d1803	0.24716191
152	0x3eb20679	0.34770563
153	0x3e9c17d7	0.30486938
154	0xbdbffe4f	-0.093746774
155	0xbd8914c2	-0.06693412
156	0x3e24f295	0.16108163
157	0x3c1d99fb	0.009619231
158	0xbcb591b8	-0.02216421
159	0xbe52e72c	-0.20595998
160	0xbecd297f	-0.40070722
161	0xbd2cad69	-0.042157564
162	0x3d4195dc	0.047262058
163	0x3bf6f355	0.0075363317
164	0xbdbe4e14	-0.09292236
165	0x3cdfcc19	0.027319001
166	0x3d060173	0.032716226
167	0x3ce09379	0.02741407
168	0x3e089052	0.13336304
169	0x3e61816d	0.22022028
170	0x3e8bd15e	0.27308172
171	0xbe626ddd	-0.22112222
172	0xbd9571d0	-0.07297099
173	0xbe10a68a	-0.1412603
174	0x3db71875	0.08940212
175	0x3d75334c	0.059863374
176	0x3d6518fe	0.055932038
177	0xbd42d0c1	-0.047562364
178	0x3ef30e3a	0.47471792
179	0x3e2b497e	0.16727254
180	0xbd5bbc6e	-0.053646497
181	0x3db3963a	0.08768888
182	0x3eda74a7	0.42667124
183	0x3e8a50c6	0.2701475
184	0xbe77ea45	-0.2421046
185	0x3e5c1e98	0.21496046
186	0xbd87e6da	-0.06635828
187	0xbe97e279	-0.29664972
188	0xbded89c8	-0.11598545
189	0xbd229464	-0.039692298
190	0x3d4c289c	0.049843416
191	0xbd5a902f	-0.05336016
192	0x3e04d2b6	0.12971005
193	0xbddfba2b	-0.109241806
194	0x3e79378d	0.24337597
195	0xbda80590	-0.08204186
196	0xbe794169	-0.24341358
197	0xbdaf6010	-0.08563244
198	0xbd5e0fa6	-0.054214142
199	0xbd191031	-0.037368957
200	0xbd14c013	-0.03631599
201	0x3c5588e4	0.013033126
202	0x3eac2797	0.33623955
203	0x3e654dd8	0.22392976
204	0xbe8494b5	-0.25894704
205	0x3dc6a4ce	0.09699403
206	0x3d57e6f1	0.052710477
207	0xbe8afadd	-0.27144518
208	0xbe6540ec	-0.22388047
209	0xbb9e43d7	-0.0048298645
210	0x3d1cb30f	0.0382567
211	0xbd89b07f	-0.06723117
212	0x3e85f861	0.2616606
213	0x3d7991ac	0.06092994
214	0x3ebc126f	0.36732814
215	0xbdb6e534	-0.08930436
216	0x3e503aa1	0.20334865
217	0xbe78d6f0	-0.24300742
218	0xbdb4ace8	-0.08822042
219	0xbd551a6c	-0.05202715
220	0x3d7d1c99	0.06179485
221	0xbef56595	-0.47929063
222	0xbe3669fa	-0.17813864
223	0x3ddf72c5	0.109105624
224	0x3eb3f274	0.35145915
225	0xbe9103d6	-0.2832324
226	0x3e5abbce	0.21360704
227	0x3ecd9c8c	0.40158498
228	0x3d233f6a	0.0398554
229	0x3d87e884	0.06636146
230	0x3d8b6180	0.06805706
231	0xbd0d4f6b	-0.034499567
232	0x3e04aba6	0.12956104
233	0xbd0b7e79	-0.03405616
234	0xbc988d60	-0.0186221
235	0x3e91b54c	0.2845863
236	0x3bc3d278	0.0059760176
237	0xbe91b935	-0.28461614
238	0x3d2baf9b	0.041915517
239	0x3e048a4b	0.1294338
240	0x3e6c1822	0.23056081
241	0x3d88ca7f	0.06679248
242	0x3cd46252	0.025925789
243	0xbcdf626b	-0.027268609
244	0x3d3a155f	0.045430537
245	0x3dca3c12	0.09874739
246	0xbdca6180	-0.09881878
247	0x3cc1d80e	0.023662593
248	0xbd498268	-0.04919663
249	0xbe81533e	-0.2525882
250	0xbe9d4b4c	-0.3072151
251	0x3eda459a	0.42631227
252	0xbd5c3e8f	-0.053770598
253	0x3e8124c6	0.25223368
254	0xbd9f5a8d	-0.07780943
255	0xbd8e3ea4	-0.069455415

encoder_mean.4.bias f4 [16]
0	0xb488d87e	-2.5489493e-07
1	0x36f59644	7.319062e-06
2	0xb5af8c22	-1.30793e-06
3	0x358dbeda	1.0560864e-06
4	0xb6227995	-2.4210651e-06
5	0x352b0104	6.370394e-07
6	0xb605d8c5	-1.994472e-06
7	0xb4b83d96	-3.431748e-07
8	0x355a96c2	8.143071e-07
9	0x36314c6f	2.6419546e-06
10	0xb6b56e9f	-5.4070983e-06
11	0x36a19a8d	4.816166e-06
12	0xb6263334	-2.4765732e-06
13	0xb68befc0	-4.1704334e-06
14	0xb6a43b23	-4.8944653e-06
15	0xb538d2a0	-6.885184e-07

encoder_mean.5.weight f4 [16]
0	0x3f1c5958	0.6107383
1	0x3f1471f4	0.5798638
2	0x3f23fc47	0.6405682
3	0x3f24fc92	0.6444789
4	0x3f168e36	0.58810747
5	0x3f34643a	0.70465434
6	0x3f110c40	0.56659317
7	0x3f20f29b	0.62870187
8	0x3f2b1f10	0.6684427
9	0x3f06aa8a	0.5260397
10	0x3f0657f1	0.5247794
11	0x3f38606e	0.7202214
12	0x3f3568b4	0.7086289
13	0x3f230665	0.6368163
14	0x3f4a9ba3	0.7914373
15	0x3f15c719	0.58506924

encoder_mean.5.bias f4 [16]
0	0xbcf348db	-0.029697826
1	0x3d856db0	0.06515062
2	0xbd57a69a	-0.052649118
3	0x3d57a387	0.052646186
4	0x3e743f1c	0.238522
5	0xbd7287fb	-0.059211712
6	0xbdbe845a	-0.09302588
7	0xbdd5eb70	-0.10445297
8	0x3d0760f8	0.03305146
9	0x3e4f8c00	0.2026825
10	0x3e33469b	0.17507403
11	0xbcc83698	-0.024440095
12	0x3d3f8a31	0.04676265
13	0xbe1f5baa	-0.15562311
14	0xbd0ad0f8	-0.033890694
15	0xbdb52732	-0.088453665

encoder_mean.5.running_mean f4 [16]
0	0xbc06673f	-0.008203327
1	0xbb7f425b	-0.0038949463
2	0x3c6d28e1	0.014475078
3	0xbc88df73	-0.016708111
4	0x3b9db28d	0.0048125447
5	0xbe19ca50	-0.15018582
6	0xbba08d9f	-0.004899695
7	0x3e2d49e8	0.16922724
8	0x3db84233	0.089970015
9	0x3cbd5c41	0.02311528
10	0x3d82ff3e	0.0639634
11	0x3d320d3d	0.043469656
12	0x3b877c17	0.0041346657
13	0x3d805d17	0.062677555
14	0x3d93375b	0.071882926
15	0xbd3b79e8	-0.045770556

encoder_mean.5.running_var f4 [16]
0	0x3e3bd184	0.18341643
1	0x3e40d6e8	0.1883198
2	0x3da2c12a	0.07946999
3	0x3e3e7f5a	0.18603268
4	0x3dd2c550	0.102915406
5	0x3e6ad8b4	0.22934228
6	0x3dc35fa8	0.09539729
7	0x3e2ab120	0.1666913
8	0x3e6c859d	0.23097844
9	0x3dc4ac6e	0.09603201
10	0x3e0f1b32	0.13975218
11	0x3dbfc11b	0.09363004
12	0x3e6deea4	0.23235565
13	0x3da1dc46	0.07903342
14	0x3e5b9ef4	0.21447355
15	0x3d9adc20	0.07561517

encoder_mean.8.weight f4 [14, 16]
0	0xbe5f25b5	-0.21791728
1	0xbe41d466	-0.1892868
2	0x3c93df64	0.018050857
3	0x3cecafc0	0.028892398
4	0xbe0208c6	-0.1269866
5	0xbe945bc8	-0.28976274
6	0x3d931e5d	0.07183526
7	0xbe415897	-0.1888145
8	0x3e2975d1	0.1654885
9	0xbe6b2c2b	-0.22966067
10	0xbe6774b2	-0.2260311
11	0x3e70195b	0.23447172
12	0xbe84521c	-0.25843894
13	0x3e777180	0.2416439
14	0x3e145af0	0.14487815
15	0x3e707ba8	0.23484671
16	0xbe82bc6b	-0.25534377
17	0xbd8fdff6	-0.07025139
18	0x3dbd2b7b	0.09236809
19	0xbb244943	-0.0025068081
20	0xbeb09311	-0.34487203
21	0xbd5c89ef	-0.05384248
22	0xbe4604c3	-0.19337754
23	0x3dce7278	0.10080427
24	0xbb0ad61f	-0.0021184755
25	0xbec83390	-0.3910184
26	0xbe9b1416	-0.30288762
27	0x3e25ff57	0.16210686
28	0x3e1acbbb	0.1511678
29	0x3e5dfb56	0.21677908
30	0x3e10eac4	0.14152056
31	0xbe0e55ed	-0.13899966
32	0x3e15f082	0.14642528
33	0xbd42720e	-0.047472052
34	0xbe757088	-0.23968709
35	0x3e5dd789	0.21664251
36	0x3e26942b	0.16267459
37	0xbe0ce72d	-0.13760062
38	0xbea50f2c	-0.32238138
39	0xbdf3c839	-0.11903424
40	0x3da7f349	0.082007
41	0x3dd8daa3	0.10588577
42	0x3e379a00	0.1792984
43	0xbe52f291	-0.20600344
44	0xbd29a972	-0.04142136
45	0xbe3ad53c	-0.18245405
46	0x3e32dda4	0.17467362
47	0xbe91411b	-0.28369984
48	0xbb2b753d	-0.0026162409
49	0x3c1ac6d7	0.009446821
50	0x3e2e8d4d	0.1704609
51	0xbea9476a	-0.33062297
52	0xbe1abb5a	-0.15110531
53	0xbe3dcbfb	-0.18534844
54	0x3e4b8435	0.19874652
55	0xbe1bcdc5	-0.15215214
56	0x3f079dc2	0.52975094
57	0x3e915354	0.28383887
58	0xbca7864b	-0.020449778
59	0xbd25938a	-0.040423907
60	0xbe8b2759	-0.27178457
61	0x3e3800e5	0.17969091
62	0xbe5d8806	-0.2163392
63	0x3d0f2b0b	0.03495316
64	0x3d836f09	0.06417663
65	0xbe4ac6dc	-0.19802421
66	0xbdaf04db	-0.08545848
67	0x3eb69bf4	0.35665858
68	0x3e04f666	0.12984619
69	0xbe94c016	-0.290528
70	0xbe1c230a	-0.15247741
71	0xbbbf4327	-0.0058368626
72	0x3db558e1	0.08854843
73	0x3cfc4ca6	0.030798268
74	0x3d59c846	0.05316951
75	0xbdee992a	-0.116503075
76	0xbe776285	-0.24158676
77	0xbe06371a	-0.13106957
78	0x3e9a7377	0.30166218
79	0xbd854ee3	-0.06509187
80	0xbe989f19	-0.29808882
81	0xbe10a9f8	-0.14127338
82	0x3e962f0f	0.29332778
83	0xbe4324d5	-0.19057019
84	0xbe95e08c	-0.29272878
85	0xbe1edb1e	-0.15513274
86	0xbd2265b7	-0.039647784
87	0xbe281429	-0.1641394
88	0xbcde0b4d	-0.027104998
89	0xbe711e3f	-0.23546694
90	0xbe3dce69	-0.1853577
91	0x3e300d50	0.17192578
92	0xbc879b22	-0.016553465
93	0x3e859516	0.26090306
94	0x3d5fa5fb	0.05460165
95	0x3d2d3a2b	0.0422918
96	0x3d5996bd	0.05312227
97	0xbd18fab2	-0.037348457
98	0xbec17bf7	-0.3778989
99	0xbc287622	-0.010282071
100	0x3e0b6156	0.1361135
101	0xbe16f105	-0.14740379
102	0xbe6f2481	-0.23353769
103	0x3e62e4b5	0.22157557
104	0x3cf8fafc	0.030393116
105	0x3d8154e8	0.06315023
106	0x3e048e89	0.12944998
107	0xbe8930b5	-0.26794973
108	0x3e3ed37e	0.18635365
109	0xbe47edf9	-0.19524373
110	0x3e3f6dc4	0.18694216
111	0xbe3002d9	-0.17188586
112	0x3eb4a477	0.35281727
113	0x3e26530f	0.16242622
114	0x3e2ebfb8	0.17065322
115	0x3d310458	0.043217033
116	0x3e61a90f	0.22037147
117	0xbe118ff2	-0.14215067
118	0x3dea137b	0.11429497
119	0xbd31bf0c	-0.043395087
120	0xbd2521fa	-0.040315606
121	0x3e15c990	0.14627671
122	0x3ea4c4cf	0.32181403
123	0x3e123280	0.14277077
124	0xbd8e343c	-0.06943557
125	0xbea61899	-0.32440642
126	0xbd321b59	-0.043483112
127	0x3e598ab9	0.21244325
128	0xbe408198	-0.18799436
129	0xbe88a3b8	-0.26687407
130	0xbd58628a	-0.05282835
131	0x3e41d5e9	0.18929256
132	0xbdb02be6	-0.08602123
133	0xbe8d26d8	-0.27568698
134	0xbe52628d	-0.20545407
135	0xbd70569f	-0.05867636
136	0x3e1fe252	0.15613678
137	0xbd084262	-0.033266433
138	0xbe1c6277	-0.15271936
139	0x3d70fc3a	0.058834292
140	0xbdcabff8	-0.098998964
141	0xbc91b580	-0.017786741
142	0x3e95ab27	0.2923214
143	0xbe6bf957	-0.23044334
144	0x3e1aef45	0.15130337
145	0x3e9a4303	0.3012925
146	0x3d8d2c2c	0.06893191
147	0xbe364dc1	-0.17803098
148	0x3d8b8189	0.06811816
149	0x3e80943b	0.2511309
150	0x3d3592fd	0.044329632
151	0x3ecac863	0.39606008
152	0xbe3c19b6	-0.18369183
153	0x3be8aaf7	0.0071004587
154	0x3dc431b5	0.09579793
155	0x3e34f754	0.17672473
156	0x3e5c60b9	0.21521272
157	0x3db0dda5	0.08636025
158	0xbeb1f5f0	-0.34757948
159	0x3c8298e0	0.015942037
160	0x3db97324	0.090551645
161	0xbbf50217	-0.007477056
162	0xbebffab9	-0.37495974
163	0xbe37b3da	-0.17939702
164	0xbc7e6aab	-0.015528361
165	0x3d9a33fe	0.07529448
166	0xbe94e4b5	-0.2908074
167	0x3e4720c1	0.19446088
168	0xbe0b89a6	-0.13626727
169	0xbc34ea12	-0.011042135
170	0x3bcad302	0.006189705
171	0xbee17a10	-0.4403844
172	0x3df39bcf	0.118949525
173	0xbe3baffd	-0.18328853
174	0xbdf77c42	-0.12084247
175	0xbec3e63e	-0.38261598
176	0xbe55568d	-0.20833798
177	0xbd75aa3a	-0.059976794
178	0xbe1a7281	-0.15082742
179	0x3d144fe8	0.036209017
180	0xbec5951f	-0.38590333
181	0x3d39ac03	0.04533006
182	0xbe64ccdb	-0.22343771
183	0x3da6bf3e	0.08141945
184	0x3dc09079	0.09402556
185	0xbe7c27ae	-0.24624512
186	0xbeb54cf2	-0.35410267
187	0xbe434302	-0.1906853
188	0x3e85693b	0.26056847
189	0xbe052280	-0.13001442
190	0x3e027b40	0.12742329
191	0xbe62c66c	-0.22146004
192	0xbd95a492	-0.0730678
193	0xbe5419f1	-0.20713021
194	0x3daf3f7e	0.08557032
195	0x3e630d6c	0.22173089
196	0x3e54283c	0.20718473
197	0xbe05782c	-0.13034123
198	0x3d992c6a	0.074791744
199	0xbe351dad	-0.17687102
200	0x3d49302c	0.049118206
201	0xbe0b089d	-0.13577504
202	0x3d7cc60c	0.06171231
203	0x3eae0ece	0.3399567
204	0xbec75971	-0.38935426
205	0xbcca216d	-0.024674142
206	0x3e9237a9	0.2855809
207	0x3e03bbf7	0.12864672
208	0x3e084157	0.13306175
209	0x3e93deaa	0.28880817
210	0x3a849523	0.0010115247
211	0xbe1f58e0	-0.15561247
212	0x3e26535b	0.16242735
213	0x3e6f22f1	0.23353173
214	0x3dfd6bd7	0.123740844
215	0x3e7bd757	0.24593864
216	0xbdff4a82	-0.12465383
217	0x3df45b61	0.11931492
218	0x3da20b01	0.07912255
219	0x3e450a40	0.19242191
220	0x3e947b76	0.29000443
221	0x3eaee27d	0.34157172
222	0xbeade017	-0.3396003
223	0x3dcca2fe	0.09992026

encoder_mean.8.bias f4 [14]
0	0xb4b3d9ea	-3.3499902e-07
1	0x360c2eb4	2.088881e-06
2	0x360abf51	2.0674963e-06
3	0x371029ce	8.592802e-06
4	0xb66652f2	-3.4320951e-06
5	0x36cea69d	6.1586748e-06
6	0x34f78e62	4.6110932e-07
7	0xb4a90411	-3.1481662e-07
8	0x3392a8d8	6.829367e-08
9	0x357f847c	9.518769e-07
10	0xb62ebe43	-2.6038767e-06
11	0x363610da	2.7129922e-06
12	0x36d8cdeb	6.4612736e-06
13	0xb4d89edc	-4.034872e-07

encoder_mean.9.weight f4 [14]
0	0x3f1e220a	0.6177069
1	0x3f50ebf7	0.81610054
2	0x3f1a4572	0.60262215
3	0x3f2d3e1c	0.67672896
4	0x3f0ae4ef	0.54255575
5	0x3f237767	0.6385407
6	0x3f21bb7a	0.6317669
7	0x3ed7fc99	0.42184904
8	0x3f25e750	0.6480608
9	0x3f23fbe9	0.6405626
10	0x3f423d53	0.75874823
11	0x3f39c80e	0.72570884
12	0x3f194f67	0.59886783
13	0x3f2fe4c4	0.68708444

encoder_mean.9.bias f4 [14]
0	0xbd686351	-0.05673534
1	0xbd8e9593	-0.06962123
2	0x3e044e8b	0.12920587
3	0xbda4e071	-0.08050621
4	0x3e318a37	0.17337881
5	0x3d846d35	0.06466142
6	0x3ded0aa2	0.11574294
7	0x3e3d854d	0.18507881
8	0xbcd518c7	-0.026012791
9	0x3e04b4e7	0.12959634
10	0xbe06443e	-0.1311197
11	0xbd86a07c	-0.06573579
12	0x3e5fc3be	0.21852013
13	0x3d89dfe6	0.06732158

encoder_mean.9.running_mean f4 [14]
0	0xbe6736cb	-0.22579496
1	0xbe901c40	-0.28146553
2	0x3b87297f	0.0041248198
3	0xbd0bdd66	-0.03414669
4	0xbc8926d8	-0.016742155
5	0xbea3461f	-0.31889436
6	0x3c329a27	0.010901011
7	0x3ea5aba2	0.32357508
8	0xbe5009fb	-0.20316307
9	0x3e727db5	0.23680766
10	0xbe981094	-0.29700148
11	0xbec15d70	-0.377666
12	0x3daa5b75	0.08318225
13	0x3ebd4537	0.3696687

encoder_mean.9.running_var f4 [14]
0	0x3eb1fd8a	0.34763747
1	0x3eccfeb5	0.40038076
2	0x3ea4509f	0.3209276
3	0x3dcf91d9	0.1013524
4	0x3eb06d01	0.34458163
5	0x3e9a21c7	0.30103895
6	0x3e6491f3	0.223213
7	0x3e9f2774	0.31084788
8	0x3ebf39ed	0.3734888
9	0x3f020982	0.5079576
10	0x3ec53cc5	0.38522926
11	0x3ec812ca	0.39076835
12	0x3eaa9ffe	0.3332519
13	0x3efced03	0.49399576

encoder_mean.12.weight f4 [12, 14]
0	0xba616bf7	-0.0008599157
1	0xbee6a5b8	-0.45048308
2	0x3bdf44e9	0.0068136347
3	0x3e6dd822	0.2322698
4	0xbcf62450	-0.030046612
5	0xbe4a5d60	-0.19762182
6	0xbc7d26b1	-0.015451119
7	0x3eeacb93	0.4585844
8	0xbdb9bdb5	-0.09069387
9	0x3c94d166	0.018166255
10	0xbdbb8d4d	-0.0915781
11	0xbe9ba6d9	-0.30400732
12	0x3ec17a67	0.37788698
13	0x3da2000b	0.079101644
14	0x3e84e385	0.25954834
15	0x3e2e939e	0.17048499
16	0xbc7e944b	-0.0155382855
17	0x3dd22818	0.102615535
18	0x3e3d9da7	0.18517171
19	0x3d42febd	0.04760622
20	0x3bffd22e	0.007807038
21	0xbd9283f4	-0.07154074
22	0x3ea640ca	0.32471305
23	0xbeb4f68c	-0.3534435
24	0xbdf915e9	-0.12162382
25	0x3e537749	0.20650972
26	0x3d324e09	0.04353145
27	0xbea0ab7b	-0.3138083
28	0x3e639ef3	0.22228603
29	0x3eb3e43f	0.35135075
30	0xbbb4bbc5	-0.005515548
31	0x3d2e48bd	0.042549837
32	0x3d3a8601	0.045537952
33	0x3cd7ff08	0.026366726
34	0xbd08000e	-0.033203177
35	0xbdeb8725	-0.11500386
36	0x3e5bde44	0.21471506
37	0xbec3c6a1	-0.3823748
38	0xbe550055	-0.20800908
39	0x3dc2b0dd	0.0950639
40	0x3e007b8c	0.1254713
41	0xbeceda91	-0.40401128
42	0xbe8868b1	-0.26642373
43	0xbe8d30a9	-0.27576187
44	0x3e5bf0a8	0.21478522
45	0xbd532508	-0.051548988
46	0x3d26df28	0.040740162
47	0xbed4bf2f	-0.41552112
48	0x3e650e9b	0.22368853
49	0x3de3b93c	0.11119315
50	0xbd3f8520	-0.046757817
51	0x3df55228	0.11978561
52	0x3e548eef	0.2075765
53	0xbe774124	-0.24145943
54	0xbe0e4f44	-0.13897425
55	0x3e02b279	0.12763394
56	0x3e33ec78	0.17570674
57	0x3e120004	0.14257818
58	0xbeb00cd1	-0.34384778
59	0x3db6639a	0.08905716
60	0xbe23abd7	-0.1598352
61	0x3de3a2bb	0.11115023
62	0xbeab17a6	-0.3341648
63	0x3df16c1b	0.117881976
64	0xbe5ae5f3	-0.21376781
65	0x3e39c57a	0.18141738
66	0xbeeb8c19	-0.46005324
67	0xbe8f9f9d	-0.28051463
68	0x3e3a1a34	0.18174058
69	0x3de96302	0.11395837
70	0xbe392c40	-0.18083286
71	0xbdec44d2	-0.11536564
72	0x3cdf9adc	0.027295522
73	0xbe22c230	-0.15894389
74	0xbd8490c3	-0.064729236
75	0xbe7446b6	-0.23855099
76	0x3e130945	0.14359005
77	0x3d39013e	0.0451672
78	0xbea2a622	-0.31767374
79	0x3e8f8f25	0.28038898
80	0x3e2ace82	0.16680339
81	0xbe7bbcd9	-0.24583758
82	0xbe6aa3a1	-0.22913982
83	0x3ea7b0a4	0.32751954
84	0xbe4b6158	-0.19861352
85	0xbeefbf7f	-0.46825787
86	0x3e4e70fd	0.20160289
87	0x3e024f07	0.12725459
88	0x3e36f4bc	0.17866796
89	0xbec00bb3	-0.37508926
90	0x3e3f0209	0.1865312
91	0x3e0044fc	0.12526315
92	0xba2fa06c	-0.0006699625
93	0x3ddc0986	0.10744004
94	0x3da4aa7a	0.08040328
95	0xbe5678c0	-0.209445
96	0x3dcab14e	0.098970994
97	0x3c223900	0.009901285
98	0xbc27b3ac	-0.010235708
99	0x3d9dc8f8	0.07704347
100	0x3ddb19c9	0.106982775
101	0x3ead38fa	0.33832532
102	0x3e0c1fe9	0.13684048
103	0xbd8d6c4d	-0.06905422
104	0x3e019f9d	0.12658544
105	0xbe4145d4	-0.18874294
106	0x3e522eaa	0.20525613
107	0xbe5aba78	-0.21360195
108	0xbe5d0e90	-0.21587586
109	0x3b1f805e	0.0024337987
110	0x3e6332b8	0.22187316
111	0xbe314e2f	-0.17314981
112	0xbe6fd3a2	-0.23420575
113	0x3e6c52c5	0.23078449
114	0xbe31afe8	-0.17352259
115	0xbea0661a	-0.31327897
116	0xbe8fa1ae	-0.2805304
117	0xbd75ec9e	-0.06004011
118	0x3e3d6bd5	0.18498166
119	0xbe8bd910	-0.27314043
120	0xbe1a8408	-0.15089428
121	0x3d0b4eca	0.034010686
122	0x3e56de4a	0.20983234
123	0x3eb2f7f5	0.349548
124	0xbebaeacc	-0.3650726
125	0x3db5f0a5	0.0888379
126	0x3e4569b4	0.19278604
127	0x3dc45351	0.09586204
128	0xbea7bc74	-0.32760966
129	0x3e37adf6	0.17937455
130	0xbd3b1262	-0.045671828
131	0x3e849751	0.25896695
132	0xbedbb7ee	-0.42913765
133	0x3c32684b	0.010889123
134	0xbdf79a14	-0.12089935
135	0x3d19bfc8	0.037536412
136	0xbe9cc475	-0.30618635
137	0xbe4660d1	-0.1937287
138	0x3e43cb2a	0.1912047
139	0x3e340dfc	0.1758346
140	0xbddecb26	-0.10878591
141	0x3e8aaf19	0.27086714
142	0xbeba42f9	-0.3637922
143	0x3d62a2e9	0.055331144
144	0xbeabc406	-0.33547992
145	0xbdad4532	-0.084604636
146	0xbe331cce	-0.17491457
147	0xbe1de2e6	-0.15418586
148	0xbe65832c	-0.2241332
149	0x3eaa54d7	0.33267853
150	0xbd91a356	-0.07111232
151	0xbd2d0330	-0.042239368
152	0xbbb9d51a	-0.0056711556
153	0x3e6d040a	0.23146072
154	0x3dcfd906	0.10148816
155	0xbe210535	-0.15724643
156	0x3e3babd9	0.18327273
157	0x3e952cea	0.2913583
158	0x3e48b75e	0.19601199
159	0xbe88462b	-0.26616034
160	0x3df62885	0.12019447
161	0x3d68e16c	0.056855604
162	0x3d5a4f02	0.053298004
163	0xbe12b3a5	-0.14326341
164	0xbe6148e0	-0.22000456
165	0xbd27dd82	-0.04098273
166	0x3e96e8c9	0.29474476
167	0xbdea6c37	-0.114464216

encoder_mean.12.bias f4 [12]
0	0xb6411956	-2.8773989e-06
1	0xb5dd1ca8	-1.6474123e-06
2	0x36111bae	2.1622795e-06
3	0xb55f0dab	-8.3093863e-07
4	0xb48e916f	-2.6555378e-07
5	0x35b66d71	1.3591908e-06
6	0xb606aafd	-2.0067084e-06
7	0xb4a843c2	-3.134174e-07
8	0x3731e4ae	1.0603266e-05
9	0x3637c22a	2.7382143e-06
10	0x36a6ca6b	4.97075e-06
11	0xb4b89028	-3.4377558e-07

encoder_mean.13.weight f4 [12]
0	0x3f6bcae8	0.92106485
1	0x3f7183ea	0.9434191
2	0x3f6f9ec8	0.93601656
3	0x3f81dd51	1.0145665
4	0x3f8c43d2	1.0958197
5	0x3f83191a	1.0242035
6	0x3f50019f	0.81252474
7	0x3f693cf0	0.9110861
8	0x3fa25d9a	1.2684815
9	0x3f9385a9	1.1525165
10	0x3f8da64d	1.1066376
11	0x3f4ff1a9	0.8122812

encoder_mean.13.bias f4 [12]
0	0x3ec84d58	0.3912151
1	0x3ea4b393	0.32168254
2	0x3e42a876	0.19009575
3	0x3e6c06d6	0.23049483
4	0x3dbc11a8	0.09183055
5	0x3e7a9f23	0.24474768
6	0x3eb61f81	0.3557091
7	0x3eaea8c4	0.34113133
8	0xbc320033	-0.010864305
9	0x3e045e3b	0.12926571
10	0x3e09021c	0.13379711
11	0x3ed290c5	0.41126075

encoder_mean.13.running_mean f4 [12]
0	0xbca4ea7b	-0.02013134
1	0x3dd075c2	0.101787105
2	0xbc3b683f	-0.011438428
3	0xbdda5d12	-0.10662283
4	0xbe4413b5	-0.19148143
5	0xbdfffd0a	-0.12499435
6	0xbcadd467	-0.021219445
7	0x3db7e87d	0.089798905
8	0xbe5c39c1	-0.21506406
9	0xbda68708	-0.08131224
10	0xbe2ea679	-0.17055692
11	0x3dcfcfff	0.10147094

encoder_mean.13.running_var f4 [12]
0	0x3e685df9	0.22692098
1	0x3ea94dd2	0.33067185
2	0x3eb0cb16	0.34529942
3	0x3e87797d	0.26459876
4	0x3e65b849	0.2243358
5	0x3eb16246	0.3464529
6	0x3e6e9f04	0.23302847
7	0x3e4f5e6e	0.20250866
8	0x3e9d2f19	0.30699995
9	0x3e56e992	0.20987538
10	0x3e9d6914	0.3074423
11	0x3e608abb	0.21927921

encoder_mean.16.weight f4 [10, 12]
0	0xbd396456	-0.045261703
1	0x3cb40d99	0.02197914
2	0x3cc3476e	0.023837771
3	0xbd91c568	-0.071177304
4	0x3d222d96	0.039594255
5	0x3d027836	0.031852923
6	0x3dc77203	0.09738543
7	0xbde785b1	-0.113047965
8	0x3a090aaf	0.0005227727
9	0xbc7fdd1e	-0.015616683
10	0xbc7bc05d	-0.015365687
11	0x3cda4a6f	0.02664682
12	0xbdbbf9d6	-0.09178512
13	0x3dcb08f4	0.09913817
14	0x3db06f2d	0.08614955
15	0xbe3de00b	-0.18542497
16	0x3df70680	0.12061787
17	0xbdffee17	-0.12496584
18	0xbe1a0fe9	-0.15045132
19	0x3dec8d60	0.11550403
20	0xb7a85f69	-2.007159e-05
21	0x3e6bc63a	0.23024836
22	0x3e5e3b60	0.21702337
23	0x3d1faad2	0.038981266
24	0xbe826941	-0.25470927
25	0xbeb4a071	-0.35278657
26	0xbecab830	-0.3959365
27	0x3ea051da	0.31312448
28	0xbe8d9c43	-0.2765828
29	0x3f064c2e	0.5245999
30	0x3d151a8a	0.036402263
31	0xbee44a1f	-0.445878
32	0x3f34b527	0.70588917
33	0xbe7fe201	-0.24988557
34	0x3ee3a6e6	0.4446327
35	0xbedcba91	-0.4311109
36	0xbc2e6886	-0.0106450375
37	0xbf029468	-0.510077
38	0xbf0d89f4	-0.55288625
39	0x3ebb6b30	0.36605215
40	0xbe0f3f53	-0.13989
41	0x3ebc5294	0.36781752
42	0x3e367553	0.17818193
43	0xbed4425b	-0.41456875
44	0x3f046ab9	0.51725346
45	0xbec703e2	-0.3887015
46	0x3dce5de8	0.10076505
47	0xbe933148	-0.28748536
48	0x3cc5ea03	0.024159437
49	0xbcd5848b	-0.026064178
50	0x3cb50945	0.022099147
51	0xbc3fd6c1	-0.011708916
52	0xbcdf8658	-0.02728574
53	0xbd4551b2	-0.048173614
54	0xbd199773	-0.03749795
55	0x3bdae9f1	0.00668072
56	0x3d5a8bcd	0.05335598
57	0xbca986fc	-0.020694248
58	0xbc8bca20	-0.017064154
59	0x3bdf740b	0.0068192533
60	0x3e5a61bb	0.21326344
61	0xbec45ce1	-0.3835211
62	0xbe80afa2	-0.25133997
63	0xbdf18b7f	-0.11794185
64	0x3f5a5502	0.8528596
65	0x3ea582e0	0.32326412
66	0xbe8b26b6	-0.27177972
67	0xbf05ba25	-0.5223716
68	0x3e5bd3ef	0.21467565
69	0x3f41e14f	0.7573442
70	0x3f478faf	0.7795362
71	0xbebb2be8	-0.36556935
72	0x3ef1bd2e	0.47214645
73	0xbed48a52	-0.4151178
74	0xbecdbc1c	-0.4018258
75	0x3f0dde20	0.5541706
76	0xbe6ba961	-0.23013832
77	0x3ef969e3	0.48713598
78	0x3f00c378	0.5029826
79	0x3ccc96f5	0.024974326
80	0xbbcf1804	-0.0063200016
81	0xbea29f03	-0.3176194
82	0xbde154d4	-0.11002508
83	0x3e5f6146	0.2181445
84	0xbf60072e	-0.87510955
85	0x3e0605a2	0.13088086
86	0x3e4881c6	0.19580755
87	0xbee9230e	-0.45534557
88	0xbe84818d	-0.2588009
89	0xbe8de7af	-0.27715823
90	0xbef61840	-0.48065376
91	0xbe9e95c8	-0.3097365
92	0x3f4799ed	0.7796925
93	0xbe0f4829	-0.1399237
94	0x3e52b480	0.20576668
95	0xbee9d0e7	-0.45667192
96	0x3ce0eb9c	0.027456097
97	0xbc767ce9	-0.015044429
98	0xbd1f0e56	-0.03883203
99	0xbc996bf7	-0.01872824
100	0xba1f364b	-0.0006073459
101	0xbb46cf4e	-0.0030335966
102	0xbd19ec67	-0.037578966
103	0x3cc4123a	0.023934472
104	0x3d5fad46	0.054608606
105	0x3c9aab5c	0.018880539
106	0xbca56c0b	-0.02019312
107	0xbcd2c9f2	-0.02573106
108	0x3ca093c5	0.019601712
109	0x3d07bd13	0.0331393
110	0x3daaa4c3	0.08332207
111	0x3e3072b8	0.17231262
112	0x3d9f1c82	0.07769109
113	0x3e2eec1c	0.17082256
114	0x3c911ecd	0.017714882
115	0x3dc75615	0.09733216
116	0xbe2ec4d1	-0.17067267
117	0x3e1bee6f	0.15227674
118	0x3e1aa027	0.15100156
119	0xbc97ed80	-0.018545866

encoder_mean.16.bias f4 [10]
0	0x3ca94c04	0.02066613
1	0xbe0500f4	-0.12988645
2	0x3e221b8e	0.15830824
3	0x3ea58605	0.3232881
4	0x3d03e87f	0.032204147
5	0xbef1f7f2	-0.4725948
6	0xbeea5961	-0.45771316
7	0x3f7be4bf	0.98395914
8	0x3d040139	0.03222773
9	0xbebf0455	-0.37307993

encoder_var.0.weight f4 [20, 4]
0	0xb31cda3b	-3.652006e-08
1	0x32c1b8cf	2.2552198e-08
2	0xb25dca6f	-1.2909921e-08
3	0xb714dec0	-8.87335e-06
4	0xb4be5bb3	-3.5456978e-07
5	0xb97f7d36	-0.0002436534
6	0x37d5cf97	2.5488245e-05
7	0xbc0940ca	-0.008377263
8	0xb2cb0627	-2.3635108e-08
9	0xb2645337	-1.32902676e-08
10	0xb300f0d7	-3.0021365e-08
11	0x37e33d55	2.7089069e-05
12	0xb68bc335	-4.165248e-06
13	0x375ef290	1.3288707e-05
14	0x32d47f5e	2.4737968e-08
15	0xbb11624d	-0.0022183836
16	0x2ff327cd	4.4229723e-10
17	0x336a13f4	5.4500518e-08
18	0x31bec79b	5.5524203e-09
19	0xb2e64aa8	-2.6809474e-08
20	0xbd57fe34	-0.05273266
21	0xbc414f49	-0.011798688
22	0xbd0a31d3	-0.033738922
23	0xbbe25f69	-0.0069083464
24	0xb712f5ac	-8.759478e-06
25	0x3a06c021	0.0005140324
26	0xb828e595	-4.0268136e-05
27	0xbb84a5dc	-0.0040480923
28	0xb424822f	-1.5321051e-07
29	0xb405881a	-1.2436104e-07
30	0xb415341c	-1.3895664e-07
31	0x36e9198d	6.9469156e-06
32	0x3301976e	3.0172878e-08
33	0xb1b301c1	-5.209785e-09
34	0xb2020c78	-7.569831e-09
35	0x3511dcf6	5.433825e-07
36	0x31d2c1a1	6.1338175e-09
37	0xb79c38cc	-1.8623097e-05
38	0xb4e6bec7	-4.2979647e-07
39	0x3633510c	2.6720254e-06
40	0x33359783	4.2280146e-08
41	0xb415e4e6	-1.3959979e-07
42	0x32f5349e	2.8545681e-08
43	0x389dd296	7.525568e-05
44	0xb02dd3bc	-6.3237926e-10
45	0xaf882554	-2.476478e-10
46	0xada698c5	-1.8939858e-11
47	0x31afe2d2	5.118957e-09
48	0xbc9148e6	-0.017734956
49	0xbc29b63d	-0.01035839
50	0xbc81a369	-0.01582499
51	0xbb31e692	-0.0027145487
52	0x302b8efd	6.2412636e-10
53	0x317fcdca	3.7224361e-09
54	0xb0d01b50	-1.5141755e-09
55	0x3754d1b3	1.2685009e-05
56	0xb3f88e5c	-1.1574295e-07
57	0x32230bb3	9.490509e-09
58	0xb3b34362	-8.347594e-08
59	0x38a5083e	7.869348e-05
60	0xb9113ad9	-0.000138502
61	0x36044fa7	1.9715897e-06
62	0x3a36b53d	0.00069697556
63	0x3bb2ca06	0.005456212
64	0xb163240f	-3.3053345e-09
65	0xb58ae974	-1.0349745e-06
66	0xb58ca3dd	-1.0478503e-06
67	0x39d379c9	0.00040335793
68	0xb5bfa893	-1.427967e-06
69	0x3994b048	0.000283601
70	0x39cc7bbb	0.00039002098
71	0x3c105b60	0.008810848
72	0xb29d91fb	-1.834359e-08
73	0xb766392c	-1.372238e-05
74	0xb563f86d	-8.4925597e-07
75	0xb412496a	-1.3624017e-07
76	0xb4838c95	-2.4502938e-07
77	0x33b222c0	8.295092e-08
78	0xb3c2849d	-9.057951e-08
79	0x39a17d62	0.0003080173

encoder_var.0.bias f4 [20]
0	0x27fd487d	7.03002e-15
1	0x29aeed80	7.768352e-14
2	0xa981cf90	-5.764757e-14
3	0xaa1a3752	-1.3697141e-13
4	0xa76f8e73	-3.3245135e-15
5	0xb3ea30dd	-1.0905362e-07
6	0x28e0e1e4	2.496696e-14
7	0xa9cfc75b	-9.227229e-14
8	0x26ccb2a9	1.420377e-15
9	0x2841e1d8	1.0762624e-14
10	0xa9a6b447	-7.403154e-14
11	0xa63c9bcc	-6.5436747e-16
12	0xb3ef045c	-1.1130098e-07
13	0x26a2bf58	1.1292872e-15
14	0xa9bdd06d	-8.429442e-14
15	0xa58fb30c	-2.4927873e-16
16	0x27080c46	1.8880445e-15
17	0xa8c5e609	-2.1971155e-14
18	0xa881e382	-1.4420543e-14
19	0x2a87b9aa	2.4109648e-13

encoder_var.1.weight f4 [20]
0	0x37a5c086	1.9759183e-05
1	0x383a1ecf	4.437455e-05
2	0xb5d00b54	-1.5500505e-06
3	0xb5718779	-8.9976635e-07
4	0xb4a255bd	-3.0237234e-07
5	0x3d94afad	0.0726007
6	0x36f5fde7	7.331127e-06
7	0xb79d9737	-1.8786273e-05
8	0xb3ec3ddd	-1.1000859e-07
9	0xb5ab0efc	-1.2744854e-06
10	0xb8828f22	-6.2255436e-05
11	0x32e4a983	2.6619778e-08
12	0x3ced06ca	0.028933901
13	0xb4b57bb3	-3.380388e-07
14	0x3616fd09	2.2499028e-06
15	0xb311494e	-3.3827114e-08
16	0xb660f1bc	-3.351931e-06
17	0xb7a2dcb3	-1.9414676e-05
18	0x36725560	3.6110505e-06
19	0xb7186e0e	-9.08553e-06

encoder_var.1.bias f4 [20]
0	0x339c8ca7	7.2899006e-08
1	0x386dac94	5.666593e-05
2	0x38973cea	7.211587e-05
3	0x37bf887a	2.2832526e-05
4	0xb66469bb	-3.403619e-06
5	0xbc3debfd	-0.0115919085
6	0xb8018dcd	-3.088806e-05
7	0xb4494c61	-1.874737e-07
8	0x33863a0d	6.2504206e-08
9	0xb4f30b9c	-4.5270724e-07
10	0xb6cb3051	-6.055496e-06
11	0xb4e19e2c	-4.20246e-07
12	0xbc1b10bc	-0.009464439
13	0xb540975a	-7.174582e-07
14	0xb7a2a247	-1.9387471e-05
15	0xb409d14b	-1.283526e-07
16	0xb32e5577	-4.0590262e-08
17	0x37bc79ea	2.2468117e-05
18	0x35364db6	6.791337e-07
19	0x38befcb5	9.106976e-05

encoder_var.1.running_mean f4 [20]
0	0xb6a94a47	-5.0452395e-06
1	0xbb5ffc3c	-0.0034177443
2	0x375c1314	1.3117464e-05
3	0xba64dc01	-0.0008730293
4	0x330864e0	3.1756713e-08
5	0xbd4cfeef	-0.05004781
6	0xbaab7b81	-0.0013083072
7	0x3672317c	3.6089614e-06
8	0x34f2addf	4.520252e-07
9	0xb7482a08	-1.1930715e-05
10	0x38164e7d	3.5835885e-05
11	0xb16db898	-3.4592968e-09
12	0xbcb3cadf	-0.021947322
13	0x36dc50bb	6.565909e-06
14	0x381cb7af	3.7364367e-05
15	0x3b1cade5	0.002390736
16	0x39360d1e	0.00017361759
17	0x3b7b2756	0.0038323007
18	0xb72d3d3e	-1.0325863e-05
19	0x39124708	0.00013950106

encoder_var.1.running_var f4 [20]
0	0x2e715861	5.4875552e-11
1	0x379b1814	1.8488652e-05
2	0x2fb19c26	3.2307063e-10
3	0x35b3fdff	1.3410462e-06
4	0x27ff56ac	7.0870688e-15
5	0x39615350	0.00021488708
6	0x369661a6	4.481716e-06
7	0x2e03e91a	2.9992987e-11
8	0x2b353506	6.43777e-13
9	0x2e0e631a	3.2375082e-11
10	0x3123b51e	2.3822575e-09
11	0x27080de0	1.8881313e-15
12	0x3839cf4b	4.4300494e-05
13	0x2ebb041e	8.504507e-11
14	0x31314755	2.5797438e-09
15	0x3706400c	8.0019345e-06
16	0x336964ce	5.434122e-08
17	0x37af5c50	2.0904612e-05
18	0x2d65e3b9	1.30677075e-11
19	0x3316831d	3.5043843e-08

encoder_var.4.weight f4 [16, 20]
0	0x3657bc09	3.2146947e-06
1	0x36ce4c9e	6.148198e-06
2	0x32490735	1.17013785e-08
3	0x3245dc95	1.1517064e-08
4	0xb59629fe	-1.1188092e-06
5	0x3519ca21	5.729108e-07
6	0x2dc73db9	2.2651091e-11
7	0xb745521d	-1.17612335e-05
8	0xb6413d75	-2.8795014e-06
9	0xb6c1b98c	-5.7734487e-06
10	0xb9fa62b3	-0.00047757252
11	0xb2abed38	-2.0014895e-08
12	0x3aceae5b	0.0015768515
13	0xb501da17	-4.837361e-07
14	0xb865fc17	-5.483263e-05
15	0xb7f8b904	-2.9650058e-05
16	0xb706980b	-8.022423e-06
17	0xb433f0ab	-1.6758229e-07
18	0xb416a2cd	-1.4029065e-07
19	0xb77df116	-1.5136107e-05
20	0x3a0f0bdb	0.00054567837
21	0xb625ea9f	-2.4723483e-06
22	0x305eccd0	8.1054186e-10
23	0xbac0c8ef	-0.001470832
24	0xbaa0fb69	-0.0012281957
25	0xb9d3b3e3	-0.00040379082
26	0x39a6ad03	0.0003179089
27	0xb9a0e2ea	-0.00030686642
28	0x33296d22	3.9447634e-08
29	0xb6097743	-2.048401e-06
30	0xb78265cc	-1.554461e-05
31	0x3062388c	8.229868e-10
32	0xb6ed6f63	-7.0761175e-06
33	0xaf2b6fa0	-1.5592017e-10
34	0xb88c1a8b	-6.680664e-05
35	0x366d24a5	3.5337082e-06
36	0x30b6086c	1.3244636e-09
37	0x3a9afdc1	0.0011824892
38	0xb64c2817	-3.0421704e-06
39	0xba7d96ee	-0.00096736744
40	0xb0adbbd5	-1.2640792e-09
41	0x30556ae1	7.764083e-10
42	0xb1b6a98c	-5.3161724e-09
43	0xb1307fcb	-2.5684013e-09
44	0x2b63917b	8.0848495e-13
45	0x36852fa5	3.9692554e-06
46	0x2f3808fc	1.6737894e-10
47	0xb01fc4bb	-5.8123434e-10
48	0xaf2a17b5	-1.5469832e-10
49	0x325227d7	1.2232667e-08
50	0xb1dbbf9e	-6.3955232e-09
51	0x2f3051c6	1.6036159e-10
52	0x35ae5aa3	1.2990389e-06
53	0xafbb0e51	-3.4025274e-10
54	0x3157cc87	3.1402878e-09
55	0x2fc19cc1	3.5217876e-10
56	0x30a09e4e	1.1686525e-09
57	0x30afe4a4	1.2797909e-09
58	0x32ccdab8	2.3848187e-08
59	0xb12dcf53	-2.5292664e-09
60	0xb9ed14e5	-0.0004521973
61	0xac6b5d60	-3.3447342e-12
62	0x3353c935	4.9310263e-08
63	0x397f173b	0.00024327349
64	0xb973a6e7	-0.00023236462
65	0xb6cd40c2	-6.117015e-06
66	0xb7915ff1	-1.7330023e-05
67	0x398986a9	0.00026231006
68	0xac9c642b	-4.4449075e-12
69	0xb929e602	-0.0001620278
70	0x364445da	2.9246935e-06
71	0x35ba79d3	1.3893535e-06
72	0xaba86f4f	-1.1968012e-12
73	0x367d2acb	3.7724847e-06
74	0x3900426f	0.0001223178
75	0x3499a058	2.8615136e-07
76	0x39119755	0.00013884653
77	0x3a285e95	0.0006422785
78	0x395a34ac	0.00020809722
79	0x394d3252	0.00019569069
80	0xb51b0ef5	-5.7763765e-07
81	0x3892712b	6.982902e-05
82	0x35933a6c	1.0969356e-06
83	0xb2f845f1	-2.8902805e-08
84	0xb617dbe4	-2.2628747e-06
85	0x399e0688	0.00030140975
86	0xb584e8da	-9.902535e-07
87	0x354c4d75	7.6108637e-07
88	0xb50012f5	-4.77113e-07
89	0x3608559c	2.031541e-06
90	0x37f86d6f	2.9614863e-05
91	0x3875569a	5.8493206e-05
92	0x37cd9560	2.4507463e-05
93	0xb65f4ec6	-3.3275442e-06
94	0xb28284ed	-1.519444e-08
95	0xb0eaaa3e	-1.7074127e-09
96	0xb50077b0	-4.7857884e-07
97	0xb198bbbd	-4.4451256e-09
98	0x379ee14d	1.8939982e-05
99	0xb10e6cb9	-2.0725521e-09
100	0xb290216f	-1.677901e-08
101	0x34df0fcb	4.1548478e-07
102	0xb12135a6	-2.345908e-09
103	0xb08d3f3d	-1.0277074e-09
104	0x30afd21c	1.2792643e-09
105	0x338181fb	6.030674e-08
106	0x2df6db16	2.8064256e-11
107	0x30c58519	1.4371465e-09
108	0xaff0c0b4	-4.379267e-10
109	0x30a36c34	1.1890564e-09
110	0xaede6a4f	-1.01142754e-10
111	0xafe84c63	-4.225483e-10
112	0xb03bc0c1	-6.8304123e-10
113	0xae9f3c01	-7.241142e-11
114	0xaf7731b4	-2.2482177e-10
115	0xafab42af	-3.11521e-10
116	0x2fe30511	4.129466e-10
117	0x30c9d4f3	1.4685199e-09
118	0x2d87db32	1.5445065e-11
119	0xaf9d62e5	-2.8628402e-10
120	0x387b1301	5.9860762e-05
121	0x3831624f	4.2291646e-05
122	0xb9229c53	-0.00015507759
123	0xb0183668	-5.5374594e-10
124	0x2d0552d0	7.578563e-12
125	0xbb192a7b	-0.0023371268
126	0x33e9c043	1.088488e-07
127	0xb84a0c61	-4.817208e-05
128	0xb72f7518	-1.0458076e-05
129	0xb9c00fe6	-0.0003663294
130	0xbc50121e	-0.012699632
131	0x30385312	6.705686e-10
132	0x3a898d2f	0.0010494346
133	0xbaa0825b	-0.001224588
134	0xbbc2d415	-0.0059456923
135	0xb431ac12	-1.6547008e-07
136	0xbb2349da	-0.0024915845
137	0xb05feb94	-8.1461704e-10
138	0xb23347aa	-1.0435466e-08
139	0xba9b6010	-0.001185419
140	0xb320f2fd	-3.74739e-08
141	0xb45f9e88	-2.0826167e-07
142	0x33e250e8	1.0538662e-07
143	0xb647cb43	-2.9771625e-06
144	0x34bd7a7a	3.5293107e-07
145	0x3b42ed95	0.002974366
146	0x3714daa7	8.872396e-06
147	0x35e9dd0e	1.7424188e-06
148	0xb289af03	-1.6028485e-08
149	0x336bb6e9	5.4881557e-08
150	0xb2447fa2	-1.1437722e-08
151	0x30b934a6	1.3475485e-09
152	0x3b618cc8	0.0034416188
153	0xb1960465	-4.366074e-09
154	0xb2c56f2d	-2.2984375e-08
155	0xb41d5898	-1.4653995e-07
156	0x32dd963e	2.5796108e-08
157	0xb7a0d7f9	-1.9174056e-05
158	0x34cd40cc	3.8231371e-07
159	0x3737644b	1.0931001e-05
160	0x392b88d5	0.00016358805
161	0x364ccd0e	3.0517726e-06
162	0xb8074e2a	-3.2259304e-05
163	0x3ac21995	0.001480865
164	0xb8e167b5	-0.00010748153
165	0xba824a70	-0.0009940397
166	0x3ac9f7b5	0.0015408905
167	0xb95ba843	-0.0002094815
168	0x3823133c	3.888014e-05
169	0x3961d68c	0.00021537597
170	0x38ca8e64	9.658633e-05
171	0x3a91809a	0.0011100948
172	0xb4f34428	-4.5311867e-07
173	0xbaabc820	-0.0013105907
174	0xb82907fa	-4.030017e-05
175	0xadc8f7bf	-2.2847389e-11
176	0xb97f8e5d	-0.0002437173
177	0x38027d99	3.1111387e-05
178	0x3abd38b0	0.001443645
179	0x3772d356	1.44735295e-05
180	0xb7155525	-8.900916e-06
181	0x39418430	0.00018455158
182	0xba1e48df	-0.00060380803
183	0x38a86043	8.0287944e-05
184	0x3a0a6e96	0.0005280761
185	0x3d5ec8d0	0.05439073
186	0x398c9620	0.00026814733
187	0x37b95167	2.2091624e-05
188	0xb3f19117	-1.1248829e-07
189	0x358f5b60	1.0680924e-06
190	0xb8966688	-7.171655e-05
191	0xb6839126	-3.9210017e-06
192	0x3c8551fa	0.016274441
193	0x38046938	3.1569245e-05
194	0xb9133761	-0.00014039643
195	0x33c7d989	9.306229e-08
196	0x31f8cdfb	7.241167e-09
197	0x386e288e	5.678139e-05
198	0x37d930b0	2.5891088e-05
199	0xb9787a9c	-0.00023696799
200	0x33b36b3d	8.3548436e-08
201	0xb09a8a97	-1.1244364e-09
202	0xb10ff611	-2.0949111e-09
203	0x35d0aac2	1.5546905e-06
204	0x2ebccc90	8.585588e-11
205	0xb267addf	-1.3485503e-08
206	0x34bdc852	3.5349746e-07
207	0x353f8ba6	7.135626e-07
208	0x30518954	7.622891e-10
209	0x368aa307	4.1316994e-06
210	0xae6aef64	-5.341806e-11
211	0x359b13f7	1.155421e-06
212	0xb22bedf5	-1.0007615e-08
213	0xaf6c4bea	-2.1491045e-10
214	0x2ff90f5f	4.5303758e-10
215	0xadb698f6	-2.0758933e-11
216	0x32af2e72	2.0393802e-08
217	0x358818fd	1.0140062e-06
218	0x2d9690fb	1.711741e-11
219	0x3195089a	4.3374486e-09
220	0x397fc7bb	0.000243931
221	0xb9a08901	-0.00030619654
222	0x3aa8d85c	0.0012881863
223	0x3ab5587b	0.0013835573
224	0xb9bd6207	-0.00036121925
225	0xb93348b9	-0.00017097862
226	0x39876bca	0.00025829516
227	0xb747176a	-1.1866776e-05
228	0x37ac9187	2.0571764e-05
229	0xb6641bb7	-3.399078e-06
230	0xb96bed5d	-0.00022499771
231	0x3984221f	0.00025202424
232	0xb92d7bbd	-0.00016544662
233	0x387716e1	5.8910697e-05
234	0xb3c18177	-9.0108124e-08
235	0xb4ba9671	-3.475466e-07
236	0xb876dbf3	-5.8855814e-05
237	0xba2dced0	-0.0006630244
238	0xb942cbf2	-0.00018577257
239	0xb48a85aa	-2.5801756e-07
240	0xb1bcbd28	-5.4930247e-09
241	0xb7be3ced	-2.2678136e-05
242	0xaf6c072c	-2.1466623e-10
243	0xb6de1449	-6.618477e-06
244	0xad997ba3	-1.7448992e-11
245	0xb2cc0aa6	-2.3753568e-08
246	0x36b7579e	5.464025e-06
247	0xb145c0ee	-2.877694e-09
248	0xaf78b8a1	-2.2621062e-10
249	0x2f03b424	1.197838e-10
250	0xaeed6458	-1.0795337e-10
251	0xad9fb939	-1.8158463e-11
252	0xb85082c4	-4.971285e-05
253	0x2e35640a	4.1243488e-11
254	0x2e4eb253	4.699736e-11
255	0xb6b7ef9a	-5.4817183e-06

encoder_var.4.bias f4 [16]
0	0xabf75175	-1.7573014e-12
1	0xa80c7dec	-7.798866e-15
2	0x2e213ec0	3.6662895e-11
3	0x25328661	1.5484568e-16
4	0xad71560f	-1.3718373e-11
5	0xa6321d11	-6.179555e-16
6	0x2d47293c	1.1320996e-11
7	0x31d4ec4e	6.196877e-09
8	0x25e88856	4.033797e-16
9	0xb4e1ddf5	-4.207101e-07
10	0x291fb49f	3.5461756e-14
11	0xaa19ebf5	-1.3670994e-13
12	0xa6c65756	-1.3762682e-15
13	0x30180cd9	5.5315535e-10
14	0xb5239205	-6.093472e-07
15	0x25aa19dd	2.9507825e-16

encoder_var.5.weight f4 [16]
0	0x382be786	4.09852e-05
1	0xb2035b8a	-7.646017e-09
2	0xb89543b3	-7.1174836e-05
3	0x2f4db6ec	1.8709628e-10
4	0xb9a01fe5	-0.0003054134
5	0x342e396c	1.6225903e-07
6	0x39616527	0.00021495354
7	0x3bdf7ea0	0.006820515
8	0x35b11f41	1.3196624e-06
9	0x3d89be2b	0.06725725
10	0xb38f76f5	-6.6805946e-08
11	0x380f6f88	3.419773e-05
12	0x34168ab8	1.4020304e-07
13	0x3b339c05	0.0027406227
14	0x3d65a357	0.056063976
15	0x339dd1de	7.349057e-08

encoder_var.5.bias f4 [16]
0	0xb6e4304d	-6.8005525e-06
1	0x341c0850	1.4531656e-07
2	0xba283a57	-0.0006417385
3	0xb42da8b9	-1.6173261e-07
4	0xb70d19bf	-8.410249e-06
5	0xb497e485	-2.8292212e-07
6	0xb824a0f8	-3.925056e-05
7	0x39eb832b	0.0004492042
8	0xb4059041	-1.243907e-07
9	0x3c0aac02	0.008463861
10	0xb2c7339b	-2.3190116e-08
11	0x39055283	0.00012714606
12	0x3480f49e	2.401984e-07
13	0x3aa4efa9	0.0012583631
14	0x3c1fb5b0	0.0097479075
15	0xb31caea0	-3.64804e-08

encoder_var.5.running_mean f4 [16]
0	0x370bcaf1	8.332297e-06
1	0xb730312b	-1.0501865e-05
2	0x33b8c831	8.604582e-08
3	0xb3cec2a3	-9.628027e-08
4	0x370cf4a2	8.401608e-06
5	0x314ba73f	2.9635456e-09
6	0xb85771bd	-5.136592e-05
7	0x38cb4518	9.692664e-05
8	0xb7cc1f80	-2.4333363e-05
9	0x3aa44957	0.0012534064
10	0xb0542d61	-7.718964e-10
11	0xb6b3d186	-5.3590074e-06
12	0xb4995d57	-2.8566384e-07
13	0x384001c7	4.5778022e-05
14	0x3a882a88	0.0010388652
15	0xb322db11	-3.7917804e-08

encoder_var.5.running_var f4 [16]
0	0x2fc888e6	3.647706e-10
1	0x2fb37457	3.2642575e-10
2	0x28cc9fd7	2.271787e-14
3	0x29c60d74	8.7953e-14
4	0x2f76b3ce	2.2437449e-10
5	0x24a80d8c	7.2881335e-17
6	0x32057905	7.769136e-09
7	0x3300840c	2.992242e-08
8	0x30f32dcc	1.7693593e-09
9	0x36996b2b	4.5722313e-06
10	0x239c69bc	1.6958334e-17
11	0x2ed6abe2	9.762126e-11
12	0x2b044c5e	4.70018e-13
13	0x31f33e95	7.0793456e-09
14	0x36535ad6	3.1494324e-06
15	0x2831b4c2	9.864669e-15
