generativecf/models/bn1-64-50-target-class-1-auto-encoder.pth (torch_old, 29424 bytes, 78 tensors)

encoder_mean.0.weight f4 [20, 3]
000000 29 60 da be ce 5b fd 3d 6e 27 88 be 71 ca c3 bd
       -0.4265149 0.12371026 -0.26592582 -0.09560097
000010 17 5b ef be 7a f3 8f bb 89 d6 81 3e 49 51 88 be
       -0.46749184 -0.0043930383 0.2535899 -0.26624516
000020 f2 50 a6 bd c2 db 05 be 68 90 df be e6 74 64 bd
       -0.08120908 -0.13072112 -0.4366486 -0.055775546
000030 9c 44 b7 be 8d 29 44 be 4a 67 51 3d 47 00 7a be
       -0.35794532 -0.19156475 0.051123895 -0.24414168
000040 4c 61 f2 be 67 ec 3d 3e 99 8a e9 3e 01 cb f6 be
       -0.47339857 0.18547212 0.45613554 -0.48201755
000050 23 19 36 3e 3b e9 c7 be 7a 9d c0 be 68 53 f9 bb
       0.17783026 -0.39045128 -0.37620145 -0.0076088198
000060 b9 97 c7 bc cd bf 15 bf 92 9e 42 3e b5 92 a0 3e
       -0.02436434 -0.5849579 0.19005802 0.3136193
000070 57 7d ce 3e 60 05 33 bd f4 f6 8d 3e c9 78 8b be
       0.40330002 -0.043706298 0.27727473 -0.2724059
000080 c0 8a 7b 3e c7 97 e2 3d 4f 30 f5 3e d4 27 15 bd
       0.24564648 0.110641055 0.4788842 -0.036414936
000090 a0 90 10 3f ee 13 ba 3e a4 1e 0f be 14 ed 48 be
       0.5647068 0.3634333 -0.13976532 -0.19621688
0000a0 37 d9 ed 3e 4a 09 ff 3d a8 53 06 3f fe b7 c9 bd
       0.46454784 0.124529436 0.524714 -0.09849547
0000b0 bc 9f 70 bc c5 6b c5 3e 41 9c 81 be 9c 31 87 be
       -0.014686521 0.38558784 -0.25314525 -0.26405036
0000c0 a7 a1 f4 be 23 55 ea 3c 1e 13 79 3d 10 9e ed 3e
       -0.4777958 0.02860505 0.060809247 0.46409655
0000d0 2e 2d 08 be 92 35 9f 3e d7 13 db be 48 8d ec 3e
       -0.13298485 0.31095558 -0.42788574 0.4620154
0000e0 3c 93 6c 3e 74 40 e8 be 8b 89 26 3e 1a 53 ea bd
       0.2310304 -0.45361674 0.16263406 -0.114416316

encoder_mean.0.bias f4 [20]
000000 ea 90 67 35 c7 56 79 b6 37 1b 3f 36 85 74 5a 36
       8.6265084e-07 -3.7154402e-06 2.847706e-06 3.2552355e-06
000010 0e 6f 29 b7 64 27 a3 36 04 16 77 35 12 bb 45 b6
       -1.0099042e-05 4.862364e-06 9.204671e-07 -2.9464177e-06
000020 ff 00 6b b7 e9 7b f7 36 7e 66 c6 36 f6 cf d5 36
       -1.4007323e-05 7.3755987e-06 5.9127915e-06 6.3721045e-06
000030 13 3d aa b6 e4 07 5a b7 d0 68 d8 b4 26 0a ac 33
       -5.073505e-06 -1.299565e-05 -4.0309396e-07 8.01122e-08
000040 96 0f 5c 35 bc 9b e6 36 30 7b 92 36 24 7f 78 b7
       8.1979067e-07 6.872664e-06 4.36548e-06 -1.4811554e-05

encoder_mean.1.weight f4 [20]
000000 10 a0 30 3f 06 18 31 3f 32 63 57 3f e9 f0 2a 3f
       0.68994236 0.6917728 0.84135735 0.6677385
000010 f4 df 41 3f 27 20 31 3f 8c 50 27 3f 28 d5 38 3f
       0.7573235 0.69189686 0.6535728 0.7220025
000020 f2 45 39 3f 7d 0b 5c 3f d1 4a 2d 3f f8 94 6c 3f
       0.72372353 0.8595503 0.67692286 0.9241481
000030 6a 3f 52 3f 31 89 79 3f b2 3c 3f 3f 30 68 1d 3f
       0.8212801 0.9747496 0.7470199 0.614871
000040 42 b9 3b 3f 27 1f 48 3f 80 4e 5a 3f 04 82 37 3f
       0.73329556 0.78172535 0.8527603 0.71682763

encoder_mean.1.bias f4 [20]
000000 6a 54 48 be e5 75 95 be 85 5a 20 be 67 ad e1 bc
       -0.19563451 -0.2919151 -0.1565953 -0.027548505
000010 f7 55 de bd 4b 98 82 3d 55 5b 20 be 11 96 91 be
       -0.1085624 0.06376704 -0.1565984 -0.28434804
000020 89 da 13 be 9e cd 21 be 45 6c 22 bd 69 97 83 be
       -0.14438833 -0.15801093 -0.039654035 -0.25701454
000030 6c 76 72 be fa c6 65 be c5 38 22 3e 79 f3 e4 bd
       -0.23677987 -0.22439185 0.15841968 -0.11179251
000040 fd e2 b7 be 77 46 12 be ce a0 5b bd f6 8c c1 bd
       -0.35915366 -0.14284693 -0.053620152 -0.09450714

encoder_mean.1.running_mean f4 [20]
000000 89 ed 79 be 62 01 99 be 0f 71 3f bd b6 a5 a7 be
       -0.24407019 -0.29883868 -0.04673868 -0.32743615
000010 2f a2 82 be 31 de 97 be 71 1e f2 3c c7 55 d0 be
       -0.2551436 -0.29661706 0.029555531 -0.40690443
000020 2f e5 85 be c3 32 ad 3e af f6 bb 3d ba eb 91 3e
       -0.26151416 0.3382779 0.091779105 0.28500158
000030 18 eb ce 3e 80 dc 37 3e 78 de 4a 3e 18 ab 79 bd
       0.40413737 0.17955208 0.19811428 -0.060954183
000040 4c 71 3f be 69 e3 89 3e df 85 e9 3d 38 41 46 be
       -0.18695563 0.26931313 0.11402487 -0.19360816

encoder_mean.1.running_var f4 [20]
000000 6c 28 03 3c 4f b1 cf 3b f3 aa 1c 3b 25 7f 00 3c
       0.008005243 0.0063382755 0.0023905605 0.007842814
000010 58 56 6e 3b 12 a5 83 3b f7 c1 e9 3b 02 d6 27 3c
       0.0036367383 0.0040174806 0.007133718 0.0102438945
000020 a9 a0 a9 3b cd 40 c6 3b 0a 41 77 3b 05 90 ae 3b
       0.005176623 0.0060502053 0.0037727975 0.005327227
000030 90 25 04 3c 86 20 c4 3b 70 87 aa 3b 17 4f 8f 3b
       0.008065596 0.0059853224 0.0052041337 0.004373442
000040 d2 8c 72 3b 42 27 24 3c 10 81 04 3c 01 1c c0 3b
       0.0037010205 0.010019125 0.0080874115 0.0058627133

encoder_mean.4.weight f4 [16, 20]
000000 53 c7 c7 bd d4 a7 ab 3e f4 88 86 3d 12 13 44 3e
       -0.09754815 0.3352648 0.065690905 0.191479
000010 da a6 32 3d 90 4c 57 3e b5 b0 3b 3e 33 0e 8d 3e
       0.043616153 0.210253 0.18329127 0.27549896
000020 64 10 d8 3d 5c c2 75 be f6 b2 8b 3d 9a 1b 2e be
       0.10550001 -0.23999923 0.068212435 -0.17002717
000030 8d d5 01 be 03 eb 38 be 11 5e 4e 3d 9f 5a 42 3e
       -0.1267912 -0.180584 0.050382677 0.18979882
000040 3f a9 9f bd e5 f2 1a be 06 07 e7 bd 0e 7c e3 3c
       -0.07795953 -0.1513172 -0.112806365 0.027769115
000050 54 0d 11 be ce da 46 3d 88 f8 82 be 7f f8 16 be
       -0.1416524 0.048548512 -0.2558024 -0.14743231
000060 42 f4 df 3d 2c 23 1d bd 27 60 60 3d cb b0 87 3d
       0.1093526 -0.03836362 0.054779198 0.066255175
000070 35 fc de bd 55 46 fa 3d 61 59 ca 3d c6 f0 88 3e
       -0.108879484 0.12220446 0.09880329 0.26746196
000080 9a bc 8c 3e 3e 89 c1 bb b5 9b 57 3e fb 47 47 be
       0.27487642 -0.005906253 0.21055491 -0.19461052
000090 a9 34 ea 3d 18 fb 9f 3e 0a bb db bd fa 31 23 be
       0.114358254 0.31246257 -0.10729034 -0.15937033
0000a0 6d 04 28 3e 70 d5 5d 3d 60 7e bf b8 45 2a 56 3d
       0.16407938 0.054158628 -9.131129e-05 0.052286405
0000b0 7a 64 48 3b 2c 9a 07 3e 06 44 28 be 51 eb db 3d
       0.0030577467 0.13242406 -0.16432199 0.107382424
0000c0 c1 29 77 3e ad eb c8 3c d9 ed ea bd cb 57 8f 3c
       0.24137022 0.024526441 -0.11471147 0.017497918
0000d0 41 f2 40 3e ca 47 ed 3e 9d 93 05 be 99 8c c5 3d
       0.18842413 0.46343833 -0.13044591 0.096459575
0000e0 48 48 35 3e 65 f8 e5 3d ee a2 08 be 90 af 39 bc
       0.17703354 0.11229018 -0.13343403 -0.011333361
0000f0 c8 98 14 3d e5 1f 32 bd fd 6a d0 bd ca f2 3c 3e
       0.036278516 -0.04348745 -0.101766564 0.18451992
000100 70 81 cd 3d 34 10 55 bd 87 91 5c be 29 e8 2d 3e
       0.10034454 -0.052017406 -0.2153989 0.16983093
000110 81 20 3c bd 38 28 0c be 96 1e 27 be 69 b9 e8 bc
       -0.045929436 -0.13687217 -0.16320261 -0.028408723
000120 ad ae 5b be cf 2e bb bb 73 51 85 be 52 5f c8 bd
       -0.21453352 -0.005712367 -0.26038703 -0.09783806
000130 d9 98 45 3e 7d 68 60 be 80 73 90 3d 31 58 c7 3d
       0.19296588 -0.21914859 0.0705328 0.09733618
000140 27 ac a7 3d 55 51 2a 3e 55 7e 4f be 50 60 25 3e
       0.08187132 0.16632588 -0.20263036 0.16150022
000150 00 04 73 3e 92 0d 73 3e 32 b9 68 be 9e fa 6d 3c
       0.23731995 0.23735645 -0.22726896 0.014525084
000160 42 4d 2a be ac cb 89 bc 9c 5a 23 be 7f 4c 85 be
       -0.16631034 -0.016820751 -0.15952533 -0.26034924
000170 ab f3 08 be 5f d5 56 be 86 92 9b be 7c c5 2e 3d
       -0.13374202 -0.20979832 -0.30385226 0.042668805
000180 9c 86 14 bc fc b1 ca 3c b2 f1 91 bd 35 b1 02 3e
       -0.0090652965 0.024743073 -0.07126178 0.12762912
000190 8a 17 4c 3e 6e 9d 16 bc 83 81 63 be 8c b5 70 3d
       0.19930854 -0.009192808 -0.22217374 0.058766887
0001a0 1e 82 57 bd 37 f0 07 be e4 27 65 be 02 65 98 bd
       -0.052614324 -0.13275228 -0.22378498 -0.07441141
0001b0 e0 05 8c bc a1 30 4e 3e e6 19 00 be 04 48 95 3e
       -0.017092645 0.20135738 -0.1250988 0.29156506
0001c0 a2 ad d2 3d d8 3e 85 3e 64 86 37 bd c9 e8 b1 bd
       0.10287024 0.26024508 -0.0448059 -0.08686978
0001d0 c3 98 fb 3c 76 41 94 bc 37 c8 a2 3e b6 f0 7f 3d
       0.03071249 -0.01809762 0.31793377 0.06248542
0001e0 fd 84 4c 3e 5f 5c 53 bd f3 73 94 be 91 d2 2d bc
       0.19972606 -0.051601764 -0.28994712 -0.010609285
0001f0 6f 8d 14 3e 88 80 a8 bd 7e 68 bb 3c 48 b8 91 3c
       0.14507078 -0.082276404 0.022876974 0.017788067
000200 20 01 42 be 44 55 03 be 05 38 52 bd 57 48 f1 bd
       -0.18945742 -0.12825495 -0.051322956 -0.11781376
000210 8e 61 40 be 2f 98 51 bd aa d7 55 be e3 a9 43 be
       -0.18787214 -0.051170524 -0.2088305 -0.19107775
000220 78 dc b1 3e 3e ae 83 be 26 a0 f3 3d 85 8b ff 3d
       0.34738517 -0.25718874 0.1189578 0.12477783
000230 95 57 a0 3b 0c fc 2f 3e 7a d2 90 bc b8 23 94 3e
       0.004893253 0.17185992 -0.017678488 0.289335
000240 f5 9c ec 3b fa 48 64 bd b1 df bf bd da 5d 95 3e
       0.007220859 -0.05573366 -0.093688376 0.29173166
000250 ea 73 43 3e 35 f5 3a 3d 3b cb 1a be ca 8f 4c be
       0.19087186 0.045644004 -0.15116589 -0.19976726
000260 0b b1 a0 3d 11 9b 22 be f2 f9 ce bd 7f 00 2b 3e
       0.07846268 -0.15879466 -0.10106267 0.16699408
000270 a1 3b 12 3e b6 ce c3 bd e7 ef 2a be 8a ef dd bc
       0.14280559 -0.09560911 -0.16693078 -0.02709176
000280 e0 01 27 3d 02 f2 a0 bc 34 32 b4 bc 80 07 84 be
       0.040773273 -0.019646648 -0.021996595 -0.25786972
000290 8f c3 90 be fd 53 72 be f5 47 41 3e 9c d0 cc bd
       -0.282742 -0.23664851 0.18875106 -0.100007266
0002a0 b5 e2 ba bd 5c e1 ae 3e c8 04 76 3e 3b 2f 41 3e
       -0.09125272 0.3415631 0.24025261 0.18865673
0002b0 dc a0 3c 3e a0 a4 cf bb ce 68 c9 3c 84 c2 91 bd
       0.18420738 -0.0063367635 0.024586108 -0.07117179
0002c0 5d 39 40 be 2c f6 c0 3c c7 03 d2 3d 49 ec 60 be
       -0.18771882 0.023554884 0.10254627 -0.21965136
0002d0 f2 51 83 be ee 68 65 bd 96 93 ce bd 1f dc a1 bd
       -0.25648457 -0.056008272 -0.100867435 -0.07903313
0002e0 37 1f 40 be 09 bb 35 be 60 d9 cd bd dc e0 ec bd
       -0.18761908 -0.1774713 -0.100512266 -0.11566326
0002f0 fc 6e 38 bd 1c 84 99 3d b9 35 db bc 3a 58 8e 3e
       -0.045027718 0.07495901 -0.026759015 0.27801687
000300 de 1b d4 3c 59 a8 a8 3e d4 39 39 3d 94 dd 9a bd
       0.025892194 0.3294094 0.045221165 -0.07561794
000310 d6 d4 51 bd b1 23 a3 3d 0c 48 94 3e e4 cf 87 bb
       -0.051228367 0.07965792 0.28961217 -0.0041446555
000320 c7 95 55 3d e3 de 1e 3e 12 cc 8d 3e be 22 fa 3d
       0.052144792 0.15514712 0.27694756 0.12213658
000330 c6 77 62 bd 40 90 65 3e c5 0f 02 3e 1e e0 8d 3b
       -0.055290006 0.22418308 0.12701328 0.0043296954
000340 6e 21 5e 3e df ec bc bd dc d9 af bc 46 f6 06 be
       0.2169244 -0.09224867 -0.021466188 -0.13179883
000350 b6 47 ab 3d ae fa a0 be ff 1d 19 3c 39 b5 49 3e
       0.08363287 -0.31441253 0.0093455305 0.19698037
000360 05 88 a5 bc bc 4d 96 3d 87 8b 94 be fe df 45 3d
       -0.02020646 0.073390454 -0.290127 0.04830932
000370 f8 b6 07 3e 74 5d b5 3d 1a 54 16 3e 01 01 fc 3d
       0.13253391 0.088557154 0.1468052 0.12304879
000380 5a 00 04 3e 91 c8 b9 3d 11 72 6a 3c 87 6c 26 3e
       0.12890759 0.09071458 0.014309422 0.16252337
000390 55 c8 f7 3c 3c 8f 32 be c4 04 5a bd 73 42 57 3c
       0.030246893 -0.17437452 -0.0532272 0.013138401
0003a0 b0 72 29 be 61 4c 83 be 83 d0 95 bd 5e 3b fe bd
       -0.16547656 -0.2564421 -0.07315161 -0.12413667
0003b0 8e 47 cf 3d de ab 18 be ce 6f 99 be 51 f8 fb 3a
       0.1012107 -0.14909312 -0.29968113 0.0019223784
0003c0 18 c7 16 be 62 a2 8a bd db f4 a9 3e 31 6f 8e 3d
       -0.14724386 -0.06769253 0.33194622 0.06954802
0003d0 6f 1d e0 bd 8f c1 e6 bd b2 b0 33 3e da 03 6c 3d
       -0.10943114 -0.11267387 0.17547873 0.05762086
0003e0 6a 99 f9 3c af 12 39 3e 6a 85 66 3e 61 21 a3 bc
       0.030468661 0.18073533 0.22511831 -0.019913377
0003f0 ab df 8b 3e c0 49 e7 3d 9c 49 25 3e bc cc e9 3d
       0.27319083 0.112933636 0.16141361 0.11416003

encoder_mean.4.bias f4 [16]
000000 1a 69 42 b6 1e 0a e3 35 ec 7d a3 34 68 99 a3 b5
       -2.896943e-06 1.6915762e-06 3.0452736e-07 -1.2189093e-06
000010 f0 1a 9f 34 5b 2c e6 b5 d0 f8 23 34 7c 2f b7 34
       2.9635657e-07 -1.7149245e-06 1.5271075e-07 3.4120956e-07
000020 2f 74 30 36 c2 41 be b5 6a ad ca b5 33 f4 00 36
       2.6293671e-06 -1.4175241e-06 -1.5100643e-06 1.921563e-06
000030 72 b0 88 b5 35 55 df 35 f0 7c 39 b7 ec 73 e3 b5
       -1.0184142e-06 1.6639593e-06 -1.1055949e-05 -1.6946556e-06

encoder_mean.5.weight f4 [16]
000000 8a 1a 60 3f d4 89 61 3f 34 02 4a 3f 9f b0 26 3f
       0.87540495 0.88100934 0.7890961 0.6511325
000010 98 2e 45 3f f7 c3 4f 3f 32 17 4b 3f b4 7c 38 3f
       0.7702422 0.81158394 0.7933227 0.7206528
000020 13 d6 64 3f e8 40 51 3f 45 43 55 3f 2f 62 3f 3f
       0.8938915 0.81739664 0.8330577 0.7475919
000030 01 09 5c 3f 1a 53 6c 3f b4 0f 5a 3f 60 f3 3e 3f
       0.8595124 0.923143 0.8518021 0.7459011

encoder_mean.5.bias f4 [16]
000000 e9 ea 0a 3e 72 60 38 be 87 04 86 bd f4 64 87 3d
       0.13566174 -0.18005541 -0.06543832 0.06611052
000010 e3 fd af bd ac 6e 0f be 2b 63 20 be cc 97 bc bd
       -0.08593347 -0.14007062 -0.1566283 -0.092086405
000020 cb b1 25 3d 8d 03 f4 bd 40 51 3d 3e 17 43 4b bd
       0.04045276 -0.1191474 0.18488026 -0.04962453
000030 2c 24 ad bd c1 fe ca bd 3d 8c d0 3d e6 bc cd bb
       -0.08454165 -0.09911872 0.10182998 -0.006278622

encoder_mean.5.running_mean f4 [16]
000000 9e 44 df 3d fb 91 1b 3e e9 c3 8b 3e 9b 6e 60 be
       0.109017596 0.15192406 0.27297905 -0.21917193
000010 06 0e 3b be 12 af 17 3e 3b d7 8e be f0 96 3d bd
       -0.18267068 0.14812878 -0.27898583 -0.046286523
000020 e1 52 46 bd 4e 93 38 3d b0 74 d9 3d 60 eb fc bd
       -0.048418883 0.045062356 0.106179595 -0.12349582
000030 aa b1 b8 3e 23 aa 04 3e 63 26 35 3d aa 9c 92 3d
       0.36073047 0.12955527 0.04422606 0.071587875

encoder_mean.5.running_var f4 [16]
000000 b9 11 f9 3e 5b e2 a6 3e 74 96 01 3e a1 ad bc 3e
       0.48646334 0.3259457 0.1265505 0.36851218
000010 47 ab d1 3e ac 3d c0 3e 0f b6 be 3e 6d 8f 82 3e
       0.40950987 0.37547052 0.37248275 0.2550005
000020 8f bb 15 3f 8a 48 e9 3e 0a 71 e2 3e fe 59 ae 3e
       0.58489317 0.45563155 0.44226867 0.34053034
000030 5c 78 cd 3e e0 69 01 3f a3 47 02 3f e0 80 a8 3e
       0.4013089 0.5055218 0.5089056 0.32910824

encoder_mean.8.weight f4 [14, 16]
000000 e2 07 b4 3e 84 d8 23 be 48 db 1c bd 4b 3d 3b be
       0.35162264 -0.16000563 -0.03829506 -0.182851
000010 7b b1 cc 3d 12 9c 30 bd 43 3f 9f be 8c a2 61 3d
       0.09994789 -0.04311759 -0.31102952 0.055086657
000020 ab f7 3f be c9 be 86 bc 7d ac 39 3d 7a 0e 3d 3e
       -0.18746822 -0.016448395 0.045330513 0.18462554
000030 68 33 be 3d e1 cb 95 be 4b 37 90 3d e0 80 77 3e
       0.09287149 -0.2925711 0.07041796 0.24170256
000040 86 85 38 3e 66 43 7e 3b 84 ae ce bb 86 46 94 be
       0.18019685 0.0038797497 -0.006307425 -0.28960055
000050 88 e7 1b be b4 b0 85 be 40 ea 61 be 88 74 76 bd
       -0.15225041 -0.26111376 -0.22062016 -0.060169727
000060 5c ff df 3c f0 f0 8d be ea 59 c3 3d b2 af 6d bd
       0.027343445 -0.27722883 0.09538634 -0.058028884
000070 43 e1 80 3e 44 d2 4b be 81 81 ff 3c 5b 69 95 3e
       0.2517186 -0.19904429 0.031189682 0.29181942
000080 e1 96 34 3e 9a bf 96 bd 65 ca bd bd d8 99 e0 bd
       0.1763568 -0.07360764 -0.09267119 -0.10966843
000090 c2 83 9a bd e5 63 8e be c1 58 c4 bd 04 93 f0 3d
       -0.07544662 -0.27810588 -0.09587241 0.11746791
0000a0 30 51 ce bb f5 dd 5d be b7 48 3d 3e d7 0f 1d bd
       -0.0062962994 -0.21666701 0.1848477 -0.038345184
0000b0 a2 91 19 3d 39 cb 93 be d2 70 43 be f6 6a 95 3e
       0.037492402 -0.28865984 -0.19086006 0.29183167
0000c0 01 0d 69 be 37 37 5d bd 45 a3 39 3e d2 7e 9b 3d
       -0.22758867 -0.054007735 0.18128689 0.075925484
0000d0 ff cb 72 bd 75 1f 80 3e 6e 3e e3 3c 4e 96 28 be
       -0.059276577 0.25024 0.02773973 -0.16463587
0000e0 81 1f a0 3c 2f 1b 94 3e 59 60 c3 be 1e ae 04 be
       0.019546272 0.2892699 -0.38159445 -0.12957045
0000f0 2c 15 19 bd 05 14 96 3e 2d c4 d1 3d 9e 14 b9 bd
       -0.037373707 0.2931215 0.10242496 -0.090371355
000100 fe bd 9e bd 8a cb a6 be af 8b c4 3d b8 75 5e 3c
       -0.07751082 -0.32577163 0.09596955 0.013577871
000110 d3 17 33 be 08 e0 cc 3d 65 8c e8 3e 00 bb 6f bd
       -0.17489557 0.10003668 0.45419613 -0.058527946
000120 b7 77 62 be b1 21 b3 bc e5 bf 09 be 1a 4c b2 3d
       -0.2211598 -0.021866651 -0.13452108 0.087059215
000130 96 db b4 bd 3e d7 7e 3e 2f 73 a0 3e 8c 14 5e be
       -0.08830945 0.24886796 0.31337878 -0.21687526
000140 60 53 b5 38 7d 3e 0a be 3e 24 35 3e 06 fc 6b bd
       8.6462824e-05 -0.135004 0.17689607 -0.057613395
000150 25 42 37 be e1 75 a6 be fd 03 17 bb 6d 07 8e 3e
       -0.17896326 -0.3251181 -0.0023043149 0.2774004
000160 70 ce 4d 3d b0 f8 ab be 27 7b ae 3e c3 9f 24 3e
       0.050245702 -0.3358817 0.34078333 0.1607657
000170 60 3e 95 3e 8f 4a ac bd 48 87 e1 3d 26 b2 3a 3e
       0.2914915 -0.084126584 0.11012131 0.1823202
000180 ee 40 6e 3e 5c 6a 55 bd 24 c0 5e 3d a9 a3 ad 3d
       0.23266956 -0.052103385 0.05438246 0.08478481
000190 e4 3f af 3e 1c df 07 be 43 dc 73 3e 96 dd a8 3d
       0.34228432 -0.13268703 0.23814492 0.08245389
0001a0 79 77 ce be 76 13 3e be b7 9b a7 3c 0a 1b a2 bc
       -0.40325525 -0.18562111 0.020459993 -0.019788284
0001b0 1b 06 71 be f4 67 3d 3e 84 84 2a 3e ce 64 fa bd
       -0.23537485 0.18496686 0.16652113 -0.12226258
0001c0 6a 5d 73 bd c3 31 10 be ec 84 6e 3e 2b 9a fa 3d
       -0.05941526 -0.14081483 0.23292893 0.122364365
0001d0 64 4f 93 3e 26 3e b6 bd fa 45 03 be e9 51 9a 3e
       0.28771508 -0.088985726 -0.12819663 0.30140617
0001e0 dc 0b 7c be 59 19 80 be c0 c0 5d 3d 93 dc 96 3e
       -0.24613899 -0.2501934 0.0541389 0.2946516
0001f0 b2 06 27 bd d6 f8 5d 3d 62 ee de 3d 37 d4 49 3d
       -0.04077787 0.054192387 0.10885312 0.04927465
000200 f1 fb a9 3d a1 b1 83 3c cc 54 46 3e 82 a7 af 3e
       0.08300007 0.016075911 0.19368285 0.34307486
000210 ae 5c 34 3e df 84 e9 3d 96 72 07 3e e7 74 5b 3e
       0.1761348 0.11402296 0.13227305 0.21431313
000220 f4 64 96 be 5f 28 2d 3d 51 57 57 3e cb 74 4b 3e
       -0.29373896 0.04227483 0.21029402 0.19868772
000230 b3 ec 5a be 2a 3b 2b 3e 25 78 10 3e 51 d7 4c 3d
       -0.21379356 0.16721788 0.14108332 0.05001003
000240 88 7a 29 be 23 d8 96 3e e8 09 3c 3e 01 68 ea bd
       -0.16550648 0.29461774 0.18363154 -0.114456184
000250 89 23 3a be 7d 13 a9 3c 51 89 2c be 95 22 56 bd
       -0.18177618 0.020639176 -0.16849257 -0.052279074
000260 e4 c3 81 3d 7c 74 22 3e 9d 8b 97 bd c7 ff 36 be
       0.06336191 0.15864748 -0.07399676 -0.17871009
000270 fc 9d 9e 3e 38 3e d1 bd 84 d2 61 be c0 54 9a bc
       0.30979908 -0.102169454 -0.22052962 -0.01883924
000280 37 9f 85 be 6b 66 c9 bd 7f 77 92 3e 46 bf 16 3d
       -0.26098034 -0.09833988 0.28606793 0.036803506
000290 00 80 94 bd 01 1b 66 3e c9 23 3d bb 62 2b 3a be
       -0.072509766 0.22471239 -0.002886044 -0.18180612
0002a0 4b 30 17 3e 11 c6 51 3e 5f f2 91 be 95 31 e3 bd
       0.14764516 0.20485713 -0.28505227 -0.110934414
0002b0 a2 5c 21 3d d2 f2 4c 3e 51 28 23 bd ea 13 23 be
       0.039394982 0.20014504 -0.03983337 -0.15925565
0002c0 d5 73 8b bd 4c fb 80 3e 64 32 17 be 4c 1b 7e be
       -0.068092026 0.25191724 -0.14765316 -0.248151
0002d0 0b b7 f9 bd 0d fc 7d bd 87 f8 34 be 48 21 b2 bd
       -0.12193116 -0.062007952 -0.1767293 -0.08697754
0002e0 03 9b be 3e b0 98 92 bb 41 85 7a 3d bd 8b 68 be
       0.3722764 -0.004473768 0.061162237 -0.22709556
0002f0 ba 98 0e 3e db b9 94 be a3 fa c9 bd ff 60 c9 3c
       0.13925448 -0.29048046 -0.09862258 0.024582384
000300 9b d8 67 be b1 a0 7d 3e 05 ed 40 3d 83 62 59 be
       -0.22641222 0.2476833 0.04710104 -0.21228985
000310 31 d3 34 be 6e 05 a8 3d c9 76 5d be 98 5f 3c 3c
       -0.17658688 0.08204161 -0.21627344 0.011497401
000320 77 52 39 3e 26 48 c2 3d 8d 7e 1e be 97 e8 f0 bd
       0.18097864 0.094864175 -0.15477963 -0.11763113
000330 fb 4a 72 3e c0 89 c3 bd 52 35 9a be 6e a8 55 be
       0.23661415 -0.09547758 -0.30118805 -0.20865032
000340 91 a1 40 3e c4 30 e7 bd bd 22 86 3e 8f 0b cf 3d
       0.18811633 -0.11288598 0.26198378 0.101096265
000350 52 15 43 3e 76 71 e1 bd 2c 10 3e 3e 09 42 21 3e
       0.19051102 -0.11007969 0.18560857 0.15747847
000360 0d 8f 78 be 89 10 df bd 09 15 c8 bb 5e 4b c0 3d
       -0.2427332 -0.10891826 -0.006106023 0.09389375
000370 57 72 51 be 69 74 66 3e d3 f7 84 3e f5 42 6f bd
       -0.20453773 0.22505344 0.25970325 -0.058413465

encoder_mean.8.bias f4 [14]
000000 f4 74 87 b4 e8 c5 74 35 74 20 7a 35 91 d7 cf 35
       -2.5230804e-07 9.1185075e-07 9.3179483e-07 1.548544e-06
000010 00 8c 0f 35 c9 72 ab b5 ea dd 3d 35 6e b9 95 34
       5.347538e-07 -1.27739e-06 7.0730914e-07 2.788833e-07
000020 97 4a 49 35 ae 7d e3 35 4c 6b 13 36 eb a8 6e b5
       7.498688e-07 1.6949396e-06 2.1967162e-06 -8.8907717e-07
000030 f0 3e a8 35 4f 8c 20 b5
       1.2535293e-06 -5.980882e-07

encoder_mean.9.weight f4 [14]
000000 ca e0 32 3f 1d b4 59 3f bf 5f 39 3f df e7 6a 3f
       0.6987425 0.85040456 0.7241172 0.9176006
000010 ca 51 33 3f 46 72 4a 3f 3d 34 4d 3f c1 8c 65 3f
       0.70046675 0.7908062 0.80157834 0.896679
000020 f5 f5 4c 3f 55 84 5e 3f ef 14 68 3f b6 3e 6d 3f
       0.800628 0.8692067 0.9065694 0.92673814
000030 09 d8 60 3f 27 dc 4e 3f
       0.87829643 0.80804676

encoder_mean.9.bias f4 [14]
000000 06 b3 df 3c a6 15 c8 bd e0 8c 05 3d ce ff 22 3d
       0.027307045 -0.09769754 0.032605052 0.039794736
000010 c6 9f e4 bc a0 d8 3e 3e 3e ba 80 3d 1d f6 1c 3e
       -0.027908217 0.18637323 0.06285523 0.1532826
000020 55 f0 c7 3d 6a 77 43 3c 69 93 08 bd 78 f2 9a bd
       0.097626366 0.011930326 -0.033343706 -0.075657785
000030 2d 5b 18 be 74 2c 61 3e
       -0.14878531 0.21989614

encoder_mean.9.running_mean f4 [14]
000000 e9 10 a6 3b 5f d2 e9 bd c0 ed 26 be 47 d9 cd bc
       0.005067934 -0.11417078 -0.16301632 -0.02512802
000010 f0 26 0a bd 9a 1e 3b 3e c1 ac eb 3d 84 7d 33 3e
       -0.03372854 0.18273392 0.115075596 0.17528349
000020 2b 8f ed 3e cb 4c e3 bd 5a 6f ad bd 7c 59 33 be
       0.4639829 -0.110986315 -0.08468504 -0.17514604
000030 8a b0 86 be 17 60 8d 3e
       -0.26306564 0.27612373

encoder_mean.9.running_var f4 [14]
000000 cc b1 be 3e 97 5f c1 3e 55 53 ca 3e 8d d3 f2 3e
       0.37245023 0.37768242 0.39516702 0.47427025
000010 dc d7 ed 3e 93 5a eb 3e 8e 37 33 3f 11 58 08 3f
       0.4645375 0.4596754 0.70006645 0.5325938
000020 a2 e5 28 3f e9 70 0a 3f 73 4c e9 3e e8 29 23 3f
       0.6597539 0.5407854 0.4556614 0.6373582
000030 e4 e3 37 3f 59 6e 39 3f
       0.7183211 0.72434

encoder_mean.12.weight f4 [12, 14]
000000 3c 8d 63 3e 63 8e a4 3e 2b 1f 9f 3d dc ce 70 be
       0.22221845 0.32139882 0.07769617 -0.2351641
000010 35 fc 09 be 0c 1d a4 3e 69 81 07 be 76 e5 ed bd
       -0.13475116 0.3205341 -0.1323296 -0.11616032
000020 de 20 07 3e 02 a5 8c bd da cb 80 be d3 95 20 bd
       0.13196132 -0.0686741 -0.25155526 -0.039205384
000030 ce 78 64 be ea 2a 19 3e 4d 90 6e 3e 1e ef 34 be
       -0.22311708 0.14957777 0.23297234 -0.17669341
000040 ce 99 45 3d 74 06 71 be 27 e2 c5 bc 2c 3e 29 3e
       0.048242383 -0.23537618 -0.02415569 0.16527623
000050 aa a5 28 3d 48 69 75 3e e6 f3 b0 3e 6f 4f 52 be
       0.041173615 0.23965943 0.3456108 -0.20538114
000060 4a c7 ed bd ac be 82 be 2c d4 d9 bd 4d f5 5c 3e
       -0.11610277 -0.25536096 -0.10636172 0.2157795
000070 21 6d 69 3d 1e d8 cc 3b 61 ae a4 bd eb de ac 3d
       0.05698884 0.006251349 -0.08041073 0.08440956
000080 74 54 f4 bd 2e 1f cb 3d da 92 a1 be 82 6b 91 be
       -0.11930171 0.099180564 -0.3155735 -0.28402334
000090 e3 96 bd bd 9c 00 b9 3e 46 0b 5c 3e 06 3d 84 3e
       -0.09257295 0.36133277 0.21488675 0.25827807
0000a0 9f 86 84 3e ea 76 83 be d4 da d8 bd 4c 6c 96 be
       0.25883958 -0.25676662 -0.10588613 -0.293795
0000b0 45 09 81 be 19 af a8 3e b1 f2 08 3e 9f 40 90 be
       -0.25202385 0.3294609 0.1337383 -0.28174302
0000c0 e2 51 5f bd 2c d3 31 be 62 17 2e 3d ba cb 1b 3d
       -0.05452145 -0.17365712 0.04250277 0.038036086
0000d0 d8 7d e1 3e 5b 71 a7 bd 94 a7 12 3d 0e ff 41 bc
       0.44041324 -0.08175918 0.035804346 -0.011840595
0000e0 7f 98 bb bd 3a 80 9b be 87 2b 96 be 85 e1 de 3e
       -0.09159946 -0.30371267 -0.29330084 0.43531433
0000f0 2b a6 37 3e 77 3b 8c be 07 ba 91 bd d5 c6 86 3c
       0.17934482 -0.27389118 -0.0711556 0.016452232
000100 5a 2f 3e 3e 25 6b d7 3d 55 06 90 3e 16 6f 3a be
       0.1857275 0.10518483 0.2812983 -0.18206438
000110 0b 5f 64 bb fd 82 9b 3d 6c 2e ab 3c 05 b0 08 3d
       -0.003484669 0.075933434 0.02089616 0.03337099
000120 f1 78 29 3d 84 08 6b bd 6e c5 37 be 0d 09 9a 3d
       0.041375104 -0.057381168 -0.17946407 0.075212575
000130 96 22 3d be e4 25 85 be 86 a5 e6 bd 74 bb a0 3e
       -0.18470225 -0.2600547 -0.1126204 0.31393015
000140 88 ee 67 bd 68 07 d6 3e c9 b6 c0 3e 53 59 8f be
       -0.056623966 0.41802526 0.37639454 -0.27997836
000150 33 f6 03 3e a1 da 4d bd e5 44 02 be 20 18 2b be
       0.12886886 -0.05025733 -0.12721594 -0.16708422
000160 20 7e 27 3e 8e 6d 96 3d a8 61 86 3e 99 eb 91 3e
       0.16356707 0.07345115 0.2624638 0.2850006
000170 37 c8 b6 3e c5 62 16 be 05 95 7c be 21 17 36 be
       0.35699627 -0.14686115 -0.24666221 -0.1778226
000180 ec 21 72 be 68 43 91 3d a2 c2 7c be 5d b9 53 bd
       -0.23645753 0.07092935 -0.24683622 -0.051690448
000190 76 eb c3 bd 0c 40 19 3d 2e 8a 2a be fb f7 c6 bd
       -0.09566395 0.037414595 -0.16654274 -0.09715267
0001a0 36 77 7e be 3b 86 8a be e9 de b2 bd 01 4a 8e 3e
       -0.24850163 -0.27055535 -0.08733923 0.27790835
0001b0 ab 34 3a 3e e2 00 ff 3d cd 73 9c 3e c5 e7 08 be
       0.18184154 0.1245134 0.305571 -0.13369663
0001c0 83 38 78 3e f9 07 95 3e a1 b4 cc 3e f1 06 ba be
       0.24240308 0.29107645 0.3998156 -0.3633342
0001d0 5a f6 d1 bd a1 69 20 3e 94 23 1f bd 53 8b 56 3e
       -0.10252066 0.15665294 -0.03885229 0.20951585
0001e0 a2 bf 97 bc b8 3b d6 3c 47 7b 29 be 75 a8 d5 3c
       -0.018523995 0.026151523 -0.16550933 0.026081303
0001f0 47 19 a8 3d a3 44 02 be 31 29 af 3c fe d1 1f 3e
       0.08207946 -0.12721495 0.021381946 0.1560745
000200 ff c6 a9 bd e5 8e 1e bd 63 e9 93 be 87 7b 3f 3e
       -0.082899086 -0.038710494 -0.28888997 0.18699466
000210 33 95 d3 be a3 ef 55 be c5 fa d2 bd ca 02 13 3e
       -0.41324767 -0.20892195 -0.10301737 0.14356533
000220 90 40 84 bc 65 14 8c 3e 03 42 b2 3e 9c 35 32 be
       -0.016144067 0.2735931 0.34815988 -0.17403263
000230 de 29 97 3d 07 c1 91 3e fa cb 96 3e a6 d5 a5 be
       0.073810324 0.2846758 0.29452497 -0.32389563
000240 7d a9 81 be de 24 88 3e 7f 42 10 bd 7d 21 11 bd
       -0.25324622 0.26590627 -0.035219666 -0.035432328
000250 da f6 9a 3c e3 9c 26 3e 86 53 28 be 22 37 2b 3e
       0.018916536 0.16270785 -0.16438112 0.1672025
000260 c0 5f 4b be c1 70 85 bd fb d8 34 be ff 1f dd bd
       -0.19860744 -0.06515647 -0.17660896 -0.107971184
000270 c0 f6 cb bd 00 29 e3 3d 99 e8 9a 3e a4 ad 58 3e
       -0.09959173 0.110918045 0.30255583 0.21159989
000280 2d 87 b3 3e f2 85 36 3e 13 9f 28 3e 8a 47 c9 bd
       0.35064068 0.17824534 0.16466932 -0.09828098
000290 3d d9 5d bd 34 af 88 be a2 bc aa be 91 51 af 3e
       -0.054162253 -0.2669617 -0.3334704 0.34241918

encoder_mean.12.bias f4 [12]
000000 9a 43 13 36 8a 58 1d b5 35 84 d2 b5 e2 aa 88 b5
       2.1944056e-06 -5.86159e-07 -1.5684697e-06 -1.0182523e-06
000010 39 e4 17 b5 e7 66 2d 34 c0 f5 37 35 e0 18 32 b4
       -5.658399e-07 1.6149316e-07 6.8530426e-07 -1.6586591e-07
000020 de 69 2d 35 01 be 39 b6 60 2b 93 35 55 04 f1 35
       6.460158e-07 -2.7677745e-06 1.0964977e-06 1.795716e-06

encoder_mean.13.weight f4 [12]
000000 d3 93 6b 3f 41 d2 67 3f d1 65 7f 3f 4f 03 78 3f
       0.92022437 0.90555197 0.99764735 0.9688005
000010 b2 46 89 3f eb 18 7e 3f 40 d5 64 3f 3a 61 75 3f
       1.07247 0.9925677 0.89387894 0.9585148
000020 1c cb 62 3f c5 31 72 3f f6 8b 4c 3f 69 cb 7c 3f
       0.8859117 0.9460719 0.79901063 0.9874788

encoder_mean.13.bias f4 [12]
000000 26 10 58 3e de 1d 75 3e 14 a9 0c 3e 4c 1f e6 3d
       0.2109991 0.23937175 0.13736373 0.11236438
000010 ec e8 6e 3e 99 75 23 3e 54 e4 21 3e c8 8c 73 3d
       0.2333104 0.15962829 0.15809757 0.05946043
000020 68 0e 94 3e 6f 46 cf 3d f1 c7 5f 3e ea dc 8e 3e
       0.2891724 0.10120856 0.21853615 0.2790292

encoder_mean.13.running_mean f4 [12]
000000 1f 65 dd 3c 4c 57 ea 3d 88 b5 11 3c 83 af ab bd
       0.027025757 0.11442432 0.008893378 -0.083830856
000010 10 5f 6c 3d 52 c0 ad bc 52 aa e3 3d de c0 46 be
       0.057707846 -0.02120987 0.111164704 -0.1940951
000020 3d 81 20 3e d2 22 dd bd 85 cb 62 3d db 67 80 3e
       0.156743 -0.10797657 0.055369873 0.25079235

encoder_mean.13.running_var f4 [12]
000000 9c 55 eb 3e ae 56 49 3f cd 24 5c 3f e3 16 24 3f
       0.45963752 0.7864789 0.85993654 0.6409742
000010 c6 70 15 3f 07 45 5c 3f bd a0 5a 3f c2 8e 49 3f
       0.58375204 0.8604283 0.8540152 0.78733456
000020 e7 3f 02 3f 62 85 36 3f 7f de e0 3e 4f 40 60 3f
       0.5087876 0.71297276 0.4391975 0.8759813

encoder_mean.16.weight f4 [10, 12]
000000 c9 bc 82 3d 27 45 c4 bc 1c 42 66 3c 36 df c7 bc
       0.06383664 -0.023958756 0.014053848 -0.024398427
000010 2c ce d5 bc 6d 83 86 3c 1b af a4 bd 3d 62 21 3c
       -0.026099287 0.01642009 -0.08041211 0.009850082
000020 e7 97 c1 bd 1d d1 3e bc 5e 82 58 3d fd 70 e9 3d
       -0.09452801 -0.011646536 0.052858703 0.11398504
000030 1e 9f b7 bd d4 fb a9 3e 9c cb 73 be f3 10 61 3e
       -0.08965896 0.33199942 -0.2380814 0.21979122
000040 c3 84 0b 3e d8 d3 e8 be 5b c5 8a 3e 7e 1b a4 be
       0.13624863 -0.45474124 0.27103695 -0.32052225
000050 c1 8a 97 3d 26 d4 bd be eb 10 51 3c d1 7b a4 3e
       0.07399512 -0.3707592 0.012760381 0.32125714
000060 9d b0 bb 3e 4d 58 8d 3d 6c a3 82 3e 18 17 e8 be
       0.36658183 0.06901608 0.25515306 -0.4533012
000070 ec ef 02 bf cd a6 b0 3e 8d 83 09 be 58 70 c5 3d
       -0.5114734 0.3450226 -0.13429089 0.096405685
000080 e1 78 01 3f 1e ee de 3e b5 a4 10 3f 16 7c de be
       0.5057507 0.43541044 0.56501323 -0.43454045
000090 f0 25 3d 37 d9 27 b4 ba 85 9e 12 be a0 df a6 3c
       1.1274111e-05 -0.0013744786 -0.14318283 0.020370305
0000a0 32 7e 95 bb 9e 86 be 3d 2b f6 80 3d f1 ba f0 3c
       -0.004562163 0.0930302 0.06296953 0.029386016
0000b0 5a 1a 85 bc 47 66 10 3d 1f c7 c4 bc 54 1d 20 bd
       -0.016247917 0.03525379 -0.02402073 -0.03909047
0000c0 9f f7 8c bd 0b d1 02 3e 89 91 2a 3c 0b ff 93 3d
       -0.068831675 0.12775056 0.010410675 0.0722638
0000d0 01 d6 b5 3b b6 02 aa bc 9e 8d 00 bd 00 7d 10 bd
       0.005549193 -0.020753246 -0.031385057 -0.03527546
0000e0 94 bf 96 bd 34 5e a1 bc 73 ef 68 bd 36 55 45 3d
       -0.073607594 -0.01969824 -0.05686898 0.048176967
0000f0 4e bf bd 3d 1d 46 d9 bc 12 d2 db 3d fc ee a1 bd
       0.09265004 -0.02652269 0.10733427 -0.07906911
000100 bc 13 e9 3d cc 0c d7 bd 70 79 19 bd 5f 03 e4 3c
       0.11380717 -0.10500488 -0.037469327 0.027833639
000110 3e a1 4a bd c5 e4 90 bd 5c ab 74 3d 29 74 e0 bb
       -0.04947018 -0.07074884 0.059733734 -0.006849785
000120 e9 8c 6d be 9d 49 0b be d2 27 43 be 1c f8 5e 3d
       -0.23198284 -0.136023 -0.19058159 0.054435834
000130 97 55 93 be e3 bb c7 3d 8e 7a 8d 3d 1e b3 20 3e
       -0.28776237 0.097526334 0.06908141 0.15693328
000140 fb 3a 9c 3d 91 d0 01 be f3 c3 dc 3c c5 c9 bd bc
       0.07628437 -0.12677218 0.026948905 -0.0231675
000150 cc be e9 3e 3a a1 db 3e 37 95 fc be 9a 57 f9 be
       0.4565338 0.42896444 -0.49332592 -0.48699647
000160 6b f3 9c be 58 49 87 be ae b6 dc 3e 45 97 d6 be
       -0.30654463 -0.26423144 0.43108124 -0.41912284
000170 b0 ee 9b 3e 1f e4 a1 be e7 88 28 3e 02 a5 8f 3e
       0.30455542 -0.31619355 0.16458474 0.28055578
000180 4b f6 c4 3c ba c5 c8 3d 10 16 c0 3c 9e 43 98 bc
       0.024043223 0.09803338 0.02344802 -0.01858693
000190 b3 1e 8a 3d 42 ca c6 bc f2 74 4f bd e2 a6 96 3d
       0.06744137 -0.024266366 -0.050648637 0.07356049
0001a0 db 45 56 bc 81 e9 d9 bd 19 7b 13 3d b4 69 3b bd
       -0.013078178 -0.106402405 0.036006067 -0.045755103
0001b0 11 82 a9 bd ba e0 df bd 71 75 40 bd 70 4c a5 bc
       -0.08276761 -0.10931535 -0.046987 -0.02017805
0001c0 b9 c5 d0 bd 23 b5 9f 3c ef c4 07 3d 14 7e 0c 3c
       -0.101939626 0.019495552 0.033146795 0.008574981
0001d0 29 bb aa 3d 8f 6a 86 bb 55 df 4c bd a1 1f 2b 3d
       0.08336479 -0.0041020582 -0.050017674 0.04177821

encoder_mean.16.bias f4 [10]
000000 3b f5 44 bc a3 49 14 3c d5 e0 ca be 89 7c d7 3b
       -0.012021358 0.0090507595 -0.39624658 0.006576125
000010 20 5e 7d 3c a1 7e 8a bc 5b 1b 7d 3e aa 3a 1d 3d
       0.015464336 -0.016906084 0.24717467 0.038386025
000020 c9 cc fd bc 63 88 b9 3d
       -0.030981438 0.09059217

encoder_var.0.weight f4 [20, 3]
000000 87 44 56 3d 94 79 ac 3c dc e5 71 ba 68 5a 86 bd
       0.052311447 0.021054067 -0.0009227672 -0.065602124
000010 d9 22 e0 bd c0 7b 36 3d 4e 52 8b bc 27 9a 4b bd
       -0.10944147 0.04455161 -0.01700702 -0.049707558
000020 d4 fc 8d bc 11 f9 4e bd c2 a2 e4 bc 1f 52 02 3e
       -0.017332472 -0.050530497 -0.02790964 0.12726639
000030 9d ea b8 bc db 72 ad bd a4 f9 98 bd 14 61 07 3d
       -0.02257281 -0.084691726 -0.0746949 0.033051565
000040 28 d5 25 3b 64 e8 99 bc 56 f5 a6 bc 81 85 4b 3d
       0.0025304053 -0.01878757 -0.020380657 0.049687866
000050 aa b2 91 3c 4a 6b 3a bc 8a bc 88 3c ed 65 9e 3c
       0.017785389 -0.011378119 0.016691465 0.019335711
000060 d4 27 83 3d 9e 42 0e bc 33 39 e9 3c 34 14 90 bd
       0.06404081 -0.008682875 0.028469658 -0.070351034
000070 a7 25 13 3d 04 3b 66 bd 43 ef 11 3d 37 60 35 3d
       0.03592458 -0.056208625 0.03562857 0.04428121
000080 af 75 39 3d b3 17 8b bd be 03 e1 3c c6 ad 0d bd
       0.045278247 -0.0679163 0.027467605 -0.03458955
000090 91 59 1b 3d fe b1 32 3d 2a e8 2e 3d c1 eb cd 3b
       0.037927214 0.043626778 0.042701878 0.0062842076
0000a0 ff 0c b5 3c ca 5a 66 ba 40 f8 06 bd 48 05 8e 3b
       0.022100924 -0.00087873323 -0.032951593 0.0043341257
0000b0 9e b8 30 bb 4e 1f 8e 3d 43 1c 57 bc 5d dc 04 3d
       -0.002696551 0.06939565 -0.013129297 0.032436717
0000c0 5a fd e1 bb b3 c2 03 3c 4e 26 aa 3c 0a 0a 72 3d
       -0.006896657 0.008042025 0.020770218 0.059091605
0000d0 24 1f b5 bc d2 12 7f 3c 2a 13 6d 3c 1a f7 98 bd
       -0.022109576 0.015568452 0.014469901 -0.07469006
0000e0 4c 9b 05 bd 99 32 52 bd 39 eb a7 bb 38 96 5d 3c
       -0.032618806 -0.051317785 -0.0051244763 0.0135245845

encoder_var.0.bias f4 [20]
000000 1f b7 10 b4 d7 08 31 34 98 7a 22 b4 ce ef 3b b4
       -1.3477664e-07 1.6487625e-07 -1.5132025e-07 -1.7502973e-07
000010 3c 4d 23 35 bc 2c aa 32 a6 dd 79 33 a5 2a 4e b3
       6.083462e-07 1.9810948e-08 5.817642e-08 -4.8001898e-08
000020 0b f0 c1 33 e7 f3 7e 33 3d 92 91 b4 c4 fe cf 33
       9.0309264e-08 5.936081e-08 -2.7114757e-07 9.68553e-08
000030 78 b3 07 34 3e 76 96 b3 f4 13 a4 b1 26 db e0 b3
       1.2638145e-07 -7.0064274e-08 -4.7752966e-09 -1.0470676e-07
000040 03 a8 1a 32 56 eb 4c b4 8a bd 03 35 80 c8 79 2f
       9.002181e-09 -1.9084595e-07 4.907712e-07 2.271765e-10

encoder_var.1.weight f4 [20]
000000 5b c2 45 3d c7 42 bf 3d 65 db 71 3d d4 72 31 3c
       0.048281055 0.09338909 0.05904712 0.0108306
000010 af 96 ca 3d 63 58 4a 3c 2e 99 73 3d 10 e5 0e 3c
       0.09892022 0.012350175 0.059472255 0.008721605
000020 20 12 47 3d 67 33 b8 3d 25 19 3a 3d e8 fd c7 3d
       0.04860127 0.08994179 0.045434136 0.09765226
000030 e4 fc 60 3d 77 16 65 3c e3 26 0d 3c 2b 62 87 3d
       0.054928675 0.013982407 0.008615228 0.06610521
000040 e4 dd 52 3a d9 44 95 3d 1a ba 9d 3d 79 0c 6b 3c
       0.00080439285 0.07288522 0.07701512 0.014346235

encoder_var.1.bias f4 [20]
000000 11 be 28 bd b9 e4 dc bc 63 8c 7e bc ae e4 6a bc
       -0.041196886 -0.026964532 -0.0155364005 -0.014336748
000010 e2 22 0f bd 0c 2d d9 bc 21 35 01 bd 8e d5 d1 bc
       -0.034945376 -0.026510738 -0.03154481 -0.025614526
000020 c1 cd ca bc c2 0f 64 bd d3 7c 7a bd a8 3a e3 ba
       -0.024756314 -0.05567909 -0.061154198 -0.0017336207
000030 84 5b 88 bd 24 55 a7 bc f2 71 1e bd 0f 51 e0 bc
       -0.0665808 -0.02042634 -0.038682885 -0.027382402
000040 3b bb 8e bc c9 1e 86 bc 3e ed e8 bc 66 23 33 bd
       -0.017423263 -0.016372101 -0.028433438 -0.04373493

encoder_var.1.running_mean f4 [20]
000000 25 d0 2b 3d 8b cf 94 bd b0 96 31 bd 72 57 48 3c
       0.04194655 -0.07266148 -0.043356597 0.01222788
000010 6d ab b0 bd 8d 77 2f 3c ca ae d1 3c c9 68 4f 3c
       -0.08626447 0.0107096555 0.025596041 0.01265926
000020 a7 94 33 3d 3a f6 30 bd 37 85 73 3d ef 0c 05 bd
       0.043842938 -0.04320357 0.059453215 -0.032483038
000030 c9 e1 7a 3d 6c 0f 97 3c ee 22 98 bc 11 dc 36 3d
       0.06125048 0.01843997 -0.018571343 0.044643465
000040 bc c1 30 3c 56 35 b0 3b 4b 6f 38 bd e9 25 bb bc
       0.010788377 0.005377452 -0.045028012 -0.022845225

encoder_var.1.running_var f4 [20]
000000 7d ef e4 38 80 48 6b 39 a9 a3 10 39 9c 4c 33 39
       0.000109164954 0.00022438355 0.00013793878 0.0001709931
000010 24 21 3a 3a d2 5d 43 37 39 4a c2 38 b2 90 00 38
       0.0007100275 1.164475e-05 9.264466e-05 3.0652336e-05
000020 69 ba 4f 39 f7 a4 9e 39 5a e4 a1 39 4e 2b 38 39
       0.00019810502 0.00030259017 0.00030878448 0.0001756374
000030 3b 7c a2 39 5c 8b c1 37 53 8a 1d 38 ff 66 69 39
       0.00030991607 2.3072287e-05 3.756054e-05 0.0002225898
000040 bc a0 aa 37 b5 a6 82 38 c1 21 70 39 df 54 26 38
       2.0340427e-05 6.229935e-05 0.00022900758 3.9656526e-05

encoder_var.4.weight f4 [16, 20]
000000 d0 1f 56 bb 5b 25 a2 3c 50 9e 8b 3c 75 dc 1a bb
       -0.003267277 0.019793203 0.017043263 -0.0023629938
000010 ba 6f 00 3d e8 21 09 bb 66 8e 9f 3c 79 7b 08 3a
       0.03135655 -0.002092475 0.01947708 0.0005206387
000020 a8 c2 d2 3c e9 0a e3 3c 6e 0d d8 3b 8f 5f 8f 3c
       0.025727585 0.027715163 0.006593398 0.01750162
000030 61 33 48 bc f9 2e 5b bb cb 03 5e 3b b4 ba cb 3c
       -0.012219281 -0.0033444746 0.0033876773 0.0248693
000040 b7 df 53 bb a6 78 21 3d 5b 84 11 3d 57 34 cc 3a
       -0.003232939 0.0394217 0.035526615 0.0015579563
000050 84 c2 1b 3d 27 3f f5 bc 65 d3 9f bb 1f d5 2c 3c
       0.0380273 -0.02993734 -0.004877495 0.010548859
000060 a4 8e fe 3c df ab af 39 fa 20 1b 3d 03 c2 89 bb
       0.031073876 0.00033506655 0.037873246 -0.004204036
000070 08 35 4d 3c d1 41 33 3d 45 63 32 3d ca 37 7e 3d
       0.012524851 0.04376394 0.043551702 0.062064923
000080 cc 27 12 3d e7 43 47 bb 80 66 6d bb ef 34 07 3d
       0.035682485 -0.0030405463 -0.0036224425 0.033009466
000090 a6 86 43 bb 3e a2 96 3c fa 5b e2 bb c1 38 62 3b
       -0.0029834895 0.01838791 -0.006907937 0.0034518691
0000a0 20 19 f2 b9 84 4c 41 3d ef c7 f1 3c 06 df 06 bb
       -0.00046176556 0.04719211 0.029514281 -0.002057971
0000b0 e9 10 ab 3c 9a 2d 6b 3b 6f bc 73 3c b4 27 05 3b
       0.020882087 0.0035885335 0.014876469 0.0020317854
0000c0 92 f3 8f bc 56 f2 dc 3c 8b 2f 44 bb 94 8a 91 3c
       -0.017572198 0.026971024 -0.0029935564 0.017766275
0000d0 ed 9a 84 3a 67 d3 92 bb 73 85 74 3c de a1 bb bb
       0.0010116972 -0.0044807675 0.014924395 -0.005726083
0000e0 3c ce 40 3a 44 08 9a 3c 9f de a1 3c 10 65 6d 3c
       0.000735495 0.01880277 0.019759474 0.014489427
0000f0 ac 7e 55 bb 0c 97 66 bc 75 c7 2c bc 47 07 39 b9
       -0.0032576723 -0.014074098 -0.010545601 -0.00017645686
000100 61 75 21 bd b2 97 20 bc 19 69 cb bb 38 78 8a bc
       -0.039418582 -0.009801792 -0.006207597 -0.016903028
000110 43 ac eb ba d0 cb 4e bc 9e f8 8e bb 77 55 3f bc
       -0.0017980415 -0.012621835 -0.0043631336 -0.011678091
000120 24 d7 0e bc 8b 33 bb bb 9c db 53 bc bd 7a 61 ba
       -0.008718286 -0.0057129315 -0.012930777 -0.0008601358
000130 b1 cf 23 bc 27 b1 7c 3c fc 34 74 bb e4 05 d1 bb
       -0.009998248 0.015423096 -0.0037263026 -0.006378876
000140 f1 d7 d4 3a 16 a8 0c bb 2d 2a 7c 3b 9c 9e 5a ba
       0.0016238672 -0.0021462492 0.0038477287 -0.00083396747
000150 d2 03 56 3c 8e 59 b7 b9 34 d5 3e 3a 37 49 1c 3b
       0.013062434 -0.00034971203 0.00072796945 0.002384735
000160 60 17 8f 3b 7d 4c cd 3b f5 7b aa 3b 6a fa c4 3b
       0.0043668 0.0062652216 0.005202765 0.006011297
000170 58 53 62 3b ec 0f 27 bb 52 04 a2 3b d6 3a e9 3b
       0.003453454 -0.0025491668 0.0049443627 0.0071176095
000180 f9 88 11 3b 1f db e2 ba 55 98 8a 3b 0d 47 83 3b
       0.0022206886 -0.0017307735 0.004229585 0.0040062726
000190 11 ad 01 bc ce 9c af bc 25 60 df bb 85 e4 01 3b
       -0.007914797 -0.021437075 -0.0068168812 0.0019820046
0001a0 e2 17 9e bc 55 c1 55 bb ca 87 a1 bc 5b 78 da bb
       -0.019298498 -0.0032616456 -0.01971807 -0.0066671795
0001b0 e6 2a ec bc 74 26 c0 bc 46 e3 c3 bc a7 d1 29 bd
       -0.02882905 -0.023455836 -0.023912083 -0.041459706
0001c0 03 9e e0 3b 72 52 14 bc 48 02 5d 3b fe 57 be bc
       0.006854774 -0.00905286 0.0033723284 -0.023235317
0001d0 e2 7a 93 3b 82 40 e4 bc c2 5c e8 bc 6d 8f 9e bb
       0.0045007328 -0.027862791 -0.028364543 -0.004838875
0001e0 7a 3a 37 bc bc 4f 03 3d 5d 51 6e 3c a6 1a c1 ba
       -0.0111833755 0.032058463 0.014545766 -0.0014732673
0001f0 ac 35 98 3b 42 02 b4 bb 41 42 98 3c ee 32 40 3c
       0.00464507 -0.005493433 0.01858628 0.011730893
000200 f8 68 69 bb d3 6a 0d 3d ea 73 da bb f7 ae 0c 3c
       -0.0035615545 0.034525704 -0.00666665 0.008586637
000210 b3 35 3e bc dc 7d 47 bb e6 c5 44 bb 40 f6 cd ba
       -0.011609483 -0.0030440008 -0.0030025183 -0.0015713647
000220 ff 2d aa 3b 0c cd be bb 77 c9 8c 3c b4 44 23 3c
       0.0051934714 -0.0058227833 0.01718591 0.009965111
000230 c6 5c 53 3c b6 1a 18 3d 09 ff c6 3c 97 dd c1 3b
       0.012900537 0.03713485 0.024291532 0.005916308
000240 4f b4 49 3d a5 69 d7 3b af ff c8 3b ac d4 9f bb
       0.04924422 0.006573873 0.0061339955 -0.0048776474
000250 51 be 1b bc db c8 b5 3c d2 a7 1e 3d c8 b7 f3 3b
       -0.009505824 0.022190502 0.038734265 0.00743768
000260 8c 66 31 3d 2a b9 d9 3b d2 22 b8 bb 9d 54 59 3b
       0.043310687 0.0066443877 -0.0056193853 0.0033162006
000270 f6 f1 13 3c 56 0d df 3b ec bd 00 3d c7 48 05 3c
       0.009029856 0.0068070097 0.031431124 0.008135027
000280 7a 69 56 bb 0d 5d 54 3c a9 6a 0c 3c ab 03 b5 ba
       -0.0032716678 0.012961638 0.008570352 -0.0013810297
000290 12 80 92 bb fd 11 2c bb dd 12 95 3b 96 e3 4c 3a
       -0.0044708336 -0.002625584 0.004549368 0.00078158954
0002a0 66 15 54 bb cd 3d 5d 3c c7 14 55 ba d9 30 cd ba
       -0.0032361387 0.013503504 -0.0008128401 -0.0015654817
0002b0 72 0d 77 bb 69 d5 6a ba 81 cd 24 3b 34 52 48 bb
       -0.0037697223 -0.0008958192 0.0025146904 -0.0030566575
0002c0 3f 96 0e bb 15 6f 4c 3b 3a c7 0f 3c ed b2 a2 39
       -0.0021757034 0.003119414 0.008775527 0.00031032358
0002d0 b7 bd d2 3b a2 e1 5c 3d fc e9 df 3c a0 74 22 3c
       0.006431307 0.053926118 0.027333252 0.009915501
0002e0 7c f7 1b 3d 44 b2 07 3c 83 8a e8 3c cd 30 13 b7
       0.038077816 0.008282248 0.02838636 -8.773245e-06
0002f0 58 a1 03 bd 30 31 2f 3d 1f 67 5d 3c 02 28 21 3d
       -0.03213629 0.04277152 0.0135133555 0.039344795
000300 4c c3 20 3d 09 24 0e 3c 79 38 10 3c d3 e7 d9 ba
       0.03924875 0.008675584 0.008802527 -0.0016624875
000310 cd a6 26 3c bb ff 10 3c c9 e8 21 3d ab 7a 8c 3b
       0.010171604 0.008850033 0.03952864 0.004287084
000320 22 9e a1 3c 75 14 b3 3c f1 e8 8f 3c 57 48 de 3a
       0.019728724 0.02186034 0.01756713 0.0016958815
000330 76 50 e0 3c 14 ea 05 ba 40 55 d1 3c 2c 22 4f ba
       0.027382117 -0.0005108428 0.025553346 -0.00079015153
000340 ec 48 a2 3c ba 17 76 3c 73 77 2d 3c 98 0a 32 3d
       0.019810162 0.015020305 0.010587561 0.043467134
000350 fd 2b f7 3c 9b a6 72 3a 88 96 30 bc 87 89 e6 3c
       0.030172342 0.00092563935 -0.010778077 0.02814175
000360 31 fd 0f bb 35 de fa 3c c3 0e b0 3c e4 23 d2 3b
       -0.0021970982 0.030623535 0.021491414 0.00641297
000370 e4 20 cc bb c4 65 32 3c c7 25 21 3c 70 05 f3 b9
       -0.006229507 0.010888521 0.009835667 -0.00046352623
000380 25 24 22 3c 0f 0f 53 b9 2c 1c 16 bb fb e1 05 ba
       0.009896313 -0.00020128138 -0.0022904975 -0.0005107221
000390 7d 43 c7 bb 90 6b b1 bb 42 07 d6 bb 26 5e 84 ba
       -0.0060810433 -0.005414434 -0.006531627 -0.0010098859
0003a0 5b 40 ba bb 9c 9b 69 bb 65 71 d7 ba 48 b3 d8 ba
       -0.0056839413 -0.003564573 -0.0016436992 -0.0016532922
0003b0 85 96 dd ba cc 9f 1c 3c ae d5 d2 3c 58 3a 2b b9
       -0.001690582 0.009559583 0.025736656 -0.00016329566
0003c0 40 cf 3d b9 14 a8 06 3c 24 ad 18 b9 cb c9 28 b9
       -0.00018101651 0.008218784 -0.0001456035 -0.00016096902
0003d0 a8 87 bd 39 fb 68 aa ba 2c 83 31 38 70 d2 e4 b9
       0.0003614996 -0.0013001257 4.2322252e-05 -0.00043644337
0003e0 af f7 8b ba 85 b1 64 3c 80 b6 c9 b9 17 3d 90 39
       -0.0010678674 0.01395834 -0.0003847368 0.00027511336
0003f0 28 5d f4 ba 4b fe dd 39 a1 76 fc b9 0b d2 08 ba
       -0.0018643485 0.00042341868 -0.0004815357 -0.0005219287

encoder_var.4.bias f4 [16]
000000 8a 84 4a 35 10 db 3b b2 c8 f4 0a 34 6d 3a bd b2
       7.5443734e-07 -1.0934642e-08 1.2941302e-07 -2.2029065e-08
000010 88 42 b1 33 23 bb e2 b4 ca 2a 77 b5 66 e0 d2 34
       8.254307e-08 -4.223194e-07 -9.2076937e-07 3.927882e-07
000020 d1 bb b9 b2 6c 94 ae b4 3c f0 35 34 bc 4c 29 33
       -2.1622244e-08 -3.2518017e-07 1.6944335e-07 3.941817e-08
000030 c8 5c 3a b2 70 89 d9 32 59 6b fc b1 70 2f 28 32
       -1.0847721e-08 2.5324624e-08 -7.3463693e-09 9.789673e-09

encoder_var.5.weight f4 [16]
000000 5c 99 8b 3d f8 f0 ac 3d eb 69 9d 3d 01 58 90 3c
       0.0681636 0.08444399 0.07686218 0.017620089
000010 68 e3 7c 3b e0 fc 9a 3d ec 6c 1c 3d fc c2 17 3d
       0.0038587693 0.07567763 0.038189813 0.037051186
000020 1d c3 57 bb 60 bc c1 3d 48 e2 81 3d be 5a f9 3c
       -0.0032922693 0.09459758 0.06341988 0.030438777
000030 77 87 a8 3a 5e 9b 5a 3b 13 ca 87 3b 18 82 19 3d
       0.0012857754 0.0033356766 0.004143962 0.037477583

encoder_var.5.bias f4 [16]
000000 9a c5 04 3d 8d 9b 85 3c af 09 ab bb b7 ee 71 bc
       0.03241501 0.016309524 -0.0052196602 -0.014766387
000010 fe bc 80 3c 01 3f da 3b a5 5e 86 3c 7a 43 b9 3c
       0.015715118 0.0066603427 0.016402552 0.022615183
000020 d2 1a 27 bc b0 4b 03 bc 10 47 c6 3c 7e 58 d4 3b
       -0.010199266 -0.008013651 0.024203807 0.0064802757
000030 87 44 01 bc 3d af 80 bb 96 9f 20 bc 97 23 a9 3c
       -0.007889873 -0.00392714 -0.009803673 0.020646853

encoder_var.5.running_mean f4 [16]
000000 b7 d7 82 3b 0c e3 7a 3b 1a 79 71 3b ae a1 0e bb
       0.0039930004 0.0038282303 0.0036845864 -0.002176385
000010 a8 aa 91 3a 09 aa 8a bb c2 ae e1 3a 20 ae a3 3b
       0.0011113482 -0.0042316956 0.001721822 0.0049951226
000020 0d 5e 1b 3a 00 b6 c2 3b 28 a0 a4 3b 47 fc 74 3a
       0.00059267954 0.0059421062 0.005023975 0.00093454536
000030 8f 94 f2 39 0b 1a 88 3a 98 b2 8d 38 7f 85 18 3b
       0.00046268522 0.0010383738 6.7566696e-05 0.002327293

encoder_var.5.running_var f4 [16]
000000 b3 95 9a 37 cb 16 07 38 78 2e 03 38 05 aa 4c 37
       1.842794e-05 3.2207736e-05 3.127611e-05 1.2198933e-05
000010 82 3c d1 35 50 51 92 37 c6 45 88 37 97 d5 23 38
       1.5589324e-06 1.744242e-05 1.6244954e-05 3.906115e-05
000020 8d 34 34 36 16 c0 6c 38 91 e4 cc 37 f3 4d e5 36
       2.6852679e-06 5.644568e-05 2.442513e-05 6.8338063e-06
000030 5d ba 9d 35 0e 36 03 36 52 c7 64 33 6c 84 dd 37
       1.175165e-06 1.9551985e-06 5.3266668e-08 2.6406917e-05
