generativecf/models/bn1-eval-case-0-supervision-limit-100-const-case-0-margin-0.15-oracle_reg-2350.0-validity_reg-150.0-epoch-50-oracle-gen.pth (torch_old, 30881 bytes, 78 tensors)

encoder_mean.0.weight f4 [20, 4]
-0.72893804 0.10421704 0.110533595 -0.0957568 -0.058330983 -0.55174375 0.18925081 -0.28822684
0.053914066 -0.5663853 -0.23427868 -0.079763055 0.15824045 -0.6652078 0.002133803 0.07188067
-0.46539557 0.3972354 0.20519091 -0.035951454 0.23529075 -0.5226437 -0.014866615 -0.3625677
0.20513353 -0.5608819 -0.14357005 0.1617812 -0.011987973 0.55434144 -0.062069166 -0.1648471
0.20898503 0.49425358 0.032804854 -0.0077077225 0.8789334 0.19819161 -0.16702169 0.08213463
0.6047905 -0.0068582622 0.28600952 -0.06012392 -0.67609096 -0.005600055 -0.045730818 -0.06252189
-0.24575967 -0.56698936 -0.02549258 0.016461015 -0.63624644 -0.036868144 -0.28778338 -0.021227391
0.42160368 -0.49536908 0.004674376 -0.20209818 0.36754605 -0.5192422 -0.22953351 0.21436441
-0.052668475 -0.6281444 -0.0562681 0.12095858 -0.071391515 0.5968271 0.0826995 0.24157524
0.61598164 0.16189612 0.31525922 -0.08685128 0.61553633 0.3157217 0.10550721 -0.09309087
00000000: af9b 3abf be6f d53d 705f e23d 241c c4bd
00000010: 78ec 6ebd 143f 0dbf f7ca 413e 7892 93be
00000020: ffd4 5c3d a1fe 10bf c0e6 6fbe d05a a3bd
00000030: c909 223e 0f4b 2abf 46d7 0b3b 2c36 933d
00000040: 5448 eebe 7062 cb3e 911d 523e d541 13bd
00000050: 0ff0 703e facb 05bf 1a93 73bc 79a2 b9be
00000060: 860e 523e f595 0fbf 0704 13be f9a9 253e
00000070: 3469 44bc 52e9 0d3f 3d3c 7ebd aecd 28be
00000080: 2c00 563e ce0e fd3e 625e 063d 1091 fcbb
00000090: c801 613f bef2 4a3e bc07 2bbe 3336 a83d
000000a0: 8dd3 1a3f 46bb e0bb d76f 923e 8044 76bd
000000b0: 4c14 2dbf ab80 b7bb 3d50 3bbd 7a0b 80bd
000000c0: 6ca8 7bbe 3726 11bf d1d5 d0bc 40d9 863c
000000d0: 0ce1 22bf 0d03 17bd 5858 93be 11e5 adbc
000000e0: 70dc d73e 04a1 fdbe 822b 993b d3f2 4ebe
000000f0: ff2e bc3e 0fed 04bf d50a 6bbe 5882 5b3e
00000100: e6ba 57bd 12ce 20bf 6179 66bd 22b9 f73d
00000110: b735 92bd a9c9 183f 5b5e a93d 805f 773e
00000120: f9b0 1d3f 19c8 253e a869 a13e 15df b1bd
00000130: ca93 1d3f 46a6 a13e 2a14 d83d 6da6 bebd

encoder_mean.0.bias f4 [20]
0.0152486805 -0.0045687864 -0.09380553 0.013490655 -0.021358492 0.015623744 -0.00087014516 0.045808166
0.02222967 0.06948799 -0.036420915 0.007262773 0.008506433 0.01622277 -0.017789086 -0.017070254
-0.037725218 8.013435e-05 0.029105406 0.028566495
00000000: 9ad5 793c c2b5 95bb 1d1d c0bd e907 5d3c
00000010: 01f8 aebc bbfa 7f3c 741a 64ba 58a1 3b3d
00000020: ff1a b63c b84f 8e3d 192e 15bd 8efc ed3b
00000030: 915e 0b3c 9de5 843c 6bba 91bc ebd6 8bbc
00000040: c285 1abd cd0d a838 766e ee3c 4804 ea3c

encoder_mean.1.weight f4 [20]
0.59094167 0.71158034 0.49939874 0.52946794 0.63908356 0.66919607 0.6048719 0.75835365
0.46749642 0.65814966 0.43919048 0.64773476 0.61244357 0.49777353 0.626468 0.66431594
0.58316696 0.7472445 0.6435954 0.5456466
00000000: f447 173f 212a 363f 31b1 ff3e 368b 073f
00000010: fb9a 233f 6f50 2b3f e3d8 1a3f 7723 423f
00000020: b15b ef3e 7f7c 283f 93dd e03e f2d1 253f
00000030: 1ac9 1c3f 2cdc fe3e 3560 203f 9c10 2a3f
00000040: 6e4a 153f 6a4b 3f3f abc2 243f 7faf 0b3f

encoder_mean.1.bias f4 [20]
-0.16735671 -0.24757525 -0.52263623 0.011049135 -0.4408294 -0.26907486 -0.49615672 -0.45465276
-0.046973843 0.07756433 0.012840355 -0.017037062 -0.15386379 -0.05495813 -0.557061 -0.53267616
-0.22794175 -0.5374405 -0.379761 -0.051981397
00000000: 8f5f 2bbe 5e84 7dbe 7dcb 05bf 6e07 353c
00000010: 64b4 e1be 2ec4 89be 4108 febe 3fc8 e8be
00000020: a567 40bd 0cda 9e3d 5a60 523c 4f91 8bbc
00000030: 788e 1dbe c71b 61bd 8d9b 0ebf 775d 08bf
00000040: 9069 69be b395 09bf 0970 c2be 72ea 54bd

encoder_mean.1.running_mean f4 [20]
-0.2833833 -0.31453344 -0.33039764 -0.26857808 -0.03924746 -0.2650379 -0.13929032 0.09288443
0.34030485 0.38690266 0.44561914 -0.3379234 -0.43025595 -0.47604734 -0.11430238 -0.0015418719
-0.2528387 0.25589535 0.4538333 0.4561157
00000000: 9e17 91be 870a a1be e129 a9be 1183 89be
00000010: f2c1 20bd 0cb3 87be 1fa2 0ebe 313a be3d
00000020: 703c ae3e 1b18 c63e 3128 e43e 4c04 adbe
00000030: 824a dcbe 7abc f3be 5e17 eabd a318 caba
00000040: 1374 81be b704 833e d75c e83e ff87 e93e

encoder_mean.1.running_var f4 [20]
0.012088027 0.020513577 0.022700932 0.013346846 0.025178904 0.02589502 0.017306682 0.023647934
0.009165789 0.011853368 0.01999133 0.0128796445 0.012581529 0.021757614 0.012807648 0.022571808
0.017011644 0.013693855 0.018864337 0.016889526
00000000: dc0c 463c 170c a83c 4ef7 b93c bbac 5a3c
00000010: fd43 ce3c cb21 d43c bec6 8d3c 50b9 c13c
00000020: 1b2c 163c a134 423c dcc4 a33c 2505 533c
00000030: c222 4e3c 063d b23c 2bd7 513c 83e8 b83c
00000040: 015c 8b3c 315c 603c 6289 9a3c e75b 8a3c

encoder_mean.4.weight f4 [16, 20]
-0.019990249 0.27091742 0.041648336 0.07021873 0.04198955 0.21502458 0.046762243 0.010891864
-0.1810801 -0.29085895 -0.10062659 0.19126758 0.41018227 0.1314866 -0.02877484 -0.18859267
0.26929978 -0.091603085 -0.00696181 -0.21076833 0.1764536 0.07796547 -0.027540673 -0.0047965683
0.32641697 0.074264534 0.058284674 0.1429141 -0.031559154 -0.36140114 -0.1551544 0.20904258
0.2133156 0.24190186 -0.17612582 -0.02451705 0.028492406 0.079722025 0.01590494 -0.17965458
-0.0010820301 -0.38521636 0.005492798 0.28785935 0.3623831 -0.19303736 0.24041468 0.49820742
0.039733484 0.08308983 -0.044260032 -0.06748482 -0.07414572 -0.073332444 -0.24278316 0.20483889
0.0025706906 -0.6967848 -0.12339042 0.013089837 -0.4761741 0.14052829 -0.014809394 0.022156633
-0.21914786 0.2192711 -0.30453607 -0.22211957 -0.08570699 0.2544842 0.18777253 -0.3337102
-0.08349003 -0.13686995 0.06149389 -0.16533963 -0.3345959 0.25511515 0.06747784 0.20362388
0.01363397 0.023310432 0.19306892 0.35419092 -0.3468204 0.100644484 -0.13435203 -0.41096887
-0.13224089 0.18446794 0.057250477 -0.06006075 0.22404341 0.051800087 0.49205494 -0.25483143
-0.077268004 -0.21951534 0.08682055 -0.017291937 0.22335005 0.16532904 -0.04857645 -0.06752026
0.32822245 0.035814315 0.089471646 0.08647529 -0.056379676 -0.39467013 -0.30484492 0.2737053
-0.0060887225 0.23281027 -0.2488497 -0.035541184 -0.0764686 0.10458047 -0.019613966 -0.10201146
0.0014156909 -0.13945773 0.007242576 0.15710853 -0.11497859 -0.22749045 0.4546492 -0.1456523
-0.22429968 0.0955716 0.057778057 -0.0041197534 0.20638707 0.0074743317 -0.109914415 0.3293825
0.20478629 -0.1464858 -0.07338937 -0.10639701 0.41771612 0.30631182 0.078351736 -0.05685538
0.25303504 0.08590395 -0.09770367 0.08843822 -0.03414345 -0.20948803 -0.03426852 0.2776357
0.38036698 0.26445237 -0.1856378 -0.2864238 0.18782052 0.25063536 -0.1560288 -0.05558984
-0.2662515 -0.25754353 0.1300624 -0.06834053 -0.11457142 -0.0021629955 -0.076807976 0.09159928
0.124728136 0.18517719 0.19977571 -0.05534871 -0.12359285 0.075017765 -0.034317818 -0.019935368
-0.047228947 -0.3714652 0.38091144 0.13138722 -0.06370744 0.06692347 0.2660881 0.30297527
-0.25102198 0.1814101 -0.022283718 -0.40088525 -0.09529221 -0.031363897 0.11691247 -0.055200342
0.20808311 -0.068106584 0.37179562 -0.08609799 -0.19521107 0.053240232 0.042811826 -0.0126912445
-0.009405389 0.09223979 0.26637727 0.2735504 -0.32744792 0.08850233 0.13528666 -0.30489987
-0.16996548 0.018581498 0.14885543 -0.05059527 0.33546513 0.10286055 0.5453779 -0.07184582
0.2774069 -0.15015052 0.04095028 0.011178355 0.017114684 -0.5434511 0.015809545 0.1412893
0.27824423 -0.18848164 0.19787808 0.4110841 -0.0028370894 0.069494225 -0.00039356697 -0.060081974
0.050266396 -0.07840302 -0.17958416 0.25059178 -0.025880234 -0.47565255 -0.04856346 0.098945394
0.30812895 0.20366557 0.0015323807 0.08006811 0.23144916 0.17495626 0.014125114 0.049304098
0.035484303 -0.42173746 -0.21477242 0.4495485 0.06630444 0.21272328 -0.12432171 -0.1444628
00000000: 97c2 a3bc b0b5 8a3e 7297 2a3d d6ce 8f3d
00000010: 3cfd 2b3d 672f 5c3e c489 3f3d ca73 323c
00000020: 106d 39be 77eb 94be 5015 cebd a6db 433e
00000030: 6903 d23e 6ca4 063e 37b9 ebbc 701e 41be
00000040: a9e1 893e 669a bbbd e51f e4bb a7d3 57be
00000050: 41b0 343e 5cac 9f3d fa9c e1bc 882c 9dbb
00000060: 2020 a73e 0118 983d e9bb 6e3d 1358 123e
00000070: 2c44 01bd 9209 b9be cce0 1ebe 420f 563e
00000080: 686f 5a3e 1fb5 773e 545a 34be fbd7 c8bc
00000090: e868 e93c 4d45 a33d 144b 823c 5ff7 37be
000000a0: e8d2 8dba 143b c5be eefc b33b 4d62 933e
000000b0: 478a b93e 96ab 45be 442f 763e 0b15 ff3e
000000c0: 94bf 223d 002b aa3d 024a 35bd 7b35 8abd
000000d0: b6d9 97bd 522f 96bd 269c 78be 49c1 513e
000000e0: 0879 283b 7d60 32bf 1eb4 fcbd c176 563c
000000f0: 17cd f3be a6e6 0f3e 1aa3 72bc d481 b53c
00000100: 4c68 60be 9a88 603e 27ec 9bbe 5073 63be
00000110: 2587 afbd c14b 823e 7147 403e 10dc aabe
00000120: d2fc aabd a327 0cbe 04e1 7b3d cb4e 29be
00000130: 2750 abbe 749e 823e d231 8a3d c782 503e
00000140: 0461 5f3c 85f5 be3c dcb3 453e 8358 b53e
00000150: 7292 b1be b21e ce3d 9493 09be 836a d2be
00000160: 286a 07be 2ae5 3c3e 7a7f 6a3d 4302 76bd
00000170: a36b 653e 542c 543d a0ee fb3e 4479 82be
00000180: b03e 9ebd a1c8 60be f9ce b13d d2a7 8dbc
00000190: e0b5 643e 044c 293e 1af8 46bd 1048 8abd
000001a0: c60c a83e 08b2 123d e93c b73d f519 b13d
000001b0: 60ee 66bd 3412 cabe a214 9cbe 1a23 8c3e
000001c0: e883 c7bb d165 6e3e 75d2 7ebe a293 11bd
000001d0: 929b 9cbd 492e d63d 78ad a0bc 62eb d0bd
000001e0: b48e b93a 02ce 0ebe 2253 ed3b 0fe1 203e
000001f0: e579 ebbd 42f3 68be c8c7 e83e e025 15be
00000200: d1ae 65be 0bbb c33d afa8 6c3d fffe 86bb
00000210: 2257 533e 3deb f43b cf1a e1bd d3a4 a83e
00000220: 7fb3 513e 6000 16be 2b4d 96bd ade6 d9bd
00000230: e3de d53e e7d4 9c3e e076 a03d 30e1 68bd
00000240: cf8d 813e 69ee af3d dd18 c8bd 191f b53d
00000250: 01da 0bbd 0884 56be 265d 0cbd 4426 8e3e
00000260: 76bf c23e 4d66 873e d617 3ebe 24a6 92be
00000270: 0654 403e 4753 803e 04c6 1fbe 2cb2 63bd
00000280: 1e52 88be bfdc 83be 142f 053e 1ff6 8bbd
00000290: 6ca4 eabd 0bc1 0dbb 804d 9dbd 6798 bb3d
000002a0: 7771 ff3d 179f 3d3e 0192 4c3e 54b5 62bd
000002b0: 401e fdbd eaa2 993d d790 0cbd 7f4f a3bc
000002c0: 2473 41bd b030 bebe d306 c33e 5f8a 063e
000002d0: 0c79 82bd 2c0f 893d b33c 883e 931f 9b3e
000002e0: f485 80be 92c3 393e 588c b6bc d540 cdbe
000002f0: 9028 c3bd 6e77 00bd ce6f ef3d c119 62bd
00000300: bd13 553e 777b 8bbd ff5b be3e 2554 b0bd
00000310: 69e5 47be 6e12 5a3d 745b 2f3d f0ee 4fbc
00000320: 1019 1abc 37e8 bc3d 9a62 883e cc0e 8c3e
00000330: 41a7 a7be b640 b53d 9688 0a3e d61b 9cbe
00000340: 6e0b 2ebe 3a38 983c 8f6d 183e fc3c 4fbd
00000350: 16c2 ab3e 8da8 d23d e39d 0b3f e723 93bd
00000360: 4708 8e3e 0fc1 19be 7bbb 273d 6b25 373c
00000370: 1834 8c3c 9c1f 0bbf 0583 813c 24ae 103e
00000380: 0776 8e3e 5501 41be 8da0 4a3e 9d79 d23e
00000390: 76ee 39bb fd52 8e3d aa57 ceb9 8418 76bd
000003a0: 23e4 4d3d c391 a0bd e9e4 37be 914d 803e
000003b0: c902 d4bc bb88 f3be 7bea 46bd e2a3 ca3d
000003c0: 14c3 9d3e b58d 503e 2ada c83a c0fa a33d
000003d0: 0201 6d3e bc27 333e 066d 673c 18f3 493d
000003e0: fd57 113d f9ed d7be 4ded 5bbe 392b e63e
000003f0: 9fca 873d 22d4 593e 619c febd 0eee 13be

encoder_mean.4.bias f4 [16]
0.1012073 0.008135828 0.017494444 -0.022116374 0.02736097 -0.007469705 -0.032216415 0.012682133
0.062657066 -0.018052949 0.054320805 0.0048433193 -0.03623511 0.052178618 0.037005793 -0.036042806
00000000: c645 cf3d 234c 053c 8250 8f3c 662d b5bc
00000010: 1d24 e03c 6dc4 f4bb 5cf5 03bd b9c8 4f3c
00000020: 5952 803d c7e3 93bc 7e7f 5e3d b5b4 9e3b
00000030: 446b 14bd 3fb9 553d 6393 173d 9fa1 13bd

encoder_mean.5.weight f4 [16]
0.62516814 0.585429 0.6832051 0.7451287 0.58342403 0.7152396 0.5987458 0.6940288
0.60205007 0.5734353 0.60911345 0.72583485 0.8296256 0.64767486 0.75441116 0.5995284
00000000: 050b 203f adde 153f 88e6 2e3f c1c0 3e3f
00000010: 475b 153f f119 373f 6847 193f dfab 313f
00000020: f41f 1a3f a8cc 123f dcee 1b3f 50d0 393f
00000030: 5862 543f 05ce 253f 1721 413f b17a 193f

encoder_mean.5.bias f4 [16]
0.07357304 0.07401054 -0.034381952 0.03211165 0.26690385 -0.06559056 -0.123480946 -0.09021726
0.09669767 0.18353187 0.22924803 -0.018983653 0.011904967 -0.10196855 0.0033250477 -0.123210005
00000000: 76ad 963d d792 973d 17d4 0cbd 8187 033d
00000010: 9fa7 883e 5854 86bd 94e3 fcbd d4c3 b8bd
00000020: 6e09 c63d c7ef 3b3e ffbf 6a3e 9b83 9bbc
00000030: 0d0d 433c e3d4 d0bd 0be9 593b 8755 fcbd

encoder_mean.5.running_mean f4 [16]
-0.008203327 -0.0038949463 0.014475078 -0.016708111 0.0048125447 -0.15018582 -0.004899695 0.16922724
0.089970015 0.02311528 0.0639634 0.043469656 0.0041346657 0.062677555 0.071882926 -0.045770556
00000000: 3f67 06bc 5b42 7fbb e128 6d3c 73df 88bc
00000010: 8db2 9d3b 50ca 19be 9f8d a0bb e849 2d3e
00000020: 3342 b83d 415c bd3c 3eff 823d 3d0d 323d
00000030: 177c 873b 175d 803d 5b37 933d e879 3bbd

encoder_mean.5.running_var f4 [16]
0.18341643 0.1883198 0.07946999 0.18603268 0.102915406 0.22934228 0.09539729 0.1666913
0.23097844 0.09603201 0.13975218 0.09363004 0.23235565 0.07903342 0.21447355 0.07561517
00000000: 84d1 3b3e e8d6 403e 2ac1 a23d 5a7f 3e3e
00000010: 50c5 d23d b4d8 6a3e a85f c33d 20b1 2a3e
00000020: 9d85 6c3e 6eac c43d 321b 0f3e 1bc1 bf3d
00000030: a4ee 6d3e 46dc a13d f49e 5b3e 20dc 9a3d

encoder_mean.8.weight f4 [14, 16]
-0.23353742 -0.1982454 0.04276717 -0.020136839 -0.15502523 -0.3130385 0.01613259 -0.3333932
0.11737431 -0.37335533 -0.3276341 0.23995572 -0.3849524 0.24780604 0.08810838 0.16833138
-0.25015616 -0.077742204 0.12139805 0.006806148 -0.3139273 -0.057622153 -0.26332274 0.15098535
-0.03481815 -0.41666484 -0.34407467 0.17185771 0.18428619 0.2402257 0.13241307 -0.20576876
0.13208257 -0.07101642 -0.5569747 0.17265809 0.14694107 -0.16080965 -0.34281212 -0.12880558
0.0459822 0.16428427 0.20735596 -0.3425275 -0.08348583 -0.3940976 0.13420257 -0.2968618
0.05766649 0.009588749 0.21410502 -0.4415753 -0.23853421 -0.17579861 0.1955205 -0.20338127
0.46814543 0.21857223 -0.018544732 -0.01152949 -0.3489524 0.21656004 -0.26917276 0.02815037
-0.053490564 -0.30057758 -0.08087502 0.32341167 0.04781181 -0.4411561 -0.30002853 -0.076355495
0.03664923 0.090611495 -0.029174974 -0.11358423 -0.24301222 -0.088035 0.27621612 -0.19606669
-0.29343492 -0.2213963 0.30151153 -0.14066008 -0.20356156 -0.23668762 0.072897494 -0.28720748
-0.014921868 -0.19406022 -0.09609494 0.1713781 -0.10775084 0.18126215 0.07491564 0.14241107
0.07615004 -0.07190439 -0.6131765 -0.035960533 0.19507988 -0.17478971 -0.10580461 0.18481824
0.032018866 0.19743367 0.2793894 -0.3670526 0.14132743 -0.31770194 0.17565042 -0.021399993
0.3452761 0.1548757 0.13526756 0.03599065 0.22894524 -0.07845713 0.067658834 -0.034680415
-0.00032016283 0.14233227 0.3089915 0.13742477 -0.013832472 -0.34047046 -0.02207415 0.17510232
-0.23315373 -0.24264254 -0.028368128 0.16552259 -0.048469853 -0.28052667 -0.21648173 -0.118734606
0.107862875 0.21758728 -0.049547866 0.07183656 -0.12314005 0.0030951712 0.25571272 -0.24993967
0.20708886 0.2886898 0.044005018 -0.25318837 0.17486033 0.25279802 0.16134682 0.44570953
-0.32035854 -0.035598673 0.21093524 0.1437717 0.2826031 0.08246118 -0.34763026 0.13603124
0.100797035 0.02076922 -0.26612192 -0.33913246 -0.06638918 0.14030121 -0.38367885 0.19623011
0.009646722 -0.18005696 -0.09688836 -0.38008842 0.09509614 -0.17326556 -0.1474023 -0.44198588
-0.26899666 -0.07858019 -0.1321843 0.12044895 -0.5121844 0.03425687 -0.38590264 0.102289386
0.12300529 -0.38795277 -0.5598944 -0.2024118 0.30348346 -0.014210991 0.21704829 -0.27188513
-0.20209888 -0.21816097 0.12604211 0.18814729 0.17400303 -0.13671304 -0.0598979 -0.31319398
-0.0083488915 -0.02995963 -0.017590525 0.36462662 -0.4960129 0.00039802346 0.22663091 0.03349336
0.17515647 0.25611082 -0.024461947 -0.12319658 0.27324697 0.20539016 0.24219932 0.28989744
-0.22951451 0.099961445 0.19932854 0.16871144 0.3793471 0.33625805 -0.31321773 0.23906241
00000000: 6f24 6fbe d800 4bbe a12c 2f3d 03f6 a4bc
00000010: efbe 1ebe 9546 a0be 7e28 843c 83b2 aabe
00000020: f161 f03d 6e28 bfbe a8bf a7be f4b6 753e
00000030: 7b18 c5be dec0 7d3e 2b72 b43d 105f 2c3e
00000040: 7814 80be 4e37 9fbd 8a9f f83d 1c06 df3b
00000050: 14bb a0be 3505 6cbd 3dd2 86be e79b 1a3e
00000060: 7a9d 0ebd 1855 d5be 8e2a b0be 78fb 2f3e
00000070: 85b5 3c3e bafd 753e 4b97 073e 0cb5 52be
00000080: a740 073e 0f71 91bd e595 0ebf 48cd 303e
00000090: b877 163e 49ab 24be 1285 afbe 9ce5 03be
000000a0: d557 3c3d 233a 283e 1f55 543e c45f afbe
000000b0: 9efa aabd 29c7 c9be 666c 093e 45fe 97be
000000c0: b333 6c3d 211a 1d3c 593e 5b3e 2816 e2be
000000d0: 5042 74be 8d04 34be 8736 483e 2e43 50be
000000e0: c2b0 ef3e 66d1 5f3e 1feb 97bc 30e6 3cbc
000000f0: e4a9 b2be eac1 5d3e 03d1 89be 9b9b e63c
00000100: ec18 5bbd 4ee5 99be cda1 a5bd 3796 a53e
00000110: 51d6 433d 36df e1be 579d 99be 4560 9cbd
00000120: 811d 163d 8592 b93d 5b00 efbc d99e e8bd
00000130: 32d8 78be b24b b4bd 336c 8d3e b5c5 48be
00000140: 1a3d 96be b6b5 62be b85f 9a3e 3209 10be
00000150: 7172 50be 3d5e 72be 484b 953d dc0c 93be
00000160: da7a 74bc b9b7 46be 6dcd c4bd be7d 2f3e
00000170: 79ac dcbd c99c 393e 5f6d 993d 35d4 113e
00000180: 8df4 9b3d 9c42 93bd 23f9 1cbf 5a4b 13bd
00000190: 05c3 473e 13fc 32be 16b0 d8bd fe40 3d3e
000001a0: 3726 033d 0d2c 4a3e 210c 8f3e 52ee bbbe
000001b0: 23b8 103e d4a9 a2be b4dd 333e 0a4f afbc
000001c0: 07c8 b03e bc97 1e3e 9483 0a3e ef6a 133d
000001d0: 9f70 6a3e 22ae a0bd b790 8a3d 0d0d 0ebd
000001e0: 87db a7b9 8dbf 113e 2234 9e3e 14b9 0c3e
000001f0: 98a1 62bc 2552 aebe d9d4 b4bc 064e 333e
00000200: dabf 6ebe 4977 78be 4764 e8bc c17e 293e
00000210: 5388 46bd 31a1 8fbe 63ad 5dbe 212b f3bd
00000220: 36e7 dc3d 33cf 5e3e b4f2 4abd 0c1f 933d
00000230: da30 fcbd 5bd8 4a3b c7ec 823e 2ff0 7fbe
00000240: 1a0f 543e 26cf 933e 9b3e 343d e8a1 81be
00000250: 960e 333e be6e 813e 1a38 253e 0a34 e43e
00000260: 0906 a4be eacf 11bd 68ff 573e e338 133e
00000270: 5bb1 903e 68e1 a83d 98fc b1be c64b 0b3e
00000280: ad6e ce3d 3624 aa3c 2241 88be c5a2 adbe
00000290: 0df7 87bd 1fab 0f3e 8e71 c4be 8cf0 483e
000002a0: 490d 1e3c da60 38be 686d c6bd f39a c2be
000002b0: c4c1 c23d 876c 31be a1f0 16be f94b e2be
000002c0: eeb9 89be a7ee a0bd 525b 07be f0ad f63d
000002d0: 841e 03bf ef50 0c3d 0895 c5be 197d d13d
000002e0: 33ea fb3d bfa1 c6be 3d55 0fbf 0a45 4fbe
000002f0: 2f62 9b3e 37d5 68bc e841 5e3e 8734 8bbe
00000300: 02f3 4ebe 9765 5fbe 2f11 013e afa9 403e
00000310: da2d 323e 81fe 0bbe 8057 75bd f65a a0be
00000320: cac9 08bc e66d f5bc 011a 90bc 57b0 ba3e
00000330: 67f5 fdbe cead d039 ef11 683e 5530 093d
00000340: 385c 333e f520 833e 6c64 c8bc 7d4e fcbd
00000350: 07e7 8b3e cc51 523e 1903 783e 706d 943e
00000360: da05 6bbe 96b8 cc3d c81c 4c3e b1c2 2c3e
00000370: c839 c23e 042a ac3e 135e a0be c7cc 743e

encoder_mean.8.bias f4 [14]
0.031303614 0.0200315 -0.11120854 0.044328965 -0.032554686 0.024359427 -0.0015991566 -0.011776629
0.05309993 0.012703298 0.0490451 -0.014263134 0.017385943 0.0022891483
00000000: 3838 003d 1a19 a43c 4ec1 e3bd 4a92 353d
00000010: 1058 05bd 6c8d c73c cb9a d1ba c3f2 40bc
00000020: 507f 593d 7e21 503c 84e3 483d ecaf 69bc
00000030: f76c 8e3c 8905 163b

encoder_mean.9.weight f4 [14]
0.6281052 0.84283096 0.63900405 0.7371241 0.5023725 0.635145 0.7121802 0.36139604
0.641399 0.6777208 0.777055 0.76256734 0.5929954 0.72883594
00000000: 81cb 203f c5c3 573f c595 233f 2ab4 3c3f
00000010: 7c9b 003f dd98 223f 7151 363f e708 b93e
00000020: ba32 243f 1c7f 2d3f 14ed 463f 9d37 433f
00000030: 8cce 173f fe94 3a3f

encoder_mean.9.bias f4 [14]
-0.024650816 -0.049062334 0.01969918 -0.035151243 0.13914052 0.09001845 0.11492182 0.17322083
0.028309038 0.14275627 -0.08055184 -0.07651527 0.2360993 0.070403464
00000000: 82f0 c9bc 96f5 48bd 2d60 a13c c0fa 0fbd
00000010: da7a 0e3e 985b b83d 225c eb3d cd60 313e
00000020: 5be8 e73c b32e 123e 5df8 a4bd 0ab4 9cbd
00000030: 04c4 713e b12f 903d

encoder_mean.9.running_mean f4 [14]
-0.22579496 -0.28146553 0.0041248198 -0.03414669 -0.016742155 -0.31889436 0.010901011 0.32357508
-0.20316307 0.23680766 -0.29700148 -0.377666 0.08318225 0.3696687
00000000: cb36 67be 401c 90be 7f29 873b 66dd 0bbd
00000010: d826 89bc 1f46 a3be 279a 323c a2ab a53e
00000020: fb09 50be b57d 723e 9410 98be 705d c1be
00000030: 755b aa3d 3745 bd3e

encoder_mean.9.running_var f4 [14]
0.34763747 0.40038076 0.3209276 0.1013524 0.34458163 0.30103895 0.223213 0.31084788
0.3734888 0.5079576 0.38522926 0.39076835 0.3332519 0.49399576
00000000: 8afd b13e b5fe cc3e 9f50 a43e d991 cf3d
00000010: 016d b03e c721 9a3e f391 643e 7427 9f3e
00000020: ed39 bf3e 8209 023f c53c c53e ca12 c83e
00000030: fe9f aa3e 03ed fc3e

encoder_mean.12.weight f4 [12, 14]
-0.046596393 -0.54865706 0.044508412 0.20386824 -0.023193406 -0.27802643 0.0643282 0.4742889
-0.109742 0.020954322 -0.006266069 -0.28221545 0.37201837 0.060196288 0.26567584 0.1908454
0.009484518 0.13398482 0.15457414 0.08021282 0.10160414 -0.075407684 0.3156884 -0.47744453
-0.06462807 0.1590921 0.04395899 -0.44863096 0.22745992 0.3696368 0.009946307 0.07713707
0.012610808 0.058256604 0.042879477 -0.13148557 0.20257294 -0.4995871 -0.14121999 0.047533225
0.12033026 -0.53245014 -0.19583605 -0.28170586 0.26021454 -0.21045953 0.09775594 -0.37531894
0.32628152 0.019370599 0.031272102 0.084501855 0.2551524 -0.20643672 -0.11466231 0.0482339
0.22485223 0.07541829 -0.29268873 0.1502075 -0.11056164 0.06900767 -0.33086175 0.111751385
-0.1522598 0.09354451 -0.5023389 -0.36792257 0.24208294 0.023043763 -0.15094008 -0.06252673
-0.15819281 -0.23538071 -0.24731557 -0.18126982 0.19245107 -0.01098043 -0.43699536 0.30017155
0.19286495 -0.21105742 -0.3657134 0.33603573 -0.17904137 -0.549193 0.27204028 0.17312177
0.22204566 -0.4504366 0.30389032 0.14679511 0.027353158 0.07849086 0.12726563 -0.21327575
0.15054874 -0.045914773 2.0072515e-05 0.10019342 0.18248677 0.38818377 0.10717017 -0.037777588
0.20340896 -0.2923618 0.19637014 -0.30964088 -0.2656369 -0.054860335 0.21488091 -0.28869468
-0.22165124 0.3034207 -0.18134756 -0.40882662 -0.23478127 -0.014580868 0.18783073 -0.10001207
-0.11725513 0.13184999 0.15323365 0.36025298 -0.2909956 0.21177891 0.20763306 0.062750734
-0.32015494 0.2486889 -0.050717857 0.25468177 -0.47789046 0.044644166 -0.110697344 -0.058380194
-0.4472575 -0.30264995 0.21748666 0.076651 -0.15984721 0.22912055 -0.2698426 -0.03545303
-0.29253918 -0.14141557 -0.08730085 -0.0798039 -0.28758633 0.32936442 -0.0749871 -0.022844426
-0.058287743 0.2384788 0.11920329 -0.09796728 0.23563346 0.3435901 0.16691887 -0.20248817
-0.0015058063 0.0818323 0.047488358 -0.19215678 -0.37201524 -0.12821186 0.30864766 -0.11596113
00000000: dcdb 3ebd ca74 0cbf 744e 363d d6c2 503e
00000010: 1900 bebc 7b59 8ebe 81be 833d ffd5 f23e
00000020: 6ac0 e0bd 66a8 ab3c 9953 cdbb 8b7e 90be
00000030: 3179 be3e 6290 763d aa06 883e fa6c 433e
00000040: f464 1b3c 5133 093e af48 1e3e 9e46 a43d
00000050: d515 d03d 586f 9abd e9a1 a13e 9c73 f4be
00000060: b95b 84bd 0ae9 223e 580e 343d f5b2 e5be
00000070: 41eb 683e 0941 bd3e d6f5 223c 0afa 9d3d
00000080: 909d 4e3c 7a9e 6e3d 64a2 2f3d 27a4 06be
00000090: 486f 4f3e e1c9 ffbe f99b 10be 33b2 423d
000000a0: b66f f63d a74e 08bf 3f89 48be c03b 90be
000000b0: d73a 853e b482 57be 4434 c83d ce29 c0be
000000c0: 5f0e a73e 17af 9e3c 2d17 003d 4f0f ad3d
000000d0: 56a3 823e 2664 53be 13d4 eabd e990 453d
000000e0: aa3f 663e e874 9a3d 4cdb 95be ffcf 193e
000000f0: 246e e2bd e553 8d3d b666 a9be e9dd e43d
00000100: fee9 1bbe 4494 bf3d 4899 00bf 5960 bcbe
00000110: 97e4 773e 46c6 bc3c 0990 1abe 040e 80bd
00000120: 4cfd 21be a407 71be 4b40 7dbe cc9e 39be
00000130: e511 453e 43e7 33bc dbbd dfbe 16b0 993e
00000140: 647e 453e 701f 58be c93e bbbe e00c ac3e
00000150: 9f56 37be ea97 0cbf dd48 8b3e d546 313e
00000160: f05f 633e a09f e6be 8397 9b3e 7551 163e
00000170: bb13 e03c d1bf a03d ec51 023e f564 5abe
00000180: 7329 1a3e 2111 3cbd 6661 a837 3532 cd3d
00000190: d0dd 3a3e 06c0 c63e 097c db3d acbc 1abd
000001a0: 704a 503e 72b0 95be 4115 493e 4089 9ebe
000001b0: 8f01 88be 3bb5 60bd be09 5c3e cacf 93be
000001c0: 8bf8 62be f559 9b3e 2db3 39be b951 d1be
000001d0: 806a 70be 98e4 6ebc b356 403e 21d3 ccbd
000001e0: 7523 f0bd af03 073e 48e9 1c3e 1473 b83e
000001f0: 60fd 94be 92dc 583e c39d 543e 7583 803d
00000200: 59eb a3be 4ea8 7e3e 87bd 4fbd a665 823e
00000210: 0fae f4be cddc 363d 4ab5 e2bd 1220 6fbd
00000220: effe e4be eff4 9abe d3b4 5e3e 33fb 9c3d
00000230: fdae 23be 949e 6a3e cf28 8abe 3237 11bd
00000240: b2c7 95be 3ecf 10be caca b2bd 3a70 a3bd
00000250: 843e 93be 74a2 a83e d692 99bd 3c24 bbbc
00000260: 21bf 6ebd c933 743e db20 f43d 12a3 c8bd
00000270: e649 713e 0beb af3e c8ec 2a3e 0f59 4fbe
00000280: 7a5e c5ba b197 a73d 2783 423d bfc4 44be
00000290: c878 bebe f849 03be 1107 9e3e 077d edbd

encoder_mean.12.bias f4 [12]
0.034188766 0.063110925 0.059073005 0.08009747 -0.02660163 0.04718192 0.06228184 0.03522256
0.048777603 -0.0062444145 -0.02111809 0.025774214
00000000: 8509 0c3d 4d40 813d 89f6 713d 240a a43d
00000010: a9eb d9bc d441 413d 3e1b 7f3d 8845 103d
00000020: 06cb 473d f29d ccbb d8ff acbc 7224 d33c

encoder_mean.13.weight f4 [12]
0.9453579 0.9533372 0.95446444 1.0173018 1.0411601 1.0522679 0.9368692 0.9345087
1.3076408 1.1626055 1.0601754 0.79635733
00000000: fa02 723f e80d 743f c857 743f f236 823f
00000010: bc44 853f b7b0 863f a9d6 6f3f f63b 6f3f
00000020: c660 a73f 42d0 943f d4b3 873f 13de 4b3f

encoder_mean.13.bias f4 [12]
0.42398643 0.38491192 0.2493867 0.31101474 0.06551836 0.29166618 0.4162743 0.37613225
0.03873352 0.12305347 0.11232343 0.4357139
00000000: c014 d93e 2d13 c53e 3a5f 7f3e 533d 9f3e
00000010: 7d2e 863d 4555 953e e821 d53e 6894 c03e
00000020: 0aa7 1e3d 7503 fc3d d409 e63d e415 df3e

encoder_mean.13.running_mean f4 [12]
-0.02013134 0.101787105 -0.011438428 -0.10662283 -0.19148143 -0.12499435 -0.021219445 0.089798905
-0.21506406 -0.08131224 -0.17055692 0.10147094
00000000: 7bea a4bc c275 d03d 3f68 3bbc 125d dabd
00000010: b513 44be 0afd ffbd 67d4 adbc 7de8 b73d
00000020: c139 5cbe 0887 a6bd 79a6 2ebe ffcf cf3d

encoder_mean.13.running_var f4 [12]
0.22692098 0.33067185 0.34529942 0.26459876 0.2243358 0.3464529 0.23302847 0.20250866
0.30699995 0.20987538 0.3074423 0.21927921
00000000: f95d 683e d24d a93e 16cb b03e 7d79 873e
00000010: 49b8 653e 4662 b13e 049f 6e3e 6e5e 4f3e
00000020: 192f 9d3e 92e9 563e 1469 9d3e bb8a 603e

encoder_mean.16.weight f4 [10, 12]
-0.07025734 0.0051284507 0.015031551 0.08702851 0.007991651 0.09210322 0.17297328 -0.12968765
0.030359522 -0.03193495 -0.038397875 -0.004604766 -0.16359223 0.10801169 0.104106724 -0.12677428
0.13337094 -0.19091594 -0.187201 0.12469732 -0.076569185 0.2519656 0.13471663 0.011873009
-0.25770184 -0.36779863 -0.41725373 0.2553614 -0.31214628 0.5825286 0.01468569 -0.46659946
0.80290234 -0.28707492 0.50201315 -0.4165056 0.011097827 -0.53109276 -0.5800779 0.29287425
-0.17540856 0.43392372 0.15544443 -0.44060126 0.60942405 -0.4253196 0.17489338 -0.2857391
0.09575007 -0.010910693 0.017281879 -0.1644611 -0.043710202 -0.09906397 -0.053250097 0.024299767
0.079023145 -0.045998517 0.05083827 0.05947727 0.13582104 -0.36195055 -0.22613381 -0.21643808
0.8253507 0.26414523 -0.49547103 -0.51030284 0.13299389 0.7412568 0.6968877 -0.38824934
0.51518476 -0.4312882 -0.4255173 0.5899225 -0.24185343 0.55372286 0.5737672 0.03226984
0.10775235 -0.35107294 -0.033919305 0.2590277 -0.90265584 0.13234806 0.18975711 -0.5228664
-0.25343093 -0.27384466 -0.5519876 -0.33330444 0.7713649 -0.15218498 0.2510271 -0.47665682
0.105449855 -0.03385997 -0.060123544 -0.01232212 -0.09900869 0.0073974854 0.01407367 -0.047460597
0.05281034 -0.069059454 -0.0051819324 -0.099328026 -0.122039124 0.010615238 0.06953181 0.22171214
0.047667567 0.13455899 -0.023454988 0.078865916 -0.17039533 0.13369724 0.060901012 -0.06454514
00000000: 15e3 8fbd 900c a83b e546 763c 013c b23d
00000010: 6aef 023c 9da0 bc3d e81f 313e d7cc 04be
00000020: 88b4 f83c 39ce 02bd 1747 1dbd 94e3 96bb
00000030: b984 27be 3c35 dd3d e835 d53d 1ed1 01be
00000040: 6492 083e 787f 43be 9eb1 3fbe 4f61 ff3d
00000050: 4ed0 9cbd a301 813e 28f3 093e 0287 423c
00000060: 7ff1 83be 1a50 bcbe 48a2 d5be bbbe 823e
00000070: a3d1 9fbe 9820 153f 409c 703c 20e6 eebe
00000080: 028b 4d3f 7cfb 92be ef83 003f 3940 d5be
00000090: a9d3 353c b2f5 07bf fc7f 14bf 9df3 953e
000000a0: 4d9e 33be 402b de3e d32c 1f3e 7d96 e1be
000000b0: 3703 1c3f 7ec3 d9be 4017 333e 654c 92be
000000c0: 9d18 c43d c3c2 32bc ba92 8d3c 7e68 28be
000000d0: 7809 33bd 0de2 cabd c61c 5abd 4e10 c73c
000000e0: e3d6 a13d f168 3cbd ca3b 503d 709e 733d
000000f0: ac14 0b3e 9551 b9be 9f8f 67be f2a1 5dbe
00000100: 2f4a 533f 0b3e 873e 61ae fdbe 35a3 02bf
00000110: 8d2f 083e 01c3 3d3f 3b67 323f 9ec8 c6be
00000120: 26e3 033f cfd1 dcbe 67dd d9be 2905 173f
00000130: 6da8 77be c8c0 0d3f 68e2 123f 612d 043d
00000140: 44ad dc3d d5bf b3be f8ee 0abd 479f 843e
00000150: 7414 67bf 4086 073e b04f 423e 93da 05bf
00000160: b3c1 81be 5e35 8cbe 0f4f 0dbf e1a6 aabe
00000170: 2c78 453f 61d6 1bbe a086 803e 5d0c f4be
00000180: 18f6 d73d c0b0 0abd 1b44 76bd b8e2 49bc
00000190: 11c5 cabd 9b66 f23b 4095 663c 0b66 42bd
000001a0: a84f 583d 0b6f 8dbd 33cd a9bb 7e6c cbbd
000001b0: a6ef f9bd 89eb 2d3c b266 8e3d 8208 633e
000001c0: 113f 433d d5c9 093e ad24 c0bc 7484 a13d
000001d0: 1d7c 2ebe eee7 083e 5773 793d 3e30 84bd

encoder_mean.16.bias f4 [10]
0.032892272 -0.12669154 0.12984444 0.28899628 0.020484248 -0.5550807 -0.43241906 0.93091726
0.020327397 -0.35568726
00000000: 0cba 063d 6dbb 01be f1f5 043e 52f7 933e
00000010: 95ce a73c c519 0ebf 0866 ddbe 9850 6e3f
00000020: a485 a63c a41c b6be

encoder_var.0.weight f4 [20, 4]
-0.001877665 -0.0015726212 -0.0012991911 0.0041366136 0.0004466724 -0.00095148716 0.0014693461 0.0012805671
-0.00030850546 0.00057972455 0.00017297172 -0.0009976965 -0.0013234558 -3.8869926e-05 0.005121723 -0.006408836
0.018757064 0.014892302 0.0101465 -0.0127998 -0.07234714 -0.0538755 -0.057765152 -0.00060946855
0.00034204664 -0.00012632807 0.0007589903 -4.969183e-05 -0.0005965573 -8.08018e-05 -0.0005950663 -0.00023725528
0.0029501468 -0.0021784478 0.0013547657 -0.00051307876 -0.03265367 -0.023807978 -0.025957722 0.045728642
-0.0049796496 -0.0007917373 -0.005022511 0.0030647465 -0.006252102 -0.0058541778 -0.0010338732 0.005603922
-0.0027858191 -0.013575661 0.00017281088 -0.0019273255 -0.010253185 -0.009896937 -0.0053517916 -0.0065669054
0.00016171092 0.00026795093 0.0002058169 -0.0002673501 0.0033538502 0.0014834437 0.0039463346 -0.011680989
0.0037858486 -0.0004393673 0.002322249 -0.0037970901 -0.0013371813 -0.00065814337 0.0002966986 0.0012391027
0.00072530087 -0.004128112 -0.0006467558 -0.0029425672 0.012700158 0.0061043873 0.0059468453 -0.009712069
00000000: fc1b f6ba 6920 ceba 9f49 aaba 6e8c 873b
00000010: 5b2f ea39 396d 79ba 1397 c03a b4d8 a73a
00000020: e7be a1b9 a8f8 173a be5f 3539 24c5 82ba
00000030: cf77 adba 4408 23b8 20d4 a73b 3701 d2bb
00000040: 6aa8 993c d8fe 733c 813d 263c 41b6 51bc
00000050: bd2a 94bd 8eac 5cbd 279b 6cbd bec4 1fba
00000060: b954 b339 ef76 04b9 faf6 463a 326c 50b8
00000070: 4862 1cba 2374 a9b8 39fe 1bba bbc7 78b9
00000080: 4057 413b 4ac4 0ebb 6592 b13a 2280 06ba
00000090: dbbf 05bd f308 c3bc 4aa5 d4bc f54d 3b3d
000000a0: 542c a3bb 978c 4fba e093 a4bb ead9 483b
000000b0: 6fde ccbb 67d4 bfbb 0783 87ba 1ba1 b73b
000000c0: 4a92 36bb 736c 5ebc 9134 3539 509e fcba
000000d0: fafc 27bc c326 22bc 155e afbb 322f d7bb
000000e0: f290 2939 c47b 8c39 8ed0 5739 1f2b 8cb9
000000f0: 45cc 5b3b 1c70 c23a 4150 813b 9e61 3fbc
00000100: 001c 783b e15a e6b9 e030 183b 9ad8 78bb
00000110: 5c44 afba 4187 2cba 368e 9b39 6369 a23a
00000120: 1e22 3e3a 1d45 87bb 0c8b 29ba 16d8 40bb
00000130: 5314 503c 5007 c83b c1dd c23b 5f1f 1fbc

encoder_var.0.bias f4 [20]
0.002522916 0.0031943726 -0.00167845 -0.012985325 0.018203387 -0.051934548 0.0009852162 -5.04865e-05
-0.000106668704 -0.010020022 0.01172794 -0.005291189 -0.030007955 -0.015122776 -4.886155e-05 -0.0022358706
-0.0030084522 0.0022210951 -0.0015272428 0.0022781824
00000000: 8257 253b ae58 513b 70ff dbba 67c0 54bc
00000010: 451f 953c 52b9 54bd 5f22 813a 77c1 53b8
00000020: 53b3 dfb8 052b 24bc 8c26 403c b661 adbb
00000030: 3ed3 f5bc 85c5 77bc b1f0 4cb8 af87 12bb
00000040: 7429 45bb cb8f 113b c42d c8ba 8f4d 153b

encoder_var.1.weight f4 [20]
0.0005813148 0.0023287025 0.00054738956 -0.006072509 -0.00537376 -0.00039049206 0.0009052844 0.0011866407
-9.685881e-05 0.0145361135 -0.007999717 -0.010566395 0.006776802 0.00012077378 0.0006792502 -0.006821708
-0.00036491614 -0.004886189 0.0025166238 -0.02471366
00000000: 6063 183a 259d 183b b17e 0f3a e6fb c6bb
00000010: 5e16 b0bb f5ba ccb9 9c50 6d3a 0e89 9b3a
00000020: ad20 cbb8 e128 6e3c 3f11 03bc ac1e 2dbc
00000030: ef0f de3b ee47 fd38 b60f 323a a288 dfbb
00000040: 3752 bfb9 531c a0bb f1ed 243b 4d74 cabc

encoder_var.1.bias f4 [20]
-0.0018729313 0.0009002099 -1.3819627e-05 0.0009515492 -0.0013406383 -0.033015735 0.00060264685 0.0006506893
0.00039094023 -0.004926885 0.0019805366 -0.0068135634 0.0028635692 0.00010908586 -0.00066702807 -0.0032959667
0.0039020232 -0.0016350022 -0.002158088 0.01144226
00000000: 257d f5ba 10fc 6b3a d9da 67b7 6371 793a
00000010: 5bb8 afba 823b 07bd f2fa 1d3a 0593 2a3a
00000020: 1cf7 cc39 b571 a1bb e4cb 013b 5044 dfbb
00000030: b8aa 3b3b 06c5 e438 7fdb 2eba 2501 58bb
00000040: 16b9 7f3b 924d d6ba b56e 0dbb 5178 3b3c

encoder_var.1.running_mean f4 [20]
-5.0452395e-06 -0.0034177443 1.3117464e-05 -0.0008730293 3.1756713e-08 -0.05004781 -0.0013083072 3.6089614e-06
4.520252e-07 -1.1930715e-05 3.5835885e-05 -3.4592968e-09 -0.021947322 6.565909e-06 3.7364367e-05 0.002390736
0.00017361759 0.0038323007 -1.0325863e-05 0.00013950106
00000000: 474a a9b6 3cfc 5fbb 1413 5c37 01dc 64ba
00000010: e064 0833 effe 4cbd 817b abba 7c31 7236
00000020: dfad f234 082a 48b7 7d4e 1638 98b8 6db1
00000030: dfca b3bc bb50 dc36 afb7 1c38 e5ad 1c3b
00000040: 1e0d 3639 5627 7b3b 3e3d 2db7 0847 1239

encoder_var.1.running_var f4 [20]
5.4875552e-11 1.8488652e-05 3.2307063e-10 1.3410462e-06 7.0870688e-15 0.00021488708 4.481716e-06 2.9992987e-11
6.43777e-13 3.2375082e-11 2.3822575e-09 1.8881313e-15 4.4300494e-05 8.504507e-11 2.5797438e-09 8.0019345e-06
5.434122e-08 2.0904612e-05 1.30677075e-11 3.5043843e-08
00000000: 6158 712e 1418 9b37 269c b12f fffd b335
00000010: ac56 ff27 5053 6139 a661 9636 1ae9 032e
00000020: 0635 352b 1a63 0e2e 1eb5 2331 e00d 0827
00000030: 4bcf 3938 1e04 bb2e 5547 3131 0c40 0637
00000040: ce64 6933 505c af37 b9e3 652d 1d83 1633

encoder_var.4.weight f4 [16, 20]
-0.0007166924 0.0029534488 0.00047726554 -0.00032777947 -0.00055297447 -0.00038837764 -0.00020482976 -3.1304135e-05
0.0020054898 0.005161802 0.0033887061 -0.0016399287 -0.0025952877 -0.014912064 -0.0005638242 0.0006318255
-0.00065126666 0.00022994411 0.0010255027 -0.016913787 0.0024414693 -0.0016818492 0.00062958663 -0.0013479489
0.007271079 0.00044481663 -0.00025184476 0.0007116258 -0.00016475371 0.008342102 0.008810223 0.0010713714
0.00027026952 -0.0072765094 -0.0007163986 -0.0065856716 -0.0014527866 0.0007101745 0.0028913817 -0.016225282
-8.710243e-05 0.0005732213 0.00017311475 5.050448e-05 0.0020653794 -0.00013983525 0.0002911277 -0.0007848938
-0.0012215624 -0.004346544 -0.0042323805 0.0013845733 0.0013310655 0.013233557 0.00029079945 0.0003262954
-0.000110397355 0.00045292513 -0.0007950084 0.015682667 -0.0024676982 0.00011292132 -0.00044445912 -0.009190657
-0.006270973 -0.0004006871 0.00018865142 -0.00068788085 -9.825078e-05 0.008306692 -0.00070907385 -0.012242577
0.00029048885 0.008098633 0.00025390496 0.0013043418 0.003286679 -0.0006074515 -0.0005025807 -0.01646079
0.0005325528 0.00044677153 -0.00039770157 0.0004217017 -0.00037421967 -0.00049344054 0.00049443723 -6.280706e-05
0.00037553802 -0.0016656946 0.0027094446 0.00065172825 5.0034552e-05 0.0011096718 0.00022868275 0.00012714081
0.0020932206 -0.0007694779 0.0016565133 0.0007523035 0.000358744 -0.00021699286 8.655934e-05 0.0001845884
9.941644e-05 -0.00028561123 -0.00036453988 0.00038071422 0.00030289116 7.551749e-06 -0.00033621423 -4.627779e-05
-0.00021918875 3.613051e-05 0.0003048655 -0.00023614528 0.0003192949 -0.00045205915 -0.00027740255 0.00010847311
0.00039010457 -0.00047531392 -0.0007324648 -0.000980239 0.0012010349 -0.00022928308 -5.987345e-05 -1.3453365e-05
-0.0010227378 0.0016271459 0.0021910202 -0.0009859089 -0.0005655051 0.00047210103 -5.638776e-05 -0.0006395193
-0.001441272 -0.0013403816 0.0002606166 -0.00067349244 0.00035919133 -0.0008860311 0.00011222337 0.0006581076
-0.0012504914 -0.00043029975 -0.00037775777 -0.00085724774 0.001324173 0.0025360216 -6.463705e-05 -0.0005863336
0.0023994546 -0.005090043 4.147522e-05 -0.00048328543 0.0019535993 0.00054730265 0.00051333616 -0.0052909525
-0.00061225845 8.08826e-05 -0.000117250995 -0.0011396518 0.0030088397 0.00053663034 0.00082642154 -0.0007450145
-0.0021207486 -0.004316784 -0.0029948808 0.00095244544 -0.0034261858 0.0042798654 -0.0002439657 0.0020864771
-0.000105210274 0.0009464851 -0.00047186416 0.00481992 -0.0012291165 0.0013378651 0.000650241 -0.00623832
-0.0029192562 -0.0064818803 -0.0004851613 -4.2780037e-05 -0.0007443485 0.006745873 -0.00019929094 -0.0070806937
0.0017652969 0.0007587934 0.00035651278 0.004638463 0.0006927719 0.00028805432 -1.8171522e-05 0.005304315
-1.1060878e-05 -0.0007562871 0.00037402427 -0.0023318536 -0.0031909687 0.00042475577 2.6090534e-05 -0.00016559148
0.0024513023 -0.005159282 0.013253562 -0.0016941722 -0.0011861733 0.024729054 0.00023954977 0.0007366847
0.0034292098 0.0021171165 -0.002221214 0.025332557 -0.00050669815 0.0004930322 -0.0005485305 0.00011404564
9.259522e-05 0.0005854087 -0.00050016545 0.0002944413 0.0006344039 -0.00039728882 -0.0024153073 9.9667865e-05
0.00049418357 -0.0060103247 -5.3946966e-05 -1.2578144e-05 -0.0022111558 0.0003200672 -0.0024311508 -0.0054902174
-5.8251386e-05 0.00021115474 0.0005397206 0.0006049388 0.0002443249 -0.00012138671 0.00011019141 2.0998974e-05
0.00023972991 -0.0001613889 -0.0014769951 0.0010745287 -0.00024320176 0.0012597075 -0.0004466446 0.0010108983
00000000: 6ae0 3bba a68e 413b 7f39 fa39 d1d9 abb9
00000010: 7df5 10ba 2a9f cbb9 92c7 56b9 8f4c 03b8
00000020: 896e 033b 5524 a93b 0e15 5e3b e0f2 d6ba
00000030: b415 2abb bb51 74bc 9acd 13ba 17a1 253a
00000040: c4b9 2aba 271d 7139 296a 863a c88e 8abc
00000050: 0f01 203b 7f71 dcba d80a 253a a9ad b0ba
00000060: 3b42 ee3b 4736 e939 080a 84b9 668c 3a3a
00000070: bdc1 2cb9 50ad 083c c158 103c 426d 8c3a
00000080: f6b2 8d39 c96f eebb b2cc 3bba 9ecc d7bb
00000090: 6e6b beba 012b 3a3a 567d 3d3b e2ea 84bc
000000a0: c3aa b6b8 3b44 163a 2386 3539 c6d4 5338
000000b0: 515b 073b bda0 12b9 80a2 9839 55c1 4dba
000000c0: d51c a0ba 746d 8ebb c8af 8abb 927a b53a
000000d0: 2677 ae3a 90d1 583c 7176 9839 a112 ab39
000000e0: 2185 e7b8 9576 ed39 1c68 50ba f078 803c
000000f0: 1bb9 21bb 2cd0 ec38 4b06 e9b9 6994 16bc
00000100: bc7c cdbb 5013 d2b9 bbd0 4539 e752 34ba
00000110: fc0b ceb8 cb18 083c 24e1 39ba 1795 48bc
00000120: c14c 9839 21b0 043c 8c1e 8539 73f6 aa3a
00000130: 5365 573b 613d 1fba 9fbf 03ba c7d8 86bc
00000140: 039b 0b3a a93c ea39 9a82 d0b9 d817 dd39
00000150: ea32 c4b9 3c5a 01ba 1f9d 013a 49b7 83b8
00000160: dce3 c439 7053 daba f090 313b bed8 2a3a
00000170: 31dc 5138 6872 913a 8fca 6f39 1a51 0539
00000180: 6a2e 093b cab6 49ba 5d1f d93a 3c36 453a
00000190: ce15 bc39 9488 63b9 3187 b538 128e 4139
000001a0: cb7d d038 17be 95b9 b71f bfb9 999a c739
000001b0: 5dcd 9e39 0865 fd36 e945 b0b9 661a 42b8
000001c0: 08d6 65b9 d78a 1738 5bd6 9f39 c49d 77b9
000001d0: 0967 a739 5a02 edb9 5770 91b9 0f7c e338
000001e0: f386 cc39 8e33 f9b9 e102 40ba 5d7b 80ba
000001f0: 0b6c 9d3a b56b 70b9 a120 7bb8 c3b5 61b7
00000200: 630d 86ba f545 d53a 3897 0f3b 9d39 81ba
00000210: 683e 14ba 5484 f739 e581 6cb8 6aa5 27ba
00000220: 10e9 bcba beaf afba 5ea3 8839 508d 30ba
00000230: d851 bc39 8a44 68ba 7759 eb38 da84 2c3a
00000240: 87e7 a3ba db99 e1b9 ca0d c6b9 ecb8 60ba
00000250: df8f ad3a 6233 263b c18d 87b8 2fb4 19ba
00000260: 2b40 1d3b 60ca a6bb aef5 2d38 7961 fdb9
00000270: f507 003b dc78 0f3a 6891 063a ba5f adbb
00000280: f87f 20ba 849f a938 a6e4 f5b8 5e60 95ba
00000290: f42f 453b a7ac 0c3a 36a4 583a 144d 43ba
000002a0: 42fc 0abb cf73 8dbb c345 44bb 88ad 793a
000002b0: dc89 60bb 1d3e 8c3b 0bd1 7fb9 47bd 083b
000002c0: 56a4 dcb8 8a1d 783a 8964 f7b9 6bf0 9d3b
000002d0: 4e1a a1ba 4e5b af3a ef74 2a3a d26a ccbb
000002e0: fe50 3fbb f465 d4bb 3f5d feb9 b76e 33b8
000002f0: 6220 43ba 7c0c dd3b c1f8 50b9 2a05 e8bb
00000300: 8961 e73a c3e9 463a 56ea ba39 3ffe 973b
00000310: 239b 353a ff05 9739 0c6f 98b7 d2cf ad3b
00000320: 1c92 39b7 9141 46ba b018 c439 03d2 18bb
00000330: 921f 51bb c1b1 de39 ffdc da37 a0a2 2db9
00000340: 07a6 203b 320f a9bb 7825 593c fc0e deba
00000350: 5f79 9bba 9694 ca3c a72f 7b39 131e 413a
00000360: 98bc 603b 52bf 0a3b c991 11bb 3986 cf3c
00000370: f0d3 04ba d53e 013a 42cb 0fba c92b ef38
00000380: ae2f c238 1d76 193a 891d 03ba 3e5f 9a39
00000390: 204e 263a 344b d0b9 224a 1ebb c704 d138
000003a0: 198c 013a 42f2 c4bb 1d45 62b8 b806 53b7
000003b0: 0ae9 10bb b1ce a739 f153 1fbb 48e7 b3bb
000003c0: f352 74b8 6b69 5d39 097c 0d3a c194 1e3a
000003d0: bc18 8039 fe90 feb8 9016 e738 f426 b037
000003e0: 0260 7b39 813a 29b9 bb97 c1ba 33d7 8c3a
000003f0: fa03 7fb9 c51c a53a a02b eab9 1e80 843a

encoder_var.4.bias f4 [16]
-0.0126571255 -0.046674337 0.011513414 0.059931137 0.0029865678 0.0013533288 0.0026002892 -0.008161974
0.00026222767 -0.056081984 0.016732698 0.0006176572 0.0009977325 -0.03034146 -0.052476548 0.0013069056
00000000: d55f 4fbc 972d 3fbd c2a2 3c3c 5a7a 753d
00000010: 4bba 433b 2e62 b13a 9d69 2a3b cdb9 05bc
00000020: 9a7b 8939 39b6 65bd 0313 893c 46ea 213a
00000030: 59c6 823a a78e f8bc a6f1 56bd 7a4c ab3a

encoder_var.5.weight f4 [16]
-0.020080997 -0.04372295 0.020997528 0.05783031 0.0022049297 -0.0015368366 0.008053814 0.0045914897
-0.0032854073 -0.04117398 0.021536896 0.0005617128 -0.0011689784 -0.020844493 0.03252469 0.0031746032
00000000: e780 a4bc d616 33bd 0203 ac3c 7adf 6c3d
00000010: 9580 103b ae6f c9ba 25f4 033c 3574 963b
00000020: fd4f 57bb 0ca6 28bd 256e b03c e83f 133a
00000030: 6838 99ba 12c2 aabc 9c38 053d 010d 503b

encoder_var.5.bias f4 [16]
-0.0045731263 0.012198449 -0.0032386286 0.0281431 0.0015679094 0.0007008357 -0.0007620833 0.0029358391
-0.0011958793 -0.010086669 -0.0045630382 -0.0039044262 0.0021635285 0.010412237 -0.01881717 -0.00093351386
00000000: 2ada 95bb 01dc 473c 2c3f 54bb 5c8c e63c
00000010: 4f82 cd3a 4ab8 373a 8bc6 47ba 3567 403b
00000020: 0dbf 9cba 8e42 25bc 8a85 95bb 67e1 7fbb
00000030: fcc9 0d3b 1698 2a3c 7726 9abc 0eb7 74ba

encoder_var.5.running_mean f4 [16]
8.332297e-06 -1.0501865e-05 8.604582e-08 -9.628027e-08 8.401608e-06 2.9635456e-09 -5.136592e-05 9.692664e-05
-2.4333363e-05 0.0012534064 -7.718964e-10 -5.3590074e-06 -2.8566384e-07 4.5778022e-05 0.0010388652 -3.7917804e-08
00000000: f1ca 0b37 2b31 30b7 31c8 b833 a3c2 ceb3
00000010: a2f4 0c37 3fa7 4b31 bd71 57b8 1845 cb38
00000020: 801f ccb7 5749 a43a 612d 54b0 86d1 b3b6
00000030: 575d 99b4 c701 4038 882a 883a 11db 22b3

encoder_var.5.running_var f4 [16]
3.647706e-10 3.2642575e-10 2.271787e-14 8.7953e-14 2.2437449e-10 7.2881335e-17 7.769136e-09 2.992242e-08
1.7693593e-09 4.5722313e-06 1.6958334e-17 9.762126e-11 4.70018e-13 7.0793456e-09 3.1494324e-06 9.864669e-15
00000000: e688 c82f 5774 b32f d79f cc28 740d c629
00000010: ceb3 762f 8c0d a824 0579 0532 0c84 0033
00000020: cc2d f330 2b6b 9936 bc69 9c23 e2ab d62e
00000030: 5e4c 042b 953e f331 d65a 5336 c2b4 3128

encoder_var.8.weight f4 [14, 16]
0.0012073795 -0.00024242535 -0.0007095257 -0.0005373093 -0.0004232941 -9.581005e-05 -0.00115796 -0.0010452698
0.00028410315 -0.0011030724 0.0001533015 -0.0010171828 0.00043879374 0.0024490133 0.0004372472 0.0002621225
0.00317451 -0.0014591307 0.0040667644 -0.0051731504 0.00044869116 3.4354733e-05 0.0017507853 -0.0025492143
0.0010330821 0.00023399654 -0.00827374 0.00018084695 0.0006050882 -0.0023543583 -0.0018259695 -1.4022941e-05
0.00072622707 -0.0022328715 -0.0015787919 -0.0075456332 -0.0011512449 0.0008295713 -0.0034745866 0.0009659748
-0.003184076 -0.0016877451 -0.0022210798 -0.00051694666 0.0018024184 0.003714847 0.0011157555 -0.0002265223
-0.0032855754 -0.0023297896 0.0010493328 -0.0014476699 -0.0005670176 0.00058411417 0.0030496533 -0.0025266376
0.0016462667 -0.0029752483 0.0021102151 -0.00024754382 0.0011713103 -0.003839236 -0.0052448083 -0.00047583194
-0.010985096 -0.016240947 -0.009270973 -0.025950825 -0.00084259105 -0.0009785583 0.0009024124 0.005551733
0.0046886518 -0.01596231 -0.031219844 -0.0009160117 0.0013017298 -0.010764935 -0.02051415 -0.0016757577
-0.00013028427 -0.0001671964 0.00034530062 -0.00040066685 0.00049669994 -0.00031346193 -0.00018560649 0.00063968403
-0.0002952479 0.0019079125 -0.00045291692 0.0005471673 0.00040763174 0.0015876571 0.0034423496 -2.469051e-06
-0.00035972518 -0.0006429397 -0.00016385887 8.606145e-05 0.0004220276 0.00025886003 -0.000120630255 -0.0010738395
0.00037364682 0.0008029442 0.00043284122 0.0005293883 -0.00033119484 -0.0009160471 -0.00057889026 0.0005037318
-3.546026e-05 -0.00044599752 0.00035906062 0.00031362663 0.00044377678 0.00029495318 -0.0005832152 0.00050386606
0.0003719765 -0.00072350854 -0.00018022177 0.00014443161 -1.0657106e-05 0.0006031341 0.0011151537 -0.00037620464
-0.017742869 -0.027755724 -0.016039746 -0.04348447 -0.0015645173 0.00017270498 -0.00032735418 0.0053976458
0.0049007395 -0.031217104 -0.031812355 -0.0023534358 0.0018388467 -0.019982152 -0.028757704 -0.0017862533
-0.018924328 -0.029204756 -0.016789703 -0.04651354 -0.0016687255 0.0016818404 -0.0007493298 0.0044434504
0.0047468496 -0.032385454 -0.031471822 -0.0029222849 0.0026448204 -0.028563064 -0.029874478 -0.002229061
0.00022558565 0.0002678273 -0.00057661464 -0.0003216408 -3.5325964e-05 0.0004890031 0.0010329296 -0.00048010264
0.0006048601 0.00050362723 -0.00062377536 -0.00041259837 0.00039324406 0.0021823246 0.00057851896 -0.00054244767
0.00037052797 0.0008741751 0.0008183853 0.0019200823 -0.00040043073 -0.0004093571 -0.0020524347 0.0020398004
-0.0017376734 0.008890097 -0.0017207923 -0.00089737034 0.00030079266 -0.00022355579 -0.0006540205 0.0008297428
-0.00061716954 -0.0020148437 -0.00072167977 0.011864431 -7.933645e-05 -5.552796e-05 -8.480026e-05 -0.00024492102
-0.00031429043 -0.003459348 -0.00018630513 0.000526066 0.00037602772 0.0016904019 -0.0027294927 -0.00017637952
0.0020934737 0.00012948044 0.00089469255 -0.00049270754 0.00024577862 0.00013874592 -0.0031235195 0.000459347
-0.003189092 -0.0003106472 0.000744886 -0.00048344999 -0.00052500586 0.0049955565 -0.0004922505 -3.727837e-05
00000000: ef40 9e3a 8f33 7eb9 77ff 39ba 37da 0cba
00000010: 93ed ddb9 a1ed c8b8 b1c6 97ba 6f01 89ba
00000020: aef3 9439 f894 90ba 8fbf 2039 fe52 85ba
00000030: e60d e639 a07f 203b 533e e539 7d6d 8939
00000040: 710b 503b 4d40 bfba 7e42 853b 8883 a9bb
00000050: 4f3e eb39 1d18 1038 9b7a e53a b810 27bb
00000060: 7c68 873a f85c 7539 958e 07bc bca1 3d39
00000070: c89e 1e3a 944b 1abb 5f55 efba 1344 6bb7
00000080: 4660 3e3a 5e55 12bb 77ef ceba 5c41 f7bb
00000090: 5ee5 96ba 9677 593a e4b5 63bb 7939 7d3a
000000a0: eeab 50bb 5437 ddba 898f 11bb b483 07ba
000000b0: 203f ec3a ca74 733b 8b3e 923a 9e86 6db9
000000c0: cf52 57bb 62af 18bb c489 893a bebf bdba
000000d0: e8a3 14ba 3d1f 193a b1dc 473b f295 25bb
000000e0: 8bc7 d73a 62fc 42bb 894b 0a3b c5c8 81b9
000000f0: a786 993a b19b 7bbb a4dc abbb 1579 f9b9
00000100: d5fa 33bc bc0b 85bc 47e5 17bc d396 d4bc
00000110: 54e1 5cba f842 80ba df8f 6c3a 50eb b53b
00000120: 43a3 993b 64c3 82bc c2c0 ffbc 8120 70ba
00000130: ce9e aa3a 695f 30bc 4a0d a8bc 19a5 dbba
00000140: eb9c 08b9 7151 2fb9 7709 b539 9810 d2b9
00000150: f834 023a 2658 a4b9 5d9f 42b9 78b0 273a
00000160: 81cb 9ab9 ec12 fa3a 7b75 edb9 c76f 0f3a
00000170: 68b7 d539 ef18 d03a 0b99 613b f9b1 25b6
00000180: 7f99 bcb9 f48a 28ba 88d1 2bb9 e47b b438
00000190: 9643 dd39 9bb7 8739 e0fa fcb8 13c0 8cba
000001a0: 07e6 c339 ac7c 523a f7ee e239 a6c6 0a3a
000001b0: 38a4 adb9 e122 70ba abc0 17ba de0c 043a
000001c0: 2abb 14b8 c6d4 e9b9 4d40 bc39 416e a439
000001d0: b6aa e839 f2a3 9a39 e9e2 18ba e115 043a
000001e0: d705 c339 d6a9 3dba eaf9 3cb9 9172 1739
000001f0: eccb 32b7 a51b 1e3a 592a 923a 553d c5b9
00000200: 7e59 91bc f95f e3bc c965 83bc c61c 32bd
00000210: 7d10 cdba 2418 3539 bca0 abb9 bcde b03b
00000220: 6296 a03b 03bb ffbc ac4d 02bd 1a3c 1abb
00000230: 7505 f13a 9cb1 a3bc 4795 ebbc b720 eaba
00000240: 3107 9bbc d03e efbc 8f8a 89bc fb84 3ebd
00000250: 23b9 daba 3371 dc3a ac6e 44ba 5d9a 913b
00000260: 768b 9b3b 9ca6 04bd 99e8 00bd ce83 3fbb
00000270: b954 2d3b 16fd e9bc 52bb f4bc 7015 12bb
00000280: 308b 6c39 2c6b 8c39 f427 17ba e6a1 a8b9
00000290: f72a 14b8 7130 003a 5e63 873a 49b6 fbb9
000002a0: 798f 1e3a da05 043a db84 23ba 0452 d8b9
000002b0: 532c ce39 5505 0f3b c0a7 173a 0c33 0eba
000002c0: 6c43 c239 e628 653a e888 563a 45ab fb3a
000002d0: e7f0 d1b9 fb9e d6b9 2482 06bb 2cae 053b
000002e0: a5c2 e3ba c5a7 113c 358c e1ba 813d 6bba
000002f0: b5b3 9d39 4d6a 6ab9 9372 2bba 1983 593a
00000300: 8cc9 21ba 780b 04bb 1c2f 3dba 0863 423c
00000310: 6f61 a6b8 b1e6 68b8 cbd6 b1b8 be68 80b9
00000320: 59c7 a4b9 3bb6 62bb e75a 43b9 b1e7 093a
00000330: 9625 c539 7a90 dd3a 4ae1 32bb 84f2 38b9
00000340: a932 093b 24c5 0739 cd89 6a3a 0b29 01ba
00000350: d9db 8039 537c 1139 f6b3 4cbb 83d4 f039
00000360: 1600 51bb 5dde a2b9 7444 433a 8f77 fdb9
00000370: 8ca0 09ba c4b1 a33b 5f0a 01ba 585b 1cb8

encoder_var.8.bias f4 [14]
0.0002357827 0.022869816 -0.017305382 0.0014208087 -0.09483067 -0.0553984 0.0023812377 -0.041041367
-0.12546536 -0.124965295 -0.0021050395 0.013167258 -0.056190312 -0.0010872252
00000000: 703c 7739 7b59 bb3c 04c4 8dbc 6e3a ba3a
00000010: 9536 c2bd 6fe9 62bd 8a0e 1c3b fe1a 28bd
00000020: fe79 00be ceed ffbd b4f4 09bb 7cbb 573c
00000030: d027 66bd 3981 8eba

encoder_var.9.weight f4 [14]
-0.0040710135 0.02404623 -0.010946144 0.0027739704 -0.08079865 -0.0014277379 -0.0016440148 -0.0011755562
-0.10126243 -0.10150461 0.0017973828 0.0015703251 -0.046322823 0.0101250755
00000000: 2366 85bb 99fc c43c 7557 33bc 80cb 353b
00000010: c379 a5bd ef22 bbba fc7b d7ba 1f15 9aba
00000020: ad62 cfbd a6e1 cfbd 2996 eb3a 5ed3 cd3a
00000030: 00bd 3dbd a5e3 253c

encoder_var.9.bias f4 [14]
0.00046710527 0.0070405747 -0.0014744067 0.00045673255 0.030197069 -0.01280093 -0.0010277961 0.004343167
0.040262382 0.04465707 -0.0032338928 -0.0074173994 -0.003436184 -0.006319075
00000000: cfe5 f439 9fb4 e63b e140 c1ba 9b75 ef39
00000010: d85f f73c feba 51bc 1db7 86ba 2051 8e3b
00000020: 2bea 243d 55ea 363d b8ef 53bb a80d f3bb
00000030: 9a31 61bb 3e10 cfbb

encoder_var.9.running_mean f4 [14]
9.196419e-09 -1.2569364e-05 -9.1532035e-09 1.9771745e-05 2.1538439e-05 0.00091362494 -1.1686259e-05 0.00045779152
5.9043236e-05 2.9958866e-05 -1.1240969e-06 -5.7423377e-10 0.0012018349 3.3846838e-08
00000000: 47fe 1d32 02e1 52b7 3740 1db2 80db a537
00000010: 72ad b437 5580 6f3a 1a10 44b7 bd03 f039
00000020: 31a5 7738 2d50 fb37 addf 96b5 1cd8 1db0
00000030: e386 9d3a fe5e 1133

encoder_var.9.running_var f4 [14]
6.117723e-16 8.416019e-10 5.17083e-17 1.9436506e-09 2.474783e-09 3.6834765e-06 5.3544813e-10 9.4856824e-07
1.8976408e-08 3.680832e-09 2.7304794e-13 4.884076e-19 6.295964e-06 5.9127482e-15
00000000: d454 3026 7856 6730 6376 6e24 1091 0531
00000010: d810 2a31 a531 7736 d02e 1330 1da1 7e35
00000020: 9001 a332 e2f1 7c31 5bb6 992a 0927 1021
00000030: eb41 d336 7a07 d527
