generativecf/models/bn1-64-50-target-class-0-auto-encoder.pth (torch_old, 29424 bytes, 78 tensors)

encoder_mean.0.weight f4 [20, 3]
00000000: 5d58 eebe a775 3d3e ccc4 89be 5c7a 6dbe
00000010: 7e75 bbbe 74c6 2fbe a94f 6dbd 5867 58be
00000020: cf3b e9bd 54a1 353c 8245 0bbf 68af d43d
00000030: e8ec e13d 9c81 cdbe c077 30be 03a8 e6bd
00000040: ff6e 26bf 2ee8 7e3e 4823 d33e 78e0 03bf
00000050: 7388 933d 0dd9 11bf e5f6 5cbe 6ea1 5b3b
00000060: e2d3 06bf 91eb 9bbe aa9b 923e 1c0c 183f
00000070: 7fe2 783d 0e6e a13d 6969 c93e 305c 83be
00000080: 1671 7d3e 01f5 62bd ba4d fa3e 14fc f3bd
00000090: 1dd3 083f f7ab d73e 0540 8bbe 5275 08be
000000a0: 8999 ec3e affc 183e 8ad5 053f 5190 81bc
000000b0: cb70 c23d f659 8f3e 6a13 88be 9278 cbbe
000000c0: a8ae 01bf 3ff9 f23d 29a1 3fbd b687 df3e
000000d0: 4e65 33be 430f cd3e 3d89 a6be d4ef 083f
000000e0: ff3e ac3e 1e6c f1be 0bf7 8f3d 3775 58be
-0.4655179 0.18501912 -0.26907957 -0.23191208 -0.36613077 -0.17165548 -0.057937298 -0.21133173
-0.11388361 0.011085827 -0.54402936 0.103850186 0.110315144 -0.40137947 -0.17233181 -0.112625144
-0.65013117 0.24893257 0.41237855 -0.5151439 0.0720376 -0.5697182 -0.21578558 0.0033512968
-0.5266706 -0.3045316 0.28634387 0.5939348 0.06076288 0.078823194 0.39338234 -0.2565627
0.2475017 -0.055409435 0.48887426 -0.119133145 0.53447133 0.42123386 -0.2719728 -0.13326004
0.46210888 0.14940141 0.5227896 -0.015815886 0.0949417 0.27998322 -0.26577312 -0.39740425
-0.5065713 0.11863946 -0.046784554 0.43658227 -0.17519113 0.40050706 -0.3252658 0.5349095
0.33641812 -0.471528 0.070295416 -0.21138464

encoder_mean.0.bias f4 [20]
00000000: b877 4134 e3d2 bab6 04e3 3933 bcd0 3236
00000010: 8d46 7ab7 697e 9e36 6852 5b34 9037 03b6
00000020: 9a41 83b7 8a35 30b5 ebd5 3137 4802 50b7
00000030: 0f32 b136 a0de 2536 0862 24b5 4f81 aab6
00000040: dde0 8cb6 9096 64b5 5c76 01b6 81a8 a836
1.8018079e-07 -5.5677824e-06 4.328014e-08 2.6645566e-06 -1.4917588e-05 4.723483e-06 2.0425944e-07 -1.9552863e-06
-1.5646965e-05 -6.564302e-07 1.0599829e-05 -1.2398297e-05 5.2808386e-06 2.47165e-06 -6.1237415e-07 -5.0814483e-06
-4.1985027e-06 -8.5155716e-07 -1.9291392e-06 5.0264066e-06

encoder_mean.1.weight f4 [20]
00000000: a91b 473f 0fe7 393f b46b 273f 3621 423f
00000010: 89cf 3a3f c4e8 5f3f d0d5 583f a96c 2f3f
00000020: 79db 2a3f 49e1 503f ce8c 3b3f 8cab 713f
00000030: b5aa 463f fd86 603f af11 303f c9cc 2f3f
00000040: 98af 443f 4738 3f3f 380a 6d3f ef45 3a3f
0.7777658 0.7261819 0.65398717 0.75831926 0.72972924 0.8746455 0.8470125 0.6852518
0.6674114 0.8159376 0.73261726 0.94402385 0.7760423 0.87705976 0.68776983 0.6867185
0.76830435 0.7469525 0.9259372 0.7276296

encoder_mean.1.bias f4 [20]
00000000: 2327 8ebe ec29 6cbe c160 17bd 81bf 4dbe
00000010: 20fe 4bbd 0258 bbbd 89d3 8bbe 285e a5be
00000020: 315c 8ebe a9c8 073e 3fce 58be 17b4 87be
00000030: 1010 b63b 5c54 15be dede 503d 4fe2 5c3d
00000040: c06a b7be 82d7 89be b060 b9be bb33 d3bd
-0.27764234 -0.23062867 -0.036957506 -0.20092584 -0.0498029 -0.091476455 -0.27309826 -0.32298398
-0.2780471 0.1326014 -0.21172427 -0.26504585 0.005556114 -0.14582962 0.050993793 0.053926762
-0.3582363 -0.26922232 -0.3620658 -0.10312601

encoder_mean.1.running_mean f4 [20]
00000000: ba1b 79be 73d5 b5be ea64 37be 2f7b 79be
00000010: ef11 66be 174f 86be 8f49 26bd b982 babe
00000020: d6ef 85be 730b a73e abc5 153e ad31 1a3e
00000030: 6661 a83e ce67 683e 2a28 8b3e f5af 37be
00000040: 6ffb 3abe 3faf 903e 5f47 723e c746 89be
-0.24326983 -0.3551441 -0.1790959 -0.24363397 -0.22467779 -0.26232216 -0.040597495 -0.36427858
-0.26159543 0.32625923 0.14626186 0.15058012 0.3288681 0.22695848 0.2717908 -0.17938216
-0.18259977 0.28258702 0.23660038 -0.2681181

encoder_mean.1.running_var f4 [20]
00000000: b411 2e3c b148 183c 346f 3e3b 860e 0a3c
00000010: ca61 133c 2304 003c b3b7 6b3c 60a5 163c
00000020: 8680 643b 130b 303c 5cee 073c b568 c73b
00000030: 0a03 9f3b a956 2c3c 5579 113c eab1 223c
00000040: d826 053c 297d 4a3c e850 9d3c 93e0 1d3c
0.010624338 0.009294675 0.0029057981 0.008426314 0.008995483 0.007813486 0.014387059 0.009194702
0.0034866645 0.010744828 0.008296575 0.00608548 0.004852657 0.010518708 0.0088790255 0.009930113
0.008126937 0.012358942 0.019203618 0.009636062

encoder_mean.4.weight f4 [16, 20]
00000000: 18c7 09be e8bc 8f3e ec65 8d3e 0c92 4f3e
00000010: f253 863e d27a 683e 74b8 363e 4eb3 643e
00000020: 6cfa 933d 0245 97bc 4ee1 4e3e 7967 413d
00000030: 1270 28bb 412d ca3d 13a9 bf3d 5b8e 933e
00000040: 2422 29be 560e 32bd 60e4 133e 6a36 3cbd
00000050: 3e18 7c3c d978 6ebd 7e3f 23be c23f 72bc
00000060: 208c da3d 0f02 0e3d b843 bb3d 32c5 d0bc
00000070: 6bfe 4bbd 12f1 c73d baf9 c73d 21af 853e
00000080: 3bb5 e53e 2ee9 333e 7f6e 533e ec2b a33d
00000090: 284d 133e de84 003f 655e 2c3d b629 023d
000000a0: 19ae 2f3e 7a5d 0dbb 7e24 3cbd d3d0 0f3d
000000b0: 3185 b0bd 0b09 b43d 10b6 aabe a5a3 ba3d
000000c0: 9a90 363e fb50 12be 7940 b1be fde5 2a3e
000000d0: 5754 123e ed03 5e3e a5a3 59be b260 08bd
000000e0: ad29 b13e 401b d7bd 2535 043d ea02 c93d
000000f0: 4eae 96be 9b61 cfbd fe8b bbbd caa5 bf3d
00000100: 6b25 92bb 8160 a5bd 6206 1b3d 86b7 c73b
00000110: 4dc6 f7bd 49cd f33d d19f 0d3d 04f0 323e
00000120: 10ce 2a3e 01dd 4e3e 8163 023d 0a73 7ebc
00000130: 3568 d5bd a435 9c3d 7444 6a3e f8dc 6abe
00000140: e1a4 01bd 2850 283e cf72 db3d 5d2a b93e
00000150: e55c 993e 2404 a03e fd79 5c3e f445 223d
00000160: 9b21 58bd 7687 e13d e0d7 ce3d e6db 93be
00000170: f648 0fbc 13fd 97be f7ea f3bd b52c 6e3e
00000180: 931c 9bbc b944 f23d 2079 82be b9e4 383d
00000190: befe 343e 97d8 1bbe f1d2 95be 15dd 123c
000001a0: a419 4dbe 4e9e 23be d15c 3dbe 2021 40be
000001b0: 60b6 d1bd 946b 2c3d e8e1 0cbe b2ba 773e
000001c0: 4636 283d 8945 893e 9a47 c2bd 0ab8 8ebe
000001d0: ff4e 89bc bb42 03bd 3658 b53e dad2 5dbd
000001e0: df2e 163d f77b 95bd c41d 3bbe 821c 13be
000001f0: 79ff 22be afee 84be 870b 12be 3162 bfbd
00000200: 157c 75bd ce8d 60bd 2a19 53be 5aab 6d3e
00000210: 9ea9 5e3d 9b5f 053e 8c99 d7bd dd19 92be
00000220: 7b25 553e f9a3 3abe 106b 6a3e 6c71 f83d
00000230: ad25 32be f137 a93c 9996 34be f786 023e
00000240: 0008 a7bd 4880 5cbd a698 073e 82c8 8f3d
00000250: 9d56 b73d b3fa 0b3e 339e 993e 0d35 07be
00000260: 76e9 613e 549d 533e bb11 2c3e d17c bc3d
00000270: 4dc8 53bd 8496 993e d135 0dbd e4ec e3bd
00000280: eb01 913e 894a 613e 0d48 2f3d 7cac 46bd
00000290: 099d 1fbe e101 ebbd 3214 b63a 97ae 233e
000002a0: 95bb 273e eb99 ca3e 6b9f e53d ed6e 813e
000002b0: 52f6 26be 4df6 d4bd 0f6a 6e3c c121 2bbe
000002c0: cc89 bb3d 6ab1 6ebd b0ec 153e 6483 283c
000002d0: de83 40bd 8bfa 45be 88c2 f6bd ffc1 a2bd
000002e0: a41a 90be 09ba 65be 24dc 6cbd 610e 66bd
000002f0: d98e dfbd 7066 63bd c49e 5f3d 129b 813e
00000300: af06 de3c 1bbd 523e da1c 8a3d 0d53 6ebe
00000310: e60e 043e 45fb 8c3d 6c94 ab3e b433 403e
00000320: cc6e 4cbc e991 4b3e e10e 773e 9e31 d93e
00000330: 8c04 cf3d fd34 913e 69e3 413e 6396 b03c
00000340: d249 283d 7b83 dbbd 59bd 4abd 8651 16be
00000350: e635 b4bb 66cf 8bbe 00f3 6ab9 4c32 aa3d
00000360: 0281 4f3d 4a5c 373c b2c5 86be 3332 433d
00000370: aee0 913e dfe3 0f3e f5d8 ba3c e2e3 783c
00000380: 7df0 243c 4f46 903c 43a1 16be 569a 2f3e
00000390: ffc1 483d 7591 96be f9d0 e6bd 0b75 123e
000003a0: d09d 2abe 863d b3bc 75b2 14be f0db 62bd
000003b0: acf0 c13e 80a5 85bd b3d7 86bd 8432 813e
000003c0: 2a4c 60be c06d d4bd 3af6 213d 2c92 e93d
000003d0: c51a 1ebe b17a 8bbe 2b6d 82be da2e a23d
000003e0: c7da d8bd c9f1 40bc 6dbc b9bd 093b 493e
000003f0: e036 253e 40a5 013e a437 173d 1696 4fbe
-0.13454854 0.28073812 0.27616823 0.20270556 0.2623592 0.22703102 0.17843801 0.22334024
0.072254986 -0.018465523 0.20203134 0.04721782 -0.0025701565 0.09871913 0.0935842 0.28819546
-0.1651693 -0.043470703 0.14442587 -0.04595033 0.015386639 -0.058220718 -0.15942189 -0.014785709
0.10671258 0.034669932 0.09143776 -0.025484655 -0.04980318 0.097627774 0.097644284 0.26110175
0.4486483 0.1756942 0.2064762 0.07967362 0.14384902 0.5020274 0.04208221 0.03177806
0.17156257 -0.002157061 -0.04593324 0.03511126 -0.08619154 0.08790787 -0.33342028 0.09113244
0.17828599 -0.14288704 -0.346195 0.16689296 0.14289986 0.21681185 -0.21253832 -0.03329534
0.3460211 -0.105032444 0.032277245 0.09815009 -0.2942986 -0.10126039 -0.09157561 0.09357794
-0.004460027 -0.08075047 0.037847884 0.0060948757 -0.1209837 0.119043894 0.03457624 0.17474371
0.16680169 0.20201494 0.031833176 -0.015530357 -0.104202665 0.07627419 0.22877675 -0.22935855
-0.03165138 0.16436827 0.107152574 0.36165133 0.29953685 0.3125316 0.2153091 0.039617494
-0.052766424 0.11012165 0.10099769 -0.28878707 -0.008745423 -0.29685268 -0.1191005 0.23259242
-0.018934524 0.11829514 -0.25483036 0.045140002 0.17675301 -0.15219341 -0.29262498 0.008963843
-0.20029312 -0.15978357 -0.18492438 -0.18762636 -0.102398634 0.042094782 -0.13758051 0.24192312
0.041067384 0.26810864 -0.09486313 -0.27874786 -0.016761301 -0.03204606 0.35418862 -0.05415616
0.036665794 -0.07299035 -0.18273073 -0.14366344 -0.15917768 -0.2596335 -0.1426221 -0.093449004
-0.059932787 -0.054822735 -0.20615068 0.23209897 0.05436098 0.13024752 -0.105273336 -0.28535357
0.20815079 -0.18226613 0.22892404 0.121310085 -0.17397185 0.020656558 -0.17635573 0.12746798
-0.08155823 -0.053833276 0.13241825 0.07020666 0.08952067 0.13669853 0.3000351 -0.13203831
0.22061715 0.20665485 0.16803639 0.09203494 -0.051704694 0.29997647 -0.03447515 -0.11129168
0.28321776 0.22001089 0.042793322 -0.048504338 -0.15587248 -0.11474968 0.0013891517 0.1598457
0.1638015 0.39570555 0.11212047 0.25279942 -0.16304901 -0.10398541 0.0145516535 -0.16712095
0.09157142 -0.058274664 0.1464107 0.010285232 -0.04700076 -0.19333856 -0.12048823 -0.07947158
-0.28145325 -0.22434248 -0.05782713 -0.056166057 -0.10915918 -0.055517614 0.05459477 0.25313622
0.027102796 0.2057995 0.06743784 -0.23273869 0.12896308 0.06883863 0.33511674 0.18769723
-0.012477588 0.19879879 0.2412677 0.42420667 0.10108289 0.2836074 0.18934406 0.021556085
0.041086026 -0.10718437 -0.049496982 -0.14679536 -0.0054995893 -0.2730667 -0.00022406504 0.083103746
0.05066014 0.011191437 -0.26322705 0.047655296 0.2849173 0.1405177 0.022808531 0.01519105
0.0100671025 0.01761165 -0.14709954 0.17148718 0.049013134 -0.2940785 -0.11270327 0.14302461
-0.16661763 -0.021879923 -0.14521201 -0.05538553 0.3787893 -0.06525707 -0.0658411 0.25233853
-0.21904054 -0.10372496 0.03954146 0.11404833 -0.154399 -0.27242044 -0.25473914 0.079190925
-0.105886035 -0.011776396 -0.090691425 0.19651426 0.16134214 0.12660694 0.036918297 -0.20272097

encoder_mean.4.bias f4 [16]
00000000: 94c7 c636 4b35 beb5 0be0 0c35 04e8 06b5
00000010: 40e0 d834 9e2a ad35 df73 feb5 b5fa 31b6
00000020: 788f aa35 e464 1436 86c6 34b6 962a f935
00000030: f7b6 ce35 5060 f7b4 ae9f 06b7 91bf 1cb6
5.924094e-06 -1.4171613e-06 5.248009e-07 -5.025652e-07 4.0396299e-07 1.2901908e-06 -1.8958198e-06 -2.6520986e-06
1.2707742e-06 2.2112445e-06 -2.6937646e-06 1.856434e-06 1.5401446e-06 -4.6077412e-07 -8.024201e-06 -2.3357318e-06

encoder_mean.5.weight f4 [16]
00000000: cdeb 633f f6f7 673f 4226 483f ac59 423f
00000010: 0480 533f 67fd 573f 84d9 563f 954a 1c3f
00000020: 42a8 4b3f 5351 7d3f c310 5f3f 33d7 683f
00000030: aa7b 3e3f bb1e 4c3f c757 663f 4408 373f
0.8903168 0.90612733 0.78183377 0.7591808 0.8261721 0.84371036 0.8392565 0.61051303
0.79553616 0.98952216 0.8713495 0.9095337 0.74407446 0.7973439 0.8997769 0.7149699

encoder_mean.5.bias f4 [16]
00000000: be71 7bbe 3981 2bbe 2cf2 e23d d052 f6bd
00000010: 7169 823b d462 f9bc cecd b4bd 9d51 5e3c
00000020: 0470 a2ba 2a13 1b3d 3e2b bb3d 8484 1d3d
00000030: a71b c0bc 9f90 cc3d 6800 bf3d 1d82 443c
-0.24555108 -0.16748513 0.11081347 -0.12027514 0.0039798548 -0.030442633 -0.08828317 0.013569263
-0.0012393002 0.037860073 0.09139107 0.038456455 -0.023450686 0.09988522 0.09326249 0.011993912

encoder_mean.5.running_mean f4 [16]
00000000: eb76 0b3f a56f 0c3f f1ef 043d 8be2 a93d
00000010: 7cc6 923e 5dd4 33be 2cc2 7ebe a4e2 903e
00000020: 4229 743e 31b7 64bd 6cd1 383e 8781 adbc
00000030: cc9f 87bd 90eb 56be 57e9 23be 88fa 8fbd
0.5447833 0.54857856 0.03245539 0.08295163 0.28667057 -0.17561479 -0.24878758 0.28297913
0.23843864 -0.055838767 0.18048638 -0.021179928 -0.06622276 -0.20988297 -0.16006981 -0.07030207

encoder_mean.5.running_var f4 [16]
00000000: 1a92 d33e 9e98 c83e e781 c43e e045 793e
00000010: 0fc2 473f 4340 113f c398 0b3f 80e9 923e
00000020: f7d0 bf3d 6128 f73e 99e1 043f 7c72 de3e
00000030: 2f4e b03e 5cf7 083f 15b2 243f 3484 cf3e
0.41322404 0.39178938 0.38380358 0.24343061 0.78030485 0.5673868 0.5452997 0.2869377
0.09366029 0.48272994 0.51906735 0.4344672 0.3443465 0.5350244 0.6433423 0.4053055

encoder_mean.8.weight f4 [14, 16]
00000000: 789c 483e 90ec 6bbe f69f e73d a2f3 87be
00000010: 967c 953d 5398 e4bb a247 f8bd 93b5 a1be
00000020: 7794 f43d 973f a13e 259a dabd bbf7 aa3e
00000030: f294 5cbe 7ed3 e13d 3355 aa3e 11e8 263e
00000040: c633 a2bd 64c7 86be 6126 863e a0c2 86be
00000050: f20f 8cbd b81d 7ebe 393f 2dbd e89c 05be
00000060: 897c 1a3e 2681 54be 2012 a0ba fe3a 553e
00000070: b849 f33c 61c6 1a3e 220a 593e 45ee 813e
00000080: 9f5c ba3e 77df 893d deb2 81bd a727 763c
00000090: e631 3e3e 8376 88be 3eb8 74be d638 b7bb
000000a0: f0c4 a33c 7986 b3be 7fe8 993e 6a86 7fbd
000000b0: c2cd 70be 93b0 66be 608d 3bbe 4b86 1d3e
000000c0: db70 e6bd 72c0 403d b245 043d 4a15 233e
000000d0: 876c 52be 50f1 9b3e ba7b 183e 8603 7f3d
000000e0: f703 983d 17fd d63e e1be 89be 3a08 79bd
000000f0: 7753 4a3e 0609 0d3e 9b09 23bc 6765 29be
00000100: d406 873d 97e9 80be d9c7 84be 7878 54be
00000110: 96cc 053d f647 1e3d 3500 8e3d 090a afbe
00000120: 32ad b2be 55b9 7ebd 2b18 bebd 86c0 02be
00000130: 35d0 21bd 604a b53e fb73 aa3d c569 62bd
00000140: 4c3d 3cbe 010d 6abe cc36 a93e e14e a0be
00000150: 69c3 30be e641 dabd 7207 143e a86a e1bd
00000160: 603b c63e f1f6 acbd 67dc cc3d 32a4 583e
00000170: 5c9a c03a 04b2 13be 0e59 473e 41ec b53d
00000180: 9f9c 8d3e 0c6d 633e 81d1 2ebe 5e03 d9bc
00000190: 935f 893e c99e 6abe 8a33 0abe 70f8 8ebd
000001a0: afe1 9dbd f890 b0be f83e 293e 255b 8ebe
000001b0: 0197 63be b291 173d 6526 12be 2182 e0bd
000001c0: ee02 393e 0673 cbbd ab03 01be 4ed0 76bd
000001d0: f751 d43e 5eba 4fbe 0ec0 a7be 5ce9 73bd
000001e0: 35cd 17be c89d a7be 2e3a 213e 9f09 30bd
000001f0: d0c4 bbbc 5403 773e df60 cb3c aa5f 893d
00000200: aaff 46bc 9111 29be f2b8 073e 1364 b3bd
00000210: bd25 aa3c e1b9 6b3d bab2 9f3e 65ca 6abe
00000220: 6173 c13d f4ba 133e 27e8 453e d8e1 bc3e
00000230: a956 14be a025 b13e aa15 c13e a545 473e
00000240: a97c afbd 2c87 163d c661 633e 1852 8e3e
00000250: 927c 86be a8f6 c03d 306f 513e 8a56 52bb
00000260: 19fa 573b 6e9f 373e 0e6a 5dbe 4c9c 95bc
00000270: b0cd b83e f3e7 82bb 82b1 60bd 1f3a 79bd
00000280: 21e5 36be fb1a 833d 565e 473e 3f49 ab3d
00000290: a16a 0bbe 43a1 613e 376e 833e 8bd6 07be
000002a0: 2f0b 253e 1aa0 be3d 5b77 a2be 5219 1d3d
000002b0: b9e1 753e d23a edbc ddb3 02be f3ab 7cbe
000002c0: 83b5 55bd 3c9e 953e 7d2c 38be 62b9 183e
000002d0: efbc 0c3e 19be 05bd f07d 45be 56c4 893e
000002e0: a0c8 ad3e db04 cd3b 4eb3 e8bd 556a 13be
000002f0: 48bd 47bc 1818 bfbe 7e4b 9fbe f98f 05be
00000300: 3859 233e 74fc ad3e 9408 4ebe 3871 623d
00000310: 7042 64bd 13d3 0b3d 4e4c b4bd eeb2 9d3e
00000320: 730a 4f3e c7c1 1dbd 85a3 d2bd 0283 6dbe
00000330: f307 eabc ad12 61be d62f c1be dbf3 94be
00000340: d33a b03e 34b1 c2bd 158b 6f3d 7d67 0dbd
00000350: 6ad8 a33e 9172 8abe 2703 c4be 1297 2a3d
00000360: 7055 a73b da7e 81be 31e4 963e 075b 783c
00000370: 867d 21be e381 853c 72da 723d 3e47 20bd
0.19590938 -0.2303946 0.11309807 -0.26553065 0.072991535 -0.0069761663 -0.12123038 -0.31583843
0.1194238 0.31493828 -0.10673932 0.33392128 -0.21541193 0.11026667 0.33268127 0.16299464
-0.07920031 -0.26323998 0.26201156 -0.26320362 -0.06838979 -0.24816024 -0.042296622 -0.13048136
0.15086569 -0.20752391 -0.0012212433 0.20823285 0.029698238 0.15114738 0.21195272 0.25377098
0.3639879 0.06732076 -0.06332944 0.015024102 0.18573722 -0.26652917 -0.23898408 -0.005591492
0.019991368 -0.35063532 0.30060193 -0.062384047 -0.2351599 -0.22528295 -0.18315649 0.1538326
-0.11251994 0.04705853 0.03229303 0.1592609 -0.20549212 0.30457544 0.14890948 0.06225922
0.07422631 0.41989967 -0.26903442 -0.06079886 0.19758402 0.13772973 -0.009951021 -0.16542588
0.06593099 -0.25178215 -0.25933722 -0.2074908 0.03266581 0.038642846 0.06933633 -0.34187344
-0.34897763 -0.062188465 -0.092819534 -0.12768754 -0.039505202 0.35408306 0.08322903 -0.05527665
-0.18382758 -0.22856523 0.3304962 -0.3131018 -0.17262043 -0.106571004 0.14455965 -0.11006671
0.38717175 -0.08445538 0.10002976 0.21156386 0.001469444 -0.14423376 0.19467565 0.088829525
0.27658555 0.22209567 -0.17072107 -0.026490863 0.2683073 -0.22912134 -0.13496223 -0.069809794
-0.07709061 -0.34485602 0.16527927 -0.27803913 -0.22225572 0.03700418 -0.14272459 -0.1096232
0.18067524 -0.09934048 -0.12599055 -0.06025725 0.41468784 -0.20285937 -0.32763714 -0.05954872
-0.14824374 -0.32737565 0.1574485 -0.042977925 -0.022920996 0.24122363 0.024826465 0.067076996
-0.012145916 -0.16510607 0.13254145 -0.08759322 0.020769948 0.057550315 0.31191045 -0.2292877
0.09445835 0.14426786 0.1932684 0.36891055 -0.14486183 0.34599018 0.3771184 0.19460161
-0.08568699 0.036750004 0.22205266 0.27797008 -0.26266915 0.09422046 0.20452571 -0.0032095038
0.0032955466 0.17931911 -0.21622488 -0.018263005 0.36094427 -0.0039949357 -0.054856785 -0.060846444
-0.17860843 0.064016305 0.1946958 0.0836358 -0.13614894 0.22034173 0.25670025 -0.13265435
0.16117547 0.09307881 -0.31731686 0.038354225 0.24011888 -0.028958712 -0.12763925 -0.24674968
-0.052175056 0.29222286 -0.17985721 0.14914468 0.13743947 -0.032651994 -0.19286323 0.26907605
0.33942127 0.0062566823 -0.11362325 -0.14396031 -0.012191124 -0.3732307 -0.31112283 -0.13043202
0.15952003 0.3398167 -0.2012046 0.055283755 -0.055727422 0.034136843 -0.088036165 0.30800575
0.2021883 -0.03851488 -0.10285095 -0.23194507 -0.028568244 -0.2197978 -0.37731808 -0.29092297
0.3441988 -0.09506455 0.05848225 -0.034522522 0.32001048 -0.27040532 -0.38283655 0.041647978
0.0051066205 -0.25292093 0.2947097 0.015158421 -0.1577054 0.016297286 0.059290357 -0.03913044

encoder_mean.8.bias f4 [14]
00000000: 1378 3135 2b82 80b6 c0f7 70b3 90ea bf35
00000010: 8a5e c434 d28a 8835 1a89 26b6 3abc bbb5
00000020: 789b 82b5 e342 5f35 06eb 77b5 babe 2335
00000030: 5c8f c436 10ad 6d35
6.611237e-07 -3.829851e-06 -5.6104682e-08 1.4298876e-06 3.657663e-07 1.0173192e-06 -2.4815731e-06 -1.3987367e-06
-9.731002e-07 8.3171307e-07 -9.2356674e-07 6.0999776e-07 5.8579444e-06 8.854122e-07

encoder_mean.9.weight f4 [14]
00000000: 9c84 563f ae9d 573f 28c0 6c3f f3c1 703f
00000010: dea6 203f d5ab 5d3f 4206 683f f669 5c3f
00000020: e8b4 3b3f cc56 643f 3aef 563f 8e4f 643f
00000030: 848d 553f 1f9d 693f
0.83796096 0.84224975 0.9248071 0.94045943 0.6275462 0.8659032 0.9063455 0.86099184
0.73322916 0.8919494 0.8395878 0.8918389 0.8341906 0.9125537

encoder_mean.9.bias f4 [14]
00000000: 9e0d 823e 0d59 2e3e 370e aa3d b232 423e
00000010: 1bc8 af3d 091e 133e fecc 0fbd fc60 33bb
00000020: e1ef a63e 8ce6 f73d e911 aabb 1f00 08be
00000030: a975 94bd 1e48 f63d
0.25401014 0.17026158 0.083034925 0.18964651 0.08583089 0.14366926 -0.035107605 -0.002737104
0.32604888 0.1210452 -0.0051901233 -0.13281296 -0.072490044 0.12025474

encoder_mean.9.running_mean f4 [14]
00000000: 61b7 873e cc7c de3c c0be 32be db5c 7f3e
00000010: 123a b2be fda2 d03d 80e1 86be d3c3 65bd
00000020: 90c5 1b3f 517b 3e3e a914 6b3c 50e4 56be
00000030: 1e63 78be fa57 873d
0.26507095 0.027159117 -0.17455578 0.24937765 -0.3480993 0.101873375 -0.26343918 -0.056094956
0.6084833 0.18601729 0.0143481875 -0.20985532 -0.2425656 0.06608577

encoder_mean.9.running_var f4 [14]
00000000: 6aee 173f 81a1 0e3f ac22 4e3f 62ec 3c3f
00000010: fd08 a13e f5f5 ff3e b4c0 3b3f 1302 293f
00000020: 17ac 3d3f 31e2 123f d2b1 153f da9e f83e
00000030: 29a6 1b3f 28d8 3e3f
0.59348166 0.55715185 0.80521655 0.7379819 0.3145217 0.49992338 0.73340917 0.6601879
0.74090713 0.5737639 0.5847446 0.48558694 0.60800415 0.7454858

encoder_mean.12.weight f4 [12, 14]
00000000: b5cb 653e c3cf 983e c762 0bbd 87ca 0f3d
00000010: b5ae 84be 2d78 b83e 8dec d7bd 1769 9abd
00000020: 5f8c 813e 24cb 34bd a994 8fbd 6f0f 9ebe
00000030: a785 afbe 875f f03d 8892 023e cfe8 73be
00000040: a85f 7f3e 9e18 a6be 6c9d dabd 25bd bd3c
00000050: 912a 803e a86e 143e e65a 4f3d 4e55 27be
00000060: 08e5 0cbe f355 5bbd 0ae4 dc3b cb10 f53e
00000070: 49fe f63d d133 84bd 7a22 73be 3e0b 1d3e
00000080: 1260 f23c 7e58 d63d 7499 91be 95e9 a4be
00000090: dd7b c3bc 1f4a b73e 4afc a53e 5973 ae3d
000000a0: aba5 a1bd 753e c4be 1706 4a3d b519 58be
000000b0: 684c b3be 44dc 553e a029 85bc 85db 03be
000000c0: f09b 9ebe f820 8cbe 5f84 3d3e a20f d73d
000000d0: 1743 bc3e 4a50 e1bd e8da 543c c335 51be
000000e0: 77fe 513e 791e f6bd 6a21 93be 06a4 8b3e
000000f0: cc9b 9c3b d539 e1bd 59dd a8be 26fe 75be
00000100: 1082 5f3e b170 3e3e 981c 7a3e a1b3 a3bd
00000110: 5d75 8d3c 4a10 9bbe 0b74 28be 5fc6 76be
00000120: 246a 70bd 0d38 2dbd 05d9 b3be 6a4a 6cbe
00000130: 0f16 553e adf4 b8bd 63d4 89be f80e a33d
00000140: a8b1 a0bd aca5 043f 7cc7 a43e ff08 4dbd
00000150: 4712 ac3e c358 713e 44d3 b33d 5dad 8cbe
00000160: 6aca 34bc 6b42 973c 4254 123e 8c23 4f3e
00000170: 456e 373e 5775 48be fb67 47be 308a 07be
00000180: 21c8 2ebe f0bb f4bc 60f9 e5be 6516 3cbe
00000190: 4db8 c3bd 8d60 bb3d b903 86be ac88 debd
000001a0: 0f42 bdbd 9821 6ebe 1dd2 16be abb1 473e
000001b0: da3f 883e 95f1 f73d a471 fc3d 8046 dfbd
000001c0: b379 963d 0d45 ff3d 65e0 f03e e752 72be
000001d0: c1cc e23d 4ac8 e8bd c6a5 8d3e b9b2 d53e
000001e0: 97c5 52bd 9132 f6bd 4e83 aebd 3101 733d
000001f0: 224b 2ebd 8e87 833e fa79 a7be 93bd a8be
00000200: bd35 f63d 945e f23d 5df1 64be 24e9 f7bc
00000210: f1ee 8b3b 2acb 0bbd 5d66 93be 6369 d6bd
00000220: 9d42 babc 5c9c c43e ee74 f93e 6035 7bbc
00000230: 3cb3 763e 5152 9b3e ba8f 843d b659 63bd
00000240: 6053 e4bd d793 b73e 533d 76bd f40c d8bd
00000250: 6270 993e 8a7b 053d 10b0 95bb c008 48be
00000260: e4d3 c1be dabc 23bd e533 b6bd 6a95 c03c
00000270: 9810 a4be ee7e ba3e 9f8a 7cbe c433 053e
00000280: 38d2 96be 1869 3bbe 4882 b3bd a711 9a3e
00000290: c1fd e83d c507 41bd b711 bb3d 7304 87be
0.2244099 0.2984601 -0.03402975 0.035105255 -0.2591454 0.36029187 -0.10543165 -0.075395755
0.25302407 -0.044139042 -0.070107765 -0.3087115 -0.34281656 0.117369704 0.1275121 -0.23819278
0.24938834 -0.32440656 -0.10674557 0.02316148 0.25032476 0.14495337 0.050623797 -0.16341135
-0.13759243 -0.053548764 0.0067410516 0.47864375 0.1206022 -0.06455196 -0.2374362 0.1533632
0.029586826 0.10466097 -0.28437388 -0.3220946 -0.023862774 0.35798737 0.32419044 0.085180946
-0.07892927 -0.383289 0.049322214 -0.21103556 -0.3501923 0.20884806 -0.0162552 -0.12876709
-0.30978346 -0.27368903 0.18507527 0.105010286 0.36769935 -0.11001642 0.012991644 -0.20430665
0.20507227 -0.12017531 -0.2873643 0.27273577 0.0047793146 -0.10997359 -0.32981375 -0.24022731
0.21826959 0.18597676 0.2442497 -0.07993246 0.017267877 -0.30285865 -0.16450517 -0.2409911
-0.058694974 -0.042289782 -0.3512651 -0.23075262 0.20809196 -0.09031043 -0.2691985 0.079618394
-0.07846385 0.51815295 0.32183444 -0.050057407 0.33607695 0.23569016 0.0878053 -0.27476016
-0.011034587 0.018464288 0.14289954 0.20228404 0.17913158 -0.19576012 -0.19473259 -0.13236308
-0.1706853 -0.029874772 -0.4491682 -0.18367918 -0.09556637 0.09149275 -0.26174715 -0.10865912
-0.09241115 -0.23255002 -0.1472859 0.19501369 0.26611215 0.12106625 0.12326363 -0.10902119
0.07347431 0.12464342 0.470462 -0.23664437 0.1107421 -0.11366327 0.27665538 0.41737917
-0.051457968 -0.120213635 -0.08521138 0.059327308 -0.04255212 0.25689358 -0.32710248 -0.32957134
0.120219685 0.118344456 -0.22357698 -0.030262537 0.0042704274 -0.0341293 -0.28789034 -0.1046932
-0.022736842 0.38400543 0.48722023 -0.01533255 0.2409181 0.3033624 0.06472726 -0.055505477
-0.11148715 0.3585498 -0.060117077 -0.105493456 0.29968554 0.03258852 -0.0045681074 -0.19534588
-0.37856972 -0.039975025 -0.08896617 0.023508746 -0.3204391 0.36424965 -0.24662255 0.13008028
-0.2945726 -0.18301809 -0.087650836 0.30091593 0.11376525 -0.04712655 0.09134238 -0.26370582

encoder_mean.12.bias f4 [12]
00000000: 049a 23b4 6dd1 54b5 c0e5 13b5 bced 84b5
00000010: dbde 9935 bf7b d6b5 8ada 1c35 d9cc f4b4
00000020: 020e 8fb4 7a70 ceb3 02fb d5b4 4942 8e36
-1.5236589e-07 -7.928091e-07 -5.50961e-07 -9.903956e-07 1.1464248e-06 -1.5980257e-06 5.8432545e-07 -4.5597588e-07
-2.6646018e-07 -9.613082e-08 -3.9856974e-07 4.2396464e-06

encoder_mean.13.weight f4 [12]
00000000: 725a 823f dfe2 7e3f 783c 7f3f 3272 843f
00000010: eab8 753f fa61 853f fef2 4d3f 1be6 6c3f
00000020: 70a0 7c3f c39b 833f 8389 713f 1501 753f
1.0183852 0.9956493 0.99701643 1.034735 0.9598528 1.0420525 0.804489 0.92538613
0.9868231 1.028191 0.9435045 0.95704776

encoder_mean.13.bias f4 [12]
00000000: 6561 963e b90c 4d3e ed69 733e f7ae 003e
00000010: 3760 3d3e e033 de3d 0f27 333e 0467 87bb
00000020: 7106 503e 0473 803d c2b0 b53e 778a 5d3e
0.2937118 0.20024385 0.23770876 0.12566744 0.18493734 0.10849738 0.17495368 -0.0041321535
0.20314957 0.062719375 0.35486418 0.21634851

encoder_mean.13.running_mean f4 [12]
00000000: 41c8 213e 3039 e33d b093 37bd 5935 4dbe
00000010: 2344 35bd 448b 83be b0c4 013e d4b0 b6be
00000020: d183 cb3e bd41 45be 06df 803e 65b1 1dbe
0.15799047 0.11094892 -0.04481858 -0.20039882 -0.044254433 -0.2569219 0.12672687 -0.35681784
0.39749005 -0.19263358 0.25170153 -0.15399702

encoder_mean.13.running_var f4 [12]
00000000: e45e 573f 8e05 423f a89b 883f ea77 4e3f
00000010: bacf 653f bf74 4f3f 3c4a 1d3f 0349 323f
00000020: a1ae 763f b5ad 583f d106 523f 1236 713f
0.84129167 0.75789726 1.0672503 0.80651724 0.8977009 0.81037515 0.614414 0.6964266
0.9636021 0.84640056 0.8204165 0.9422313

encoder_mean.16.weight f4 [10, 12]
00000000: 531f b03d bc08 813d 3c44 96bd 0cec 21be
00000010: fbe1 b5bd b5b8 4abb fb82 0ebe 6957 2f3d
00000020: 05e8 d5bc c89d 61bd 6ec3 cabc 9aae 5e3e
00000030: 37d3 8abe a5ff ba3e 9bca 8dbe f71c ac3d
00000040: 6303 19be f8e3 5dbe 88d0 4f3e d258 a5be
00000050: 78fe 5b3e 1653 7dbe c916 bfbc ba02 b1be
00000060: 3bf1 b53d f98d b13d 507b a53d 583f 36be
00000070: 7768 6dbd 947e bfb8 8f36 97be b249 f43d
00000080: f1f7 fe3c e836 a1bc c44a f03d 4a27 c63c
00000090: f298 b4be 6c8e 45be a98b 67bd ce7b 873e
000000a0: a9c1 863e 6cc8 db3e c9c0 90be ec85 933e
000000b0: 2a85 1ebe b826 993e 16db edbe b373 13bd
000000c0: a7ee 17bd 8a29 de3d 6316 dabc 2e4b 2f3d
000000d0: 486f 8fbc 3a86 8fbc 2f67 543c 70a7 b13b
000000e0: ae1e 7fbd dd23 9dbd bcc1 f0bc 5480 3c3d
000000f0: dc2d 103f c8bb 4cbe c8a2 1a3e 3e4f 313e
00000100: f789 a73e 24f5 13bf 35ff 813e b796 24be
00000110: b70c 3ebe bdce 30bf 4ef9 f13e d764 a9bc
00000120: 19dd bbbd ba4a 9dbd d9f4 1abe 1911 8a3d
00000130: b574 dabc 3a33 f93c d4ce fbbb be61 1e3e
00000140: d855 a83d f0bf d8bd ba62 cd3d fa83 da3b
00000150: c667 9c3e 6381 ba3e 85c9 e9be 6bde d7be
00000160: 2e25 83be a513 d73d 8af4 403e a601 34be
00000170: 8130 a53e 7f33 67bd a9d5 813d 9de7 c3bd
00000180: 9e73 023d 6ee2 853d 6670 2e3c 56cb d3bc
00000190: a59c dc3d 1b4e ab3d 5bfa 0dbe 5699 033e
000001a0: 1bd7 8e3c 6422 04be 4215 0b3d cc0c 14be
000001b0: e44b c23a 88f0 bd3e 4e1a 98be 92d6 01bf
000001c0: f287 ccbe 05c6 093e e8a0 c23d d013 63be
000001d0: 8c0f d03e 182e 343e 4b19 c7bd 783f f3be
0.085997246 0.06300494 -0.073372334 -0.15812701 -0.08880993 -0.0030932848 -0.13917153 0.04280797
-0.026111612 -0.055082113 -0.024751391 0.21746293 -0.2711427 0.36523166 -0.27693638 0.08403962
-0.14942698 -0.21668994 0.20294392 -0.32294327 0.21483791 -0.24738726 -0.023326294 -0.34572393
0.08883902 0.08669657 0.080801606 -0.17797601 -0.057960954 -9.131167e-05 -0.29533812 0.11928119
0.031124087 -0.019679502 0.117330104 0.024188656 -0.35272938 -0.19292611 -0.056529675 0.26461643
0.26319626 0.42926347 -0.28272083 0.28813112 -0.15480486 0.29912353 -0.46456212 -0.03599901
-0.03709283 0.10847767 -0.026622003 0.042796306 -0.017509118 -0.017520059 0.012964054 0.0054215714
-0.062285118 -0.07672856 -0.029389255 0.04602082 0.56319976 -0.19993508 0.15101159 0.17315385
0.32722446 -0.5779593 0.2539002 -0.16073118 -0.18559538 -0.6906546 0.47260517 -0.020677967
-0.091730304 -0.076802686 -0.15132464 0.06741542 -0.026666978 0.030419935 -0.007684568 0.15466973
0.082194984 -0.10583484 0.10028596 0.006668565 0.30547923 0.3642684 -0.4566156 -0.4216188
-0.25614303 0.10501794 0.18843284 -0.17578754 0.32263568 -0.056445595 0.063395806 -0.09565661
0.031848542 0.06537329 0.010646915 -0.025853794 0.10772065 0.08364507 -0.13865034 0.12851462
0.017436555 -0.12903744 0.03395582 -0.14458007 0.0014823643 0.37097573 -0.2970757 -0.50718033
-0.39947468 0.13454445 0.09503347 -0.22175527 0.4063686 0.17595708 -0.09721621 -0.4750936

encoder_mean.16.bias f4 [10]
00000000: b5a9 643d 6b43 da3e 52c1 e6bc c54e 8a3d
00000010: 066f f13c 6231 0ebe 1c6d c93c f9a0 253d
00000020: 630f ecbc 026a b33e
0.055825908 0.4262956 -0.028168354 0.06753305 0.029471885 -0.13886026 0.02458816 0.04043672
-0.02881593 0.35041815

encoder_var.0.weight f4 [20, 3]
00000000: cefa 91bd afaf fc3d b9c9 85bd 470c 00bd
00000010: e34a 30be b5ec 523b 04de 9fbd 2b11 293d
00000020: db04 23bd 1f50 c1bd 5d94 843c 0be4 063e
00000030: c31c 993c ef0c 723d 7477 853d f40e 843d
00000040: 0028 783d 556b a5bb 2197 95bd 6482 3d3d
00000050: 7906 29bc 4689 12bd 910d 2ebc d1ab acbc
00000060: 1c27 98bd c08a 37bb b07d d9bc ef1f a7bd
00000070: c051 2c3d b004 09be 11b3 46bd 0301 803b
00000080: e797 4cbc 7c48 1dbd 9763 96bb 9cb4 80bd
00000090: dbb4 883d 48f2 5ebd c0fe a0bc 7de8 6b3d
000000a0: bbd4 693d a6dd 0b3d 48ac aa39 bd8c f33d
000000b0: c508 913d 393a 05bc b73a 9dbd b3e6 4bbc
000000c0: 0d75 2cbd 2fe8 ac3d 61dc 7a3d a7dd 833d
000000d0: 68b8 8dbd 0017 5fbd 4261 4a3d c87d 823d
000000e0: 7bb7 613d b6f6 5abd cf34 7cbc e2c8 93bc
-0.07127915 0.123381965 -0.06532616 -0.03126171 -0.17216067 0.0032184545 -0.07806018 0.04127614
-0.039799552 -0.0943911 0.016184026 0.13172929 0.018690472 0.059094366 0.065169245 0.064481646
0.060585022 -0.0050481954 -0.07304216 0.04626693 -0.010316485 -0.035775445 -0.010623352 -0.021078022
-0.074293345 -0.0028006285 -0.02654919 -0.08160388 0.04207015 -0.13380694 -0.048510615 0.0039063706
-0.012487388 -0.038399205 -0.0045895088 -0.062844485 0.066751204 -0.054430276 -0.019652724 0.057594765
0.05708764 0.034146927 0.00032553286 0.11892078 0.07081751 -0.008131557 -0.076772146 -0.01244514
-0.042103816 0.08442723 0.061245326 0.06438761 -0.06919938 -0.054465294 0.04940916 0.06371647
0.05510662 -0.053457938 -0.01539345 -0.018040124

encoder_var.0.bias f4 [20]
00000000: c143 3833 7c9e c2b3 e344 25b5 481b 4db4
00000010: 35bc 3ab5 e2e2 3b34 413b bdb4 5649 1eb4
00000020: dc28 b7b3 80fe 97b3 72ce 6f32 e8ab 7733
00000030: e4b3 0a35 2234 3eb4 119d ce33 53c3 dcb4
00000040: 0f95 49b4 ea57 4634 415a 0034 924f 5c35
4.290246e-08 -9.062657e-08 -6.1567533e-07 -1.9102038e-07 -6.9564277e-07 1.7498272e-07 -3.5247106e-07 -1.4741576e-07
-8.529034e-08 -7.077779e-08 1.3958571e-08 5.7665517e-08 5.167078e-07 -1.7714095e-07 9.621193e-08 -4.112031e-07
-1.8773811e-07 1.847217e-07 1.1953763e-07 8.2072177e-07

encoder_var.1.weight f4 [20]
00000000: fc4d ae3d 4e33 1e3e e056 f53d b027 6a3d
00000010: 4a7e 8b3d 60ee 9e3d d478 9c3d f0c3 4c3d
00000020: 3c65 e03d c6e1 c53d 706d 8b3b 11f4 c53b
00000030: fd58 923d 3486 9c3d 3371 db3d 1955 5c3d
00000040: 6625 d63d 737c f43d 3b0f b23c adf3 d03d
0.08510968 0.15449259 0.11979461 0.057166755 0.06811197 0.0776031 0.07640234 0.049991548
0.10956809 0.096622035 0.0042549893 0.006041058 0.071458794 0.07642785 0.107149504 0.053792093
0.10456352 0.11937799 0.021735778 0.102027275

encoder_var.1.bias f4 [20]
00000000: 673d 89bd 59de 87bd 435c 94bc e2ae babb
00000010: 2412 70bc 84d9 dd3a 8cee 27bd 88b8 b6bb
00000020: 57df eabc ec45 19bd 3e27 95bd 6082 4abd
00000030: c2b6 98bd 06c3 2fbb 9883 0bbd 06f8 febc
00000040: 6803 02bc a1a3 8ebd c2bf 81bd ce6c 133b
-0.06701165 -0.06634206 -0.0181104 -0.005697117 -0.014652763 0.0016925787 -0.04099898 -0.005576197
-0.02867095 -0.0374202 -0.072828755 -0.04944074 -0.07456733 -0.0026819124 -0.034061044 -0.031124126
-0.007935382 -0.069648035 -0.06335403 0.0022495273

encoder_var.1.running_mean f4 [20]
00000000: a36b 8d3c 0279 bfbd 2eac b3bb 4102 b63c
00000010: ca4b 593d 18fd 6e3d 7162 45bc 6245 0ebd
00000020: 4240 17bd a66c 98bd 78c1 e7bc 4044 54bd
00000030: ced9 a0bc 3b88 373d f4ca 8e3d d705 32bd
00000040: 2807 133d 3550 07bd e3ae 9f3d df46 f0bc
0.01726324 -0.09349252 -0.005483172 0.022217872 0.053050794 0.058346838 -0.012047396 -0.034734137
-0.036926515 -0.07442598 -0.028290495 -0.0518229 -0.019635107 0.044807654 0.06972304 -0.0434626
0.035895497 -0.033035476 0.07797029 -0.029330669

encoder_var.1.running_var f4 [20]
00000000: 20bf 1a3a 960c 5a3a a30c 8b39 4cde eb39
00000010: ee43 bb39 4036 4739 bb95 8d39 4fdf cb38
00000020: 3480 5339 6789 4e3a 5ab1 d638 f672 8839
00000030: b2d2 9139 ed83 2c39 02b0 443a 3a00 5b39
00000040: 20c0 eb39 f015 f739 2ab7 f439 2070 c738
0.00059031136 0.00083179155 0.0002652156 0.00044988317 0.0003571803 0.00018998329 0.00027005174 9.721389e-05
0.00020170287 0.0007878751 0.000102373495 0.00026025594 0.00027813535 0.00016452344 0.0007503034 0.00020885552
0.00044965837 0.00047127856 0.00046675775 9.509944e-05

encoder_var.4.weight f4 [16, 20]
00000000: fd54 ebbb f454 d2bb 57cc 37bc 9686 f0bb
00000010: e7c2 0ebb a399 bdbc 2c8d 3dba 8e4f b83b
00000020: 3ede 84bb 427d 34bb d3b8 21bb 391c d03b
00000030: 090e 8e3c 657b c5bb e914 66bc 9d0f 853c
00000040: b69f 9abb 4cad 0e3d 0ce4 c43c dd8e 823b
00000050: 468d cc3c e7a2 1c3d c06f 163d c0c7 3d3b
00000060: 8d52 3e3b 5b1d 323c d0ce 083d 6092 51b8
00000070: 1062 dd3c dcc3 413d af7c 61bb 83cd a0ba
00000080: 0687 d03c 2dd8 b6bb a394 0d3c 24dd be3c
00000090: bb63 443c 59fc 473d 0e9d 93bc 33a8 233d
000000a0: c7ad af3c c532 f53c 4b86 8f3c 33e4 4d3d
000000b0: 1760 283d 4765 693c dd29 263c a1fc ee3c
000000c0: 2ab5 bd3c 986a 223d 0c08 253d c5c5 4cba
000000d0: a127 bc3c a5ef eb3c 8ad6 7b3d 23bd ca3c
000000e0: 8148 6a3d d044 8139 b071 163c fe2e 103d
000000f0: 087a 173d 33b5 f1bc 9180 a5ba 162f 4abd
00000100: 1b41 a0bd 3df8 80bc 09b4 e83c f9f5 b9bc
00000110: da5c d73c f820 eebd 696b 3cbc e235 11bd
00000120: 7882 5cbc 3214 163d ebe9 96bc 1fd1 333d
00000130: 440c 73bd e858 a43d a491 18bc d640 85bc
00000140: 1adb 533c b316 c03b 047c 993c c930 febb
00000150: 52ea 9dba 7f5f 16ba 1f65 943c 46ca 8c3b
00000160: 1ffe 9f3c ee1b e13c 912c 913a d5ff 9b3b
00000170: a3c2 deb9 aa78 ddba 0f4d e6bb 1a4a 2c3a
00000180: a2a5 323b 089c 07bc d25b 2ebb 78c4 af3c
00000190: bfe1 b83c f0be cf3b 1799 fe3c 7ed6 3d3d
000001a0: f2b8 8b3b c437 073d a7a4 0d3d bd18 0c3c
000001b0: 09b0 083d 3a01 303d cdf2 1d3c c17f a33c
000001c0: 5abc 303c 7caf aa3c c899 333d ee04 223d
000001d0: 83fc 153d 1c69 2b3d 19a4 c7bc 7f39 1f3d
000001e0: e6e5 e9bb 6719 d13b a8f9 483c cfe0 2eba
000001f0: 862b 89bb 50bb 8d3b 014f 2ebc ab55 9e3c
00000200: 9766 48bb dc2b 1abb 5c9b 8cbc 5dfc 9d3a
00000210: c1a4 84ba 4c27 a73b 8dff 2dbc 3c13 8c3b
00000220: 4adb 8bbb 8d34 263c c715 033c c158 90bc
00000230: f3bd 313c c171 29bb f13d 2ebc 7f79 1d3d
00000240: 7dbd 8a3c 5590 3e3c e370 883a ff46 133b
00000250: a40f ef3b a555 913c 3f9f 663c 829c 4abc
00000260: 6df3 8bbb 2ef5 8e3c 543c e43c ef8b bfbb
00000270: e5d1 263d c305 6abc 77ec 363c f842 96bc
00000280: cb92 823d f29e 813d 88c9 a73c 1070 f63c
00000290: 7a9a 933c 83b1 8b3c b047 613c fb05 583c
000002a0: 968f b53c b725 963c 5240 20bb 555a ae3b
000002b0: e2ec a3bc b761 b63c 34ad 873d dcbc 713c
000002c0: 3010 1f3d ec33 c2bc 16af 943c 6b93 0bbc
000002d0: 6cd6 213d 39db cb3d a37a 8e3d b9a1 75bc
000002e0: 214d 123d d0e1 33bb a21c 093c 93db 7a3c
000002f0: d7d3 e73c be16 473d 41ca 5f3c 006e db3a
00000300: 4609 b53c b17e 7c3c 836e 613d 031e 923c
00000310: f259 203d 17e2 043c 3ddf d9bc b4ce be3c
00000320: 3add 123d bbea e23d 4615 debd 4b75 3abb
00000330: f0d6 423b 61e2 473c c15f 7dbd a6b6 ae3a
00000340: 9863 cdbc b200 a83b 5380 813c af52 a7bc
00000350: 0f83 4d3d c759 a33c 1a28 233d b53a d03c
00000360: fe06 843c d0c6 2d3d 0bc3 c4bc 6b5e d7bd
00000370: d1c9 4e3d 9b83 683d a852 7f3d 7a8d 8abc
00000380: 2ccf fa3c 8095 0f3d 1f2e 843c 08d8 763c
00000390: 4e1d 423d cf25 1a3d c07e 543a 06a4 dfbc
000003a0: 1560 1a3d 8d8b cb3c 1433 103d c96d ae3c
000003b0: b569 ea3c 9c06 123d cc22 943c 1bce 593d
000003c0: c75c aabb 0fd4 693d 8f9d 2b3b 53ee 07bc
000003d0: 88ae 50bc fb10 13ba 4943 22bc 80ef 053c
000003e0: beac d0ba 90cf c93b 4c3d c23b af26 2cbb
000003f0: d08e ab3b 7e91 133b 184e 95bb 602e 8b3a
-0.0071817623 -0.0064188186 -0.011218152 -0.0073402626 -0.0021783651 -0.023144549 -0.0007230814 0.005624718
-0.0040548136 -0.002754048 -0.0024676814 0.0063510207 0.017340677 -0.0060266727 -0.014043071 0.016242797
-0.004718746 0.034833238 0.024034522 0.003984316 0.024969708 0.038241293 0.036727667 0.0028958172
0.0029040903 0.010871257 0.033400357 -4.9965805e-05 0.027024299 0.047305927 -0.0034406593 -0.0012268279
0.02545501 -0.0055799694 0.008641395 0.023298807 0.011986668 0.04882464 -0.018019225 0.03995533
0.021445168 0.029931435 0.01752009 0.050266456 0.041107263 0.014245338 0.010141817 0.029173197
0.023157675 0.039652437 0.040290877 -0.00078114524 0.022968115 0.028800795 0.061483897 0.02474839
0.05719805 0.00024656067 0.009182379 0.035201065 0.036981612 -0.029505348 -0.0012626817 -0.04936131
-0.07824918 -0.01574337 0.02840616 -0.022700297 0.026289392 -0.11627382 -0.011500218 -0.035451777
-0.013458841 0.036640354 -0.018422088 0.043900605 -0.05933787 0.0802477 -0.009312067 -0.016266268
0.012930656 0.005862081 0.018735893 -0.0077572805 -0.0012047982 -0.0005736276 0.018114625 0.004296574
0.019530354 0.027479138 0.0011075904 0.004760722 -0.00042488155 -0.0016896923 -0.007028229 0.0006572321
0.002725937 -0.008276947 -0.0026605022 0.021455988 0.022568582 0.0063399 0.031078858 0.046347134
0.0042639906 0.033012167 0.034580853 0.00855082 0.033371005 0.04296992 0.009640408 0.019958379
0.010787094 0.02083563 0.04384783 0.039555483 0.036617767 0.041848287 -0.02437024 0.038873192
-0.0071380017 0.006381202 0.012266554 -0.00066710723 -0.0041860966 0.004325308 -0.010638953 0.019327959
-0.0030578726 -0.0023524677 -0.017163925 0.001205336 -0.0010119901 0.00510112 -0.01062001 0.004274754
-0.0042680847 0.010144365 0.008000798 -0.017620446 0.01084851 -0.0025855156 -0.010634885 0.038445946
0.016936058 0.011631091 0.001040962 0.0022472737 0.0072955657 0.017741034 0.014076053 -0.012366416
-0.004270962 0.017450895 0.027860798 -0.005845539 0.040727515 -0.0142836 0.011164776 -0.01834248
0.06375655 0.063291445 0.02048184 0.030082732 0.018017996 0.017052418 0.013750002 0.01318502
0.022163194 0.01832853 -0.00244524 0.005320827 -0.020010415 0.022263391 0.06624833 0.0147545
0.038833797 -0.023706399 0.018149894 -0.008519034 0.03951113 0.09953923 0.06956985 -0.014992171
0.035718087 -0.0027447827 0.008368643 0.01531114 0.028299255 0.048605673 0.013659061 0.0016741157
0.022099148 0.015411065 0.055037033 0.017836576 0.03914828 0.008110545 -0.026595706 0.023291923
0.03585551 0.110799275 -0.10843901 -0.002845126 0.0029730164 0.012199969 -0.061858896 0.001332958
-0.025071904 0.005127036 0.01580826 -0.020425169 0.050173815 0.01994027 0.039833166 0.025418619
0.016116615 0.04242593 -0.024018785 -0.10516056 0.050485436 0.056766134 0.062334687 -0.016913164
0.030616365 0.035054684 0.016135274 0.015066154 0.04739123 0.037633713 0.00081060454 -0.027299892
0.037689287 0.024846816 0.035204962 0.021292584 0.028614858 0.035650834 0.018082999 0.053175073
-0.005199048 0.057087 0.0026186442 -0.008296567 -0.012736924 -0.0005610135 -0.009903737 0.008174777
-0.0015920622 0.0061587766 0.0059277173 -0.0026268174 0.0052355304 0.002251714 -0.0045564286 0.0010618679

encoder_var.4.bias f4 [16]
00000000: 186c 14b3 5ba6 ec32 ba43 0436 ed3a a3b2
00000010: 668e 52b4 6662 16b5 9ef6 1f33 341c bc32
00000020: a7e7 efb3 524d b433 c854 7234 9b1d 6b35
00000030: 87f7 03b4 4644 09b4 39f0 7834 ef26 fbb4
-3.4557246e-08 2.7549666e-08 1.9708955e-06 -1.9002494e-08 -1.9609578e-07 -5.6022543e-07 3.724437e-08 2.1898906e-08
-1.1171442e-07 8.395968e-08 2.256885e-07 8.7587404e-07 -1.2290376e-07 -1.2783957e-07 2.3184192e-07 -4.678072e-07

encoder_var.5.weight f4 [16]
00000000: 2610 ad3c 0790 6b3d 83a8 af3d 42fd 4e3c
00000010: 3d09 323d fedd 673d 5d4f 923a a15d 4f3d
00000020: 1539 953c ed9f 433c 4750 953d 8a8b 9d3d
00000030: af8e 4d3d 2200 663d 3b94 f33d 0e03 953d
0.021125864 0.057510402 0.08577063 0.012633624 0.04346584 0.056608193 0.0011162568 0.0506264
0.018215695 0.011939985 0.07290702 0.076926306 0.0501849 0.05615247 0.11893507 0.07275973

encoder_var.5.bias f4 [16]
00000000: 6ba4 bcbc bb43 633b 9282 863d d85e 86bc
00000010: 7020 76bc 520e b23d c8e3 5fbc 884e cabb
00000020: a110 1b3c 07a8 b83c 4858 3ebd f248 933d
00000030: 46c7 d4bc 82fe 523d 54d1 b93c b300 87bd
-0.02302762 0.0034677822 0.06567873 -0.016402647 -0.015022382 0.08694138 -0.013665147 -0.0061739124
0.009464414 0.02254106 -0.04647091 0.071916476 -0.025973927 0.05151225 0.022682823 -0.0659193

encoder_var.5.running_mean f4 [16]
00000000: fc81 17ba f087 133c c6a8 413c 0a72 48bb
00000010: 7226 193b 7fd4 3b3c 3fd1 8237 ee65 3a3b
00000020: 252a 1d3c 14ea 4c3c a1a4 193b 626c 5f3c
00000030: dc82 7f3b e994 213c a0c9 403c 6c7a e53a
-0.0005779562 0.009004578 0.011820024 -0.003058555 0.0023368862 0.011464237 1.5594645e-05 0.0028442102
0.009592568 0.01250698 0.0023444074 0.01363668 0.003898791 0.009862163 0.011766821 0.0017507798

encoder_var.5.running_var f4 [16]
00000000: ea9b ce37 3e30 9738 7dd3 f038 d760 a338
00000010: dc1e 7737 a8a0 c438 ca8c 7036 7089 5c38
00000020: 9f67 ee38 25a4 0b39 c8c8 a939 8ec6 0739
00000030: 874e 2d38 310f d038 fb2a 5339 86a2 8738
2.4629717e-05 7.209227e-05 0.000114834846 7.7904835e-05 1.4729532e-05 9.375933e-05 3.5844737e-06 5.2580086e-05
0.00011368025 0.00013317222 0.00032383786 0.0001294857 4.131955e-05 9.9210425e-05 0.0002013854 6.467574e-05

encoder_var.8.weight f4 [14, 16]
00000000: 8a5a 9fbc 6215 613c 5543 df3c 3c0c 07bc
00000010: d661 6c3c 3c44 ac3c 7dad c0bb 2325 c33c
00000020: 8c76 3b3c 9408 593c e476 d23c da7d ec3c
00000030: 266d ac3c ae43 8f3c fdf4 3b3d d3bf 89bc
00000040: 062e 14bc 9924 3dbb b072 b43b a70f d2bb
00000050: ce1e 98b9 782d 4fbb 7f48 7eba 9de8 42bb
00000060: 56c5 0fbb eb06 273a 94c0 903b 157e 78bb
00000070: d9b0 1ebb a4ad 133b c08c 27bc 0c31 edbb
00000080: b026 223c f392 743c a193 ac3c ff34 cfbb
00000090: bccb 043c 91aa e23c 05b4 8c3a 7fb1 af3c
000000a0: 0e0b c4bb 668f a03b 1b17 1e3d cd51 653d
000000b0: cbd3 013d d4c2 9d3c fa78 7d3d 508e 653d
000000c0: d5d4 93bc c329 08bb d1c7 63bd ec16 8abc
000000d0: 1839 ffba 4712 babc 91b2 51bb a3d6 1dbb
000000e0: 7ca3 1ebc b836 f9bb f2d0 03ba 1b58 17bd
000000f0: b46d a63b c82f 37bb d1cf e4bb accf f9bc
00000100: 4e82 0f3b 7f26 8e3c 07a7 893c 6ae6 19bc
00000110: 4c94 103c 246f 983c e974 2f3b 6fca ea3b
00000120: fd67 2abb 20b8 783c cdb3 e83c 5764 533d
00000130: eee3 b53c bb2a c23c d577 d03c 9439 0e3d
00000140: 9e74 41bc a8e8 9f3c 85d3 2dbc 73f7 3cbc
00000150: 78b0 853c 6a6f deba e912 7dbb cef7 253c
00000160: dc16 173c 1ac8 4e3b 8ccb d7bc 9a4e 8c3c
00000170: 8cd2 59ba a142 c23c 560f 283d a750 cdbc
00000180: 00fa 97b5 46ce 1a3c 607a 1a3d 59f8 1abc
00000190: 2bc9 263c 9b74 da3c 51b7 07bb 0987 4e3c
000001a0: 54f8 123c 1465 4e3d 973d 3c3d 0938 9e3d
000001b0: 3cfe 363d 11fd 323d afb7 7e3d c623 113d
000001c0: 2981 9d3c 3d71 453d 86fc 0c3c d826 88ba
000001d0: 94df d63c 73e3 883d a2fa 54bb f7a9 833c
000001e0: 41c0 4b3c b28b cdbc 09a5 983c 183a ed3b
000001f0: 64c8 64bb 5757 293d a0de ba3d 1c4d 9e3c
00000200: e0f1 1c3c a0e2 1f3c 5907 e8bc 95cd 043c
00000210: 36ba 953b e14a 033c b7b8 d53a 5dc6 dcbc
00000220: 4717 10bb 7f5e d8bc 2016 5dbd 46b4 023c
00000230: a788 77bc d4ac 6dbc 3bfc 4f3d 654e 473c
00000240: 3e79 3cbb 963f c23b f1c7 24bd 5b0f 2abc
00000250: 3da9 84bc 4692 19bd 79bd fd3a e489 c83b
00000260: bd7e 053b 7345 e3ba 72b3 6d3b 6463 2dbd
00000270: b1da 2a3c 20d0 f338 072a 5abc c85e 64bd
00000280: 7f2c e93c f829 18bc 73a2 e43c a892 05bc
00000290: 2f39 18bc 7191 99bc 92be 373b 658a 353c
000002a0: fe11 d33a 083d f53b 4931 1b3d 2d0b de3c
000002b0: 4e0e 4d3c eeed d2bc 4362 02bc df00 f93c
000002c0: 4081 cfbc d230 a2bc 8898 a1bd 7284 62bb
000002d0: 515f dfbb b321 d5bc b5cf 54ba 2a34 a7bc
000002e0: 5ccf cabc ca4d aabc 1519 13bd cd2e f4bb
000002f0: 294b 673b b922 eabc 95cc 0d3c ffdc dcbc
00000300: cdf2 13bd 8439 0bbc c0d5 2bbd 7dd4 773c
00000310: f882 fcbb 75c2 93bc 5d91 51bb 1c76 68bc
00000320: 2875 93bc 396d 1cbd 204a 2ebc aba5 45bd
00000330: f19a aabb edd4 b4bc f9f8 90bc 4535 53bd
00000340: 5434 2ebb 0310 a6bb 1527 01bd 7ecc 80bc
00000350: 0d25 a1bb 2898 05bd ab68 43bc 7242 29bc
00000360: e6b9 4cbc 01e8 34bc 607d 8db7 6cb0 80bc
00000370: 1368 9d3c df6a 9fbc 3d8c 8bbc d7aa 16bd
-0.019452352 0.013738008 0.027253786 -0.008242663 0.014427623 0.02102863 -0.0058800564 0.02382142
0.011441838 0.013246674 0.025691457 0.028868604 0.02104814 0.017488327 0.045887936 -0.016815102
-0.009044176 -0.0028860925 0.005506836 -0.0064105573 -0.0002901465 -0.0031612795 -0.0009700134 -0.00297407
-0.002193769 0.00063715753 0.0044174884 -0.0037916948 -0.0024214296 0.0022533918 -0.0102264285 -0.007238513
0.009896919 0.014927614 0.021066489 -0.0063234563 0.008105215 0.027669223 0.0010734802 0.021446941
-0.005982763 0.004899907 0.038596254 0.055986214 0.031696122 0.01925794 0.06188295 0.056043923
-0.018045822 -0.0020776845 -0.05561048 -0.016856633 -0.0019471971 -0.022713793 -0.0031997303 -0.0024084232
-0.009682532 -0.0076054 -0.00050283887 -0.03694926 0.0050789956 -0.0027952064 -0.0069827815 -0.030494533
0.0021897736 0.01735234 0.016803278 -0.009393314 0.008824419 0.018607683 0.0026772565 0.0071652452
-0.0026001923 0.015180618 0.028406048 0.051609363 0.022203412 0.023702016 0.025447765 0.03472288
-0.011807589 0.019520119 -0.010609512 -0.011533606 0.016319498 -0.001697046 -0.0038616008 0.010129882
0.009221759 0.0031552375 -0.026342176 0.017127324 -0.0008309267 0.023713412 0.04103025 -0.025062872
-1.1323136e-06 0.0094485935 0.037714362 -0.009458625 0.010179798 0.02666693 -0.002070863 0.012605437
0.008970339 0.050389364 0.045957174 0.077255316 0.04467605 0.043698374 0.062186893 0.035434507
0.019226627 0.048203696 0.008605128 -0.0010387553 0.026229657 0.066840075 -0.0032498022 0.016072256
0.012435974 -0.025091026 0.018633382 0.0072395913 -0.0034909481 0.04134306 0.091244936 0.019323878
0.009579152 0.009758621 -0.028323816 0.008105655 0.004569317 0.008013458 0.001630566 -0.026950056
-0.002198653 -0.026412247 -0.05397618 0.007977551 -0.015108264 -0.0145065375 0.050777655 0.012164687
-0.002875879 0.00592799 -0.04022974 -0.010379638 -0.01619398 -0.037493013 0.0019358835 0.0061199535
0.0020369731 -0.0017339423 0.0036270288 -0.042331114 0.010428117 0.00011625909 -0.013315684 -0.055754453
0.0284636 -0.00928735 0.027909493 -0.008152641 -0.009290977 -0.01874611 0.0028037173 0.011080359
0.0016103385 0.007484082 0.0378888 0.027104938 0.012515618 -0.02574822 -0.007957998 0.030395923
-0.025330186 -0.01979867 -0.07890421 -0.0034563807 -0.0068167825 -0.026017046 -0.0008118109 -0.020410616
-0.02475708 -0.020789046 -0.035912592 -0.007451868 0.0035292602 -0.02858101 0.008654733 -0.026960848
-0.036120225 -0.0084975995 -0.041951895 0.015126345 -0.0077060424 -0.01803706 -0.0031977512 -0.014188316
-0.0180002 -0.0381901 -0.01063779 -0.048253696 -0.0052064587 -0.022074187 -0.017696844 -0.051564474
-0.0026581483 -0.0050678267 -0.031531412 -0.01572251 -0.004917747 -0.03261581 -0.01192681 -0.010330783
-0.0124954935 -0.011041642 -1.6866892e-05 -0.015709125 0.019214666 -0.01946014 -0.017034644 -0.03678402

encoder_var.8.bias f4 [14]
00000000: c4e1 73b4 6b6a 9a32 fc83 64b4 3bb5 ab35
00000010: 8a09 6fb3 fd57 a532 de7c 9c32 fe26 8234
00000020: 2481 54b3 38b4 e934 5b1d ef34 366e 2834
00000030: 3ac4 3433 e6a1 8b33
-2.2713272e-07 1.7976353e-08 -2.128217e-07 1.2793238e-06 -5.56552e-08 1.924854e-08 1.8217573e-08 2.4242757e-07
-4.947755e-08 4.3530758e-07 4.4538578e-07 1.5686314e-07 4.2087983e-08 6.502141e-08

encoder_var.9.weight f4 [14]
00000000: d851 313d 4f15 923c 108a 763d df0a 033e
00000010: ba3a 633d 14aa 9a3d 3026 043d 42b4 7b3d
00000020: 55be 063d cf27 f93d b5bf 433d 2247 333d
00000030: 537c d73d 1463 de3d
0.043290943 0.017832426 0.06019026 0.12797116 0.055475928 0.07551971 0.03226298 0.061451204
0.03289636 0.12165796 0.047790248 0.04376901 0.1052176 0.108587414

encoder_var.9.bias f4 [14]
00000000: ab0e 293d f88e a6bc af04 583d d6cb a33c
00000010: d6cc 483d fead e5bb 788b 743d 278a 4a3d
00000020: 4de4 62bc 18fa 1e3d 88cf af3b ef6f 11bc
00000030: 0f95 61bc 9f79 6d3c
0.041273754 -0.020331845 0.05273884 0.019994657 0.04902347 -0.007009267 0.05970332 0.04944816
-0.013848376 0.038812727 0.005365316 -0.008876785 -0.0137684485 0.014494329

encoder_var.9.running_mean f4 [14]
00000000: 8aca 203c 976b a2ba 8789 723c 2847 1cbc
00000010: 7215 183c e1c1 a63b 1a8c 993c a8bd 6e3c
00000020: 77bb 41bb 8cba 18bc b360 7a3a 0fd6 4fbc
00000030: 883a 5dbc cfa0 11bc
0.009813914 -0.0012391683 0.014803297 -0.009538449 0.009282457 0.00508903 0.018743563 0.014571585
-0.00295612 -0.00932182 0.00095511525 -0.012685313 -0.0135027245 -0.008888437

encoder_var.9.running_var f4 [14]
00000000: 91df f838 c674 7f36 38b6 7e39 fee4 ab38
00000010: 94de bf38 3d15 8c38 79a4 c239 3628 a239
00000020: 8fc9 2738 7fe3 a938 ead6 ed37 1205 2639
00000030: 1283 3739 f666 ad38
0.00011867204 3.8065932e-06 0.0002429121 8.1965685e-05 9.149048e-05 6.679676e-05 0.00037125105 0.00030929007
4.000362e-05 8.1009224e-05 2.8352679e-05 0.00015832882 0.00017501067 8.268461e-05
