generativecf/models/bn1-64-50-target-class--1-auto-encoder.pth (torch_old, 28514 bytes, 78 tensors)

encoder_mean.0.weight f4 [20, 3]
-0.47872284 0.13318314 -0.12768064 -0.056911428 -0.42398438 -0.06793422 -0.19557938 -0.24955766
0.018053608 -0.3609041 -0.32718527 -0.044185072 0.19959942 -0.466482 -0.045239348 -0.053954497
-0.64316785 0.10304648 0.54307586 -0.34841135 0.13220179 -0.5194953 -0.02468073 -0.014314957
-0.5674558 -0.21257554 0.103313446 0.43843034 0.23897213 0.0699731 -0.054297905 -0.46777356
-0.02518378 0.06426605 0.550506 -0.11192361 0.644902 0.2254551 -0.18057908 -0.10186453
0.58649427 0.051928487 0.54956865 -0.069766924 0.024244322 0.18335861 -0.5032738 -0.28396305
-0.5291751 0.17762803 0.02009707 0.4581275 -0.19485925 0.26668882 -0.13912879 0.5886294
0.26271465 -0.5054811 0.1546175 -0.026220959
00000000: 291b f5be 2961 083e b7be 02be f51b 69bd
00000010: 7b14 d9be 1921 8bbd f645 48be 0b8c 7fbe
00000020: 29e5 933c 6cc8 b8be d484 a7be 68fb 34bd
00000030: ca63 4c3e bbd6 eebe e54c 39bd 64ff 5cbd
00000040: a6a6 24bf 080a d33d 0507 0b3f f962 b2be
00000050: e85f 073e a5fd 04bf 3e2f cabc 4889 6abc
00000060: c944 11bf 67ad 59be 0096 d33d f179 e03e
00000070: 1cb5 743e 0f4e 8f3d 7b67 5ebd 0480 efbe
00000080: 374e cebc eb9d 833d f6ed 0c3f 3538 e5bd
00000090: 4c18 253f b4dd 663e b9e9 38be 5a9e d0bd
000000a0: 7d24 163f f7b2 543d 88b0 0c3f f6e1 8ebd
000000b0: 079c c63c 5cc2 3b3e 8dd6 00bf 9b63 91be
000000c0: 0578 07bf 1fe4 353e 9ca2 a43c b08f ea3e
000000d0: 2f89 47be 708b 883e c777 0ebe 6bb0 163f
000000e0: 8982 863e 3667 01bf 0d54 1e3e 56cd d6bc

encoder_mean.0.bias f4 [20]
-4.022856e-06 7.992839e-06 1.7375496e-05 -7.330631e-07 3.5708285e-06 6.8477393e-06 -8.154899e-06 2.224545e-06
-1.5879072e-05 5.8219854e-07 -7.388347e-06 -1.3092881e-06 3.2536375e-06 2.9054975e-06 -1.854213e-05 -6.206962e-06
-1.8921173e-06 -4.0511386e-06 -9.936462e-06 -1.123251e-06
00000000: 12fc 86b6 fb18 0637 98c1 9137 b6c7 44b5
00000010: 5ea2 6f36 a2c5 e536 06d1 08b7 6449 1536
00000020: 0c34 85b7 6148 1c35 6be9 f7b6 ccba afb5
00000030: 1159 5a36 11fc 4236 ec8a 9bb7 6645 d0b6
00000040: a8f4 fdb5 04ef 87b6 c8b4 26b7 9cc2 96b5

encoder_mean.1.weight f4 [20]
0.5099887 0.7308605 0.55081654 0.6013325 0.6230032 0.6561594 0.7130606 0.6793625
0.5563987 0.71194595 0.6714701 0.77011305 0.7137126 0.7361343 0.63513744 0.5688682
0.7581365 0.72498035 0.71862745 0.5579497
00000000: 9f8e 023f ac19 3b3f 5002 0d3f edf0 193f
00000010: 237d 1f3f 10fa 273f 248b 363f b3ea 2d3f
00000020: 2570 0e3f 1742 363f 77e5 2b3f 2126 453f
00000030: deb5 363f 4c73 3c3f 5e98 223f 59a1 113f
00000040: 3c15 423f 5098 393f f8f7 373f cbd5 0e3f

encoder_mean.1.bias f4 [20]
0.003622484 -0.3918046 0.0221686 -0.29246604 -0.049464613 0.16036713 -0.21488433 -0.36776134
0.1007366 -0.2934357 -0.1677254 -0.37329078 -0.2543665 -0.17642702 0.077816606 0.11837924
-0.34594846 -0.33266875 -0.44425485 0.0052382946
00000000: 3267 6d3b 9d9a c8be ec9a b53c 1cbe 95be
00000010: 689b 4abd 4837 243e a30a 5cbe 374b bcbe
00000020: fe4e ce3d 343d 96be 35c0 2bbe f81f bfbe
00000030: 533c 82be 49a9 34be 505e 9f3d d170 f23d
00000040: 2820 b1be 8f53 aabe 5f75 e3be 00a6 ab3b

encoder_mean.1.running_mean f4 [20]
-0.2145294 -0.26374575 -0.20949796 -0.3522437 -0.15616441 -0.31548744 0.12025786 -0.25919113
-0.32172537 0.35518825 -0.26791745 0.25409722 0.33442506 0.26943907 0.22858675 -0.28994274
-0.15375163 0.21836437 0.3455866 -0.16472581
00000000: 98ad 5bbe af09 87be a286 56be 4959 b4be
00000010: 90e9 1fbe 9287 a1be c149 f63d b3b4 84be
00000020: 30b9 a4be 3cdb b53e 7a2c 89be 0819 823e
00000030: c339 ab3e ebf3 893e a512 6a3e 6073 94be
00000040: 1171 1dbe e99a 5f3e baf0 b03e e2ad 28be

encoder_mean.1.running_var f4 [20]
0.00760451 0.006722346 0.0026019413 0.007835272 0.0073433127 0.009630162 0.010502414 0.006946443
0.0069288407 0.008472003 0.006945238 0.0061495528 0.0075630224 0.0109051615 0.007550182 0.0139264995
0.0072029736 0.009159313 0.0170261 0.0067637195
00000000: 412f f93b 2047 dc3b 5585 2a3b 835f 003c
00000010: 2ca0 f03b d4c7 1d3c 5112 2c3c fd9e e33b
00000020: 540b e33b 28ce 0a3c e194 e33b 3082 c93b
00000030: 3bd3 f73b 90ab 323c 8467 f73b f92b 643c
00000040: ec06 ec3b f110 163c 527a 8b3c 31a2 dd3b

encoder_mean.4.weight f4 [16, 20]
-0.08858865 0.52540237 0.11322398 0.13286157 0.047262236 0.18867649 0.26467597 0.12394408
-0.06540267 -0.18183707 0.3833927 -0.17289987 -0.059072625 -0.2536044 0.025276091 0.14123781
-0.0012195195 -0.09308298 -0.11031655 -0.04531906 -0.18075705 -0.0044472143 -0.22578101 -0.15794875
0.1475904 0.022038067 0.31334692 -0.018889531 -0.15552579 0.14043593 -0.05677547 0.10009128
0.36937624 0.02695689 0.27313754 0.05181404 -0.08062889 0.32489222 -0.024000246 -0.15534951
0.23569518 0.04596932 -0.019845007 0.13152425 -0.062822804 -0.005771057 -0.33007878 0.20882632
0.18692563 -0.11642601 -0.047540154 0.100456364 -0.16652298 0.089728534 -0.337469 0.033534076
0.33458465 -0.20381832 0.019977123 0.27953207 -0.12725474 -0.112451114 -0.25212902 -0.03853357
-0.043281697 -0.21854027 0.12630232 -0.154381 -0.22045085 0.28890806 -0.15899138 0.07968719
0.20815913 0.090812996 0.081821874 -0.20341794 -0.013123855 0.18787532 0.11439352 -0.070845015
-0.107863404 0.22995675 0.06988058 0.053527772 0.13562943 0.28093743 0.084139496 -0.11608384
-0.09432135 0.14879523 0.21285814 -0.15682676 0.19893278 -0.15944923 0.15524994 0.21487375
-0.106285244 0.28301567 -0.0836451 -0.04100552 -0.081063285 -0.03261948 -0.2540121 -0.008106154
0.029828323 -0.077619 0.21969679 -0.25735915 -0.20727095 0.3318674 -0.09471511 0.06458426
0.2527359 0.13006228 0.16873015 -0.048345175 -0.11648821 0.29507703 0.15523244 -0.14991598
0.07833985 -0.097776644 -0.27938443 -0.18130542 -0.11568902 -0.38244283 -0.10685923 -0.04798101
-0.022329599 0.10733125 -0.015396694 0.2811038 0.009186633 0.24285339 0.004202661 -0.3016974
0.22814278 -0.09147369 0.24520633 0.09611844 0.17185917 0.06871295 -0.011800667 0.23646078
-0.18159527 -0.08118 -0.20761272 0.32568967 0.13056651 -0.08905262 -4.934112e-05 -0.051028855
-0.22193 0.019767888 -0.17138252 -0.052182667 0.39853334 -0.14514558 0.015215054 0.16475706
-0.14656578 0.074330814 0.018925166 0.0039901496 -0.21450995 -0.21769027 0.00573394 -0.15342392
-0.17068017 0.30871218 -0.07484418 0.31274882 0.059567828 -0.010182866 0.05168462 -0.24398933
-0.16185711 -0.005441378 0.31453875 -0.23498237 0.023275375 -0.105548024 -0.08664165 -0.013797626
-0.37491995 -0.26005176 -0.10116539 0.017272465 0.04105006 0.039119188 -0.17874643 0.25445452
0.0565731 0.3247896 0.045663454 -0.3757269 0.021349592 -0.013984773 0.33293778 0.096966915
0.12716472 0.18550861 0.260135 0.3542863 0.017628565 0.075214036 -0.14864889 0.22287633
0.26658338 -0.111788295 -0.008333636 -0.07224504 -0.15985693 -0.17161188 -0.2613862 0.010173397
-0.020403555 -0.16905387 -0.135076 0.1368621 0.29670426 0.055693604 0.044456005 0.10499105
0.015717259 0.014313936 -0.16985454 0.34346658 -0.058016784 -0.194097 0.12868534 0.21086527
-0.19318832 0.048061784 -0.29403335 -0.04762089 0.34887546 -0.19149613 0.072223425 0.1529437
-0.016333096 -0.1768699 -0.0027026595 0.012344685 -0.26608062 -0.31151965 -0.1091855 0.09752845
0.006631907 -0.029006826 -0.28598318 0.21837766 0.08942486 0.34180054 0.003350697 -0.23928143
00000000: f76d b5bd c580 063f f9e1 e73d dd0c 083e
00000010: 0c96 413d 6934 413e 9c83 873e 65d6 fd3d
00000020: d6f1 85bd 7f33 3abe 0c4c c43e aa0c 31be
00000030: 23f6 71bd 70d8 81be ce0f cf3c a5a0 103e
00000040: 49d8 9fba 4aa2 bebd a5ed e1bd 7ba0 39bd
00000050: 6018 39be f0b9 91bb 2333 67be 51bd 21be
00000060: f021 173e 2d89 b43c 026f a03e 38be 9abc
00000070: 2742 1fbe 70ce 0f3e 658d 68bd a8fc cc3d
00000080: e21e bd3e b2d4 dc3c afd8 8b3e f53a 543d
00000090: c220 a5bd 4658 a63e 2a9c c4bc f113 1fbe
000000a0: 145a 713e 534a 3c3d ff91 a2bc 4bae 063e
000000b0: 3ea9 80bd 231b bdbb 1600 a9be 91d6 553e
000000c0: 6f69 3f3e c370 eebd 77b9 42bd 11bc cd3d
000000d0: 0085 2abe 98c3 b73d bdc8 acbe 075b 093d
000000e0: ae4e ab3e c0b5 50be 10a7 a33c d41e 8f3e
000000f0: 114f 02be c54c e6bd 0e17 81be 60d5 1dbd
00000100: 2648 31bd 05c9 5fbe 6555 013e 0e16 1ebe
00000110: debd 61be c2eb 933e a3ce 22be 0a33 a33d
00000120: ab27 553e 2afc b93d 3a92 a73d cb4c 50be
00000130: 7005 57bc 6362 403e 2647 ea3d 3117 91bd
00000140: 7de7 dcbd c879 6b3e 8d1d 8f3d f03f 5b3d
00000150: 71e2 0a3e 08d7 8f3e 5451 ac3d 5dbd edbd
00000160: 8d2b c1bd c75d 183e 7cf7 593e 3297 20be
00000170: 09b5 4b3e a946 23be d7f9 1e3e dd07 5c3e
00000180: 14ac d9bd 6ee7 903e 1f4e abbd 67f5 27bd
00000190: 8204 a6bd 019c 05bd e00d 82be adcf 04bc
000001a0: 875a f43c b6f6 9ebd 32f8 603e 94c4 83be
000001b0: d63e 54be 86ea a93e fff9 c1bd c144 843d
000001c0: 9a66 813e 0c2f 053e 99c7 2c3e 9705 46bd
000001d0: 5f91 eebd 5614 973e 41f5 1e3e 9383 19be
000001e0: a570 a03d 1f3f c8bd 7a0b 8fbe 21a8 39be
000001f0: 5dee ecbd 8ccf c3be 03d9 dabd bc87 44bd
00000200: 90ec b6bc 7dd0 db3d 6a42 7cbc d6ec 8f3e
00000210: 8883 163c 8fae 783e 7ab6 893b 1578 9abe
00000220: 439e 693e 8f56 bbbd 5e17 7b3e bfd9 c43d
00000230: dafb 2f3e 60b9 8c3d 9657 41bc c622 723e
00000240: 1cf4 39be b341 a6bd 6e98 54be ccc0 a63e
00000250: 3ab3 053e 3861 b6bd a0f3 4eb8 a203 51bd
00000260: 9e41 63be 44f0 a13c e67e 2fbe 7ebd 55bd
00000270: 900c cc3e 0ba1 14be 9048 793c 13b6 283e
00000280: 5715 16be c13a 983d f308 9b3c cdbf 823b
00000290: 7fa8 5bbe 33ea 5ebe c6e3 bb3b 291b 1dbe
000002a0: c8c6 2ebe 860f 9e3e e847 99bd 9d20 a03e
000002b0: 65fd 733d 09d6 26bc 41b3 533d 57d8 79be
000002c0: dfbd 25be 964d b2bb 390b a13e 389f 70be
000002d0: 00ac be3c 9029 d8bd 2d71 b1bd 700f 62bc
000002e0: 82f5 bfbe 8125 85be cd2f cfbd fc7e 8d3c
000002f0: 1c24 283d 713b 203d 4e09 37be dd47 823e
00000300: 32b9 673d d34a a63e 9a09 3b3d 475f c0be
00000310: 57e5 ae3c 6420 65bc d276 aa3e 9796 c63d
00000320: 7837 023e f8f5 3d3e 6a30 853e 0465 b53e
00000330: c869 903c d109 9a3d 6a37 18be b139 643e
00000340: 9e7d 883e 43f1 e4bd ce89 08bc 35f5 93bd
00000350: 89b1 23be 06bb 2fbe 69d4 85be 52ae 263c
00000360: 5b25 a7bc 751c 2dbe 5d51 0abe 9425 0c3e
00000370: 9fe9 973e fa1e 643d 8017 363d 8c05 d73d
00000380: 7bc1 803c 0085 6a3c 59ee 2dbe dada af3e
00000390: 02a3 6dbd 5dc1 46be 17c6 033e 11ed 573e
000003a0: 29d3 45be 6fdc 443d 8a8b 96be 1f0e 43bd
000003b0: ce9f b23e 9017 44be e0e9 933d 469d 1c3e
000003c0: fccc 85bc 621d 35be 1a1f 31bb 5d41 4a3c
000003d0: b83b 88be 817f 9fbe a69c dfbd ffbc c73d
000003e0: 7850 d93b b99f edbc 636c 92be 659e 5f3e
000003f0: 6224 b73d 7b00 af3e 5e97 5b3b 3106 75be

encoder_mean.4.bias f4 [16]
-3.3406886e-06 -1.3653909e-06 -4.537125e-06 -6.3805396e-07 9.060002e-07 -5.671493e-07 1.9230783e-06 9.733305e-07
2.3453988e-06 -1.2745014e-06 1.0339808e-06 -4.9621312e-06 -3.7387431e-07 -1.3666024e-05 1.1868956e-06 -8.7198725e-07
00000000: 9830 60b6 7942 b7b5 9b3d 98b6 bc46 2bb5
00000010: dc33 7335 343e 18b5 3c0e 0136 62a3 8235
00000020: a565 1d36 890f abb5 4fc7 8a35 6280 a6b6
00000030: e5b8 c8b4 2047 65b7 6c4d 9f35 8212 6ab5

encoder_mean.5.weight f4 [16]
0.83282787 0.78609776 0.678451 0.5957364 0.747332 0.73174137 0.74389213 0.63055044
0.66889286 0.76366085 0.7105543 0.7497102 0.7384632 0.73649263 0.74218875 0.7868461
00000000: 3534 553f b43d 493f f7ae 2d3f 2e82 183f
00000010: 2651 3f3f 6753 3b3f b76f 3e3f c16b 213f
00000020: 903c 2b3f 477f 433f e3e6 353f 02ed 3f3f
00000030: ed0b 3d3f c88a 3c3f 1500 3e3f bf6e 493f

encoder_mean.5.bias f4 [16]
0.0867943 -0.092120096 0.08660599 0.052098736 -0.1857779 0.06442544 -0.055632737 0.07445731
-0.18373638 0.06585569 0.1019024 0.0069228755 0.066033445 -0.062118668 0.16377926 0.014185584
00000000: 36c1 b13d 76a9 bcbd 7b5e b13d 7c65 553d
00000010: 903c 3ebe 7cf1 833d 27df 63bd 137d 983d
00000020: 6425 3cbe 59df 863d 35b2 d03d 4ad9 e23b
00000030: 8b3c 873d 2570 7ebd c0b5 273e a76a 683c

encoder_mean.5.running_mean f4 [16]
0.1935101 0.139897 0.017911276 -0.1527912 0.27754706 0.016103001 -0.17503189 -0.026715817
-0.18615854 -0.14792229 0.02975992 0.08354427 -0.12224652 -0.33778447 0.13142635 -0.016869634
00000000: 8327 463e 2941 0f3e abba 923c 4c75 1cbe
00000010: a61a 8e3e 71ea 833c 8f3b 33be 21db dabc
00000020: 58a0 3ebe f178 17be 13cb f33c 4219 ab3d
00000030: 625c fabd 16f2 acbe a194 063e 3032 8abc

encoder_mean.5.running_var f4 [16]
0.35904294 0.40370214 0.44799873 0.3589499 0.31266814 0.40499407 0.41738966 0.3275607
0.2543465 0.46258125 0.3651989 0.32637286 0.3984177 0.31740883 0.53378075 0.20715053
00000000: 7ad4 b73e 0cb2 ce3e 1760 e53e 48c8 b73e
00000010: 0a16 a03e 625b cf3e 19b4 d53e 09b6 a73e
00000020: b439 823e 73d7 ec3e 5afb ba3e 581a a73e
00000030: 68fd cb3e 6983 a23e dba5 083f 451f 543e

encoder_mean.8.weight f4 [14, 16]
0.32161793 0.020442996 -0.03349725 -0.18291694 0.27034917 -0.07816241 -0.22979702 -0.09649629
-0.17827217 -0.34374058 -0.14743185 0.1419312 -0.21661071 -0.33620283 0.12792914 0.32251164
-0.006039374 -0.13365051 0.1343115 -0.32216662 0.012341353 -0.2800317 -0.2069075 0.059975725
-0.068633825 -0.20632233 0.31309724 0.21588926 0.020928329 -0.21295656 0.31535786 -0.045922905
0.25539014 -0.017241336 -0.008875698 -0.21480398 0.1982273 -0.13527958 -0.14386304 -0.076919824
-0.14247735 -0.2637148 0.25536197 -0.019938203 -0.3363605 -0.22267404 -0.11712785 0.34536278
-0.30485493 -0.075175926 -0.017264498 0.1965569 -0.08848463 0.06605893 0.13647358 0.07606244
0.4501766 0.28671303 -0.20574835 -0.048707344 0.20105897 0.04768536 -0.10100221 -0.13728699
-0.2660722 -0.06776887 0.045499634 0.06514334 -0.337561 0.23644195 0.4171302 -0.09150202
0.023537742 0.102415994 -0.10922637 0.15535872 0.19696046 0.48287797 0.083768174 -0.25784189
0.038605925 -0.37988862 0.19952154 -0.1603908 -0.13207112 -0.18155582 0.19384964 0.33765703
-0.09178802 0.13596222 -0.008582413 0.42502114 0.20197283 -0.06802817 0.15919977 0.05541777
0.2561388 0.27408126 -0.34265402 0.19319296 0.14585394 0.21111792 -0.09624964 -0.37806386
-0.04123806 -0.0922193 -0.12727198 -0.26270103 -0.16058058 -0.23241696 -0.13920897 -0.053803522
0.22771943 -0.038829926 -0.07579742 -0.08349155 0.30804804 -0.03172576 -0.22497262 -0.12940407
-0.101128586 -0.36376873 0.05905843 -0.025450304 -0.26334772 -0.19664896 0.0022671986 0.3547745
0.011445483 0.22920826 0.25697657 0.20305054 -0.09492152 0.4257942 -0.24117343 0.15277052
0.057698596 -0.1782339 0.17615382 0.23421857 -0.21440636 -0.30108747 0.08635151 -0.049500845
-0.3278727 0.16556107 0.13499326 0.20827444 -0.096373886 0.033659864 0.3314133 0.001408487
0.20996743 0.31837893 -0.045469027 0.07377039 0.30726102 0.16036083 0.07194249 -0.2026605
-0.10980284 0.0035770445 -0.19831006 -0.11071472 -0.052357033 0.0818382 0.22859165 -0.2441935
0.450528 0.18956387 -0.1860788 -0.14009018 0.21609269 -0.0377718 -0.24611332 -0.06484905
-0.1915148 0.27911705 -0.32919794 0.14631653 0.3635876 0.09486443 -0.10805272 -0.23149224
0.12139977 -0.02671246 -0.31397223 -0.20041327 0.008266802 -0.23649105 -0.37090224 -0.08357449
0.072941326 0.37956983 -0.3864388 0.09862185 0.029216573 0.21190538 0.12324969 -0.31613988
-0.018261576 0.04424632 -0.27700052 -0.2741902 0.07158678 -0.13593926 -0.3698378 0.04884834
0.25176975 -0.11751068 0.1468529 -0.22942965 0.08393448 -0.31614798 -0.06106662 0.18289208
-0.071421474 0.096535735 0.18627505 0.28980777 0.122227296 -0.017618394 0.30251125 -0.14159578
00000000: 1bab a43e 1278 a73c 6a34 09bd 944e 3bbe
00000010: 356b 8a3e 9d13 a0bd e94f 6bbe d99f c5bd
00000020: fb8c 36be c4fe afbe 60f8 16be 6a56 113e
00000030: 33cf 5dbe c722 acbe dbff 023e 3f20 a53e
00000040: f1e5 c5bb aedb 08be f488 093e 06f3 a4be
00000050: 6333 4a3c 5160 8fbe 8fdf 53be 1ba9 753d
00000060: e48f 8cbd 2946 53be 484e a03e 1312 5d3e
00000070: e371 ab3c 4911 5abe 9676 a13e a819 3cbd
00000080: 7fc2 823e b43d 8dbc 606b 11bc 93f5 5bbe
00000090: 19fc 4a3e bb86 0abe d550 13be 2488 9dbd
000000a0: 95e5 11be a005 87be cebe 823e 7155 a3bc
000000b0: 7237 acbe aa04 64be bae0 efbd 64d3 b03e
000000c0: f215 9cbe d6f5 99bd 476e 8dbc 3646 493e
000000d0: 6e37 b5bd e749 873d bbbf 0b3e a0c6 9b3d
000000e0: 8c7d e63e 0dcc 923e b2af 52be 5a81 47bd
000000f0: 67e2 4d3e b951 433d 3fda cebd f694 0cbe
00000100: 9e3a 88be 68ca 8abd d35d 3a3d df69 853d
00000110: ccd4 acbe d71d 723e 1792 d53e 6965 bbbd
00000120: 39d2 c03c 7abf d13d 13b2 dfbd 5b16 1f3e
00000130: 01b0 493e c83b f73e a68e ab3d da03 84be
00000140: 3f21 1e3d c380 c2be 604f 4c3e 7c3d 24be
00000150: a73d 07be c5e9 39be 8580 463e 62e1 ac3e
00000160: 5cfb bbbd ae39 0b3e 409d 0cbc 5f9c d93e
00000170: f7d1 4e3e 5a52 8bbd 4405 233e befd 623d
00000180: a024 833e 6154 8c3e 5970 afbe 60d4 453e
00000190: bc5a 153e 4c2f 583e 881e c5bd 9691 c1be
000001a0: 3de9 28bd 79dd bcbd 9653 02be c080 86be
000001b0: 3c6f 24be b6fe 6dbe cc8c 0ebe 1561 5cbd
000001c0: 482f 693e 210c 1fbd ae3b 9bbd 9efd aabd
000001d0: 79b8 9d3e dff2 01bd 395f 66be 8082 04be
000001e0: 811c cfbd e53f babe 41e7 713d 287d d0bc
000001f0: 83d5 86be 585e 49be 4895 143b 01a5 b53e
00000200: d685 3b3c 92b5 6a3e 6f92 833e 7bec 4f3e
00000210: 3766 c2bd b301 da3e 2bf6 76be e06f 1c3e
00000220: 5d55 6c3d f382 36be ab61 343e fed6 6f3e
00000230: 578d 5bbe 2328 9abe 0fd9 b03d 66c1 4abd
00000240: eede a7be d788 293e ac3b 0a3e e545 553e
00000250: ac5f c5bd edde 093d 01af a93e fb9c b83a
00000260: b401 573e 9002 a33e bb3d 3abd ee14 973d
00000270: 5151 9d3e a135 243e 9656 933d 3c86 4fbe
00000280: 50e0 e0bd d96c 6a3b cb11 4bbe 66be e2bd
00000290: 5474 56bd c99a a73d ee13 6a3e dc0d 7abe
000002a0: 9bab e63e 081d 423e 718b 3ebe cd73 0fbe
000002b0: 6747 5d3e 9ab6 1abd 2105 7cbe 94cf 84bd
000002c0: 751c 44be 6ee8 8e3e a28c a8be 00d4 153e
000002d0: 2728 ba3e 4848 c23d bf4a ddbd 4d0c 6dbe
000002e0: 71a0 f83d 17d4 dabc f8c0 a0be 2339 4dbe
000002f0: 7b71 073c b62a 72be e6e6 bdbe 1a29 abbd
00000300: 4362 953d fa56 c23e 4edb c5be 41fa c93d
00000310: 9857 ef3c b9fd 583e 556a fc3d 16dd a1be
00000320: 4d99 95bc a13b 353d 03d3 8dbe a862 8cbe
00000330: 179c 923d a933 0bbe 615b bdbe 3215 483d
00000340: f7e7 803e 70a9 f0bd 9b60 163e 9bef 6abe
00000350: d7e5 ab3d 26de a1be fe20 7abd 1048 3b3e
00000360: 6c45 92bd 87b4 c53d e3be 3e3e af61 943e
00000370: 4e52 fa3d 7354 90bc c1e2 9a3e 7cfe 10be

encoder_mean.8.bias f4 [14]
1.1731348e-06 2.292661e-06 -1.3857004e-06 -6.935166e-08 1.4293202e-06 -5.7464274e-07 1.8746241e-06 -7.0672945e-07
8.141558e-07 3.080958e-06 1.4054809e-06 -6.0421183e-07 2.3763134e-06 -2.1203916e-06
00000000: 9b74 9d35 9edb 1936 4efc b9b5 7aee 94b3
00000010: 11d7 bf35 2641 1ab5 989b fb35 14b6 3db5
00000020: 5c8c 5a35 75c2 4e36 f5a3 bc35 1f31 22b5
00000030: c178 1f36 0d4c 0eb6

encoder_mean.9.weight f4 [14]
0.7765603 0.763552 0.8030208 0.7384986 0.74231195 0.78471595 0.82825625 0.7334082
0.59735394 0.71727264 0.7572342 0.85409874 0.8514875 0.73209524
00000000: a8cc 463f 2578 433f c592 4d3f 3f0e 3d3f
00000010: 2808 3e3f 25e3 483f 9a08 543f a4c0 3b3f
00000020: 30ec 183f 2e9f 373f 1ada 413f 37a6 5a3f
00000030: 16fb 593f 986a 3b3f

encoder_mean.9.bias f4 [14]
-0.0032921233 0.039961454 -0.027921 0.15748984 0.12275935 0.1333124 -0.03893887 -0.0457095
0.23368055 0.17394005 -0.06523672 -0.12770317 -0.059904903 0.1743665
00000000: aac0 57bb 9fae 233d 95ba e4bc 0445 213e
00000010: 4169 fb3d 0c83 083e 5d7e 1fbd e239 3bbd
00000020: f449 6f3e 571d 323e d49a 85bd 9fc4 02be
00000030: d85e 75bd 228d 323e

encoder_mean.9.running_mean f4 [14]
-0.10724993 -0.0630072 -0.17300509 0.08939258 0.21953727 0.2560806 -0.21142066 -0.14954236
0.22505821 0.36372262 -0.09111474 -0.36510664 -0.22201252 0.25893563
00000000: daa5 dbbd eb09 81bd 3f28 31be 7513 b73d
00000010: 61ce 603e ff1c 833e a87e 58be a221 19be
00000020: a975 663e da39 ba3e 5d9a babd 42ef babe
00000030: 4057 63be 3693 843e

encoder_mean.9.running_var f4 [14]
0.67730784 0.5697549 0.7206432 0.5251574 0.70823497 0.6247822 0.6884269 0.64998865
0.2688832 0.6530852 0.4374434 0.7889148 0.85361975 0.5217447
00000000: 0c64 2d3f 75db 113f 137c 383f b770 063f
00000010: e34e 353f baf1 1f3f bf3c 303f a865 263f
00000020: 0fab 893e 9730 273f 95f8 df3e 52f6 493f
00000030: d386 5a3f 1091 053f

encoder_mean.12.weight f4 [12, 14]
0.030330446 0.2902065 -0.096174605 -0.17202829 -0.017590793 0.22739407 -0.274067 -0.012697081
0.25541145 0.037762523 -0.2693192 -0.26003143 -0.38447705 0.22729768 0.32632253 -0.21004006
0.3221517 -0.31405982 -0.31588924 -0.0064890925 0.08334537 0.20769157 0.06313527 -0.27869016
-0.20277697 -0.02164203 0.01934243 0.2695449 -0.18795203 -0.10110194 -0.31785116 0.13898621
0.5109869 0.20594381 -0.10544421 -0.32010686 -0.22564454 0.25649172 0.1437052 -0.06508174
0.00017720927 -0.042964764 -0.110323995 -0.2999021 -0.22408892 0.23999561 0.16895112 -0.09383338
0.008803209 -0.09753696 -0.006335809 0.24259323 0.4820492 0.010607468 0.11988566 -0.18614885
-0.042249646 -0.22903937 -0.14906754 0.074665174 -0.003914004 -0.25255194 0.20979367 0.16596887
0.3551777 0.07882184 0.049096845 0.40616405 0.49782732 -0.23703758 0.020360908 -0.2662072
0.00036629807 0.06514673 -0.043955874 -0.33931974 0.36423248 -0.06537853 0.28682804 0.034190193
-0.0129765645 0.47464275 0.2331781 -0.29889527 0.4081843 0.06871681 0.36335352 -0.32545868
-0.247273 0.0429598 0.072777756 0.24491109 0.013026072 -0.25185987 -0.26055872 -0.045755804
-0.05347723 -0.0007554476 -0.39169922 -0.040749006 -0.27257556 0.1989722 0.2992009 0.060932815
-0.018367622 -0.32927522 -0.20412688 0.3132993 0.21283644 -0.070741795 -0.013647839 0.06275227
0.32873932 0.2127964 0.40691563 -0.106446505 -0.2025563 0.02772703 0.060960058 0.41234523
-0.06474144 -0.24229841 -0.14337847 0.0026460323 0.24492066 -0.052139178 0.011726172 0.10892932
-0.009238615 -0.0202231 0.11061013 0.3301445 -0.44228768 -0.060955603 0.2301428 0.023107275
-0.08281072 -0.370903 -0.43518245 0.22888505 0.068447344 0.37888026 0.10671143 -0.19977994
-0.063781835 0.13229626 -0.107503414 -0.07881293 0.30890355 0.03304201 -0.19821833 -0.3172566
-0.35205305 0.15966906 -0.15212019 -0.04875279 -0.17929494 0.09381216 0.14707308 0.27278075
-0.3130768 -0.27086297 -0.11035527 0.31371927 -0.1122338 -0.23794128 -0.21755695 0.3347833
00000000: 8e77 f83c f295 943e 31f7 c4bd 2f28 30be
00000010: 911a 90bc fed9 683e 8352 8cbe 6b07 50bc
00000020: 4ac5 823e e0ac 1a3d 35e4 89be d722 85be
00000030: 2dda c4be b9c0 683e bf13 a73e be14 57be
00000040: 11f1 a43e 73cc a0be 3cbc a1be 74a2 d4bb
00000050: fab0 aa3d 19ad 543e 104d 813d 7ab0 8ebe
00000060: c4a4 4fbe a04a b1bc 0474 9e3c ca01 8a3e
00000070: 7f76 40be 890e cfbd 63bd a2be 6752 0e3e
00000080: 0ad0 023f efe2 523e 22f3 d7bd 0ce5 a3be
00000090: 5d0f 67be e252 833e 7527 133e 9349 85bd
000000a0: 40d1 3939 d2fb 2fbd 8cf1 e1bd c58c 99be
000000b0: 9177 65be 69c1 753e 8601 2d3e b72b c0bd
000000c0: 563b 103c 75c1 c7bd 9e9c cfbb 5c6a 783e
000000d0: 27cf f63e f2ca 2d3c 9d86 f53d ce9d 3ebe
000000e0: f70d 2dbd 4c89 6abe 29a5 18be 0eea 983d
000000f0: 0c41 80bb 7d4e 81be 27d4 563e bef3 293e
00000100: dad9 b53e 586d a13d c619 493d bcf4 cf3e
00000110: 39e3 fe3e fbb9 72be ebcb a63c 4f4c 88be
00000120: b20b c039 a66b 853d 130b 34bd 51bb adbe
00000130: ae7c ba3e 2ee5 85bd 20db 923e 040b 0c3d
00000140: a89b 54bc 6004 f33e 3dc6 6e3e cd08 99be
00000150: 88fd d03e 66bb 8c3d 7909 ba3e 85a2 a6be
00000160: 2235 7dbe 9ef6 2f3d 810c 953d f9c9 7a3e
00000170: 4e6b 553c c7f3 80be f467 85be 706a 3bbd
00000180: f10a 5bbd 3b09 46ba cd8c c8be 6ee8 26bd
00000190: 068f 8bbe 5ebf 4b3e dc30 993e b094 793d
000001a0: b277 96bc c396 a8be a306 51be c468 a03e
000001b0: ccf1 593e 13e1 90bd 309b 5fbc 4384 803d
000001c0: 8550 a83e 4de7 593e 3f57 d03e a000 dabd
000001d0: eb6a 4fbe cc23 e33c 41b1 793d ea1e d33e
000001e0: 2997 84bd 131d 78be ced1 12be 0e69 2d3b
000001f0: 7bcc 7a3e e48f 55bd 211f 403c 5616 df3d
00000200: 8f5d 17bc eaaa a5bc 9087 e23d b308 a93e
00000210: 8873 e2be 95ac 79bd 8eaa 6b3e 784b bd3c
00000220: ab98 a9bd ffe6 bdbe 3cd0 debe d860 6a3e
00000230: 1f2e 8c3d 98fc c13e 868b da3d 1d93 4cbe
00000240: 0da0 82bd ac78 073e c02a dcbd ac68 a1bd
00000250: 9b28 9e3e 0f57 073d bff9 4abe 756f a2be
00000260: 4c40 b4be 4980 233e 65c5 1bbe 01b1 47bd
00000270: 1899 37be 9720 c03d 539a 163e eba9 8b3e
00000280: 9a4b a0be 8dae 8abe f201 e2bd d09f a03e
00000290: d6da e5bd e1a6 73be 40c7 5ebe b768 ab3e

encoder_mean.12.bias f4 [12]
-3.1607613e-07 -2.2461247e-06 3.9213965e-06 5.7487404e-07 1.5869296e-07 5.2486064e-07 -3.6165527e-06 -3.230653e-07
-9.1145057e-07 7.0339553e-07 -2.5136003e-06 -4.8502447e-06
00000000: 2cb1 a9b4 21bc 16b6 8a94 8336 0b51 1a35
00000010: 3065 2a34 26e4 0c35 e7b3 72b6 c271 adb4
00000020: 68aa 74b5 f9d0 3c35 53af 28b6 49bf a2b6

encoder_mean.13.weight f4 [12]
0.8582716 0.92596114 0.88007134 0.8248876 0.9182882 0.9832886 0.9323235 0.87332135
0.84555244 0.9156281 0.85300475 0.9272105
00000000: b0b7 5b3f ca0b 6d3f 5b4c 613f d52b 533f
00000010: ef14 6b3f cdb8 7b3f c1ac 6e3f fd91 5f3f
00000020: 2076 583f 9a66 6a3f 855e 5a3f ab5d 6d3f

encoder_mean.13.bias f4 [12]
0.12990808 0.15016766 0.18412983 0.1656589 0.24755111 0.22812854 0.1422877 0.20901377
0.23040423 0.13931878 0.18532015 0.14438613
00000000: a006 053e 8dc5 193e 888c 3c3e 7da2 293e
00000010: 0a7e 7d3e 879a 693e deb3 113e b507 563e
00000020: 16ef 6b3e 95a9 0e3e 91c4 3d3e f5d9 133e

encoder_mean.13.running_mean f4 [12]
-0.05389545 -0.04420368 0.06734097 0.0939267 0.22780983 0.07379817 -0.03374009 0.034297217
0.1902081 -0.027481338 -0.0035521204 -0.049560256
00000000: 7ac1 5cbd eb0e 35bd 10ea 893d a45c c03d
00000010: fb46 693e 7f23 973d 0c33 0abd 3d7b 0c3d
00000020: eac5 423e 8b20 e1bc b1ca 68bb b2ff 4abd

encoder_mean.13.running_var f4 [12]
0.56815946 0.6567338 0.7098822 0.6091198 0.6093087 0.64302844 0.75109076 0.6877571
0.60525954 0.59743065 0.49531755 0.5543371
00000000: e672 113f b51f 283f d7ba 353f 46ef 1b3f
00000010: a8fb 1b3f 839d 243f 7c47 403f d910 303f
00000020: 4af2 1a3f 37f1 183f 439a fd3e 09e9 0d3f

encoder_mean.16.weight f4 [10, 12]
0.012830447 0.02321691 -0.005096562 -0.0030756895 -0.011415659 0.0013170578 0.013113933 -0.011676438
-0.01598848 -0.048663147 -0.030780269 0.034466542 -0.495162 0.40395227 -0.31369066 0.004263253
0.565906 0.501295 0.34789827 -0.31410322 0.33798233 -0.5022994 -0.28362396 -0.6240235
0.0078034257 0.06074771 0.11459931 -0.0062897396 0.027146807 -0.05952137 -0.022799091 0.08382224
0.07858779 0.0016132857 0.15527691 -0.17916328 0.050660763 0.009196766 -0.027031068 -0.03885246
-0.05107923 0.06135853 0.059391927 0.0509714 -0.049164873 0.010752686 -0.086980425 -0.0049528116
0.01203102 0.08133527 0.038209494 -0.02058655 0.003686901 -0.011016865 -0.017216582 -0.023507942
-0.061004467 -0.026506675 -0.0076082675 -0.007038555 0.027554965 0.003125044 -0.0011783111 0.018809691
0.015449819 -0.006787432 -0.0035743527 -0.0012223006 -0.0076352647 -0.0072063045 -0.0051334044 0.014432886
-0.40025634 -0.471326 0.18079808 0.3269221 0.3454385 0.48408723 -0.4130539 0.31238812
-0.2965781 -0.45619172 -0.51324534 -0.05243142 0.18408614 0.24360895 -0.5584296 -0.56077397
-0.20947213 0.03551369 0.41796222 -0.43619734 0.40103814 -0.09046261 0.09276862 -0.16955721
0.014720091 0.007013943 0.037361257 -0.006201874 0.008832448 -0.003929717 -0.0126985945 -0.0010994335
0.0068264306 -0.026294222 0.0018697354 -0.012873556 -0.026170634 -0.014823134 -0.020706102 -0.0287788
-0.014722124 0.012797145 -0.0042073657 0.017505905 0.017216394 0.028602378 -0.002878799 -0.003848412
00000000: cc36 523c 6431 be3c 1001 a7bb 8291 49bb
00000010: bf08 3bbc 20a1 ac3a d2db 563c 884e 3fbc
00000020: 46fa 82bc 0253 47bd e726 fcbc ca2c 0d3d
00000030: e085 fdbe d5d2 ce3e 109c a0be c2b2 8b3b
00000040: 37df 103f de54 003f b91f b23e 23d2 a0be
00000050: 050c ad3e b296 00bf 2937 91be 01c0 1fbf
00000060: e1b3 ff3b 97d2 783d 0bb3 ea3d 291a cebb
00000070: fb62 de3c aecc 73bd 29c5 babc ffaa ab3d
00000080: a3f2 a03d e374 d33a e900 1f3e 9476 37be
00000090: a981 4f3d 08ae 163c 4270 ddbc c223 1fbd
000000a0: 7438 51bd 1553 7b3d f344 733d 63c7 503d
000000b0: 1b61 49bd 092c 303c cb22 b2bd 324b a2bb
000000c0: c11d 453c 1b93 a63d 8f81 1c3d 20a5 a8bc
000000d0: ef9f 713b 1580 34bc ca09 8dbc ba93 c0bc
000000e0: d2df 79bd 8724 d9bc c64e f9bb aea3 e6bb
000000f0: f3ba e13c 8acd 4c3b 8f71 9aba c816 9a3c
00000100: 3d21 7d3c 1b69 debb b03f 6abb 9a35 a0ba
00000110: 3e31 fabb dd22 ecbb 1e36 a8bb e977 6c3c
00000120: 66ee ccbe a451 f1be 2223 393e 5562 a73e
00000130: 51dd b03e 48da f73e cd7b d3be 56f1 9f3e
00000140: 16d9 97be f691 e9be 0c64 03bf 54c2 56bd
00000150: 1481 3c3e a074 793e 3ef5 0ebf e28e 0fbf
00000160: dd7f 56be ce76 113d 25ff d53e 4255 dfbe
00000170: df54 cd3e 7644 b9bd 79fd bd3d 68a0 2dbe
00000180: 892c 713c 38d5 e53b 1e08 193d 1739 cbbb
00000190: f9b5 103c dbc4 80bb c40d 50bc de1a 90ba
000001a0: 40b0 df3b fb66 d7bc e911 f53a 9ceb 52bc
000001b0: cc63 d6bc bbdc 72bc d89f a9bc 85c1 ebbc
000001c0: 1035 71bc 1eab 513c f1dd 89bb 8b68 8f3c
000001d0: 6509 8d3c 894f ea3c 3caa 3cbb a435 7cbb

encoder_mean.16.bias f4 [10]
0.001392906 0.08781498 -0.09094804 0.0034073605 0.018073928 -0.012922881 0.30164987 0.24687792
-0.005685473 0.018816547
00000000: 2b92 b63a 57d8 b33d f742 babd 064e 5f3b
00000010: c60f 943c 7eba 53bc da71 9a3e 91cd 7c3e
00000020: 344d babb 2925 9a3c

encoder_var.0.weight f4 [20, 3]
-0.054044645 0.0062155407 -0.008847792 -0.025020387 -0.08806307 -0.02272531 -0.1017975 -0.034867655
-0.05645015 0.025461834 -0.053725503 0.009836257 -4.6734283e-09 -8.351815e-05 -2.523218e-05 0.0047075595
-3.2360753e-05 0.0008405204 -0.03577053 0.055977594 0.034013547 -0.0064583505 0.039550405 0.045309372
3.146711e-08 4.2003356e-07 1.8717172e-05 0.0038291628 -0.07627579 -0.022628596 0.04661129 -0.035747454
0.002622649 -7.3142364e-05 6.857363e-06 1.2387075e-05 -0.0026981926 0.00013887532 0.0004492316 -0.058584824
0.000974862 -0.014307112 -0.027697904 0.07366084 0.0023990609 3.8888496e-07 0.0008554076 0.0009148559
0.0003886472 -0.004330133 0.0011270503 0.070662364 -0.022266429 0.0095376205 0.017218465 0.02031525
0.012091811 -0.0010520555 -1.0512314e-05 -0.00037015715
00000000: eb5d 5dbd bcab cb3b 54f6 10bc 8ef7 ccbc
00000010: 695a b4bd 6e2a babc 357b d0bd 63d1 0ebd
00000020: 4638 67bd 5695 d03c 460f 5cbd 4128 213c
00000030: e993 a0b1 7726 afb8 b2a9 d3b7 df41 9a3b
00000040: 18bb 07b8 5f56 5c3a 1f84 12bd c348 653d
00000050: ca51 0b3d 92a0 d3bb 9bff 213d 5296 393d
00000060: 7426 0733 f980 e134 d202 9d37 b1f2 7a3b
00000070: 7b36 9cbd 9b5f b9bc 7beb 3e3d ec6b 12bd
00000080: c0e0 2b3b 0264 99b8 4d18 e636 15d2 4f37
00000090: 29d4 30bb 0f9f 1139 d886 eb39 a4f6 6fbd
000000a0: e28d 7f3a 6168 6abc b7e6 e2bc 7fdb 963d
000000b0: 9039 1d3b f1c7 d034 6f3d 603a f1d2 6f3a
000000c0: 58c3 cb39 cae3 8dbb 88b9 933a 6eb7 903d
000000d0: 1668 b6bc ae43 1c3c bd0d 8d3c 2b6c a63c
000000e0: bb1c 463c 20e5 89ba 0b5e 30b7 a711 c2b9

encoder_var.0.bias f4 [20]
-5.836931e-09 3.062156e-07 -1.8057929e-07 -5.172146e-08 -1.3970719e-15 7.002685e-13 -1.4725256e-07 4.0288988e-08
-1.6432934e-14 -1.1709815e-08 -2.809079e-07 -1.2778942e-13 -2.2894115e-11 -1.5971231e-07 -1.3305976e-07 -4.052353e-13
-1.8863097e-12 4.3289205e-08 3.928966e-08 1.806801e-12
00000000: 308e c8b1 f465 a434 42e5 41b4 5924 5eb3
00000010: db56 c9a6 aa1b 452b 7a1c 1eb4 360a 2d33
00000020: c403 94a8 502c 49b2 b0cf 96b4 cbe0 0faa
00000030: f760 c9ad 637d 2bb4 30df 0eb4 9020 e4aa
00000040: bcbc 04ac fcec 3933 70bf 2833 de48 fe2b

encoder_var.1.weight f4 [20]
0.06051205 0.089947276 0.0767142 0.057619564 -1.4479941e-06 -0.0003523111 0.07152583 0.036360208
6.681353e-07 0.079643816 0.051353507 9.1941126e-07 0.0010664783 0.047945406 0.09363059 5.025716e-05
-0.0014381992 0.06482451 0.03378169 0.00044312567
00000000: 7cdb 773d 4736 b83d 561c 9d3d 7e02 6c3d
00000010: b358 c2b5 65b6 b8b9 227c 923d 71ee 143d
00000020: e959 3335 4c1c a33d 0e58 523d 76cd 7635
00000030: 13c9 8b3a 6762 443d 65c1 bf3d 37cb 5238
00000040: f581 bcba b6c2 843d ab5e 0a3d 5253 e839

encoder_var.1.bias f4 [20]
-0.011819035 -0.04211701 -0.033883158 -0.01663664 -1.9236613e-06 -0.0008214642 -0.051701196 -0.027916385
1.6401329e-05 -0.027280737 -0.032596905 -1.1155929e-06 -0.0005151189 -0.035841636 -0.04597494 -2.8925442e-05
-0.006224503 -0.042220205 -0.009483932 -0.00028673446
00000000: a0a4 41bc e382 2cbd 11c9 0abd 9049 88bc
00000010: 4018 01b6 8757 57ba a2c4 53bd e7b0 e4bc
00000020: 9695 8937 da7b dfbc 5584 05bd 7bbb 95b5
00000030: 0b09 07ba aece 12bd 3850 3cbd eaa4 f2b7
00000040: eaf6 cbbb 18ef 2cbd 7e62 1bbc d954 96b9

encoder_var.1.running_mean f4 [20]
-0.025908295 -0.07049185 -0.09096697 -0.011894691 -6.586968e-05 0.002798934 0.024974314 0.038858213
1.0889272e-05 -0.048756633 0.011482056 -3.1357413e-05 -0.0011020065 -0.03501614 0.03682517 0.0009378783
-0.0016732884 0.03578638 0.0224133 -0.00079329807
00000000: a23d d4bc 085e 90bd e44c babd f3e1 42bc
00000010: 8423 8ab8 526e 373b ef96 cc3c ca29 1f3d
00000020: 11b1 3637 09b5 47bd 3c1f 3c3c c485 03b8
00000030: 3471 90ba 166d 0fbd fdd5 163d f3db 753a
00000040: 3e52 dbba bd94 123d 199c b73c 55f5 4fba

encoder_var.1.running_var f4 [20]
9.172822e-05 0.0004244758 0.00068112876 8.017813e-05 4.8465143e-10 8.3223057e-07 0.0001639486 0.00019673727
1.8369847e-11 0.0002831886 5.1827345e-05 1.7122545e-10 1.8311606e-07 0.000121883684 0.00019965843 9.992594e-08
4.7485764e-07 0.00016040994 4.031811e-05 6.4898956e-08
00000000: 375e c038 2d8c de39 c78d 323a 4e25 a838
00000010: 5038 0530 7366 5f35 9ee9 2b39 424b 4e39
00000020: 3895 a12d ee78 9439 3061 5938 ae43 3c2f
00000030: 8f9e 4434 ce9b ff38 675b 5139 de96 d633
00000040: f0ef fe34 b733 2839 3e1b 2938 945e 8b33

encoder_var.4.weight f4 [16, 20]
0.0027012723 -0.003597505 0.008060806 0.0035972395 2.2293398e-06 1.4588966e-06 0.00030220795 0.009421304
-3.850383e-06 -0.0013611943 0.00015325917 -5.7470942e-08 3.3943226e-05 0.007502034 0.0077567147 -3.9365823e-05
-5.840604e-06 -0.0039595864 9.0987196e-05 9.194314e-05 0.020704336 0.013846089 0.04131954 0.012544928
-7.5940326e-10 -6.7761416e-06 0.003784758 0.00039693335 -4.0122645e-06 0.028472185 0.004106696 3.3803312e-07
2.1125054e-05 0.01756952 0.039863355 -7.917411e-09 -1.0848948e-06 0.0258735 0.0051994845 -3.463548e-07
3.526032e-06 1.713994e-09 5.087511e-07 1.5646243e-08 4.0476775e-10 -2.7288671e-09 -8.295348e-06 -1.1522676e-06
7.0100503e-10 3.5248712e-10 3.7263725e-08 -1.5118249e-09 -8.751575e-09 3.881637e-07 1.9883611e-10 9.563862e-08
3.5283824e-06 -4.2265036e-10 8.38592e-09 -2.2215628e-08 -0.0032646498 -0.005207153 -0.0038442626 0.0006569589
-0.0024857682 -8.617194e-06 -0.008209202 -0.0045557176 0.00018170517 -0.0022387328 -0.002366424 -1.0001857e-05
-5.571493e-05 -0.00056004024 -0.0022553406 0.00029031822 -0.002146771 -0.015106286 -0.0041305926 -8.134162e-05
4.968622e-10 -6.8993855e-10 -4.9572246e-10 4.218022e-09 -1.3877519e-09 -3.8955608e-09 9.929491e-09 -5.5368634e-09
5.6525246e-10 1.7823157e-09 2.5834908e-09 1.040545e-09 9.91173e-10 -1.038297e-09 -1.0127588e-09 1.1667095e-09
6.0803695e-10 1.9616886e-09 9.648711e-10 1.9367918e-09 0.022972574 0.036885533 0.029013528 0.036650274
8.762923e-07 -1.0479628e-06 0.02776042 0.007392856 -3.2786513e-06 0.017486203 0.027942441 -1.6803479e-07
5.755113e-05 0.01341654 0.033045236 4.6614183e-05 -1.5615102e-05 0.024773687 0.01669729 0.00012525581
-0.015629651 -0.015993267 -0.026164029 -0.018323112 -1.0832951e-10 1.3465073e-07 -0.043095663 -0.008736248
7.196994e-06 -0.02863381 -0.020851081 9.759188e-08 -2.6293456e-09 -0.015411759 -0.03403124 -1.9167203e-07
1.2060717e-06 -0.013870055 -0.014760147 -3.2601125e-07 -0.008554801 -0.013687836 -0.010465198 -0.0062574837
-1.137177e-05 -2.372447e-08 -0.010108526 -0.004391294 8.48842e-06 -0.0042380807 -0.005484497 -2.6418792e-09
5.72607e-07 -0.008659937 -0.015031721 -0.0003183934 -2.1131145e-06 -0.0101320455 -0.0064082923 -5.5188018e-08
4.0819406e-05 -7.8111734e-05 0.000648378 -5.992926e-06 -5.4979773e-05 6.0836734e-05 0.00010535793 0.0004684165
-2.0258873e-05 6.155356e-05 1.264659e-05 -1.1228293e-07 -7.721337e-05 0.0004521186 0.00018179658 6.796397e-06
-5.4204087e-05 -1.31706865e-05 0.0012519321 -4.76998e-05 -4.803157e-09 2.9923642e-06 3.2819038e-08 2.063874e-06
2.641946e-10 2.3847399e-08 4.235231e-06 -1.3576494e-09 -9.0589986e-10 2.6607632e-08 -2.1328053e-09 -9.653327e-09
-6.5975745e-09 2.7763867e-09 -3.476647e-08 4.8216574e-08 -1.0844907e-06 -6.814783e-06 -2.988757e-06 -6.111172e-09
0.030972157 0.039879795 0.028786601 0.0153021235 3.5278097e-06 -3.7514837e-05 0.026313411 0.007325012
6.888519e-06 0.020322302 0.016533047 -2.7353665e-06 5.521908e-06 0.02973415 0.030948777 -2.4918515e-06
-0.000364208 0.021561392 0.010227706 3.296426e-05 -5.8392305e-07 0.00011697179 5.922074e-07 -1.5826625e-05
1.216898e-07 1.06985766e-07 -3.6332895e-05 -8.511409e-06 7.108334e-08 -0.000100655096 -2.7922725e-08 8.78018e-10
-4.3851546e-07 9.086822e-06 1.2772373e-06 -5.283728e-06 -4.5918434e-05 3.5059897e-05 -8.7306225e-06 2.9418956e-07
0.03499435 0.017199947 0.04164667 0.030968435 5.1645575e-08 -8.3909305e-07 0.0338003 0.009727642
-2.4563014e-06 0.0018745614 0.032011162 1.3264483e-07 1.4953443e-05 0.009217422 0.06315329 -4.8503694e-06
00000000: d407 313b 1ec4 6bbb 7911 043c aabf 6b3b
00000010: c49b 1536 4ecf c335 aa71 9e39 d05b 1a3c
00000020: 8a32 81b6 1a6a b2ba 32b4 2039 f8d5 76b3
00000030: 435e 0e38 9fd3 f53b 0a2c fe3b bb1c 25b8
00000040: 68fa c3b6 6bbf 81bb 61d0 be38 99d1 c038
00000050: 249c a93c b5da 623c ae3e 293d 3e89 4d3c
00000060: 41be 50b0 9d5e e3b6 b409 783b 7e1b d039
00000070: 17a1 86b6 803e e93c 7791 863b eb7a b534
00000080: b535 b137 f4ed 8f3c c247 233d 2405 08b2
00000090: b49c 91b5 aaf4 d33c 7060 aa3b a4f2 b9b4
000000a0: c5a0 6c36 cd91 eb30 1c91 0835 7466 8632
000000b0: ff85 de2f bd86 3bb1 402c 0bb7 9da7 9ab5
000000c0: d8b0 4030 27c8 c12f e60b 2033 9cc8 cfb0
000000d0: d559 16b2 d064 d034 649f 5a2f e361 cd33
000000e0: 26c9 6c36 c05a e8af ab11 1032 afd4 beb2
000000f0: bcf3 55bb c4a0 aabb 06f0 7bbb c437 2c3a
00000100: 45e8 22bb 9192 10b7 e47f 06bc 2148 95bb
00000110: 1c88 3e39 b4b7 12bb 0216 1bbb a6cd 27b7
00000120: 73af 69b8 aacf 12ba 56ce 13bb da35 9839
00000130: d7b0 0cbb 5b80 77bc ec59 87bb f395 aab8
00000140: 9293 0830 1ca6 3db0 5e43 08b0 1dee 9031
00000150: 2ebb beb0 b7d9 85b1 5d96 2a32 c43e beb1
00000160: 1b60 1b30 a9f5 f430 4089 3131 ec02 8f30
00000170: cd39 8830 d4b3 8eb0 4831 8bb0 f159 a030
00000180: cc22 2730 64ce 0631 629c 8430 6718 0531
00000190: fb30 bc3c 4915 173d c7ad ed3c 991e 163d
000001a0: 593a 6b35 baa7 8cb5 d269 e33c c53f f23b
000001b0: cd06 5cb6 3a3f 8f3c 8ce7 e43c 0d6d 34b4
000001c0: 0e63 7138 0cd1 5b3c 715a 073d 9983 4338
000001d0: 2dfd 82b7 30f2 ca3c c1c8 883c 1a57 0339
000001e0: c109 80bc 5004 83bc f255 d6bc 5a1a 96bc
000001f0: 1838 eeae 8394 1034 1485 30bd 7b22 0fbc
00000200: b57d f136 7491 eabc e3cf aabc b493 d133
00000210: f0af 34b1 9a81 7cbc 5764 0bbd 68ce 4db4
00000220: 4fe0 a135 3a3f 63bc 8bd4 71bc a506 afb4
00000230: 7029 0cbc f242 60bc 3976 2bbc 940b cdbb
00000240: 61c9 3eb7 a9ca cbb2 3b9e 25bc d8e4 8fbb
00000250: 7c69 0e37 99df 8abb 4cb7 b3bb 6e8c 35b1
00000260: 41b5 1935 69e2 0dbc 9c47 76bc 0aee a6b9
00000270: 08cf 0db6 e100 26bc a7fc d1bb de07 6db3
00000280: 8135 2b38 ebcf a3b8 e9f7 293a d816 c9b6
00000290: 159a 66b8 f22a 7f38 9cf3 dc38 cc95 f539
000002a0: 99f1 a9b7 5116 8138 b12c 5437 3220 f1b3
000002b0: 9ded a1b8 550a ed39 a6a0 3e39 9b0c e436
000002c0: 3259 63b8 abf7 5cb7 df17 a43a 4511 48b8
000002d0: 0409 a5b1 6dd0 4836 eaf4 0c33 1681 0a36
000002e0: 163e 912f fcd8 cc32 5b1c 8e36 0b98 bab0
000002f0: 0903 79b0 cd8e e432 b590 12b1 c8d7 25b2
00000300: e1b0 e2b1 b6ca 3e31 2352 15b3 af16 4f33
00000310: d18e 91b5 8aaa e4b6 7492 48b6 70fa d1b1
00000320: 52b9 fd3c ff58 233d e1d1 eb3c c2b5 7a3c
00000330: 4fbf 6c36 4059 1db8 398f d73c a706 f03b
00000340: ed23 e736 f57a a63c 5070 873c 3d91 37b6
00000350: d448 b936 0895 f33c 4a88 fd3c af39 27b6
00000360: 2cf3 beb9 84a1 b03c 1c92 273c 1b43 0a38
00000370: e3be 1cb5 c04e f538 2ff8 1e35 6bc3 84b7
00000380: d6a9 0234 0cc0 e533 2664 18b8 39cc 0eb7
00000390: 7ba6 9833 cb16 d3b8 b9da efb2 0659 7130
000003a0: 1b6d ebb4 9a73 1837 8a6d ab35 e14a b1b6
000003b0: 8b98 40b8 470d 1338 bd79 12b7 1bf1 9d34
000003c0: 3c56 0f3d e7e6 8c3c b395 2a3d 84b1 fd3c
000003d0: e9d0 5d33 093e 61b5 2f72 0a3d b060 1f3c
000003e0: f0d6 24b6 d8b3 f53a 231e 033d 226d 0e34
000003f0: 8ce0 7a37 ac04 173c 8356 813d 5bc0 a2b6

encoder_var.4.bias f4 [16]
-1.5090265e-08 -3.724186e-07 -8.733059e-14 -9.435859e-10 -7.262415e-15 -9.4366624e-07 2.4162996e-06 -9.3546795e-08
3.16841e-13 5.4492996e-15 -1.0672907e-06 -5.185007e-12 -9.569565e-08 3.0319572e-07 4.1449634e-15 -6.624311e-09
00000000: d89f 81b2 d3f0 c7b4 a8a6 c4a9 7aaf 81b0
00000010: fad3 02a8 4050 7db5 b627 2236 e5e3 c8b3
00000020: 9a5d b22a eb54 c427 d43f 8fb5 646e b6ac
00000030: 3d81 cdb3 e7c6 a234 8a56 9527 0e9c e3b1

encoder_var.5.weight f4 [16]
-0.0013263372 0.055690046 4.147844e-06 0.0035251006 1.2779857e-06 0.055156976 0.04614877 0.023222148
0.00031523072 8.8375003e-07 0.056155212 -0.00037749152 0.063688554 0.047448795 3.126134e-05 0.006762755
00000000: 7ed8 adba 3f1b 643d b52d 8b36 6005 673b
00000010: 4187 ab35 48ec 613d 7e06 3d3d 603c be3c
00000020: 8d45 a539 d73a 6d35 0203 663d 0eea c5b9
00000030: 256f 823d ab59 423d 9c1e 0338 1a9a dd3b

encoder_var.5.bias f4 [16]
-0.01953194 6.9534406e-05 -3.3267398e-08 -0.0074449284 -4.5581118e-07 0.029308505 0.010689689 0.009847544
-0.0003281182 -8.9793133e-07 0.041898545 -0.00014541396 0.032997925 0.01143441 -0.00013565797 0.00018513267
00000000: 7201 a0bc 00d3 9138 e4e1 0eb3 96f4 f3bb
00000010: 36b6 f4b4 6418 f03c ce23 2f3c 9857 213c
00000020: 4807 acb9 5f09 71b5 cf9d 2b3d 437a 18b9
00000030: d528 073d 6457 3b3c 693f 0eb9 2c20 4239

encoder_var.5.running_mean f4 [16]
0.00038860974 0.0035872492 -7.6436656e-08 -0.000766328 2.597889e-10 0.0042643473 -0.0038555712 -0.0015261524
3.2708427e-05 6.7391e-08 0.0040853075 2.595322e-07 0.004610026 0.0015085395 -6.637128e-07 0.00031590424
00000000: 51be cb39 0e18 6b3b 7f25 a4b3 67e3 48ba
00000010: 0ad2 8e2f f0bb 8b3b c0ad 7cbb 2d09 c8ba
00000020: 6830 0938 98b8 9033 0bde 853b d555 8b34
00000030: b30f 973b 30ba c53a ff29 32b5 f39f a539

encoder_var.5.running_var f4 [16]
4.7105718e-07 1.1715285e-05 1.7176003e-13 6.248922e-07 4.3339694e-19 1.5522266e-05 1.3686907e-05 2.0807659e-06
1.6642312e-09 1.5177119e-13 1.4901459e-05 2.0797405e-11 2.0393973e-05 7.3520787e-06 1.1280703e-12 9.980667e-08
00000000: 9be5 fc34 c48c 4437 7562 412a 44be 2735
00000010: 18d5 ff20 d035 8237 d1a0 6537 49a3 0b36
00000020: eeba e430 11e1 2a2a 4701 7a37 98ef b62d
00000030: b913 ab37 e0b1 f636 04c3 9e2b 4c55 d633

encoder_var.8.weight f4 [14, 16]
-0.0024902397 -0.006883883 2.163833e-06 0.00015723913 2.9168215e-05 -0.0069197337 0.0052730544 0.0028930171
0.000430439 7.766025e-06 -0.0059660384 -1.5924128e-05 -0.0057406584 -0.001965794 9.878612e-06 -0.00048184014
3.7169513e-05 0.017565072 9.580057e-09 1.0381582e-05 -3.8542143e-09 0.014240466 -0.0025184806 -0.0034001884
-3.8844302e-08 1.1128941e-06 0.018770562 2.781937e-07 0.018722445 0.0056707268 3.576831e-08 -4.7401296e-05
-0.012482588 0.0069354028 4.212191e-07 1.0177974e-05 -1.1113104e-09 0.014149492 -0.00753402 -0.0063401796
-4.9459846e-08 5.4230815e-09 0.036288813 -2.3030464e-07 0.021267846 0.016736574 5.018306e-07 0.0002651212
-0.0025045949 0.019592969 2.2276497e-10 -0.0012261913 -8.8252484e-08 0.009760106 -0.008737027 -0.0059320386
2.4696532e-05 2.4925912e-06 0.018484207 2.3771814e-05 0.019885035 0.016824506 1.5624802e-05 0.0014206881
-0.0048775333 -0.020219475 -9.26832e-06 -7.485767e-06 -2.8081677e-08 -0.017049165 0.013639701 0.0065686908
-1.0861711e-07 -4.7403387e-07 -0.017313702 3.146014e-07 -0.01402989 -0.003919443 -6.9751867e-09 -0.00092952605
-0.005426038 0.016462557 9.613837e-09 -3.4047247e-05 8.547845e-09 0.013988905 -0.0015376534 -0.0029690766
-2.3518301e-07 -1.7340355e-08 0.01714486 -3.5003418e-07 0.025873479 0.019566366 2.454716e-09 0.00079800666
-0.0016790223 0.02823282 4.2205626e-09 -7.599501e-05 -1.1047497e-08 0.018723717 -0.007882989 -0.007680915
-2.7744756e-05 1.6080266e-08 0.030517183 5.437605e-07 0.02798003 0.015759224 -6.306685e-08 0.0010323884
0.0011423228 0.018541837 9.1289917e-07 -3.645003e-05 5.3348704e-06 0.016523467 -0.003851002 -0.011468749
0.0009833904 8.725249e-06 0.032265056 -5.1351476e-06 0.03272819 0.024986291 8.7647575e-05 0.003358098
-3.7298986e-10 1.04115855e-10 2.7470086e-13 1.59737e-11 -4.4948346e-12 4.9331754e-12 2.386497e-10 1.2050336e-10
-1.085067e-11 1.3988829e-11 6.133189e-10 -5.0636713e-12 8.407367e-10 -3.500657e-10 9.117568e-12 -7.5605333e-10
-0.0056484356 -0.01228094 1.13506e-09 5.2845957e-05 6.7654423e-07 -0.012271144 0.011832522 0.0048272125
-1.224404e-07 1.3754579e-08 -0.012620046 -1.36080835e-05 -0.008115742 -0.005678764 -5.383928e-07 -0.0012771856
1.25502065e-05 -1.6907031e-06 1.5631213e-09 1.2288621e-06 -3.0454315e-09 -2.1551818e-06 -2.6241537e-07 4.7885635e-07
-1.6261712e-06 -4.289965e-09 7.3502235e-07 6.609831e-08 5.3681964e-07 -1.5807612e-06 -5.955802e-09 3.7131383e-06
1.7859986e-06 3.8388185e-07 2.5006205e-10 -1.2201697e-07 1.4448096e-09 1.714446e-06 7.454018e-09 -3.9438814e-06
2.9526078e-05 -5.5455995e-09 1.17562695e-05 -1.0719999e-08 2.372516e-06 -1.7078332e-08 4.7745547e-11 1.8872344e-06
-0.00907189 -0.022080477 9.973263e-07 0.004597757 7.2745775e-07 -0.027585402 0.029660203 0.011044083
8.075522e-06 -4.9435154e-09 -0.021161497 -3.3403623e-05 -0.017039154 -0.011826102 -3.95113e-05 -0.0043763714
-0.0013827332 -0.025855592 4.0681316e-09 0.00091211445 -8.051222e-09 -0.013314954 0.010421209 0.0070395577
-3.512676e-08 -5.671962e-07 -0.01593417 1.4674711e-07 -0.01738975 -0.008148849 -1.4137656e-11 -0.0029977933
00000000: 4a33 23bb 3292 e1bb 5e36 1136 8fe0 2439
00000010: 44ae f437 efbe e2bb 96c9 ac3b c698 3d3b
00000020: 8bac e139 d34a 0237 c27e c3bb ce94 85b7
00000030: 221c bcbb 8dd4 00bb 51bc 2537 7d9f fcb9
00000040: 76e6 1b38 a0e4 8f3c 8995 2432 8e2c 2e37
00000050: 076e 84b1 d850 693c 180d 25bb b2d5 5ebb
00000060: c3d5 26b3 c05e 9535 b9c4 993c a75a 9534
00000070: d05f 993c 81d1 b93b ac9f 1933 c1d0 46b8
00000080: c583 4cbc 6042 e33b ea23 e234 11c2 2a37
00000090: c2bc 98b0 45d3 673c f1df f6bb 48c1 cfbb
000000a0: ad6d 54b3 ee55 ba31 94a3 143d a849 77b4
000000b0: e839 ae3c 241b 893c 89b5 0635 f7ff 8a39
000000c0: 2124 24bb 6f81 a03c c4ee 742f 27b8 a0ba
000000d0: 5185 bdb3 dae8 1f3c bf25 0fbc 8c61 c2bb
000000e0: 662b cf37 6446 2736 316c 973c 9569 c737
000000f0: f1e5 a23c 8cd3 893c 0212 8337 6236 ba3a
00000100: b7d3 9fbb 50a3 a5bc 227f 1bb7 402e fbb6
00000110: 4338 f1b2 b1aa 8bbc 0d79 5f3c 2c3e d73b
00000120: e340 e9b3 b87e feb4 77d5 8dbc 7de6 a834
00000130: a0dd 65bc ac6e 80bb 64aa efb1 70ab 73ba
00000140: e8cc b1bb 7cdc 863c 1a2a 2532 f4cd 0eb8
00000150: d2d9 1232 b831 653c 168b c9ba d794 42bb
00000160: 9d86 7cb4 d8f3 94b2 6173 8c3c 55ec bbb4
00000170: 9ef4 d33c a549 a03c d2af 2831 5231 513a
00000180: a412 dcba 8448 e73c 7604 9131 835f 9fb8
00000190: 68cb 3db2 7b62 993c a727 01bc 2fb0 fbbb
000001a0: 69bd e8b7 e120 8a32 2cff f93c f0f6 1135
000001b0: 6036 e53c 7d19 813c 5e6f 87b3 3551 873a
000001c0: feb9 953a 0de5 973c f40d 7535 ece1 18b8
000001d0: 3002 b336 395c 873c 1861 7cbb 6be7 3bbc
000001e0: 1be5 803a a962 1237 5d28 043d 954e acb6
000001f0: ff0d 063d 0db0 cc3c 6fcf b738 8913 5c3b
00000200: a80d cdaf 04f4 e42e 91a4 9a2a 9381 8c2d
00000210: df25 9eac 1892 ad2c f632 832f ae7e 042f
00000220: 13e3 3ead 1618 762d 7b96 2830 7f29 b2ac
00000230: 9619 6730 5e73 c0af e065 202d 86d2 4fb0
00000240: 8316 b9bb ff35 49bc 6000 9c30 eaa6 5d38
00000250: c49b 3535 e90c 49bc 32dd 413c 982d 9e3b
00000260: 2978 03b4 474d 6c32 4fc4 4ebc 464e 64b7
00000270: e4f7 04bc ed14 babb 1286 10b5 3d67 a7ba
00000280: ba8e 5237 1eec e2b5 71d5 d630 61ef a435
00000290: cc47 51b1 bea1 10b6 18e2 8cb4 c28a 0035
000002a0: d142 dab5 ee66 93b1 5a4e 4535 eef1 8d33
000002b0: f719 1035 8b2a d4b5 caa3 ccb1 3b2f 7936
000002c0: 72b6 ef35 5218 ce34 1b79 892f c503 03b4
000002d0: b892 c630 ea1b e635 1e0f 0032 af55 84b6
000002e0: c5ae f737 9c8b beb1 cb3c 4537 0e2b 38b2
000002f0: 8437 1f36 a6b3 92b2 b5fc 512e e14c fd35
00000300: 44a2 14bc 1ee2 b4bc dfdb 8535 c8a8 963b
00000310: 8446 4335 c8fa e1bc f4f9 f23c 3ef2 343c
00000320: 1a7c 0737 9fdb a9b1 e05a adbc de1a 0cb8
00000330: b295 8bbc 44c2 41bc efb8 25b8 aa67 8fbb
00000340: d43c b5ba 1bcf d3bc aac7 8b31 f71a 6f3a
00000350: a651 0ab2 f726 5abc b8bd 2a3c 17ac e63b
00000360: 48de 16b3 6d41 18b5 6088 82bc 8a91 1d34
00000370: f374 8ebc c082 05bc 58b6 78ad a076 44bb

encoder_var.8.bias f4 [14]
-1.1105766e-08 8.087979e-08 -1.4925089e-08 3.715452e-08 2.9088127e-07 -4.527327e-07 2.2269582e-07 -1.2132801e-06
-3.1807464e-15 3.0244396e-07 2.8013286e-12 -7.697766e-14 5.1573375e-07 4.0740012e-08
00000000: adcb 3eb2 23b0 ad33 9e34 80b2 d493 1f33
00000010: 6b2a 9c34 1c0f f3b4 291e 6f34 fdd7 a2b5
00000020: 6a32 65a7 955f a234 4020 452c 9a56 ada9
00000030: f470 0a35 1efa 2e33

encoder_var.9.weight f4 [14]
0.016566247 0.039279938 0.05768897 0.048493937 0.053182893 0.04976357 0.07016791 0.077604346
-1.1866086e-08 0.030441 -6.3310064e-05 7.924592e-07 0.07619639 0.055368368
00000000: f0b5 873c 00e4 203d 454b 6c3d 94a1 463d
00000010: 4ed6 593d e3d4 4b3d 31b4 8f3d 07ef 9e3d
00000020: 99db 4bb2 675f f93c 55c5 84b8 62b9 5435
00000030: da0c 9c3d f1c9 623d

encoder_var.9.bias f4 [14]
0.004114795 0.025010759 0.039899915 0.029909056 0.027041497 0.033180665 0.04513475 0.04587649
-0.00017890775 0.009018864 -1.3584268e-05 -1.9234672e-06 0.041583017 0.011343396
00000000: 67d5 863b 5de3 cc3c 186e 233d d603 f53c
00000010: 2186 dd3c 73e8 073d 37df 383d fde8 3b3d
00000020: 2f99 3bb9 dbc3 133c fde7 63b7 ea14 01b6
00000030: f452 2a3d a7d9 393c

encoder_var.9.running_mean f4 [14]
-0.0008439553 0.0024493323 0.0033460206 0.002542508 -0.0021036495 0.0027264133 0.0035323184 0.0035896546
1.2294472e-10 -0.0013022093 1.5582549e-07 7.970548e-07 -0.0022072135 -0.0028758526
00000000: e23c 5dba fa84 203b e948 5b3b 35a0 263b
00000010: 62dd 09bb a0ad 323b 787e 673b 6940 6b3b
00000020: dd2d 072f e5ae aaba fc50 2734 30f5 5535
00000030: e6a6 10bb cd78 3cbb

encoder_var.9.running_var f4 [14]
1.5391638e-06 9.181902e-06 1.7518498e-05 1.2885977e-05 1.0108748e-05 1.362613e-05 2.1258798e-05 2.1796743e-05
2.0973252e-20 4.271858e-06 5.9554434e-13 8.390428e-13 1.6215085e-05 1.7132847e-05
00000000: 4495 ce35 f80b 1a37 b0f4 9237 da30 5837
00000010: be98 2937 c89b 6437 ec54 b237 26d8 b637
00000020: 3616 c61e fb56 8f36 7ea1 272b 682b 6c2b
00000030: a105 8837 82b8 8f37
