generativecf/models/bn1-margin-0.324-validity_reg-72.0-ae_reg-24.0-epoch-50-ae-gen.pth (torch_old, 30881 bytes, 78 tensors)

encoder_mean.0.weight f4 [20, 4]
-0.7458866 0.29612723 -0.025279496 -0.00992731 0.7075371 -0.56955034 0.18320505 0.027144676
-1.0096349 -0.010451797 0.024616636 -0.00836759 -0.67035896 -0.5903263 -0.66212827 -0.084622025
0.39204326 0.9090919 0.43192014 0.020856325 -0.3038945 -0.70081306 -0.1979828 -0.054495696
-0.6158416 0.8915498 0.30777782 0.0023479424 0.42985362 -1.1480314 -0.018983426 -0.016297992
-0.6266243 0.17014389 0.19256671 0.2394207 0.69507223 0.70592487 0.21757428 -0.053129237
0.9152409 0.0151047725 -0.023735838 0.006801765 0.4762587 -1.121527 -0.2743032 0.0021811526
-0.33605748 -0.9034937 0.030266492 -0.0023004625 0.9812445 -0.11761208 0.49447888 0.042937446
-0.78937143 -0.3230568 -0.38398874 0.036930546 0.38267893 0.69336706 -0.13719444 -0.0062034624
-0.39719576 0.6022257 -0.21402071 0.024322463 -0.5379085 -0.5153732 0.15995535 -0.031189881
-0.95976144 0.24259599 0.10458804 -0.016170023 -0.46877337 1.0471586 0.24621733 0.031226324
00000000: 6df2 3ebf fd9d 973e f216 cfbc 28a6 22bc
00000010: 2721 353f 0dce 11bf 1b9a 3b3e 835e de3c
00000020: b73b 81bf 043e 2bbc d4a8 c93c 3718 09bc
00000030: a59c 2bbf a01f 17bf 3d81 29bf 504e adbd
00000040: e5b9 c83e 3fba 683f a324 dd3e e2da aa3c
00000050: 0f98 9bbe 7c68 33bf 01bc 4abe e136 5fbd
00000060: cca7 1dbf 9c3c 643f 0e95 9d3e f0df 193b
00000070: c615 dc3e b1f2 92bf 2183 9bbc 5e83 85bc
00000080: 736a 20bf 333a 2e3e 3530 453e b32a 753e
00000090: 41f0 313f 7eb7 343f cbcb 5e3e 0b9e 59bd
000000a0: 3a4d 6a3f 027a 773c a971 c2bc 57e1 de3b
000000b0: 2ed8 f33e 328e 8fbf 7871 8cbe abf1 0e3b
000000c0: ba0f acbe 5d4b 67bf 6ff1 f73c 5bc3 16bb
000000d0: d732 7b3f 9ade f0bd 562c fd3e 2ddf 2f3d
000000e0: 3f14 4abf b367 a5be 2c9a c4be 7c44 173d
000000f0: 7eee c33e 8180 313f b37c 0cbe 6a46 cbbb
00000100: 3e5d cbbe 772b 1a3f 3f28 5bbe e73f c73c
00000110: 5fb4 09bf 7fef 03bf 56cb 233e ec81 ffbc
00000120: edb2 75bf 156b 783e 4132 d63d ff76 84bc
00000130: 1003 f0be 4b09 863f 6520 7c3e 59ce ff3c

encoder_mean.0.bias f4 [20]
0.0020223572 -0.00012167963 0.00041534082 -0.00012977027 0.00013475359 0.0009399082 0.00021827682 -0.00024235764
6.260156e-06 0.00048829545 -0.00030057327 0.00015193409 0.00035376137 -0.00020074975 0.00027546988 -0.00013166385
-2.9853143e-05 -0.000975919 0.0019138505 0.0004544066
00000000: 8689 043b 412e ffb8 1ac2 d939 f112 08b9
00000010: a44c 0d39 2c64 763a 3de1 6439 6221 7eb9
00000020: 550e d236 f400 003a 4396 9db9 7f50 1f39
00000030: 0c79 b939 5a80 52b9 f16c 9039 3f0f 0ab9
00000040: 236d fab7 d1d4 7fba 2bda fa3a 6c3d ee39

encoder_mean.1.weight f4 [20]
1.0031751 1.1682819 0.9275346 0.90346485 1.1107957 0.95657337 0.9889352 1.075776
0.55964744 1.0709498 1.2249438 0.98807985 0.93912333 1.2007643 0.93697965 1.0635937
1.0249852 1.0368721 1.0797933 1.0911148
00000000: 0b68 803f 438a 953f e872 6d3f 7949 673f
00000010: 8e2e 8e3f fee1 743f db2a 7d3f 07b3 893f
00000020: 0e45 0f3f e214 893f f5ca 9c3f cdf2 7c3f
00000030: 636a 703f a5b2 993f e6dd 6f3f d723 883f
00000040: b732 833f 3ab8 843f ab36 8a3f a6a9 8b3f

encoder_mean.1.bias f4 [20]
-0.12500635 -0.27700683 0.1245787 -0.35109636 -0.2478263 -0.047352538 -0.23706774 -0.06732695
-0.45603973 -0.24251533 0.03450715 -0.019154241 0.05987925 -0.31379235 -0.2594271 -0.25695634
-0.24150212 -0.16999914 -0.30262646 -0.47476262
00000000: aa01 00be d7d3 8dbe 1e23 ff3d e7c2 b3be
00000010: 2dc6 7dbe bcf4 41bd e3c1 72be b6e2 89bd
00000020: 0a7e e9be f055 78be 5f57 0d3d 5be9 9cbc
00000030: f243 753d 64a9 a0be a1d3 84be c88f 83be
00000040: 554c 77be 4114 2ebe dbf1 9abe 1614 f3be

encoder_mean.1.running_mean f4 [20]
-0.2251877 0.12673031 -0.4758692 -0.91426784 0.8186308 -0.5938181 0.28641567 -0.38596767
-0.025073817 0.73833644 0.4377211 -0.443385 -0.58766156 0.6176953 -0.6764123 0.461896
0.02901754 -0.4427728 -0.29952857 0.4194842
00000000: 9b97 66be 97c5 013e 21a5 f3be 750d 6abf
00000010: ca91 513f 7704 18bf 13a5 923e 8e9d c5be
00000020: 9b67 cdbc 9e03 3d3f fb1c e03e 5c03 e3be
00000030: fd70 16bf 4721 1e3f 5b29 2dbf a27d ec3e
00000040: 31b6 ed3c 1eb3 e2be cf5b 99be a2c6 d63e

encoder_mean.1.running_var f4 [20]
0.01587972 0.021357797 0.023507275 0.06283 0.054844175 0.02458216 0.03849581 0.042625822
0.025428822 0.042407922 0.019306578 0.051647346 0.025332374 0.042240947 0.03739981 0.013608798
0.012260561 0.008915091 0.021445733 0.044597965
00000000: 3016 823c 8cf6 ae3c 5492 c03c 04ad 803d
00000010: 49a4 603d 8760 c93c c8ad 1d3d 6a98 2e3d
00000020: 1b50 d03c eeb3 2d3d d428 9e3c 2b8c 533d
00000030: d785 cf3c d804 2d3d 8b30 193d 70f7 5e3c
00000040: 85e0 483c 9a10 123c f6ae af3c 5bac 363d

encoder_mean.4.weight f4 [16, 20]
-0.22376469 0.021985186 -0.10525728 0.024560243 0.20798023 -0.04864118 0.24882476 -0.32762203
0.06837569 0.3250258 0.3441434 -0.36477327 -0.18750764 0.30606657 0.12783663 0.3207121
-0.0066781407 0.1412851 -0.24735028 0.06804963 -0.27041596 0.46133387 0.015560889 -0.032263882
0.09317149 -0.0049827294 -0.093105905 0.2396335 -0.23522228 -0.047389247 0.27522305 0.24304616
0.20882663 0.36181167 0.019568387 -0.052557275 -0.34036058 0.037409686 -0.2076612 -0.4179544
-0.048864275 0.11965712 0.07368376 0.052239213 -0.49448594 0.32827714 0.036516134 0.37415993
-0.18441162 -0.3598201 0.19269387 0.4508921 0.035446532 0.16426057 0.038491853 -0.44424087
-0.18763521 -0.0637682 -0.028539931 -0.018483542 0.16387627 -0.46703702 -0.10070194 -0.29888868
0.16786121 -0.2165949 0.27503377 -0.40925118 -0.03763583 -0.028808407 -0.19773498 -0.1770566
-0.36975038 -0.2617047 -0.23480693 0.09145238 0.2879039 -0.18457456 -0.0049084686 0.395122
0.018474286 -0.41153327 0.05379612 -0.10822834 0.15263653 -0.19657095 0.48377585 -0.10306812
-0.036931977 0.31369108 -0.0646947 -0.04584429 -0.046324912 -0.05392682 0.07486773 0.2832346
0.3967924 -0.11543575 -0.009001021 0.47899544 -0.13498 -0.20021886 0.1650262 0.37457523
-0.13803558 0.20193584 -0.028165977 0.071615145 0.0054559084 -0.05890187 -0.44431606 0.13857295
0.15711732 -0.21989131 0.22653611 -0.07892235 -0.046312403 0.457588 -0.05778365 -0.20431423
0.35900015 -0.06490563 -0.065993436 0.1288306 -0.08040233 0.014595591 0.211064 -0.14575332
0.08541169 -0.13567086 -0.23167793 -0.15291594 -0.0494472 -0.054102708 0.12898926 0.0015128321
0.40443766 0.31285205 0.4924372 -0.07402929 0.24791346 -0.21411867 0.59171337 -0.06249954
-0.16365865 0.20505157 -0.02017157 -0.13597418 -0.12424828 -0.27247477 -0.28226176 -0.068468824
0.07835 -0.27208608 0.33758992 -0.3366598 -0.03376085 0.13669096 0.42184368 0.12774369
0.30379686 -0.11865481 0.24923016 0.54927915 -0.54131997 0.20172796 0.026779467 -0.053841267
0.06491118 -0.082001776 -0.22355488 0.053308547 0.10234722 -0.325615 0.18805924 -0.4264953
0.31551802 0.23842666 0.28061876 -0.18507548 0.4159684 -0.3976676 0.2612129 0.102943115
-0.012217531 0.09648408 0.20194034 -0.09027583 0.122808956 -0.19041462 -0.29476044 -0.06088145
-0.1252123 -0.5145547 0.12072796 0.06310535 0.19989699 -0.0071507934 0.38110393 0.29609093
0.12445291 -0.2512649 -0.08615315 -0.059320472 0.34092072 0.022044512 0.4051418 -0.4348367
-0.0010352334 0.28008297 0.047680303 -0.13177857 -0.077797495 0.0798257 -0.06280297 0.32674643
-0.031387575 -0.15428747 0.0776909 0.464554 -0.13982055 0.29115528 0.01983747 -0.066839814
0.24731144 -0.051749364 -0.17018388 0.13101344 -0.014778056 0.3168524 0.28422374 0.081854254
-0.012798 0.5027739 -0.006459174 0.12444443 -0.13900128 0.038800847 -0.33994257 -0.016039036
-0.1470263 -0.10307362 0.1367228 0.13293901 -0.32451797 0.3810272 -0.25317332 0.202086
0.08183761 -0.053379893 0.14816849 0.32269537 0.4025881 0.05702568 0.36165145 -0.3139015
00000000: 9222 65be 471a b43c 2191 d7bd 9032 c93c
00000010: c5f8 543e f93b 47bd ebcb 7e3e 13be a7be
00000020: 8e08 8c3d c869 a63e 9033 b03e 90c3 babe
00000030: 0102 40be c2b4 9c3e 9be7 023e 6034 a43e
00000040: 4ed4 dabb 0bad 103e 6449 7dbe 9b5d 8b3d
00000050: f673 8abe f433 ec3e 19f3 7e3c 2227 04bd
00000060: b2d0 be3d 2a46 a3bb 4fae bebd 7c62 753e
00000070: 1cde 70be 3a1b 42bd 09ea 8c3e 18e1 783e
00000080: a6d6 553e 613f b93e e24d a03c 4c46 57bd
00000090: be43 aebe e63a 193d 23a5 54be 1efe d5be
000000a0: e825 48bd cb0e f53d 83e7 963d c9f8 553d
000000b0: 432d fdbe f113 a83e f191 153d e491 bf3e
000000c0: 66d6 3cbe 573a b8be 8b51 453e 54db e63e
000000d0: 6230 113d ec33 283e a2a9 1d3d 8a73 e3be
000000e0: 7223 40be e798 82bd 93cc e9bc cc6a 97bc
000000f0: 2ecf 273e 7a1f efbe d23c cebd f007 99be
00000100: cfe3 2b3e 0ecb 5dbe 3ad1 8c3e 5f89 d1be
00000110: 0728 1abd 9cff ebbc 0a7b 4abe 534e 35be
00000120: ec4f bdbe 29fe 85be 3a71 70be 634b bb3d
00000130: 2468 933e 1d01 3dbe 38d7 a0bb 6e4d ca3e
00000140: 6357 973c 7db4 d2be 5259 5c3d d2a6 ddbd
00000150: c04c 1c3e e549 49be 78b1 f73e 6115 d3bd
00000160: fc45 17bd 1e9c a03e a87e 84bd 39c7 3bbd
00000170: 31bf 3dbd 5fe2 5cbd 4154 993d 2004 913e
00000180: 6028 cb3e 9469 ecbd 0579 13bc e43e f53e
00000190: 3238 0abe 2c06 4dbe a1fc 283e 53c8 bf3e
000001a0: 3359 0dbe 45c8 4e3e 56bc e6bc f6aa 923d
000001b0: 7ac7 b23b 1643 71bd 657d e3be 11e6 0d3e
000001c0: 5de3 203e 302b 61be 15f9 673e 0ba2 a1bd
000001d0: 13b2 3dbd f948 ea3e 8cae 6cbd c037 51be
000001e0: dece b73e 3eed 84bd 9127 87bd 2bec 033e
000001f0: faa9 a4bd 5922 6f3c 2921 583e 5c40 15be
00000200: 53ec ae3d 4ded 0abe fb3c 6dbe ff95 1cbe
00000210: 2689 4abd cd9a 5dbd c315 043e 394a c63a
00000220: 7412 cf3e 252e a03e bb20 fc3e ab9c 97bd
00000230: 07dd 7d3e ed41 5bbe 877a 173f 85ff 7fbd
00000240: 2296 27be 0af9 513e d93e a5bc d13c 0bbe
00000250: e275 febd d081 8bbe 9d84 90be 6239 8cbd
00000260: f775 a03d de4e 8bbe 96d8 ac3e ac5e acbe
00000270: d148 0abd b7f8 0b3e e5fb d73e 3ecf 023e
00000280: 438b 9b3e 4b01 f3bd 3136 7f3e 8f9d 0c3f
00000290: f293 0abf c691 4e3e 9d60 db3c a988 5cbd
000002a0: 27f0 843d 8cf0 a7bd 92eb 64be 105a 5a3d
000002b0: 6b9b d13d 02b7 a6be 9a92 403e 985d dabe
000002c0: 948b a13e 1e26 743e 43ad 8f3e 6d84 3dbe
000002d0: cff9 d43e 169b cbbe b2bd 853e d7d3 d23d
000002e0: 0a2c 48bc 7299 c53d 73c9 4e3e 89e2 b8bd
000002f0: 4383 fb3d 0dfc 42be d7ea 96be d45e 79bd
00000300: a737 00be dbb9 03bf 3840 f73d 613d 813d
00000310: ccb1 4c3e 3451 eabb 0e20 c33e 3b99 973e
00000320: 2be1 fe3d cba5 80be 1071 b0bd 06fa 72bd
00000330: 298d ae3e b196 b43c bf6e cf3e eaa2 debe
00000340: abb0 87ba 0967 8f3e 6c4c 433d f6f0 06be
00000350: 4b54 9fbd a87b a33d d89e 80bd 4f4b a73e
00000360: 4290 00bd 89fd 1dbe 681c 9f3d 06da ed3e
00000370: 1e2d 0fbe 4e12 953e 3182 a23c 50e3 88bd
00000380: 363f 7d3e 24f7 53bd af44 2ebe 6328 063e
00000390: a91f 72bc 7a3a a23e c685 913e 34a3 a73d
000003a0: b4ae 51bc cab5 003f 7ba7 d3bb b9dc fe3d
000003b0: 5a56 0ebe a3ed 1e3d f40c aebe 4c64 83bc
000003c0: 108e 16be 4318 d3bd 1001 0c3e 2a21 083e
000003d0: 3827 a6be ff15 c33e ef9f 81be a2ef 4e3e
000003e0: 7a9a a73d e0a4 5abd 7bb9 173e 5438 a53e
000003f0: 0720 ce3e c293 693d 612a b93e b3b7 a0be

encoder_mean.4.bias f4 [16]
2.6386699e-05 3.1073148e-06 2.4509054e-05 -0.00012284007 -1.0252068e-05 3.70803e-05 -1.4914282e-05 -3.877135e-05
-1.1642402e-05 7.4713345e-05 -2.0593321e-05 -5.20197e-05 -1.6477672e-05 -2.8717399e-05 -1.2514323e-05 -8.297655e-05
00000000: 0159 dd37 4387 5036 cb98 cd37 a1ce 00b9
00000010: 4c00 2cb7 ab86 1b38 5a38 7ab7 6c9e 22b8
00000020: bc53 43b7 6caf 9c38 d2bf acb7 ba2f 5ab8
00000030: 8839 8ab7 25e6 f0b7 9cf4 51b7 b203 aeb8

encoder_mean.5.weight f4 [16]
1.0325328 0.97911215 1.1293619 1.1268367 0.9266966 0.99129367 0.9981615 0.9875522
0.9577288 0.98275584 1.0389861 1.215215 1.065291 1.1144949 1.085049 1.098489
00000000: 092a 843f 18a7 7a3f ee8e 903f 2f3c 903f
00000010: fd3b 6d3f 6cc5 7d3f 8387 7f3f 39d0 7c3f
00000020: b72d 753f e395 7b3f 7ffd 843f 2a8c 9b3f
00000030: 755b 883f c5a7 8e3f e3e2 8a3f 4a9b 8c3f

encoder_mean.5.bias f4 [16]
-0.25693345 0.19069326 0.0011258699 -0.1254415 0.08887166 0.05694499 -0.084256075 0.05603106
0.09044375 0.0680155 -0.053218942 -0.18588728 0.21148328 0.20516498 0.13168089 0.109077625
00000000: c88c 83be 1845 433e ed91 933a bd73 00be
00000010: 5802 b63d 263f 693d 738e acbd d380 653d
00000020: 933a b93d b64b 8b3d 1bfc 59bd 3c59 3ebe
00000030: 138f 583e c516 523e 5bd7 063e 1764 df3d

encoder_mean.5.running_mean f4 [16]
0.15319176 0.29468727 0.15082526 -0.6427275 0.28402293 -0.004165224 0.21306928 0.017959896
0.09843138 0.053449824 0.23956458 0.43374 0.26648372 0.011954522 -0.13538781 -0.017018456
00000000: 4dde 1c3e 40e1 963e f071 1a3e ca89 24bf
00000010: 746b 913e 6e7c 88bb d52e 5a3e a220 933c
00000020: 6496 c93d 34ee 5a3d 6b50 753e 2b13 de3e
00000030: 8e70 883e e6dc 433c 1aa3 0abe 4a6a 8bbc

encoder_mean.5.running_var f4 [16]
1.2670891 1.4768698 1.3419031 1.849762 1.2608348 1.3315493 0.99441123 1.9183226
2.200608 1.8871645 1.4222822 1.2014794 1.8367001 2.3132577 1.7515347 2.6267817
00000000: fa2f a23f 120a bd3f 7bc3 ab3f 00c5 ec3f
00000010: 0963 a13f 3570 aa3f bc91 7e3f 988b f53f
00000020: c3d6 0c40 9b8e f13f 580d b63f 14ca 993f
00000030: fd18 eb3f 6a0c 1440 4a32 e03f 311d 2840

encoder_mean.8.weight f4 [14, 16]
0.33575293 0.16048464 -0.3775187 -0.17754811 0.13834086 0.057833046 -0.12502928 -0.25871938
0.04255562 -0.2586079 0.10137316 0.42031348 -0.5282006 -0.148624 0.05576429 -0.39269522
0.019482652 0.33140454 0.13034098 -0.3769177 -0.3015313 -0.1639063 -0.0017030588 -0.44759887
-0.14699169 -0.33490032 -0.06288331 0.26790506 0.026378252 0.05244787 -0.20430945 -0.5075796
-0.31055513 0.23244232 0.27654704 -0.5224229 -0.27236372 0.4012679 0.1168108 -0.049766894
0.12137493 -0.043913864 -0.22752252 -0.057259515 0.37159395 0.43479604 0.117877565 0.041097406
-0.09884685 -0.019443627 0.07374126 -0.3185297 -0.12472717 0.36653545 -0.13377386 -0.021951051
0.3325032 -0.15761785 -0.36107033 -0.4250938 0.6179076 0.029469369 0.3268336 -0.007347397
-0.217827 -0.24203917 -0.24614953 0.14742169 0.115992725 0.17438653 0.41925764 0.42407936
0.16499299 0.23179938 0.17946325 -0.4223601 -0.25372478 -0.011719114 -0.03267638 0.384637
-0.29123318 -0.06614886 0.03192823 -0.17722818 -0.07287864 0.07270583 0.26916403 0.27210045
0.42368075 0.3440693 -0.11966186 -0.3254095 -0.26672873 -0.017258579 0.37736648 0.058301188
-0.26754075 -0.18312907 -0.077023365 0.1574183 0.24981749 -0.001793117 0.41159135 0.24814601
0.12390326 0.5448501 -0.05191161 -0.27726698 -0.0003977928 -0.07022726 0.15077995 0.58745086
0.30452105 0.022962876 -0.36738825 0.30535227 0.2880116 -0.2395515 0.07554532 -0.1489859
-0.14825676 0.10380469 0.49717194 0.14799814 -0.3456774 -0.34660763 -0.41558254 0.01747315
0.19837734 0.28354985 0.08799909 -0.28822988 -0.22363892 -0.3297925 -0.06237559 -0.21448933
-0.12656228 -0.16130769 -0.042122807 0.52019143 -0.014333538 -0.03565523 -0.43870384 -0.2220453
0.123843715 -0.22633292 -0.16832134 0.4506144 0.3046349 -0.3291405 -0.056190487 -0.21291555
-0.35564873 0.17747705 0.36965612 -0.07447756 -0.028460102 -0.33709913 -0.1950667 -0.18482529
-0.31709108 0.13441078 0.21392992 -0.5917032 -0.17417341 0.27958462 0.0015568476 0.18739998
0.08585913 0.014265726 -0.4179287 -0.032560166 0.5696566 0.49131548 0.08752394 -0.14953664
-0.32617417 -0.37749863 -0.22697762 0.022109073 0.14851096 -0.07930167 0.47578603 -0.018636681
0.3682791 0.39061633 0.1846898 -0.44022453 0.08974784 -0.05583966 -0.06419954 0.39994895
-0.15234113 0.21383274 0.3985076 -0.3887641 -0.32019737 0.10671008 -0.0817193 0.039014854
0.16905089 -0.10744245 -0.355237 0.10741721 -0.04350437 0.437455 0.053217605 -0.06426701
0.13414201 -0.1392642 -0.5419306 0.020523222 0.27110827 -0.18679518 0.08422795 0.012558859
0.015504013 0.07142246 0.48671016 0.1806482 -0.45110792 -0.62073296 -0.21452424 -0.023603916
00000000: cfe7 ab3e 1656 243e 224a c1be 2ccf 35be
00000010: 3aa9 0d3e 58e2 6c3d ad07 00be de76 84be
00000020: cd4e 2e3d 4168 84be bb9c cf3d 5433 d73e
00000030: 2838 07bf e430 18be 1969 643d 590f c9be
00000040: 159a 9f3c dbad a93e 1b78 053e 5bfb c0be
00000050: 5062 9abe 0ed7 27be 2c39 dfba ae2b e5be
00000060: fd84 16be 0e78 abbe f7c8 80bd da2a 893e
00000070: 3417 d83c 94d3 563d 7f36 51be bdf0 01bf
00000080: 1501 9fbe 5c05 6e3e 9397 8d3e 82bd 05bf
00000090: 4273 8bbe fc72 cd3e 803a ef3d 5fd8 4bbd
000000a0: 6b93 f83d 06df 33bd aafb 68be f488 6abd
000000b0: 9041 be3e 969d de3e cb69 f13d c155 283d
000000c0: 3870 cabd 3e48 9fbc a805 973d 5316 a3be
000000d0: f570 ffbd 89aa bb3e 04fc 08be b1d2 b3bc
000000e0: dc3d aa3e 9366 21be 36de b8be e5a5 d9be
000000f0: 312f 1e3f bf69 f13c bc56 a73e 6fc2 f0bb
00000100: 0b0e 5fbe 1ed9 77be 9f0e 7cbe b6f5 163e
00000110: 988d ed3d 6292 323e f0a8 d63e ee20 d93e
00000120: ecf3 283e d15c 6d3e 37c5 373e 953f d8be
00000130: 37e8 81be 8701 40bc abd7 05bd 24ef c43e
00000140: 841c 95be 0e79 87bd 2dc7 023d 4e7b 35be
00000150: 6541 95bd cbe6 943d decf 893e c050 8b3e
00000160: afec d83e da29 b03e 4711 f5bd 139c a6be
00000170: ab90 88be dd61 8dbc 2e36 c13e 3acd 6e3d
00000180: 1afb 88be 3086 3bbe 6dbe 9dbd 4332 213e
00000190: 28d0 7f3e 0607 ebba 1abc d23e fd19 7e3e
000001a0: fec0 fd3d 4c7b 0b3f 45a1 54bd f0f5 8dbe
000001b0: d98e d0b9 4fd3 8fbd 0f66 1a3e 2e63 163f
000001c0: 2fea 9b3e a41c bc3c 501a bcbe 2257 9c3e
000001d0: 4276 933e fd4c 75be 81b7 9a3d c38f 18be
000001e0: 9fd0 17be 8e97 d43d 528d fe3e d38c 173e
000001f0: a1fc b0be 8e76 b1be 3cc7 d4be da23 8f3c
00000200: 6e23 4b3e 722d 913e de38 b43d de92 93be
00000210: 9a01 65be 90da a8be 8c7d 7fbd 17a3 5bbe
00000220: 8b99 01be d82d 25be f788 2cbd 442b 053f
00000230: 37d7 6abc 380b 12bd ca9d e0be d85f 63be
00000240: c6a1 fd3d d1c3 67be 6e5c 2cbe eeb6 e63e
00000250: 1bf9 9b3e 1b85 a8be ff27 66bd 8906 5abe
00000260: 9717 b6be 8bbc 353e 9143 bd3e b187 98bd
00000270: 2925 e9bc 4298 acbe 91bf 47be d742 3dbe
00000280: c359 a2be fba2 093e 7210 5b3e dc79 17bf
00000290: 845a 32be b725 8f3e 230f cc3a c8e5 3f3e
000002a0: e9d6 af3d cbba 693c c0fa d5be cf5d 05bd
000002b0: 04d5 113f b48d fb3e c03f b33d 2220 19be
000002c0: 4d00 a7be 8047 c1be d26c 68be 161e b53c
000002d0: 4213 183e ea68 a2bd 3a9a f33e f4ab 98bc
000002e0: 148f bc3e ddfe c73e 531f 3d3e 1c65 e1be
000002f0: b7cd b73d 21b8 64bd 0c7b 83bd 1cc6 cc3e
00000300: 50ff 1bbe f8f6 5a3e 3009 cc3e 170c c7be
00000310: e9f0 a3be d08a da3d 735c a7bd 0ace 1f3d
00000320: ad1b 2d3e ca0a dcbd a0e1 b5be 8efd db3d
00000330: a331 32bd 1afa df3e b4fa 593d 6c9e 83bd
00000340: 865c 093e 469b 0ebe f7bb 0abf 5120 a83c
00000350: b4ce 8a3e 3c47 3fbe b47f ac3d acc3 4d3c
00000360: 8b04 7e3c f045 923d 1332 f93e d7fb 383e
00000370: 9ef7 e6be 5be8 1ebf 3eac 5bbe 005d c1bc

encoder_mean.8.bias f4 [14]
3.100847e-05 4.6907073e-05 -3.1780507e-06 7.1407208e-06 2.1583408e-05 3.9900853e-05 1.20526365e-05 -2.7468059e-05
-6.4949572e-06 8.087186e-05 7.904609e-06 -2.7336739e-05 7.2471405e-05 -6.019433e-05
00000000: 170f 0238 16be 4438 7f46 55b6 539a ef36
00000010: 040e b537 375b 2738 ae35 4a37 356b e6b7
00000020: 42ef d9b6 c099 a938 0a9e 0437 3351 e5b7
00000030: cafb 9738 2b79 7cb8

encoder_mean.9.weight f4 [14]
0.95161605 1.2541722 0.991895 0.9672595 0.9766457 0.8661986 0.9443457 1.1443907
1.1737996 1.1053113 0.8882085 1.0187376 0.97670126 1.1275595
00000000: 1c9d 733f b788 a03f d5ec 7d3f 529e 773f
00000010: 7405 7a3f 31bf 5d3f a4c0 713f 657b 923f
00000020: 113f 963f d77a 8d3f a261 633f fe65 823f
00000030: 1809 7a3f df53 903f

encoder_mean.9.bias f4 [14]
-0.25125128 -0.31657612 0.109815024 0.03982004 0.078931205 0.33351845 0.38502938 -0.122555174
-0.2256668 -0.11508561 0.18074153 0.28987837 -0.028910058 -0.117481954
00000000: 02a4 80be 4416 a2be b3e6 e03d 571a 233d
00000010: afa6 a13d eec2 aa3e 9222 c53e 35fe fabd
00000020: 3315 67be 01b2 ebbd 4f14 393e f06a 943e
00000030: c9d4 ecbc 619a f0bd

encoder_mean.9.running_mean f4 [14]
-0.59810966 -0.73262084 0.42068827 0.1791884 0.29885083 0.27088726 0.6703074 -0.32291582
-0.52421904 -0.42599306 0.34694642 0.25733572 0.118756644 -0.6006607
00000000: b71d 19bf 0a8d 3bbf 7464 d73e 2a7d 373e
00000010: fa02 993e bcb1 8a3e 4499 2b3f 3955 a5be
00000020: 3833 06bf c31b dabe f6a2 b13e 82c1 833e
00000030: af36 f33d e6c4 19bf

encoder_mean.9.running_var f4 [14]
1.5961529 2.2108269 2.6399384 2.2024834 2.2786639 1.5840197 2.660355 3.0124493
1.9134766 2.0112927 3.115096 2.2875261 1.7104639 3.015254
00000000: bd4e cc3f 307e 0d40 c0f4 2840 7df5 0c40
00000010: a1d5 1140 28c1 ca3f 4243 2a40 f8cb 4040
00000020: cdec f43f 05b9 0040 bc5d 4740 d466 1240
00000030: 7bf0 da3f ecf9 4040

encoder_mean.12.weight f4 [12, 14]
0.065367535 0.7576185 0.14083269 -0.12054274 -0.22603704 -0.13295326 -0.3746651 -0.08458164
0.3855389 -0.16740385 -0.10898873 -0.30821803 0.28636047 -0.063293315 0.49638462 0.16383018
-0.08122364 -0.17496076 -0.3126919 -0.3426149 -0.28604066 0.27804884 0.52040917 -0.15491049
-0.078047246 -0.20285821 0.07686007 0.08692003 -0.0050676498 -0.18822604 -0.16977024 -0.15158075
-0.062447466 -0.14480142 0.052380096 0.58241296 -0.17456605 0.6965589 -0.21723785 0.039533492
-0.28932503 0.3834765 0.028828332 -0.31127846 0.26892903 0.49078584 -0.1937413 0.4433039
0.18659826 -0.27011007 -0.39875987 -0.09400392 0.32556707 0.13637878 0.24795878 -0.22338533
0.012358023 -0.30964103 0.08715663 0.026565531 0.48247534 0.12769741 0.42506483 0.26420078
-0.11789019 0.051718958 -0.06110526 0.4315962 -0.06967311 0.26464114 0.0640168 0.6083857
0.09596783 -0.12612365 -0.32185566 -0.1550494 -0.3260526 -0.11121618 0.306966 -0.26804093
0.22844502 -0.30281255 0.34130207 -0.15513553 0.3699731 -0.10246693 0.008746212 -0.11769008
0.05698598 -0.40075445 -0.06707163 0.39300728 0.22557335 0.33399302 -0.047652323 0.014448014
-0.00824928 0.39392367 -0.058818232 -0.1958288 0.110946186 -0.22227462 0.5280664 0.3273233
0.24476649 -0.029041994 -0.30180842 -0.10821829 0.051266506 0.35094243 -0.05273617 0.034077592
0.52772874 0.38639963 0.040843803 -0.035169277 -0.20838411 -0.13714162 -0.399245 0.08628116
0.612193 -0.0051821764 0.06776176 -0.42539272 -0.06078404 0.15415742 -0.088426374 -0.11857448
0.4759508 0.38005492 0.08550232 -0.1438706 -0.02155852 -0.3688644 0.05258385 -0.32448846
0.30442056 -0.007567615 0.5363862 -0.34793055 -0.10026979 -0.08503073 0.4679169 0.41944227
-0.01861698 0.047182497 0.069549166 -0.3940245 0.04067849 -0.41606346 0.42608368 -0.07690749
0.19575895 -0.48177806 -0.24302062 0.06654026 0.44535926 0.16118172 0.013664798 0.11709658
-0.1539758 -0.4032248 0.12833856 -0.21688075 0.44668558 0.017799156 0.6201771 -0.5330265
00000000: 6adf 853d 49f3 413f 7236 103e 1ddf f6bd
00000010: 4176 67be e624 08be 1bd4 bfbe 2439 adbd
00000020: 5b65 c53e ea6b 2bbe 7c35 dfbd c1ce 9dbe
00000030: d79d 923e ed9f 81bd 2026 fe3e 19c3 273e
00000040: 9458 a6bd ea28 33be 2719 a0be 386b afbe
00000050: ec73 92be 6b5c 8e3e 8939 053f dba0 1ebe
00000060: 3cd7 9fbd 10ba 4fbe d068 9d3d 2103 b23d
00000070: 870e a6bb 54be 40be 40d8 2dbe fc37 1bbe
00000080: eac8 7fbd d346 14be 838c 563d 0419 153f
00000090: 71c1 32be af51 323f 9973 5ebe dfed 213d
000000a0: 6922 94be 0857 c43e 6529 ec3c e45f 9fbe
000000b0: 11b1 893e 4848 fb3e 1f64 46be bbf8 e23e
000000c0: 9d13 3f3e de4b 8abe 412a ccbe 2185 c0bd
000000d0: bab0 a63e e1a6 0b3e e8e8 7d3e 20bf 64be
000000e0: 4e79 4a3c 4589 9ebe 2d7f b23d f59f d93c
000000f0: 0207 f73e 1cc3 023e 19a2 d93e 5345 873e
00000100: 6970 f1bd 42d7 533d 8249 7abd 2dfa dc3e
00000110: c7b0 8ebd 0b7f 873e 3d1b 833d 2abf 1b3f
00000120: c88a c43d 8f26 01be 44ca a4be 45c5 1ebe
00000130: 5ef0 a6be 4fc5 e3bd a62a 9d3e a93c 89be
00000140: 7eed 693e 3f0a 9bbe 25bf ae3e d9db 1ebe
00000150: 1d6d bd3e 2fda d1bd 464c 0f3c 7f07 f1bd
00000160: 226a 693d b02f cdbe da5c 89bd 4038 c93e
00000170: b3fc 663e 2201 ab3e 152f 43bd 5db7 6c3c
00000180: fd27 07bc 5db0 c93e 63eb 70bd 5887 48be
00000190: c137 e33d f59b 63be 5c2f 073f eb96 a73e
000001a0: 11a4 7a3e 7ae9 edbc a286 9abe 8da1 ddbd
000001b0: d4fc 513d baae b33e e201 58bd f294 0b3d
000001c0: 3b19 073f 2cd6 c53e d54b 273d a90d 10bd
000001d0: a562 55be da6e 0cbe d769 ccbe 2db4 b03d
000001e0: aeb8 1c3f 3fcf a9bb adc6 8a3d 13cd d9be
000001f0: aff8 78bd 71db 1d3e e318 b5bd 2dd7 f2bd
00000200: d3af f33e 8f96 c23e d71b af3d d152 13be
00000210: 7e9b b0bc cbdb bcbe 2a62 573d 5a23 a6be
00000220: 03dd 9b3e c1f9 f7bb 9b50 093f f423 b2be
00000230: 3f5a cdbd 9724 aebd ce92 ef3e 23c1 d63e
00000240: a382 98bc 6f42 413d cb6f 8e3d 94bd c9be
00000250: 7d9e 263d 4506 d5be a427 da3e ad81 9dbd
00000260: 0975 483e 9dab f6be 66da 78be 4346 883d
00000270: 2106 e43e d20c 253e 51e2 5f3c 55d0 ef3d
00000280: d5ab 1dbe 7b73 cebe 2f6b 033e fd15 5ebe
00000290: f9b3 e43e 89cf 913c edc3 1e3f 6d74 08bf

encoder_mean.12.bias f4 [12]
-8.091818e-06 9.272476e-05 1.3920258e-05 -1.4561068e-05 1.7505145e-05 -4.5920835e-05 4.632905e-05 1.4225916e-05
1.2454863e-05 -0.0002802477 6.680818e-05 -9.788563e-05
00000000: 18c2 07b7 3a75 c238 0e8b 6937 504b 74b7
00000010: 03d8 9237 1f9b 40b8 7051 4238 d8ab 6e37
00000020: 3bf5 5037 36ee 92b9 5e1b 8c38 f347 cdb8

encoder_mean.13.weight f4 [12]
1.6497686 1.5716435 1.6508079 1.4076108 1.4997803 1.5250823 1.5956413 1.4420364
1.7188737 1.5166408 1.5586447 1.5963746
00000000: 9e2b d33f 9d2b c93f ac4d d33f 972c b43f
00000010: cdf8 bf3f e635 c33f f93d cc3f a694 b83f
00000020: 0e04 dc3f 4921 c23f ab81 c73f 0156 cc3f

encoder_mean.13.bias f4 [12]
0.37072524 0.13943946 0.31176114 0.5114594 0.58743787 0.34779602 0.07539955 0.60462415
0.145796 0.5430172 0.42921904 0.47586358
00000000: b3cf bd3e 38c9 0e3e 289f 9f3e 01ef 023f
00000010: 5462 163f 5212 b23e 146b 9a3d a6c8 1a3f
00000020: 8c4b 153e 2d03 0b3f 99c2 db3e 64a4 f33e

encoder_mean.13.running_mean f4 [12]
-0.22990473 -0.29229614 0.12828718 0.42249563 0.8005711 -0.24467406 0.2774674 0.45171857
-0.08623449 0.20235431 0.118977204 0.21475434
00000000: 256c 6bbe d7a7 95be b75d 033e 5951 d83e
00000010: 3af2 4c3f d68b 7abe 3510 8e3e a847 e73e
00000020: b59b b0bd f835 4f3e 52aa f33d 90e8 5b3e

encoder_mean.13.running_var f4 [12]
1.7099078 1.8272128 1.8168572 1.7516141 1.7438542 1.8281393 1.071187 1.4169121
2.1098874 1.9055097 2.1711547 2.2939012
00000000: 42de da3f 1ce2 e93f c78e e83f e434 e03f
00000010: 9d36 df3f 7800 ea3f a81c 893f 605d b53f
00000020: 6508 0740 bee7 f33f 33f4 0a40 47cf 1240

encoder_mean.16.weight f4 [10, 12]
-0.5932114 -0.57967556 0.04015296 0.07336143 0.6690023 -0.46616155 -0.22878894 0.9116413
-0.87899077 -0.47959492 -0.17632338 -0.47333238 -0.06513596 0.5268692 0.593365 -0.5929292
-0.090736784 0.12566231 0.78521353 -0.39218035 0.47055063 -0.44222254 -0.7809877 -0.53000957
0.42025927 0.59786046 -0.23495916 -0.09684383 -0.31865418 0.39365438 -0.123445265 -0.5166049
0.3588929 -0.014538282 0.1547306 0.11852043 -0.7575758 -0.41754967 0.4818872 0.35101157
0.7177349 -0.7374584 0.19937415 0.4068059 -0.479419 -0.06461116 -0.17658663 -0.33130977
-0.037446238 -0.092911355 -0.25967506 -0.07886796 -0.236359 -0.07550303 -0.34336334 0.17787562
-0.4980466 0.045372173 0.36461705 -0.12724136 0.30409253 0.17540684 -0.1222106 -0.27486014
0.2542407 0.06972941 0.017397957 0.055799708 0.20495722 0.054404315 0.122744896 0.20916174
0.038509857 0.4302267 0.58207095 -0.096217945 -0.0968134 0.15290521 0.5936316 0.035117913
0.21542735 -0.6311714 -0.62378764 -0.62616354 -0.26796752 -0.46499294 -0.61459434 0.3393892
0.13412993 0.32742018 -0.66071576 0.30237067 -0.5359736 0.7819534 0.5204368 0.49088243
-0.3312822 -0.60910946 0.41450122 -0.0638443 0.8038067 -0.6676355 -0.19242778 0.69040346
-0.45980388 -0.39240298 -0.47021282 -0.12651998 -0.08992976 0.34523767 0.67390597 -0.68862015
-0.026424378 -0.37916332 0.48394105 -0.11885978 0.08169391 -0.4084752 -0.6143962 -0.6260945
00000000: b4dc 17bf 9e65 14bf 6e77 243d 843e 963d
00000010: bc43 2b3f baac eebe a647 6abe 5361 693f
00000020: 8a05 61bf 778d f5be 1e8e 34be 9f58 f2be
00000030: 0166 85bd e6e0 063f c5e6 173f 35ca 17bf
00000040: 35d4 b9bd 9fad 003e c103 493f ddcb c8be
00000050: 03ec f03e fe6a e2be cfee 47bf b5ae 07bf
00000060: 392c d73e 620d 193f 2299 70be 0f56 c6bd
00000070: a426 a3be 118d c93e dfd0 fcbd 3840 04bf
00000080: cfc0 b73e f931 6ebc b371 1e3e d7ba f23d
00000090: 7df0 41bf 12c9 d5be ebb9 f63e cab7 b33e
000000a0: 79bd 373f 13ca 3cbf bd28 4c3e dd48 d03e
000000b0: 6876 f5be db52 84bd 20d3 34be 6fa1 a9be
000000c0: 3a61 19bd 4f48 bebd 21f4 84be 8685 a1bd
000000d0: 1808 72be 55a1 9abd 52cd afbe 0725 363e
000000e0: f7ff febe 2cd8 393d 16af ba3e 8f4b 02be
000000f0: 04b2 9b3e da9d 333e 8d49 fabd 78ba 8cbe
00000100: d62b 823e 4bce 8e3d 2986 8e3c 3c8e 643d
00000110: 4ee0 513e 0fd7 5e3d ad61 fb3d 7f2e 563e
00000120: 83bc 1d3d ad46 dc3e 9a02 153f ea0d c5bd
00000130: 1b46 c6bd 2f93 1c3e 3ef8 173f cdd7 0f3d
00000140: fd98 5c3e 7394 21bf 8cb0 1fbf 414c 20bf
00000150: 0a33 89be 8e13 eebe 0e56 1dbf 6cc4 ad3e
00000160: 5b59 093e 9ea3 a73e ab24 29bf 54d0 9a3e
00000170: 9135 09bf 192e 483f 593b 053f f154 fb3e
00000180: d29d a9be 99ee 1bbf 8139 d43e cdc0 82bd
00000190: 47c6 4d3f 29ea 2abf ca0b 45be 48be 303f
000001a0: 6a6b ebbe 0be9 c8be bcbf f0be 748e 01be
000001b0: 182d b8bd fec2 b03e 1a85 2c3f 6949 30bf
000001c0: f077 d8bc b221 c2be 1fc7 f73e c26c f3bd
000001d0: 234f a73d a923 d1be 1249 1dbf bb47 20bf

encoder_mean.16.bias f4 [10]
1.5186636 0.6625687 -0.44881058 0.5662583 0.67927945 -0.7725914 0.34193116 -0.60622185
0.9959965 1.2792745
00000000: 9263 c23f 1a9e 293f 80ca e5be 4ef6 103f
00000010: 42e5 2d3f 8dc8 45bf 9a11 af3e 5b31 1bbf
00000020: a0f9 7e3f 44bf a33f

encoder_var.0.weight f4 [20, 4]
-0.22274657 -0.0056823427 0.015313613 0.12081718 -0.2525531 -0.27175853 0.036618005 -0.055689834
-0.06438374 -0.058580678 0.036327086 0.031155996 -0.2111959 -0.09916182 -0.17995942 0.08234419
-0.14396198 -0.1735581 -0.018329585 -0.24188094 0.08815864 -0.10162445 -0.030675324 0.27107722
-0.109594405 0.06445521 0.049352746 0.11068214 -0.15594706 -0.13846186 -0.07939681 0.02239305
-0.093910865 -0.10282032 -0.07678578 -0.00063362735 -0.13718714 -0.025669273 -0.0902172 0.13082165
-0.10513102 0.16853292 0.07973949 0.12914409 -0.02955222 -0.042294182 -0.033487417 -0.05889425
0.03149901 0.03757458 0.14571133 -0.18390942 0.12533578 0.090054534 -0.012014382 -0.07908547
0.20461932 0.07334133 0.1719419 0.020726003 -0.10708327 -0.15019456 0.07410675 0.075839035
0.0989332 -0.17525356 -0.13377997 -0.028006567 0.1094173 0.090169564 0.12344432 -0.11825914
-0.069593094 -0.028141014 -0.032534737 0.0353825 0.021905635 -0.026259826 0.048473284 -0.08519029
00000000: ad17 64be f232 babb f3e5 7a3c ff6e f73d
00000010: a44e 81be ef23 8bbe c3fc 153d 061b 64bd
00000020: 9fdb 83bd 4bf2 6fbd b6cb 143d dc3a ff3c
00000030: bd43 58be 5a15 cbbd 4847 38be 12a4 a83d
00000040: c56a 13be 37b9 31be ed27 96bc a3af 77be
00000050: 848c b43d 7b20 d0bd d14a fbbc a2ca 8a3e
00000060: 0873 e0bd 1801 843d 1b26 4a3d 51ad e23d
00000070: 96b0 1fbe f2c8 0dbe cb9a a2bd a171 b73c
00000080: 5754 c0bd 7693 d2bd dd41 9dbd 031a 26ba
00000090: c97a 0cbe 5e48 d2bc ccc3 b8bd 1cf6 053e
000000a0: ef4e d7bd e593 2c3e 754e a33d 593e 043e
000000b0: 7f17 f2bc aa3c 2dbd 1a2a 09bd 193b 71bd
000000c0: 1b05 013d cee7 193d 5a35 153e c052 3cbe
000000d0: 0658 003e 836e b83d f8d7 44bc 90f7 a1bd
000000e0: ba87 513e fb33 963d 8a11 303e 94c9 a93c
000000f0: 794e dbbd 9acc 19be 48c5 973d 7f51 9b3d
00000100: 7d9d ca3d ab75 33be 9efd 08be 076e e5bc
00000110: 2d16 e03d d2aa b83d 60d0 fc3d d931 f2bd
00000120: d386 8ebd fc87 e6bc 2543 05bd 3eed 103d
00000130: 7273 b33c d91e d7bc ec8b 463d 3f78 aebd

encoder_var.0.bias f4 [20]
1.2393405e-08 3.962733e-07 -8.9610654e-07 6.972461e-08 -1.8727123e-07 -1.939422e-09 -3.5975532e-07 1.5479841e-06
-3.6861314e-07 1.6489597e-08 1.9382976e-07 -1.804331e-07 -2.077016e-07 -1.31512e-07 1.3911273e-06 3.8712548e-07
1.7515738e-06 -2.454512e-07 6.4946515e-09 -5.1724896e-08
00000000: c6ea 5432 63bf d434 f98b 70b5 82bb 9533
00000010: b914 49b4 ac46 05b1 6524 c1b4 54c4 cf35
00000020: cee5 c5b4 02a5 8d32 851f 5034 13bd 41b4
00000030: 9504 5fb4 be35 0db4 c5b6 ba35 1fd6 cf34
00000040: 9e17 eb35 8ec6 83b4 8f27 df31 2028 5eb3

encoder_var.1.weight f4 [20]
0.28405017 0.28821775 0.1306219 0.26697487 0.28025845 0.20216773 0.31873205 0.35924533
0.2838881 0.24524328 0.25141877 0.23873432 0.38337153 0.14606614 0.5424127 0.20682229
0.40833783 0.15556115 0.09636816 0.17023939
00000000: 066f 913e 4791 933e bfc1 053e eeb0 883e
00000010: 097e 8f3e 0f05 4f3e d930 a33e 01ef b73e
00000020: c859 913e 0e21 7b3e f6b9 803e c576 743e
00000030: 4649 c43e 5d92 153e 8fdb 0a3f 39c9 533e
00000040: a811 d13e 6c4b 1f3e ab5c c53d 3c53 2e3e

encoder_var.1.bias f4 [20]
0.032160297 -0.06027014 -0.008955484 0.051256184 0.027058315 -0.0022380224 0.04667582 0.05085436
-0.038120657 -0.05834813 0.010173244 0.003585856 -0.029530248 -0.020525286 0.0026291823 -0.028530167
-0.0040637776 -0.012816752 -0.053170506 -0.0021576632
00000000: 84ba 033d d3dd 76bd 06ba 12bc 01f2 513d
00000010: 66a9 dd3c c9ab 12bb 252f 3f3d a94c 503d
00000020: 6824 1cbd 73fe 6ebd aead 263c ae00 6b3b
00000030: 6be9 f1bc a524 a8bc 5c4e 2c3b 19b8 e9bc
00000040: 7029 85bb 5bfd 51bc 51c9 59bd 9567 0dbb

encoder_var.1.running_mean f4 [20]
-0.050286897 -0.2623104 -0.025672447 -0.19567011 -0.25573847 0.08076533 0.046110753 -0.16174644
-0.1305387 -0.06741537 0.12007823 -0.07128231 0.023948165 0.077943385 0.21295045 -0.062698275
-0.112096585 0.10389194 -0.04264455 -0.018868227
00000000: a2f9 4dbd 8c4d 86be 064f d2bc bf5d 48be
00000010: 27f0 82be 4b68 a53d a1de 3c3d dca0 25be
00000020: f0ab 05be 1211 8abd 93eb f53d 76fc 91bd
00000030: f12e c43c c8a0 9f3d af0f 5a3e f467 80bd
00000040: e592 e5bd 4cc5 d43d 0dac 2ebd 8a91 9abc

encoder_var.1.running_var f4 [20]
0.0051800567 0.0033181766 0.0005424516 0.006348485 0.014093089 0.0182838 0.0032945243 0.002561026
0.0012774126 0.005609896 0.0051377774 0.0010999254 0.009132329 0.0017095879 0.00368513 0.0026143137
0.0023160095 0.005561044 0.0007360875 0.0018839542
00000000: 77bd a93b c475 593b 5033 0e3a f406 d03b
00000010: b3e6 663c e8c7 953c f2e8 573b e3d6 273b
00000020: db6e a73a 38d3 b73b cd5a a83b 5f2b 903a
00000030: c49f 153c 4014 e03a 3982 713b e854 2b3b
00000040: 31c8 173b 6b39 b63b fff5 403a 03ef f63a

encoder_var.4.weight f4 [16, 20]
-0.012954869 -0.04097162 -0.07625013 -0.07502245 -0.03522866 -0.016894441 -0.18619311 -0.082914434
-0.07199345 -0.020290116 -0.088396035 -0.09881995 0.03396096 -0.007955693 -0.08365201 0.05634287
0.13696627 0.10880921 -0.028446054 0.041190628 0.101147324 0.1022203 -0.062991686 0.20943598
0.013040078 -0.02514605 -0.05848153 0.102951296 0.114034444 -0.03718178 -0.118731014 0.06883318
-0.025776997 0.0030691538 0.0027140644 -0.09440951 0.12552825 0.032803323 -0.08105112 -0.056797355
-0.0129466755 0.057671826 -0.01027761 -0.09882006 0.011607829 0.06740912 0.053575654 0.017664647
0.009593279 -0.009270231 0.069753736 0.012781701 -0.02518048 0.034683704 0.12763792 0.03235583
0.034976102 0.044737216 -0.0125454385 -0.03738481 0.007676937 -0.0718665 -0.025160367 0.0034303076
-0.0051449193 0.0025593573 -0.033351682 0.15293114 -0.056326386 -0.09425594 -0.08190464 -0.0045340243
0.1131695 -0.028136726 0.056859743 0.09399488 0.0145099545 0.08383138 0.15743911 0.10203163
0.062089987 0.03818875 -0.042392258 -0.0096662585 0.06001425 -0.055196792 0.041974977 0.008351845
0.13276432 0.048065912 0.10404933 0.0133618135 0.031722162 0.0032350633 0.14720172 0.017551886
0.028342234 0.03370075 0.044164695 0.009447628 0.053201493 -0.08455791 0.075737245 -0.030866917
-0.09157979 -0.08034647 0.038224712 0.06839768 -0.025491117 0.044055775 -0.097358264 -0.07543372
-0.08587828 0.08092436 -0.14163487 0.11148779 -0.09513638 -0.10067777 0.0511579 -0.014581526
0.07949013 -0.056034952 -0.053654365 -0.07287572 0.15332939 0.043433703 -0.15513095 -0.09088822
-0.022936184 0.09909224 -0.15136357 0.094802774 -0.035356894 0.010375385 -0.07057184 0.0048107775
-0.19299485 -0.1219239 -0.00091560534 -0.051925667 -0.074476935 -0.05585594 -0.034292784 -0.02350466
-0.0036713579 -0.019922702 -0.060385253 -0.02417962 -0.01683028 -0.046482705 -0.0318166 -0.016884906
0.019028308 -0.03651385 -0.19615756 0.0011262444 0.054003466 0.023526903 -0.01614268 0.09794587
0.056471206 -0.032493018 0.18822955 0.13219367 -0.025242614 0.1302091 -0.11198095 0.093645126
0.034962595 -0.12325083 0.116343446 0.056366183 -0.04425172 0.016941756 -0.06092308 0.052982405
-0.08319612 -0.0271589 -0.0063060266 0.0027325293 -0.15375811 0.041650657 -0.12541264 -0.048738997
-0.011335629 -0.10095768 -0.03873793 -0.06432569 0.044824153 -0.035407204 -0.019068971 0.06503145
-0.06279787 -0.032650627 0.13304266 -0.12529287 -0.013566932 -0.050669443 -0.012903788 -0.016260354
-0.120968975 -0.027188137 -0.008377883 -0.07965287 0.12048427 0.018541615 -0.011628681 -0.11816039
-0.12783214 -0.09781718 -0.037483133 0.049440186 0.12991267 -0.01327745 -0.1916943 -0.082865976
0.04094228 -0.09398546 -0.10983305 -0.018862957 -0.011465837 0.031777944 -0.045348033 -0.011638361
-0.062226724 0.04780837 0.06850138 -0.06536137 -0.03292154 -0.023569623 0.052310646 0.05133891
0.06341304 0.10554681 0.06949873 -0.06753933 0.056081798 0.035908442 -0.011326596 0.015264546
-0.03180201 0.03740178 0.021459525 -0.097155415 -0.10723201 -0.05151143 0.055742957 0.059190206
0.019166121 0.027122749 -0.046530563 0.1069086 0.09046956 0.10866735 0.098788425 -0.09867827
00000000: a940 54bc dbd1 27bd 0729 9cbd 5fa5 99bd
00000010: ed4b 10bd 3666 8abc 68a9 3ebe 0bcf a9bd
00000020: 4d71 93bd 7537 a6bc fb08 b5bd 1d62 cabd
00000030: a61a 0b3d 9858 02bc bf51 abbd c8c7 663d
00000040: e340 0c3e 5dd7 de3d b307 e9bc 81b7 283d
00000050: 5426 cf3d e058 d13d c901 81bd 6376 563e
00000060: 0da6 553c 17ff cdbc 548a 6fbd 21d8 d23d
00000070: e48a e93d ec4b 18bd 3f29 f3bd 69f8 8c3d
00000080: 482a d3bc db23 493b 72de 313b c659 c1bd
00000090: 7a8a 003e c75c 063d 21fe a5bd 58a4 68bd
000000a0: 4b1e 54bc 4b39 6c3d 6c63 28bc 2c62 cabd
000000b0: c32e 3e3c cb0d 8a3d 2572 5b3d 73b5 903c
000000c0: 212d 1d3c 2be2 17bc 0cdb 8e3d 576a 513c
000000d0: 4b47 cebc 8010 0e3d 84b3 023e 8c87 043d
000000e0: 1a43 0f3d 5f3e 373d 628b 4dbc d120 19bd
000000f0: d18e fb3b be2e 93bd 1d1d cebc 03cf 603b
00000100: b696 a8bb e4ba 273b c69b 08bd fb99 1c3e
00000110: 7fb6 66bd 4209 c1bd 9fbd a7bd 2792 94bb
00000120: 69c5 e73d fe7e e6bc c3e5 683d 6380 c03d
00000130: 29bb 6d3c c9af ab3d b837 213e f6f5 d03d
00000140: 1252 7e3d cf6b 1c3d 81a3 2dbd 3a5f 1ebc
00000150: 81d1 753d 0816 62bd f4ed 2b3d 2dd6 083c
00000160: 5ff3 073e c3e0 443d d117 d53d 82eb 5a3c
00000170: 19ef 013d 5b03 543b 0cbc 163e f9c8 8f3c
00000180: f92d e83c cc09 0a3d 0ae6 343d 39ca 1a3c
00000190: cfe9 593d b32c adbd 211c 9b3d 9edc fcbc
000001a0: 2f8e bbbd b18c a4bd 8491 1c3d 1514 8c3d
000001b0: bfd2 d0bc d473 343d c563 c7bd ff7c 9abd
000001c0: f4e0 afbd acbb a53d bb08 11be b653 e43d
000001d0: ddd6 c2bd 2630 cebd f28a 513d 5ae7 6ebc
000001e0: b9cb a23d e884 65bd aec4 5bbd de3f 95bd
000001f0: 6102 1d3e 8ae7 313d a6da 1ebe 9a23 babd
00000200: aae4 bbbc dff0 ca3d 0dff 1abe f527 c23d
00000210: 64d2 10bd 85fd 293c f887 90bd baa3 9d3b
00000220: 71a0 45be 3db3 f9bd 3c05 70ba 02b0 54bd
00000230: 5d87 98bd 33c9 64bd 9776 0cbd d88c c0bc
00000240: 2a9b 70bb ef34 a3bc 8756 77bd 5714 c6bc
00000250: a8df 89bc a664 3ebd 2052 02bd 3752 8abc
00000260: 41e1 9b3c 8c8f 15bd 87dd 48be 7e9e 933a
00000270: bd32 5d3d 7ebb c03c a73d 84bc d897 c83d
00000280: 5a4e 673d 6617 05bd 3fbf 403e c75d 073e
00000290: 99c9 cebc 8955 053e 4556 e5bd 04c9 bf3d
000002a0: f034 0f3d ee6a fcbd 7945 ee3d 3ae0 663d
000002b0: 4b41 35bd 70c9 8a3c 7b8a 79bd 1404 593d
000002c0: ba62 aabd 577c debc c9a2 cebb 3c14 333b
000002d0: c472 1dbe e199 2a3d 2c6c 00be 8ba2 47bd
000002e0: 13b9 39bc e6c2 cebd aaab 1ebd 30bd 83bd
000002f0: 8899 373d 2507 11bd 8836 9cbc 352f 853d
00000300: 2b9c 80bd aabc 05bd 563c 083e c64c 00be
00000310: d647 5ebc c38a 4fbd 696a 53bc 6f34 85bc
00000320: 95be f7bd a8b9 debc 6343 09bc 0b21 a3bd
00000330: 75c0 f63d 96e4 973c 3986 3ebc 13fe f1bd
00000340: 6ee6 02be 6054 c8bd ea87 19bd cb81 4a3d
00000350: d407 053e a989 59bc 834b 44be a3b5 a9bd
00000360: 18b3 273d 737b c0bd 26f0 e0bd 7d86 9abc
00000370: 35db 3bbc 9729 023d dcbe 39bd d3ae 3ebc
00000380: 73e1 7ebd b6d2 433d 744a 8c3d 2fdc 85bd
00000390: bdd8 06bd 1515 c1bc b043 563d c048 523d
000003a0: b2de 813d ed28 d83d 5a55 8e3d 0f52 8abd
000003b0: 07b6 653d bb14 133d 3093 39bc 2518 7a3c
000003c0: d342 02bd 9c32 193d e3cb af3c 6bf9 c6bd
000003d0: 759c dbbd a6fd 52bd ba52 643d 6e71 723d
000003e0: 4502 9d3c 8730 de3c d596 3ebd e5f2 da3d
000003f0: 1b48 b93d fd8c de3d 9651 ca3d d517 cabd

encoder_var.4.bias f4 [16]
4.885862e-07 3.672839e-07 -2.946125e-07 2.2276838e-07 3.1967238e-06 -7.1632705e-08 9.592658e-07 8.068648e-07
2.4437773e-07 -4.4930697e-08 -4.236747e-08 -1.2175815e-07 1.9195618e-06 -1.2391077e-07 8.77263e-07 1.5889408e-07
00000000: 6327 0335 1d2f c534 3c2b 9eb4 1b32 6f34
00000010: 4c87 5636 7fd4 99b3 1fc0 8035 5497 5835
00000020: 0533 8334 d3f9 40b3 87f7 35b3 a0bc 02b4
00000030: d2d1 0036 550c 05b4 0e7d 6b35 799c 2a34

encoder_var.5.weight f4 [16]
0.3435144 0.32502583 0.23263286 0.2182367 0.24678412 0.25952187 0.33844152 0.3550382
0.35983682 0.27424097 0.40732136 0.25264138 0.22832905 0.23654951 0.38580364 0.100234024
00000000: 1fe1 af3e c969 a63e 4f37 6e3e 7179 5f3e
00000010: fab4 7c3e 0de0 843e 3548 ad3e 91c7 b53e
00000020: 883c b83e 5069 8c3e 6d8c d03e 365a 813e
00000030: 17cf 693e 093a 723e 0e88 c53e 7f47 cd3d

encoder_var.5.bias f4 [16]
-0.025752153 0.041944288 0.063913174 -0.047363766 -0.05172994 -0.107923254 0.007921556 0.046051785
-0.056260407 -0.03602185 0.07868156 0.05787693 0.053172972 -0.008172851 0.100565374 0.0051427903
00000000: 2ef6 d2bc c6cd 2b3d e9e4 823d 8200 42bd
00000010: c6e2 53bd de06 ddbd 6ac9 013c cca0 3c3d
00000020: 5071 66bd a68b 13bd cc23 a13d 5c10 6d3d
00000030: e7cb 593d 6ce7 05bc 38f5 cd3d da84 a83b

encoder_var.5.running_mean f4 [16]
-0.080217734 0.06377351 0.05386385 0.050733235 0.09650631 -0.074081175 -0.082935646 -0.07324228
0.025742244 -0.058169167 -0.0868482 0.0309717 0.044129893 0.080683775 0.021065589 0.036181327
00000000: 3249 a4bd b09b 823d 57a0 5c3d a7cd 4f3d
00000010: 1aa5 c53d dfb7 97bd 2ada a9bd 0c00 96bd
00000020: 66e1 d23c cb42 6ebd 78dd b1bd 5db8 fd3c
00000030: 8cc1 343d 893d a53d be91 ac3c df32 143d

encoder_var.5.running_var f4 [16]
0.010487883 0.011432782 0.0036708512 0.0016832495 0.0035963256 0.007663143 0.006934181 0.008959014
0.007161383 0.012778008 0.020514537 0.0031238927 0.002966636 0.016026068 0.008424793 0.0013026675
00000000: 5fd5 2b3c 9050 3b3c aa92 703b 7ba0 dc3a
00000010: 55b0 6b3b 1a1b fb3b 2038 e33b d4c8 123c
00000020: 09aa ea3b da5a 513c 1a0e a83c 39ba 4c3b
00000030: e56b 423b 1a49 833c 2508 0a3c 45be aa3a

encoder_var.8.weight f4 [14, 16]
-0.0651815 -0.14177682 -0.025561273 -0.05644089 -0.10541347 -0.026382884 -0.13674511 -0.025771217
0.12617427 0.010998712 -0.08538057 -0.113267496 -0.07636334 0.09104414 0.09931953 0.020836866
-0.028962493 0.09887515 -0.01635348 -0.020941434 0.039506227 -0.02494608 -0.011929242 0.021144884
-0.09009927 0.036715027 0.055414416 -0.057922438 -0.05222819 0.16993229 0.16465591 -0.004028339
-0.036192402 0.010557857 0.21099034 -0.035555992 -0.048957605 0.01730037 0.07492361 0.13220541
0.030429529 -0.029486397 -0.0033384436 0.08562685 0.048735082 -0.103829876 -0.14639385 0.092893764
-0.07699777 -0.083603434 -0.093383394 0.011479792 0.018845659 0.064954504 -0.032438617 -0.022116974
-0.0019685354 -0.034641463 -0.05056934 -0.075949326 -0.07317856 -0.02660733 0.16623661 -0.060739867
0.16946203 -0.14430529 -0.079451814 -0.12884863 -0.06475334 -0.060464744 0.08141261 0.042182427
0.109721005 0.08822818 0.14254822 -0.08058899 0.018752916 -0.15520704 -0.0010771136 -0.046741884
0.020851616 -0.019983662 -0.006138756 -0.02943287 -0.051142003 0.11543401 -0.0049037044 -0.033019852
0.003063029 -0.054827284 0.028420182 -0.08427915 -0.085703306 0.0025474038 0.13017438 -0.07947315
-0.05192166 0.07327056 0.09195672 -0.02012795 0.0020304525 0.09884928 0.067035854 0.052427724
-0.019404326 -0.023854714 0.13806559 0.07597872 0.12004448 0.03295003 -0.03564105 0.1587589
0.17445937 0.030371327 0.05854415 -0.054690823 0.041229084 0.10108509 -0.15430872 0.007782005
-0.028934276 0.12595731 -0.067599475 0.1271153 0.11874677 0.054864142 0.07007734 0.07050139
0.03378139 -0.03792051 0.15910675 -0.11222004 0.021331454 -0.06091602 0.09383609 -0.010766344
-0.031005291 0.078494735 0.090533204 -0.0076819514 -0.017856367 -0.053994592 -0.017397672 0.0031465073
0.05765044 0.013116612 -0.015568442 0.011321827 -0.032580946 -0.021996576 0.022088248 -0.029707666
-0.052111663 0.022286868 -0.023207901 0.017463058 -0.06199885 -0.03283798 -0.07669406 -0.0029120622
0.026240923 0.16104652 -0.12395108 -0.06284744 0.05641085 -0.05292451 0.10812287 -0.14988175
0.14574772 0.035403688 -0.039943527 -0.051174156 -0.051355977 0.11932558 0.010466467 -0.08740992
-0.09324828 -0.038377568 0.004951731 -0.12965517 0.009143753 -0.00224364 0.06745684 0.13278727
-0.011596992 0.070232004 0.17210233 0.1397823 0.10519753 -0.06309918 0.01062718 0.019887665
0.020061253 -0.10821135 0.086292684 -0.06862835 0.00035791704 0.02477117 -0.06873051 0.16907375
-0.08310497 0.017832085 -0.07287554 0.14655165 0.12988824 0.05277537 -0.14347234 0.018881433
-0.09623908 -0.09910517 0.10975053 0.05445787 -0.08870927 -0.035487212 0.13803776 0.07278518
-0.050263643 0.030453186 0.22297028 0.03053568 -0.09790156 -0.04457207 0.057532534 0.016636077
00000000: e17d 85bd f12d 11be e065 d1bc 902e 67bd
00000010: 04e3 d7bd eb20 d8bc e906 0cbe 291e d3bc
00000020: d433 013e f133 343c 02dc aebd caf8 e7bd
00000030: 6264 9cbd 5a75 ba3d 0a68 cb3d 13b2 aa3c
00000040: c042 edbc 0e7f ca3d bcf7 85bc 5f8d abbc
00000050: 48d1 213d b95b ccbc de72 43bc 0938 ad3c
00000060: f785 b8bd 7f62 163d 3afa 623d 1440 6dbd
00000070: 3aed 55bd bb02 2e3e 8f9b 283e 2800 84bb
00000080: 7c3e 14bd ddfa 2c3c da0d 583e 29a3 11bd
00000090: c587 48bd 81b9 8d3c 8d71 993d db60 073e
000000a0: 5947 f93c 758d f1bc cac9 5abb 215d af3d
000000b0: 709e 473d c2a4 d4bd 45e8 15be 163f be3d
000000c0: 02b1 9dbd 4738 abbd cb3f bfbd bd15 3c3c
000000d0: 3662 9a3c de06 853d 5bde 04bd a82e b5bc
000000e0: 8b02 01bb 35e4 0dbd cc21 4fbd 528b 9bbd
000000f0: a4de 95bd 9ef7 d9bc ee39 2a3e 5eca 78bd
00000100: 7487 2d3e c4c4 13be a2b7 a2bd e5f0 03be
00000110: 669d 84bd e1a9 77bd a8bb a63d 7bc7 2c3d
00000120: 68b5 e03d fab0 b43d 29f8 113e d70b a5bd
00000130: b79f 993c 98ee 1ebe ef2d 8dba 6b74 3fbd
00000140: 02d1 aa3c c7b4 a3bc 9e27 c9bb 341d f1bc
00000150: 477a 51bd ab68 ec3d 41af a0bb d33f 07bd
00000160: 19bd 483b 9392 60bd 71d1 e83c 8c9a acbd
00000170: 3785 afbd 58f2 263b 6f4c 053e d2c2 a2bd
00000180: ceab 54bd e00e 963d ce53 bc3d 5fe3 a4bc
00000190: 5711 053b 7e71 ca3d 184a 893d 74be 563d
000001a0: d2f5 9ebc f66a c3bc 1161 0d3e bb9a 9b3d
000001b0: e1d9 f53d 9cf6 063d 5afc 11bd b191 223e
000001c0: 7aa5 323e 4acd f83c fecb 6f3d 7c03 60bd
000001d0: d4df 283d b305 cf3d 1b03 1ebe 3000 ff3b
000001e0: 9307 edbc f4fa 003e 9871 8abd 832a 023e
000001f0: 8231 f33d 39b9 603d b584 8f3d 0863 903d
00000200: 5b5e 0a3d 8952 1bbd e1ec 223e 9fd3 e5bd
00000210: 4dbf ae3c 1483 79bd 232d c03d 5265 30bc
00000220: cffe fdbc d9c1 a03d 7969 b93d e1b8 fbbb
00000230: 8447 92bc 6f29 5dbd 9085 8ebc a235 4e3b
00000240: de22 6c3d 0fe7 563c c712 7fbc 2f7f 393c
00000250: 9973 05bd 2a32 b4bc 6af2 b43c 7e5d f3bc
00000260: 0a73 55bd f392 b63c 7f1e bebc b00e 8f3c
00000270: 82f2 7dbd 1e81 06bd c611 9dbd 4cd8 3ebb
00000280: 34f7 d63c 61e9 243e 10da fdbd 29b6 80bd
00000290: 100f 673d 5fc7 58bd 866f dd3d 9a7a 19be
000002a0: e43e 153e 7503 113d d39b 23bd fe9b 51bd
000002b0: a55a 52bd f860 f43d 8b7b 2b3c f903 b3bd
000002c0: f4f8 bebd cc31 1dbd 2142 a23b 53c4 04be
000002d0: aecf 153c 080a 13bb d026 8a3d 63f9 073e
000002e0: 4f01 3ebc ccd5 8f3d 983b 303e 1723 0f3e
000002f0: cd71 d73d 253a 81bd a01d 2e3c 75eb a23c
00000300: 7f57 a43c ea9d ddbd 38ba b03d 058d 8cbd
00000310: d0a6 bb39 e9ec ca3c 95c2 8cbd ab21 2d3e
00000320: f032 aabd 9814 923c c53f 95bd a311 163e
00000330: 6c01 053e fd2a 583d 6aea 12be 3cad 9a3c
00000340: ff18 c5bd a7f7 cabd e3c4 e03d 370f 5f3d
00000350: 35ad b5bd 0a5b 11bd c559 0d3e 6510 953d
00000360: 40e1 4dbd f678 f93c 5252 643e f625 fa3c
00000370: 9d80 c8bd 3491 36bd 3ca7 6b3d 6248 883c

encoder_var.8.bias f4 [14]
3.428849e-07 2.209991e-07 3.5190906e-09 -1.1243769e-07 -7.070255e-08 -3.7984285e-07 8.5313424e-08 8.4036276e-07
-6.190985e-07 2.3633888e-08 -1.4971998e-07 -6.911804e-08 2.5273177e-06 5.372232e-08
00000000: be15 b834 c54b 6d34 7fd4 7131 4675 f1b3
00000010: 23d5 97b3 34ed cbb4 8d35 b733 4a95 6135
00000020: 2030 26b5 7803 cb32 b7c2 20b4 0b6e 94b3
00000030: fd9a 2936 51bc 6633

encoder_var.9.weight f4 [14]
0.5208988 0.39527237 0.32557043 0.2762875 0.37497672 0.20701753 0.20832004 0.38864285
0.24538873 0.10730064 0.224821 0.33051136 0.41325215 0.4366071
00000000: a059 053f 2461 ca3e 2bb1 a63e 8e75 8d3e
00000010: f3fc bf3e 67fc 533e d951 553e 32fc c63e
00000020: 2f47 7b3e 70c0 db3d 7a37 663e c938 a93e
00000030: c995 d33e f78a df3e

encoder_var.9.bias f4 [14]
0.020206405 0.03570198 0.07121038 0.002061948 0.059479594 0.035459172 -0.013771145 -0.025297362
0.11251752 0.04347529 -0.06917888 -0.048975818 0.041037813 -0.055296436
00000000: e787 a53c 3d3c 123d bfd6 913d bf21 073b
00000010: e0a0 733d a33d 113d 5ea0 61bc 6a3c cfbc
00000020: 966f e63d 2513 323d a8ad 8dbd de9a 48bd
00000030: 4417 283d 847e 62bd

encoder_var.9.running_mean f4 [14]
-0.07474543 0.044896897 0.038407907 -0.047897816 0.025444971 -0.0057919757 0.097625405 0.06737606
0.03452785 -0.030730464 0.008145843 0.08172906 0.004306214 0.0588567
00000000: 2214 99bd cfe5 373d 9c51 1d3d 8030 44bd
00000010: f971 d03c 9dca bdbb d4ef c73d 76fc 893d
00000020: 136d 0d3d 74be fbbc 2476 053c 9161 a73d
00000030: 241b 8d3b b913 713d

encoder_var.9.running_var f4 [14]
0.012323354 0.007063046 0.008849515 0.007669011 0.013824517 0.006758043 0.0032461553 0.008274779
0.0051612104 0.0019753845 0.0101838345 0.0075908713 0.01193276 0.008290363
00000000: e5e7 493c 2071 e73b 8efd 103c 544c fb3b
00000010: 3a80 623c 9372 dd3b 73bd 543b f092 073c
00000020: 5f1f a93b 7475 013b 19da 263c d8bc f83b
00000030: 9f81 433c 4dd4 073c
