generativecf/models/bn1.pth (torch_old, 1080 bytes, 4 tensors)

predict_net.0.weight f4 [10, 3]
-0.8422898 -1.1663425 1.5283382 0.3419315 0.99328744 -1.3661845 -1.3213974 -0.4353228
1.1813112 0.671982 1.0660777 -1.2027339 -0.4506005 -0.66619724 0.76122624 -0.32639742
-0.79543895 0.98198897 -0.9672717 -1.1560718 1.6774725 -0.36736065 -1.0599586 1.1646518
1.2183058 1.1236223 -1.449597 -0.6497094 -0.3888805 1.1021812
00000000: 4ea0 57bf b64a 95bf 96a0 c33f a511 af3e
00000010: 1648 7e3f 22df aebf 8d23 a9bf a1e2 debe
00000020: 3535 973f 0307 2c3f 3c75 883f 2ff3 99bf
00000030: 1cb5 e6be e78b 2abf b9df 423f 901d a7be
00000040: e3a1 4bbf a163 7b3f 1e9f 77bf 29fa 93bf
00000050: 6bb7 d63f b216 bcbe b9ac 87bf 4f13 953f
00000060: 72f1 9b3f dbd2 8f3f 658c b9bf 5b53 26bf
00000070: 581b c7be 4614 8d3f

predict_net.0.bias f4 [10]
0.27390072 -0.00839141 0.45102364 -0.5004687 0.20025958 0.46328884 0.14836016 0.48616222
-0.48485547 0.015965393
00000000: b73c 8c3e 207c 09bc 92ec e63e b71e 00bf
00000010: d910 4d3e 3234 ed3e baeb 173e 41ea f83e
00000020: fa3e f8be dbc9 823c

predict_net.1.weight f4 [2, 10]
2.7815294 -0.4175109 0.9194927 -0.6560097 0.34084156 0.20988876 1.3461182 0.7987995
-4.307453 0.5056704 -2.3395677 0.7988996 -1.0004017 0.8540947 -0.1398919 -0.55200356
-1.7435236 -0.33366096 4.6157746 -0.23445962
00000000: 9404 3240 fdc3 d5be e063 6b3f 40f0 27bf
00000010: c982 ae3e 14ed 563e 9a4d ac3f 207e 4c3f
00000020: a8d6 89c0 9e73 013f 7abb 15c0 af84 4c3f
00000030: 2a0d 80bf f3a5 5a3f d23f 0fbe 1b50 0dbf
00000040: c82b dfbf 9cd5 aabe 6db4 9340 2f16 70be

predict_net.1.bias f4 [2]
-0.045966174 0.0008878567
00000000: 0747 3cbd 0ebf 683a
