generativecf/models/sangiovese-margin-0.161-validity_reg-94.0-epoch-50-base-gen.pth (torch_old, 33324 bytes, 78 tensors)

encoder_mean.0.weight f4 [20, 14]
000000 1f 44 81 38 eb 04 02 35 a6 f5 a2 b9 a2 36 26 39
       6.163888e-05 4.843593e-07 -0.0003108207 0.00015851346
000010 d1 02 20 39 0b 07 95 39 28 23 0f 39 cb ba 72 3b
       0.00015259838 0.00028424742 0.0001365064 0.0037037607
000020 82 fd 1e b7 33 b2 3b ba b2 3b af 3a 78 da ad 39
       -9.476558e-06 -0.00071600376 0.0013369231 0.00033159903
000030 de 35 6f 39 db 1b d1 bd 25 15 c9 3b bd 5f 9d 3c
       0.00022812883 -0.10210391 0.006136554 0.01921069
000040 2c e9 6b 3c 51 2d 81 3c ad f1 a0 3a 44 75 ab bb
       0.014398854 0.015768679 0.0012279056 -0.005232485
000050 21 0f 7c 3b 4a 52 da ba b4 43 c9 b9 38 0a 07 b9
       0.0038461166 -0.0016656604 -0.0003838815 -0.0001287841
000060 9f 27 a9 ba c5 e5 af 3a 9b 5f bc bb 94 45 82 bd
       -0.0012905485 0.0013419917 -0.0057487017 -0.06360927
000070 74 47 55 b0 d0 85 83 b0 7f 25 ad 35 c7 97 19 b0
       -7.759049e-10 -9.569536e-10 1.2900417e-06 -5.5876764e-10
000080 89 1d d4 34 02 69 e0 30 21 3d b2 33 3b 34 2e 32
       3.9509567e-07 1.632799e-09 8.29989e-08 1.0140009e-08
000090 b4 91 d7 35 eb 4c d9 33 80 69 94 b2 5a e1 9c ae
       1.6061153e-06 1.0118841e-07 -1.7277443e-08 -7.134089e-11
0000a0 cf 4e aa 33 19 85 bb bc 65 2b 8f b9 fe ef 39 35
       7.930577e-08 -0.022890614 -0.00027307417 6.9267105e-07
0000b0 e5 5d 58 37 36 56 23 ba fe 0b 1e b8 60 45 bb 38
       1.2896465e-05 -0.0006230803 -3.7681304e-05 8.929777e-05
0000c0 6b 21 69 b7 d2 fd 28 b9 3c 3e 96 35 14 d7 e6 b8
       -1.3895663e-05 -0.00016116284 1.1193983e-06 -0.00011007316
0000d0 7e b0 49 b8 af 7b f7 37 2f 17 e1 b8 5d 6c 16 bd
       -4.8086506e-05 2.950229e-05 -0.00010733154 -0.036724437
0000e0 fd 6b 10 38 54 b4 45 b6 a9 c2 18 39 41 09 82 38
       3.4432847e-05 -2.9460252e-06 0.00014568366 6.200607e-05
0000f0 9f c7 15 b8 64 bb 3e 38 b5 54 05 b9 cf 3a 59 b9
       -3.571028e-05 4.547405e-05 -0.00012715424 -0.0002071664
000100 1e b7 bc 37 e5 7f 6b 37 6e fd 03 37 aa 61 ec b8
       2.2496617e-05 1.4036869e-05 7.867215e-06 -0.00011271548
000110 d5 c0 fe b7 52 a0 7f 3c c5 05 3c a7 4d af 08 2b
       -3.0368954e-05 0.015602188 -2.6093369e-15 4.8560185e-13
000120 27 66 cf a4 7a c7 10 a3 f9 fc 21 b2 f7 67 ae a5
       -8.994499e-17 -7.8484964e-18 -9.428953e-09 -3.0254638e-16
000130 d8 73 2e 25 db e2 69 aa b5 66 94 ad 6d d3 91 ad
       1.5131344e-16 -2.0773263e-13 -1.6871263e-11 -1.6578483e-11
000140 5e 9e 00 a4 60 70 ae 2d de e6 da b1 02 6d 4e 34
       -2.7889718e-17 1.9831414e-11 -6.3708816e-09 1.9224902e-07
000150 db 61 83 b8 f3 bf ed b7 e7 06 17 b8 2e d5 83 b6
       -6.264794e-05 -2.8341985e-05 -3.6007634e-05 -3.9289216e-06
000160 31 2e 49 37 3f 4b 3c 35 5d 5a 4d b8 24 92 48 b9
       1.1991288e-05 7.0144955e-07 -4.8959966e-05 -0.00019127928
000170 f1 9d 84 38 19 3c 4d 3a 5d d7 ea b9 79 ed 4b b6
       6.3236694e-05 0.00078290846 -0.00044792416 -3.0387585e-06
000180 da fc 67 b8 02 36 92 3a 22 81 8e 3b 4d c7 ee 35
       -5.5310178e-05 0.0011155012 0.00434889 1.7790386e-06
000190 39 83 f2 3a 6d 36 7f 3a ca 1f 9b ba 4a 33 88 3a
       0.0018502242 0.0009735588 -0.0011835035 0.0010391262
0001a0 3d 48 cc 37 9d 30 44 bb 82 1d 94 b6 98 70 e8 b8
       2.4352334e-05 -0.0029936202 -4.414179e-06 -0.00011083594
0001b0 a1 11 4a bb eb 1b 20 b9 5e 33 e6 b9 d9 66 62 bd
       -0.0030833262 -0.0001526919 -0.0004390729 -0.055273864
0001c0 c9 55 2c b5 dc 71 34 b3 28 c6 04 37 d2 23 52 36
       -6.4199827e-07 -4.201307e-08 7.91395e-06 3.1313289e-06
0001d0 ab 51 38 39 5e dc a7 b8 ce dc 48 38 e1 0c c8 34
       0.00017578031 -8.004227e-05 4.7889356e-05 3.7262274e-07
0001e0 af 1c 38 35 4b 86 b5 33 07 fc a6 b9 32 a8 de 33
       6.858708e-07 8.452897e-08 -0.00031849762 1.0368275e-07
0001f0 de b9 f2 b6 7b 15 aa bc 10 92 2c 37 6a c3 9f af
       -7.2338e-06 -0.020762196 1.0286007e-05 -2.9060782e-10
000200 31 44 4e 36 3e 44 5c 34 1f 86 ea 33 34 da c4 35
       3.0736085e-06 2.0513923e-07 1.09208706e-07 1.4666643e-06
000210 b3 6d c8 33 7f ac 97 36 7b 19 43 b6 1b 7e 25 b0
       9.33318e-08 4.520232e-06 -2.9072096e-06 -6.0205857e-10
000220 f1 86 4e 36 47 65 25 b6 82 32 de b6 d7 ad d2 bb
       3.0774938e-06 -2.4645867e-06 -6.6219955e-06 -0.0064294147
000230 e7 88 8f 35 54 39 5c 37 8d 42 6f 32 28 97 6a 37
       1.0694174e-06 1.312637e-05 1.3926763e-08 1.3982681e-05
000240 71 f4 ab 38 d2 61 c4 33 c1 27 01 36 12 26 e1 b8
       8.199446e-05 9.1447546e-08 1.9245638e-06 -0.00010735927
000250 1d 2f a8 b7 12 31 05 b8 59 9e 23 39 ed fa 08 34
       -2.00491e-05 -3.175537e-05 0.0001560388 1.2757273e-07
000260 1e 93 a5 b8 6a b5 e1 b9 f7 5a 1a b9 76 09 63 b9
       -7.895216e-05 -0.00043050508 -0.00014720472 -0.00021651931
000270 ee 40 82 b8 e4 dc 66 b9 d4 ca 85 b8 62 b9 a6 b9
       -6.210977e-05 -0.00022016797 -6.379714e-05 -0.00031800108
000280 e1 bc 37 b8 fa ec 4a bb b0 f5 15 38 4e ef b2 3a
       -4.3806507e-05 -0.0030964003 3.5753183e-05 0.0013651641
000290 34 17 aa bb c5 5d ad 38 2e 67 5a 39 e6 e1 9c bc
       -0.0051907543 8.266749e-05 0.00020828538 -0.019150686
0002a0 3c df 90 bb 4c 91 f5 37 db 92 4a 3b 3e d1 d3 b7
       -0.004421143 2.9273935e-05 0.0030910287 -2.5250596e-05
0002b0 c8 73 fd 39 60 92 08 3c 1e 7d 22 3b 68 9f 09 b9
       0.00048342184 0.00833568 0.0024793814 -0.00013124722
0002c0 25 b2 99 b9 8a a7 49 ba 16 fe 90 39 f9 96 79 3b
       -0.00029315162 -0.0007692507 0.0002765513 0.0038084371
0002d0 f2 ef a6 3a e6 77 2e 3b 2c 43 65 37 17 83 f7 30
       0.0012736304 0.0026621758 1.3665103e-05 1.8008873e-09
0002e0 3f ed 30 34 0d 54 7d 34 e8 04 a3 32 c6 da b3 37
       1.6477587e-07 2.3593039e-07 1.8977929e-08 2.1440337e-05
0002f0 a7 d9 b0 36 2a 58 77 34 1b f0 99 b4 93 9e 93 b6
       5.270547e-06 2.3035741e-07 -2.867317e-07 -4.399402e-06
000300 1e 47 80 b6 f8 ac 98 b6 b7 c4 c2 b7 ba b4 9f bc
       -3.8229764e-06 -4.550089e-06 -2.3218205e-05 -0.019495357
000310 67 93 dd 38 a2 ef ad b4 ae b5 fd 35 ed 34 5c 38
       0.00010565557 -3.2398117e-07 1.8902845e-06 5.250138e-05
000320 e9 92 58 35 ff 58 eb 38 d9 5b ae 37 62 bf 35 b7
       8.0680053e-07 0.0001122225 2.0785186e-05 -1.08330005e-05
000330 95 07 e0 b6 31 4d 73 37 64 22 56 b7 65 82 76 36
       -6.676603e-06 1.4501901e-05 -1.2763401e-05 3.6732756e-06
000340 99 57 c1 35 16 d4 0c 3a c0 7a c0 b6 7f df 30 34
       1.4405115e-06 0.00053721794 -5.736336e-06 1.6472585e-07
000350 3f b9 62 30 a1 d1 57 31 b1 b8 c4 af 16 8f c3 2e
       8.248157e-10 3.1405778e-09 -3.5783423e-10 8.8929905e-11
000360 91 f6 03 31 35 11 b0 30 56 64 03 b1 9b 54 48 b1
       1.9203166e-09 1.2810576e-09 -1.9120043e-09 -2.9151923e-09
000370 a2 5d ab 2e fd c5 89 b3 17 a6 0d b4 63 3d 05 38
       7.792812e-11 -6.4155735e-08 -1.3192071e-07 3.1766842e-05
000380 2e 9f 50 37 dd 60 67 b8 6f 7c 51 b7 fa a2 c7 38
       1.2434828e-05 -5.5164903e-05 -1.2486343e-05 9.519416e-05
000390 dc 26 16 b9 a6 fd 27 37 89 f9 51 b7 76 5d 81 39
       -0.00014319591 1.0013033e-05 -1.251547e-05 0.0002467443
0003a0 1d ee 49 3a 1f 7a 6a b7 35 e7 b0 3a e1 c7 72 36
       0.0007703023 -1.397592e-05 0.001349664 3.6177155e-06
0003b0 23 58 40 b8 79 f7 68 3d 63 6e 48 39 25 31 7d 37
       -4.585845e-05 0.056876633 0.00019114609 1.50914175e-05
0003c0 64 c9 17 b8 a6 ab ec b8 62 89 30 37 53 82 54 b8
       -3.6188765e-05 -0.00011285329 1.0522404e-05 -5.0666113e-05
0003d0 e9 f9 f3 b7 33 6f 51 39 80 2c 28 ba dc 22 fe b8
       -2.908423e-05 0.00019973218 -0.00064153224 -0.00012118157
0003e0 17 14 b0 38 82 29 23 39 4d b8 7f 37 9f 36 84 3d
       8.396076e-05 0.00015560354 1.5242095e-05 0.06455731
0003f0 40 93 6b 37 af 11 84 34 73 1a 11 b7 f0 44 2b 35
       1.4041376e-05 2.4599782e-07 -8.648832e-06 6.380278e-07

encoder_mean.0.bias f4 [20]
000000 58 2e 9b 2b 89 7f 33 26 b2 20 f1 a7 a0 68 50 2a
       1.1026275e-12 6.2275943e-16 -6.6926386e-15 1.851041e-13
000010 9e 83 b2 23 36 7a e6 9b b2 10 3a 24 ff 19 d4 28
       1.935454e-17 -3.8129285e-22 4.0346462e-17 2.3548002e-14
000020 d2 d0 52 a9 0f e2 e9 26 98 9a f9 2b fd 4f 8d ab
       -4.681049e-14 1.6228896e-15 1.7735423e-12 -1.0040854e-12
000030 12 0a fc 26 6f 73 1f aa 02 97 14 2d 52 2f ae a8
       1.7488742e-15 -1.4162086e-13 8.4463565e-12 -1.9338403e-14
000040 80 d2 e8 2a 14 ec 28 2b a5 ad b0 2c 6a f8 13 2a
       4.1357542e-13 6.0013214e-13 5.0214993e-12 1.3142409e-13

encoder_mean.1.weight f4 [20]
000000 5b e6 1e 3d 14 21 3d b7 a0 4a 1b 38 1e 19 8a 38
       0.038793903 -1.12729795e-05 3.702438e-05 6.585031e-05
000010 fc 1b 89 b6 eb ca d0 2f 3c 35 f7 b6 26 af c0 38
       -4.086176e-06 3.7979161e-10 -7.367371e-06 9.1878974e-05
000020 cb 5c 05 3b a7 78 f9 b7 7d 0b 17 39 2e 2d 3f 3a
       0.0020349498 -2.9739296e-05 0.00014404762 0.0007292804
000030 b6 5e a8 37 e1 8e cb 39 32 1b 8d 3b 12 b7 a2 39
       2.0071264e-05 0.0003882563 0.0043062204 0.00031035446
000040 f7 fc d3 3a cf 76 28 3c 40 4d 5c 3b 47 0c 6b 3b
       0.0016173412 0.010282232 0.003361538 0.0035865472

encoder_mean.1.bias f4 [20]
000000 72 05 89 37 e5 74 1f b8 1e bd 1e 36 c4 fd ea 37
       1.6334208e-05 -3.801742e-05 2.3653915e-06 2.8013143e-05
000010 8a 99 23 b8 74 d0 f8 b1 7f b8 15 b6 74 2d fb b4
       -3.9005223e-05 -7.2414483e-09 -2.231012e-06 -4.6785465e-07
000020 71 c3 86 b9 ba aa 6d b8 48 23 ba b9 ca d3 96 36
       -0.00025704087 -5.6664205e-05 -0.0003550297 4.495004e-06
000030 b2 83 0e b8 ce f8 e4 b8 c5 59 4a bb fc 5e 68 b9
       -3.397809e-05 -0.00010918231 -0.003087626 -0.00022160629
000040 c8 45 73 b9 6e 91 1f 3b 4a 02 f2 b7 b9 92 d7 b9
       -0.00023200281 0.0024348157 -2.8849714e-05 -0.00041117313

encoder_mean.1.running_mean f4 [20]
000000 33 6d 6f bd e5 be 4a bc 34 44 66 bc 59 67 bb bc
       -0.05845375 -0.012374614 -0.014054347 -0.022876428
000010 79 e8 1c 3c 43 d6 1a 34 d4 b0 2f 3a ca e6 06 bd
       0.00957691 1.4420316e-07 0.00067020697 -0.03293494
000020 45 e9 50 bc 20 0c 84 bb 2d 72 90 b9 51 1a 81 bc
       -0.012750928 -0.0040297657 -0.00027550888 -0.015759619
000030 9e f3 18 3c c1 f5 43 bc d0 44 1b 3a c9 53 99 37
       0.009335427 -0.011960448 0.00059230346 1.8278037e-05
000040 58 c2 11 3d 45 0f 1f 3d 00 17 07 3c 3d 6a 39 3a
       0.03558573 0.03883292 0.00824523 0.00070730207

encoder_mean.1.running_var f4 [20]
000000 bd 5a 2d 3b b2 2d ac 3a f7 ea 11 39 d1 cc b4 39
       0.002645179 0.0013136177 0.00013915809 0.00034484876
000010 8e e9 89 38 c6 fe af 28 c3 ea ee 34 4c af 50 3a
       6.576172e-05 1.9539393e-14 4.4501766e-07 0.00079606916
000020 bb 41 ec 38 30 31 41 37 9a 71 b0 33 8f 44 bc 38
       0.000112656 1.1515149e-05 8.216303e-08 8.9773086e-05
000030 b5 7f 38 36 9d 98 d3 38 0a 0c eb 33 2b 39 ce 2f
       2.7492472e-06 0.000100896905 1.094523e-07 3.7511802e-10
000040 8c 7e 59 3a 4b 58 8c 3a 88 b5 5d 38 c8 74 a6 35
       0.000829675 0.0010707466 5.285957e-05 1.2401952e-06

encoder_mean.4.weight f4 [16, 20]
000000 13 20 e6 b9 09 6a 27 3b ed d6 41 3a d1 a6 f4 b9
       -0.00043892916 0.002554538 0.0007394392 -0.00046663595
000010 09 7c b6 b9 d0 29 a1 b8 c8 2e 45 b7 12 2e e5 b8
       -0.00034806159 -7.6848664e-05 -1.1753007e-05 -0.00010928152
000020 d1 98 f2 39 ce 71 12 3b 3f 83 1f 3c 41 7a 1a b7
       0.00046271694 0.0022345665 0.009735881 -9.20758e-06
000030 f7 56 93 3a 46 af 87 3b be 13 84 3b f3 0c 0f 37
       0.0011241128 0.0041407673 0.0040306738 8.526479e-06
000040 16 82 59 3a d7 cf 97 b8 4d 29 06 35 02 f9 c3 b9
       0.00082972774 -7.238954e-05 4.997899e-07 -0.00037378824
000050 96 de 89 3c ff fb 89 b7 1b 46 b1 ba 25 11 73 39
       0.01682977 -1.6449017e-05 -0.0013524921 0.00023180673
000060 32 05 d0 ba 97 95 8d b8 7a 35 1c b6 af 98 bc 3a
       -0.0015870689 -6.751267e-05 -2.327694e-06 0.0014388765
000070 f4 6b cd ba 29 63 06 37 cd 73 cb 3a 86 6a fd 39
       -0.0015672431 8.01011e-06 0.0015522182 0.00048335287
000080 ed 90 96 b9 90 cb 14 39 1f 3e 92 3b 40 79 b0 ba
       -0.00028718208 0.00014190213 0.004462972 -0.001346387
000090 d6 6c 3d ba 76 94 86 ba 15 06 c3 39 32 a4 10 ba
       -0.00072259957 -0.0010267633 0.0003719783 -0.0005517631
0000a0 8d 71 dd bb da f3 3b b9 0d 60 37 bb c9 d2 e9 bb
       -0.006757921 -0.00017924552 -0.0027980835 -0.0071357233
0000b0 89 16 76 3c 6e 64 f8 3a d5 53 35 3c a0 38 4a 34
       0.015020021 0.0018950829 0.01106735 1.8833316e-07
0000c0 60 fd c7 bb 85 5f 85 bb 51 35 c5 b9 39 97 f7 3a
       -0.0061032027 -0.0040702247 -0.00037614492 0.0018889672
0000d0 a6 d5 11 b4 8d 64 d1 ba 5e b3 54 ba 19 e9 eb 39
       -1.3581902e-07 -0.0015975401 -0.0008113886 0.00044996364
0000e0 ba fa 80 3b 09 4d 94 b9 7a 3d ad 36 fb 20 a5 39
       0.003936139 -0.00028286155 5.1629586e-06 0.00031495825
0000f0 ed c2 24 ba 53 8a 2e b9 22 35 c3 b9 62 65 0c 39
       -0.000628515 -0.00016645463 -0.00037232885 0.00013389208
000100 e9 41 4c 33 47 f8 b9 38 8f 6a 34 3a e7 16 c1 35
       4.7557396e-08 8.867733e-05 0.00068823335 1.4386286e-06
000110 87 2f 33 ba e8 5c ac b8 9d 64 8f b9 72 77 7a 39
       -0.000683539 -8.218904e-05 -0.00027350048 0.00023886355
000120 f2 07 83 3b bb cf 2a 39 ad ee 25 b9 30 d8 34 b9
       0.00399875 0.00016289849 -0.0001582454 -0.00017246674
000130 36 17 34 b9 d0 ab 80 39 32 e2 bf 3a a4 2f 83 3b
       -0.00017174784 0.00024542073 0.0014639555 0.004003482
000140 9f 38 97 3b fe 45 b8 36 95 14 8f b9 2c f7 f8 38
       0.004614904 5.4917755e-06 -0.0002729042 0.00011871601
000150 1d 8b 39 ba 16 c2 08 39 3b 1b 64 39 64 29 10 b5
       -0.00070779194 0.00013042273 0.00021753919 -5.370441e-07
000160 09 df bc b9 21 5a 84 3b 8c 47 40 3a aa f8 24 b8
       -0.00036024328 0.0040390645 0.000733488 -3.9332233e-05
000170 68 b1 98 3b f8 b3 6e 3b f6 34 41 3c 55 a5 ab 31
       0.0046598203 0.0036423188 0.011792412 4.995551e-09
000180 2c fa 73 bb 66 88 9a b8 a0 84 cf 37 db 9a b2 b9
       -0.0037227971 -7.3686984e-05 2.4738081e-05 -0.00034066182
000190 d5 36 33 3a f1 2b 89 39 89 9d 06 3a e9 54 12 38
       0.0006836479 0.00026163415 0.0005135169 3.488819e-05
0001a0 a4 20 d0 38 ed 13 8b ba 64 d0 8d 39 84 c7 5b 3a
       9.924293e-05 -0.0010610797 0.0002704888 0.0008383917
0001b0 4e 10 2d 39 06 1e 0b 3b 71 9c 01 3c 8f 54 80 bb
       0.0001650464 0.0021227612 0.007910834 -0.00391633
0001c0 8d a3 78 39 43 8f 42 38 9a ab 27 3c 62 34 78 ba
       0.0002371205 4.6386627e-05 0.010233784 -0.0009468255
0001d0 2e 6e c3 b9 61 6d 88 ba f8 5d 19 ba 4b 5a 9e 39
       -0.0003727539 -0.0010408574 -0.0005850489 0.00030203382
0001e0 72 da 7a ba 5a 89 1a b7 24 36 e7 b9 38 d3 b1 b9
       -0.0009569294 -9.211095e-06 -0.0004410009 -0.0003391744
0001f0 41 28 fc ba 54 39 2f 39 52 52 0c 3b b5 1e 0a b6
       -0.0019238071 0.00016710657 0.0021411371 -2.0581476e-06
000200 4c 9e 5e b7 cd 83 ba b9 9f 35 29 b8 c8 fd d7 38
       -1.32690875e-05 -0.00035574884 -4.034268e-05 0.00010299269
000210 a1 7a a9 39 93 18 2e ba 3e 61 20 ba 4d 87 03 3a
       0.00032325558 -0.0006641235 -0.0006118006 0.0005017415
000220 e6 2f 50 b9 a8 54 90 3a 19 e0 6b 39 03 5c 36 ba
       -0.0001985427 0.0011011558 0.0002249483 -0.000695646
000230 6c c9 8d bb c9 59 19 3a 74 4e b3 38 8d 0d 9b 3b
       -0.00432699 0.0005849866 8.549998e-05 0.00473184
000240 53 dc bf b7 1a eb 18 3a 5c 3e 19 38 8c 46 c2 b5
       -2.287157e-05 0.00058333727 3.653612e-05 -1.4474658e-06
000250 bb c0 12 ba 8e b1 d3 3a e4 cd 11 3c 7d ae 5c ba
       -0.0005598177 0.0016150938 0.008899186 -0.0008418335
000260 f1 a6 b5 af ef 5c d4 39 75 e5 d8 3b 10 b8 01 3b
       -3.3042327e-10 0.00040505032 0.0066191503 0.0019793548
000270 c3 60 8d 38 bf a1 9a ba e6 93 bb 38 8f 0f 82 39
       6.741427e-05 -0.0011797472 8.944403e-05 0.00024807124
000280 c7 b1 3e 3c 21 ee d0 39 e0 2d 15 3d 1c d6 d3 3c
       0.011639065 0.0003985027 0.036420703 0.025858931
000290 b3 60 c3 bb b6 f0 a1 bc d9 6e 75 bb 97 ec d8 39
       -0.005962455 -0.0197681 -0.0037450104 0.00041375004
0002a0 0c 1d be 3a 56 8e 71 3c c0 34 22 3b 04 a7 42 b9
       0.0014504506 0.014743408 0.002475068 -0.000185635
0002b0 4a 52 ba 3a 34 da 1c 3b ce 3d fc 3a f0 db dc 3b
       0.0014215198 0.002393377 0.0019244493 0.006740086
0002c0 eb 02 af ba 93 e9 a1 bc 1d 6c 93 3a 5b 45 8c bc
       -0.001335231 -0.019764697 0.001124743 -0.017122915
0002d0 21 d2 7a 3c 85 35 c0 3a a6 77 e4 3b 46 8a 39 ba
       0.015308888 0.0014664388 0.006972271 -0.0007077794
0002e0 2a 8a 85 3c 8e e5 10 ba 6f 90 3d ba df bc a9 3a
       0.016301233 -0.00055273704 -0.00072313 0.0012949965
0002f0 75 23 7d 3c a9 c3 b2 3c 8a 6c 27 3c b4 f6 0e 3b
       0.015450348 0.021821814 0.010218749 0.0021814527
000300 38 21 c5 ba 99 ad d6 3b f8 bd 98 bc 13 6a 0e bc
       -0.0015039807 0.006551456 -0.018645272 -0.008692282
000310 cb f1 1a b9 82 e4 1d bb 1a 5c 8e bb 9d cd 5c bc
       -0.0001477666 -0.00240925 -0.0043444755 -0.013476756
000320 32 ec 52 3d 2c 7a 3f 35 d6 4e d7 3a 76 76 9f 3c
       0.051494785 7.133083e-07 0.0016426693 0.019465666
000330 3a 1b e1 ba 48 1b 67 bb 75 32 84 ba 64 59 1d b9
       -0.0017174252 -0.0035264064 -0.0010085838 -0.00015005987
000340 d4 45 f5 3a f3 b1 75 3b 4f d0 30 bb 25 b3 26 ba
       0.0018712827 0.00374901 -0.002697963 -0.0006359092
000350 e6 33 1c bb 1e 46 3b 3c c1 ba cb bb e1 48 3a 3b
       -0.0023834645 0.011430291 -0.006217331 0.0028424787
000360 d0 00 1f bc 7f b8 4a ba 15 7e 3e ba bb 28 c2 bb
       -0.009704784 -0.00077331805 -0.00072667125 -0.0059252656
000370 d0 de 9a 38 00 9b d8 b6 86 74 b9 35 33 1b c9 b7
       7.384794e-05 -6.455346e-06 1.3817487e-06 -2.3973733e-05
000380 05 b5 a2 b4 1d f4 07 2a f6 d1 b1 b4 10 af 0f 38
       -3.030656e-07 1.2075102e-13 -3.3121586e-07 3.4256896e-05
000390 d6 82 c7 38 10 3d af b5 c9 c4 66 b7 e6 72 3e b8
       9.5134295e-05 -1.3056288e-06 -1.3754886e-05 -4.5406538e-05
0003a0 8f c1 fb 37 06 7d c6 36 f7 8f 6b b9 7b 52 8c b6
       3.0011664e-05 5.9154145e-06 -0.00022464978 -4.181927e-06
0003b0 48 a2 05 37 1a 7d 06 39 49 8d 25 3b 5b 00 3d b8
       7.965202e-06 0.0001282584 0.0025261214 -4.5061443e-05
0003c0 e8 d4 a8 b8 0e 97 ad b6 c0 7a 21 37 cd 0a 22 b5
       -8.050521e-05 -5.173387e-06 9.624928e-06 -6.036542e-07
0003d0 e8 5a af 34 17 b3 c6 34 85 9e 69 35 1c 03 38 b5
       3.2662433e-07 3.701068e-07 8.702994e-07 -6.8549866e-07
0003e0 75 a8 0c b7 9c 30 18 35 6b ed 2f 36 50 d3 fe b5
       -8.383872e-06 5.669515e-07 2.6215228e-06 -1.8985975e-06
0003f0 82 41 5f 38 f0 c5 b2 b7 d1 f3 56 b7 0c 91 be 35
       5.3228352e-05 -2.1311425e-05 -1.2812162e-05 1.4198317e-06

encoder_mean.4.bias f4 [16]
000000 e8 85 41 a8 4b 3e 5d ab ca 9f 5d 2b 22 75 5e ac
       -1.07426885e-14 -7.860142e-13 7.8736724e-13 -3.161312e-12
000010 5f 51 a2 29 f1 f8 1d 2d ca c4 01 2e 9f 9f c7 ad
       7.208361e-14 8.979693e-12 2.9505988e-11 -2.2694567e-11
000020 f3 0b 6c aa ee 92 44 2d 8a 2d 2c aa 2e dd 1a ad
       -2.0965156e-13 1.1173935e-11 -1.5292468e-13 -8.802998e-12
000030 01 95 77 ac 38 fd d4 ad 0b 13 9f aa ba 2a 01 2c
       -3.5183525e-12 -2.4214061e-11 -2.8257287e-13 1.835572e-12

encoder_mean.5.weight f4 [16]
000000 25 22 9c 38 aa 59 81 3a ac 3d 67 3b 5e 9d 79 3b
       7.4450196e-05 0.0009868641 0.0035284562 0.0038088183
000010 a9 3e 1b 3a 56 a2 90 3c eb 57 1f 3d 75 ca 26 3d
       0.0005922118 0.017655533 0.038902204 0.04072042
000020 83 e5 81 39 53 f9 0d 3c bf 2d b1 3a 71 d9 1f 3c
       0.00024775797 0.008665401 0.0013517662 0.009756432
000030 35 e1 b9 3a 08 53 d9 3c 60 ec e0 39 c5 b3 2e 3c
       0.0014181497 0.02652885 0.00042900722 0.010662978

encoder_mean.5.bias f4 [16]
000000 e4 36 8c b8 ce 10 9a ba a8 02 12 b9 7d d1 67 38
       -6.6859444e-05 -0.0011754276 -0.00013924635 5.5269793e-05
000010 7e 57 0b ba eb 89 3a bb 6a 46 9d bb 20 24 b1 bb
       -0.00053154666 -0.0028463553 -0.004799654 -0.0054059178
000020 00 8e 5a 38 0b 2b 43 bb ff e1 81 ba a9 22 52 3b
       5.2107498e-05 -0.0029780294 -0.0009909271 0.0032064116
000030 90 5c 1f 39 38 3d 75 ba 0d 6a 54 38 94 5f 7f b8
       0.00015197904 -0.00093551306 5.0643506e-05 -6.088575e-05

encoder_mean.5.running_mean f4 [16]
000000 b6 f1 0d b7 55 82 b7 39 57 b9 1a b9 ce a2 18 b7
       -8.460533e-06 0.00035001585 -0.00014755629 -9.097812e-06
000010 f5 62 c9 38 e2 89 83 36 46 f9 78 b7 7e 12 d6 b8
       9.602859e-05 3.920156e-06 -1.483999e-05 -0.000102077596
000020 b7 1b d3 38 fe fc a1 39 bd 13 8b 3a cc a6 f8 36
       0.00010066426 0.00030896807 0.0010610741 7.4103937e-06
000030 bd d7 0a b6 69 f8 db b8 31 b6 83 39 74 c8 d4 b8
       -2.0689179e-06 -0.00010489004 0.0002512201 -0.00010146285

encoder_mean.5.running_var f4 [16]
000000 69 cb 0a 2f 40 72 74 34 30 af 22 33 eb 1c 2f 30
       1.2623293e-10 2.2765835e-07 3.7877896e-08 6.3705724e-10
000010 70 31 9a 32 0c a5 2f 30 9f 27 c3 30 84 f8 69 32
       1.7950441e-08 6.3899175e-10 1.4199378e-09 1.3618891e-08
000020 b2 09 58 34 05 23 6a 34 30 76 08 36 1a d3 46 2d
       2.0120095e-07 2.1805688e-07 2.0334373e-06 1.1301871e-11
000030 f5 00 31 2d b9 3c 64 33 72 ab 01 34 8b d7 9c 35
       1.0061498e-11 5.3140614e-08 1.2076433e-07 1.1685637e-06

encoder_mean.8.weight f4 [14, 16]
000000 ed e4 bd 3b 60 2a b0 bc 10 11 97 3b 54 59 3a ba
       0.0057951123 -0.021504581 0.0046101883 -0.0007108648
000010 e4 3b a5 ba eb e2 3d bd 28 61 74 3c dd 3e 43 bd
       -0.001260635 -0.046358984 0.014915742 -0.047667373
000020 67 16 b2 bc 0f 82 92 3c 16 af f7 ba 36 6d ee 3a
       -0.021739198 0.017884282 -0.0018896784 0.0018190506
000030 67 6d 06 3c 0b df 45 bb 46 19 9e bb 0f c0 b6 ba
       0.0082047945 -0.0030192758 -0.00482479 -0.0013942736
000040 15 12 96 b7 3f cd ba bb 73 2d ab 38 2f 24 45 b9
       -1.7889814e-05 -0.005700737 8.162381e-05 -0.00018800863
000050 7a 95 13 b8 2c 0d 69 bb 16 c4 c1 b8 44 2a 1d bc
       -3.5186742e-05 -0.003556083 -9.239481e-05 -0.009592596
000060 45 5c a0 b8 3c 28 ce 3b 3e 8f 9e 3a 2d 52 82 b9
       -7.646581e-05 0.0062914174 0.0012097133 -0.00024856758
000070 7a e9 19 39 a4 80 87 3a 0d 30 c5 37 fc 2e 4c 3c
       0.00014678194 0.001033802 2.3506605e-05 0.012462374
000080 6a ad 27 3a 62 ca 99 3a aa 34 f5 38 a0 83 36 b9
       0.0006396385 0.0011733288 0.0001169232 -0.00017405907
000090 15 4f c7 38 d4 c1 4a 3a 13 cb 76 3a 91 ea 22 3b
       9.5037896e-05 0.0007734571 0.00094144157 0.002485905
0000a0 72 2f 92 39 51 d0 59 39 16 97 00 3a 90 f8 04 3a
       0.0002788264 0.00020772337 0.0004905326 0.0005072439
0000b0 21 3a a9 38 e2 9a 61 b9 7f 2d 19 b9 16 30 8f b9
       8.069375e-05 -0.0002151537 -0.00014608166 -0.00027310912
0000c0 72 c9 c2 bc 28 d9 ce 39 13 5e e3 ba d3 4d 9e bc
       -0.023777697 0.00039453176 -0.0017346762 -0.019324219
0000d0 c0 4b 24 bc 01 29 c5 bc 11 d3 5f bb 45 10 82 bc
       -0.010027826 -0.024067404 -0.0034152905 -0.015876899
0000e0 e6 6c 34 3b 8a cb 0e bc 6f 15 0d bb 2f 55 b5 3c
       0.002753073 -0.00871552 -0.0021527668 0.022135345
0000f0 8f 2e d3 3c 07 9d 8a bb f8 62 6f b8 d3 be fa b9
       0.025779037 -0.004230145 -5.7074212e-05 -0.0004782589
000100 4e b2 19 bc 8b c0 6e bc c7 73 27 bc 8e bb ab 3c
       -0.00938089 -0.014572273 -0.010220475 0.020963456
000110 4c 17 12 bc d3 70 61 ba 30 fe 41 bb a6 e5 8f bd
       -0.008916687 -0.0008599881 -0.002960097 -0.07026224
000120 d0 f5 bc bb f0 c7 b6 bb 78 a0 95 bb 24 07 9d 3c
       -0.005766608 -0.0055780336 -0.0045662485 0.019168444
000130 d3 0f e5 3a 1e 98 87 3d b9 98 8a bb f5 f5 92 3c
       0.001747603 0.06620811 -0.0042296317 0.017939547
000140 da 3f 4f bb cf ca 59 3d 1e 20 fc b9 28 fd a8 ba
       -0.0031623752 0.05317193 -0.00048089115 -0.0012892829
000150 0f 1a 65 ba 51 0c 3a 3c f2 d5 1a 39 63 39 3f 3c
       -0.000873954 0.0113554755 0.00014766285 0.011671397
000160 a8 63 56 3c 50 8b 25 bc 59 e3 fb 3c a2 97 16 3c
       0.013085283 -0.0101040155 0.030748056 0.0091914255
000170 30 e4 30 3c ac e5 a5 b8 05 8b c3 39 51 70 cc 3c
       0.010796592 -7.910593e-05 0.00037296876 0.0249559
000180 1f 04 80 3b a3 56 6d bb aa e1 f3 39 b1 42 72 3b
       0.0039067413 -0.003621497 0.00046516705 0.003696602
000190 04 00 0e b9 c2 70 48 bc d9 1a 17 3a e5 ab 55 bc
       -0.00013542181 -0.012233915 0.00057641935 -0.013041471
0001a0 c2 4a 37 bb 3f e7 aa ba cc 0f 91 ba ea 6c 15 b8
       -0.0027968143 -0.0013038887 -0.001106733 -3.5625802e-05
0001b0 22 fd 90 3a c8 9b f3 3c 84 ee 4a bb 6c 8f cf 3c
       0.0011061768 0.029737368 -0.003096492 0.025336944
0001c0 fa 6f 0a bc 8f 5a 45 3d 98 4a 00 3b 24 6a 1e 3a
       -0.008449549 0.048182067 0.0019575711 0.0006043038
0001d0 17 e5 48 3a d8 03 78 bc 23 bc ee 3b 0c 09 4b bc
       0.00076635316 -0.015137635 0.0072856112 -0.012392294
0001e0 9b c3 c0 3a a1 c9 07 bc 49 a4 72 3c 88 f8 4c 3c
       0.0014706732 -0.008287818 0.014809676 0.012510426
0001f0 ae 33 3d 3c 24 2c 95 39 03 2a fb b9 80 45 b2 3b
       0.011547966 0.00028452382 -0.00047905752 0.005440414
000200 cd dc 50 bb d0 78 72 ba 73 1b 74 b4 b3 85 f0 3b
       -0.0031869889 -0.000924957 -2.2734257e-07 0.007340157
000210 91 8d b8 3c 30 38 91 bc d0 00 9d 3b 19 b5 f3 bb
       0.022528442 -0.017726988 0.0047913566 -0.00743736
000220 7f 3d ae b9 42 9e 50 39 20 02 4f bb d5 56 82 3c
       -0.00033233684 0.00019895381 -0.003158696 0.015910545
000230 ff d7 8e 3b aa 13 05 3c 0b f5 a3 38 e1 48 de 3b
       0.004359245 0.008122364 7.8180885e-05 0.00678359
000240 e3 f7 ec bb ee b3 68 ba 61 5b ce ba 34 68 ec 3b
       -0.007231699 -0.0008876909 -0.0015743786 0.0072145704
000250 28 e6 8f bb 40 90 83 bc 97 74 f9 ba f4 f1 9d bc
       -0.0043914504 -0.016059995 -0.0019031939 -0.019280411
000260 c4 dd f2 b8 df 76 19 bc 60 ea f1 ba 8c e7 50 bb
       -0.00011580766 -0.00936672 -0.001845669 -0.0031876294
000270 79 22 ea ba d2 cd 03 3b ef 57 fd 3b 8a 9b 5a ba
       -0.0017863057 0.0020111692 0.0077314298 -0.0008339217
000280 27 63 4a b5 0c b6 11 ba 50 f0 27 39 0e 19 c8 b5
       -7.539515e-07 -0.0005558438 0.00016015884 -1.4908453e-06
000290 c2 ac 65 b7 f2 bf 09 bb d8 4c 2d 38 18 66 e3 b7
       -1.3689687e-05 -0.002101895 4.131798e-05 -2.710805e-05
0002a0 b1 49 db 37 df 7d 3f b7 3d af e9 b3 44 2c 3c b5
       2.614115e-05 -1.1413794e-05 -1.0881784e-07 -7.009987e-07
0002b0 d7 52 11 b5 2c 9c af 3a 11 63 db b4 da 0c 0b b7
       -5.413726e-07 0.0013397983 -4.086401e-07 -8.288038e-06
0002c0 85 eb b1 bb 11 a0 46 3c e1 5b 27 3b cc 9e ae bc
       -0.0054296874 0.012123124 0.0025536942 -0.021315955
0002d0 62 48 17 3c 0b 0f f2 bc 5a 21 9e 3d 2c cc 2f bb
       0.009233566 -0.029548189 0.07721205 -0.0026824577
0002e0 4c 82 69 bb 14 e1 b9 b8 37 54 6e 3c d9 ac 71 3d
       -0.0035630642 -8.8634115e-05 0.014546446 0.05900273
0002f0 1c 93 f4 3c 1a a3 74 bb ac ad d1 3a db 8f 4b bb
       0.029855303 -0.0037328661 0.0015997193 -0.0031061086
000300 7b c2 63 3a f7 c9 7c b9 b6 d0 9d 39 39 e7 a6 3c
       0.00086883426 -0.0002410783 0.00030100875 0.020373927
000310 1c e0 7c 3c 39 9f 72 3d 55 97 8e 3c 14 02 27 3c
       0.015434291 0.059233878 0.017406145 0.010193367
000320 b4 ee 82 ba 03 4a c3 3c 5b aa 8c 3c d5 7d a8 bc
       -0.0009989352 0.023839002 0.017171076 -0.020567814
000330 3e c2 1a 3c 4a 37 82 bb ef 4b c4 bb 0a 62 26 39
       0.009445725 -0.003973876 -0.0059904973 0.00015867516
000340 0f ca d9 bb 06 69 e8 ba e2 6f ec 37 a5 59 3b b9
       -0.0066464017 -0.0017731495 2.8185492e-05 -0.00017867105
000350 76 54 4f bb 84 36 e7 bc d5 cc 51 3b 4a c2 97 bb
       -0.0031636036 -0.028224237 0.0032012959 -0.0046313154
000360 e0 8e 48 b9 82 2c cb ba de d7 91 b9 f8 72 02 3a
       -0.00019126711 -0.0015500935 -0.0002781739 0.0004976238
000370 17 20 cf bb fc 47 90 ba 8e 54 8e 39 44 6a 78 39
       -0.006320964 -0.0011007781 0.0002714735 0.0002369071

encoder_mean.8.bias f4 [14]
000000 ed 07 c1 2b b6 40 8f 2a e4 bf 76 ac 49 af fd 25
       1.3715675e-12 2.5446805e-13 -3.5065223e-12 4.4007282e-16
000010 3f b5 54 af 31 8b c9 28 69 bb e3 ad 1b cd 00 2e
       -1.9345679e-10 2.2375847e-14 -2.5890139e-11 2.9286e-11
000020 c4 12 f0 ac de 7c 09 2c 61 b2 75 25 97 ee 8c ab
       -6.8232937e-12 1.9538186e-12 2.13108e-16 -1.001382e-12
000030 b2 62 fe 2b 36 e3 ee 30
       1.8075179e-12 1.7381356e-09

encoder_mean.9.weight f4 [14]
000000 73 19 54 3a 9f af 24 3a 1b 2a 44 3d 7f 3e 41 3a
       0.00080909504 0.0006282273 0.047891717 0.00073716784
000010 a0 d9 8e 3d 30 c2 2c 39 a1 3a 19 3a 55 62 1f 3d
       0.069751024 0.00016475539 0.0005845223 0.038912136
000020 68 7c d4 3a 4d 5b ae 3c 6b da 83 b4 e5 de 64 3c
       0.0016211392 0.02128377 -2.4559571e-07 0.013969158
000030 32 e4 4b 3c 19 b4 bf 3c
       0.012444543 0.023401307

encoder_mean.9.bias f4 [14]
000000 b4 4f 03 3c 95 5a 16 ba 4e b7 4b bc 14 ea 14 ba
       0.008014608 -0.00057355437 -0.01243384 -0.00056806323
000010 f0 0d 5f 3d 95 03 e3 b8 d3 90 08 3c 5d 2a ad bb
       0.05445665 -0.00010824871 0.00833531 -0.005284591
000020 2d 08 77 39 0d 6a 9c bb 4a 25 a6 b3 43 b8 63 ba
       0.00023558801 -0.0047733844 -7.73676e-08 -0.000868682
000030 e4 2b 94 bb 1e 2e 0f 3c
       -0.0045218337 0.008739023

encoder_mean.9.running_mean f4 [14]
000000 1b d6 40 36 ef 12 b9 37 5c c0 ae 35 d4 bb a8 38
       2.8734855e-06 2.2062535e-05 1.3019994e-06 8.04585e-05
000010 10 7e 04 39 e3 6f a8 38 77 59 6c 38 1c 68 70 38
       0.00012635463 8.031705e-05 5.6350105e-05 5.731742e-05
000020 e7 47 9c 38 d7 84 47 b7 c1 62 11 35 1e 45 57 39
       7.4520525e-05 -1.18922535e-05 5.4160415e-07 0.00020529746
000030 52 ca 97 b8 e2 54 1c 35
       -7.237926e-05 5.823805e-07

encoder_mean.9.running_var f4 [14]
000000 20 b4 64 2d 22 de 1c 30 75 b7 88 2b 1b 09 3a 30
       1.3000295e-11 5.706814e-10 9.714301e-13 6.7679345e-10
000010 11 c5 86 31 22 1c 17 31 c2 a6 62 31 ea b8 b1 2f
       3.922317e-09 2.1989384e-09 3.298212e-09 3.2327502e-10
000020 f3 86 29 30 7b 28 91 2d 41 4f f0 2a 9a 24 9f 31
       6.1673616e-10 1.6502568e-11 4.2687558e-13 4.63167e-09
000030 68 10 1f 30 a4 19 3c 2b
       5.786718e-10 6.68266e-13

encoder_mean.12.weight f4 [12, 14]
000000 6f 99 0b 38 99 83 06 3a d1 b9 81 3c 52 74 dd b4
       3.328308e-05 0.0005131304 0.015835674 -4.1249092e-07
000010 b1 5c 1e 3a 7e 3e 91 ba c9 56 f7 37 93 36 c4 b7
       0.0006041034 -0.0011081246 2.9485107e-05 -2.3390434e-05
000020 68 25 44 b6 4a a3 eb 3b 94 1a b7 36 c0 c6 84 37
       -2.922805e-06 0.0071910964 5.456919e-06 1.5828176e-05
000030 cf cf 20 bc cd 0b 08 3d d4 36 93 b8 59 a1 99 ba
       -0.00981517 0.03321438 -7.019719e-05 -0.0011721059
000040 02 11 15 bd d9 57 9e 38 ad 9d 3f b9 4c 48 2b bb
       -0.036393173 7.55039e-05 -0.00018273918 -0.0026135622
000050 b2 ec 87 39 28 d7 b6 3a f3 8f 12 3a 1b 15 6b 3c
       0.00025925558 0.001394962 0.0005590908 0.014348294
000060 6b cb e7 3a 19 5d a4 b9 bb d6 fa bc 39 96 d5 3c
       0.0017684525 -0.0003134988 -0.03061997 0.026072608
000070 20 78 a5 3b 13 3f e5 3c be 88 c6 3b 20 ba cd 39
       0.0050497204 0.027984178 0.0060587814 0.0003923932
000080 e1 d3 45 ba 2a 0a cd ba 38 2d 2c 3c 0f 5b 04 3c
       -0.0007546526 -0.0015643288 0.010508828 0.008078351
000090 4c 29 05 ba 91 66 ae 3c 7b 1b 83 35 21 32 8b 3a
       -0.0005079701 0.021289142 9.768258e-07 0.0010619798
0000a0 e4 75 06 bc b2 b0 14 3d 42 81 8d bc 0c ee ad bb
       -0.008206818 0.036301322 -0.017273549 -0.0053079184
0000b0 d8 b3 b3 3c 4b 12 a7 af 5f de 3f bb 18 16 90 ba
       0.021936342 -3.039012e-10 -0.002927683 -0.0010992913
0000c0 ca 48 c7 b8 da 99 cc 3a e9 8c 96 b5 df e6 e4 bb
       -9.5026175e-05 0.0015609816 -1.1216881e-06 -0.00698553
0000d0 ba 08 aa b3 1d 46 d4 3b 44 f6 27 3c 4c 66 9c bc
       -7.917829e-08 0.0064780847 0.010251585 -0.019091748
0000e0 58 a7 fb bc b2 6c 05 bc 64 3d 0d 3e 1d 88 0d bb
       -0.030719444 -0.008143591 0.1379295 -0.0021596022
0000f0 3f f2 44 bd df b1 8a 3c d3 bb 9d bc d1 1a bf ba
       -0.048082586 0.016930519 -0.0192546 -0.0014580135
000100 92 1e 83 b5 3b 00 7f 3c 58 3d bf bc dc 6b b8 3a
       -9.769158e-07 0.01556402 -0.02334468 0.001407023
000110 1f 7d d7 bc e6 27 04 bd 3b 32 fa ba 42 c2 5d bc
       -0.02630478 -0.032264613 -0.0019088456 -0.013535084
000120 ab 0d 7d 3c 57 61 7e bc 7a f0 93 bb 81 23 bd b7
       0.015445153 -0.015526137 -0.004514751 -2.2547089e-05
000130 61 91 d6 b9 3c d4 96 3b 4b 39 ad b9 5d 83 ac bb
       -0.00040925576 0.004602937 -0.00033039818 -0.005264683
000140 d7 3a a4 37 81 53 db b6 31 7b 5f bc bf ac 62 ba
       1.9577723e-05 -6.5364297e-06 -0.013640211 -0.0008646957
000150 32 7b 09 3c 59 56 d1 3c c6 6c b9 bd 03 74 9f 3b
       0.008391188 0.02555387 -0.0905395 0.0048661246
000160 1b 6a 92 39 5c 80 88 bc 0d 75 90 ba 01 1d f6 bb
       0.00027926345 -0.016662769 -0.0011021212 -0.0075107818
000170 9c 7f 37 bc de ef d3 3b 2b 07 d2 3a ab b1 85 3c
       -0.011199858 0.0064678034 0.0016023865 0.01632007
000180 c7 df c3 bc 8e c9 88 bb 5f 56 b5 ba 82 d3 b9 3c
       -0.023910416 -0.004174418 -0.0013834945 0.022683863
000190 b9 79 5f bd 41 32 bf 3b 0b ff 14 3a 82 14 7a bb
       -0.054559443 0.005834848 0.00056837563 -0.0038159196
0001a0 78 91 45 3b c6 1d 82 3c 38 90 7f bb f3 dd 1d 3d
       0.003014652 0.015883338 -0.0038995873 0.038541745
0001b0 e3 c4 4a b9 11 96 91 bb 58 73 2a bd f6 13 7f 3b
       -0.00019337567 -0.004442938 -0.041613907 0.003892181
0001c0 27 34 80 bc 37 c5 47 bd e2 28 8d bc 53 62 a2 3b
       -0.015649868 -0.048772063 -0.017231409 0.004955569
0001d0 d3 c3 63 bd 60 a5 ee 3c 3c 8f 05 bd 8d 04 96 ba
       -0.055606674 0.029131591 -0.032607302 -0.0011445448
0001e0 e6 19 a2 3c c5 d4 b3 bc 92 57 06 ba dd 96 27 bb
       0.01978774 -0.021952042 -0.00051247433 -0.00255721
0001f0 71 ba 17 3b d3 b7 ef bc 05 84 5a 39 6e 81 30 3c
       0.00231519 -0.029262459 0.00020839281 0.010773046
000200 54 c5 bb bc 8f 7b ac 3a bc 45 73 3b 74 f1 62 b7
       -0.022921242 0.0013159382 0.0037120422 -1.3526867e-05
000210 07 a7 72 3b 7e e4 32 b9 01 d0 2b bb 8d 1a 30 bb
       0.0037025826 -0.00017060523 -0.002621651 -0.0026871294
000220 08 d8 6b 3a b0 12 03 36 1c 60 27 3b f1 e5 81 ba
       0.000899673 1.9531399e-06 0.0025539463 -0.0009910447
000230 15 cf 21 bb 43 46 19 bd 6e 86 82 3c 16 84 a6 bb
       -0.002469008 -0.037420522 0.015933242 -0.005081664
000240 b7 89 16 bc cb 7b fa 3a b3 b7 83 bb 83 34 87 3c
       -0.009188107 0.001911038 -0.0040197014 0.016504532
000250 19 5f b1 bb 8c 56 b6 bb 68 90 3d b2 db 7d bf 37
       -0.005412948 -0.0055645164 -1.1034082e-08 2.282758e-05
000260 f0 4a 31 bc b4 98 fe ba f4 4e 02 bb b5 ea be 3b
       -0.010821089 -0.0019424171 -0.0019883486 0.005826319
000270 f2 17 0d 3d 88 1c 41 3b f1 ef 51 bc 8e 23 da b8
       0.034446664 0.002946647 -0.012813554 -0.000104016726
000280 9b 29 26 38 5f 8c 21 3a 44 90 b9 ba 0c 0a 08 ba
       3.9616232e-05 0.00061625795 -0.0014157374 -0.00051894854
000290 6b b4 1d b8 01 30 05 ba 97 9b db 3d b8 a7 f5 b9
       -3.7599744e-05 -0.00050807005 0.10723036 -0.00046855002

encoder_mean.12.bias f4 [12]
000000 86 48 1c ab 18 94 97 2b f8 7e eb 30 aa 0d 31 ad
       -5.552298e-13 1.07703e-12 1.7134587e-09 -1.0064319e-11
000010 f5 42 6c 31 d8 f9 68 aa 2c 2f 7e 2d d2 87 c0 32
       3.438058e-09 -2.0692421e-13 1.4448703e-11 2.2413506e-08
000020 e3 0b 84 2e a8 46 83 a9 b4 68 03 2b fe a8 9e 2d
       6.0047765e-11 -5.8298256e-14 4.6685854e-13 1.8037568e-11

encoder_mean.13.weight f4 [12]
000000 18 da 27 3d a8 2d 5a 3e a5 8e bb 3d 10 41 29 3e
       0.040979475 0.21306479 0.09158067 0.16528726
000010 4b 31 a0 3d c0 6f 1f 3d 38 a0 f9 3e a9 67 0a 3f
       0.07821902 0.038924932 0.4875505 0.5406442
000020 7f c6 0e 3c 26 a3 9e 3b aa f5 97 3c 5d ec 17 3d
       0.008714317 0.004841226 0.018549759 0.037090648

encoder_mean.13.bias f4 [12]
000000 9e eb 89 bc d0 c3 fa bc f5 5b 22 3c 00 40 17 bd
       -0.016835984 -0.030610949 0.00990962 -0.03692627
000010 06 31 51 bc b7 b5 6a bc 44 d7 93 bc 6b ed e2 bb
       -0.012768036 -0.014325551 -0.018046983 -0.006925275
000020 50 24 46 39 35 88 2e bb 56 c4 17 bc 02 a0 35 bb
       0.00018896279 -0.0026631479 -0.009263119 -0.002771378

encoder_mean.13.running_mean f4 [12]
000000 74 9f bd 39 ef 75 80 39 1e d0 eb 39 b0 f9 09 ba
       0.0003616769 0.0002450193 0.00044977752 -0.00052633416
000010 4c 78 67 bb f9 2f a0 b9 72 46 1b 38 7a 1c b8 38
       -0.0035319505 -0.0003055332 3.7020487e-05 8.779108e-05
000020 e0 05 80 bb a5 2d 81 39 62 ad 23 ba 79 12 4d ba
       -0.0039069504 0.00024638805 -0.00062437926 -0.0007822882

encoder_mean.13.running_var f4 [12]
000000 27 aa 39 32 63 37 e2 31 1d 00 73 32 f7 b3 2d 32
       1.0807105e-08 6.5837624e-09 1.4144487e-08 1.0110845e-08
000010 5a 05 73 35 a5 36 16 32 1a c5 5b 30 36 19 e1 2f
       9.053234e-07 8.743574e-09 7.9951834e-10 4.0945175e-10
000020 70 5b 9f 35 ba 3f c5 31 2f 3c 12 33 a6 d8 8d 33
       1.1873035e-06 5.7406995e-09 3.404801e-08 6.605232e-08

encoder_mean.16.weight f4 [10, 12]
000000 44 bf a7 bc 87 01 3e 3d fe ee 5b bd 05 14 9f bd
       -0.020476945 0.046388175 -0.053694718 -0.0776749
000010 e2 a5 88 3c 45 62 71 3d 5a 8e bc 3d 39 15 12 3e
       0.016680662 0.058931608 0.09206839 0.14265908
000020 cc 99 3d 3c e2 80 6e 3c e9 89 fa bc cf 3d b3 3d
       0.011572313 0.014557095 -0.030583339 0.087520234
000030 03 d0 81 3c 37 42 6f bc de ee 0a b8 37 fd 0e 3c
       0.015846258 -0.014603189 -3.3124226e-05 0.008727363
000040 33 f2 eb bb 18 5e ae 3c c2 7c 30 bc 60 1e 98 3c
       -0.0072005033 0.021285102 -0.010771932 0.018569171
000050 18 3e 0f bc 08 0b 16 3a 82 71 0d 3c 4d 4e 72 3b
       -0.008742832 0.00057236897 0.008633019 0.003697294
000060 a7 00 dd 3b ee aa 40 bc ec 22 f4 38 9d 49 dd 3a
       0.0067444625 -0.011759503 0.000116413314 0.00168829
000070 be 81 b6 3a 24 68 ba bb a7 e3 83 bb 80 75 81 3a
       0.0013924164 -0.005688684 -0.004024941 0.0009876937
000080 37 57 c6 3a 8d 88 8c 3b 22 64 1b bc 89 17 94 bb
       0.0015132193 0.004288739 -0.009484323 -0.004519407
000090 ed 39 dd bb 2d 01 b5 3a b2 f4 42 3b b6 5f ac 3b
       -0.00675129 0.0013809555 0.00297479 0.005260433
0000a0 1a f0 91 ba ff 77 4d bc ce 93 68 ba f8 ea 0b 3b
       -0.0011134178 -0.012540816 -0.0008872122 0.002134977
0000b0 c4 6f df 3b bc cc 23 ba b3 41 b2 3c 5f 3e a6 bb
       0.0068187434 -0.00062484643 0.021759843 -0.005073353
0000c0 b2 9e 0c 3d dc b6 18 bd 67 2c 25 3c c3 86 c5 3c
       0.03433103 -0.037283763 0.010081387 0.024112111
0000d0 c4 93 9b bc f3 e9 f6 bb bf bb 5e bd 9e f7 a8 bc
       -0.018991359 -0.007535213 -0.054378267 -0.020625886
0000e0 0e d9 eb ba 35 89 9b 3c 93 0a 91 3c 58 84 3b ba
       -0.0017993764 0.018986324 0.017705237 -0.00071532046
0000f0 d0 98 0d bd 46 e7 f3 bc ca 1d 7a 3c cb e0 d7 3c
       -0.03456956 -0.029773366 0.015265891 0.026352307
000100 4d 48 61 3c 8e a5 8c bc 73 93 e5 bc d0 e9 43 bd
       0.013750148 -0.017168786 -0.02802441 -0.047830403
000110 68 b2 70 bb b4 46 31 bd c6 e8 db bc 0c fc a1 bb
       -0.0036727432 -0.04328032 -0.026844393 -0.0049433764
000120 82 62 e6 3c 64 bd b6 bb 77 d6 0f bd c2 a5 44 3b
       0.028123144 -0.0055767763 -0.03511664 0.0030006026
000130 2c 84 c3 3b 25 aa 51 bd 3c af b3 bc ca c8 f3 3d
       0.005966684 -0.051187653 -0.021934144 0.11903532
000140 15 ab 90 3b 5b 0a b4 3c 8a 75 29 3d 36 95 0c 3c
       0.004414926 0.021977594 0.04137186 0.008580497
000150 06 b8 7b bb b5 2b 8a 3d 49 3a 5e bc 6a 95 54 bc
       -0.0038409247 0.06746618 -0.013563701 -0.012975076
000160 06 81 51 3d 69 57 04 bd 07 94 27 3d f4 06 a8 3d
       0.051148437 -0.032309923 0.040912654 0.08204451
000170 46 63 3d 3c ac 3b 22 3c 8b 7a 20 bd f4 e1 6a bc
       0.011559313 0.009901922 -0.039179366 -0.014336098
000180 1d e0 27 3d 13 a9 55 bd 48 6d 12 3c 13 b1 dc 3c
       0.040985215 -0.052163195 0.0089371875 0.026939904
000190 3c 7f fa bb e0 26 84 3c 2a d5 43 bd 01 77 32 bd
       -0.007644562 0.016131818 -0.04781071 -0.043570522
0001a0 1a 9d 07 bc 76 a5 71 bc 15 47 47 bd 12 4e 18 bb
       -0.008277202 -0.014748922 -0.048651773 -0.0023239893
0001b0 73 2d dc 3d 8e 14 8d bd b6 27 f7 bc 8f 12 88 3c
       0.10750856 -0.06888686 -0.030170303 0.016610412
0001c0 9c f6 40 bd cb 32 30 bd 18 41 12 3e 85 53 cc 3d
       -0.047110185 -0.04301719 0.14282644 0.099768676
0001d0 2a c2 7b 3c 03 ff 81 bc 57 8f a0 bd fa 4c 0b 3d
       0.015366117 -0.01586867 -0.0783984 0.034008957

encoder_mean.16.bias f4 [10]
000000 58 8f b5 39 2b b4 36 38 92 06 f1 b6 5e 85 ca b7
       0.0003462981 4.3559976e-05 -7.1831246e-06 -2.414238e-05
000010 ff 9d 18 37 f3 71 57 b9 df d0 99 39 2a 92 f7 b8
       9.096692e-06 -0.00020546447 0.00029338055 -0.00011805103
000020 ca 45 0f b8 0a 00 f0 39
       -3.4158853e-05 0.00045776396

encoder_var.0.weight f4 [20, 14]
000000 fc 76 6f 9f 12 1f 0f 9d 28 03 1d 9e c5 09 66 9f
       -5.070864e-20 -1.8941955e-21 -8.3121635e-21 -4.8712476e-20
000010 20 be a6 9f 82 b6 73 9d f8 86 50 a0 8f 55 90 1e
       -7.061827e-20 -3.2255137e-21 -1.7662943e-19 1.528198e-20
000020 bd 23 95 9f 8a 09 99 1f 5f ff 27 1f 30 38 36 a0
       -6.316308e-20 6.48138e-20 3.5574864e-20 -1.543459e-19
000030 e1 9a 01 a0 e3 aa 32 a3 94 d6 1a 9f a8 a6 ba 1f
       -1.097797e-19 -9.685586e-18 -3.2788263e-20 7.9049774e-20
000040 ff 86 28 1f 63 8e c5 1f d7 be 75 20 28 a7 ef 1e
       3.568705e-20 8.3668304e-20 2.0815451e-19 2.5374244e-20
000050 bb 84 44 9f 23 8a f4 9f c4 94 25 1e bb d1 2c 9f
       -4.1614406e-20 -1.0356655e-19 8.765791e-21 -3.6595902e-20
000060 e1 b1 19 20 76 eb c0 9f de b7 f9 9d f6 73 32 25
       1.3018459e-19 -8.17047e-20 -6.6099865e-21 1.5478328e-16
000070 26 18 48 1e b5 86 8e 1e fd d5 f7 9d 29 77 1c 1f
       1.0592906e-20 1.5090548e-20 -6.5601614e-21 3.3132852e-20
000080 25 b7 b3 9f c5 33 d8 1e 08 1d b8 9e 0a ce 36 1c
       -7.6112436e-20 2.2891301e-20 -1.9493765e-20 6.048505e-22
000090 66 23 84 9e 6a 94 61 1d b2 c3 2b 1c 0a 0f 8d 1f
       -1.3990684e-20 2.985523e-21 5.6832084e-22 5.97407e-20
0000a0 68 58 ef 9e bf 57 17 1f fd 77 36 1e 09 09 79 9d
       -2.5341673e-20 3.2048076e-20 9.659813e-21 -3.2959547e-21
0000b0 bb 4d dd 9d 4e db 42 9e 89 a8 11 9f 0c d2 8b 9d
       -5.8578584e-21 -1.0315626e-20 -3.0844353e-20 -3.7010177e-21
0000c0 23 d0 0d 1e f4 ed 81 1d f6 5f 6b 1e 1a db f9 9d
       7.5075195e-21 3.4392053e-21 1.2460641e-20 -6.6136297e-21
0000d0 eb 1d 0d 9e 18 53 ac 1d 7e eb 0a 9d 22 39 97 a4
       -7.470665e-21 4.5613938e-21 -1.8385895e-21 -6.55826e-17
0000e0 04 bc 27 1f ad 1e f8 1d 91 e6 9b 9f bf f5 b7 9d
       3.551915e-20 6.567677e-21 -6.6026494e-20 -4.8693792e-21
0000f0 a8 bf 29 20 ae 30 fd 1d e7 a1 0b a0 0f 4f ce 9f
       1.437827e-19 6.7018876e-21 -1.1827327e-19 -8.7375185e-20
000100 b7 3f 8f 9f 11 5a 00 20 33 ee c8 1e 2c 2c 76 1f
       -6.066826e-20 1.0871822e-19 2.127434e-20 5.2129064e-20
000110 ba 44 13 a0 6d 56 45 2f d1 52 78 9e c6 24 29 1f
       -1.2474124e-19 1.794775e-10 -1.3146137e-20 3.581756e-20
000120 f9 49 73 1f d6 80 aa 1e 41 e5 49 1f 45 b4 63 9f
       5.151844e-20 1.8052735e-20 4.275304e-20 -4.8218235e-20
000130 6e 97 3b 1f fe ad 98 9e 37 57 d8 1d b5 88 c7 1d
       3.972405e-20 -1.6165587e-20 5.72649e-21 5.2816213e-21
000140 44 f4 b6 1d 30 2e b9 1d fb e9 97 1e 3d 3f 4c 1f
       4.8427564e-21 4.901685e-21 1.6084519e-20 4.325099e-20
000150 2a ce d2 1e c7 2b 1c 9f e3 e5 94 1f d5 77 6b 9e
       2.2319882e-20 -3.3070497e-20 6.3060754e-20 -1.2465577e-20
000160 05 26 10 9f 37 6e 84 1f a3 bd 63 9f dd 1a f3 9e
       -3.0524635e-20 5.608651e-20 -4.8225984e-20 -2.5739736e-20
000170 09 59 16 1e 12 f6 e3 9e 84 5a 80 1f 25 e2 6e 1e
       7.959346e-21 -2.4136332e-20 5.4359854e-20 1.2646381e-20
000180 13 5a 41 9f ef 09 95 a2 6f 04 81 1d 75 e8 51 1d
       -4.0943847e-20 -4.039705e-18 3.41506e-21 2.7781097e-21
000190 8b dc 3d 9d 06 b5 08 9f c7 53 d0 1e a9 f8 f9 9e
       -2.512796e-21 -2.894886e-20 2.2057506e-20 -2.6466744e-20
0001a0 61 19 a5 1e 16 90 97 1d f6 ac 34 1f a8 a3 c2 1e
       1.7480551e-20 4.011835e-21 3.8259553e-20 2.0608236e-20
0001b0 d6 1f 46 9e fb 4b 0c 1f 45 3e e0 9e 9e fe 4d b1
       -1.0488616e-20 2.9709003e-20 -2.3742677e-20 -2.997616e-09
0001c0 47 a2 69 1f af 1e 2f 9e ba 78 1b 1f 9f 20 0a 1f
       4.9473902e-20 -9.270768e-21 3.292239e-20 2.924962e-20
0001d0 a9 fa 7f 9e 33 a1 84 1e 26 14 fd 1e 46 06 84 9f
       -1.3551423e-20 1.4042714e-20 2.679575e-20 -5.591455e-20
0001e0 28 a6 85 1d f2 2f 57 1f 07 42 6b 9f d7 bf 03 9f
       3.537661e-21 4.556768e-20 -4.9817802e-20 -2.7899015e-20
0001f0 f2 f4 5a 9e 55 4c 0f 20 d3 9c 12 1e 39 d9 56 1f
       -1.15914774e-20 1.2137827e-19 7.761606e-21 4.5495945e-20
000200 ff cd 68 1f 7b 5c 0c 20 b8 0d 84 1f 1b a8 be 1f
       4.9298307e-20 1.188906e-19 5.592687e-20 8.074624e-20
000210 38 94 14 1f 4d 49 25 9f 83 44 85 1f c2 c6 6b 1f
       3.1462823e-20 -3.5000742e-20 5.6441034e-20 4.9927594e-20
000220 bf 8b ea 9e 4d f1 8d 1f d6 93 0e 9f bf ff 19 b0
       -2.4833511e-20 6.011502e-20 -3.0191957e-20 -5.6024513e-10
000230 f5 27 28 1f 4c 91 02 1e 22 65 5a 1f f5 c7 3e 9f
       3.5608435e-20 6.912189e-21 4.624695e-20 -4.0399466e-20
000240 35 22 04 9f 65 9b f8 9e e5 67 aa 1f e8 2c 48 1e
       -2.7980383e-20 -2.6322291e-20 7.216968e-20 1.0597198e-20
000250 df 8f 8a 1f fe 98 09 1f f0 10 a0 1e 38 2d a7 1e
       5.868329e-20 2.913743e-20 1.6947664e-20 1.7700515e-20
000260 07 7d 8b 9f 18 50 10 b5 5c 87 51 20 04 e9 e3 9e
       -5.907563e-20 -5.376073e-07 1.7747775e-19 -2.4130933e-20
000270 82 dd ef 9f 46 d1 22 9f f9 ca 4f 20 3f 88 81 20
       -1.0158689e-19 -3.447794e-20 1.760074e-19 2.194361e-19
000280 53 75 53 20 ba 61 02 a0 94 7f a1 20 50 b4 aa 9f
       1.7911215e-19 -1.1043763e-19 2.7358885e-19 -7.22961e-20
000290 4f b3 24 a0 29 2a 75 a0 13 0b ee 1e 97 5a ce a0
       -1.3950669e-19 -2.0766257e-19 2.520381e-20 -3.4957705e-19
0002a0 f4 36 92 20 1a 66 bf a0 f9 6d a8 a0 5d 58 8e 20
       2.4769727e-19 -3.2424224e-19 -2.853308e-19 2.411421e-19
0002b0 7c 4f 61 1e 96 e9 48 1f 85 51 a8 1f 6e 15 2b 20
       1.1927838e-20 4.2544865e-20 7.128563e-20 1.4491354e-19
0002c0 09 b1 47 a0 58 06 d1 20 a7 6d a8 20 11 1f 9b 20
       -1.6914532e-19 3.5410175e-19 2.853287e-19 2.627858e-19
0002d0 7a 51 4f 9d e2 17 f6 a1 d1 09 a7 1e 7f f4 0c 1e
       -2.7438344e-21 -1.667593e-18 1.7685873e-20 7.462099e-21
0002e0 b0 b6 20 9f a9 e6 2b 9f 6c e5 8e 1f e1 ee 19 1f
       -3.4032433e-20 -3.6401456e-20 6.0518886e-20 3.2596606e-20
0002f0 48 e9 5a 1f 7e 4d 8e 9f 6d 50 54 a0 79 55 21 1f
       4.635626e-20 -6.026754e-20 -1.7983709e-19 3.4163777e-20
000300 e7 3d 97 1f 6c 72 56 1f 6b 81 a6 1d d5 48 10 35
       6.4053396e-20 4.541091e-20 4.407365e-21 5.3750165e-07
000310 cb c5 1b 9e c5 5a e7 9d 65 bb 27 9d b4 28 28 9f
       -8.246534e-21 -6.1239044e-21 -2.2199147e-21 -3.5609053e-20
000320 68 50 a1 1d e7 43 1b 1f 18 15 01 9f 76 bb 79 a2
       4.2699483e-21 3.2878694e-20 -2.733426e-20 -3.3845034e-18
000330 20 a6 70 9e dc 6b b1 9d bb 68 55 1f 9c 42 29 9e
       -1.2739848e-20 -4.6963034e-21 4.5191135e-20 -8.96056e-21
000340 24 15 43 1e 33 a4 49 38 09 be 28 9f 63 74 64 1e
       1.0327586e-20 4.8075057e-05 -3.5732577e-20 1.2094288e-20
000350 34 7e a9 1e c3 fc 92 9f af 4a b4 9e 89 74 69 9f
       1.7945767e-20 -6.2251564e-20 -1.908913e-20 -4.9436065e-20
000360 3d 8e 09 a0 21 bf ac 1f f2 60 4e 20 68 21 2d 1f
       -1.1651414e-19 7.316103e-20 1.7480955e-19 3.6661808e-20
000370 4a 72 9b 9f ea 6a d4 1e 6c a6 c8 9c fe bd 42 a0
       -6.583413e-20 2.2490592e-20 -1.3277909e-21 -1.6495302e-19
000380 81 04 b0 9e 16 8e 25 9e ca c6 46 9f 60 a3 21 9e
       -1.8636588e-20 -8.76441e-21 -4.2092565e-20 -8.557054e-21
000390 f2 56 9b 1b b1 5f 1c 9c 0b d5 af 9e 5c fd bc 9d
       2.5698786e-22 -5.173975e-22 -1.8616958e-20 -5.0025153e-21
0003a0 8d eb 22 1f cb c6 b6 9d b5 50 c9 1e 4c cb 83 20
       3.4499677e-20 -4.8380546e-21 2.1315082e-20 2.2326794e-19
0003b0 a2 7b f7 1d 27 dd 96 b4 fa 40 d6 20 0f d3 0d a0
       6.550819e-21 -2.8100587e-07 3.6296008e-19 -1.2012998e-19
0003c0 82 ef b2 1f 7a 9f a3 1f ef 42 af 20 74 10 25 9e
       7.5782165e-20 6.929702e-20 2.9690446e-19 -8.73843e-21
0003d0 9b 69 69 a0 e2 b0 a9 9e bc 42 22 1f 23 37 d4 9e
       -1.977081e-19 -1.7966728e-20 3.4360036e-20 -2.2469177e-20
0003e0 72 52 6a 9f 58 33 11 20 4b b6 c5 1f a1 21 a3 20
       -4.9619625e-20 1.2298966e-19 8.3734324e-20 2.7635528e-19
0003f0 a7 40 9b 1e 85 de fa 1e e5 a4 27 1e 88 ed 68 9f
       1.6438003e-20 2.6561812e-20 8.875006e-21 -4.9324392e-20

encoder_var.0.bias f4 [20]
000000 66 8d 1f 19 f9 00 3f 17 22 b7 62 99 29 95 e1 99
       8.2486625e-24 6.1716656e-25 -1.17209095e-23 -2.33247e-23
000010 dd 7b f6 18 90 6d 0e 99 d1 a2 a5 98 3e 44 5f 9a
       6.371458e-24 -7.363354e-24 -4.2815903e-24 -4.6170445e-23
000020 12 a1 13 1a 8a c0 36 18 83 7b 11 9a 0f 54 ef 19
       3.0529e-23 2.3620156e-24 -3.008507e-23 2.4745972e-23
000030 90 81 a5 99 ca f7 27 19 d5 e6 0a 9a 02 99 90 99
       -1.711293e-23 8.683738e-24 -2.8724196e-23 -1.495105e-23
000040 79 80 b3 16 8c 28 42 1a 57 67 1b 19 37 12 81 19
       2.9000087e-25 4.0151013e-23 8.0341815e-24 1.3345644e-23

encoder_var.1.weight f4 [20]
000000 8e 58 21 23 72 7c 65 a1 f5 6c a3 20 7f 5a 2e 20
       8.74658e-18 -7.775292e-19 2.7685376e-19 1.4768316e-19
000010 93 3c 6c 21 25 77 eb 9f 91 d1 36 a2 07 38 2c 21
       8.004008e-19 -9.972348e-20 -2.4776543e-18 5.835002e-19
000020 6f 5f 1f 20 8c 78 49 20 68 46 5e 21 81 d4 ee 21
       1.34994e-19 1.7065248e-19 7.530971e-19 1.6183757e-18
000030 3c 9c 41 23 af c5 92 20 7f 69 9a 9f 98 5c 87 22
       1.0495635e-17 2.4864178e-19 -6.5396066e-20 3.668986e-18
000040 98 c1 a3 23 6d cc 4d a2 87 59 2d 21 db b9 6c a2
       1.7754486e-17 -2.7890903e-18 5.873317e-19 -3.2082355e-18

encoder_var.1.bias f4 [20]
000000 ff 80 8e 9f 11 fc f3 9f 78 bb 73 1f b8 06 d8 9c
       -6.0352745e-20 -1.0333151e-19 5.1612322e-20 -1.4295418e-21
000010 a7 6c a7 9f e6 cf 7f 1f b3 df 92 1f ee 7f 26 1f
       -7.0907e-20 5.417032e-20 6.2203484e-20 3.5257688e-20
000020 14 97 63 1f dd 0b 03 a0 7d e6 46 9e 16 95 e6 a0
       4.819409e-20 -1.1100057e-19 -1.05296966e-20 -3.9062172e-19
000030 7a 2b 87 1d 95 39 c5 9f 6f f2 8f 9f 64 2b be 9f
       3.5779156e-21 -8.352801e-20 -6.096393e-20 -8.0539914e-20
000040 5a 7c ac a0 d8 df b3 9f be b8 a0 1e 0f fe d0 9f
       -2.9220222e-19 -7.617977e-20 1.7017067e-20 -8.851173e-20

encoder_var.1.running_mean f4 [20]
000000 be 4d 1b 24 57 1d e2 25 e2 2a 28 9f 68 1f 9e a8
       3.3676118e-17 3.9224632e-16 -3.5610856e-20 -1.7555144e-14
000010 fe 7a 48 2f 46 9e 73 1e 63 16 a4 23 c8 3f 3e b1
       1.823359e-10 1.2897043e-20 1.7790397e-17 -2.7684894e-09
000020 cf 4e 81 a0 bc 0c 15 b0 88 41 da b4 70 0b 83 a0
       -2.19056e-19 -5.422398e-10 -4.0653345e-07 -2.2199832e-19
000030 85 3f d9 a1 4f bf dc 34 5b 26 0a 38 b8 96 ef 9f
       -1.4721305e-18 4.111739e-07 3.2937485e-05 -1.0146978e-19
000040 fc 4a 6f b4 ec df e1 20 90 de 4b a0 fe cc 95 a0
       -2.2285889e-07 3.8264662e-19 -1.7268409e-19 -2.5377234e-19

encoder_var.1.running_var f4 [20]
000000 12 3d 68 0b ad 12 2e 0e af fd b8 01 ab e4 12 14
       4.472752e-32 2.1456148e-30 6.7954943e-38 7.416213e-27
000010 54 92 33 1f 30 60 33 01 28 5f 6f 0a 31 31 06 23
       3.8025764e-20 3.294612e-38 1.1525328e-32 7.274571e-18
000020 22 ca 69 03 13 54 b3 20 17 d7 0c 2a 28 d7 1a 04
       6.8704583e-37 3.0379415e-19 1.2509122e-13 1.8201408e-36
000030 70 59 8a 06 c1 3a 11 2a 5e da 56 30 30 0c d0 02
       5.2041247e-35 1.2898971e-13 7.8163065e-10 3.0569848e-37
000040 a2 94 2f 29 f7 65 0e 04 32 55 50 02 64 6a 5f 03
       3.8986724e-14 1.673884e-36 1.5305876e-37 6.565594e-37
