generativecf/models/sangiovese-512-50-target-class-1-auto-encoder.pth (torch_old, 31867 bytes, 78 tensors)

encoder_mean.0.weight f4 [20, 13]
00000000: 1219 2fbc 0cff 2abc b6c9 ad3d 1b21 7b3c
00000010: 11eb abbb 6e12 9b3c 7a9d 9d3b f7a2 e8bb
00000020: f012 3fba 57d2 07bc 2c7e adbb f75c ea3d
00000030: b2c7 253d c172 9cbc 2b92 123c ada7 e7bd
00000040: ab3e 3cbd b8a8 c4bc ce26 07bd 6ee8 62bb
00000050: fc37 353c fb9e dbba 5ade fa3b 46a4 22bb
00000060: 01ae 133d c560 043d 5350 3c3c b461 58bb
00000070: fe56 b63d de6f dd3c 6594 c63b 1819 2b3c
00000080: cd11 ef3c e25a 4cbc 4434 7a3a 3400 a8bc
00000090: 3048 733c 13a2 4cbd 38e9 03bd 1acf 5f3a
000000a0: 5692 1dbc 8af8 bebd e347 2dbc 7a53 aa3b
000000b0: e9fc 4abc 43d8 f0bc dfe8 323c cd8c 0abc
000000c0: 7c7f 36bb fe6d 903b 4b33 323d 1817 d73c
000000d0: 6982 e8bb 4d3c 0dbc 1ed5 d4bd a4a9 17bc
000000e0: c28f 993b 1c7a eebb e8e7 11bc a8ed 03bc
000000f0: 88cb 3e3a ca15 adba de0c 0a3b 38bb 963d
00000100: e39f a33c 3316 74bb b7e5 933c 5ecf adbd
00000110: e826 bfbb 463b c93a 7da3 c0bb b0e9 83bc
00000120: a531 3b3c a5cf 1ebc fa8d 34bc 5456 ba3b
00000130: f0f6 853d 1f69 483d a4e7 f0ba 3b94 033c
00000140: a4d4 d13d 806f e23c 63e0 22bb d56d 1b3d
00000150: 4f84 f9bb a261 99bc c5c2 983c 5a37 1bbd
00000160: 648c 8fbb 378c 4bbd 31b0 01bd a371 0e3c
00000170: 1402 9b3c aa34 e63d 7e8d c13c b897 443a
00000180: 7805 b23c 9d94 543c 05b3 a7bc c2f5 4b3c
00000190: da1e 39bc 43a6 183c 7327 53bd 8e1a f4bc
000001a0: 200e 403c da27 ae3c cf4c babd 1826 b3bc
000001b0: 3816 1dbc 3a6c acbb 95da 96bc f8a8 9e3c
000001c0: fa47 9dbc 47cd 543c 30d7 62bc 6cc2 963d
000001d0: 2fbb 0c3d 85b1 d7bb 8b3c 2d3c 4512 b7bd
000001e0: 4409 e0ba f424 70bc bc32 28bc 1ea7 a73c
000001f0: e1e1 a9ba 3d2a f63b 0aeb 9a3b 93a8 43ba
00000200: 23eb 943d eed5 9a3c cf6d 9d3c 08b8 e6bb
00000210: 4e7f be3d ce50 633c e498 fcbb 67fe 033d
00000220: a390 803c 6a5d aeba 6e28 7dbc d6c1 b43b
00000230: 625c ce3b e597 8bbd 8d22 15bd 4a5d 83bb
00000240: 6bcc f83a 7d99 c5bd 744d 0cbc 3eb8 bdbc
00000250: f320 d5bc 0038 7ab9 9d17 863b e778 1bbb
00000260: f872 803a 98be adb9 8657 b03d a5e2 ec3c
00000270: 1370 93bc 1527 39bc 81ef a4bd bd6f b7bc
00000280: 4615 ebba f84c 98bc 873f 98bc 0dc3 703c
00000290: 5b56 59bc cb14 8b3c 9d87 123b 668c 8d3d
000002a0: da27 3b3d 8f35 86bc a069 d43b 2358 87bd
000002b0: f85b 11bc b5e3 a8bc a536 f0bc 445e 87bc
000002c0: 31bc 1cbc 9816 2ebc da18 613c 6e93 e2bb
000002d0: af9a a83d e226 253d 4692 c83c 6333 d3bb
000002e0: 9840 c53d 3149 6b3c 2c63 c43b 9850 b93c
000002f0: 9b43 8f3c df5a 8dbb ea96 35bb aa0e c3bc
00000300: df12 343c ee93 7bbd e1b5 35bd 618b 65bc
00000310: 0721 a03c da8d d93d 24d4 833c 9f31 8d3b
00000320: 95c9 953c c1fd 2c3d aa90 fcbc be92 533c
00000330: 7817 30bb c821 243c f4a8 5abd 49b5 14bd
00000340: 0e17 483c 1a48 d73a 5f8f e43d 7540 c93c
00000350: aa2a 873c 9178 9eba 4019 283c eaf5 41bc
00000360: 7dd8 0f3c 0631 1a3b 2329 463c 531c 12bd
00000370: 2b1b b5bc 9114 5b3c 686f 0bbc 139b 9bbc
00000380: e4ee 7aba 286e b839 12e1 1f3c d7c2 0f3c
00000390: c238 39bb d85d 7c38 2530 49bb c48e 8cbb
000003a0: 41f6 d63d 6b87 2a3d 90b1 993b daa2 dd3b
000003b0: c48e bb3d 430f 5c3c 5a73 bb3c d22d 953c
000003c0: 83cb 0f3d 3684 3e3c 2a87 c3bb 5614 45bc
000003d0: 12b1 a4bb 5473 81bd 487d 8abc 6079 3bbc
000003e0: 90df 39bc 9ef8 c2bd 0cc2 9ebc 16da b5bb
000003f0: c18e 54bc e19b a9bb d4e5 2b3c bef4 ccbb
-0.01068713 -0.0104367845 0.08485739 0.015327717 -0.005246528 0.018929686 0.0048100324 -0.007099505
-0.00072888937 -0.008289895 -0.005294582 0.11443513 0.040473647 -0.019097688 0.008945982 -0.113112785
-0.045958202 -0.024006233 -0.03299599 -0.0034623402 0.011060711 -0.0016755754 0.007655901 -0.0024817153
0.036054615 0.03231885 0.01149376 -0.003301722 0.08903311 0.027030881 0.0060601705 0.010442995
0.029183293 -0.01247284 0.00095445313 -0.02050791 0.014848754 -0.049959254 -0.032204837 0.00085376354
-0.009617409 -0.09324749 -0.010576221 0.0051979395 -0.0123894 -0.029399997 0.010919779 -0.008456421
-0.0027846983 0.0044076433 0.043505948 0.02625613 -0.007095624 -0.008620334 -0.103922114 -0.009256754
0.0046863267 -0.00727774 -0.008905388 -0.008052267 0.00072782533 -0.0013205346 0.0021064798 0.07359928
0.0199737 -0.0037244677 0.018053873 -0.08486818 -0.0058334954 0.0015352748 -0.0058788643 -0.016102642
0.01142541 -0.009693061 -0.011020178 0.0056865606 0.0654124 0.048928376 -0.0018379581 0.008030946
0.10245636 0.027641058 -0.0024852983 0.03794654 -0.0076146494 -0.018723313 0.01864756 -0.037894584
-0.0043807495 -0.049694266 -0.03166217 0.008694085 0.01892189 0.112405136 0.023627039 0.00074994145
0.021731123 0.012974885 -0.020471105 0.01244873 -0.0112988595 0.009316984 -0.051551294 -0.029797819
0.011722118 0.021259237 -0.09096681 -0.02186875 -0.009587817 -0.005261925 -0.018414775 0.01936768
-0.01919936 0.012988395 -0.01384525 0.07361302 0.0343582 -0.0065824413 0.010573517 -0.089390315
-0.0017092605 -0.014657248 -0.010266002 0.02046543 -0.0012960994 0.0075123594 0.004727726 -0.0007463779
0.07271411 0.018900838 0.0192174 -0.007040981 0.09301625 0.013874246 -0.0077086557 0.03222504
0.015693968 -0.0013302986 -0.015451534 0.005516271 0.006297634 -0.06816081 -0.036409903 -0.0040089237
0.001898182 -0.09648416 -0.008563388 -0.023159143 -0.026016688 -0.0002386272 0.0040921704 -0.0023723186
0.0009799888 -0.00033139135 0.08610444 0.028916666 -0.017997777 -0.011300822 -0.08053494 -0.022392148
-0.0017935417 -0.018591389 -0.01858498 0.014694941 -0.013265218 0.016977688 0.0022358664 0.069115445
0.045692302 -0.01638296 0.006482318 -0.066086076 -0.008872025 -0.020616392 -0.029322932 -0.016524442
-0.009566353 -0.010625504 0.013738835 -0.0069145476 0.082326286 0.040320285 0.024483811 -0.0064453348
0.09631461 0.014360712 0.0059932675 0.022621438 0.017488291 -0.004313811 -0.002770836 -0.023810703
0.010990827 -0.061420374 -0.044362906 -0.014010281 0.019546999 0.10622759 0.016092367 0.004308894
0.018284598 0.042234186 -0.0308307 0.012913404 -0.0026869457 0.01001782 -0.053383783 -0.0363057
0.012212528 0.0016424686 0.11160158 0.024566868 0.016499836 -0.0012090375 0.010259926 -0.011838416
0.008779642 0.0023527755 0.012094769 -0.035671543 -0.022107681 0.013371603 -0.008510448 -0.018994844
-0.00095723406 0.00035177288 0.009758251 0.008774481 -0.002826259 6.016888e-05 -0.0030698862 -0.00428948
0.10496188 0.04163305 0.0046903566 0.006763798 0.0915809 0.013431373 0.022882152 0.018210325
0.035106193 0.011628201 -0.0059670405 -0.012028774 -0.0050259912 -0.06320825 -0.016905442 -0.011442512
-0.011344805 -0.09520076 -0.019379638 -0.0055496795 -0.012973488 -0.005176053 0.010491807 -0.0062547615

encoder_mean.0.bias f4 [20]
00000000: f2b6 0136 e774 08b4 3e70 1534 5e3b ecb3
00000010: 32f5 2335 e4c9 13b3 80a6 0cb2 e63e 8c34
00000020: 3ef8 a934 ee78 8034 9c2f 5335 d035 3235
00000030: eeb3 a3b5 7694 99b4 f684 9e35 2652 c0b4
00000040: 5534 88b5 1a6a 6134 7c40 f9b4 52ea 9bb4
1.9328986e-06 -1.2708516e-07 1.391754e-07 -1.1000405e-07 6.107904e-07 -3.4409723e-08 -8.18693e-09 2.6122797e-07
3.1659323e-07 2.3929846e-07 7.8672906e-07 6.6388475e-07 -1.2196813e-06 -2.860649e-07 1.1810614e-06 -3.5822558e-07
-1.014802e-06 2.0993357e-07 -4.6426783e-07 -2.904149e-07

encoder_mean.1.weight f4 [20]
00000000: a74d cc3d a980 4a3d 9809 543d d899 6c3d
00000010: a211 493d d7e2 743d 67e3 853d 2d01 723d
00000020: 540e a43d 20f0 793d f308 843d 6793 813d
00000030: 0c80 4e3d e589 b13d ce71 853d 202b 923d
00000040: f0d9 813d 078b 363d 0d06 993d 7a2a 743d
0.099757485 0.049439106 0.05176696 0.057763904 0.04908908 0.059786644 0.06537514 0.059083153
0.080105454 0.061020017 0.064470194 0.06326943 0.050415084 0.086688794 0.06515847 0.07137132
0.063403964 0.04456618 0.07471857 0.05961082

encoder_mean.1.bias f4 [20]
00000000: 425c 98bd 34c6 aebc d497 adbc 48ae 523b
00000010: 9436 a73c a99a d2bc f659 45bd 9f61 43bc
00000020: 5f42 64bd 796f b9bc ea44 57bc c894 3a39
00000030: 8290 143c db01 3cbd 14b6 afbb 1b31 51bd
00000040: e043 e6ba 8058 d53c 3837 34bd 641c 63bb
-0.07439472 -0.021334745 -0.021190561 0.0032147337 0.020411767 -0.025708513 -0.048181497 -0.01192513
-0.05572736 -0.022636162 -0.013138989 0.00017793768 0.0090676565 -0.045900207 -0.0053622816 -0.05107222
-0.0017567836 0.026043177 -0.043997973 -0.0034654373

encoder_mean.1.running_mean f4 [20]
00000000: 7fba 0e3e 6478 c6bd 8f15 853d 4004 92bd
00000010: 911e 47bd 4fcc 5cbc 48ed 3a3d e127 843d
00000020: 08cf fdbb e7da 983c 6d8a 8c3d 0214 13bd
00000030: 92ec 11bd 0e2e 58bd e1e3 803d 674d 8f3d
00000040: fa62 963d 6e12 893d ea1f aa3d fab7 d9bc
0.1393833 -0.096909314 0.064982526 -0.07129717 -0.048613135 -0.013476445 0.045636445 0.06452919
-0.0077456273 0.018659068 0.0686234 -0.035907753 -0.035626 -0.052778296 0.062934645 0.06997185
0.07343097 0.06692968 0.083068684 -0.026576985

encoder_mean.1.running_var f4 [20]
00000000: 2980 ab39 6fe5 3a3a 6b9b 193a f441 e139
00000010: 52b4 e339 a7b7 fb39 f8ea 103a 1e34 153a
00000020: c3d8 103a d84c b739 2656 1b3a 47b1 223a
00000030: 8fb5 253a a0b3 1a3a 8b96 353a c0fc fc39
00000040: 8574 0e3a b98c 8b39 19e3 073a 6f9b ce39
0.00032711148 0.0007129525 0.0005859646 0.00042964483 0.00043431163 0.00048011282 0.0005528177 0.0005691665
0.0005525464 0.00034961733 0.0005925618 0.0006206226 0.0006321305 0.00059014 0.00069270347 0.000482535
0.0005434233 0.00026616993 0.00051836815 0.0003940719

encoder_mean.4.weight f4 [16, 20]
00000000: 8ad0 51bd 000b 2d3c 6e55 bd3b 62be 0b3d
00000010: dcfd a43b 50fb 8d3c 2b82 b33b 9871 03bc
00000020: 8603 d93c aeac b23c b0ce 053c 2c78 3fbb
00000030: 1042 473b fb87 213d ee85 a43b 4c0c f93b
00000040: 567a be3a acfc a53c 91b8 5d3b e965 023d
00000050: eb10 aebc 2bec 19bc 8c0a 1b3d ba36 28bb
00000060: 1811 96bc 21f3 323c 6740 003d 56af a53c
00000070: e35b 913b 4d88 ab3b 3394 0e3d c1c7 fc3b
00000080: a5e2 c5bb e017 063c dcd4 033d e58a a83c
00000090: 3e57 063d 963f dbbc 4c0a ba3c 8d47 38ba
000000a0: aa41 a8bc 38c3 8a3c bed6 ecbb 931e d53c
000000b0: 3aa3 ac3c 786b f23c e9e3 f8ba 0fca 4ebc
000000c0: 1789 df3c 8d0f ba3c 96f3 42bc 51e2 8e3c
000000d0: 7f0e b63c c41a d53c 6b21 bdbc b755 9ebb
000000e0: 7472 0ebc 1992 1a3c 0096 6eb7 ac73 873c
000000f0: c0d9 9c3c 88c2 0dbc bd0f 0a3d 06e7 74bb
00000100: f0fb a0bc 50eb dfbb c98a f03c fb35 623c
00000110: 8aa1 16bb 355b 0e3a 8d49 013d 8214 61bb
00000120: 1292 39bc 8895 853a a9f2 883c 2d7a ab3c
00000130: 16f8 de3c 00cf 6ebc 64b3 d73c 8eb9 70ba
00000140: c257 5fbc 184b 933c 2b90 5abc 2949 9e3c
00000150: a29f 0b3d f5f4 353c 02d6 2dbb a1f5 a5bc
00000160: dfb1 553c 324c 6d3c b1f5 98bc fa8d db3c
00000170: 0f3b d23c 716b a43c c987 6dbc 3c16 9ebb
00000180: 9555 adbc a827 443c 025f 2dbb 6a34 b73c
00000190: ac62 6ebd 5f1d 1d3c f877 15ba 5bdf 97bc
000001a0: 32f1 81bb 82aa 78bc 9530 17bc ec97 9a38
000001b0: 1a10 e63c 5af1 f13c f682 b8ba 7825 b8bb
000001c0: 59b7 093d 4fab 263d 4e96 e5bb 5950 c8bb
000001d0: 4120 c13a 8978 cf3c 7e77 8dbb b621 133d
000001e0: 3624 4bbc c195 e1bb dd13 fc3c 3db7 ed39
000001f0: b252 afbc 27ab bb3b 4005 423d 3042 f73b
00000200: 9b4f 293b 44a6 563b 7bfb d13c 4106 a13a
00000210: d2b6 3fbc e3b0 563b 60ab bf3c e730 193d
00000220: a317 9c3c 4ca6 fdbc 31cb d73c 4b13 b53b
00000230: d67b 42bd 0dc2 ab3c d1f0 ebba d270 a83c
00000240: c065 d7bb c4a2 693c 3c40 9fba 7295 b2bb
00000250: ac79 0b3d fac7 013d ebc3 40bb ff47 6e3c
00000260: b40b b03c 92bd e13c e5cf f5ba 3df4 38bb
00000270: aee6 0ebc 5201 583c 5efd aabb acff e23c
00000280: 0fe0 54bd e41a 3e3c 8eba 453b b95b c23c
00000290: 4247 a33c ca68 853c 24c1 8339 807d 05bc
000002a0: 01e8 003d 55a2 c93c 1884 0439 ae38 413c
000002b0: 967a 463c 64d0 dc3c c883 b03b 8d38 8e3b
000002c0: 7aa8 d1bb 4093 c53c ca73 61bb dd72 043d
000002d0: cada 15bd f57f 38bb 3cc0 023d 4c9c f0bb
000002e0: 950f d8bc b1ed 193b af7c 203d e9ac 943c
000002f0: 6d00 1d3b 0436 d03b b7e8 db3c 3f4d 053c
00000300: 471c 32bc 0beb 053c e837 b33c c1d0 463d
00000310: 9552 913c feb6 35bd b6c2 dc3c eb0e ce3b
00000320: 743a e5bc 2c97 533c cf3a 5cbc d561 9d3c
00000330: 28d3 ab3c 618c 3a3c 74dd d3bb 68bc 9bbc
00000340: 9b0c ad3c b8b4 323c 0fdc 75bc 9a50 ac3c
00000350: 94a8 a53c 8c8a c33c c6e3 c1bc 8c2c efbb
00000360: 6a0a adbc 4ac0 cb3c 586a fcbb a739 ac3c
00000370: 5178 90bd 05db 16bb 5ab5 9b3c 04d9 8e3c
00000380: e2d5 06bc ff75 fa3c 39ae fa3c 9000 603c
00000390: f5f9 8e3d 1a64 f23c c368 e03c 1383 d33c
000003a0: 4060 b7bb 1431 bf3c 6276 26ba 6daf 3f3d
000003b0: a8be 01bd 3b31 1dbc 7616 9f3c ebf0 883c
000003c0: 6b7e 2bbd 75ca 1ebd b649 d23b 09c2 f2bc
000003d0: 8f2f 73bc 8541 503c 3df9 4d3d 5971 7a3d
000003e0: 535c c43c 3c32 9e3c 6d97 873c 23a4 49bd
000003f0: acfb efbc 9c63 a63c c3cb 1e3d 9b48 853d
-0.05122427 0.010561705 0.0057780063 0.03411711 0.005035145 0.01733175 0.0054781637 -0.008022688
0.026490938 0.021810856 0.008166954 -0.0029215915 0.0030404367 0.03943632 0.0050208485 0.007600343
0.0014532309 0.020262085 0.0033831934 0.03183547 -0.021248301 -0.009394686 0.037851855 -0.0025667385
-0.018318698 0.010922224 0.03131142 0.020225208 0.0044360026 0.005234754 0.034809303 0.007714242
-0.006038981 0.008184403 0.03218542 0.020574043 0.032798044 -0.026763719 0.022709988 -0.0007029705
-0.020539124 0.01693879 -0.0072277477 0.026015555 0.021073926 0.02959226 -0.0018988821 -0.012621417
0.02728705 0.022712493 -0.011898896 0.0174419 0.02222371 0.02601374 -0.023087224 -0.0048319953
-0.00869428 0.009434246 -1.422083e-05 0.016534649 0.0191468 -0.008652337 0.033706415 -0.0037369146
-0.019651383 -0.0068334714 0.029363053 0.013806815 -0.0022984468 0.0005430461 0.031564284 -0.00343445
-0.01132633 0.0010191659 0.016717272 0.020932281 0.027217906 -0.01457572 0.026330657 -0.0009182923
-0.013631763 0.017980143 -0.013340036 0.019321995 0.034087785 0.011105766 -0.0026525264 -0.020258727
0.013042896 0.014483498 -0.018671842 0.026801098 0.025662927 0.020070763 -0.014497706 -0.004824428
-0.021158973 0.011972345 -0.0026454334 0.02236386 -0.05819957 0.009589522 -0.00057017757 -0.018539121
-0.0039655203 -0.015177371 -0.009227891 7.37159e-05 0.02808385 0.02953403 -0.0014077115 -0.005619701
0.03362212 0.040690716 -0.007006443 -0.006113094 0.0014734344 0.02532603 -0.004317223 0.03592082
-0.01239877 -0.006884307 0.03077119 0.00045340686 -0.021401737 0.00572719 0.047368288 0.007545732
0.0025834802 0.003275291 0.02563261 0.0012285189 -0.011701303 0.0032759241 0.023397148 0.037400153
0.01905424 -0.030963086 0.026342006 0.0055259815 -0.04748138 0.020966554 -0.0018000846 0.02056161
-0.006573409 0.014259998 -0.0012149881 -0.005449944 0.034051582 0.031684853 -0.0029413651 0.014543532
0.021489955 0.027556214 -0.0018753974 -0.002822175 -0.0087219905 0.013183909 -0.005218192 0.027709804
-0.05197149 0.011603091 0.003017101 0.023725377 0.01993144 0.016285319 0.00025130168 -0.008147597
0.031471256 0.024613539 0.0001263771 0.011793299 0.012114188 0.026954837 0.0053868033 0.0043402375
-0.006398258 0.024118066 -0.003440129 0.032336105 -0.036585607 -0.002815244 0.03192161 -0.007342851
-0.026374618 0.0023487622 0.039181408 0.018148856 0.0023956553 0.0063540954 0.026844366 0.008136093
-0.010871 0.008173714 0.021877244 0.048538927 0.017739573 -0.044363968 0.026948314 0.0062883995
-0.027981974 0.01291446 -0.013441755 0.019211689 0.02097471 0.011386008 -0.0064656083 -0.019010738
0.021124175 0.0109073445 -0.015006079 0.021034528 0.020221986 0.023869775 -0.023668181 -0.0072990116
-0.02112313 0.024871964 -0.007703107 0.021023585 -0.070541985 -0.002301873 0.019007374 0.017437465
-0.008229705 0.030573843 0.030600654 0.013672009 0.06981269 0.029588748 0.027393704 0.025819337
-0.0055961907 0.023338832 -0.0006350038 0.04679816 -0.031675965 -0.009594257 0.01941989 0.016716441
-0.04186861 -0.038767297 0.0064174784 -0.029633539 -0.014842882 0.012710934 0.05028652 0.061143253
0.023969805 0.019311063 0.016551698 -0.0492288 -0.029294811 0.02031117 0.03876854 0.06507989

encoder_mean.4.bias f4 [16]
00000000: 2e58 8436 c692 b736 e43b 23b3 7617 f4b5
00000010: bd3e b6b5 3c5e fdb3 517f 33b4 7874 1035
00000020: be92 ccb5 4041 2333 2ac6 e0b5 b2b5 9235
00000030: aeb1 89b4 60c9 ceb5 229e 8cb3 5102 1135
3.944172e-06 5.4709117e-06 -3.8005865e-08 -1.8186245e-06 -1.3578316e-06 -1.1798372e-07 -1.6716992e-07 5.3813665e-07
-1.5241892e-06 3.801074e-08 -1.6746974e-06 1.0930728e-06 -2.5647518e-07 -1.5406804e-06 -6.548022e-08 5.402008e-07

encoder_mean.5.weight f4 [16]
00000000: 634d 783d b340 5e3d 01f9 723d b515 6b3d
00000010: 5711 793d c4c9 9c3d f0de 5a3d ae0c 543d
00000020: 449f 7b3d b4ad 6b3d b66f 6d3d 6292 983d
00000030: 0636 4b3d 8c3a 843d ed86 643d b87b 853d
0.060620677 0.05426092 0.0593195 0.05739375 0.060807552 0.07655671 0.053435266 0.051769905
0.061431184 0.057538703 0.057967864 0.07449795 0.049612068 0.064564794 0.055792738 0.06517738

encoder_mean.5.bias f4 [16]
00000000: 06bb 083c 0080 80ba 10fa dc3c 6233 573c
00000010: 91b7 f13c 0030 20bd 0a2a d63b 6a8f ee3c
00000020: b74b b23c 9256 01bc 93e3 ee3c 2b75 3f3c
00000030: 5a19 603c 0bf0 fc3c f1ea e93b 3bcf c73c
0.008345371 -0.0009803772 0.026974708 0.013134809 0.029506477 -0.039108276 0.006535773 0.02912112
0.02176462 -0.007894175 0.02916125 0.01168565 0.013677919 0.03087618 0.007138603 0.024390807

encoder_mean.5.running_mean f4 [16]
00000000: 91fa 523b 7d8e 073b b952 6d3b d87e a53a
00000010: d3c7 503b f830 393b 2712 d53a 4544 803b
00000020: e44d a33b 00d4 65ba a622 4e3b 5dc2 623b
00000030: 6679 913a 4d44 543b fc68 5f3a 4623 343b
0.0032192806 0.0020684295 0.0036212637 0.0012626303 0.0031857386 0.0028257947 0.001625602 0.0039143884
0.0049836505 -0.0008767247 0.0031453758 0.0034600713 0.0011098802 0.0032389343 0.0008522419 0.0027486845

encoder_mean.5.running_var f4 [16]
00000000: 10a2 4a38 4c5d 8a38 b865 ab38 b21b 4438
00000010: c35d a538 6b99 2a38 f02f 5138 7ca7 8b38
00000020: 1f61 6438 13a9 7438 c2e8 c038 1227 2e38
00000030: f8d2 d038 adbd 9438 8861 6438 ba3c 9938
4.8311485e-05 6.597731e-05 8.172862e-05 4.6755835e-05 7.8852776e-05 4.067404e-05 4.987413e-05 6.659233e-05
5.4449887e-05 5.8331596e-05 9.198628e-05 4.152122e-05 9.957509e-05 7.09252e-05 5.445027e-05 7.30692e-05

encoder_mean.8.weight f4 [14, 16]
00000000: dc6b 6bbc 23ed cd3b d508 91bc d696 a63c
00000010: 154f debc 2e1e ca3b 9040 193b 122a 8fbc
00000020: 4f92 77bc f5a9 933c b63f 0dbd 971c e33c
00000030: b999 d13b 621b 19bd 2e48 753c 62b8 dfbc
00000040: 745a 54bc abab 093c 6016 8cbc f1ae bf3c
00000050: f33d c6bc 3090 af3b e097 f23c 3cdf d9bb
00000060: 7735 81bc 11fa c73c b71a d9bc a0ab d83c
00000070: b1ba bc3c 1bf6 b4bc 2ae4 813c f74c edbc
00000080: 6902 023d a554 9bbc 7c76 153d 8b84 a6bc
00000090: 687c 413b 625e 7d3d 8078 abbc d347 243d
000000a0: 0948 d63c 449e 73bc 56aa 77ba 586c 8a3c
000000b0: 0b00 873b 9099 8c3c da80 a5bc 4dfc 723c
000000c0: 9471 29bc 931e c53b 7c99 91bc 400a 5c3c
000000d0: 330a 89bc b6e1 c6ba ae76 903c 2352 51bc
000000e0: 0cc8 47bc 943b c93c ba4d b3bc 9832 db3b
000000f0: 0319 563c f2af 82bc 7630 c03c e20a 51bc
00000100: fa5e 6bbc d8df 5e3c a69d 84bb 9b5e bc3c
00000110: 5742 74bc b813 a6b8 22ad e83c 7131 19bc
00000120: 371c 7cbc a286 a13c dc85 9abc 7cca 893c
00000130: a6d0 e33c 3e20 6fbc d3c8 8b3c d432 73bc
00000140: f789 17bc 0547 c13c 1ace 29bc b3aa 903c
00000150: 352b a2bc 178a 3a3c f21f d13c f5a6 4abc
00000160: 4b4e e0bb 7c08 4e3c 82ad eabc 862d c33c
00000170: ecb8 09bb e6b0 c6bc 6133 983c 414d d5bc
00000180: 1ad5 7fbc 22e1 693c 5c9f ccbb de3f 8f3c
00000190: 5185 77bc b1a9 0abb f1ea 833c ff72 99bc
000001a0: c9f2 6fbc 85e1 2e3c c416 afbc 896d 263c
000001b0: 8954 a93c 21f7 94bc 7aba 3d3c a21e 57bc
000001c0: 6ffe 1ebd 6d22 e8bc 5b00 cebc 7d89 36bd
000001d0: 0824 89bc ecb0 02bc eec7 b9bc de9d c0bc
000001e0: da27 4fbd 8d13 c1bc 14ef 75bc 7372 44bd
000001f0: ab54 80bc a36a 52bc 0220 0bbd fc41 f7bb
00000200: 05b9 8e39 04cb 843c 9307 dcbc 6a00 7a3c
00000210: a7bc c3bc 3a87 123b 0b0d 953c 23fa aabb
00000220: 735e cdbb ac5e b63c 3673 e6bc 2b85 7f3c
00000230: 8d1f 063d 2849 d4bc a3f9 313c bba4 f8bc
00000240: e463 4c3c 5678 c73b 06b5 013d 0f73 403c
00000250: 0a6b de3c 0c70 1f3d 88cc 083b 8b5f 353d
00000260: 27c6 6a3c c9da 093c 62b8 863c 74fd 253d
00000270: 8e76 f53c 1951 233c b264 3c3c 3344 0a3d
00000280: 420c 7a3c e159 543c 7a6b b43b 4aa0 3a3c
00000290: 4262 7c3c 6f73 233d 590b fc3b b3ed 393d
000002a0: 318c 0b3d 8de6 093c 6095 953b 7ce7 6e3d
000002b0: 4841 a73c 5087 073d b921 463c 7bba 24bc
000002c0: d4f9 b5bc b501 7e3c 2ac6 09bc 07b9 2f3c
000002d0: ccd1 d5bc 70f2 10bc 5b5c 8c3c 5dc7 5dbc
000002e0: 8de0 8dbc d1ec 943c 4f76 5ebc 98cf 94bb
000002f0: 92f4 733c 586a adbc 9673 2c3c 6364 11bc
00000300: f244 d1bc 0e4a a13c 0253 6fbb d519 b93c
00000310: b856 86bc 8269 a53a 06d8 ae3b 92a3 66bc
00000320: edc2 74bc 257a c23c baa1 a8bc e528 103c
00000330: d3bc 883b 8935 8bbc d175 fd3c 9f95 b1bc
00000340: 4839 11bc e94a 893c 9ef9 9abc 4fbf 613c
00000350: 447e a0bc 7469 a33b 67fa f83b 564d 86bc
00000360: d318 57bc bdd1 493c af4b e4bc 51b8 573c
00000370: 2104 0d3c 42eb a9bc ac1d b73c afce 7fbc
-0.014368977 0.0062843724 -0.017704407 0.020335596 -0.027137319 0.0061681485 0.002338443 -0.017476115
-0.015110566 0.018025378 -0.034484588 0.027723594 0.006396499 -0.03737963 0.014970822 -0.0273096
-0.012961019 0.008402745 -0.017100513 0.023398848 -0.024199462 0.0053577647 0.029613435 -0.006648926
-0.015772564 0.024411233 -0.026501996 0.026449025 0.02303824 -0.022090008 0.015855867 -0.028967364
0.03174058 -0.01896126 0.03648995 -0.020326873 0.0029523615 0.06185759 -0.020931482 0.04010756
0.026157396 -0.014869276 -0.0009447684 0.016897365 0.004119878 0.017163068 -0.020203043 0.014830661
-0.010342021 0.0060156076 -0.017773382 0.013430178 -0.016728496 -0.0015173468 0.017634716 -0.012775931
-0.012193691 0.024564542 -0.021887649 0.006689381 0.013067487 -0.015953038 0.023460608 -0.012758942
-0.014365906 0.013603173 -0.0040471135 0.02299433 -0.014908395 -7.91917e-05 0.028402869 -0.009350167
-0.015387586 0.019717518 -0.018862657 0.016820185 0.027809452 -0.0145950895 0.017063534 -0.014843661
-0.009249202 0.023593435 -0.01036408 0.01765952 -0.019795993 0.011385462 0.025527928 -0.012368907
-0.0068452707 0.012575265 -0.028647188 0.023825418 -0.0021014763 -0.024254274 0.018579187 -0.026037814
-0.015614772 0.014274867 -0.006244583 0.017486509 -0.015107469 -0.0021158273 0.01610324 -0.018731592
-0.014645287 0.010673885 -0.02137316 0.010157951 0.020670192 -0.018184246 0.011580104 -0.013129862
-0.038816866 -0.028336728 -0.025146654 -0.044564713 -0.016740814 -0.007976752 -0.022678342 -0.023512777
-0.050575115 -0.023568893 -0.015010614 -0.04796071 -0.015665373 -0.012842807 -0.033966072 -0.0075457077
0.000272222 0.016210087 -0.02685908 0.015258888 -0.023893667 0.0022358433 0.018194696 -0.005217807
-0.0062673627 0.02226194 -0.028131109 0.015595715 0.032744933 -0.02591379 0.010862741 -0.030351987
0.012474988 0.006087343 0.031666778 0.011746182 0.02715065 0.038925216 0.0020873863 0.04428057
0.01432947 0.008413979 0.016445342 0.040524915 0.029963758 0.009968066 0.011498617 0.033756446
0.015261712 0.012960882 0.0055059763 0.011390755 0.015404286 0.039905008 0.0076917824 0.045392703
0.034069244 0.008416784 0.004564926 0.05832623 0.02041687 0.03308803 0.012093001 -0.010054226
-0.022213854 0.015503337 -0.008409062 0.010725266 -0.026101016 -0.008846864 0.017133882 -0.013536301
-0.017318988 0.01817933 -0.013578012 -0.0045413487 0.014889853 -0.021168873 0.010525605 -0.008874032
-0.025545571 0.019688632 -0.0036517982 0.022595325 -0.016398773 0.0012619945 0.0053358106 -0.014077084
-0.014939052 0.023739884 -0.02058493 0.0087988125 0.0041729 -0.016993301 0.030939968 -0.02167779
-0.008863755 0.016759353 -0.018917855 0.013778522 -0.019591458 0.004986936 0.0075982097 -0.016394299
-0.013128477 0.012318072 -0.02786812 0.013166503 0.008606941 -0.020742062 0.022353016 -0.015613242

encoder_mean.8.bias f4 [14]
00000000: 74ce aa35 003d c3b5 35ee ed34 aa2a 0b36
00000010: 4c1e 39b6 4926 b2b5 3feb a935 5c14 e735
00000020: 2b7d cfb5 89db ceb5 9a68 81b4 ba5b 0835
00000030: f6a3 4cb4 b0b7 3c36
1.2726073e-06 -1.4546386e-06 4.4318008e-07 2.0737448e-06 -2.7584783e-06 -1.3273176e-06 1.2659947e-06 1.7216767e-06
-1.545913e-06 -1.5412089e-06 -2.410423e-07 5.079743e-07 -1.9058629e-07 2.8121103e-06

encoder_mean.9.weight f4 [14]
00000000: d346 a23d 5cd4 973d 5ebc 983d ef2a a13d
00000010: 476c 8d3d 578a 9f3d afe0 9b3d 3112 0f3e
00000020: 339c 973d db1f a13d 379b 973d 6f00 963d
00000030: 9271 873d adc6 993d
0.07923665 0.07413551 0.07457803 0.07869517 0.06905418 0.07790058 0.07611214 0.13971783
0.074028395 0.07867404 0.07402652 0.073243015 0.06613459 0.075085975

encoder_mean.9.bias f4 [14]
00000000: a16b 4c3c 0623 953c 1c7e e73c 7702 b43c
00000010: 0628 8d3c f743 5a3c 4578 6a3c db63 8a3c
00000020: cb5b 173c 610d 8b3c 57cb b83c c324 0f3c
00000030: 9102 153c a67c b03c
0.012476833 0.018205177 0.028258376 0.021973832 0.017230999 0.013321868 0.014310901 0.016893318
0.009238194 0.016974153 0.022557897 0.008736792 0.00909485 0.021543812

encoder_mean.9.running_mean f4 [14]
00000000: 2e7b 8fbb 0f13 dbba d68e a73b 1610 6cbb
00000010: b7c3 87ba 4519 34bb d526 1bbb ef43 28bc
00000020: 8268 1cbb 42d8 223c 605a 1b3c 3ca7 73bb
00000030: b1a5 04bb e2e8 99bb
-0.004378698 -0.0016714054 0.005113463 -0.003602033 -0.001035801 -0.0027480882 -0.0023674269 -0.010270103
-0.0023866002 0.009939255 0.009481996 -0.0037178537 -0.0020240361 -0.0046969512

encoder_mean.9.running_var f4 [14]
00000000: abc2 f538 8128 f438 7c0a 4139 a14c bb38
00000010: d2c2 b438 3640 a238 109b 9838 8138 0739
00000020: 6a41 f838 cd2c 0239 366e 1a39 a867 b738
00000030: 685b a638 6956 d438
0.0001171877 0.00011642371 0.0001840982 8.931128e-05 8.619357e-05 7.736722e-05 7.2768074e-05 0.00012895653
0.00011837746 0.00012414456 0.00014727641 8.7454275e-05 7.9325226e-05 0.00010125043

encoder_mean.12.weight f4 [12, 14]
00000000: f436 b7bc 0579 60bc 97f9 0a3d 3213 b1bc
00000010: 6e87 32bc 2539 91bc 62da c5bc b040 33bd
00000020: d378 41bc 1db8 433d 3a93 da3c 51ab a0bc
00000030: 8fa6 afbc 2301 b2bc 9a25 97bc e211 5dbc
00000040: 7333 ef3c f673 f0bc 5fa3 95bc b61a a0bc
00000050: 3a75 c1bc 4d8e 4fbd 74ac b4bb bfd3 ab3c
00000060: 4456 d13c 9617 e7bc ca42 d9bc 68e4 c4bc
00000070: dc6c d33c 6aa8 a83c 0c51 7fbc 5149 4c3d
00000080: e5ff b23c 9a79 473d ad0e 0a3d 0be6 33bd
00000090: 6f33 1e3d e9d6 19bc 59d0 11bc bcdd 553c
000000a0: eccc e63c e1e0 fe3c e7a5 e73c 0265 ef3c
000000b0: dc54 abbc 4807 1f3d 0a64 2e3d 7f00 3d3d
000000c0: 84ad 033d d49c 33bd c960 e63c 15a9 6abc
000000d0: 9238 53bc 9347 e73c ffa1 e93c c085 6b3c
000000e0: bb74 053d 3397 db3c dd5e 47bc 2dd2 5d3d
000000f0: 1598 c63c 4919 273d 290b d03c 81d6 5bbd
00000100: 8c8a 0b3d 8d07 1bbc f9ac a8ba 11a7 ab3c
00000110: 9b21 9a3c 42f9 c13c ae2f 2f3d 1806 363d
00000120: cfd1 86bc f434 e03c 8e58 963c 18e1 fc3c
00000130: 59b9 033d e1db 2cbd 2bb4 513d d391 2dbc
00000140: 8d8d 21bc 735b 5e3c 1015 dc3c 9a9e 8b3c
00000150: 285e 043d d176 4f3d bca7 8dbc 6a35 043d
00000160: 64af 3a3d 3dd9 813c 062a 923c 370c 0fbd
00000170: 6590 0d3d a82e aebb 22a5 ebba 648f 893c
00000180: a032 a43c 9bc8 223d 7ae5 c0bc 7f77 9abc
00000190: 0b18 993c e384 cdbc a266 62bc 8982 b3bc
000001a0: 994d bfbc a5f9 0bbd e0ff 83bc 728d 1b3d
000001b0: c0aa 193d 437d b5bc 082c 8bbc 3394 d6bc
000001c0: 10df cfbc 3734 8dbc ba50 bd3c 9a64 c8bc
000001d0: a860 a1bc dac5 afbc df69 d6bc e4b5 0bbd
000001e0: c379 60bc e130 193d 66c0 393d 6962 cdbc
000001f0: 1dc7 a1bc 9034 e9bc b2df c2bc dd51 75bc
00000200: 0289 073d c182 c5bc 7fbf 72bc 87e0 87bc
00000210: 78e7 9cbc b1c7 5cbd 6402 dbbb b608 ea3c
00000220: e3c3 cf3c 4e84 c6bc 3da5 84bc 1e05 d0bc
00000230: 2ce0 bdbc 98be aabc 569e 0b3d 21ae cfbc
00000240: cd3b abbc 5fc0 a2bc 47af a9bc b981 29bd
00000250: ccb4 96bc aa33 103d 9c4e ef3c a461 b5bc
00000260: 898c 87bc 11ab eebc 4058 63bc c34d 46bc
00000270: 67ee e53c 58de c5bc 94c6 6dbc 9c3e 7bbc
00000280: d528 c9bc cfb4 5dbd 025a ebbb bc6b d23c
00000290: aa04 f93c 0b29 bebc 68bf b7bc e5f1 cbbc
-0.02236507 -0.013700728 0.033929434 -0.021615598 -0.010896547 -0.017727444 -0.024151985 -0.043762863
-0.011808592 0.047783006 0.026681531 -0.01961294 -0.021441726 -0.021729058 -0.018450547 -0.013493033
0.029199338 -0.02935217 -0.018266378 -0.019543987 -0.023615468 -0.050672818 -0.005513722 0.020974992
0.02555383 -0.028209489 -0.026521105 -0.024034694 0.025808744 0.020588119 -0.015583288 0.049874607
0.021850536 0.048699953 0.033705402 -0.043920558 0.03862327 -0.0093896175 -0.008899772 0.013053354
0.028173886 0.03111309 0.02827735 0.029222969 -0.020914488 0.038825303 0.042575873 0.04614305
0.0321479 -0.043850735 0.028122323 -0.014322539 -0.012891905 0.028232371 0.028519629 0.01437515
0.032582026 0.026805496 -0.012168613 0.054155517 0.02424244 0.0407956 0.025395947 -0.053671364
0.034067675 -0.009462249 -0.0012868933 0.020953687 0.018814852 0.023678426 0.04277008 0.044439405
-0.016457466 0.027369 0.018352773 0.030869052 0.032159183 -0.04220188 0.051197212 -0.010593849
-0.0098604085 0.013571608 0.026865512 0.0170434 0.032316357 0.05065042 -0.017291896 0.032277502
0.04557742 0.015850658 0.017842304 -0.03492376 0.034561533 -0.0053156205 -0.001797829 0.016792007
0.020043671 0.039742094 -0.023546923 -0.018855808 0.018688222 -0.02508778 -0.013818415 -0.02191283
-0.023352431 -0.034173626 -0.016113222 0.03797669 0.037516356 -0.022154456 -0.01698877 -0.026193714
-0.02537492 -0.017236812 0.023109782 -0.024462033 -0.01969941 -0.021456648 -0.02617353 -0.03410901
-0.013700905 0.03740013 0.0453495 -0.02507134 -0.019748265 -0.028467447 -0.023788307 -0.014973131
0.033089645 -0.0241102 -0.014816164 -0.016586555 -0.019153342 -0.053901378 -0.0066836346 0.028568607
0.02536196 -0.02423301 -0.016192073 -0.025393065 -0.023178183 -0.020842835 0.034086548 -0.025351586
-0.020902539 -0.01986712 -0.020713462 -0.04138348 -0.018396758 0.03520552 0.029212289 -0.022141285
-0.016546505 -0.029134305 -0.013876021 -0.012103501 0.02806778 -0.024153873 -0.014512677 -0.015334751
-0.024555603 -0.05412751 -0.0071823606 0.025686137 0.030397732 -0.02321293 -0.022430137 -0.024895618

encoder_mean.12.bias f4 [12]
00000000: 9360 76b5 7589 fdb4 e1a7 84b5 4000 37b3
00000010: 3662 f1b5 412f beb4 b13e e635 5212 8834
00000020: bad6 e8b5 d4fb b734 16df cf34 bd78 9c35
-9.1782675e-07 -4.7224935e-07 -9.883626e-07 -4.2608235e-08 -1.7984482e-06 -3.542464e-07 1.7154581e-06 2.5345304e-07
-1.7347841e-06 3.4269635e-07 3.871907e-07 1.1658045e-06

encoder_mean.13.weight f4 [12]
00000000: 1011 9e3e 2809 963e 1ee0 a53e f9f0 9d3e
00000010: daa7 a13e b1ea a03e be6b a43e b3ce 903e
00000020: d5f2 923e 37a6 953e 329b 963e 77d5 903e
0.30872393 0.2930386 0.3239755 0.3084791 0.31573373 0.31429055 0.3211345 0.282827
0.2870089 0.29228374 0.2941528 0.2828786

encoder_mean.13.bias f4 [12]
00000000: ea55 3a3e 8e9b 1b3e c493 413e 3457 393e
00000010: 1494 223e 7d13 383e 841c 3f3e a151 2f3e
00000020: 3fb0 2d3e 00c6 1b3e ec39 343e e199 193e
0.18196836 0.15196058 0.18904024 0.18099672 0.158768 0.17976184 0.18663222 0.17120983
0.16961764 0.1521225 0.1760022 0.15000106

encoder_mean.13.running_mean f4 [12]
00000000: d926 bbbb ce8b 02bc 3cd7 ac3b 9e20 bd3b
00000010: 4710 a23b 710c ae3b 5598 de3b 13fd cebb
00000020: 65b0 c1bb 889a f5bb f11e dfbb 0597 e1bb
-0.005711418 -0.007967902 0.0052746814 0.0057717105 0.004945788 0.0053115417 0.0067930617 -0.00631679
-0.0059109204 -0.007495228 -0.0068091084 -0.006884458

encoder_mean.13.running_var f4 [12]
00000000: 0595 3a39 8444 2939 8ade 3939 5415 6a39
00000010: 3fd1 4139 aa20 5339 82d9 6d39 ab02 3739
00000020: 4751 4239 d685 2539 25b8 4939 564b 1b39
0.00017793856 0.0001614262 0.00017725877 0.00022323924 0.00018483865 0.00020134696 0.0002268311 0.00017453234
0.0001853156 0.00015785484 0.00019237453 0.00014810017

encoder_mean.16.weight f4 [10, 12]
00000000: 4191 a438 f9ca 553a 0ca9 07bb aa67 86b9
00000010: a75a a7ba 462b cbb9 9e75 d0ba c58b 5e3a
00000020: 7369 253a 668e b73a a1aa 4e3a 5024 8039
00000030: 796e c3ba 503f daba d7bb 6539 4a20 c138
00000040: 8c58 6039 200e 06ba f211 6d3a fbb5 46ba
00000050: a8d4 a9b9 3927 deba 20b9 11ba d6f6 e0ba
00000060: a646 b7be 0928 a6be 99fd be3e 33a4 b53e
00000070: 5344 b63e 8ede b73e 6c66 bc3e a1e4 a5be
00000080: 0d88 a8be ab8c a9be ba33 acbe 6349 a1be
00000090: 720e ae39 a07e 32ba 2ae5 8a39 ec52 91b9
000000a0: 0a1e d0b9 b215 a838 4e81 b7b9 e95f e4b8
000000b0: d19e 11ba 6422 56ba 0bc9 9bb8 45d2 2bba
000000c0: 5fbf 003b 72f4 243a 1f4c 28ba fcda 48ba
000000d0: 158f 30ba 9078 1cba a423 70ba 202c 883a
000000e0: 2108 91b9 7972 f03a 98ad 843a fe0a 7d39
000000f0: 7957 1a3b 99e3 a03a 8859 a23a e0f4 bb3a
00000100: 4665 0e3b 6eed df3a f8aa ee3a a47e 113b
00000110: 864b 6239 e09f 283a b157 833a 2be6 223b
00000120: 1cfd feb8 df9d 7b3a 2cbf ebba 80f8 62bb
00000130: 0d70 3cbb 6c36 68bb 78b2 1abb 0383 a939
00000140: 088a c6b8 984e ef38 6677 0e39 60f9 e138
00000150: 8460 273b 0c22 313b 8649 f138 dc3f ae37
00000160: 7762 043a da4e 2d38 ee4a 1f3a e2b3 4d3b
00000170: 6fb1 c43a cfeb 113b 7b6f b73a e01c c73a
00000180: 48e8 5ab9 a301 093a a98f 803a b673 773a
00000190: 62a7 aa3a 5bda 963a 118c f539 7eb0 0839
000001a0: 8718 b739 9476 d0b9 a368 7439 66ee 1d39
000001b0: 7626 5eb9 a458 8a38 7cc3 d339 113c 1c39
000001c0: 26f5 133a 28ad 353a 0493 3c3a 4014 33b9
000001d0: ec57 0039 309a 39b9 907f 6c39 3565 1eba
7.847185e-05 0.00081555505 -0.0020700125 -0.00025635707 -0.0012768105 -0.00038751418 -0.0015904193 0.0008489455
0.00063099636 0.001400423 0.0007883702 0.00024441117 -0.0014910243 -0.0016650949 0.00021909118 9.2089715e-05
0.00021395291 -0.0005113799 0.00090435066 -0.0007580218 -0.00032392633 -0.0016948945 -0.0005558897 -0.0017163407
-0.35796088 -0.3245242 0.37302855 0.35476837 0.35599002 0.35911983 0.36796892 -0.32400993
-0.32916299 -0.33115134 -0.33633214 -0.31501302 0.0003319863 -0.000680903 0.00026492152 -0.00027718337
-0.00039695232 8.014905e-05 -0.0003500082 -0.00010889752 -0.00055549765 -0.0008168577 -7.428423e-05 -0.0006554465
0.0019645316 0.00062925287 -0.00064200343 -0.0007662026 -0.0006735188 -0.0005968893 -0.00091605843 0.0010389127
-0.00027662612 0.0018344662 0.0010122536 0.00024132055 0.0023550673 0.0012274861 0.0012386302 0.0014339946
0.0021727844 0.0017084309 0.0018208912 0.0022200728 0.00021581174 0.00064325146 0.0010020641 0.002485643
-0.00012158809 0.0009598415 -0.0017986051 -0.003463298 -0.002875331 -0.0035432829 -0.002360491 0.00032331803
-9.467086e-05 0.00011411047 0.00013586655 0.00010775286 0.0025539706 0.002702835 0.0001150547 2.0772153e-05
0.0005050073 4.131985e-05 0.0006076534 0.0031387736 0.0015006493 0.0022265797 0.0013995016 0.00151911
-0.00020876632 0.0005226379 0.0009808439 0.00094395445 0.0013019855 0.0011509167 0.000468344 0.00013035719
0.00034922754 -0.000397612 0.00023308634 0.00015061497 -0.00021185898 6.5968634e-05 0.00040390703 0.00014899696
0.0005644135 0.00069304043 0.0007193538 -0.00017078314 0.00012239785 -0.00017700414 0.00022554235 -0.00060423027

encoder_mean.16.bias f4 [10]
00000000: 7f82 3aba b306 323a e152 a83d 58e6 a23a
00000010: 79dc 29bb daaf 22bb 765f 293a 04fc a3ba
00000020: 3df4 20bb 10d8 bbb7
-0.00071147823 0.00067911594 0.08218933 0.0012428267 -0.0025918765 -0.0024824054 0.0006461063 -0.001251102
-0.002455964 -2.2392749e-05

encoder_var.0.weight f4 [20, 13]
00000000: aae1 91ba 085a f73a 2e8a 8a3a c014 f039
00000010: bb77 39ba 2446 42b9 6305 9eb9 42e6 5cba
00000020: 055d a6ba 22c7 133b 9b97 083b a0a1 53b9
00000030: 3223 2e3a af5c d4b7 6b78 a8b8 ad68 dbb8
00000040: c894 3736 dfe0 b137 cd46 15b7 8071 e8b7
00000050: 61d4 2d38 035f 8b38 c80e 3938 eb5e f737
00000060: 1f73 fd38 ee2c 0938 52ce a3b5 82ab 05b6
00000070: 9c29 d0b7 10b6 dab3 1dc6 50b6 5c05 f7b6
00000080: 68d1 f9b6 8689 9636 094b 51b7 5287 e535
00000090: 6826 bfb6 41b0 9136 bd60 8a37 566e 8fbc
000000a0: d03c e03b 5c05 7ebd 34ec 83bb e6c2 13bc
000000b0: 3056 a3bb bdad 92bb 59f8 2a3c dc23 a0bb
000000c0: 2a65 51bc 1672 cabb 8f65 52bd 3f5a 0bbd
000000d0: eece c436 0c50 03b8 05cf d1b8 d888 04b8
000000e0: b8ed 46b7 8cbb 80b8 3772 50b8 5062 30b7
000000f0: 5191 1638 680f 1eb8 7e12 d6b6 7bc8 5ab8
00000100: 0028 f1b6 642b 533b 82c7 893b 2d40 6ebd
00000110: a1b6 50bc 9ab2 443a cf59 30bc 58d5 043b
00000120: 4a18 35bb 4bdd 75bb 98f9 86bb ac5e 9fba
00000130: 1dee 66bc dda8 93bc 7d18 97b6 b86b 9e36
00000140: 60bf 5fb6 63bb 1b35 6240 2535 dcab 1836
00000150: d19c b2b4 5347 8636 1efb 86b6 502f 8536
00000160: fe02 af36 38d8 5934 c523 93b5 5d8b 11bb
00000170: 88c0 4e3b 10fe 97bd 866f a43a 56ba 123c
00000180: 3836 93b9 0a4b b23b 7c68 c7b9 e066 d9b9
00000190: 82a8 6abc 7651 37bb c9c5 46bd a70d d0bc
000001a0: 937f 87b5 3387 86b6 cc54 f0b5 65d4 82b6
000001b0: 66dc 3f36 0c49 9135 5793 fa36 5476 5636
000001c0: 83e7 6235 da10 11b6 7e4e 0535 c622 0e36
000001d0: b665 cb36 eab3 23bb b074 85bb 8d35 0d3d
000001e0: bd78 2fbb 58d0 6b3b 52c8 e6bb fe0a de3b
000001f0: 7822 a23b 6cec c6b9 3eef ca3b a362 52bb
00000200: a93e 5b3d 1dd5 043d 7d26 9a3b 5599 10bb
00000210: 4c13 603c 5c81 753c e02a 453c 8181 2f3c
00000220: 4e8c 563c f26f 16bb a869 e33b 0cf7 a13b
00000230: e1d7 b23b 7ecd 243d 0117 c93c 8b96 16b9
00000240: 3e8d 0739 2165 f3b7 d444 d5b8 e051 ecb8
00000250: 0feb f8b8 dc82 df36 90f9 3939 115c c4b8
00000260: 25bb 2e38 d994 2eb9 a8c2 6bb9 0e05 a1b9
00000270: c5e6 b735 cebf 0e35 26a7 6336 166e ca35
00000280: b7ec a334 25f8 ba35 9a35 06b4 8f1e 9936
00000290: 3438 4bb6 4a57 9eb6 c382 e236 1c04 fb33
000002a0: 66e1 2834 d4b2 25b5 b988 e935 18cf acb7
000002b0: 9032 0eb7 0049 df36 c4ca dd36 215e 0535
000002c0: df24 6eb7 f7b9 4536 ecdb 1d37 fc3f 6236
000002d0: 8464 4cb6 fe1f eab6 411a 4db7 4f47 0ab7
000002e0: f055 7cb4 507f 85b7 2ef6 0037 00a5 6433
000002f0: 8c98 4e37 3f78 0436 673e 3337 fca2 abb7
00000300: c815 91b7 da6c efb7 a00f 48b8 a662 6235
00000310: fe8f 9db5 84b5 70b4 c42a 6933 296d 77b3
00000320: 0c8a bcb4 82dc a7b5 d8ae 1835 0ad7 90b5
00000330: d389 1ab5 3499 3ab4 b4e5 bf35 1697 5034
00000340: 4592 9cb6 0d90 78b5 45e8 a1b6 c6b9 09b6
00000350: 5927 7536 f1e0 6035 bbf1 a4b6 b8e0 3ab5
00000360: f0aa 08b6 2881 94b5 82bb 9cb3 26ea be35
00000370: bc11 8235 fac6 a63b ae35 0ebb 1a7b cd3c
00000380: 7243 1a3c f7d5 a03c f106 903c 8daf 5d3c
00000390: 1773 25ba b9e7 733b f6dd e2bb a225 fbba
000003a0: bda4 9d3c 44f0 313c 3198 6c3b 4f69 04bb
000003b0: d814 aa3d fd2d ac3a 69de 12bc ee08 173b
000003c0: 8ea4 14bc 2911 453c 57cf 313b 4a32 9e3b
000003d0: e0a9 2d3b 66e0 9e3c bbc4 303c 9817 c134
000003e0: 9f7b 8eb7 2654 be37 5382 be36 af17 09b6
000003f0: ad70 8337 5b15 0837 d9cd b036 980f e3b6
-0.0011129875 0.0018871436 0.0010569745 0.00045791827 -0.0007075031 -0.00018527411 -0.00030140122 -0.0008426645
-0.0012692517 0.0022549112 0.0020842317 -0.00020182738 0.0006642818 -2.5315529e-05 -8.033294e-05 -0.00010462231
2.7355727e-06 2.1204758e-05 -8.897577e-06 -2.7709408e-05 4.1444207e-05 6.645734e-05 4.4121203e-05 2.9488894e-05
0.00012085423 3.270519e-05 -1.2204493e-06 -1.9918375e-06 -2.4814908e-05 -1.0184533e-07 -3.1109732e-06 -7.3617975e-06
-7.4451564e-06 4.486358e-06 -1.2474841e-05 1.7101213e-06 -5.6967147e-06 4.3418554e-06 1.649593e-05 -0.017508667
0.006843187 -0.06201683 -0.0040259603 -0.009018635 -0.0049846396 -0.0044762776 0.010435187 -0.0048870873
-0.012780467 -0.006178151 -0.051366385 -0.034021612 5.865345e-06 -3.1307383e-05 -0.00010004457 -3.1598698e-05
-1.1857068e-05 -6.138449e-05 -4.9697435e-05 -1.0513308e-05 3.5898123e-05 -3.7684484e-05 -6.3798498e-06 -5.2161962e-05
-7.1870163e-06 0.0032221908 0.0042046914 -0.05816667 -0.012738855 0.00075034203 -0.0107636 0.0020268764
-0.0027632886 -0.0037515934 -0.0041191094 -0.0012158952 -0.014094857 -0.018024856 -4.5030015e-06 4.721307e-06
-3.3340984e-06 5.8014683e-07 6.156098e-07 2.27498e-06 -3.3269183e-07 4.0018144e-06 -4.022745e-06 3.969217e-06
5.2157548e-06 2.028836e-07 -1.0962764e-06 -0.002220831 0.0031547863 -0.074215055 0.0012545444 0.008955559
-0.0002807842 0.0054410743 -0.00038034085 -0.00041466113 -0.014322402 -0.0027972138 -0.048528466 -0.025397135
-1.0095413e-06 -4.0092505e-06 -1.7906073e-06 -3.899028e-06 2.8589507e-06 1.0824601e-06 7.467733e-06 3.195736e-06
8.4528455e-07 -2.1616493e-06 4.966058e-07 2.117989e-06 6.061712e-06 -0.0024979063 -0.004072748 0.034474898
-0.0026774846 0.0035982337 -0.007042923 0.0067762127 0.0049479567 -0.0003794165 0.0061930707 -0.003210225
0.053526554 0.032429803 0.004704295 -0.002206405 0.013676476 0.014984455 0.012034148 0.0107120285
0.013094975 -0.0022954908 0.0069400854 0.0049427804 0.0054578637 0.040235035 0.024547102 -0.00014361196
0.0001292722 -2.901495e-05 -0.00010169452 -0.00011268607 -0.000118693446 6.661152e-06 0.00017735944 -9.363157e-05
4.1659125e-05 -0.00016649383 -0.00022483862 -0.0003071208 1.3701725e-06 5.3178235e-07 3.392293e-06 1.5082212e-06
3.053335e-07 1.39303e-06 -1.2499223e-07 4.563313e-06 -3.0282072e-06 -4.7189287e-06 6.7505475e-06 1.1688846e-07
1.5728219e-07 -6.172752e-07 1.7399644e-06 -2.0600433e-05 -8.475632e-06 6.654416e-06 6.6099183e-06 4.9683337e-07
-1.419449e-05 2.9463533e-06 9.409134e-06 3.3713868e-06 -3.0456877e-06 -6.977468e-06 -1.2225065e-05 -8.242044e-06
-2.3500593e-07 -1.591412e-05 7.686713e-06 5.3235453e-08 1.2314074e-05 1.9739525e-06 1.0683761e-05 -2.0460684e-05
-1.729549e-05 -2.8541708e-05 -4.7698268e-05 8.4335113e-07 -1.1739319e-06 -2.2417777e-07 5.4288435e-08 -5.760845e-08
-3.511817e-07 -1.2506646e-06 5.6878844e-07 -1.0791421e-06 -5.757003e-07 -1.7378335e-07 1.4297461e-06 1.9426474e-07
-4.6661903e-06 -9.259682e-07 -4.8252136e-06 -2.0522725e-06 3.6530748e-06 8.3773836e-07 -4.915722e-06 -6.961741e-07
-2.0365078e-06 -1.1064449e-06 -7.2984236e-08 1.4224249e-06 9.690916e-07 0.005089638 -0.0021699476 0.025083113
0.009415494 0.019633276 0.017581435 0.013530624 -0.00063114 0.0037216975 -0.0069234325 -0.0019160996
0.019243592 0.010860506 0.0036101455 -0.002020437 0.08304757 0.0013136264 -0.0089641595 0.0023046094
-0.009072436 0.012028017 0.002713164 0.0048277723 0.0026498958 0.01939411 0.010789092 3.5966218e-07
-1.6985285e-05 2.268895e-05 5.677613e-06 -2.0428377e-06 1.5668886e-05 8.111204e-06 5.2691726e-06 -6.7669425e-06

encoder_var.0.bias f4 [20]
00000000: e13c ad32 34b3 3e2e 0881 a92f 07dd d433
00000010: d5d9 cbb0 ebb9 86b6 04a1 2431 602a 39b4
00000020: 9a62 6a31 1676 83b3 ce1e 03b4 bd74 48b1
00000030: e04a 8330 8965 b8b0 ca20 c82e f207 2d30
00000040: 3aea 0e31 e6df 32b3 527e 9c33 4865 b4af
2.0167535e-08 4.3360163e-11 3.0832603e-10 9.912224e-08 -1.4832106e-09 -4.015155e-06 2.3956668e-09 -1.7244884e-07
3.410753e-09 -6.1216426e-08 -1.2211532e-07 -2.9170188e-09 9.552785e-10 -1.341662e-09 9.1007715e-11 6.2948324e-10
2.0796862e-09 -4.164749e-08 7.2872936e-08 -3.2813774e-10

encoder_var.1.weight f4 [20]
00000000: a00b bcba 6bcf e5b8 6321 16b7 f588 3a3d
00000010: cba4 3038 be22 383d 7218 f136 23b1 733d
00000020: 1cf1 eeb3 0dc1 413d fa0b 3d3d 64fd 71b8
00000030: d8c7 c4b4 87d3 3935 7fe5 b938 8a2c 8535
00000040: 35cc 88b6 032d 1d3d 57e0 513d b1ee 0238
-0.0014346726 -0.000109582055 -8.94847e-06 0.04554077 4.2115145e-05 0.044955008 7.1852055e-06 0.059495103
-1.1126596e-07 0.04730325 0.046154 -5.7694866e-05 -3.665325e-07 6.9225683e-07 8.8642344e-05 9.922235e-07
-4.0768887e-06 0.038373005 0.051239338 3.1216714e-05

encoder_var.1.bias f4 [20]
00000000: f332 023c 3e9e 1e39 8e1e 5bb7 7bc7 71bc
00000010: 462f f938 6c9b b6bb 527f 7fb5 0c7a a2bc
00000020: ed26 2cb7 caff d2bc 1715 cbbc e961 5cb9
00000030: e561 57b7 3f6e 1e38 2c5e 2db9 5c7f e3b5
00000040: 8a9e 68b7 ab2d 47bc 5818 aebc 94e3 d137
0.007946718 0.00015127004 -1.3060531e-05 -0.0147570325 0.000118820506 -0.005572727 -9.518018e-07 -0.019833587
-1.0261062e-05 -0.025756735 -0.02479033 -0.0002101731 -1.28377915e-05 3.777281e-05 -0.00016533647 -1.6949884e-06
-1.386519e-05 -0.012156884 -0.021251842 2.5020716e-05

encoder_var.1.running_mean f4 [20]
00000000: 2d2e f63b fb28 0a36 cf0d 74b7 8ac4 c1bd
00000010: d684 bdb8 2203 acbd 092f e236 b3fd 8bbd
00000020: 7ff1 6237 cb84 733d 5127 403d 565c 17ba
00000030: ae99 5b37 aefc 86b7 d078 27b8 1a54 88b5
00000040: c024 72b7 06f6 a33d f4a6 883d abf3 62b7
0.007512829 2.0587456e-06 -1.4546748e-05 -0.09461315 -9.036965e-05 -0.08399035 6.7408005e-06 -0.06835499
1.3526877e-05 0.059452813 0.046912495 -0.0005773952 1.3089199e-05 -1.6091708e-05 -3.9928418e-05 -1.0157266e-06
-1.4432881e-05 0.080059096 0.06672469 -1.3527383e-05

encoder_var.1.running_var f4 [20]
00000000: 01db a036 0c2e 3631 48f6 e02e 81ec 2139
00000010: ef7c 8230 e17a ce38 afce 8d2c 8a78 ae38
00000020: 6be0 0b2d 7df6 7538 7cef 7e38 4c2d da32
00000030: 3bf1 c82c d3d6 462e c0e1 af2f 0037 b92b
00000040: f91f 1c2d aaee e938 8395 9538 8f4a a22e
4.793867e-06 2.651066e-09 1.0230089e-10 0.00015442261 9.494253e-10 9.8457334e-05 4.0304075e-12 8.319419e-05
7.951066e-12 5.8642112e-05 6.0781356e-05 2.5399139e-08 5.711124e-12 4.521079e-11 3.199272e-10 1.3160306e-12
8.874673e-12 0.000111547604 7.1327224e-05 7.3801514e-11

encoder_var.4.weight f4 [16, 20]
00000000: f374 90ba d39d efb6 22d6 8337 3461 bb3c
00000010: e482 02b8 ce6f eb3c 7609 3eb6 0aab f23c
00000020: 4ba0 9736 893c 653c 7d26 a23c 0cfb bcb8
00000030: 607d 8d36 d176 07b7 1a32 c138 2409 0835
00000040: ab9f ab36 1ffe 093c 9019 953c e906 4db7
00000050: d92f a6b7 ea66 86b7 204c d2b2 ff56 0638
00000060: 721a a6b5 ddbd 3038 aa49 4ab6 12af 21b8
00000070: 1c06 e6b5 faaa 90b8 9fdc 46b8 48d2 7537
00000080: b730 cd35 2ef8 c4b5 8ba7 be36 21eb a335
00000090: f831 4035 bf21 1fb8 45d0 50b7 2e95 4fb6
000000a0: 96ff df38 b442 4636 66c6 da36 d73e d4b9
000000b0: e2ee 6db5 2669 f9b9 0aa6 e3b4 e119 55ba
000000c0: 26e6 ac35 80f3 7835 f620 c338 5ca3 cfb7
000000d0: 2632 3a36 8092 dab4 6cc0 50b3 6f4d 39b4
000000e0: c004 0cb5 6e92 96b9 4c94 3937 94d0 67b6
000000f0: 79b3 0db8 a2eb 1738 5320 8036 067e 8eb8
00000100: 5f4c b4b6 b470 1eb7 1194 adb6 da84 11b8
00000110: a099 8a36 7388 f837 fd41 2fb8 3041 56b5
00000120: f077 e035 fce1 11b6 c232 ef36 6cbd 8f34
00000130: 7af7 0db6 806c 6db8 749e 0538 976d 83b5
00000140: e847 47b5 2ef8 feb3 8527 aeb5 84e9 acb6
00000150: aaa6 3db4 0618 8635 54d6 11b6 4a7a 72b6
00000160: 6e84 b0b5 0656 d135 d04e 4ab6 59fa 0a36
00000170: 2953 e834 14f2 d033 b8d6 73b5 5b79 25b5
00000180: a34c 9cb4 b40c 49b5 50d1 1eb6 d3a3 b735
00000190: 9eac 87b5 0099 7db5 7f69 23b6 2311 b6b6
000001a0: cb75 a1b5 e128 bf36 b223 8cb4 4370 c535
000001b0: c9dc 9fb4 b4f7 8a36 f19c 01b5 1e51 9fb5
000001c0: 695f 2db5 f57c 8234 be9b 3934 0723 0335
000001d0: 5a1e 8234 5547 97b6 8fe6 2d36 2cd7 61b5
000001e0: 436d aa3a 00c1 1138 987c 4737 6a8b b13c
000001f0: 5e8e 3ab8 540e dd3c 57f7 1236 f01a e13c
00000200: f644 4f37 99f6 853c 86b2 993c e084 bd38
00000210: e840 3136 a570 b1b6 590d c338 5bde 65b5
00000220: 277f 3736 21a9 523c c523 983c 2931 39b7
00000230: c4d1 43ba 030d 11b8 d7e1 8736 78ca 9a3c
00000240: 2a3e 10b8 327d 083d 1f41 4f36 382a ed3c
00000250: a470 1237 456f b63c 62d9 c33c d8f6 8238
00000260: 1b84 8b36 a848 3cb7 461a b838 d924 cdb5
00000270: 5808 bf36 f0bc 313c f4e8 6b3c 9790 1437
00000280: 460d 8cba 0142 7bb8 0e65 edb6 1783 a73c
00000290: f0df 70b7 80c6 f03c 3405 6db6 b2e9 c83c
000002a0: 36b2 e236 2d61 813c dfbe 7f3c f052 4737
000002b0: 5471 a334 c0fc a6b3 1dd8 0b38 9f9e 8cb5
000002c0: f3c7 8136 94ca 0d3c 41a2 4f3c 5cd1 1eb6
000002d0: 78c5 1cb7 f214 dab6 1bbd 13b5 40b2 0cb8
000002e0: 5ab9 d836 3576 22b7 c0a3 7736 67fb b1b8
000002f0: 751e 40b6 7ad9 0db8 b9cd 88b8 7dfa f1b7
00000300: f279 a135 ca9c ecb5 5011 c236 b6c3 68b5
00000310: 6906 2db5 9eb4 74b8 40a4 16b8 f4f1 9cb6
00000320: c359 0736 639d b9b4 299a 2e36 a4be 5ab4
00000330: 580f 38b6 c477 7eb6 fab0 8db3 0cfa d2b6
00000340: 8724 0534 123a 6b36 1895 3436 12cc 80b5
00000350: 5d9d 2335 0a85 09b4 d6ec de35 7a6c a7b4
00000360: e401 6eb5 3ad5 cc35 014a 9435 065e 88b6
00000370: 43bd 533a ee9b 2ab7 1b07 3037 3ec8 c13c
00000380: 37cf d8b8 0d13 f03c 4c28 23b6 1ab0 bc3c
00000390: 854b 4337 3489 993c 8715 8f3c 34a9 9e39
000003a0: 9062 2fb5 20bf 2a36 9226 9137 0fa7 a234
000003b0: 4f72 b036 a043 393c c3ec 9e3c c0e9 9d35
000003c0: 94a6 63b9 fea4 0738 f4a6 7d37 47e9 9d3b
000003d0: 815d ceb7 b5c5 c13b 74cc 6236 202a 0c3c
000003e0: 8e83 e235 11a0 923b b1ba 9f3b b341 0037
000003f0: e035 61b6 0ded 8f36 43c3 8837 3f0b ad34
-0.0011021182 -7.141128e-06 1.571613e-05 0.022873498 -3.1116317e-05 0.028739836 -2.8317713e-06 0.029622573
4.5188112e-06 0.0139914835 0.019793743 -9.0113e-05 4.216723e-06 -8.074291e-06 9.212289e-05 5.067725e-07
5.114785e-06 0.008422404 0.018200666 -1.2220561e-05 -1.9811023e-05 -1.6021968e-05 -2.4481835e-08 3.202911e-05
-1.237566e-06 4.2138494e-05 -3.0143224e-06 -3.8548438e-05 -1.7138113e-06 -6.898302e-05 -4.7412348e-05 1.4652098e-05
1.5287868e-06 -1.4675368e-06 5.681946e-06 1.2212878e-06 7.159829e-07 -3.7939983e-05 -1.2446258e-05 -3.0932238e-06
0.00010681075 2.9543125e-06 6.520003e-06 -0.0004048261 -8.8637e-07 -0.00047571323 -4.2402854e-07 -0.00081291614
1.2881981e-06 9.274154e-07 9.304464e-05 -2.4752393e-05 2.774535e-06 -4.0712257e-07 -4.860378e-08 -1.7257638e-07
-5.2160976e-07 -0.00028719328 1.1061387e-05 -3.454309e-06 -3.3784167e-05 3.6220656e-05 3.8184603e-06 -6.794561e-05
-5.373309e-06 -9.443775e-06 -5.173039e-06 -3.469442e-05 4.130605e-06 2.9627443e-05 -4.1784708e-05 -7.981607e-07
1.6724207e-06 -2.1738224e-06 7.128664e-06 2.6773648e-07 -2.1154688e-06 -5.660625e-05 3.1857242e-05 -9.792155e-07
-7.4237914e-07 -1.187294e-07 -1.2975512e-06 -5.1531842e-06 -1.7662629e-07 9.99077e-07 -2.173144e-06 -3.6131992e-06
-1.3151564e-06 1.559675e-06 -3.014622e-06 2.0709324e-06 4.3273874e-07 9.7297885e-08 -9.083701e-07 -6.1643885e-07
-2.9113025e-07 -7.489682e-07 -2.366567e-06 1.3682242e-06 -1.0108522e-06 -9.447249e-07 -2.43503e-06 -5.4260177e-06
-1.2029717e-06 5.6970025e-06 -2.6103004e-07 1.4710316e-06 -2.97767e-07 4.141557e-06 -4.8284625e-07 -1.1870031e-06
-6.458636e-07 2.4305305e-07 1.7286126e-07 4.8852274e-07 2.423647e-07 -4.508455e-06 2.5913212e-06 -8.413215e-07
0.0013002533 3.475044e-05 1.1890334e-05 0.021672923 -4.4478445e-05 0.026984371 2.1899666e-06 0.027478665
1.2354218e-05 0.016352938 0.018761884 9.036972e-05 2.6412836e-06 -5.2881246e-06 9.300811e-05 -8.563272e-07
2.7343137e-06 0.012857706 0.018571744 -1.1038305e-05 -0.0007469917 -3.4582812e-05 4.0496047e-06 0.018895373
-3.439017e-05 0.03332252 3.088331e-06 0.028950796 8.728504e-06 0.022269854 0.023907367 6.244861e-05
4.157902e-06 -1.122259e-05 8.7786975e-05 -1.5284414e-06 5.693215e-06 0.010848269 0.014398802 8.855152e-06
-0.0010685108 -5.9904534e-05 -7.0749147e-06 0.02044825 -1.4357254e-05 0.029391527 -3.531878e-06 0.024525497
6.7560713e-06 0.015793407 0.015609472 1.1880635e-05 3.0443573e-07 -7.775952e-08 3.3341454e-05 -1.0476978e-06
3.8677767e-06 0.008654255 0.012672962 -2.3665698e-06 -9.344301e-06 -6.4993446e-06 -5.503695e-07 -3.354461e-05
6.4588794e-06 -9.683475e-06 3.6901183e-06 -8.486845e-05 -2.8627958e-06 -3.381956e-05 -6.523304e-05 -2.8846081e-05
1.2030926e-06 -1.7629002e-06 5.783666e-06 -8.671153e-07 -6.445685e-07 -5.8342346e-05 -3.5915757e-05 -4.6773293e-06
2.0168816e-06 -3.457345e-07 2.6017753e-06 -2.0372187e-07 -2.7427068e-06 -3.7918662e-06 -6.598016e-08 -6.287597e-06
1.2399879e-07 3.505153e-06 2.6908874e-06 -9.596135e-07 6.0951226e-07 -1.2807519e-07 1.6609217e-06 -3.11851e-07
-8.866466e-07 1.5261242e-06 1.1048397e-06 -4.0640616e-06 0.00080772134 -1.0169095e-05 1.0492072e-05 0.023655053
-0.000103382794 0.02930596 -2.4312349e-06 0.02303319 1.1640489e-05 0.018742181 0.01746632 0.00030262175
-6.533601e-07 2.5443223e-06 1.7303308e-05 3.0296403e-07 5.258516e-06 0.011307627 0.019400006 1.1765442e-06
-0.00021710462 3.234017e-05 1.5118847e-05 0.0048190686 -2.4600655e-05 0.005913461 3.3795632e-06 0.008554965
1.68766e-06 0.004474648 0.0048745503 7.644691e-06 -3.3558972e-06 4.2893284e-06 1.630339e-05 3.2231944e-07
