generativecf/models/sangiovese-eval-case-0-supervision-limit-100-const-case-0-margin-0.02-oracle_reg-1085.1-validity_reg-25.2-epoch-25-oracle-gen.pth (torch_old, 33324 bytes, 78 tensors)

encoder_mean.0.weight f4 [20, 14]
0.00023759824 -0.00026860705 -0.0020461204 0.0020928867 0.002068836 0.0019779117 0.0020339952 3.2246586e-05
-0.0012714494 -0.0020169858 0.0020131047 0.001967006 0.0020666579 0.019275974 0.0014428311 0.0010226507
0.0025905916 0.0031798934 0.0019894738 -0.00042869546 -0.0002831494 -0.0017986388 -0.001985623 -0.0018172705
-0.0019840582 0.001954011 -0.0010820213 -0.007722695 0.0007741509 0.00031974076 -0.0011170252 0.000520171
0.00020990604 0.00066975487 -0.0010602401 -0.00022399705 -0.0010021784 -0.00084696175 0.0010898188 -0.000809307
-0.0010366231 0.0030398495 -0.0020764323 -0.0004350078 0.00072739925 -0.0019841965 0.0014904257 0.00085894106
-0.001141853 -0.002066574 -0.0007345817 -0.0016786137 0.0011587653 3.2321903e-05 -0.0016445377 -0.00078945374
-0.00103665 0.00028890488 0.0019470071 -0.0003278542 0.001385813 -0.0014071211 -0.0017352176 -0.0020781045
0.0010176593 0.000778424 0.0012872805 -0.001710828 0.000999865 0.0031303777 0.0012308074 0.0013909567
0.001324389 0.0012719203 -0.00054458616 0.0013804656 0.0013352514 0.0013648004 -0.00049168634 -0.0005043819
0.0013406818 0.001387235 -0.0010628607 -0.0003135021 0.002646791 0.0037552337 0.0043241796 0.0049455226
0.004038032 0.0040201633 0.0030981824 0.00016178601 0.004950925 0.0062025916 0.0020294741 0.0052568633
0.00084351125 -0.0012446464 -0.0005467207 -0.0019908075 0.0016742712 0.0019755012 -0.0020537176 0.0019814316
-0.0011292124 -0.0009889131 -0.0008746774 -0.001386351 -0.000666047 -0.0019619984 -0.0019673505 -0.010281213
0.001340208 0.0014414373 0.0011467255 -0.00015364286 0.001974805 -0.0011394549 -0.0015740851 0.0015642144
-0.00019987284 0.0016196683 -0.001816641 0.0017261262 -0.0009852947 0.0004839665 -0.0022493163 0.0012456652
-0.0025249328 0.0012793025 0.0011665219 -0.0009851514 0.0012106561 -0.00027165827 0.00026848583 0.0011951191
-0.0025712228 0.00069151924 -0.00064188807 0.003443856 0.0006985632 0.0008443251 6.7305125e-05 0.0009860146
0.0015308628 -0.0009809242 0.0002648173 -0.0009792056 -0.0010407327 0.0001401344 0.0022306724 0.0008214988
-9.5672636e-05 -0.0018673675 -0.0020421434 -0.0020777031 -0.000118560834 -0.002076682 -0.0002006698 -0.001995285
0.0012315797 -0.00025475884 -0.0007305631 0.0019634268 -7.008382e-05 0.00042842384 0.0020623615 -0.00092488655
0.0002629774 -0.0001890813 0.00019941587 -0.00034848138 0.002044929 -0.0009785761 0.0009277295 -0.0017376031
-0.0019950797 -0.0019645793 0.0021096081 -0.00021301408 0.002031257 0.00079911994 0.0012358801 -0.00094742276
-0.00026841258 -0.00091589324 -0.0008416589 0.0002171156 4.2675998e-05 -0.00045547265 -0.00054400007 -0.00076940644
-0.0004950206 -0.00084371766 -0.00086890894 -0.00086716504 -0.0015883181 0.00017740336 0.0038244836 0.0002430282
-0.00036804168 -0.00078165805 0.0023342834 0.0010176763 0.0012045964 0.0022883099 0.0012455441 0.0020701317
0.0018572403 -0.0023241774 -0.001338144 -0.0016346643 -0.0016754018 -0.0016787244 -0.0016721556 -0.0016762756
-0.0016720984 -0.0016843384 -0.0016875061 -0.0016871489 -0.001683315 -0.0017037055 -0.00172444 -0.00017820287
0.0010682276 0.0009042622 -0.0007796424 0.001267247 -0.0018691125 0.0012164947 -0.0007794106 0.002055773
0.0019642685 -0.00076438236 0.0019651104 -1.0889391e-05 0.0014154788 0.010192151 0.002040462 0.00065162743
0.00038306505 -0.0010181755 0.0011899782 0.0013383927 -0.0006340531 0.0020243104 -0.0020146708 -0.0012821985
0.001707605 0.0021261699 0.00016965768 0.0072043813 0.0010037132 -4.0223645e-06 -0.001256709 -0.00066663494
00000000: cb23 7939 d4d3 8cb9 3418 06bb d028 093b
00000010: 4f95 073b da9f 013b c74c 053b 8240 0738
00000020: c3a6 a6ba 682f 04bb 4bee 033b e2e8 003b
00000030: c470 073b a6e8 9d3c 611d bd3a 770a 863a
00000040: eac6 293b c265 503b d561 023b 88c2 e0b9
00000050: ab73 94b9 4ec0 ebba 3a21 02bb 7b31 eeba
00000060: f906 02bb dd0e 003b 9cd2 8dba a90e fdbb
00000070: 63f0 4a3a e1a2 a739 2569 92ba 165c 083a
00000080: 391a 5c39 7d92 2f3a c1f7 8aba c0e0 6ab9
00000090: 875b 83ba a406 5eba 40d8 8e3a ac27 54ba
000000a0: 4ddf 87ba 3638 473b c114 08bb c211 e4b9
000000b0: f0ae 3e3a 4b09 02bb 635a c33a 8f2a 613a
000000c0: 3baa 95ba 5c6f 07bb f290 40ba ee04 dcba
000000d0: b6e1 973a 6191 0738 878d d7ba 58f3 4eba
000000e0: 34e0 87ba 2878 9739 b832 ff3a d9e3 abb9
000000f0: 2ba4 b53a 266f b8ba 3e70 e3ba cf30 08bb
00000100: fb62 853a 260f 4c3a f7b9 a83a dd3d e0ba
00000110: e70d 833a 0627 4d3b 0b53 a13a c350 b63a
00000120: 1f97 ad3a 90b6 a63a 8fc2 0eba bdf0 b43a
00000130: 9a03 af3a 1ae3 b23a 83e4 00ba 7f38 04ba
00000140: d1b9 af3a e2d3 b53a b04f 8bba 8a5d a4b9
00000150: c975 2d3b 5e1a 763b d9b1 8d3b 0d0e a23b
00000160: 7851 843b 93bb 833b e00a 4b3b 1aa5 2939
00000170: 5e3b a23b 1c3f cb3b ed00 053b c441 ac3b
00000180: 151f 5d3a 6723 a3ba ce51 0fba 3578 02bb
00000190: 3873 db3a 6977 013b aa97 06bb e8da 013b
000001a0: 1502 94ba 6b9e 81ba 9b4a 65ba 38b6 b5ba
000001b0: a899 2eba df94 00bb aaee 00bb 8872 28bc
000001c0: eba9 af3a 9cee bc3a b94d 963a 311b 21b9
000001d0: bb6b 013b c359 95ba 8851 ceba 5306 cd3a
000001e0: f594 51b9 0d4b d43a 5b1c eeba 2f3f e23a
000001f0: 0125 81ba e2bc fd39 4469 13bb 9745 a33a
00000200: 5879 25bb 45ae a73a fbe5 983a 3220 81ba
00000210: e1ae 9e3a 5b6d 8eb9 8fc3 8c39 8ba5 9c3a
00000220: f681 28bb 1247 353a 6144 28ba 51b2 613b
00000230: c81f 373a b355 5d3a 2a26 8d38 293d 813a
00000240: 3ba7 c83a 5b92 80ba 2dd7 8a39 b058 80ba
00000250: 3269 88ba 0bf1 1239 7930 123b da59 573a
00000260: dba3 c8b8 75c2 f4ba 7bd5 05bb 132a 08bb
00000270: dda3 f8b8 f118 08bb e46a 52b9 54c3 02bb
00000280: f56c a13a 2791 85b9 4283 3fba d6ac 003b
00000290: f7f9 92b8 139e e039 af28 073b 1674 72ba
000002a0: 3be0 8939 2044 46b9 4a1a 5139 61b4 b6b9
000002b0: 3704 063b 9143 80ba df32 733a 49c0 e3ba
000002c0: e2bf 02bb 2cc0 00bb 5a41 0a3b 885c 5fb9
000002d0: d61e 053b 087c 513a 41fd a13a 775c 78ba
000002e0: bab9 8cb9 8e18 70ba c6a2 5cba 86a9 6339
000002f0: 01ff 3238 81cc eeb9 3a9b 0eba feb1 49ba
00000300: 45c4 01ba ef2c 5dba 7ec7 63ba 7652 63ba
00000310: 1d2f d0ba 5a05 3a39 30a4 7a3b 63d5 7e39
00000320: b8f5 c0b9 2fe8 4cba c7fa 183b 8d63 853a
00000330: 8ce3 9d3a 78f7 153b 8641 a33a 0cab 073b
00000340: a56e f33a 3a51 18bb a964 afba 3b42 d6ba
00000350: 2899 dbba a508 dcba 3b2c dbba 7ab6 dbba
00000360: 502a dbba 05c5 dcba 4f2f ddba 5323 ddba
00000370: aea2 dcba df4e dfba 9b06 e2ba f8db 3ab9
00000380: c503 8c3a 020c 6d3a ea60 4cba c119 a63a
00000390: 02fd f4ba ca72 9f3a 5c51 4cba 26ba 063b
000003a0: f5ba 003b d560 48ba 15c9 003b 94b1 36b7
000003b0: 9687 b93a fbfc 263c 46b9 053b fad1 2a3a
000003c0: 1fd6 c839 4d74 85ba 0bf9 9b3a 026d af3a
000003d0: 9536 26ba 4baa 043b 9108 04bb 710f a8ba
000003e0: b7d1 df3a 3657 0b3b 23e6 3139 bb12 ec3b
000003f0: 078f 833a d9f7 86b6 28b8 a4ba 1dc1 2eba

encoder_mean.0.bias f4 [20]
0.00084573147 -0.0013252847 0.00096926675 -0.0005406492 0.00073283765 -0.00096655695 -0.0027481401 -0.00013962277
0.0020011556 0.0015494898 0.001668519 0.0017699341 -0.0014520265 0.0013822117 -0.0026336666 -0.0017137775
-0.0013059422 0.0013736533 0.0008009634 -0.0017424733
00000000: 14b4 5d3a 2db5 adba 6416 7e3a 5bba 0dba
00000010: e71b 403a 8a60 7dba 241a 34bb b467 12b9
00000020: d225 033b 4018 cb3a 35b2 da3a 22fd e73a
00000030: ed51 beba 542b b53a 9899 2cbb d5a0 e0ba
00000040: 262c abba 280c b43a bef7 513a b463 e4ba

encoder_mean.1.weight f4 [20]
0.0024106863 -0.0010201156 0.00048171767 0.0020783895 0.0016424941 -0.0010118869 -0.0062552136 0.0019318503
0.002064622 -0.0007787569 0.0004051915 0.001026113 0.0004485248 0.0011980995 0.0049744407 0.0009010948
0.0012049667 -0.00027529424 -7.356738e-05 -0.0011448736
00000000: 9bfc 1d3b 66b5 85ba 0d8f fc39 9735 083b
00000010: f548 d73a 4aa1 84ba 89f8 ccbb 2436 fd3a
00000020: 9c4e 073b 7e25 4cba e26f d439 a47e 863a
00000030: fb27 eb39 8c09 9d3a a200 a33b 7337 6c3a
00000040: f9ef 9d3a 5e55 90b9 3048 9ab8 950f 96ba

encoder_mean.1.bias f4 [20]
0.00077337545 0.0009960989 -0.0011092817 -4.3434942e-05 -0.000364221 0.0018601661 -0.0007817859 -0.0009593146
-0.0023075899 -0.0007311114 0.0006392372 0.0008886748 0.000840188 -0.0013921509 0.0032510387 -0.0018920951
-0.0018419751 0.00294302 0.0007311801 0.0035495148
00000000: 59bc 4a3a 888f 823a 5165 91ba ea2d 36b8
00000010: eaf4 beb9 d1d0 f33a c3f0 4cba 837a 7bba
00000020: ef3a 17bb 0ea8 3fba 7b92 273a f5f5 683a
00000030: 1040 5c3a d578 b6ba 610f 553b 2d00 f8ba
00000040: 6e6e f1ba afdf 403b aaac 3f3a fa9e 683b

encoder_mean.1.running_mean f4 [20]
-0.05845375 -0.012374614 -0.014054347 -0.022876428 0.00957691 1.4420316e-07 0.00067020697 -0.03293494
-0.012750928 -0.0040297657 -0.00027550888 -0.015759619 0.009335427 -0.011960448 0.00059230346 1.8278037e-05
0.03558573 0.03883292 0.00824523 0.00070730207
00000000: 336d 6fbd e5be 4abc 3444 66bc 5967 bbbc
00000010: 79e8 1c3c 43d6 1a34 d4b0 2f3a cae6 06bd
00000020: 45e9 50bc 200c 84bb 2d72 90b9 511a 81bc
00000030: 9ef3 183c c1f5 43bc d044 1b3a c953 9937
00000040: 58c2 113d 450f 1f3d 0017 073c 3d6a 393a

encoder_mean.1.running_var f4 [20]
0.002645179 0.0013136177 0.00013915809 0.00034484876 6.576172e-05 1.9539393e-14 4.4501766e-07 0.00079606916
0.000112656 1.1515149e-05 8.216303e-08 8.9773086e-05 2.7492472e-06 0.000100896905 1.094523e-07 3.7511802e-10
0.000829675 0.0010707466 5.285957e-05 1.2401952e-06
00000000: bd5a 2d3b b22d ac3a f7ea 1139 d1cc b439
00000010: 8ee9 8938 c6fe af28 c3ea ee34 4caf 503a
00000020: bb41 ec38 3031 4137 9a71 b033 8f44 bc38
00000030: b57f 3836 9d98 d338 0a0c eb33 2b39 ce2f
00000040: 8c7e 593a 4b58 8c3a 88b5 5d38 c874 a635

encoder_mean.4.weight f4 [16, 20]
-0.0020355114 0.0008097031 0.0020448917 -0.0019890743 -0.0020350248 -0.00050666544 -0.006110344 -0.0014494427
0.0020053894 0.001182561 -0.0019970348 -0.0009522721 0.0020104651 -0.00042508164 0.0025939555 0.0012297062
0.0021437723 -0.00021592835 3.2070984e-05 -0.0019044778 0.0029977215 -0.0010289451 -0.0017425838 0.0020679184
-0.0018472645 1.2226847e-07 -0.0019473393 0.0019331704 -0.0020518927 -0.0010587885 0.001878345 0.0018612153
-0.002004113 0.0020583714 0.0016933203 -0.0019660231 -0.0019792533 -0.0020009023 0.0020082598 -0.0020225714
-0.0013890197 -0.002043231 -0.0005052564 -0.0010184491 0.0029627911 0.0015859897 -0.0015672807 0.0013822486
-0.0014027407 0.00030814108 -0.0020056518 0.0015925475 -0.0011715335 -0.0018302721 -0.0020013433 0.001974291
-0.0002757923 -0.0020494345 0.00075209833 0.0020311666 -0.0016463138 -0.0020116891 -0.0019564822 0.0015248253
-0.0004348875 0.00095149246 0.0023080148 -0.00039857186 -0.0008852874 -0.002288894 -0.0020627847 0.0019454748
-0.00027967943 0.002092579 0.0036869312 -0.0010468193 -0.0020749364 0.0020372989 0.0019115413 -0.0008920755
5.2549516e-05 0.0008722654 -0.0020913489 0.0014821948 -0.0020166063 0.0018129082 0.0010077856 -4.971284e-05
-0.001995612 -0.00017854835 0.0019495055 0.0014405525 -4.6550456e-05 -0.00021439648 -0.0005616482 -0.0005947625
0.00027004082 -0.00024963365 0.00061987404 -0.0021289322 0.0011634488 0.0020772011 0.0016530913 -0.001428733
0.0012186457 -0.0020151455 0.0065191323 0.0020062367 0.0019370406 0.0017583002 -0.00054091413 0.00040980038
0.0020702088 -0.0014010514 -0.00023551226 -0.0019442767 -0.0022438744 -0.001982015 -0.0019724453 0.001813856
0.003160392 -0.0012577539 0.00047699164 -0.0014085246 -0.0012539735 0.0020443334 0.0064888443 0.0010395893
-0.0015791383 -0.00068078097 0.0010876239 0.0011869319 0.0019307765 -0.0020032295 0.0011412627 -0.00012766276
-0.001415123 0.0013732595 0.0020744244 -0.00063038425 0.00232838 0.0017073773 0.0013745419 0.0012990638
-0.0011107879 0.0019556044 0.0037198982 0.00077842345 0.0016383915 -0.0009157437 -0.00084255135 -0.0012193042
-0.0017134605 0.0009907347 -0.0021989124 -0.0015294033 0.0018491693 -0.001032721 0.0011804899 -0.00064446894
-0.0008279343 0.0019942129 0.00040608502 -0.0049940343 -0.001284946 -0.00039880464 0.00038137817 0.0019859844
0.0019126618 0.0027958269 0.0009043548 -0.001981457 0.0019297125 0.0010921775 0.0016448061 0.0009623979
-0.0019639444 -0.00040285542 0.0020106533 -0.002827833 0.0020787017 0.0018943219 0.00085372076 -0.0021380035
0.0031832552 -0.0019746514 0.00018187771 0.0018961427 0.0030175482 -0.0016443846 -0.0022679782 0.001444735
-0.0019181822 0.0014899252 0.0009811874 0.0014221149 -0.0022240204 -0.00025853506 0.00024103983 -0.0021742496
0.010279963 -0.00043227614 0.0019339031 0.0007978771 -0.001759644 0.00015119584 -0.0023254063 -0.0019513336
0.0016573061 5.3678457e-05 -0.000566268 -0.0019861562 -0.001096254 -0.0010512207 -0.0016563513 0.00038659666
0.0020969133 -0.0020122756 -0.0019897756 -0.0011425321 0.002254404 -0.0011283642 0.00044309124 -0.000985215
-0.0010573041 0.00045657725 -0.00010531967 -0.0011295541 0.0015214497 0.001730915 -0.00085019774 0.0014460472
-0.0004551492 0.0009981681 -0.0019632645 -0.0003107788 0.0013665544 0.0020964919 0.00085415674 0.0012475383
-9.43803e-05 -0.00076066895 0.0013695178 -3.0327988e-05 0.0010249318 0.00067468185 -0.0011618492 -0.00021978549
-0.0009963732 -0.0019152882 -0.0005345031 0.00037205216 -0.0010120337 -0.00010568471 0.002061854 0.000561447
00000000: 3766 05bb 4142 543a 9703 063b 215b 02bb
00000010: 0d5e 05bb bed1 04ba 4839 c8bb 3afb bdba
00000020: da6c 033b 2a00 9b3a afe0 02bb e6a1 79ba
00000030: 02c2 033b 7edd deb9 5aff 293b 182e a13a
00000040: 887e 0c3b d36a 62b9 f583 0638 ac9f f9ba
00000050: 6c75 443b abdd 86ba 6967 e4ba ea85 073b
00000060: e91f f2ba e748 0334 dd3d ffba 6f62 fd3a
00000070: 0c79 06bb 0cc7 8aba cd32 f63a 06f4 f33a
00000080: 7057 03bb bee5 063b 67f2 dd3a 65d8 00bb
00000090: 5cb6 01bb 9221 03bb 029d 033b 1e8d 04bb
000000a0: c40f b6ba bae7 05bb 2f73 04ba 7b7d 85ba
000000b0: 632b 423b fce0 cf3a 376d cdba 912c b53a
000000c0: 2bdc b7ba ff8d a139 4171 03bb 07bd d03a
000000d0: 248e 99ba bee5 efba f828 03bb 1b63 013b
000000e0: 3798 90b9 ce4f 06bb 7728 453a 521d 053b
000000f0: 20c9 d7ba 8bd6 03bb 5338 00bb a6dc c73a
00000100: 9d01 e4b9 946d 793a 1042 173b 69f7 d0b9
00000110: a212 68ba 4501 16bb c92f 07bb 4dff fe3a
00000120: f0a1 92b9 a623 093b 71a0 713b 6d35 89ba
00000130: a8fb 07bb 3484 053b af8c fa3a 2cda 69ba
00000140: 9d68 5c38 bda8 643a 030f 09bb 3446 c23a
00000150: 0a29 04bb 1b9f ed3a ac17 843a c182 50b8
00000160: d0c8 02bb b538 3bb9 8d86 ff3a ecd0 bc3a
00000170: 2c3f 43b8 9ecf 60b9 933b 13ba d6e9 1bba
00000180: 4494 8d39 43e1 82b9 0b7f 223a 8e85 0bbb
00000190: dd7e 983a a721 083b 8aac d83a 5344 bbba
000001a0: f7ba 9f3a 8810 04bb 729e d53b 117b 033b
000001b0: 4ce4 fd3a c476 e63a 22cc 0dba 7ada d639
000001c0: 57ac 073b 7ca3 b7ba d7f3 76b9 1ad7 feba
000001d0: f70d 13bb b2e4 01bb 2444 01bb e8be ed3a
000001e0: 941e 4f3b 38db a4ba bc14 fa39 3e9e b8ba
000001f0: 5e5c a4ba 39fa 053b 5fa0 d43b d442 883a
00000200: 17fb ceba 7076 32ba 9a8e 8e3a d392 9b3a
00000210: 1c12 fd3a 9d48 03bb 6c96 953a 36dd 05b9
00000220: a67b b9ba f1fe b33a 11f3 073b 5f40 25ba
00000230: bc97 183b 13ca df3a f929 b43a 5945 aa3a
00000240: db97 91ba 9929 003b 89c9 733b 1d0f 4c3a
00000250: 4cbf d63a 850e 70ba aade 5cba 0fd1 9fba
00000260: 3296 e0ba 8adb 813a a11b 10bb 4276 c8ba
00000270: d35f f23a 5e5c 87ba abba 9a3a 94f1 28ba
00000280: bb09 59ba 57b1 023b cfe7 d439 ffa4 a3bb
00000290: a26b a8ba a716 d1b9 b6f3 c739 4a27 023b
000002a0: 48b2 fa3a 313a 373b 3912 6d3a 55db 01bb
000002b0: 68ee fc3a 6527 8f3a 8996 d73a 6e49 7c3a
000002c0: 85b5 00bb 5736 d3b9 2ac5 033b 2a53 39bb
000002d0: d43a 083b e54a f83a 3bcc 5f3a bf1d 0cbb
000002e0: 299e 503b 2769 01bb 6db6 3e39 fe87 f83a
000002f0: 0fc2 453b 6488 d7ba 5ca2 14bb 435d bd3a
00000300: 846b fbba 9849 c33a 309b 803a 4266 ba3a
00000310: dfc0 11bb fd8b 87b9 a3bf 7c39 db7d 0ebb
00000320: 4a6d 283c 1fa3 e2b9 057b fd3a a028 513a
00000330: dba3 e6ba 538a 1e39 d865 18bb e4c3 ffba
00000340: f739 d93a ce24 6138 9a71 14ba 2c2a 02bb
00000350: 2eb0 8fba 1dc9 89ba ed19 d9ba 20b0 ca39
00000360: 5e6c 093b 62e0 03bb e566 02bb 04c1 95ba
00000370: 9fbe 133b 9fe5 93ba b34e e839 5422 81ba
00000380: 3d95 8aba c360 ef39 11df dcb8 8c0d 94ba
00000390: 616b c73a dfdf e23a cedf 5eba 4b89 bd3a
000003a0: 17a1 eeb9 f7d4 823a 1daa 00bb 06f0 a2b9
000003b0: f51d b33a 4c65 093b 7de9 5f3a 7084 a33a
000003c0: 0aee c5b8 a167 47ba 6481 b33a dc68 feb7
000003d0: 0157 863a 22dd 303a 3149 98ba 3876 66b9
000003e0: bd98 82ba 680a fbba e51d 0cba ff0f c339
000003f0: 37a6 84ba 0ca3 ddb8 2b20 073b 122e 133a

encoder_mean.4.bias f4 [16]
0.009035667 -0.0024881188 -0.00014334556 0.013499936 -0.0025806245 -0.01604047 0.020911582 -0.0048948242
0.0001309677 -0.016587917 0.0038311658 -0.005386616 -0.026204599 0.005280051 0.0025832064 0.012362967
00000000: 560a 143c b50f 23bb 084f 16b9 d62e 5d3c
00000010: b21f 29bb 4e67 83bc c44e ab3c c364 a0bb
00000020: 6054 0939 62e3 87bc 4c14 7b3b 3682 b0bb
00000030: 07ab d6bc 4704 ad3b 034b 293b 0b8e 4a3c

encoder_mean.5.weight f4 [16]
0.009201 -0.004003401 -0.00045410855 0.013860375 0.008946668 0.002760581 0.017629683 -0.020005433
0.0074650124 -0.016499756 -0.008382686 -0.0007857007 -0.027314242 0.009486216 0.0050145932 0.013078437
00000000: cbbf 163c f62e 83bb 6b15 eeb9 a016 633c
00000010: 0c95 123c ddea 343b 206c 903c 6fe2 a3bc
00000020: 109d f43b 7f2a 87bc 8957 09bc 7bf7 4dba
00000030: 1ec2 dfbc 136c 1b3c 7551 a43b f146 563c

encoder_mean.5.bias f4 [16]
-0.00020639239 0.011727844 -0.0007711581 -0.0009139739 -0.010688045 0.0068107704 0.0003273349 -0.009222359
0.0045137363 0.0042142686 -0.00064876763 -0.0022926948 0.005674622 0.01129164 -0.00482804 0.0004994222
00000000: 096b 58b9 2526 403c 8b27 4aba c097 6fba
00000010: e91c 2fbc e22c df3b 269e ab39 6119 17bc
00000020: f7e7 933b d917 8a3b 0f12 2aba 0941 16bb
00000030: 2ef2 b93b 9200 393c 8934 9ebb a8eb 023a

encoder_mean.5.running_mean f4 [16]
-8.460533e-06 0.00035001585 -0.00014755629 -9.097812e-06 9.602859e-05 3.920156e-06 -1.483999e-05 -0.000102077596
0.00010066426 0.00030896807 0.0010610741 7.4103937e-06 -2.0689179e-06 -0.00010489004 0.0002512201 -0.00010146285
00000000: b6f1 0db7 5582 b739 57b9 1ab9 cea2 18b7
00000010: f562 c938 e289 8336 46f9 78b7 7e12 d6b8
00000020: b71b d338 fefc a139 bd13 8b3a cca6 f836
00000030: bdd7 0ab6 69f8 dbb8 31b6 8339 74c8 d4b8

encoder_mean.5.running_var f4 [16]
1.2623293e-10 2.2765835e-07 3.7877896e-08 6.3705724e-10 1.7950441e-08 6.3899175e-10 1.4199378e-09 1.3618891e-08
2.0120095e-07 2.1805688e-07 2.0334373e-06 1.1301871e-11 1.0061498e-11 5.3140614e-08 1.2076433e-07 1.1685637e-06
00000000: 69cb 0a2f 4072 7434 30af 2233 eb1c 2f30
00000010: 7031 9a32 0ca5 2f30 9f27 c330 84f8 6932
00000020: b209 5834 0523 6a34 3076 0836 1ad3 462d
00000030: f500 312d b93c 6433 72ab 0134 8bd7 9c35

encoder_mean.8.weight f4 [14, 16]
0.0011847676 0.0016122486 -0.00010976299 -0.0019993945 -0.002047415 -0.008515166 0.0028829242 -0.009112994
0.0018744915 0.0023269777 -0.001570608 0.0016749246 -0.00090236927 -0.0002575726 -4.7969977e-05 -0.0019211845
-0.006809914 -0.0012740382 0.0023008578 0.00082624034 0.003211807 0.0020165844 -0.0063945632 0.0028931573
-0.00077053235 -0.00045050064 -0.0023938122 0.0015834633 -0.009208116 0.0016271049 0.0005527402 0.0011965034
-0.0025729458 -0.003429921 0.0017030708 -0.01300664 -0.006375682 -0.008105684 0.032905772 0.006304979
0.005940949 0.016029436 -0.0050550383 -0.005780155 -0.005543117 -0.00841505 0.0010180279 -0.015019607
0.0012687865 0.0018939159 -0.0012899953 -0.0016485152 0.0023005921 0.0028144028 -0.003531697 -0.003025103
0.00031639505 -0.0072673503 0.00010860727 -0.0037138262 -0.007104937 -0.00082963146 0.00063502096 0.0037066448
0.0015859738 -3.47803e-05 0.0020077382 -0.0057258317 0.0014962014 0.0033452911 0.0079623265 0.011772935
-0.0011114703 -0.004029837 0.0024447802 -0.0044834744 0.002753225 0.0055333893 -0.00047467378 -0.004528083
-0.0021583224 0.010480891 -0.0016048804 -0.0004627091 -0.00012700063 0.002180704 -0.007883665 -0.002203867
0.0012570787 -0.006779737 -0.00490245 0.0007407513 -0.006330862 0.0005973905 0.0024274797 -0.005473432
-0.0010831354 0.0066840146 0.0029396757 0.0058879973 0.00037898365 -0.003931561 0.0052665058 0.003910579
0.00015987628 0.0022521322 0.0035473346 0.0031950015 0.010040639 -0.0006223074 0.0023822247 0.001198396
0.0008873224 0.009385444 0.0014538846 0.0019699282 0.0019877772 -0.0030050436 0.000360755 -0.00026804206
0.0019062046 0.00041616053 0.002923204 0.00043682143 0.0008871143 0.0020824072 -0.002092132 0.0008000753
-0.00016096608 -0.0020308644 -0.001458331 0.0007104404 -0.0026676704 -0.0024522438 -0.0004746284 0.0011906526
-0.0020187641 0.0019661225 -0.00012522048 0.003195733 -0.0013340233 -0.0007121847 0.0005680499 0.0010919165
-0.0011239707 -0.0019508478 -0.0019887986 0.00045202073 0.0009836284 -0.0032477875 -0.002199531 0.00083428074
-0.0016027826 -0.0006292402 -0.002395107 -0.0010853086 -0.0024652984 0.0012574777 0.00026292095 -0.0017130732
0.0139358835 0.0027299598 0.0026462157 0.015955014 0.001601261 -0.0012578288 0.017265547 0.0032311825
0.001913019 0.017389353 0.0010162748 0.0047715306 0.0103338035 0.010440159 0.001254112 0.013339745
-0.0072815954 -0.0021048712 0.0009037626 -0.001479938 -0.0015323375 0.0048482227 -0.0029000337 -0.00066724105
-0.0004187979 -0.010236241 0.0021766655 0.009498341 -0.013412639 -0.0051514455 0.0014720655 -0.0066887727
0.007715626 -0.0020256212 0.0010136344 -0.00015404767 -0.009716915 0.008539724 0.019004688 0.005865665
-0.00032137477 0.021803215 -0.0072122966 -0.0029932486 0.023634937 0.0006191418 -0.007972918 -0.0033581601
-0.0073574013 0.002796567 0.00064964645 -0.0006948306 -0.0038185527 0.0011977374 0.0126968585 0.0036209938
-0.001870843 0.0075948276 -0.0018221941 -0.0015767323 0.004180411 0.0009859512 -0.0035753306 0.00046607215
00000000: 344a 9b3a 1652 d33a 8e30 e6b8 4608 03bb
00000010: ec2d 06bb 3283 0bbc 71ef 3c3b ab4e 15bc
00000020: 7fb1 f53a 3580 183b dcdc cdba 2589 db3a
00000030: fa8c 6cba cf0a 87b9 5f33 49b8 41d0 fbba
00000040: b325 dfbb a1fd a6ba fdc9 163b 0d98 583a
00000050: 2e7d 523b ac28 043b 7c89 d1bb 209b 3d3b
00000060: 8dfd 49ba 2c31 ecb9 81e1 1cbb 368c cf3a
00000070: a3dd 16bc 9544 d53a c4e5 103a fed3 9c3a
00000080: de9e 28bb 87c8 60bb 9339 df3a cd19 55bc
00000090: 19eb d0bb b4cd 04bc 34c8 063d ff99 ce3b
000000a0: 4bac c23b 2a50 833c bca4 a5bb 7467 bdbb
000000b0: 09a3 b5bb 47df 09bc 596f 853a cc14 76bc
000000c0: 694d a63a 463d f83a 0f15 a9ba fe12 d8ba
000000d0: 88c5 163b d871 383b 0b74 67bb ce40 46bb
000000e0: d3e1 a539 f422 eebb 16c4 e338 aa63 73bb
000000f0: 88d0 e8bb a07b 59ba 8977 263a 2eeb 723b
00000100: 73e0 cf3a 10e1 11b8 4294 033b c29f bbbb
00000110: 301c c43a ac3c 5b3b 6b74 023c 45e3 403c
00000120: c1ae 91ba b90c 84bb 9b38 203b 1cea 92bb
00000130: 736f 343b 6f51 b53b a3dd f8b9 5060 94bb
00000140: a472 0dbb 0bb8 2b3c da5a d2ba c497 f2b9
00000150: 792b 05b9 24ea 0e3b 7d2a 01bc c16e 10bb
00000160: 90c4 a43a 8e28 debb bba4 a0bb fa2e 423a
00000170: 1f73 cfbb 339a 1c3a 5a16 1f3b 7a5a b3bb
00000180: fef7 8dba 9405 db3b 93a7 403b 1af0 c03b
00000190: 53b2 c639 53d4 80bb a792 ac3b 5024 803b
000001a0: 76a4 2739 8298 133b 667a 683b 3b63 513b
000001b0: 7e81 243c 5822 23ba 191f 1c3b 7f13 9d3a
000001c0: 339b 683a 68c5 193c 4690 be3a e919 013b
000001d0: 5e45 023b 44f0 44bb b723 bd39 ff87 8cb9
000001e0: 9dd9 f93a 1f30 da39 3a93 3f3b 2e05 e539
000001f0: 3c8d 683a ff78 083b 271c 09bb 25bc 513a
00000200: 01c9 28b9 4018 05bb 7825 bfba d93c 3a3a
00000210: 15d4 2ebb d3b5 20bb 8cd7 f8b9 ac0f 9c3a
00000220: 3e4d 04bb 10da 003b 9e4d 03b9 816f 513b
00000230: 65da aeba e8b1 3aba 2fe9 143a a31e 8f3a
00000240: 3352 93ba 97b3 ffba 8156 02bb 32fd ec39
00000250: 18ed 803a d5d8 54bb 0226 10bb a2b3 5a3a
00000260: 7614 d2ba 98f3 24ba 3af7 1cbb ea40 8eba
00000270: d890 21bb f3d1 a43a a7d8 8939 3389 e0ba
00000280: 5553 643c 20e9 323b 226c 2d3b 17b4 823c
00000290: 67e1 d13a bbdd a4ba 7a70 8d3c 3fc2 533b
000002a0: 44be fa3a 1e74 8e3c 8634 853a 805a 9c3b
000002b0: 1d4f 293c 330d 2b3c 0461 a43a f28e 5a3c
000002c0: 739a eebb e1f1 09bb 7bea 6c3a 7bfa c1ba
000002d0: b7d8 c8ba d7dd 9e3b 7e0e 3ebb cae9 2eba
000002e0: 1a92 dbb9 e8b5 27bc 63a6 0e3b ee9e 1b3c
000002f0: afc0 5bbc 75cd a8bb 52f2 c03a 7e2d dbbb
00000300: 5dd3 fc3b 49c0 04bb eddb 843a db87 21b9
00000310: b233 1fbc 33ea 0b3c b8af 9b3c c434 c03b
00000320: 317e a8b9 a89c b23c 2155 ecbb 612a 44bb
00000330: 0e9e c13c e74d 223a d8a0 02bc 9414 5cbb
00000340: 5b16 f1bb 9c46 373b 094d 2a3a 4b25 36ba
00000350: af40 7abb 66fd 9c3a 7c06 503c 324e 6d3b
00000360: 1337 f5ba 08de f83b b0d6 eeba 5baa ceba
00000370: d4fb 883b 083b 813a 1850 6abb 255b f439

encoder_mean.8.bias f4 [14]
-0.00020033144 0.016517708 0.038524445 0.009903052 -0.038873818 0.017158976 0.02891524 0.0075903716
0.006828192 0.001644517 0.030730648 -0.013365957 -0.0087850755 -0.010874846
00000000: 1010 52b9 2550 873c cfcb 1d3d 6940 223c
00000010: 273a 1fbd fb90 8c3c a7df ec3c a7b8 f83b
00000020: 07bf df3b d58c d73a d7be fb3c e3fc 5abc
00000030: 47ef 0fbc 692c 32bc

encoder_mean.9.weight f4 [14]
0.0018166907 -0.0073344987 -0.02105452 -0.0057897144 0.008498994 -0.0016580049 0.029685387 0.0003849628
-0.0012793717 0.0013178983 0.035536226 -0.033459086 -0.0070396196 -0.004702108
00000000: 061e ee3a 3c56 f0bb 877a acbc a5b7 bdbb
00000010: 5d3f 0b3c 6a51 d9ba c52e f33c d5d4 c939
00000020: 97b0 a7ba 54bd ac3a 6f8e 113d 650c 09bd
00000030: 9cac e6bb 2414 9abb

encoder_mean.9.bias f4 [14]
-0.00029392313 -0.009688736 0.03662682 0.008854903 -0.0041157557 -0.006327669 0.006332499 -0.00497484
0.011009502 0.00699064 0.010241935 -0.010485448 0.025329342 -0.031234033
00000000: b219 9ab9 81bd 1ebc 0106 163d 2814 113c
00000010: 76dd 86bb 5658 cfbb da80 cf3b fc03 a3bb
00000020: 3361 343c bd11 e53b cacd 273c 28cb 2bbc
00000030: 7b7f cf3c 84de ffbc

encoder_mean.9.running_mean f4 [14]
2.8734855e-06 2.2062535e-05 1.3019994e-06 8.04585e-05 0.00012635463 8.031705e-05 5.6350105e-05 5.731742e-05
7.4520525e-05 -1.18922535e-05 5.4160415e-07 0.00020529746 -7.237926e-05 5.823805e-07
00000000: 1bd6 4036 ef12 b937 5cc0 ae35 d4bb a838
00000010: 107e 0439 e36f a838 7759 6c38 1c68 7038
00000020: e747 9c38 d784 47b7 c162 1135 1e45 5739
00000030: 52ca 97b8 e254 1c35

encoder_mean.9.running_var f4 [14]
1.3000295e-11 5.706814e-10 9.714301e-13 6.7679345e-10 3.922317e-09 2.1989384e-09 3.298212e-09 3.2327502e-10
6.1673616e-10 1.6502568e-11 4.2687558e-13 4.63167e-09 5.786718e-10 6.68266e-13
00000000: 20b4 642d 22de 1c30 75b7 882b 1b09 3a30
00000010: 11c5 8631 221c 1731 c2a6 6231 eab8 b12f
00000020: f386 2930 7b28 912d 414f f02a 9a24 9f31
00000030: 6810 1f30 a419 3c2b

encoder_mean.12.weight f4 [12, 14]
0.0012635398 -0.03380592 0.003310985 -0.025840517 -0.016283277 -0.02344937 -0.03381153 0.011911193
-0.008096224 -0.017724847 -0.023299566 -0.012103965 -0.024732895 -0.03384969 -0.00015708867 -0.0042708116
-0.035362963 -0.0026343085 0.017628776 -0.001031257 0.0020625968 -0.0010137119 0.0068370737 0.0014558232
0.0017203664 -0.00597321 -0.045083165 -0.034012266 0.00016356733 -0.005080236 0.001423873 -0.0009425512
0.0016626262 0.00044635934 -0.001150674 -0.0023049533 -0.001973551 -0.0032284998 -0.0004883569 0.0043860907
-0.007757067 0.007962161 -0.0027615575 -0.0014702867 -0.0020907668 0.00209394 -0.020391686 0.001806089
-0.016658837 0.00042690444 -0.0036655006 -0.0012321471 -0.012668309 -0.011372773 -0.00177649 0.006270755
0.0043225945 -0.0030320685 0.025965402 0.0012375504 -0.009099881 0.0021499244 -0.006280969 -0.0018208632
-0.0031236492 0.0021476732 -0.0017648765 -0.003010993 -0.032122694 0.004732308 -0.0025326198 -0.0012270228
0.011112216 -0.0015748922 -0.0012449251 0.006369763 0.0057268497 -0.00024505082 0.00085602264 0.0033913977
0.0010941309 -0.00015882814 0.012858063 -0.0018282646 -0.0009824 -0.004911906 0.011326274 8.6022555e-05
-0.0019914664 -0.0030531946 -0.0020127401 -0.00046483235 0.0013302816 0.0015048642 0.0018287288 -0.0032133756
-0.0027976583 -0.036365233 -0.0019459246 -0.0028655347 0.004561127 0.0011825894 0.008176807 0.00026505804
0.00026446828 0.0031815374 0.0002811517 0.0024577929 -0.0020642262 -0.020930734 -0.024189614 -0.04664849
-0.0019261267 -0.021311896 -0.007159142 -0.017735314 -0.0138477255 -0.016478362 -0.029224183 0.0007259019
-0.0030886035 -0.006983522 -0.03459814 -0.020281032 -0.027816365 -0.03040751 0.0020363387 -0.010604595
0.018868888 0.0043674195 0.0020201681 0.0013449893 -0.0038161315 -0.0025238423 -0.0016364902 0.006374619
0.00088109466 -0.00082078396 -0.006172826 -0.023182807 -0.0007821242 0.0070064426 -0.0026083034 -0.0007801776
-0.0033632847 0.0068062623 0.01392978 0.00256562 -0.0012567153 -0.0083771115 0.0034394558 0.00072374026
0.020917203 0.02652107 -0.001499872 0.008747376 0.009677067 0.0029566195 -0.0010183923 0.0017681057
0.00566795 0.0017692816 0.0005979372 0.00017442218 -0.0010020825 -0.0017197708 0.013463379 0.011515231
00000000: 5c9d a53a 1478 0abd 1cfd 583b 7eaf d3bc
00000010: 8264 85bc e518 c0bc f57d 0abd 2a27 433c
00000020: 06a6 04bc b333 91bc bbde bebc b54f 46bc
00000030: a49c cabc f9a5 0abd 2bb8 24b9 2af2 8bbb
00000040: c1d8 10bd 5da4 2cbb 396a 903c 3e2b 87ba
00000050: a22c 073b 87de 84ba 8809 e03b 52d1 be3a
00000060: eb7d e13a ebba c3bb 20a9 38bd 7250 0bbd
00000070: 4583 2b39 1c78 a6bb 40a1 ba3a 8a15 77ba
00000080: 7aec d93a 5605 ea39 36d2 96ba b30e 17bb
00000090: b156 01bb 3d95 53bb 1405 00ba 32b9 8f3b
000000a0: ff2e febb b973 023c 3ffb 34bb a3b6 c0ba
000000b0: 3f05 09bb 7c3a 093b 770c a7bc 4aba ec3a
000000c0: 1d78 88bc 25d2 df39 e538 70bb ff7f a1ba
000000d0: bd8e 4fbc de54 3abc 1dd9 e8ba e87a cd3b
000000e0: 8da4 8d3b abb5 46bb 65b5 d43c 4d35 a23a
000000f0: ab17 15bc bfe5 0c3b 96d0 cdbb 08aa eeba
00000100: 23b6 4cbb fabf 0c3b 6e53 e7ba 1454 45bb
00000110: 1693 03bd 7a11 9b3b 4ffa 25bb 0ed4 a0ba
00000120: 0310 363c 9d6c ceba c12c a3ba 72b9 d03b
00000130: 4ca8 bb3b 2a7a 80b9 b566 603a 3642 5e3b
00000140: f168 8f3a 1b8b 26b9 a0aa 523c 61a2 efba
00000150: e0c3 80ba 0ef4 a0bb d691 393c 0267 b438
00000160: 4383 02bb 1b18 48bb 2de8 03bb beb4 f3b9
00000170: d85c ae3a dd3e c53a f5b1 ef3a 7f97 52bb
00000180: eb58 37bb b6f3 14bd 650e ffba b2cb 3bbb
00000190: 8275 953b 1e01 9b3a 04f8 053c 7df7 8a39
000001a0: 55a8 8a39 5781 503b 8b67 9339 ec12 213b
000001b0: f847 07bb ee76 abbc 4c29 c6bc 7d12 3fbd
000001c0: 1676 fcba 4996 aebc 3c97 eabb a649 91bc
000001d0: 92e1 62bc a1fd 86bc 8e67 efbc 744a 3e3a
000001e0: 2b6a 4abb 07d6 e4bb c7b6 0dbd 6824 a6bc
000001f0: 25df e3bc 2c19 f9bc 1874 053b e5be 2dbc
00000200: ed92 9a3c 921c 8f3b cc64 043b 5a4a b03a
00000210: 1018 7abb 0c67 25bb 807f d6ba 2ee2 d03b
00000220: 43f9 663a e129 57ba 6b45 cabb dfe9 bdbc
00000230: 7707 4dba 4d96 e53b 12f0 2abb d584 4cba
00000240: 8e6a 5cbb 1107 df3b bb39 643c f623 283b
00000250: 5eb8 a4ba 2740 09bc 7e68 613b 63b9 3d3a
00000260: 8e5a ab3c b742 d93c 5a97 c4ba 2751 0f3c
00000270: 908c 1e3c d8c3 413b 937b 85ba c8bf e73a
00000280: 36ba b93b 3de7 e73a e3be 1c3a 19e5 3639
00000290: 4f58 83ba ef69 e1ba 8195 5c3c 61aa 3c3c

encoder_mean.12.bias f4 [12]
-0.018273382 -0.055269774 -0.04092469 -0.04628243 -0.04578023 -0.0030084134 -0.046951093 -0.046223607
-0.028073648 0.0048334356 0.0024120498 0.005867606
00000000: 0fb2 95bc 8f62 62bd a6a0 27bd a592 3dbd
00000010: 0d84 3bbd cd28 45bb ca4f 40bd f754 3dbd
00000020: b5fa e5bc cc61 9e3b 7b13 1e3b 0c45 c03b

encoder_mean.13.weight f4 [12]
-0.022909194 0.05734462 0.032607526 -0.026067927 -0.010548208 -0.018161016 0.24978305 0.30182517
-0.024902338 -0.017307175 0.023622349 -0.020857973
00000000: 10ac bbbc 31e2 6a3d 788f 053d 688c d5bc
00000010: 64d2 2cbc 69c6 94bc 21c7 7f3e d488 9a3e
00000020: fdff cbbc c7c7 8dbc a883 c13c 57de aabc

encoder_mean.13.bias f4 [12]
-0.010861051 -0.012906093 -0.017298177 0.0048361123 -0.022485929 -0.034708876 0.0067777485 -0.0023635703
-0.011937626 -0.038986806 -0.045413323 -0.021964569
00000000: 8df2 31bc 1474 53bc e8b4 8dbc 4078 9e3b
00000010: 6934 b8bc e52a 0ebd e017 de3b 21e6 1abb
00000020: 0896 43bc a1b0 1fbd 5203 3abd 0aef b3bc

encoder_mean.13.running_mean f4 [12]
0.0003616769 0.0002450193 0.00044977752 -0.00052633416 -0.0035319505 -0.0003055332 3.7020487e-05 8.779108e-05
-0.0039069504 0.00024638805 -0.00062437926 -0.0007822882
00000000: 749f bd39 ef75 8039 1ed0 eb39 b0f9 09ba
00000010: 4c78 67bb f92f a0b9 7246 1b38 7a1c b838
00000020: e005 80bb a52d 8139 62ad 23ba 7912 4dba

encoder_mean.13.running_var f4 [12]
1.0807105e-08 6.5837624e-09 1.4144487e-08 1.0110845e-08 9.053234e-07 8.743574e-09 7.9951834e-10 4.0945175e-10
1.1873035e-06 5.7406995e-09 3.404801e-08 6.605232e-08
00000000: 27aa 3932 6337 e231 1d00 7332 f7b3 2d32
00000010: 5a05 7335 a536 1632 1ac5 5b30 3619 e12f
00000020: 705b 9f35 ba3f c531 2f3c 1233 a6d8 8d33

encoder_mean.16.weight f4 [10, 12]
0.035803642 -0.017553912 0.0063334173 -0.008116385 0.019830896 0.01185239 -0.013307505 -0.026756424
0.01683571 0.0010781733 0.0052412534 -0.014989756 0.00014058543 -0.032576915 -0.0015812945 -0.025070176
0.03189149 0.0048971544 -0.0029594866 0.006064903 -0.03893861 0.0058050333 -0.022237616 -0.0040768567
-0.010010397 0.030311998 -0.0028408268 -0.031174922 -0.020302504 7.2440605e-05 -0.0004285551 -0.0051537175
0.008733875 -0.004671231 0.0043670437 -0.018673299 -0.0006261852 0.008768958 0.0037011274 -0.024391124
0.026145326 0.012745712 -3.86264e-05 0.0025942572 -0.031623658 -0.007942777 -0.027212052 -0.017954888
0.03480863 0.019870538 -0.003587906 0.028972296 0.006189069 -0.0032337876 -0.010195622 -0.009632126
0.042572536 0.028218227 0.03152061 -0.005646701 -0.0074698385 0.020788953 0.007877378 -0.012422976
-0.027670324 -0.017360276 0.004447031 -0.006558815 0.017879246 0.016790528 0.026449934 0.042214658
0.028319 -0.0054298732 -0.008046493 -0.0023069538 0.023133092 0.02471746 0.00046309055 -0.026448496
0.010143181 0.0057990197 -0.0055527827 -0.015822142 0.011017071 -0.011042162 0.010685169 0.021850009
0.026364364 0.0026385009 0.0075614583 -0.016464269 -0.0061592776 0.005540708 -0.007961932 0.034189872
-0.028353166 0.019462835 -0.00709824 -0.028328072 -0.009741008 -0.0094358325 -0.010355365 0.0066059516
-0.015982304 -0.007520933 0.009078893 -0.0096416 0.04632364 0.018836949 -0.008806409 -0.0024283612
0.033130985 0.0078795 -0.028102407 -0.01748003 -0.0042944816 0.0010132522 -0.0021271945 -0.007112291
00000000: d7a6 123d 39cd 8fbc 8e88 cf3b 96fa 04bc
00000010: 6774 a23c 8730 423c b907 5abc 4a30 dbbc
00000020: 0beb 893c 7e51 8d3a d2be ab3b 9897 75bc
00000030: 1d6a 1339 5f6f 05bd 7043 cfba f85f cdbc
00000040: a7a0 023d 4f78 a03b f2f3 41bb 18bc c63b
00000050: 187e 1fbd 2638 be3b a92b b6bc 2797 85bb
00000060: a602 24bc de50 f83c 2a2d 3abb 8d62 ffbc
00000070: 7051 a6bc 41eb 9738 b1af e0b9 84e0 a8bb
00000080: 8718 0f3c 2011 99bb 6b19 8f3b bff8 98bc
00000090: 9426 24ba adab 0f3c 9d8e 723b e5cf c7bc
000000a0: b92e d63c 64d3 503c c802 22b8 6a04 2a3b
000000b0: cf87 01bd 6c22 02bc cfeb debc 2116 93bc
000000c0: 7e93 0e3d 8ac7 a23c 1323 6bbb 4f57 ed3c
000000d0: accd ca3b f4ed 53bb 8a0b 27bc 11d0 1dbc
000000e0: 8a60 2e3d e929 e73c c11b 013d f607 b9bb
000000f0: 8cc5 f4bb 984d aa3c 1e10 013c bd89 4bbc
00000100: e0ac e2bc 2337 8ebc 66b8 913b 54eb d6bb
00000110: 7f77 923c 4a8c 893c 88ad d83c 47e9 2c3d
00000120: 3ffd e73c 14ed b1bb 70d5 03bc 4330 17bb
00000130: 9c81 bd3c 457c ca3c f6ca f239 84aa d8bc
00000140: 962f 263c b405 be3b 1ef4 b5bb 709d 81bc
00000150: f280 343c 2fea 34bc d910 2f3c cafe b23c
00000160: 14fa d73c b3ea 2c3b 1cc6 f73b 13e0 86bc
00000170: c4d3 c9bb d48e b53b c372 02bc ae0a 0c3d
00000180: e644 e8bc 8670 9f3c 5a98 e8bb 4610 e8bc
00000190: c098 1fbc c098 1abc 8da9 29bc bd76 d83b
000001a0: 52ed 82bc 2972 f6bb a3bf 143c cdf7 1dbc
000001b0: dbbd 3d3d f24f 9a3c c248 10bc 2425 1fbb
000001c0: 5bb4 073d 0519 013c 0537 e6bc 4832 8fbc
000001d0: b9b8 8cbb 1acf 843a 6768 0bbb 390e e9bb

encoder_mean.16.bias f4 [10]
0.025865171 0.009933978 -0.02171787 0.014629964 0.058358297 -0.038871024 0.03584474 0.015564907
-0.026558423 0.03150796
00000000: 32e3 d33c 20c2 223c ade9 b1bc 84b2 6f3c
00000010: 1c09 6f3d 3937 1fbd efd1 123d f403 7f3c
00000020: 0d91 d9bc 7e0e 013d

encoder_var.0.weight f4 [20, 14]
0.0017050239 -0.00029109314 0.0012475528 0.0017072354 0.0016205715 -0.0011956163 -1.2616035e-05 -0.0017466234
0.0016667328 -0.0016580769 -0.0017075472 0.00032661005 0.0011172097 -0.0013050243 0.0017077152 -0.001546692
-0.0017075626 -0.0014969363 0.00035441024 -0.0017184856 0.0017091088 0.001219755 -0.0013471633 0.0017077362
-0.0007541109 0.0015188579 0.0006403431 0.0012122131 -0.0015934685 -0.0017455727 0.0006154352 -0.0017076215
0.0015749815 -0.0017270135 0.0017414804 0.0015728076 0.0017348464 0.0010964023 0.00156271 -0.001681892
0.0017185797 -0.0017080036 -0.0014930393 -0.0012114039 0.00021282287 0.0015680059 0.0017087653 -0.001191975
-0.0010138637 0.0012252266 -0.0016994522 0.0006421433 0.0010010973 0.00072364655 -0.00028092568 0.0007260672
-0.0017075393 -0.00061922194 0.0016511523 -0.0004946486 -0.00050884567 -0.0006850585 0.00096936966 0.0014525838
0.0016781507 -0.0011351241 -0.001733755 -0.001702873 0.0008530791 0.0007512958 0.0017191407 -0.0017075827
-0.0017038593 -0.0017468149 -0.0017092737 0.0017076466 -0.0017086322 0.0017492222 -0.00012688743 0.00018570143
0.00051474624 0.00047023757 -0.001749116 -0.0017093059 -0.0017293144 0.0017076366 -0.0016672403 0.0016996217
0.001709035 -0.0016940593 0.0017076408 0.0017174546 -0.0011550449 0.0017224143 -0.0016984368 -0.0017055264
0.0017089618 -0.001614625 0.0012245739 0.00095759315 -0.0007295544 0.0017108459 -0.0017304043 0.0017155786
-0.0017483177 0.0010714994 -0.0017081891 -0.0017366713 0.0015842754 -0.0017098687 0.0017238013 0.00022936013
-0.0017064991 0.0014367101 -0.0017076756 -0.0017104351 0.0017276782 -0.0017355697 -0.0017148055 0.0016945336
0.0012211425 -0.0017090357 0.0017061238 0.0017125452 0.00166187 -0.0009138117 -0.0010966255 -0.0017090562
-0.0017066798 -0.0009583736 -0.0016945001 -0.001529149 -0.0017083255 0.0017074873 -0.0016930543 -0.0017059983
0.0017201197 -0.0016804149 0.0017093492 -0.00060352316 -0.0017075514 -0.0007815304 -0.001708802 0.001708823
0.0017123985 0.001715933 -0.0016086823 -0.0015938381 -0.0016858302 -0.0017105843 -0.0017491988 -0.0017477991
0.0016844093 9.439117e-05 2.4035904e-05 0.0017224331 0.0012511349 0.0017074692 4.1684616e-06 0.00043628595
4.5699297e-05 0.0011060346 0.0005958042 0.00160768 0.00058514054 -0.00035037493 -0.0017189865 -0.00039465286
0.0005613178 -0.0005046832 -0.0005915838 0.0005414367 -0.001678394 -0.0017092528 -0.0016155533 -0.00048886874
9.316927e-05 0.00037101356 0.0005915855 0.00058929407 -0.0009306457 -0.0009274279 -0.0017478359 -0.000998101
0.0017074854 0.0017076931 -0.0016787717 -0.001707778 -0.0017087571 0.0016798002 -5.5164965e-05 -0.0017074775
-0.001662174 -0.0017090789 0.00083232287 -9.406875e-05 0.0012314124 0.00037674498 -0.0004714655 0.0017075514
0.0009233074 -0.0017076876 0.0017136395 -0.001583692 0.0017083639 -0.0006245816 -0.0017091327 0.0013841259
-0.0015691731 -0.0012734226 0.0017075695 -0.0016855985 -0.001747132 0.0016711358 0.0017431291 0.0017065383
0.0010005482 -0.0016006776 -1.22791635e-05 -0.0017077515 0.0016522821 -0.0017286155 -0.0005970767 0.00015622006
0.0017448557 0.0013468891 0.001709192 0.001303811 0.0011351021 -0.0015306859 0.0017449274 -0.0003940376
-0.0017074688 -0.00051829417 -0.0017335779 0.00045963068 -0.0006107107 -0.001203056 0.0003215227 0.00093621935
-0.0015779943 -0.0016300777 0.0005769214 0.0013417081 -0.00026002902 0.0017470712 -0.0017074707 0.0017287034
0.001706343 -0.0008847728 -0.0014961793 0.0005958253 -0.001749417 -0.0017153501 -0.0013682867 0.0017066536
00000000: 1c7b df3a dc9d 98b9 ed84 a33a 50c5 df3a
00000010: 5b69 d43a 3ab6 9cba 75a9 53b7 f5ee e4ba
00000020: 4676 da3a d453 d9ba c7cf dfba dc3c ab39
00000030: 566f 923a 590d abba 6ad5 df3a 5fba caba
00000040: 4bd0 dfba d934 c4ba 23d0 b939 cf3e e1ba
00000050: 2d04 e03a 30e0 9f3a 4d93 b0ba 1ed6 df3a
00000060: 87af 45ba 6a14 c73a b3dc 273a 1fe3 9e3a
00000070: eedb d0ba b3cb e4ba 2855 213a 45d2 dfba
00000080: 9c6f ce3a f55c e2ba 6342 e43a aa26 ce3a
00000090: c963 e33a 28b5 8f3a d9d3 cc3a ee72 dcba
000000a0: f741 e13a 17df dfba 16b2 c3ba f8c7 9eba
000000b0: 3429 5f39 8c85 cd3a a6f8 df3a 0b3c 9cba
000000c0: 9fe3 84ba c897 a03a 27c0 deba 8255 283a
000000d0: 4037 833a 19b3 3d3a 3549 93b9 8c55 3e3a
000000e0: 83cf dfba 4853 22ba 7a6b d83a 4eab 01ba
000000f0: 0e64 05ba 7f95 33ba 4c1d 7e3a a064 be3a
00000100: 65f5 db3a 72c8 94ba 2a3f e3ba f032 dfba
00000110: 2ba1 5f3a 9cf2 443a ca54 e13a f8d0 dfba
00000120: 0854 dfba 62f5 e4ba b509 e0ba 1dd3 df3a
00000130: 2ff4 dfba 2846 e53a 160d 05b9 d9b8 4239
00000140: 09f0 063a 388a f639 9842 e5ba ca0a e0ba
00000150: 2aaa e2ba c7d2 df3a 4d87 daba d7c5 de3a
00000160: b301 e03a 330b deba ebd2 df3a 371c e13a
00000170: e064 97ba a2c2 e13a 159e deba f88b dfba
00000180: 3eff df3a d3a1 d3ba e281 a03a fd06 7b3a
00000190: 913f 3fba 763e e03a bcce e2ba 44dd e03a
000001a0: cf27 e5ba 8e71 8c3a 51e5 dfba 05a1 e3ba
000001b0: 76a7 cf3a ac1d e0ba 2cf1 e13a 6480 7039
000001c0: 9cac dfba fe4f bc3a 16d4 dfba ae30 e0ba
000001d0: 4373 e23a 0e7c e3ba 53c3 e0ba 1d1b de3a
000001e0: be0e a03a b901 e0ba 04a0 df3a 7b77 e03a
000001f0: 1bd3 d93a dd8c 6fba a5bc 8fba 6902 e0ba
00000200: acb2 dfba 5d3b 7bba fd19 deba ba6d c8ba
00000210: e4e9 dfba c4cd df3a 7ae9 ddba ce9b dfba
00000220: a475 e13a 5e41 dcba 3e0c e03a c135 1eba
00000230: ebcf dfba 9edf 4cba e1f9 dfba 96fa df3a
00000240: 8f72 e03a 28e9 e03a 6cda d2ba 55e8 d0ba
00000250: 13f7 dcba af35 e0ba 5f45 e5ba 6816 e5ba
00000260: 66c7 dc3a e0f3 c538 b6a0 c937 44c3 e13a
00000270: 1ffd a33a 29cd df3a d0de 8b36 4fbd e439
00000280: 3fad 3f38 5df8 903a be2f 1c3a cab8 d23a
00000290: 1e64 193a 87b2 b7b9 9e4f e1ba 69e9 ceb9
000002a0: 6625 133a b74c 04ba 8414 1bba 34ef 0d3a
000002b0: 8ffd dbba 0209 e0ba f9c0 d3ba 6d27 00ba
000002c0: df63 c338 9984 c239 a214 1b3a db7a 1a3a
000002d0: 93f6 73ba a21e 73ba a417 e5ba b6d2 82ba
000002e0: b4cd df3a acd4 df3a 3b0a dcba 85d7 dfba
000002f0: 60f8 dfba be2c dc3a ee60 67b8 70cd dfba
00000300: 4edd d9ba 2c03 e0ba 3e30 5a3a c746 c5b8
00000310: 5867 a13a db85 c539 072f f7b9 ebcf df3a
00000320: 1c0a 723a 7dd4 dfba 339c e03a e393 cfba
00000330: 2eeb df3a f6ba 23ba fa04 e0ba 8f6b b53a
00000340: b6ac cdba f9e8 a6ba 86d0 df3a 4def dcba
00000350: 0600 e5ba 030a db3a b579 e43a ecad df3a
00000360: d424 833a d4cd d1ba 9b02 4eb7 a2d6 dfba
00000370: 6391 d83a b692 e2ba 2485 1cba 01cf 2339
00000380: a4b3 e43a 198a b03a f706 e03a a3e4 aa3a
00000390: b5c7 943a 4ca1 c8ba 0cb6 e43a d596 ceb9
000003a0: 25cd dfba 22de 07ba 3939 e3ba 96fa f039
000003b0: 1a18 20ba dcaf 9dba 0c92 a839 9e6c 753a
000003c0: b4d4 ceba 55a8 d5ba 8a3c 173a 41dc af3a
000003d0: 8154 88b9 fbfd e43a 36cd dfba a995 e23a
000003e0: 5fa7 df3a 19f0 67ba 721b c4ba 2931 1c3a
000003f0: b24c e5ba 99d5 e0ba 1558 b3ba cbb1 df3a

encoder_var.0.bias f4 [20]
-0.0013074074 -0.00028715414 0.0010671394 0.00063767534 -0.0014074803 0.001381536 0.0010573782 -0.0015710866
0.00043994078 -0.00019867731 -0.00038018444 -0.0004229069 0.0011803538 -0.0012642264 -0.00018793941 0.0011420109
-0.001512989 0.0013317555 -0.0013277439 -0.0010851779
00000000: 505d abba 2d8d 96b9 42df 8b3a ab29 273a
00000010: 347b b8ba a814 b53a ba97 8a3a ebec cdba
00000020: daa7 e639 0954 50b9 7e53 c7b9 9ab9 ddb9
00000030: 1ab6 9a3a 66b4 a5ba 9a11 45b9 87af 953a
00000040: 7d4f c6ba 4d8e ae3a b107 aeba 873c 8eba

encoder_var.1.weight f4 [20]
0.001395067 0.0011535205 0.0005957624 -0.00044037023 -0.0010995461 0.0012800251 -0.0014313216 -0.0011091237
-0.00066664995 -7.115319e-05 -0.0012022877 0.0008689771 0.0012185641 0.00056377455 0.0016548118 0.0016017408
0.00025331407 -0.0015073739 -0.0011224024 -0.0015676318
00000000: aeda b63a ba31 973a f02c 1c3a 7ee1 e6b9
00000010: a51e 90ba 84c6 a73a 2f9b bbba 0460 91ba
00000020: 1fc2 2eba 1438 95b8 1596 9dba 11cc 633a
00000030: 3ab8 9f3a 45ca 133a 45e6 d83a 81f1 d13a
00000040: 3dcf 8439 1393 c5ba 931d 93ba ff78 cdba

encoder_var.1.bias f4 [20]
0.0016794536 0.0012235147 -0.0017037141 -0.0004705008 0.0016184179 -0.0016988661 -0.0016713603 -0.0017075089
-0.0017076654 0.0010964319 0.0015879504 -0.00014317138 0.0012164587 0.0014985398 0.0016769008 0.0015313294
-0.00058408355 0.0015743626 -0.001749118 0.0014382402
00000000: 1d21 dc3a 575e a03a 294f dfba 8cad f6b9
00000010: 1821 d43a 7dac deba 8c11 dbba 7ece dfba
00000020: bed3 dfba 26b6 8f3a c622 d03a 4620 16b9
00000030: 9571 9f3a a76a c43a 74cb db3a e3b6 c83a
00000040: 2f1d 19ba d85a ce3a a942 e5ba 5583 bc3a

encoder_var.1.running_mean f4 [20]
3.3676118e-17 3.9224632e-16 -3.5610856e-20 -1.7555144e-14 1.823359e-10 1.2897043e-20 1.7790397e-17 -2.7684894e-09
-2.19056e-19 -5.422398e-10 -4.0653345e-07 -2.2199832e-19 -1.4721305e-18 4.111739e-07 3.2937485e-05 -1.0146978e-19
-2.2285889e-07 3.8264662e-19 -1.7268409e-19 -2.5377234e-19
00000000: be4d 1b24 571d e225 e22a 289f 681f 9ea8
00000010: fe7a 482f 469e 731e 6316 a423 c83f 3eb1
00000020: cf4e 81a0 bc0c 15b0 8841 dab4 700b 83a0
00000030: 853f d9a1 4fbf dc34 5b26 0a38 b896 ef9f
00000040: fc4a 6fb4 ecdf e120 90de 4ba0 fecc 95a0

encoder_var.1.running_var f4 [20]
4.472752e-32 2.1456148e-30 6.7954943e-38 7.416213e-27 3.8025764e-20 3.294612e-38 1.1525328e-32 7.274571e-18
6.8704583e-37 3.0379415e-19 1.2509122e-13 1.8201408e-36 5.2041247e-35 1.2898971e-13 7.8163065e-10 3.0569848e-37
3.8986724e-14 1.673884e-36 1.5305876e-37 6.565594e-37
00000000: 123d 680b ad12 2e0e affd b801 abe4 1214
00000010: 5492 331f 3060 3301 285f 6f0a 3131 0623
00000020: 22ca 6903 1354 b320 17d7 0c2a 28d7 1a04
00000030: 7059 8a06 c13a 112a 5eda 5630 300c d002
00000040: a294 2f29 f765 0e04 3255 5002 646a 5f03
