generativecf/models/sangiovese-delta-case-0-margin-0.306-ae-reg-0-constraint_reg-73.0-validity_reg-71.0-constrained_node-BunchN-epoch-25-model-approx-gen.pth (torch_old, 33324 bytes, 78 tensors)

encoder_mean.0.weight f4 [20, 14]
-0.057596255 0.020192822 -0.07618811 -0.049325526 -0.04121339 0.06798678 -0.012178753 -0.08274613
-0.025804894 0.048219148 -0.04723908 0.048801098 0.042463977 -0.13949066 -0.062442273 0.14345935
0.09861675 0.03033378 0.08695027 0.06304783 0.06822203 -0.023328308 -0.054781333 -0.07663385
-0.01738975 -0.04983276 0.03670742 0.1222612 -0.057820484 0.0010967961 -0.044467416 0.15756634
0.15971799 0.15092285 0.033894278 -0.029541064 0.0667608 0.04135189 0.03883632 -0.24862999
0.04719538 0.14312637 0.065846965 -0.037787825 0.11864645 -0.0027357887 0.04223678 0.017494278
0.014737133 -0.020717418 0.032159317 -0.11389629 0.04012024 -0.010154431 -0.0394765 -0.054565582
-0.06712125 -0.038077563 0.008137938 -0.017104585 -0.10354148 -0.010345264 0.06548785 -0.009540714
0.003453878 -0.10673356 0.030664127 0.042997383 0.02291124 -0.24931535 -0.10750332 -0.03570731
0.041112076 0.05914704 -0.049938392 -0.04132379 0.14532529 -0.075541325 -0.10902634 -0.042428434
0.103961505 0.03365399 -0.1422345 0.04834416 0.03442485 0.045403875 0.011290232 -0.065182514
-0.054058593 0.04447726 0.15197787 -0.01071133 0.06629749 0.006067497 0.016384728 -0.040045537
-0.039621234 -0.083471015 0.091105126 0.016709866 -0.051998045 -0.022533767 0.08024295 0.084476344
0.10013321 -0.0689252 0.032220412 0.036823153 -0.086157806 0.11530749 0.13245732 -0.10440256
-0.028262457 -0.09271645 0.036695864 -0.013644316 -0.018059907 -0.017665058 -0.042172715 -0.0055452567
0.037586942 -0.03268307 0.011900468 0.029652264 -0.039079368 0.055510912 0.0030940357 0.01103401
0.03266662 0.040355533 0.035527766 -0.00577002 0.038505506 -0.0076997476 -0.017115574 -0.0047562434
0.018816743 -0.0048620123 -0.033358756 0.16995461 -0.041523743 0.0066817435 -0.08039157 -0.012633462
0.021337828 -0.053828225 0.021525482 -0.048278593 0.031082695 0.012343252 0.013407253 0.048717774
-0.12537776 -0.31734014 -0.08428053 -0.13237399 -0.10164016 0.1008386 0.021752816 -0.095023185
-0.0376665 0.06449244 0.1194978 -0.0819 0.018708227 0.12997216 -0.17790104 0.123049915
-0.086236194 0.1286822 0.030659495 -0.033138976 -0.07843287 0.07427666 -0.04645976 -0.03878556
-0.063955516 -0.09936382 0.017656427 -0.06622497 -0.099170655 -0.17923768 0.024111975 0.029456371
0.039941616 -0.028817292 0.025656963 -0.030878786 -0.015422486 0.051406763 -0.019794013 -0.03099859
0.040772717 -0.003221944 0.059988823 -0.13946638 -0.00061799673 -0.0068112416 -0.02640754 0.007426389
-0.08864043 -0.0574151 0.0145283695 -0.0141895795 0.009747054 0.045367926 0.0017665802 -0.011963378
0.039533064 0.1130938 0.024220623 0.027280629 0.109370284 0.030593913 0.032941375 0.04214288
0.028246365 0.016310854 -0.02924822 0.06366179 -0.046282385 0.02813404 -0.00031270983 -0.24758993
9.816694e-05 -0.026058186 -0.010812106 -0.03183907 -0.015265965 0.042415794 0.0011614424 -0.050744336
0.0629321 0.033924486 0.047460068 0.02194614 -0.15406658 0.22406694 0.0151407 -0.021821627
0.037166357 -0.091063194 0.044930063 0.0026756658 0.04153418 -0.0450056 -0.009128297 0.00207017
0.038813833 0.0017760344 -0.1452623 0.2769952 0.05335569 -0.02429981 0.04271642 -0.10451159
00000000: 0dea 6bbd 6b6b a53c 8308 9cbd 9009 4abd
00000010: 5fcf 28bd a73c 8b3d 6489 47bc ce76 a9bd
00000020: c964 d3bc 7181 453d c47d 41bd a9e3 473d
00000030: b5ee 2d3d a4d6 0ebe 78c3 7fbd 02e7 123e
00000040: 94f7 c93d 8c7e f83c fc12 b23d 381f 813d
00000050: feb7 8b3d 021b bfbc 6462 60bd 35f2 9cbd
00000060: f374 8ebc 701d 4cbd 855a 163d 1464 fa3d
00000070: 2cd5 6cbd 5fc2 8f3a 7723 36bd 1259 213e
00000080: 1d8d 233e 858b 1a3e bad4 0a3d 1a00 f2bc
00000090: e3b9 883d 9960 293d d512 1f3d dc98 7ebe
000000a0: f14f 413d b88f 123e c6da 863d 68c7 1abd
000000b0: e9fc f23d eb4a 33bb 7900 2d3d 2950 8f3c
000000c0: 0474 713c 93b7 a9bc 7db9 033d 7542 e9bd
000000d0: 1f55 243d c55e 26bc 1cb2 21bd 2980 5fbd
000000e0: de76 89bd 38f7 1bbd fc54 053c ea1e 8cbc
000000f0: 8e0d d4bd 2f7f 29bc 7e1e 863d a850 1cbc
00000100: 755a 623b 2097 dabd 5633 fb3c 061e 303d
00000110: 5ab0 bb3c 864c 7fbe b32a dcbd d441 12bd
00000120: 2365 283d 2b44 723d 338c 4cbd 2243 29bd
00000130: 27d0 143e 69b5 9abd 3449 dfbd 70c9 2dbd
00000140: c5e9 d43d c4d8 093d eca5 11be 8704 463d
00000150: 1201 0d3d 6af9 393d aafa 383c 697e 85bd
00000160: 8b6c 5dbd ca2d 363d 16a0 1b3e 937e 2fbc
00000170: fac6 873d dbd1 c63b 4439 863c ca06 24bd
00000180: e049 22bd daf2 aabd 5395 ba3d 21e3 883c
00000190: e7fb 54bd bc98 b8bc 6a56 a43d ef01 ad3d
000001a0: a412 cd3d a828 8dbd 8df9 033d e0d3 163d
000001b0: 8173 b0bd 5526 ec3d e4a2 073e 02d1 d5bd
000001c0: ab86 e7bc 1fe2 bdbd 674e 163d 698c 5fbc
000001d0: 5ff2 93bc 50b6 90bc 4cbd 2cbd fcb4 b5bb
000001e0: c4f4 193d afde 05bd 2efa 423c 4ee9 f23c
000001f0: b011 20bd 695f 633d 4ec5 4a3b fec7 343c
00000200: 6fcd 053d d84b 253d 9085 113d 7012 bdbb
00000210: f3b7 1d3d 2a4e fcbb f635 8cbc 43da 9bbb
00000220: 9225 9a3c 8451 9fbb 31a3 08bd 9508 2e3e
00000230: cd14 2abd 87f2 da3b 56a4 a4bd 95fc 4ebc
00000240: abcc ae3c fc7a 5cbd 3556 b03c c6bf 45bd
00000250: 23a1 fe3c 5a3b 4a3c 18aa 5b3c 4a8c 473d
00000260: 0763 00be 687a a2be 459b acbd 0c8d 07be
00000270: b728 d0bd 7884 ce3d f632 b23c 849b c2bd
00000280: 3048 1abd 9d14 843d 43bb f43d 30bb a7bd
00000290: ff41 993c 6c17 053e b12b 36be 9801 fc3d
000002a0: 9a9c b0bd 44c5 033e 9f29 fb3c bcbc 07bd
000002b0: 6aa1 a0bd 5d1e 983d 974c 3ebd 9bdd 1ebd
000002c0: 1cfb 82bd 427f cbbd 36a4 903c f5a0 87bd
000002d0: fc19 cbbd 158a 37be 7a86 c53c 7d4e f13c
000002e0: d299 233d 3e12 ecbc 8d2e d23c 82f5 fcbc
000002f0: 98ae 7cbc e68f 523d 0e27 a2bc c1f0 fdbc
00000300: 4b01 273d 4027 53bb d7b6 753d 46d0 0ebe
00000310: 0f01 22ba d630 dfbb a054 d8bc 1159 f33b
00000320: 1d89 b5bd 192c 6bbd 6608 6e3c 697b 68bc
00000330: 1cb2 1f3c b8d3 393d 988c e73a 0b02 44bc
00000340: 6ced 213d b99d e73d 546a c63c a07b df3c
00000350: 87fd df3d 16a0 fa3c 89ed 063d 039e 2c3d
00000360: ec64 e73c 579e 853c f799 efbc 1d61 823d
00000370: 9992 3dbd 5c79 e63c 34f3 a3b9 3788 7dbe
00000380: f9de cd38 fa77 d5bc 4225 31bc af69 02bd
00000390: 191e 7abc 2fbc 2d3d 8a3b 983a 4bd9 4fbd
000003a0: 8be2 803d 67f4 0a3d 7d65 423d 64c8 b33c
000003b0: a1c3 1dbe ce71 653e b310 783c 45c3 b2bc
000003c0: c03b 183d 577f babd 9608 383d 395a 2f3b
000003d0: bf1f 2a3d cb57 38bd da8e 15bc b0ab 073b
000003e0: 41fb 1e3d d3c9 e83a a4bf 14be 51d2 8d3e
000003f0: 7f8b 5a3d 6510 c7bc 6af7 2e3d 2c0a d6bd

encoder_mean.0.bias f4 [20]
2.2509768e-10 1.137373e-08 -3.070287e-08 -1.13122995e-08 -7.742414e-09 -2.449644e-08 6.1242567e-10 1.8334639e-08
8.220647e-10 -4.655352e-09 -1.1863941e-08 -3.4418376e-10 3.5933339e-09 -1.5668986e-12 -2.5723632e-10 -2.525703e-09
1.2888456e-10 1.035843e-09 -3.352338e-09 4.1259574e-09
00000000: 5d7f 772f 3266 4332 2ade 03b3 0558 42b2
00000010: 7f03 05b2 3e6c d2b2 a057 2830 4c7e 9d32
00000020: a9f7 6130 e9f4 9fb1 2ad2 4bb2 8f37 bdaf
00000030: 99ee 7631 7985 dcab cb6a 8daf a390 2db1
00000040: c7b5 0d2f 7c5d 8e30 f45e 66b1 4ec4 8d31

encoder_mean.1.weight f4 [20]
0.25971982 0.23919651 0.49911293 0.42589176 0.718466 0.23565753 0.11499323 0.37159613
0.10240164 0.23875459 0.5061369 0.2735839 0.27257997 0.14310196 0.24139449 0.38371262
0.49083105 0.26074317 0.6311662 0.14194489
00000000: fff9 843e eeef 743e bb8b ff3e 7c0e da3e
00000010: 63ed 373f 3550 713e 9281 eb3d d941 be3e
00000020: f3b7 d13d 157c 743e 3092 013f 3013 8c3e
00000030: 9a8f 8b3e 5289 123e 1e30 773e fb75 c43e
00000040: 354e fb3e 2180 853e 1c94 213f 005a 113e

encoder_mean.1.bias f4 [20]
-0.034934975 -0.017576348 0.015050305 -0.0013079583 0.09221317 -0.0007036941 -0.012929774 -0.03024627
-0.007579742 -0.022240072 0.06828726 0.044617753 0.030424995 -0.00023477455 -0.009693887 0.06502052
0.0707087 0.022217125 0.16101177 -0.009583086
00000000: fa17 0fbd 46fc 8fbc 8e95 763c cc6f abba
00000010: 42da bc3d 1d78 38ba 67d7 53bc 07c7 f7bc
00000020: 7c5f f8bb d030 b6bc 31da 8b3d 1bc1 363d
00000030: d73d f93c d02d 76b9 1cd3 1ebc 7a29 853d
00000040: b9cf 903d b000 b63c 45e0 243e 6002 1dbc

encoder_mean.1.running_mean f4 [20]
-0.16466983 0.19776733 0.23626804 0.021326862 -0.23133636 -0.080564365 0.04051605 0.17606018
-0.057690877 0.15424111 -0.29124248 -0.05607476 -0.28709525 -0.008967634 0.023765918 0.016726766
0.09077795 0.09782371 0.17512952 -0.045245133
00000000: 359f 28be 8583 4a3e 40f0 713e acb5 ae3c
00000010: 70e3 6cbe eefe a4bd 28f4 253d 1f49 343e
00000020: 454d 6cbd 62f1 1d3e bc1d 95be a6ae 65bd
00000030: 26fe 92be fcec 12bc beb0 c23c 9206 893c
00000040: cae9 b93d cc57 c83d 2755 333e f652 39bd

encoder_mean.1.running_var f4 [20]
0.0033179335 0.0015937373 0.0044502784 0.0038370506 0.013625076 0.001688665 0.0038161823 0.0038414588
0.0015826337 0.005160357 0.023186153 0.0079871435 0.0129684955 0.005076967 0.0051839733 0.01880861
0.011751311 0.016043492 0.024137914 0.007930445
00000000: b071 593b f3e4 d03a a4d3 913b 0777 7b3b
00000010: b63b 5f3c 3256 dd3a ea18 7a3b fcc0 7b3b
00000020: 6070 cf3a 3618 a93b e3f0 bd3c 82dc 023c
00000030: d079 543c b05c a63b 52de a93b 8414 9a3c
00000040: 9288 403c a46d 833c e0bc c53c b2ee 013c

encoder_mean.4.weight f4 [16, 20]
0.044581734 0.04566219 -0.22370078 0.02323509 0.084360726 0.042367075 0.021032948 0.019772984
-0.034736186 -0.039460633 -0.05590158 -0.030576002 -0.015911464 0.09170915 -0.020417854 0.14642401
-0.07174301 -0.041093756 -0.06432237 0.018707264 0.014539136 -0.056321803 -0.017923895 0.0019294159
0.102240644 -0.027572382 0.020025723 0.10058249 -0.010216649 -0.066842474 0.17255513 -0.03201958
0.08774847 0.035330314 -0.081376955 -0.075736314 0.01716843 -0.0013655438 -0.037679784 -0.03239774
0.025294043 0.015700646 -0.08069248 0.021979144 0.06464999 -0.026710909 -0.039894175 0.026129305
0.043747902 0.029697604 0.07107666 -0.06349417 0.0711352 -0.0102665825 -0.013076867 0.085092045
-0.10716278 -0.17166974 -0.22933342 0.15554516 -0.06625052 0.058049146 -0.07470179 -0.034754522
0.10524239 0.10824933 0.05445058 0.07470853 0.10137429 -0.0019527038 0.14728694 0.06493472
0.1102853 -0.02439724 0.016005244 0.03945418 -0.08819484 -0.06037027 -0.048039176 -0.0015031057
0.001361174 -0.0833192 -0.13608924 0.033022776 0.034800045 -0.1102966 0.07685393 -0.020644972
-0.013767031 -0.05439259 0.22178751 -0.038977236 0.058325894 0.17530756 -0.0785633 0.10912804
-0.1908883 0.013904008 -0.1624585 0.012636572 -0.037878558 0.10142689 0.052560024 -0.06960347
-0.18715914 0.011217133 0.0016319747 -0.009597543 0.056700293 -0.020145603 0.048713084 0.15003274
-0.07234621 -0.014647418 -0.0013189159 0.0038818216 -0.0013474834 -0.016037544 0.10716269 0.089655906
-0.030271357 -0.023701254 0.1584448 -0.006271972 -0.05601839 0.023906386 -0.042717293 -0.037868734
0.043756258 0.050251618 -0.05282335 0.07175895 -0.08559461 -0.011564014 0.046163462 -0.07704506
-0.0005344976 0.0467589 0.14090243 -0.023529744 -0.036229555 0.08458345 0.11173664 -0.11294753
-0.18022263 -0.034563396 0.02712088 -0.090637736 0.027119845 0.06634193 -0.090697184 0.021065405
0.026367197 0.040415257 0.057857033 -0.118575975 0.03839678 0.10375596 0.21610166 -0.06744291
-0.010970173 0.0034438686 0.06935212 0.12707785 0.19474196 0.080254205 0.03768509 0.066795655
-0.03472265 -0.013264227 0.1994377 -0.12002191 0.07144003 -0.005698487 -0.07099426 -0.07391933
-0.020639941 -0.095012695 -0.18750198 -0.057610445 -0.00860487 0.04078047 -0.0037903488 -0.0047939736
-0.1818098 -0.067230366 -0.03978028 0.054039467 -0.019936511 0.11059282 -0.11195308 -0.02600289
0.021877348 -0.05310299 0.03528853 -0.10503721 0.01449349 -0.017009161 0.0811325 0.032841668
-0.030788163 -0.0628275 0.13741724 0.059357937 -0.18147622 0.08822345 -0.052238155 -0.010763882
-0.012262521 0.033232093 -0.13322215 -0.04270971 -0.082640484 -0.014477701 -0.051969565 -0.12725843
0.005140879 0.041348238 0.0588436 -0.045264177 -0.049039282 0.058608435 0.08725301 -0.14139442
-0.05878728 0.045205332 0.021509107 -0.06287792 -0.053471543 0.08093358 -0.09286131 0.03102198
-0.07191837 0.028072951 0.09334228 -0.11699327 0.13279228 0.077279724 -0.008031899 0.011422783
-0.046275005 -0.04208841 -0.04994476 -0.051337305 0.12039451 0.04327771 -0.07221283 0.0848875
0.009425632 -0.05625773 -0.028488588 -0.05089947 0.03145017 0.0492335 -0.13300878 0.0583532
00000000: 569b 363d 4708 3b3d d111 65be 8457 be3c
00000010: 51c5 ac3d 1989 2d3d 4a4d ac3c f4fa a13c
00000020: 8847 0ebd 79a1 21bd 0ef9 64bd 867a fabc
00000030: c258 82bc 02d2 bb3d 5843 a7bc 2df0 153e
00000040: 00ee 92bd ed51 28bd 72bb 83bd fa3f 993c
00000050: 8e35 6e3c b1b1 66bd 22d5 92bc 74e4 fc3a
00000060: 8b63 d13d 7adf e1bc fc0c a43c 31fe cd3d
00000070: bb63 27bc b5e4 88bd 4bb2 303e f726 03bd
00000080: 78b5 b33d 85b6 103d f6a8 a6bd a41b 9bbd
00000090: cfa4 8c3c 0cfc b2ba 1e56 1abd 7eb3 04bd
000000a0: 7435 cf3c a49e 803c 1942 a5bd 9b0d b43c
000000b0: 3767 843d d6d0 dabc 1368 23bd 200d d63c
000000c0: 0031 333d 6448 f33c a490 913d 3b09 82bd
000000d0: 55af 913d 2b35 28bc 5b40 56bc bd44 ae3d
000000e0: 2978 dbbd 31ca 2fbe 61d6 6abe 3b47 1f3e
000000f0: 5aae 87bd f1c4 6d3d 41fd 98bd c25a 0ebd
00000100: 5289 d73d d3b1 dd3d 9207 5f3d c900 993d
00000110: 539d cf3d def1 ffba 63d2 163e 7ffc 843d
00000120: 42dd e13d b8dc c7bc 6e1d 833c b59a 213d
00000130: 7f9f b4bd d146 77bd bac4 44bd dc03 c5ba
00000140: 6c69 b23a 42a3 aabd fa5a 0bbe e442 073d
00000150: 7e8a 0e3d 2fe3 e1bd 9865 9d3d a51f a9bc
00000160: 1d8f 61bc c4ca 5ebd 441c 633e 98a6 1fbd
00000170: 22e7 6e3d d383 333e cce5 a0bd 867e df3d
00000180: 3978 43be a3cd 633c 855b 26be a009 4f3c
00000190: 8c26 1bbd e7b8 cf3d 2e49 573d 448c 8ebd
000001a0: a5a6 3fbe 11c8 373c fce7 d53a 033f 1dbc
000001b0: 913e 683d 6408 a5bc 5f87 473d 2fa2 193e
000001c0: 402a 94bd b9fb 6fbc 79df acba 2966 7e3b
000001d0: 0a9e b0ba 2b61 83bc 1d78 db3d 849d b73d
000001e0: a3fb f7bc 2229 c2bc 5b3f 223e 1d85 cdbb
000001f0: 8a73 65bd 53d7 c33c 54f8 2ebd 3f1c 1bbd
00000200: c339 333d a4d4 4d3d 4c5d 58bd 5bf6 923d
00000210: 3a4c afbd fd76 3dbc e615 3d3d cdc9 9dbd
00000220: 871d 0cba 4386 3f3d ba48 103e 73c1 c0bc
00000230: 7165 14bd 163a ad3d 2ed6 e43d 0951 e7bd
00000240: 488c 38be 5992 0dbd 9c2c de3c 47a0 b9bd
00000250: 702a de3c 47de 873d 72bf b9bd 5b91 ac3c
00000260: 0500 d83c 788a 253d 7ffb 6c3d f6d7 f2bd
00000270: f145 1d3d 017e d43d c149 5d3e 821f 8abd
00000280: 3ebc 33bc 87b2 613b 7c08 8e3d b220 023e
00000290: 706a 473e 515c a43d ae5b 1a3d 29cc 883d
000002a0: 5639 0ebd 3352 59bc 6539 4c3e 0cce f5bd
000002b0: 274f 923d 60ba babb 7065 91bd 0563 97bd
000002c0: 1815 a9bc 0496 c2bd 8500 40be eef8 6bbd
000002d0: 71fb 0cbc 6c09 273d 8067 78bb c416 9dbb
000002e0: 592c 3abe 13b0 89bd a6f0 22bd 7d58 5d3d
000002f0: e551 a3bc 7d7e e23d a847 e5bd 0304 d5bc
00000300: 2038 b33c 8582 59bd b58a 103d c01d d7bd
00000310: 1a76 6d3c cc56 8bbc cc28 a63d fc84 063d
00000320: 7537 fcbc b4ab 80bd 1bb7 0c3e 4f21 733d
00000330: e7d4 39be 7fae b43d adf7 55bd fe5a 30bc
00000340: bee8 48bc 601e 083d 636b 08be 60f0 2ebd
00000350: 6a3f a9bd e133 6dbc 0ade 54bd 0950 02be
00000360: d274 a83b c55c 293d fd05 713d ee66 39bd
00000370: 6add 48bd 660f 703d b5b1 b23d b3c9 10be
00000380: eeca 70bd 3a29 393d de33 b03c 24c6 80bd
00000390: fa04 5bbd 81c0 a53d 122e bebd cf21 fe3c
000003a0: f049 93bd 3ff9 e53c 3d2a bf3d 2b9a efbd
000003b0: b3fa 073e d544 9e3d 3a98 03bc a026 3b3c
000003c0: dc8a 3dbd e664 2cbd e092 4cbd 1147 52bd
000003d0: 6691 f63d f843 313d 52e4 93bd 7fd9 ad3d
000003e0: f76d 1a3c 816e 66bd e660 e9bc f67b 50bd
000003f0: e5d1 003d 11a9 493d 7433 08be c403 6f3d

encoder_mean.4.bias f4 [16]
-1.6246184e-10 1.2882269e-10 -2.7565816e-09 -1.158663e-09 1.0228468e-09 7.0992316e-11 -2.4795241e-09 -1.1015243e-09
-3.6087828e-09 -4.841874e-10 -3.9544217e-09 1.2678415e-09 1.5021303e-09 -3.1078027e-09 -2.9750848e-09 -1.8086932e-10
00000000: f1a0 32af 5da4 0d2f 4c6e 3db1 d53e 9fb0
00000010: 3994 8c30 1f1d 9c2e 4064 2ab1 7164 97b0
00000020: 61fe 77b1 a917 05b0 76df 87b1 3540 ae30
00000030: 8373 ce30 0b91 55b1 3f72 4cb1 30de 46af

encoder_mean.5.weight f4 [16]
0.18575856 0.26694623 0.5058101 0.19778425 0.57914406 0.3595675 0.76747876 0.3409307
0.47982892 0.1272403 0.48225623 0.33046207 0.29665798 0.18614012 0.48131052 0.18145964
00000000: 7e37 3e3e 2dad 883e c57c 013f f487 4a3e
00000010: c942 143f 3b19 b83e 7d79 443f 788e ae3e
00000020: 23ac f53e 484b 023e 4aea f63e 5332 a93e
00000030: 8ee3 973e 849b 3e3e 556e f63e 8ed0 393e

encoder_mean.5.bias f4 [16]
-0.010657906 -0.027458157 0.045344744 -0.007989985 0.058146052 -0.012715283 0.120550044 0.124023154
0.028808756 0.009928744 0.11598615 0.078757204 0.005041749 -0.006826439 0.07222586 0.013673318
00000000: 7f9e 2ebc eeef e0bc 69bb 393d 6de8 02bc
00000010: 8e2a 6e3d c353 50bc f1e2 f63d daff fd3d
00000020: 5700 ec3c 2cac 223c 268a ed3d 754b a13d
00000030: 4235 a53b 52b0 dfbb 27eb 933d 0d06 603c

encoder_mean.5.running_mean f4 [16]
-0.036269374 0.057031903 -0.07933866 0.0665715 -0.05759352 0.0043072156 0.040178392 0.0044380184
0.0519308 -0.07585336 -0.092738874 -0.026276903 -0.123441294 0.08375452 -0.017558558 0.05077546
00000000: 328f 14bd 499a 693d 4f7c a2bd a356 883d
00000010: 2fe7 6bbd 8b23 8d3b 1992 243d cc6c 913b
00000020: 64b5 543d 0259 9bbd e1ed bdbd a942 d7bc
00000030: cace fcbd 7d87 ab3d f7d6 8fbc eef9 4f3d

encoder_mean.5.running_var f4 [16]
0.02934603 0.024984254 0.06383706 0.026986463 0.09068998 0.029143043 0.037273362 0.10040083
0.081138365 0.034911916 0.04873181 0.047630634 0.045804437 0.013093459 0.017764488 0.016803129
00000000: 1667 f03c c7ab cc3c 01bd 823d b712 dd3c
00000010: abbb b93d 64bd ee3c f4ab 183d f39e cd3d
00000020: df2b a63d ccff 0e3d 029b 473d 5718 433d
00000030: 6f9d 3b3d f385 563c d586 913c b7a6 893c

encoder_mean.8.weight f4 [14, 16]
0.10761096 0.03667597 -0.038611174 0.024612276 0.03575062 0.07558035 -0.040451873 -0.15842389
0.008283364 -0.036961935 0.023671104 -0.051553275 0.11977625 0.014001747 0.15513128 -0.10177292
0.0067611225 0.0048321886 -0.02237237 -0.10687208 -0.015410254 -0.10461661 0.09580081 0.052598227
0.04794203 0.10209362 0.084249415 -0.040941417 -0.05048248 -0.038374122 0.14418249 -0.024241349
0.039865788 -0.038796753 0.12543476 0.06420289 -0.023362378 -0.041469328 -0.25693604 -0.048729707
-0.05694867 0.011548676 -0.13722262 -0.14328484 0.03434961 0.10116336 0.18217535 -0.09613661
-0.010814447 0.014547018 0.08521219 -0.03470768 -0.07949514 -0.005347402 0.04887359 0.071104705
-0.14914317 0.17415045 0.030257648 0.02641656 0.08770069 -0.07006755 -0.07454295 0.019594293
-0.025581736 0.0036918968 0.18370676 -0.014376269 0.09575946 -0.019129856 -0.16322532 -0.060050752
0.01778696 0.001481181 -0.20896311 -0.15186873 0.13912717 -0.005103225 -0.040305655 -0.06701966
-0.05331714 -0.032829534 0.007217979 -0.015067429 -0.10881925 -0.043293208 0.070155375 0.036403358
-0.05962629 0.06448349 0.058422532 0.015385353 -0.038004998 -0.035097346 -0.12279013 0.011037841
0.0167623 -0.01325131 -0.118903264 0.12533104 0.06339349 -0.06345308 -0.15529324 0.039108198
0.09324392 -0.023797244 -0.13092807 -0.1490041 0.1786161 0.032680646 0.07213355 0.034557886
0.08832193 0.067896836 0.12297052 -0.028080152 0.03653426 0.13121095 -0.1635994 -0.121904045
-0.058622282 -0.0007966229 -0.23727348 -0.18543676 -0.055755753 -0.053713337 -0.009030704 -0.06026383
0.107657626 0.0678469 0.0006860851 -0.08505443 0.0046443646 -0.058675125 -0.12334972 -0.15576619
0.11485429 -0.07485888 0.041764643 -0.11266723 -0.033890884 -0.03873164 0.0717348 -0.12134559
0.046303038 -0.012975534 0.0015981047 0.1376587 0.0018190279 -0.08276208 0.06608739 -0.08124593
0.15197092 -0.07304215 0.08279334 -0.09965072 0.044720896 0.0019028451 -0.086337246 0.00023921953
0.08797959 -0.016547425 0.01999514 -0.07709777 0.046023432 -0.060804456 -0.23609166 -0.09276334
0.22859928 -0.044575155 -0.14423108 0.06319486 0.19464442 0.022937268 0.1475202 0.042905033
-0.008503763 -0.0013950911 -0.07969066 -0.19729784 -0.008662529 -0.030049294 0.1619031 0.03621031
-0.02154736 0.03701552 0.17331788 0.047357555 -0.00112394 -0.08071765 -0.19291475 0.20382383
-0.02694369 -0.00843107 -0.073923975 0.00971563 -0.038381208 0.02599371 0.04772244 -0.017066272
0.030275451 0.007779141 0.039631717 -0.005459249 0.018562883 -0.031557877 -0.043819923 0.01774078
0.036609136 0.038009986 0.0913238 0.14123116 0.096586324 0.039566793 -0.08935739 -0.08538946
0.026747745 0.0019827955 -0.0007143553 0.0008243113 -0.032128893 0.063630626 -0.06817982 -0.032037143
00000000: 2363 dc3d 8b39 163d c026 1ebd af9f c93c
00000010: 3e6f 123d dfc9 9a3d ddb0 25bd df39 22be
00000020: f2b6 073c 6665 17bd e7e9 c13c 8729 53bd
00000030: 404d f53d 9567 653c bcda 1e3e 526e d0bd
00000040: 688c dd3b 5657 9e3b 4346 b7bc c0df dabd
00000050: 4a7b 7cbc 3c41 d6bd 3733 c43d 3d71 573d
00000060: dd5e 443d 7616 d13d f58a ac3d 30b2 27bd
00000070: b8c6 4ebd 2f2e 1dbd 93a4 133e cb95 c6bc
00000080: 4f4a 233d 58e9 1ebd f871 003e ce7c 833d
00000090: 7562 bfbc bedb 29bd 1f8d 83be cd98 47bd
000000a0: 0243 69bd a836 3d3c 1684 0cbe 43b9 12be
000000b0: 2db2 0c3d bc2e cf3d 2d8c 3a3e 45e3 c4bd
000000c0: 142f 31bc 9e56 6e3c bb83 ae3d a429 0ebd
000000d0: 59ce a2bd 4239 afbb ac2f 483d 589f 913d
000000e0: fdb8 18be 7f54 323e e3de f73c 8b67 d83c
000000f0: 6b9c b33d 937f 8fbd f9a9 98bd 3684 a03c
00000100: ca90 d1bc c0f3 713b a01d 3c3e 718a 6bbc
00000110: 891d c43d 37b6 9cbc 8a24 27be c7f7 75bd
00000120: f5b5 913c 3024 c23a 6dfa 55be 7a83 1bbe
00000130: 5a77 0e3e f438 a7bb 8b17 25bd 9a41 89bd
00000140: 1363 5abd 4378 06bd cc84 ec3b 61dd 76bc
00000150: a0dc debd 3854 31bd 9fad 8f3d b01b 153d
00000160: b23a 74bd ec0f 843d 774c 6f3d d912 7c3c
00000170: 21ab 1bbd 3cc2 0fbd 6479 fbbd 10d8 343c
00000180: 1751 893c 061c 59bc 8e83 f3bd c856 003e
00000190: 72d4 813d b0f3 81bd 3105 1fbe eb2f 203d
000001a0: abf6 be3d 70f2 c2bc 0212 06be 8894 18be
000001b0: 24e7 363e 24dc 053d c1ba 933d 928c 0d3d
000001c0: 21e2 b43d 7f0d 8b3d f8d7 fb3d 5908 e6bc
000001d0: f3a4 153d 2a5c 063e 9a86 27be d4a8 f9bd
000001e0: eb1d 70bd 75d4 50ba d2f7 72be 22e3 3dbe
000001f0: 2560 64bd 8402 5cbd 85f5 13bc 35d7 76bd
00000200: 9a7b dc3d 51f3 8a3d 64da 333a 0431 aebd
00000210: c12f 983b 5455 70bd c79e fcbd 2c81 1fbe
00000220: ba38 eb3d 9d4f 99bd 6711 2b3d 14be e6bd
00000230: 2bd1 0abd 11a5 1ebd b2e9 923d 0984 f8bd
00000240: 41a8 3d3d 5697 54bc 7f77 d13a 67f6 0c3e
00000250: 736c ee3a 2a7f a9bd d358 873d 4464 a6bd
00000260: 449e 1b3e 1f97 95bd 8e8f a93d ad15 ccbd
00000270: 422d 373d e368 f93a 95d1 b0bd 01d7 7a39
00000280: a52e b43d 778e 87bc d9cc a33c 70e5 9dbd
00000290: 1183 3c3d 180e 79bd 03c2 71be b5fa bdbd
000002a0: ee15 6a3e 7094 36bd 50b1 13be 4f6c 813d
000002b0: de50 473e f0e6 bb3c 890f 173e 30bd 2f3d
000002c0: 5e53 0bbc 7ddb b6ba db34 a3bd 7208 4abe
000002d0: 48ed 0dbc f029 f6bc edc9 253e 4351 143d
000002e0: 1784 b0bc 969d 173d 3e7a 313e fff9 413d
000002f0: 2b51 93ba 4c4f a5bd 728b 45be 32b7 503e
00000300: 03b9 dcbc 7822 0abc 7465 97bd 4e2e 1f3c
00000310: 9d35 1dbd c3f0 d43c 9b78 433d 91ce 8bbc
00000320: 3904 f83c 2ae8 fe3b de54 223d 80e3 b2bb
00000330: 3011 983c d542 01bd 857c 33bd 1d55 913c
00000340: 76f3 153d 5cb0 1b3d f907 bb3d e79e 103e
00000350: 0dcf c53d ca10 223d 0201 b7bd abe0 aebd
00000360: 161e db3c caf1 013b 9343 3bba 9816 583a
00000370: 9699 03bd c650 823d dda1 8bbd 6139 03bd

encoder_mean.8.bias f4 [14]
2.769041e-09 -8.832358e-10 1.5271588e-09 5.5447305e-09 1.1202768e-09 -3.571106e-09 -3.2355324e-10 -3.3622234e-09
-3.169826e-09 -4.5002576e-08 4.0804573e-09 5.4560796e-09 9.641323e-10 -5.8547114e-09
00000000: 7c49 3e31 32c8 72b0 20e4 d130 f783 be31
00000010: 3cf8 9930 9067 75b1 12e0 b1af dc0c 67b1
00000020: 2bd4 59b1 db48 41b3 1534 8c31 2f78 bb31
00000030: 6482 8430 962a c9b1

encoder_mean.9.weight f4 [14]
0.44618043 0.072041504 0.6786549 0.43917438 0.4477648 0.37890673 0.30083483 0.2440429
0.35800922 0.31381154 0.5234446 0.66059935 0.35897854 0.28597406
00000000: c371 e43e 7f8a 933d 54bc 2d3f 77db e03e
00000010: 6e41 e53e 1000 c23e 0607 9a3e 62e6 793e
00000020: fc4c b73e e8ab a03e 7700 063f 0a1d 293f
00000030: 09cc b73e 316b 923e

encoder_mean.9.bias f4 [14]
0.05336605 -0.020291457 0.08958511 -0.003985739 0.1098484 0.024432713 0.021961762 0.0445793
-0.035946198 0.009430307 0.10950639 0.16498406 0.060533166 0.06367332
00000000: 5c96 5a3d 453a a6bc 6678 b73d cd9a 82bb
00000010: 33f8 e03d 1d27 c83c 27e9 b33c c998 363d
00000020: 523c 13bd 9381 1a3c e344 e03d 95f1 283e
00000030: a0f1 773d 2867 823d

encoder_mean.9.running_mean f4 [14]
0.018839456 0.07794536 -0.12865156 0.012493072 -0.09965777 -0.037192177 -0.06802477 -0.16559072
-0.0771527 0.03092789 -0.022962026 0.04998901 -0.0043638763 0.007167792
00000000: 3455 9a3c d1a1 9f3d 3cbd 03be beaf 4c3c
00000010: 5f19 ccbd d356 18bd 9250 8bbd 9d90 29be
00000020: 3c02 9ebd 7d5c fd3c dc1a bcbc 47c1 4c3d
00000030: d9fe 8ebb ccdf ea3b

encoder_mean.9.running_var f4 [14]
0.021461561 0.0022565827 0.08178735 0.015664676 0.07551283 0.02844051 0.043601464 0.044617873
0.030424772 0.0037439067 0.1023256 0.07249268 0.0059736473 0.016458444
00000000: 28d0 af3c 2de3 133b 2080 a73d 3553 803c
00000010: 78a6 9a3d 13fc e83c 7397 323d 3bc1 363d
00000020: 5f3d f93c 555c 753b 1690 d13d 0b77 943d
00000030: 96be c33b dcd3 863c

encoder_mean.12.weight f4 [12, 14]
0.08029913 -0.028832305 0.27313814 -0.04524243 0.14278932 0.04160055 -0.122089036 0.18540813
0.014962483 0.07579277 -0.052107856 -0.16896176 -0.2042467 -0.05958947 0.07958332 -0.06098965
0.08853087 0.016979862 0.04772969 0.015444189 0.0129064685 0.032529794 0.10982822 0.01870767
0.15278728 -0.25211942 -0.06223321 0.05349005 -0.11424331 -0.074038275 -0.023595845 0.012299958
0.089798234 -0.0025229964 -0.11049211 0.122390196 -0.0060768784 -0.034695983 -0.09242586 0.09851075
0.03177304 0.15363035 -0.020663515 -0.0050992733 -0.06522713 0.03170592 0.02129917 -0.0029534416
-0.14017236 -0.030775288 0.04361327 -0.035092145 -0.100376315 0.0016280608 0.023435142 -0.10221563
-0.074864484 -0.0007255928 0.11298587 0.042172298 0.11571769 -0.15512666 0.20669901 0.13249885
0.063741036 -0.023077784 0.15027143 -0.20559272 -0.06838071 -0.004413442 -0.23233087 -0.01092526
-0.1083704 -0.10786668 -0.14277275 0.026683023 -0.15737928 0.10229583 0.02901471 0.041411296
-0.09727148 0.0032241251 -0.011621738 -0.21262412 -0.051263753 0.08737588 -0.02265241 -0.07253976
0.14210725 -0.11361709 0.0584265 -0.020206219 0.068070635 -0.05838166 0.17317106 -0.10327552
-0.10496959 0.05509662 -0.030291539 -0.05480588 0.004836663 0.20858599 -0.19806814 -0.106112644
0.10948874 -0.014300876 -0.07999313 -0.20378026 -0.05746718 -0.049281064 0.12221416 0.03289208
0.08600175 0.060194172 -0.07433897 0.14898767 -0.18160892 -0.026348684 0.09534019 -0.07182955
-0.003459311 -0.14920902 -0.14869982 -0.066757314 -0.018724816 -0.14709508 0.064676315 -0.049816664
0.056580573 -0.05420473 0.09841729 -0.10408089 -0.07155333 0.1574646 -0.004756853 0.055177264
0.022341507 -0.23317362 0.08920567 0.11623353 -0.12058599 -0.028366182 -0.23079199 0.06784223
-0.06579625 -0.014282547 -0.12832513 0.02385184 -0.035407905 0.03756259 -0.12696353 -0.039414704
0.09211586 -0.18945375 0.0025925594 0.044445846 0.012356199 0.024478111 0.03623873 -0.13508485
0.044164028 0.14384016 -0.038662117 0.09422874 0.015444029 -0.1848904 -0.2099342 0.043777723
00000000: df73 a43d ba31 ecbc c3d8 8b3e 2050 39bd
00000010: 5d37 123e 5765 2a3d d109 fabd a1db 3d3e
00000020: 3425 753c 3d39 9b3d 0c6f 55bd 5004 2dbe
00000030: 0c26 51be 1714 74bd 94fc a23d 49d0 79bd
00000040: ac4f b53d 5a19 8b3c 3580 433d a009 7d3c
00000050: a775 533c f63d 053d 9eed e03d d440 993c
00000060: 4574 1c3e cc15 81be 40e8 7ebd 6218 5b3d
00000070: 66f8 e9bd 61a1 97bd 134c c1bc c385 493c
00000080: 23e8 b73d db58 25bb b049 e2bd b6a7 fa3d
00000090: 8d20 c7bb 601d 0ebd c549 bdbd 01c0 c93d
000000a0: 7224 023d 4651 1d3e 8846 a9bc ce17 a7bb
000000b0: cd95 85bd 11de 013d 997b ae3c 878e 41bb
000000c0: 5889 0fbe 751c fcbc d4a3 323d c8bc 0fbd
000000d0: 1992 cdbd a864 d53a 0efb bf3c 6e56 d1bd
000000e0: 8d52 99bd b535 3eba 2365 e73d dcbc 2c3d
000000f0: 65fd ec3d 86d9 1ebe e8a8 533e c7ad 073e
00000100: a98a 823d 9f0d bdbc c1e0 193e e686 52be
00000110: 300b 8cbd a39e 90bb 25e8 6dbe ddff 32bc
00000120: 4df1 ddbd 35e9 dcbd 0533 12be 5b96 da3c
00000130: 0928 21be 7a80 d13d 42b0 ed3c e49e 293d
00000140: 4536 c7bd d84b 533b 1a69 3ebc 23ba 59be
00000150: f1f9 51bd 20f2 b23d 8c91 b9bc ba8f 94bd
00000160: 9084 113e 14b0 e8bd a050 6f3d 8387 a5bc
00000170: 9e68 8b3d 9c21 6fbd c153 313e 1e82 d3bd
00000180: 4cfa d6bd feac 613d f625 f8bc 217c 60bd
00000190: df7c 9e3b 9197 553e 60d2 4abe 9651 d9bd
000001a0: a23b e03d 394e 6abc 70d3 a3bd c6ab 50be
000001b0: b562 6bbd f1da 49bd 6b4b fa3d d8b9 063d
000001c0: af21 b03d 2a8e 763d 083f 98bd 3990 183e
000001d0: b0f7 39be 32d9 d7bc b841 c33d 5f1b 93bd
000001e0: 9cb5 62bb 40ca 18be c444 18be 0fb8 88bd
000001f0: c964 99bc 18a0 16be 0475 843d 8f0c 4cbd
00000200: 08c1 673d c705 5ebd 018f c93d 5d28 d5bd
00000210: 8d8a 92bd 663e 213e 60df 9bbb 8e01 623d
00000220: 8905 b73c 11c5 6ebe 76b1 b63d d80b ee3d
00000230: caf5 f6bd 3260 e8bc bc54 6cbe def0 8a3d
00000240: 2fc0 86bd 5801 6abc aa67 03be ef64 c33c
00000250: e107 11bd 3bdb 193d ba02 02be 5071 21bd
00000260: 3da7 bc3d 2a00 42be eee7 293b d90c 363d
00000270: a871 4a3c 5286 c83c 106f 143d af53 0abe
00000280: 57e5 343d d64a 133e 2b5c 1ebd fffa c03d
00000290: f408 7d3c e953 3dbe fef8 56be 4550 333d

encoder_mean.12.bias f4 [12]
-6.9855055e-09 1.5808554e-08 -1.04741416e-08 1.2464991e-08 -3.1799596e-09 8.37815e-10 -1.3749594e-08 2.1554833e-09
4.3902656e-08 1.6053715e-08 -4.7140034e-09 -1.7788476e-08
00000000: 2805 f0b1 61cb 8732 c3f1 33b2 9c25 5632
00000010: 7186 5ab1 fd4b 6630 5b37 6cb2 aa1f 1431
00000020: 7b8f 3c33 7ee6 8932 d0f8 a1b1 46cd 98b2

encoder_mean.13.weight f4 [12]
0.49409172 0.6136542 0.1877837 0.46850702 0.654551 0.20523196 0.53332216 0.44820353
0.80268866 0.5472655 0.33675897 0.6207437
00000000: 97f9 fc3e 7118 1d3f 5f4a 403e 27e0 ef3e
00000010: a890 273f 5428 523e cd87 083f ef7a e53e
00000020: 017d 4d3f 9819 0c3f ac6b ac3e 0fe9 1e3f

encoder_mean.13.bias f4 [12]
-0.12040386 0.022766566 -0.02897847 -0.1257861 0.0016757391 -0.14302202 -0.120686084 -0.16678064
0.0067124935 -0.04951437 -0.11299417 0.022984462
00000000: 4d96 f6bd f380 ba3c 4264 edbc 12ce 00be
00000010: 79a4 db3a 5d74 12be 442a f7bd 8bc8 2abe
00000020: 7af4 db3b 94cf 4abd 7d69 e7bd e949 bc3c

encoder_mean.13.running_mean f4 [12]
0.033059318 0.030368585 0.02640823 -0.080340415 0.030927496 -0.20856166 -0.014310185 -0.06727982
-0.14021815 -0.0070154117 -0.1967236 -0.08002568
00000000: 3569 073d 8ac7 f83c 1356 d83c 8489 a4bd
00000010: a95b fd3c 3091 55be 4475 6abc 01ca 89bd
00000020: 5995 0fbe 8ae1 e5bb e971 49be 81e4 a3bd

encoder_mean.13.running_var f4 [12]
0.0777347 0.07443041 0.0065937922 0.015256873 0.08396378 0.05113472 0.037429634 0.019871825
0.027711144 0.050154544 0.07392876 0.039190184
00000000: 5f33 9f3d f96e 983d bd10 d83b f7f7 793c
00000010: 34f5 ab3d a472 513d d14f 193d 3dca a23c
00000020: 7b02 e33c da6e 4d3d f667 973d e385 203d

encoder_mean.16.weight f4 [10, 12]
-0.2080713 -0.035228714 -0.05814593 0.10903796 -0.19291195 -0.009886675 -0.021447934 -0.122045085
-0.1865363 0.0807221 0.17158037 0.061768763 0.065318406 -0.19179714 -0.12796645 -0.074581884
0.10852364 0.03548856 0.048709214 0.104640104 -0.31758416 -0.13362813 0.11805362 -0.20173085
0.03168492 -0.013831306 -0.006486359 -0.09463062 -0.07005958 -0.070496015 -0.012046356 0.010491868
0.06756598 0.063476026 0.011856609 -0.048844073 0.11608318 -0.04474608 -0.039371513 0.15535879
-0.10302429 0.092558205 0.057634845 0.042911757 -0.026175717 0.19775659 -0.03899439 -0.07370835
-0.0052312384 -0.09387646 -0.10530041 0.041534707 -0.05880815 0.02968879 -0.044737976 0.039539155
-0.07780007 -0.013541023 -0.046346147 0.118233055 -0.063993126 0.092078835 0.063603245 0.059888624
0.10433918 0.0036839026 0.05023565 -0.19483186 -0.10916964 -0.20720854 -0.082319304 -0.1519036
-0.03484788 0.005410886 0.015266229 -0.18627034 0.1479632 -0.10458459 -0.026102778 0.06955253
0.17802247 -0.051179454 0.05984138 -0.04607594 -0.124718264 -0.056447282 0.124682665 -0.2500832
0.061422843 0.029144978 0.11187038 0.036621567 0.049038712 0.084186874 -0.10158437 -0.10131413
0.04011157 -0.03977046 -0.057397146 -0.06747593 0.09134166 -0.050513417 0.16482702 0.11130881
0.06780023 0.12682754 0.14546269 -0.011004125 -0.030789193 0.105796844 0.06481492 -0.23411305
-0.10425465 -0.00379621 -0.1358926 0.10043788 -0.016212314 -0.05682373 -0.026173765 0.11785357
00000000: a510 55be fc4b 10bd 6d2a 6ebd 4b4f df3d
00000010: b68a 45be b8fb 21bc 94b3 afbc c6f2 f9bd
00000020: 5f03 3fbe a151 a53d c4b2 2f3e 3e01 7d3d
00000030: a8c5 853d 7866 44be a309 03be 63be 98bd
00000040: a441 de3d 745c 113d 5083 473d 8d4d d63d
00000050: 649a a2be d0d5 08be 19c6 f13d 8892 4ebe
00000060: 0cc8 013d b49c 62bc 868b d4bb b3cd c1bd
00000070: 667b 8fbd 3760 90bd 145e 45bc 15e6 2b3c
00000080: 0860 8a3d b8ff 813d 3942 423c b910 48bd
00000090: 05bd ed3d aa47 37bd 0644 21bd 6016 1f3e
000000a0: 66fe d2bd 288f bd3d 8412 6c3d 3dc4 2f3d
000000b0: 756e d6bc b480 4a3e 95b8 1fbd 67f4 96bd
000000c0: cf6a abbb 4d42 c0bd bea7 d7bd 4c20 2a3d
000000d0: d1e0 70bd e835 f33c 2b3f 37bd cff3 213d
000000e0: a555 9fbd 2bdb 5dbc 75d5 3dbd 2c24 f23d
000000f0: d40e 83bd d493 bc3d 6b42 823d c64d 753d
00000100: c8af d53d a16d 713b e6c3 4d3d 0182 47be
00000110: 5594 dfbd 7a2e 54be 0697 a8bd 9e8c 1bbe
00000120: a7bc 0ebd cd4d b13b 351f 7a3c a7bd 3ebe
00000130: aa83 173e 7230 d6bd 7ed5 d5bc 8f71 8e3d
00000140: 864b 363e 8ca1 51bd 3c1c 753d 20ba 3cbd
00000150: 4a6c ffbd 4435 67bd a059 ff3d e80a 80be
00000160: 8596 7b3d 73c1 ee3c 4c1c e53d 7f00 163d
00000170: d1dc 483d 2b6a ac3d 770b d0bd c87d cfbd
00000180: 084c 243d 5ae6 22bd 4519 6bbd d230 8abd
00000190: 5611 bb3d 28e7 4ebd 6ac8 283e e0f5 e33d
000001a0: d9da 8a3d 14df 013e 2cf4 143e a54a 34bc
000001b0: 9e39 fcbc 04ac d83d afbd 843d 55bb 6fbe
000001c0: 7683 d5bd d6c9 78bb 6e27 0bbe 60b2 cd3d
000001d0: b0cf 84bc 00c0 68bd 5d6a d6bc 365d f13d

encoder_mean.16.bias f4 [10]
0.12093419 0.19029999 0.015808668 -0.023058932 0.04852642 0.08389453 -0.057187304 0.021149866
-0.114332475 0.037720542
00000000: 58ac f73d 00de 423e 2e81 813c 16e6 bcbc
00000010: a4c3 463d e5d0 ab3d 3c3d 6abd 7c42 ad3c
00000020: 2527 eabd db80 1a3d

encoder_var.0.weight f4 [20, 14]
-2.8971212e-09 -2.0597568e-09 -5.719108e-10 2.1438744e-10 -3.1083655e-10 -4.743475e-10 8.634857e-10 1.2385325e-09
-6.4655714e-10 9.315517e-10 1.2106964e-09 -1.8722563e-09 -1.0258452e-09 1.5057856e-07 -1.8411955e-08 -2.4251197e-09
-1.353113e-08 3.0623205e-08 1.7564571e-09 -1.4796457e-08 -2.0300968e-08 -8.092511e-09 -3.6395789e-09 1.6443262e-09
1.44993875e-08 -2.0292937e-08 1.650713e-08 0.00038407152 5.2691913e-09 -3.1014735e-10 2.0521759e-10 -2.5458602e-09
2.6221427e-09 2.63701e-09 9.812874e-10 4.2781748e-10 5.1632396e-09 -1.2163732e-09 2.5799824e-11 -2.483274e-10
1.8548103e-09 -4.677954e-09 -1.4524876e-09 -1.2459729e-09 2.9892442e-09 -2.260079e-09 -1.01752745e-10 -3.721216e-09
-2.8022487e-09 -2.2810623e-10 2.396431e-09 -5.6231353e-10 -2.6625402e-10 -9.902119e-10 -8.8821933e-10 -8.512933e-06
3.1385597e-10 6.643568e-10 3.1710348e-09 -1.4140267e-09 -1.2650488e-09 -8.7184016e-10 7.991858e-10 -8.110149e-09
4.26853e-09 -4.359472e-09 4.685214e-09 -1.5578112e-09 -9.685778e-10 -1.106793e-08 1.8222448e-08 -2.2365436e-08
4.1596255e-09 -1.896533e-08 2.7004952e-09 -1.0004573e-08 -8.301276e-09 2.7390632e-09 -5.8862897e-09 -1.7759579e-09
-8.472521e-09 1.3529054e-08 -7.24836e-09 5.401258e-08 -6.335985e-09 2.1876891e-09 -1.4455205e-08 2.2114609e-08
-2.0391955e-09 -6.0511174e-09 1.6350851e-08 -1.4225499e-09 9.903967e-10 9.404513e-10 2.9184668e-09 7.624847e-09
6.3513395e-09 -0.0018681275 7.969268e-09 -4.0950634e-09 1.3547926e-08 3.590128e-11 9.085211e-09 7.757087e-09
1.2242426e-08 -9.340584e-09 -1.8124996e-05 3.2970444e-08 -2.6036586e-09 -1.4508675e-08 8.001832e-08 -0.00074893754
2.9937592e-09 1.3449326e-09 -1.345224e-09 -6.3696652e-09 7.4345674e-10 4.79084e-09 3.320532e-09 -5.994908e-10
4.524622e-09 3.322661e-09 -1.984054e-09 5.372522e-09 -3.244358e-09 -0.0013809464 -1.9783366e-09 -5.991465e-09
-2.0629267e-09 -1.8633561e-09 5.490048e-10 -2.5611938e-10 1.9536037e-09 -3.5694014e-09 -1.4928448e-09 -2.552427e-10
1.9935484e-09 1.0460279e-09 -1.4007444e-10 -3.880295e-06 -2.134322e-09 2.5946317e-10 4.480439e-10 -1.5462435e-09
3.5382508e-10 9.0512775e-10 -2.4310396e-09 7.725592e-10 -1.6349452e-09 1.3874183e-09 -1.4769789e-09 1.0385697e-09
-4.4350432e-10 -8.606293e-09 1.3677195e-09 2.3248028e-08 1.1989357e-09 6.7209003e-09 -1.11905125e-08 2.1395927e-09
-1.890851e-08 1.9273603e-08 5.19766e-09 5.1325393e-09 4.9439492e-09 6.5609633e-09 -2.3730478e-09 9.597508e-06
5.4448384e-09 1.7886974e-08 -3.7513356e-10 6.9815775e-09 -7.0013653e-09 -2.1868298e-09 -4.987659e-09 2.535098e-08
-5.4274796e-10 -5.9418124e-09 1.1141072e-08 -1.0912111e-08 -9.35468e-09 6.147185e-05 8.7849905e-10 1.7168227e-09
2.3769535e-09 -4.5482755e-09 2.8045258e-10 3.7972048e-09 -3.490867e-09 3.6746826e-09 -1.2392576e-09 1.0586211e-09
2.8241476e-09 -6.1376557e-09 -6.6139108e-09 6.8415162e-09 -4.4372896e-09 4.1946873e-09 -4.608346e-09 -1.223717e-09
-2.5018396e-09 -6.857168e-09 -2.0626378e-09 -2.6806455e-09 5.9532104e-09 5.739311e-10 -4.043773e-09 -8.396097e-09
1.2282294e-08 1.0805959e-07 2.2801292e-09 2.5771008e-09 -1.0405139e-09 5.0866893e-09 2.4799363e-09 -2.41159e-09
8.148332e-09 3.1547984e-09 -2.0298123e-09 -3.1772607e-10 1.6049069e-09 -2.1884896e-09 -2.80454e-09 -1.7030756e-05
-2.6643685e-09 3.4147143e-10 8.811341e-09 -4.5397096e-07 1.54638e-09 -1.8938695e-09 1.5417876e-09 -9.911868e-09
-2.9007228e-09 -1.9077353e-09 -3.4898645e-07 -1.4265518e-09 -6.546735e-10 0.006406608 2.1144353e-09 8.790485e-09
-3.8455537e-09 5.4986047e-09 -6.101727e-10 -1.0910779e-09 2.6935387e-09 -6.626604e-09 -2.0108286e-09 -2.0137514e-09
1.0758371e-09 4.1488457e-09 4.789438e-10 0.0003120104 5.1089927e-10 1.0506458e-09 -2.5652136e-09 3.4316028e-09
00000000: b216 47b1 a08b 0db1 a534 1db0 b3b8 6b2f
00000010: 5be2 aaaf 3d63 02b0 685a 6d30 fd38 aa30
00000020: 6ab9 31b0 1008 8030 9865 a630 15a9 00b1
00000030: b8fd 8cb0 b8ae 2134 5128 9eb2 28a7 26b1
00000040: 8a76 68b2 9286 0333 d767 f130 8233 7eb2
00000050: 4d62 aeb2 3d07 0bb2 261c 7ab1 96fe e130
00000060: fb18 7932 a450 aeb2 90cb 8d32 355d c939
00000070: 4c0c b531 5c81 aaaf 9ea3 612f 3ff3 2eb1
00000080: 3931 3431 c536 3531 fbdd 8630 f531 eb2f
00000090: 5668 b131 542d a7b0 0af0 e22d f984 88af
000000a0: 56ec fe30 b8bb a0b1 dda0 c7b0 c63e abb0
000000b0: 576b 4d31 bb4f 1bb1 b4c1 dfae 53b8 7fb1
000000c0: ae91 40b1 32ce 7aaf 76ae 2431 4c91 1ab0
000000d0: ec5f 92af fc17 88b0 e126 74b0 c5d2 0eb7
000000e0: 4d8b ac2f f49d 3630 6fe9 5931 a457 c2b0
000000f0: f3dd adb0 4ca6 6fb0 b3ad 5b30 d054 0bb2
00000100: 63aa 9231 52ca 95b1 94fb a031 9c1a d6b0
00000110: cd1e 85b0 4525 3eb2 9687 9c32 1d1e c0b2
00000120: 74ec 8e31 34e9 a2b2 9d93 3931 94e0 2bb2
00000130: 669d 0eb2 1c3a 3c31 5a40 cab1 f715 f4b0
00000140: 8b8e 11b2 696d 6832 400d f9b1 76fb 6733
00000150: eab3 d9b1 3c56 1631 aa56 78b2 8af6 bd32
00000160: e821 0cb1 31ea cfb1 e773 8c32 8683 c3b0
00000170: 7c1e 8830 3041 8130 368e 4831 6ffe 0232
00000180: f93a da31 f5db f4ba 36e9 0832 8fb4 8cb1
00000190: 69c0 6832 3fe5 1d2e 2e15 1c32 0844 0532
000001a0: c252 5232 5378 20b2 220b 98b7 639b 0d33
000001b0: 0cec 32b1 d441 79b2 89d6 ab33 5954 44ba
000001c0: c5ba 4d31 9cd8 b830 dde2 b8b0 2bdc dab1
000001d0: 1e5c 4c30 ad9c a431 6b2f 6431 6ac9 24b0
000001e0: ff76 9b31 df54 6431 d957 08b1 3499 b831
000001f0: 59f3 5eb1 df00 b5ba 44f3 07b1 7cdd cdb1
00000200: 64c3 0db1 820c 00b1 c7e8 1630 99cd 8caf
00000210: 2940 0631 9349 75b1 cf2c cdb0 3752 8caf
00000220: e0fe 0831 d6c3 8f30 7303 1aaf 7b33 82b6
00000230: 64ab 12b1 32a4 8e2f 9350 f62f 9b83 d4b0
00000240: 7484 c22f b4cc 7830 4d0f 27b1 055c 5430
00000250: 85b4 e0b0 71af be30 93fe cab0 6cbd 8e30
00000260: afd1 f3af e0da 13b2 5afa bb30 f4b2 c732
00000270: cdc7 a430 aaed e631 6540 40b2 1d08 1331
00000280: 416c a2b2 1a8f a532 1a97 b231 4b5a b031
00000290: 70df a931 d86e e131 1913 23b1 fc04 2137
000002a0: 4e15 bb31 dfa5 9932 5b3b ceaf 9be2 ef31
000002b0: a990 f0b1 1e47 16b1 ea5f abb1 65c3 d932
000002c0: 7e30 15b0 bc28 ccb1 f466 3f32 f977 3bb2
000002d0: 51b6 20b2 73ea 8038 e07a 7130 54f5 eb30
000002e0: cf57 2331 0e47 9cb1 312e 9a2f 9178 8231
000002f0: fbe3 6fb1 b385 7c31 8052 aab0 eb7e 9130
00000300: ee12 4231 64e3 d2b1 9340 e3b1 9d12 eb31
00000310: d076 98b1 dc20 9031 7157 9eb1 b72f a8b0
00000320: d4ec 2bb1 4a9c ebb1 4fbe 0db1 6a36 38b1
00000330: fe8c cc31 d0c2 1d30 67f1 8ab1 6d3e 10b2
00000340: 1a02 5332 630e e833 75b0 1c31 d618 3131
00000350: d401 8fb0 fec6 ae31 806b 2a31 24b9 25b1
00000360: befc 0b32 cdcb 5831 d67c 0bb1 f8ab aeaf
00000370: a493 dc30 5164 16b1 fdb9 40b1 45dd 8eb7
00000380: 1118 37b1 d5b9 bb2f b060 1732 4bb9 f3b4
00000390: 6988 d430 4e25 02b1 d4e6 d330 db48 2ab2
000003a0: 0e56 47b1 3c19 03b1 555c bbb4 5410 c4b0
000003b0: 8df4 33b0 86ee d13b 8a4d 1131 f604 1732
000003c0: d921 84b1 3dee bc31 16b9 27b0 e4f4 95b0
000003d0: 3c19 3931 3ab0 e3b1 df2e 0ab1 4a62 0ab1
000003e0: a7dc 9330 a28d 8e31 aca6 0330 5495 a339
000003f0: 576f 0c30 5066 9030 b747 30b1 65d1 6b31

encoder_var.0.bias f4 [20]
1.229751e-13 -2.9261589e-12 -1.5635521e-12 -4.3042835e-12 -2.6041792e-12 -1.3024798e-12 -2.0820897e-12 -2.0374449e-12
-2.0296059e-12 1.5848634e-12 -1.44609e-12 1.0584964e-12 -1.1204398e-13 -1.6368627e-12 1.2162094e-12 9.412347e-13
1.4297746e-12 4.081209e-12 4.6125967e-13 -4.5965507e-14
00000000: 2975 0a2a fee8 4dac e70c dcab 8a71 97ac
00000010: b940 37ac c84e b7ab 9883 12ac 585f 0fac
00000020: 21d2 0eac b90c df2b e284 cbab 5af8 942b
00000030: f54c fca9 325e e6ab 902a ab2b 8e77 842b
00000040: 0f39 c92b 4398 8f2c 43d5 012b 9f02 4fa9

encoder_var.1.weight f4 [20]
-3.2703154e-09 -2.1575259e-08 5.9521e-09 1.5825299e-09 1.4626725e-06 2.8634242e-06 3.8964654e-06 1.4840709e-06
-1.7344004e-07 -1.428224e-07 1.9175368e-09 -2.2720178e-08 2.6198694e-07 -7.939629e-08 -1.3362857e-07 -9.6124495e-08
-1.2326377e-07 -2.3449733e-08 -4.9661075e-08 -8.13877e-08
00000000: ffbb 60b1 7f54 b9b2 3a83 cc31 5280 d930
00000010: 0b51 c435 4129 4036 62be 8236 4a30 c735
00000020: d63a 3ab4 b95a 19b4 aac5 0331 332a c3b2
00000030: 36a7 8c34 9280 aab3 8b7b 0fb4 006d ceb3
00000040: 7d5a 04b4 826e c9b2 ee4a 55b3 5cc7 aeb3

encoder_var.1.bias f4 [20]
3.6277428e-09 -1.5798694e-08 1.05712716e-10 3.280096e-09 -1.6854248e-09 1.5186608e-08 -1.1343974e-08 -5.6636873e-09
-2.4421087e-09 -1.7557914e-08 9.4718e-09 1.9264936e-08 6.4916525e-09 -4.783038e-09 -9.785648e-09 2.5276858e-09
-3.1018683e-09 1.5986297e-09 6.3476038e-09 -6.82415e-09
00000000: ed4b 7931 b2b5 87b2 f876 e82e 0f68 6131
00000010: 9da4 e7b0 b473 8232 53e3 42b2 529a c2b1
00000020: 08d2 27b1 43d2 96b2 6bb9 2232 0b7c a532
00000030: 2e0d df31 0c58 a4b1 bc1d 28b2 85b3 2d31
00000040: a528 55b1 c8b6 db30 1d1a da31 dc79 eab1

encoder_var.1.running_mean f4 [20]
9.5240644e-08 0.00023518801 4.49081e-09 -5.388921e-06 -8.490943e-09 7.0537816e-09 -0.0011284584 -0.00045723503
-0.00083409756 -2.5584113e-06 -7.75296e-09 6.190871e-06 3.8258917e-05 1.414194e-09 6.753677e-08 -1.0703376e-05
0.0038378458 0.00018981528 -0.000107315704 1.1628878e-09
00000000: 1987 cc33 cd9c 7639 954d 9a31 7bd2 b4b6
00000010: 90df 11b2 b85d f231 c8e8 93ba 0cb9 efb9
00000020: 57a7 5aba 2cb1 2bb6 e131 05b2 2dbb cf36
00000030: 3378 2038 875d c230 bb08 9133 a692 33b7
00000040: 5e84 7b3b 2709 4739 ae0e e1b8 7ad3 9f30

encoder_var.1.running_var f4 [20]
7.401193e-15 3.904138e-08 1.2624379e-17 2.1781578e-11 5.391219e-17 1.1790187e-15 8.8669714e-07 1.3879915e-07
4.843959e-07 5.60021e-12 1.8449534e-17 2.9981666e-11 1.0579371e-09 1.930741e-17 5.138847e-15 8.500585e-11
1.0210192e-05 2.5236856e-08 8.204356e-09 8.618709e-17
00000000: fa53 0528 74ae 2733 f2e0 6823 c197 bf2d
00000010: 48a0 7824 1dea a926 5d05 6e35 d208 1534
00000020: 6f07 0235 350a c52c bb2a aa23 5bdc 032e
00000030: da66 9130 5514 b223 7f25 b927 0aee ba2e
00000040: 714c 2b37 6fc8 d832 24f3 0c32 e1bb c624

encoder_var.4.weight f4 [16, 20]
-8.970721e-09 -2.101604e-10 2.4889975e-11 -6.989553e-10 -6.144977e-10 1.0282464e-09 -1.3491547e-09 -4.418625e-10
-1.0333482e-09 -1.1848437e-08 -2.5910824e-11 2.5793552e-09 3.7042094e-09 2.849152e-09 -6.9390724e-09 -3.9150028e-10
3.0644215e-10 6.379266e-10 -2.2574613e-09 -5.3445665e-10 2.7464545e-10 -8.900393e-10 2.1027662e-10 4.1673425e-09
-1.1408076e-08 4.0505864e-08 7.3933655e-09 -1.176829e-09 -6.8448562e-09 6.7316988e-09 -1.3075563e-09 8.210648e-09
-9.1372376e-10 6.518267e-09 -1.19754855e-08 2.83339e-09 -8.793867e-09 3.5961476e-09 9.671494e-09 -2.7709874e-09
7.661754e-11 -8.073423e-10 8.138408e-10 -3.0261063e-10 -5.5638927e-10 1.38670675e-08 4.6211404e-10 -2.3414506e-09
-2.3742115e-09 -6.468026e-10 8.6046503e-10 3.3809913e-09 -4.0025757e-11 2.7347838e-10 1.0246101e-09 1.7730514e-10
1.3013172e-09 2.8903943e-10 -6.488026e-08 5.189614e-10 -4.908795e-10 -2.3043527e-10 -1.9741393e-10 -3.3419717e-10
1.0354517e-09 2.9084879e-08 1.05660494e-10 2.1992277e-09 1.818413e-09 3.8424286e-09 1.3662957e-10 7.9313434e-10
-1.848152e-10 -2.0372869e-10 9.0018903e-10 -9.428662e-10 1.4594613e-09 -5.9981664e-10 1.893675e-08 1.2735011e-09
-1.781704e-09 7.985042e-09 2.7770548e-09 -8.1998147e-10 -4.9275752e-09 -6.1339955e-09 2.2534334e-09 1.5783105e-08
-2.7736993e-09 -3.0823617e-09 -4.860214e-09 -6.7319847e-09 2.0517084e-09 -1.1272777e-09 8.45206e-10 -3.668939e-09
3.658431e-09 1.132742e-09 4.0429375e-09 -1.36949e-09 1.032985e-09 3.6450187e-09 4.6623163e-09 2.337455e-10
1.5057585e-08 -9.752037e-09 -6.6670536e-10 6.447271e-10 2.2005493e-09 4.3340167e-09 -3.2622782e-09 -9.903243e-09
-3.999476e-09 -8.913934e-11 -2.5858653e-09 -2.7683642e-09 -1.1517626e-09 1.6520251e-09 3.3475083e-09 -1.637986e-09
-2.874587e-09 -2.8202274e-09 -2.6086538e-10 -4.1878248e-09 2.402029e-09 -2.6890504e-07 -2.9083752e-10 2.5218299e-09
-9.290244e-09 -5.926392e-09 -2.5194327e-09 -4.1989754e-09 4.7414566e-09 8.648955e-09 2.9828845e-10 4.381168e-11
-1.4952366e-09 3.3422833e-09 7.444708e-09 8.1259066e-10 -4.2497965e-09 -1.3140581e-08 -1.569492e-11 -1.5036189e-09
-1.1788285e-08 -3.8442755e-07 1.2147372e-08 1.5421558e-07 8.808581e-09 -6.844799e-09 -5.058249e-09 -1.3177583e-07
1.8332281e-08 1.6765606e-09 2.2171085e-08 3.4506218e-09 1.8553191e-08 3.0026375e-09 6.9960937e-10 -5.967504e-08
-2.1415316e-07 1.2388595e-09 1.7162467e-10 9.738462e-10 -3.612993e-09 0.00015615803 -7.706573e-09 -9.490061e-10
2.701809e-09 -7.631172e-09 -1.5060614e-09 -5.0209428e-09 -1.0670564e-06 -1.8848214e-08 -4.4873056e-09 3.3596283e-08
1.903243e-09 -1.4488287e-09 4.498352e-05 2.1196591e-08 3.2026578e-06 1.9868799e-06 -1.8955589e-06 4.0744357e-08
1.880514e-10 -1.0906873e-08 2.7807358e-08 -7.7283575e-09 -5.7762617e-09 -0.00012641847 1.7936252e-05 -7.433063e-09
-4.2524956e-08 4.933763e-05 7.7760065e-05 0.00020452033 -1.2750783e-08 9.9683546e-11 4.3039865e-09 0.000106914944
5.2586784e-09 3.3339214e-09 -6.05268e-08 6.3655303e-10 -8.804509e-09 -1.1387582e-08 1.0196463e-08 4.128091e-08
7.840308e-09 1.9040691e-10 -6.1725127e-09 -1.3563051e-06 -8.377621e-09 -1.0423111e-08 4.7807487e-09 7.613206e-09
-6.963672e-09 5.070563e-10 -7.635062e-09 -1.6077308e-09 3.6173458e-07 -2.253168e-09 3.4959717e-09 7.551152e-09
-6.232892e-10 -8.5818374e-07 2.257356e-09 7.287933e-09 5.4601337e-09 5.4353575e-09 6.249057e-09 5.655409e-09
-1.3033513e-09 2.4267373e-09 9.5498125e-09 3.6657488e-09 -5.720718e-09 7.5434714e-10 6.128892e-10 -4.735345e-08
-2.150583e-09 -1.1139709e-09 8.359673e-10 -1.2351472e-09 -9.371831e-10 2.6887517e-09 7.863537e-09 2.4481184e-09
7.2611024e-09 -1.5863996e-09 -1.7152526e-09 1.3033657e-09 3.0652987e-09 2.6692477e-09 4.2727324e-09 4.859334e-09
00000000: a61d 1ab2 e512 67af 3eef da2d 9b20 40b0
00000010: 6ee9 28b0 3452 8d30 296d b9b0 9eea f2af
00000020: b505 8eb0 fa8d 4bb2 fde9 e3ad 7f40 3131
00000030: 248d 7e31 d0ca 4331 ba6c eeb1 c43a d7af
00000040: e677 a82f 185a 2f30 ae21 1bb1 0be9 12b0
00000050: e9fc 962f f3a6 74b0 9b33 672f 5530 8f31
00000060: 40fd 43b2 abf8 2d33 bb08 fe31 fdbd a1b0
00000070: fe2f ebb1 a64c e731 8cb5 b3b0 d00e 0d32
00000080: 9829 7bb0 48f7 df31 bebc 4db2 86b5 4231
00000090: d613 17b2 1920 7731 ae27 2632 ba6b 3eb1
000000a0: d77b a82e aaeb 5db0 f4b4 5f30 a95c a6af
000000b0: 6af0 18b0 023c 6e32 c50c fe2f 3ce7 20b1
000000c0: 9227 23b1 b0ca 31b0 d885 6c30 0757 6831
000000d0: ff08 30ae a958 962f 43d2 8c30 f6f2 422f
000000e0: 07da b230 afe6 9e2f 4d54 8bb3 a9a6 0e30
000000f0: 93ee 06b0 c35d 7daf 150f 59af 12ba b7af
00000100: b84f 8e30 53d6 f932 9259 e82e 3921 1731
00000110: b8eb f930 5c06 8431 ce39 162f de03 5a30
00000120: db34 4baf 8700 60af 2c71 7730 2896 81b0
00000130: 3b96 c830 58e0 24b0 5baa a232 5607 af30
00000140: 23e0 f4b0 962e 0932 77d6 3e31 1165 61b0
00000150: 694f a9b1 32c3 d2b1 d2da 1a31 6a93 8732
00000160: 6f9b 3eb1 7bd1 53b1 e5fe a6b1 2a4f e7b1
00000170: 09fe 0c31 8fee 9ab0 1654 6830 a820 7cb1
00000180: cc67 7b31 d1ae 9b30 0eea 8a31 a538 bcb0
00000190: eef8 8d30 d97b 7a31 2b32 a031 c180 802f
000001a0: fb57 8132 ea89 27b2 3843 37b0 a338 3130
000001b0: 7938 1731 6aea 9431 9b2e 60b1 ec22 2ab2
000001c0: c36b 89b1 fd04 c4ae 06b3 31b1 943d 3eb1
000001d0: 0b4c 9eb0 770d e330 fd09 6631 821f e1b0
000001e0: 458a 45b1 f7cd 41b1 8a69 8faf 7fe4 8fb1
000001f0: f110 2531 075e 90b4 bee3 9faf 804c 2d31
00000200: ed9a 1fb2 18a1 cbb1 5422 2db1 9446 90b1
00000210: 4bea a231 8296 1432 5efc a32f 91af 402e
00000220: f680 cdb0 12ae 6531 58cc ff31 fc5c 5f30
00000230: 9b05 92b1 e3c0 61b2 d10d 8aad e3a7 ceb0
00000240: 6d85 4ab2 5263 ceb4 b5b0 5032 7596 2534
00000250: 8d54 1732 7d2f ebb1 d4cc adb1 447e 0db4
00000260: 1d79 9d32 bb6c e630 bb72 be32 fb1f 6d31
00000270: e65e 9f32 f556 4e31 a24e 4030 b326 80b3
00000280: f9f1 65b4 7e44 aa30 0db4 3c2f 2bd8 8530
00000290: 7248 78b1 5abe 2339 de65 04b2 2f6e 82b0
000002a0: baaa 3931 401a 03b2 d3fd ceb0 ae84 acb1
000002b0: c737 8fb5 a9e7 a1b2 c22e 9ab1 814b 1033
000002c0: 34ca 0231 2120 c7b0 b0ac 3c38 cc13 b632
000002d0: 3eed 5636 5656 0536 e86a feb5 e5fe 2e33
000002e0: c3c3 4e2f ef60 3bb2 07dd ee32 adc5 04b2
000002f0: 8978 c6b1 338f 04b9 cf75 9637 ea65 ffb1
00000300: afa4 36b3 e0ef 4e38 1e13 a338 8274 5639
00000310: 890e 5bb2 d934 db2e 44e2 9331 8637 e038
00000320: d3af b431 f71a 6531 f6fa 81b3 70f9 2e30
00000330: a442 17b2 1ea3 43b2 852c 2f32 d74c 3133
00000340: 0ab2 0632 c85a 512f ff15 d4b1 4a0a b6b5
00000350: 2bed 0fb2 5411 33b2 e943 a431 3ccb 0232
00000360: 1b45 efb1 ea60 0b30 5c2b 03b2 00f7 dcb0
00000370: 6c34 c234 27d6 1ab1 c93d 7031 51ba 0132
00000380: 1454 2bb0 f05d 66b5 d41f 1b31 5669 fa31
00000390: d89b bb31 e9c1 ba31 49b7 d631 8151 c231
000003a0: 9921 b3b0 9dc3 2631 8510 2432 89e8 7b31
000003b0: f88f c4b1 765a 4f30 3e78 2830 ab61 4bb3
000003c0: 75c9 13b1 5e1a 99b0 f8c9 6530 e1c1 a9b0
000003d0: 33ce 80b0 05c5 3831 3418 0732 c13b 2831
000003e0: 557d f931 7908 dab0 16be ebb0 1b22 b330
000003f0: 4ea5 5231 e76d 3731 5acf 9231 27f7 a631

encoder_var.4.bias f4 [16]
7.024813e-13 1.2088401e-12 -2.2937126e-13 -1.2607892e-12 4.985719e-13 1.070587e-12 -8.168987e-14 -9.863154e-13
-1.8091327e-12 1.2236619e-12 2.187531e-12 -1.174993e-12 -4.22812e-13 6.788995e-13 -1.7945842e-13 -3.0599859e-12
00000000: 1dbb 452b 0e21 aa2b e21f 81aa b870 b1ab
00000010: e455 0c2b f6ab 962b 01f3 b7a9 c2cf 8aab
00000020: e09c feab 1137 ac2b 0eef 192c 965d a5ab
00000030: a205 eeaa dd17 3f2b 5e0d 4aaa ce53 57ac
