generativecf/models/sangiovese.pth (torch_old, 1520 bytes, 4 tensors)

predict_net.0.weight f4 [10, 13]
000000 47 81 c9 3e c8 1b 20 c0 c1 92 a3 bf 1c d5 29 3e
       0.39356443 -2.5016956 -1.2779161 0.16585201
000010 57 53 b9 be b0 23 07 bd 21 ea 47 be fc 9b 9a 3f
       -0.36196396 -0.03299302 -0.19522907 1.2078853
000020 82 8e 13 be a4 13 bf 3e 18 7f 8a 3f 60 65 43 be
       -0.14409831 0.37319672 1.0820036 -0.1908164
000030 51 45 28 be 8c 3a 98 3e 3c 2c 81 bf 9c a0 63 be
       -0.16432692 0.29732168 -1.0091624 -0.22229236
000040 f5 aa ee bc 46 05 fe bd 45 98 8b 3d ce 7c 47 bd
       -0.029134253 -0.124033496 0.068161525 -0.048703007
000050 39 dd c4 3e dc 60 b2 be de 0a 1f be 15 c3 24 3f
       0.3845003 -0.34839523 -0.15531489 0.6436017
000060 22 06 8a be fb 22 3c bd 34 ea bd be d3 5a 51 40
       -0.26957804 -0.045931797 -0.37092745 3.2711685
000070 69 ad 0f 40 dd 32 6f 3e 0f e9 50 3f 1c d2 5e 3e
       2.244959 0.23359247 0.8160562 0.21759838
000080 ed d1 16 3f a0 74 e0 bf 8d 6b bc bc 1b 73 84 bf
       0.5891407 -1.7535591 -0.023000503 -1.0347627
000090 cd 40 a1 bf 45 05 e0 be 27 e6 af be 4e a1 61 3e
       -1.2597901 -0.4375402 -0.3435528 0.22034189
0000a0 a4 97 54 be b6 4e 30 be 3c 35 63 be c8 5a a9 be
       -0.20760971 -0.17217526 -0.22188276 -0.33077073
0000b0 0c 91 a3 3e 01 8d 70 be 16 77 85 3e 18 fa b3 be
       0.319466 -0.23491289 0.26067418 -0.35151744
0000c0 63 ba 11 3e ad 26 cb 3d 6b 14 f8 bd 91 f5 72 be
       0.14231257 0.09919486 -0.121132694 -0.23726489
0000d0 db ed b7 be 13 0d 40 3f 7b 89 bf 3e af 48 0d be
       -0.35923657 0.7501995 0.37409577 -0.13797258
0000e0 26 3d e8 3d df f6 f7 bd 37 f4 d4 bd d3 4c c1 be
       0.11339788 -0.12107634 -0.10398143 -0.37753925
0000f0 15 8b 8e 3e 8b ce 27 3c f0 b1 12 bf ca 38 9a 3e
       0.27840486 0.010242115 -0.5730276 0.30121452
000100 36 22 aa bc 59 02 da 3e 6d 44 71 bf f3 83 1c bf
       -0.020768266 0.42579916 -0.94245034 -0.6113884
000110 ca e0 c1 3d 67 0b 93 be cc c0 dc 3e 83 3c 65 3d
       0.09466703 -0.28719637 0.43115842 0.05596591
000120 0e 46 08 3f f2 7d bf be 68 9a 73 3e 4d b6 fa 3e
       0.53231895 -0.37400776 0.2378937 0.4896721
000130 68 99 e8 be b0 e3 02 be cc 8d b7 be 10 52 69 40
       -0.4542954 -0.12782168 -0.3585037 3.6456337
000140 ca 1a 20 40 2c 7b a6 bb 29 e1 8d 3f c1 d5 21 bd
       2.501635 -0.005080601 1.1084338 -0.039510492
000150 f3 ff ab 3e 68 44 ef bf 1c 19 a3 bc 58 b8 be bf
       0.3359371 -1.8692751 -0.019909434 -1.4900007
000160 2b b9 9a bf be 35 c9 be aa 14 64 bd e8 db 5e be
       -1.2087759 -0.39298815 -0.05568377 -0.21763575
000170 b6 7f 2f 3e 4d 6a 27 3e b8 10 27 3c 1a dd 50 3e
       0.17138562 0.16349144 0.010196857 0.20396844
000180 2f c5 45 bd a8 f9 54 bc 2e ad 8d be c3 db 69 3e
       -0.048283752 -0.012998976 -0.27671188 0.22837739
000190 9c 13 05 be 66 66 ff bd 70 15 18 3e cf 3c 50 3e
       -0.12995762 -0.12470703 0.14851928 0.20335697
0001a0 75 b9 14 3f c8 06 36 c0 3b 08 d5 bf 11 05 54 3e
       0.58095485 -2.844164 -1.6643137 0.20705058
0001b0 a5 91 25 bf ea 38 ea bd da 51 d7 be 62 d5 9d 3f
       -0.6467536 -0.11436637 -0.42054635 1.2330744
0001c0 b8 a4 2d be dc 93 54 3f 54 be 7e 3f af ac c6 3e
       -0.16957366 0.83038116 0.9950917 0.38803622
0001d0 a4 9d 88 be 21 e4 96 3e 8b 96 41 bf 5d 65 25 bf
       -0.2668277 0.29470924 -0.75620335 -0.64607793
0001e0 b6 15 38 3e d8 bc 56 be d1 a9 c9 3e fa 1a 1b 3e
       0.17977032 -0.20970476 0.39387372 0.1514701
0001f0 b9 72 f7 3d 11 88 f6 bd a1 60 1d 3a 4d 32 89 3e
       0.120824285 -0.12037671 0.00060034735 0.2679619
000200 d0 a9 9e be 86 e3 1c be
       -0.30988932 -0.15321168

predict_net.0.bias f4 [10]
000000 f7 56 57 3f 3d 47 db 3e bb dd 96 bf 0e 1b c3 3e
       0.8411707 0.42827788 -1.1786417 0.3810658
000010 7d 24 19 be d0 e0 c6 3e fe 6b 80 bf 20 55 f4 bd
       -0.14955325 0.38843393 -1.0032957 -0.11930299
000020 74 ab 87 3f c3 b6 fd 3e
       1.0599198 0.495535

predict_net.1.weight f4 [2, 10]
000000 18 4e cd 3d 94 6c c0 bc 6e fc d2 be 3a 52 f6 3b
       0.10024661 -0.023489274 -0.41208214 0.0075171264
000010 2a ca 53 bd 74 50 88 3d 72 56 55 bf b6 4c 01 3c
       -0.05170647 0.0665597 -0.8333503 0.0078918245
000020 5a 78 6a 3d a8 5c 4d 3c 9a d5 a7 bb c2 ca a9 bd
       0.057243682 0.012534298 -0.005121899 -0.08290626
000030 4a f1 ca 3e ad 00 50 3c 20 3c 24 3c e0 f0 5a bc
       0.39637214 0.012695474 0.010024101 -0.013363093
000040 9e 7d 68 3f be 22 c5 3c 66 6c 77 bd 1e 5b 64 bd
       0.90816677 0.024064418 -0.06040611 -0.05575096

predict_net.1.bias f4 [2]
000000 3c 87 ac 3e 2e 2d b7 be
       0.33696926 -0.35776657
