generativecf/models/sangiovese-512-50-target-class--1-auto-encoder.pth (torch_old, 31867 bytes, 78 tensors)

encoder_mean.0.weight f4 [20, 13]
00000000: 880e 29bc 9cf4 05bc afeb bcbd f83b 8cbc
00000010: fd5c 50bc ca4f 0fbc 3a76 b9ba fb93 c63b
00000020: 4963 04bc d5b7 c13b 365d 5fbb 4686 8d3d
00000030: 9883 1e3d 910e 56bc 30d2 a1bc a069 99bd
00000040: cb77 d6bb 0d0f f1bb 19fd 06bb cc11 273b
00000050: 45f0 70bc 969d a63c b4a3 7b3b 10af 03bd
00000060: 268e c93d 0870 113d bccd 77bc c1b3 083d
00000070: c95d f03d 66f3 063c 3271 403c 7b9b 483c
00000080: c0a8 ddb9 6523 21bc 0989 8cbb 793d e7bc
00000090: 8be5 f53b d105 52bd 213a f6bc ea28 82bb
000000a0: b6bd c4bc 5e9d b7bd d3a4 aabc 38db 523c
000000b0: ecab 66bc 7677 73bc da4a 2c3c bc6e dbbb
000000c0: 095d 803a d975 9d3b c8f2 683d da37 933c
000000d0: 029a b3bc 3c02 83bc a1c0 a6bd d652 9bbc
000000e0: afa2 1ebc 9b02 72bc a680 52bc 97d8 2a3c
000000f0: afde 1c3b c566 0c3c e9b4 81bc f125 913d
00000100: 21cb 2d3d 2e32 dbbc d500 9fbc 714c adbd
00000110: e134 e8bb 7a9a 4ebc 2eba e73a 9178 8ebc
00000120: c41e aa3c 6932 b1bb 362f 9e3a 54eb ecbb
00000130: 3bbe 5c3d 5583 fa3c a1ad ca3c 5d61 d83c
00000140: d919 093e f48f c33c 9c98 a33c a431 b23c
00000150: 97b7 853b ecd7 d9bb 0e31 823b a4aa 36bc
00000160: cc6d 4a3b e5fe 77bd 2eae dfbc e21f e43c
00000170: 5829 563c aa04 003e ed1f ff3c 634b 313c
00000180: b68f 943c 6e76 fd3c 58da cfbb 55e5 22bc
00000190: 2cb5 363c 865d da3b 7106 81bd 29f0 9ebc
000001a0: 5a7b e33a 996b 47bc 8058 b4bd d0a3 7ebc
000001b0: 5370 3ebc c661 1a3b fd8f 0dbc 2ec9 b03c
000001c0: 6ea6 bb3b 0e76 cd3c db5e 883b 1d66 8c3d
000001d0: 127b 203d c0fc 6838 20e1 b7bb 4493 d7bd
000001e0: 90f5 39bc 32ea 88bc 593e bdbc 33db 9dbc
000001f0: 894d 393c d085 0ebc 94f7 6d3a 94b5 e63a
00000200: 5416 6d3d d03b 113d 4173 053d c10b d43c
00000210: 5981 0d3e 6138 9c3c 801d 113c 70b4 063d
00000220: ea1f 6b3c ed08 88bc 3f72 843c bdca 43bc
00000230: 53ee 293c 0328 6dbd 4da7 f9bc a596 7fbc
00000240: e2c1 8ebc cc13 f0bd 8dbe 99bc 53cb 82bc
00000250: 04b6 1b3a 730d 0cbc ab81 3e3c 8410 9e3b
00000260: 3a0a 41bc a3c2 97bc e304 b33d b3fd e83c
00000270: a932 4ebc db49 c1bc d531 94bd 0e23 e83a
00000280: bde3 a93b be1c a8bc 7188 96bc c0a4 42bc
00000290: 7d1e bcbb 089b 89bc e189 c3bc 0a0c 7e3d
000002a0: 5123 053d e306 65bb 3940 333c 532a 743d
000002b0: bbd6 c93b 448e 623c 8244 d73c c579 d43c
000002c0: 9008 67bc 0c74 8f3c 7c90 b53c 2a64 983b
000002d0: 1520 b63d e9c4 a23d 20b8 d73c 708c 963c
000002e0: 1451 013e 34f6 823c 85a1 d33b 5e88 7d3c
000002f0: 7fef f03b 0000 2dbc d262 70bb 9d99 d4bc
00000300: 2d19 c23b 1cce b1bd 272c 47bd 60eb d93b
00000310: e4d7 143d 1583 f63d e4c7 093d b9a9 f9bb
00000320: fe14 ee3b 9f0b ae3c e360 e2bc d70b dfbb
00000330: 556d 80bc c408 2f3c ba2d 84bd 2366 fcbc
00000340: c76a bb3c ee0e c43c 73ff eb3d f489 da3c
00000350: 5683 063d 4ff8 a03c cc5c 0a3d 47c0 22bc
00000360: 748c 903c 8e96 463c 388f f73a 1d67 80bd
00000370: af21 bcbc 3659 bcbc 696b 21bd 9c59 aabd
00000380: a95d 5ebc 2e72 a8bc 6fd3 f73b 30c7 2b3c
00000390: 80fa 9d3c 6d2a c53b 3bb4 eb3c 7d43 afbb
000003a0: 48c3 853d db41 1e3d 7f87 e73c 6324 d83c
000003b0: b0ee da3d 9065 bc3c 1074 a93b 9e2d e73b
000003c0: 820a 313c 0377 e9ba c326 0f3c 2f82 63bc
000003d0: 52ce ad3b 71b7 1abd 62ab 5dbc a7a6 1e3c
000003e0: 83a2 0bbd 4b2a a5bd 6428 c1bc 1337 9dbb
000003f0: 63de b5bc 561d 853b f895 82bc 2fa8 983c
-0.010318406 -0.008175995 -0.092246406 -0.01711844 -0.012717483 -0.008747051 -0.0014149614 0.006060121
-0.008080312 0.005911807 -0.0034082658 0.06910376 0.038699716 -0.013064996 -0.019753546 -0.074908495
-0.006545042 -0.0073565305 -0.0020597635 0.0025492785 -0.014705722 0.020338815 0.0038397135 -0.032149374
0.09841566 0.035507232 -0.0151247345 0.03337455 0.11736638 0.008236742 0.011745738 0.012244101
-0.00042278133 -0.009835099 -0.004288797 -0.028227555 0.0075041703 -0.05127508 -0.030057015 -0.0039721625
-0.024016242 -0.08965562 -0.020830547 0.012869649 -0.014079075 -0.014860025 0.010515893 -0.00669655
0.0009793352 0.0048053083 0.05687216 0.017970968 -0.021924023 -0.015992276 -0.0814221 -0.018960398
-0.0096823415 -0.014771129 -0.012848055 0.010427616 0.002393644 0.008569424 -0.015833335 0.07087315
0.042430047 -0.026757326 -0.019409576 -0.08461846 -0.007086382 -0.012610072 0.0017679387 -0.017391475
0.020766623 -0.0054076207 0.0012068513 -0.0072302017 0.053892355 0.030580202 0.024740996 0.026413614
0.13388766 0.023872353 0.01997023 0.021752186 0.0040807235 -0.0066480543 0.003973133 -0.011149082
0.0030888198 -0.06054582 -0.027304735 0.027847234 0.013071381 0.12501779 0.031143153 0.010821196
0.018134933 0.03094026 -0.0063431673 -0.009942372 0.011151593 0.006663981 -0.06300057 -0.019401627
0.0017355487 -0.012171649 -0.088059425 -0.015541986 -0.01162346 0.0023556813 -0.0086402865 0.021580305
0.005726627 0.025080707 0.0041616983 0.06855414 0.03917987 5.5548502e-05 -0.005611554 -0.105261356
-0.011350051 -0.016713236 -0.023101019 -0.019269561 0.01130999 -0.008698896 0.00090777245 0.0017601722
0.057882622 0.035457432 0.032580618 0.025884511 0.13818873 0.019069852 0.008857131 0.032886922
0.014350871 -0.016605819 0.016167758 -0.011950192 0.010371762 -0.057899486 -0.030475283 -0.015599881
-0.017426435 -0.11722526 -0.01876762 -0.015966093 0.0005939903 -0.008548128 0.011627595 0.004823746
-0.011782223 -0.018525427 0.087411664 0.028441286 -0.0125853205 -0.023594787 -0.07236067 0.0017710642
0.005184619 -0.020521518 -0.018375607 -0.0118801 -0.005740939 -0.016797557 -0.023869457 0.0620232
0.032504383 -0.0034946732 0.010940605 0.059610676 0.006159631 0.013827864 0.026277784 0.02593697
-0.014101163 0.01751139 0.022163622 0.0046506124 0.08892838 0.07947714 0.026332915 0.018377513
0.12628585 0.01598654 0.0064584636 0.015474407 0.007352769 -0.010559082 -0.0036679995 -0.025952155
0.0059234113 -0.0868189 -0.04862609 0.0066503733 0.0363387 0.12036721 0.033637896 -0.0076191095
0.007265686 0.021245776 -0.02763409 -0.0068068313 -0.015677134 0.010683242 -0.06454034 -0.030810421
0.022878064 0.0239329 0.115233324 0.02667711 0.032840095 0.019649653 0.033779904 -0.009933538
0.017645098 0.012120856 0.0018887287 -0.06269667 -0.02296528 -0.022991758 -0.039409075 -0.08317873
-0.013572135 -0.020562258 0.0075630466 0.010484502 0.019284487 0.0060170204 0.028772464 -0.0053486214
0.065313876 0.038637023 0.028262852 0.026384538 0.10690057 0.022997648 0.0051713064 0.0070549985
0.010805728 -0.0017811958 0.008737269 -0.013886019 0.0053041363 -0.0377726 -0.01352963 0.009683288
-0.03409053 -0.08064707 -0.02357883 -0.004797825 -0.022200769 0.004062335 -0.015940651 0.018634884

encoder_mean.0.bias f4 [20]
00000000: 75bf 3034 50f0 8134 d4f6 3f34 e8d6 dd33
00000010: 5e7b 3c34 8b1b 0435 4ece ce34 0efb ac34
00000020: 7fb8 1635 66bb 28b4 e437 3536 a615 84b5
00000030: 7cca bfb5 ca74 cab2 0f4b 74b5 28d9 6db2
00000040: f678 8035 8237 9db3 10ba 3734 b694 e934
1.6460929e-07 2.4202973e-07 1.7878057e-07 1.0330206e-07 1.7553745e-07 4.921391e-07 3.8520596e-07 3.2220163e-07
5.614783e-07 -1.5714394e-07 2.7003634e-06 -9.841067e-07 -1.428954e-06 -2.3569005e-08 -9.100631e-07 -1.3844591e-08
9.571947e-07 -7.320979e-08 1.7110892e-07 4.3507833e-07

encoder_mean.1.weight f4 [20]
00000000: 8899 813d 9b54 ad3d 6837 733d 56c3 913d
00000010: 142a 993d 7721 823d b71c 9b3d fbad ca3d
00000020: 6e36 8a3d 3941 8c3d b9c6 b33d 551f 943d
00000030: 8075 973d ccbe ad3d a565 8c3d de6e 9f3d
00000040: dfd1 ae3d c15e 803d 1598 a33d 2606 833d
0.06328112 0.08463403 0.05937901 0.071173355 0.07478729 0.06354039 0.07573836 0.098964654
0.06748663 0.06848378 0.08778138 0.072325386 0.07395458 0.08483657 0.06855325 0.07784818
0.085361235 0.06268073 0.07987992 0.06397657

encoder_mean.1.bias f4 [20]
00000000: ba0b 643c 6d32 84bd c6c8 02bc a0e5 96ba
00000010: 505e cbbd b6de dcbc 9051 8bbc a388 44bd
00000020: a666 59bc fc74 8e3c 7bd1 40bc 2e64 13bd
00000030: 32fe f33b f1ba 94bd 7780 3c3c 45b9 a6bd
00000040: 0c96 6fbd f438 043a 8377 0fbc 133a 3fbc
0.013918811 -0.064549305 -0.007982438 -0.0011512525 -0.09930098 -0.026961666 -0.017006665 -0.04798187
-0.013269102 0.017389767 -0.011768694 -0.03598421 0.007446074 -0.07262219 0.011505238 -0.08140806
-0.058492705 0.0005043887 -0.008756521 -0.011671561

encoder_mean.1.running_mean f4 [20]
00000000: 8cdc aabc 99fe dcbb fcda d63c 665c 16bd
00000010: f7ca d4bc bc80 12bd 03c5 943d 6bc5 a53d
00000020: affb 6f3c 7dfa 25bd 0ae6 af3d 7f7d 2bbd
00000030: f59c 58bd c8c5 333e bbae c93c 5775 153d
00000040: a5b5 cb3d 82f9 91bb f522 9c3d e177 c2bc
-0.020857118 -0.0067442176 0.026227467 -0.03670921 -0.025975687 -0.035767302 0.072641395 0.08094295
0.014647408 -0.040522087 0.08588798 -0.04186773 -0.05288406 0.17555916 0.02461945 0.036488857
0.09946755 -0.0044547925 0.07623855 -0.023738803

encoder_mean.1.running_var f4 [20]
00000000: 16d9 4a3a 7825 543a db20 5f3a 7788 233a
00000010: f481 803a 3e9c 3f3a 2614 a83a 4094 9c3a
00000020: 0911 563a 874c 683a e03a c33a ec40 883a
00000030: d0c3 153a f5e0 fc39 209e bf3a 6193 9b3a
00000040: c427 a73a 9f79 643a 9d39 4b3a 2aee 283a
0.0007738037 0.00080927415 0.0008511671 0.00062382914 0.0009804354 0.00073093537 0.0012823388 0.0011946037
0.00081659906 0.0008861501 0.0014894865 0.0010395325 0.0005713077 0.00048232792 0.0014619268 0.0011869484
0.001275294 0.0008715633 0.00077524205 0.00064441806

encoder_mean.4.weight f4 [16, 20]
00000000: 44f0 2a3c 1f69 1e3d 7e5f d6bb bc81 ea3c
00000010: c6ac d63c 981e 313d 2cf9 2abc 2c27 da3a
00000020: a6a8 323d f581 783c 636b 76bc 26f3 f73c
00000030: 1cf6 5f3d 8800 0ebd baf8 c9bc 8039 fa37
00000040: 833d 9fbb d225 e43c 2b76 25bc 3b24 b13c
00000050: d340 dcbc 1dbb 87bb 4ca6 613c c6f2 9ebc
00000060: 251c 51bb 8a3b 38bc 772f d83c aa1a 2c3d
00000070: d9fe 77bc 5502 abbc 30ff d83c 2a3e c3bc
00000080: 2249 06bc a9bb 373c d4d6 c63c f279 983c
00000090: ac18 183d 06ff 39bc e8b3 c83c ed86 39bc
000000a0: b1a2 903c 604a 223d 5bb6 a5bb 6bfa 163d
000000b0: 3dba 1f3d 82e9 053d 8715 f6bb 855b 68bb
000000c0: 2a71 fd3c b1e9 323d 35a3 5d3a da8c 283d
000000d0: 10b8 4e3d b2e3 91bb 9509 95ba d6e4 7bbc
000000e0: e394 3fbb 3200 ae3c c573 23ba d68a 2d3d
000000f0: 4f9d f7bc 7ebe 313b e78c 9f3c 08e4 5ebc
00000100: 540e b43a 537b c23b a0e8 653c 4eb0 6a3d
00000110: d231 ffbb d573 a6bc afd2 113d 326c 7fbc
00000120: e5e6 f13a ee5e 2d3c 9713 1e3d cfde 043d
00000130: 92b3 cc3c bb15 6bbb c775 1c3d f09e 9cbc
00000140: c64c 963c ef47 a03c d6a7 e4ba e1c2 1b3d
00000150: a220 763c 24ca 043d 3fed c63b f58f 3bbc
00000160: 2de1 033d 6641 073d 2825 5a3b f689 163d
00000170: b993 1f3d 6658 afbc a826 5bbc 2b04 7f3c
00000180: 74ba 233c eac4 083d 1d03 88bc d639 093d
00000190: 8999 0fbc a2c7 613c 888b 103d 5077 a9ba
000001a0: a12e 703c 9993 8d3c 1c9c 96bb 17d2 733d
000001b0: 7e83 b33a 1bcf 903b 963c f83c d81c c33b
000001c0: b86d 153c b8af 1bbc b245 6d3c cb0b 4d3d
000001d0: f06d 3c3d ca53 8a3b 7cef 493d fe54 173a
000001e0: 2466 45bd c486 17bc ad40 8e3c e8be babc
000001f0: a823 23ba b087 84bc 4852 0a3d 2ed4 243d
00000200: 94db e1bc 99b7 2fbd 75b2 d33c 88c8 f4bc
00000210: c027 9ebc 5a1a 03bc 6129 1b3d a8df 013d
00000220: bc73 0c3d 45c0 b4bc 95f0 243d 46c4 fcbc
00000230: 1a9f 7fbb d791 b03d 6df1 093b 6c5b b3bc
00000240: b721 a13d a1c7 9abb 502a 13bc fd8a af3b
00000250: 1677 463c f32f f7bc 6791 033b 06b4 7c3d
00000260: 984a e93c e42b e8bc 4a2f 88bb 4fa0 6fbc
00000270: e9bb 52bc 6628 6d3c 4c7b d9bb 3623 953c
00000280: e082 01bd 2699 a3bb d0ad a33c e404 aebc
00000290: 9349 a8ba 5636 6ebb 50c2 b83c 0cf4 533d
000002a0: 5322 4ebc 35d4 c2bc d96c 1c3d 076b b8bc
000002b0: 1392 abbb fe18 a33b 8c24 963c db2a c83c
000002c0: e784 003d 8a22 4dbc 9510 253d 8062 96bc
000002d0: bc92 413c 4870 573d 0b86 87bb 676e 963c
000002e0: 7cdd 793d 2ac0 6d3c 1572 8d3d 0fe4 f63c
000002f0: b0cc f33c f6f0 e43a 074e 713c 38de e23b
00000300: bc69 3939 13f6 51bd d6c8 153b f908 373d
00000310: 483d 153d f2e0 693c d730 913c 5892 f53c
00000320: 8ab7 5f3b 6e8a 3f3c d71e 0fbc b3b9 e83c
00000330: 04a4 473c e005 df3c 4b19 09bc d791 61bc
00000340: ed07 e13c 1351 f73c 3781 0ebc a592 943c
00000350: 4c83 163d 724f 90bc f37c bbbc bc90 343b
00000360: f3a0 2b3b 546c 1d3d f47d afbc 46a0 e83c
00000370: 3219 c43c e83c 473c 3290 0cbc 33d6 5b3c
00000380: 25c5 5e3d c34b 413c 5a47 1bbc 5980 d8bb
00000390: 2e33 59bb 76f2 7e3c e8a7 01bc bdd3 4b3d
000003a0: 1b54 a13c 9aa0 1cbd 713d 11bc db5c ebbb
000003b0: 9681 debb 7ee0 ff3c c142 e8bb be40 863c
000003c0: bc80 f2bc 1469 f3ba 8c8d ae3c 6e85 6ebc
000003d0: c67f 7fbb 12e6 c5bb bc52 2bbc 14e7 483d
000003e0: fef3 c239 b588 03bd acd7 173d ea36 2cbc
000003f0: cdb3 1abc 0e12 473b aeac c33c cfe4 dc3c
0.01043326 0.03867447 -0.0065421453 0.028626315 0.026205432 0.043242067 -0.010435384 0.0016643754
0.043617867 0.015167703 -0.015040251 0.03026731 0.054678068 -0.034668475 -0.024654735 2.9829098e-05
-0.0048596277 0.027850065 -0.010098974 0.021623721 -0.02688638 -0.0041421787 0.013772558 -0.019402873
-0.0031907645 -0.011244664 0.02638982 0.042017616 -0.015136444 -0.020875135 0.02648887 -0.023833353
-0.008196147 0.011214175 0.02427236 0.018612836 0.037132904 -0.011352306 0.024499848 -0.011323673
0.017655702 0.03962171 -0.005057139 0.03685991 0.03899597 0.032693394 -0.0075098905 -0.003545494
0.03093775 0.043679897 0.00084548007 0.04114995 0.050468504 -0.004452192 -0.0011370654 -0.015374383
-0.002923303 0.021240328 -0.00062352075 0.042368732 -0.030226378 0.0027121599 0.019476367 -0.013604172
0.001373718 0.0059351115 0.014032513 0.057297044 -0.0077879215 -0.020318905 0.035601314 -0.015589761
0.0018455653 0.010581715 0.0385929 0.03243905 0.02498797 -0.0035871107 0.03819826 -0.019118756
0.018347155 0.01956555 -0.0017445039 0.038027648 0.015022429 0.03241934 0.0060707624 -0.011447896
0.032197166 0.033021353 0.0033286307 0.036752664 0.03895924 -0.021404456 -0.013375916 0.015564959
0.009993184 0.033390917 -0.016603047 0.033502422 -0.008764633 0.013780506 0.035289317 -0.0012929235
0.014659555 0.017282294 -0.0045962464 0.05952653 0.0013695804 0.00441922 0.030302327 0.005954366
0.009120397 -0.009502344 0.014481949 0.050060075 0.046003282 0.004221414 0.049300656 0.00057728577
-0.048193112 -0.009248439 0.017364824 -0.02279611 -0.000622327 -0.016177982 0.033769876 0.040241413
-0.027570523 -0.0428997 0.02584193 -0.029880777 -0.019306064 -0.008001888 0.03788126 0.031707436
0.03429006 -0.022064338 0.0402685 -0.03085531 -0.0039004744 0.08621567 0.0021048442 -0.02189418
0.07867759 -0.0047235047 -0.008982256 0.005357145 0.012113353 -0.030174231 0.002007568 0.06169512
0.028477952 -0.028341241 -0.004156028 -0.014625623 -0.012862184 0.014474964 -0.0066370126 0.018205266
-0.031618953 -0.004992622 0.019980341 -0.021242566 -0.001283931 -0.0036348305 0.022553593 0.051746413
-0.012581426 -0.023782829 0.038189743 -0.022511972 -0.0052359193 0.0049773445 0.018327974 0.024434498
0.031376746 -0.012520442 0.040299017 -0.018357515 0.011814769 0.052597314 -0.004135852 0.01836319
0.06100224 0.0145111475 0.06906525 0.030138044 0.029760689 0.0017466831 0.014728076 0.006923463
0.00017682364 -0.051260065 0.0022855303 0.04468629 0.036435395 0.014274823 0.017723484 0.029977009
0.0034136497 0.011690719 -0.00873538 0.02840886 0.0121851005 0.027224481 -0.008367847 -0.013767681
0.0274696 0.030190026 -0.008697799 0.018136332 0.03674631 -0.017616007 -0.022886729 0.0027552089
0.0026188463 0.038433388 -0.021422364 0.028396737 0.023937795 0.012160517 -0.008579301 0.013417768
0.05438723 0.011797848 -0.009477461 -0.006607097 -0.0033142078 0.015560737 -0.007913567 0.049762476
0.019693425 -0.0382391 -0.008864746 -0.0071827 -0.00679035 0.031234976 -0.007088036 0.016388293
-0.029602401 -0.0018570744 0.02130773 -0.014558179 -0.003898607 -0.0060393894 -0.010456737 0.0490485
0.00037184352 -0.032112796 0.037070915 -0.010511139 -0.009442282 0.0030375752 0.023886051 0.026964573

encoder_mean.4.bias f4 [16]
00000000: 2d64 1936 3829 b234 9d21 17b5 2700 65b5
00000010: 56d0 1b35 98c8 4034 da8d b6b5 8c95 92b4
00000020: 079e 00b5 ea4c 0cb6 abfb 3036 4643 5435
00000030: 9800 d9b5 1081 43b6 70fe 8c35 5e53 1eb6
2.2857087e-06 3.3185074e-07 -5.63008e-07 -8.530937e-07 5.804517e-07 1.7954369e-07 -1.3601341e-06 -2.730343e-07
-4.7913676e-07 -2.0906396e-06 2.6372534e-06 7.907405e-07 -1.6167933e-06 -2.9132389e-06 1.0504864e-06 -2.359236e-06

encoder_mean.5.weight f4 [16]
00000000: eafc a63d 14fe 943d 4449 a33d 0b56 973d
00000010: 0a5a b33d 0e4a 943d 0ad7 933d e533 9b3d
00000020: be6a 933d d3cb 8c3d 1c7f a03d 08dc b63d
00000030: 5ad4 983d 9af9 b43d 047b ac3d 9c47 b53d
0.08153708 0.07275024 0.07972959 0.07389458 0.08757408 0.07240687 0.0721875 0.075782575
0.07198094 0.06874814 0.07836744 0.089286864 0.07462378 0.0883667 0.08421901 0.08851549

encoder_mean.5.bias f4 [16]
00000000: 6b63 f23c 26d9 d43c 230f d73c 58a3 673c
00000010: 8b08 233c 810b b2bc b52b d33c 4d5e b1bc
00000020: 04b7 cb3c 6b53 4f3d 5690 093d 34ee bbbc
00000030: 09d3 8d3c 1488 1a3d 2d0f 0b3c 7539 043d
0.029588422 0.02598245 0.026252335 0.014138065 0.009950767 -0.021734001 0.025777677 -0.021651411
0.024867542 0.050616663 0.033584915 -0.022940733 0.017312543 0.03772743 0.008487505 0.032281358

encoder_mean.5.running_mean f4 [16]
00000000: 3c88 973b ef87 6f3a 7ff2 083c d304 483b
00000010: ef8c d53b 9adb d03b 6a95 95ba 3803 b23a
00000020: f320 bf3a 9788 eb3b 6f2f 813b 2325 473b
00000030: 829f 673a 754b 343b 7cfe c63a 4490 1d3b
0.0046243947 0.0009137382 0.008358597 0.0030520454 0.0065170447 0.006373835 -0.0011412327 0.0013581282
0.0014581963 0.0071879136 0.003942422 0.0030387125 0.0008835719 0.0027510796 0.0015182043 0.0024042288

encoder_mean.5.running_var f4 [16]
00000000: f713 2039 4841 0d39 d348 4539 e524 1e39
00000010: e72c 1a39 c511 d738 f02f 8b39 0ae0 0c38
00000020: 7174 3239 3dcc 9738 beaf 0639 6f9c 9038
00000030: 6a33 0939 2177 2b39 7ba2 1f39 ab69 0239
0.00015266227 0.00013471127 0.00018814513 0.00015081798 0.00014703312 0.00010255309 0.00026547862 3.3587254e-05
0.0001701878 7.2382834e-05 0.00012844705 6.895593e-05 0.00013084491 0.0001635221 0.0001522395 0.0001243713

encoder_mean.8.weight f4 [14, 16]
00000000: 0acf 04bd 966a 033c 037d 7fbc 36bd 873c
00000010: f6a2 e9bc a1d3 6d3c 55c2 b3ba b212 e13b
00000020: e552 a23c eb41 b83a 9037 22bd 8865 463c
00000030: d086 313c 3546 1ebd 8a0f d53c 6b9a 08bd
00000040: 3015 e0bc ce29 cf3c 8e40 febb fbc6 6e3c
00000050: 3b4d 00bd feb3 913c d229 333b 95b0 063c
00000060: 259b da3c 1256 253c 8091 19bd 5596 e63b
00000070: f702 943c 8aa9 07bd 0391 ad3c e88e f1bc
00000080: 266a 1e3d dfac c0bc 5eb5 023d d7d3 c9bc
00000090: 2d63 f43c ce86 69bc c6ef 79bc cfab 213d
000000a0: c280 6abc d7f2 c93c 1b08 54bc cabb 323d
000000b0: 5d5e 9abc 67b1 d83c 7ec0 b2bc 81e8 0c3d
000000c0: 21c7 eebc 8e6d de3c c2f1 2abc 5e4f 813c
000000d0: a9e3 d2bc dc42 963c ee58 c63c 4ab9 3e3b
000000e0: f3a0 c13c 0d7d 723c 3a2c e6bc b1af 48ba
000000f0: ed78 f53c 0cb2 01bd 0f3e 093d cfbb e4bc
00000100: 9626 09bd 9d29 c63c 01a1 60bc 7617 783c
00000110: 8fd4 debc ff3e a73c 66f8 193c de43 383c
00000120: af90 2c3c 5a84 c83b 1f25 0abd e670 233c
00000130: 73a1 f23c 6503 07bd f392 eb3c d360 f3bc
00000140: 7b87 b1bc c637 da3c 28db d8ba 88bd c63c
00000150: d8d5 b2bc dcd1 153d c0c5 d73c c6e1 153a
00000160: 0f28 3a3d 1d4f 933c 8f33 dcbc 7cc8 a4bb
00000170: e850 923c d5ba 0ebd ce62 c53c 18fb 13bd
00000180: 9b35 edbc 3e61 063c 1f34 f5bb 2f98 3f3c
00000190: 865a 1bbd fd2b 103d 2142 d33c 2d20 d53b
000001a0: ba74 963a e406 133d 3d70 fcbc a358 6cbb
000001b0: 782f be3c e0c9 0abd 6a5c 703c 6fcd 19bd
000001c0: ae1f ae3c c07e dcbc dcdc 333c 0a76 c8bc
000001d0: 7415 263c 4586 1bbc 8656 90bc 47a5 5b3d
000001e0: 0705 a2bc 7721 473d 4f28 8b3c 29d4 f23c
000001f0: 0355 dabc a35b ab3c 7d1e b4bc 02b4 9a3c
00000200: d0b3 d1bc f815 013d 558d 5cbc f0c9 053c
00000210: c7eb b9bc bfdd 103d bb2e c03c 79c6 c4bb
00000220: b27d c13c f290 933c 3d08 bcbc 7c17 d2bb
00000230: cf28 3a3d e20b 05bd 0d3a 923c 46d3 c8bc
00000240: faeb b23c a354 05bd cb70 e43c 9bd8 c7bc
00000250: ed77 ea3c 441c dfba d7b4 69bc 7f4a 313d
00000260: 0410 ebbc 1327 213d b3e0 c23c 7a12 353d
00000270: aac0 c0bc 2aff c13c c72e 03bd aa60 b73c
00000280: 3c6d 183d 4cb7 acbc c4d3 773d 8174 b7bb
00000290: 0292 073b ab8d c63a 0908 b9bc 9926 143d
000002a0: c15b 2cbc 6daa 103d 56c4 2fbc 4e0e 0d3d
000002b0: 46db 91ba cdd5 923c 6328 96bc 395a dd3c
000002c0: b196 dbbc 6867 f03c 4237 0ebc df81 ae3c
000002d0: 287a d9bc 604c 053d 3fb1 a13b 22db a53b
000002e0: 6f48 dc3c bd31 833c a98d e8bc 1366 123c
000002f0: 283e ce3c ea32 fcbc 3081 113d 4cf0 b1bc
00000300: fbf2 b3bc 83f9 9bbc b51d 5fbd 9aba 4ebd
00000310: 3764 d3bc 8fa1 f6bc 5ae5 54bc e88a 42bd
00000320: 81ed 93bc 8868 51bd 904c ffbc c1b1 11bd
00000330: 5a02 23bd 4397 85bc 62ba 4bbd 28a7 b4bc
00000340: e4b7 eabc 497a ab3c d325 a6bc 8a07 d43c
00000350: 73c5 0bbd 2d04 b43c cffd a73c 39c4 e2ba
00000360: 6031 be3c 7291 9539 c4d9 e4bc 38a8 e4ba
00000370: 27e6 ad3c 82c2 f2bc 01a0 1b3d 48e2 e4bc
-0.03242401 0.008021018 -0.01559377 0.016569715 -0.028520089 0.014515788 -0.0013714532 0.0068686837
0.019814918 0.0014057731 -0.03960377 0.012109168 0.010835364 -0.038641173 0.026008386 -0.03335039
-0.027353853 0.025288489 -0.0077591604 0.014573808 -0.031323653 0.017786022 0.002733816 0.008220811
0.026685307 0.010091322 -0.037492275 0.007036964 0.01806782 -0.03312067 0.021187311 -0.029487088
0.03867545 -0.023519931 0.031911246 -0.024637146 0.029832447 -0.014253331 -0.01525492 0.03947049
-0.014312925 0.024651928 -0.012941386 0.04363612 -0.018843824 0.02645178 -0.021820303 0.03440142
-0.029147686 0.02715185 -0.010433616 0.015784916 -0.025743322 0.018342428 0.024212327 0.002910214
0.023636317 0.014800322 -0.02809726 -0.00076555746 0.029964888 -0.03166394 0.03350645 -0.027921585
-0.033484064 0.024189765 -0.013710261 0.015142312 -0.027200965 0.020415781 0.009397602 0.01124665
0.010532542 0.006119293 -0.033726808 0.009975648 0.029618 -0.03296222 0.028756594 -0.029709255
-0.021671047 0.026637923 -0.0016544806 0.024260297 -0.021830484 0.03657709 0.026339412 0.0005717542
0.04544836 0.01798206 -0.026880054 -0.0050287824 0.017860845 -0.034846146 0.024094965 -0.036128134
-0.028956225 0.008201895 -0.00748302 0.011693998 -0.037928127 0.0351982 0.025788369 0.00650408
0.0011478879 0.035895243 -0.030815238 -0.0036063574 0.023215994 -0.03388393 0.014670471 -0.037549432
0.02125534 -0.026915908 0.01097795 -0.024470348 0.010136951 -0.009492462 -0.017619383 0.053624418
-0.019777788 0.0486159 0.016986994 0.029642181 -0.026651865 0.02091772 -0.021987194 0.018884663
-0.025598437 0.03151509 -0.013461431 0.008165821 -0.022695435 0.035367724 0.023459783 -0.006005105
0.023619507 0.018013451 -0.022953147 -0.006411491 0.045449074 -0.032482035 0.017849946 -0.024514806
0.021841038 -0.03255142 0.027885815 -0.024395278 0.028621638 -0.0017021974 -0.014264307 0.043283936
-0.02869416 0.039343905 0.023788786 0.044207074 -0.02352937 0.023681242 -0.032027032 0.02238496
0.03721355 -0.021083497 0.06050469 -0.005598605 0.0020686393 0.0015148422 -0.02258684 0.036169622
-0.010519923 0.03531878 -0.0107279625 0.03443747 -0.0011127971 0.017924214 -0.018329805 0.02702056
-0.026805254 0.029346183 -0.008680167 0.021302162 -0.026547506 0.03254354 0.0049344595 0.005061523
0.026890008 0.016014928 -0.028387861 0.008935469 0.025176123 -0.030785996 0.035523593 -0.021721028
-0.021966448 -0.019039875 -0.05447169 -0.050470926 -0.025804622 -0.030106334 -0.012994135 -0.047495753
-0.018057587 -0.05112508 -0.031164438 -0.03556991 -0.039797164 -0.016307479 -0.049738295 -0.022052363
-0.028652139 0.020932334 -0.020281708 0.025882501 -0.03412385 0.021974647 0.020506768 -0.001730091
0.023216903 0.0002852786 -0.02793587 -0.0017445153 0.02122791 -0.029633764 0.03799439 -0.02793993

encoder_mean.8.bias f4 [14]
00000000: b0be 33b4 c6f7 4b35 1428 8634 f3d1 80b5
00000010: bcd6 f0b5 a07f 8bb2 2274 8ab5 38ce 4736
00000020: a26f 9835 1f54 d7b4 6a76 bab3 cf76 83b3
00000030: 5d97 48b5 b148 04b4
-1.6740046e-07 7.598395e-07 2.4988606e-07 -9.597846e-07 -1.7943889e-06 -1.6239767e-08 -1.03156e-06 2.9773346e-06
1.1357372e-06 -4.0108077e-07 -8.682839e-08 -6.121774e-08 -7.472607e-07 -1.2319903e-07

encoder_mean.9.weight f4 [14]
00000000: dc83 c03d d152 ab3d 7a2f b43d b5e2 a83d
00000010: e4ab b13d bfc9 963d 3077 7f3d d7d8 ab3d
00000020: 6d0c 8c3d 7c8f b03d 5ab0 ab3d 280e b43d
00000030: edb7 053e 8c4e 983d
0.0940015 0.08365405 0.08798118 0.08246366 0.08675364 0.07362699 0.062369525 0.08390968
0.068383075 0.086211175 0.08383246 0.087917626 0.13058443 0.074368566

encoder_mean.9.bias f4 [14]
00000000: 3f51 813c a55f bb3c 0342 0d3d 4001 073d
00000010: 6ef7 883c 89ce 113d f5e8 dc3c 1849 013d
00000020: e18b f93c 6f9d 063d b665 c93c f626 7e3c
00000030: de5a 463d fe19 093d
0.015785811 0.022872755 0.03448678 0.032960176 0.016719546 0.035597358 0.026966551 0.03156385
0.030462207 0.032864984 0.024584632 0.015512219 0.0484265 0.033472054

encoder_mean.9.running_mean f4 [14]
00000000: 56d7 a6bb c938 10bb 517c a63b 5211 2439
00000010: ebfc 17bb 830f ad3a 6d7b 04bb 853c 753b
00000020: 96d7 233a 3e7d 943b 9781 c93b 624d f939
00000030: 1674 9dbc ccf5 d0ba
-0.005091588 -0.0022006503 0.0050807376 0.00015646711 -0.0023191522 0.0013203475 -0.002021517 0.0037420106
0.00062500814 0.0045315316 0.0061494815 0.00047550636 -0.019220393 -0.0015942394

encoder_mean.9.running_var f4 [14]
00000000: 9f57 7739 1ce5 7839 575c b539 2783 9c39
00000010: 0bb7 8039 a99b af39 9140 8539 ed6f 8e39
00000020: 91bc 9f39 1274 ce39 72a0 8539 6fd6 8c39
00000030: adc1 d039 199b ac39
0.00023588397 0.00023736473 0.0003459181 0.00029852355 0.0002455044 0.00033494577 0.00025415843 0.00027167742
0.00030467336 0.0003937786 0.00025487278 0.00026862646 0.0003981715 0.00032921953

encoder_mean.12.weight f4 [12, 14]
00000000: 4284 f0bc fc82 f0bc c2b4 e63c 0e0e 00bd
00000010: 5838 f3bc acd2 afbc 7ad0 a8bc 97b1 f43c
00000020: e2fc f3bc 5e57 f53c 5c07 1d3d 8049 c6bc
00000030: bc46 2ebd e3f5 debc 91a5 d2bc d456 bdbc
00000040: 0f47 d83c 4022 a8bc 7bb2 afbc da5b 8bbc
00000050: f8a4 4cbc f036 153d ddcb cfbc d14c 053d
00000060: 7858 f43c 81b4 82bc 2e08 5cbd 054c 96bc
00000070: 1493 ae3c 38bb 2c3d cbb2 c4bc 3dbf 743c
00000080: 0d1e bf3c e9f5 453d e9d2 543b b7dc bbbc
00000090: 953c 253d 8811 b4bc c73d c3bc 91cd 1f3d
000000a0: c41f 65bd 1ad1 203d a83a ed3c df8e dd3c
000000b0: eba7 d9bc deac 0d3d 9b38 f33c 7afe 3a3d
000000c0: 2953 773c 8400 e3bc 694b ca3c de08 edbc
000000d0: 8742 f9bc a9b4 8c3c e966 53bd 0d04 c93c
000000e0: 455c 003d ba63 023d 7069 9dbc 9ef3 bc3c
000000f0: 05de 193d b325 073d 8113 d33c f395 c5bc
00000100: 33fd 953c 9af2 a6bc 52fc a1bc 9053 3c3d
00000110: 38b2 79bd 1093 0a3d bbc6 de3c 54ab eb3c
00000120: 19d5 bdbc f8e0 193d a559 493c 0e76 453d
00000130: 8d03 be3c 8962 cfbc 5439 913c 159e abbc
00000140: a920 cabc 0397 ac3c c9e0 59bd 738f 093d
00000150: 8782 063d 9ef5 313c 62e8 8fbc 1e5e 2a3d
00000160: 09b7 343d 5a34 d93c 4bec bd3c 48f7 c2bc
00000170: 44e4 543c d859 96bc 9ee2 c3bc e1d8 fd3c
00000180: e305 6bbd 2f8c a03c 7639 e3bc 0f3e f1bc
00000190: 6dc9 2c3d 4c69 dcbc 4dd1 f2bc 17ad 95bc
000001a0: 8cc6 92bc d7e8 d33c 42fb e9bc ef7f ef3c
000001b0: fead c13c ffa4 a6bc 003f 47bd bd63 babc
000001c0: bcf1 e4bc ff0b f5bc cfc6 ff3c 62e7 c1bc
000001d0: 5f88 07bd 7b28 b1bc 4748 90bc fcb4 1a3d
000001e0: 9525 05bd 6112 b23c d5f3 9e3c 5c39 aabc
000001f0: 0823 3cbd aeac d0bc 5376 bbbc e0f7 bebc
00000200: a9ad dd3c 052b c9bc fcf7 c4bc 389f 9cbc
00000210: 4e35 71bc d119 133d 93c2 e2bc 85ff 263d
00000220: 590f 223d 63a1 8fbc 0120 59bd 5404 b7bc
00000230: 98f2 9ebc 4e1d c1bc ad8b 493d 7edd bbbc
00000240: 678f c0bc 6705 88bc b105 42bc 4fa6 0c3d
00000250: 2d99 bcbc 3c87 113d 813b 2d3d 078b 89bc
00000260: aa8a 1cbd b02b b1bc b176 e7bc 7350 e9bc
00000270: 17fb c43c 33b6 a9bc 2d88 f4bc 8fa2 5dbc
00000280: 2806 37bc a7e1 af3c e261 e6bc 2d52 e13c
00000290: f7a6 223d bcc0 9ebc 5a38 55bd 0801 b0bc
-0.02935994 -0.029359333 0.028162364 -0.031263404 -0.029689953 -0.02146276 -0.020607222 0.029869838
-0.02978367 0.029948886 0.038337097 -0.02420497 -0.042547926 -0.027216857 -0.025713714 -0.023112692
0.02640107 -0.020524144 -0.02144741 -0.017011572 -0.0124905035 0.036429346 -0.025365764 0.03254396
0.029827341 -0.015955212 -0.05371874 -0.018346796 0.021310367 0.042170733 -0.024011036 0.014938173
0.023329759 0.04833022 0.0032474345 -0.022932393 0.04034098 -0.021981016 -0.023833169 0.039014403
-0.055938497 0.039261915 0.028958634 0.027045665 -0.026569327 0.034588687 0.029690078 0.045652844
0.0150955105 -0.027710207 0.024694161 -0.028934892 -0.03042723 0.01717599 -0.051611815 0.024538064
0.031337995 0.031833388 -0.019215316 0.023065384 0.03756525 0.032994937 0.025766136 -0.024119353
0.018309211 -0.020379353 -0.019773636 0.04597813 -0.06096098 0.033831656 0.027194371 0.028768219
-0.023172902 0.037568063 0.012289439 0.04820829 0.023195053 -0.02531554 0.017727531 -0.020949403
-0.024673777 0.021068102 -0.053192887 0.03358407 0.032839324 0.010861782 -0.017566863 0.041593663
0.04411987 0.026514221 0.023183962 -0.023799554 0.012993876 -0.018353388 -0.02391177 0.030987205
-0.05737866 0.019598095 -0.02773736 -0.029448537 0.042184282 -0.026905678 -0.029640818 -0.018271012
-0.01791694 0.025867863 -0.028562192 0.029235808 0.023642536 -0.020342348 -0.048644066 -0.022752637
-0.0279473 -0.029912947 0.031222729 -0.023669902 -0.033089038 -0.021625748 -0.01761259 0.037770256
-0.032506544 0.02173728 0.019403378 -0.020779304 -0.045931846 -0.025472965 -0.02288357 -0.023311555
0.027060347 -0.024556646 -0.02404403 -0.01911889 -0.0147221815 0.035913292 -0.02768067 0.040771026
0.039565418 -0.01753301 -0.053009037 -0.022340931 -0.019402787 -0.023573544 0.04920547 -0.022932764
-0.02350588 -0.016604139 -0.011842177 0.03433829 -0.023022259 0.03552936 0.042293075 -0.016789926
-0.038218178 -0.021627277 -0.028254839 -0.028480744 0.02404551 -0.020716762 -0.02985009 -0.0135275265
-0.011170901 0.021469904 -0.028122846 0.027505005 0.03971001 -0.019379012 -0.052055694 -0.021484867

encoder_mean.12.bias f4 [12]
00000000: e6ca 1434 0e3e e9b5 7e05 b4b5 7e92 5435
00000010: bfc1 4035 d0ac 6cb5 066c 1634 2b12 6835
00000020: 509b 5b35 6404 9b34 329f 28b5 8425 7b35
1.3857388e-07 -1.7377913e-06 -1.3412644e-06 7.918933e-07 7.180751e-07 -8.8168326e-07 1.4009137e-07 8.645317e-07
8.1809867e-07 2.8874194e-07 -6.2816537e-07 9.355938e-07

encoder_mean.13.weight f4 [12]
00000000: db8c 9b3e 32f1 973e 5145 a63e 78ed a03e
00000010: 8ec5 a83e e461 aa3e 95e1 a43e 904e 973e
00000020: 14d6 983e dd72 9f3e d631 a03e a220 9a3e
0.30380902 0.29676205 0.3247476 0.31431174 0.32963222 0.3327781 0.32203355 0.29552126
0.2985083 0.3114232 0.31288022 0.30103022

encoder_mean.13.bias f4 [12]
00000000: ccee 203e 0b2a 1f3e d011 313e 6389 363e
00000010: 58b6 293e 93b8 393e 4795 233e 00dc 253e
00000020: 4d45 253e 97f8 293e 84f0 213e 7acc 103e
0.15716094 0.15543382 0.17291951 0.17825846 0.16573465 0.18136816 0.15974914 0.16197205
0.16139717 0.16598736 0.15814406 0.14140502

encoder_mean.13.running_mean f4 [12]
00000000: 10c9 10bc 9447 e5bb dd31 5f3b 3151 023b
00000010: f522 6d3b e379 3f3b e931 233b 2c7d 0bbc
00000020: e987 14bc 57ea e3bb d0c4 86bb d374 0abc
-0.008837 -0.006997058 0.003405682 0.001988482 0.0036184166 0.0029216937 0.0024901575 -0.00851373
-0.009065607 -0.0069554257 -0.0041128173 -0.008450705

encoder_mean.13.running_var f4 [12]
00000000: 4cf8 cc39 075a 9a39 4a70 cf39 61a9 c739
00000010: 1a51 d139 bdfb b739 6503 aa39 c8ef b539
00000020: 35f0 b039 03de bb39 031b c339 490b 9f39
0.00039094908 0.00029440245 0.0003956578 0.00038082435 0.00039924012 0.0003509204 0.00032427456 0.0003470166
0.00033748304 0.0003583283 0.00037213424 0.0003033525

encoder_mean.16.weight f4 [10, 12]
00000000: b7c8 c139 cb90 2e39 9ac9 e239 3dc6 2c3a
00000010: 6b5e 253a 5f18 023a 649f 443a 60b2 bf38
00000020: de23 023a 3ce7 bbb8 2e4b 1f3a 7093 21b9
00000030: dbac 6dba e8f6 5eba a866 513b a7f0 423b
00000040: e1de 333b 8db3 8b3b ffa5 0d3b 6db3 59ba
00000050: a089 8fba 488e dab9 5a49 8fba 88be b5ba
00000060: ca07 afbe dd15 abbe 91ee ba3e 060b b73e
00000070: 27c9 bc3e c2d3 c13e bfca b73e 485b abbe
00000080: 9cc9 acbe 27ba b3be 91ab b4be a137 aabe
00000090: 3c99 99ba 5511 b639 d86f aa37 7f72 75ba
000000a0: ad4d 13ba 38ad 6e39 1bca 0fba d0aa 7338
000000b0: 7dd3 fc39 ab3d c7b9 1176 7f39 fc94 8c38
000000c0: 29d4 80ba 9480 3a39 487c e73a bff2 803a
000000d0: c2c9 d23a fa35 db3a 90b2 d73a 6aab 77b9
000000e0: 2b75 3cba 8c10 eb39 5c4c 17b9 4885 83b9
000000f0: 1530 353a 761b 8fb8 665e dcba b2b7 30bb
00000100: e75b 6abb 54dd 8eba e254 55bb f323 dd39
00000110: e601 a4b9 8a9e 84ba 0296 4b3a 1d04 3b3b
00000120: ec60 bdba f6d7 69bb 0623 7b39 6d14 87b8
00000130: 6567 7439 0893 123a 301d 52ba d272 e4ba
00000140: 70e1 2bbb 860c 1cbb 20e4 47bb 4a48 37bb
00000150: ce80 33ba c4e2 2bb9 20b1 0cb8 0d09 1cba
00000160: bac8 4bb9 1f05 1339 eafc 39b8 e6af 6739
00000170: 60c8 e839 71f2 53ba d029 2538 b754 0b3a
00000180: b79b 3cba 8f03 833a db56 7a39 f025 f0b9
00000190: 4249 57ba badc 96b9 3753 5bba 29bf 8db9
000001a0: b80d 94b8 a0e8 4f3a 30eb e638 bea0 4f3a
000001b0: afc3 f23a d2c4 c23a 5648 9139 8de7 4dba
000001c0: 12cc cd38 6bb2 d5b9 11a8 3039 ce33 e03a
000001d0: 2b95 bc3a cade fb3a 6a2b 853b 53dc e53a
0.00036961373 0.00016647873 0.00043256284 0.0006590819 0.000630832 0.0004962738 0.00075005577 9.140815e-05
0.0004964451 -8.9599256e-05 0.00060765713 -0.00015409081 -0.000906659 -0.000850542 0.0031952057 0.002974549
0.0027446079 0.0042633475 0.0021613834 -0.00083046296 -0.001095105 -0.00041686208 -0.0010931895 -0.0013865987
-0.3418563 -0.33415118 0.36510137 0.35750598 0.36872217 0.3785687 0.3589687 -0.3346808
-0.33747566 -0.3510296 -0.35287145 -0.33245566 -0.0011718641 0.00034726658 2.031766e-05 -0.00093630695
-0.00056191796 0.00022761978 -0.0005485133 5.8094796e-05 0.00048222757 -0.00038002184 0.00024362678 6.703471e-05
-0.0009828854 0.00017786241 0.001766094 0.0009837969 0.0016081857 0.001672446 0.0016456414 -0.00023619612
-0.000718909 0.0004483502 -0.00014428928 -0.0002508557 0.0006911767 -6.823886e-05 -0.0016812801 -0.002696496
-0.0035760344 -0.0010899701 -0.0032551815 0.0004217919 -0.00031281932 -0.0010118049 0.00077661884 0.0028536387
-0.0014448441 -0.0035681701 0.00023950273 -6.441106e-05 0.00023308171 0.00055913674 -0.00080152135 -0.0017429239
-0.00262269 -0.0023811175 -0.0030500963 -0.0027966672 -0.00068475015 -0.00016392308 -3.354356e-05 -0.00059522764
-0.00019434365 0.0001402092 -4.434298e-05 0.00022095404 0.0004439978 -0.0008085138 3.9378006e-05 0.00053150527
-0.0007194834 0.0009995567 0.00023874214 -0.00045804633 -0.00082125154 -0.00028774684 -0.0008366587 -0.0002703604
-7.059745e-05 0.0007931087 0.00011011062 0.0007920376 0.0018521453 0.0014859682 0.0002771045 -0.0007854633
9.813173e-05 -0.00040759458 0.00016847278 0.0017105283 0.0014387717 0.0019216177 0.0040640133 0.0017536975

encoder_mean.16.bias f4 [10]
00000000: d019 103a 43d5 7e3a 66dc b13d a157 4939
00000010: 3e32 28ba 656c a43a 68d5 e13a 50bc b2ba
00000020: 2ac0 05ba a845 02bb
0.00054970104 0.00097211095 0.08684616 0.00019201498 -0.0006416178 0.0012544511 0.0017229738 -0.0013636444
-0.0005102182 -0.0019877944

encoder_var.0.weight f4 [20, 13]
00000000: baf1 fab4 20f2 6a34 8d7e d935 f0af 7f35
00000010: 2c05 e334 6013 8935 2534 0135 3d5c 32b4
00000020: 54e3 9733 d2ae 8033 473e 4535 a6b1 5434
00000030: 08c8 a1b4 9dbd 983b 9c9b c3b9 d699 b13c
00000040: f97d 803c c27e 213b 5b1e 863c 5bf2 613c
00000050: c61a 07bb 80d5 16bb 551c 7f3a 66b5 be3b
00000060: d550 65bb d0f3 5f3b 56d6 9b33 f403 92b3
00000070: f295 93b3 b904 d8b3 6695 ecb3 e351 82b3
00000080: b443 2833 9a73 ecb2 22a2 3433 d60e 2233
00000090: 93ba 3d32 8c95 9832 75ce b832 a363 5732
000000a0: a02c dd30 a9bc ad31 4778 81b1 c8ae b432
000000b0: 9ef8 c9b1 88e8 a632 0b15 0c31 ae10 8e31
000000c0: b37a 60b2 2720 2332 46f3 0233 6bee 3a33
000000d0: 7018 e2ba e193 503c b2c9 aebd 24d8 06bc
000000e0: e303 8fbb 80e9 15bc f279 56bb f821 2c3c
000000f0: 8d03 bbba 698b abbb fe17 02bc 751e 5bbd
00000100: b30a e5bc 88a3 b8b1 7085 e731 621a 8eb2
00000110: fc88 abb2 3f8d 7e32 32bf 9232 e3f4 6b32
00000120: 3194 a731 3b1a 3331 8553 2332 706c acb2
00000130: 353e 91b2 a6ca 1a33 a320 9eb2 d853 1632
00000140: 319d 7633 ceef 00b3 439b a932 4b49 0633
00000150: b0ca 9cb0 abce e8b2 91d3 53b2 6bdb 9a32
00000160: f714 cfb2 33f2 05b2 6ae8 35b2 313e 9b36
00000170: 740c a137 daa2 a538 d144 a738 03ee c237
00000180: ca8d af38 90f6 ac35 5c56 9036 60ba e337
00000190: a83c feb7 72c3 52b7 c064 50b8 fd45 1e37
000001a0: 23e8 1bb9 1512 31b9 5ac3 02b9 801e 77b9
000001b0: 1cfe c3b9 bf3b 07b8 473f b9b9 c097 d339
000001c0: 6007 b0b7 afd9 7db8 6368 8bb9 040a 14b9
000001d0: 0a99 f0b8 3cea 61b2 ad7e c132 ac5e c6b1
000001e0: 8fda 5f32 0274 4b31 c0ad 06b2 1724 82b2
000001f0: 2410 5332 6493 ee31 33af 82b2 bc60 85b2
00000200: 5fa0 2832 e50a 8eb0 5cd1 6a33 4e30 37b3
00000210: af48 5833 8ce6 c9b2 c475 f333 7664 6633
00000220: 43c8 6fb2 c64b 4ab3 dff9 30b3 1b99 3634
00000230: b677 a033 c031 09b4 c794 07b4 ee11 0736
00000240: e482 aab4 2584 8436 d96c a436 8bad 9e36
00000250: f95f 9536 b990 6136 ae7b 5c35 c8c8 2135
00000260: 1567 1235 b9f0 22b5 bc78 e5b3 fe36 b634
00000270: d583 bb3b db80 5fbb 9c2e 8d3d ecf1 923b
00000280: 8190 01bb a17a d33b 203f 2db9 6133 0ebc
00000290: 36e6 2bba 240a 6e3c 321f 1e3c ed6c 9f3d
000002a0: 359a 223d db10 cf36 9261 fc36 77dc 4537
000002b0: 2e33 a336 8b80 2437 e857 ea36 0fc1 1337
000002c0: 24ef 14b7 4df8 59b5 dc86 dbb4 51eb 2537
000002d0: 427c e736 e99d 8a36 fddd a63b a0a3 ff38
000002e0: 47e6 033d 6cbf fd3c 33ac 9b3c 19a9 c13c
000002f0: daf1 803c 9854 58bc b74b 14bc 9c2f 3cbb
00000300: 7ba1 a33c f27b 42bc 0c70 d8bb d7e8 33b4
00000310: 2798 4234 5ac7 8fb4 84c2 1932 1ae5 28b3
00000320: 2b3a 9cb4 cb59 cb34 f19b 6b33 a090 63b3
00000330: be6c 2c34 c66a 2433 ad17 a1b4 b20a e8b4
00000340: 7a5d ee34 ebaa 0135 0901 5034 465c 6833
00000350: 6bc9 b5b3 bdc7 9734 c3b0 c133 dc3a 20b4
00000360: aac6 1e35 a0cb 9db4 1899 8833 8e5e 8835
00000370: 209d 8135 4751 ceba 5c4b 983b 314a 7e3c
00000380: a987 743b c727 fcbb 4559 da3a 6242 a33b
00000390: b426 233b 3856 e7ba 637a 6e3b 88fb b63b
000003a0: 036f 28bd 1710 c6bc 441c 0330 8251 c931
000003b0: 36cb 9632 4c31 ca32 5df4 a1b2 1a48 5c31
000003c0: 8e8f c931 faa1 9431 bf8d 5fb2 445b 0c33
000003d0: 8b9d 65b2 e67c 2033 a12b b5b2 1318 5f32
000003e0: 8951 cd31 1853 5332 0f78 5532 426c 00b1
000003f0: 1a43 49b2 66cb 2832 bab3 0eb0 43ce c2b1
-4.6742008e-07 2.1881033e-07 1.6204591e-06 9.5250925e-07 4.2285808e-07 1.0212934e-06 4.8132125e-07 -1.6611098e-07
7.072836e-08 5.992264e-08 7.3478844e-07 1.9808667e-07 -3.013413e-07 0.0046612755 -0.00037309236 0.0216798
0.015685068 0.0024642204 0.016371896 0.013790692 -0.0020615323 -0.002301544 0.00097317 0.005819964
-0.0034990807 0.0034172423 7.2567374e-08 -6.799374e-08 -6.872496e-08 -1.0059143e-07 -1.1016782e-07 -6.068492e-08
3.9177124e-08 -2.7526585e-08 4.2056975e-08 3.7732057e-08 1.104367e-08 1.7763135e-08 2.1514305e-08 1.2537302e-08
1.609255e-09 5.056411e-09 -3.768068e-09 2.103424e-08 -5.8781344e-09 1.9430686e-08 2.0384643e-09 4.13464e-09
-1.3066415e-08 9.495159e-09 3.048924e-08 4.352334e-08 -0.0017249715 0.01273057 -0.08534564 -0.008230243
-0.004364477 -0.009149909 -0.0032726494 0.010506146 -0.0014268026 -0.005235125 -0.0079402905 -0.053495843
-0.027959203 -5.373696e-09 6.738155e-09 -1.6542973e-08 -1.9969313e-08 1.48168615e-08 1.7083583e-08 1.3734481e-08
4.877187e-09 2.6062839e-09 9.506839e-09 -2.0072747e-08 -1.690851e-08 3.6040227e-08 -1.8408462e-08 8.750213e-09
5.7419303e-08 -3.0020423e-08 1.9744794e-08 3.1265966e-08 -1.1408101e-09 -2.7102336e-08 -1.2329921e-08 1.802774e-08
-2.4107505e-08 -7.796689e-09 -1.05884315e-08 4.6266e-06 1.9198495e-05 7.8981466e-05 7.9759986e-05 2.3237435e-05
8.3710605e-05 1.2886758e-06 4.301588e-06 2.7147296e-05 -3.0307405e-05 -1.2562481e-05 -4.9684895e-05 9.433829e-06
-0.0001486843 -0.00016886771 -0.0001247054 -0.00023567118 -0.00037382625 -3.224215e-05 -0.00035333095 0.0004035812
-2.098427e-05 -6.0522634e-05 -0.0002658992 -0.00014118111 -0.000114725975 -1.3149982e-08 2.2525763e-08 -5.7733214e-09
1.3030003e-08 2.960633e-09 -7.839333e-09 -1.5150404e-08 1.2285486e-08 6.943468e-09 -1.5213663e-08 -1.5527228e-08
9.815351e-09 -1.0334956e-09 5.4672782e-08 -4.265194e-08 5.0357524e-08 -2.350432e-08 1.1336991e-07 5.3642417e-08
-1.3957165e-08 -4.7100706e-08 -4.120545e-08 1.700577e-07 7.472356e-08 -1.2777218e-07 -1.262698e-07 2.0127004e-06
-3.1760203e-07 3.94929e-06 4.9002524e-06 4.72897e-06 4.4517187e-06 3.3611852e-06 8.2136364e-07 6.026935e-07
5.453924e-07 -6.07e-07 -1.0685605e-07 3.3940154e-07 0.0057225027 -0.0034103903 0.06893656 0.0044844057
-0.001976997 0.0064538275 -0.00016522082 -0.008679242 -0.00065574364 0.014528785 0.009650992 0.07784448
0.039697845 6.171043e-06 7.521544e-06 1.1793446e-05 4.8637366e-06 9.8050905e-06 6.983977e-06 8.806833e-06
-8.877167e-06 -8.1200125e-07 -4.0890052e-07 9.889555e-06 6.898802e-06 4.1311037e-06 0.005092381 0.00012189825
0.03220203 0.030975066 0.01900301 0.023640202 0.015740324 -0.0132037625 -0.009051255 -0.00287149
0.01997446 -0.011870371 -0.006605154 -1.6755381e-07 1.812301e-07 -2.6780873e-07 8.95e-09 -3.9323915e-08
-2.9099587e-07 3.787703e-07 5.485703e-08 -5.2984092e-08 1.6058308e-07 3.8281335e-08 -3.0005813e-07 -4.322115e-07
4.4398968e-07 4.8304963e-07 1.9371886e-07 5.410063e-08 -8.465107e-08 2.827127e-07 9.0194156e-08 -1.4922574e-07
5.914868e-07 -2.9391686e-07 6.360841e-08 1.0160309e-06 9.656978e-07 -0.0015740775 0.0046476554 0.015520618
0.0037312305 -0.0076951715 0.0016658684 0.0049822787 0.0024894895 -0.0017649597 0.0036388866 0.005584184
-0.041121494 -0.024177594 4.769769e-10 5.8591363e-09 1.7554708e-08 2.3538313e-08 -1.885399e-08 3.2055198e-09
5.86619e-09 4.3257815e-09 -1.3012538e-08 3.2679296e-08 -1.33653755e-08 3.7366497e-08 -2.1091013e-08 1.2985782e-08
5.9755547e-09 1.230071e-08 1.242553e-08 -1.868799e-09 -1.1714997e-08 9.8251345e-09 -5.1914706e-10 -5.6695924e-09

encoder_var.0.bias f4 [20]
00000000: 6c50 31ab bfdb ccb3 f685 4dac a44c ddac
00000010: c0a9 66b4 aa10 5eab a1e8 e32c 8cb8 88ae
00000020: 0428 13b0 ac4c ba2c 82e6 1fac bc32 c12c
00000030: 657a 0534 8679 85ad 6c47 e533 0262 01ac
00000040: 2897 162c e873 02b4 b5ff 7fad 8fc3 01ac
-6.299464e-13 -9.539462e-08 -2.9206615e-12 -6.2897066e-12 -2.1482174e-07 -7.889337e-13 6.477555e-12 -6.217346e-11
-5.3535154e-10 5.2949502e-12 -2.2723217e-12 5.4910226e-12 1.2431117e-07 -1.5174317e-11 1.0676635e-07 -1.8386408e-12
2.140019e-12 -1.214936e-07 -1.455185e-11 -1.844056e-12

encoder_var.1.weight f4 [20]
00000000: 1961 fbb5 eced 033d 5e22 6c31 bf9b 5a33
00000010: 3713 993d 4616 91b3 1a77 3e33 1225 cab7
00000020: acf2 9cba 420d 7233 f1e1 b433 fc36 58b7
00000030: 085d a03d c96d 9ab7 a2a1 123d d340 d5b5
00000040: f551 89b5 43af 1b3d 9a77 2ab3 6205 9333
-1.8729216e-06 0.03220932 3.4362055e-09 5.089873e-08 0.07474368 -6.75614e-08 4.4346145e-08 -2.4097539e-05
-0.0011974177 5.6357074e-08 8.423002e-08 -1.2887405e-05 0.07830244 -1.8409353e-05 0.035798676 -1.5888603e-06
-1.0231148e-06 0.03800894 -3.9689986e-08 6.8462e-08

encoder_var.1.bias f4 [20]
00000000: 820f e935 406b 153a 8298 a4b4 e6ac 4334
00000010: d1ea 23bd 057f 31b3 a343 9433 24b7 9738
00000020: 5d2d 13ba 82c9 8233 4b63 56b4 3efd 9f37
00000030: 0954 bcbc e02c 4234 62b6 03bd 29c8 7835
00000040: d06d 1fb4 3035 bebc 4253 67b4 bb16 d833
1.7364366e-06 0.00056998804 -3.0658344e-07 1.822369e-07 -0.04001886 -4.1326548e-08 6.90409e-08 7.234354e-05
-0.00056143646 6.090251e-08 -1.9966426e-07 1.9072202e-05 -0.02298929 1.8083983e-07 -0.032156356 9.267847e-07
-1.4847978e-07 -0.023218721 -2.154384e-07 1.00624185e-07

encoder_var.1.running_mean f4 [20]
00000000: 30f6 1536 2e6a 123d 53dd beb3 4496 7e33
00000010: 5776 bcbd 984d 5f32 63ad 80b1 eb85 cf38
00000020: eec6 34ba 4bde a0ae fca5 b232 0ee8 3b37
00000030: 29c3 d83d 700b f437 f9f6 443d 01ad 96b4
00000040: 481e e235 0848 a3bc 254d e132 4306 7e30
2.234603e-06 0.035745792 -8.887823e-08 5.927565e-08 -0.09202259 1.2997951e-08 -3.745002e-09 9.895473e-05
-0.0006896098 -7.315445e-11 2.0797408e-08 1.1200098e-05 0.10584099 2.9092393e-05 0.048087094 -2.8065554e-07
1.6847125e-06 -0.019931808 2.6228529e-08 9.241356e-10

encoder_var.1.running_var f4 [20]
00000000: 2012 f42a 4d46 9d38 e248 1227 7370 ec24
00000010: d185 3339 0e62 0325 9ef0 3f25 e67b 0d31
00000020: 7374 4d33 a753 7024 75d6 a927 689a 0c2d
00000030: cb60 5b39 a7d1 772e 903f 9e39 9b85 2f29
00000040: 6638 a829 45cf d338 1c8d e324 9060 ff24
4.3355684e-13 7.499438e-05 2.030108e-15 1.0253918e-16 0.00017120621 1.1395661e-16 1.6648133e-16 2.0588629e-09
4.7836192e-08 5.211256e-17 4.7139438e-15 7.992364e-12 0.00020921526 5.6347507e-11 0.00030183466 3.897369e-14
7.470482e-14 0.00010099871 9.8684606e-17 1.10752205e-16

encoder_var.4.weight f4 [16, 20]
00000000: 5952 21b5 2aaf 39b9 9f25 0c34 1f31 7032
00000010: efce 25b9 90ac 4ab1 128d 0eb0 fef1 ecb6
00000020: dc99 a1b8 4a91 fb32 f785 8bb3 f088 9336
00000030: 7c50 b7b9 027a abb6 e146 c9b8 642e bdb2
00000040: 7731 10b5 5d0d f5b8 c181 7f33 482e c831
00000050: 8ee6 a7b2 cadc 31b7 2b59 4ab2 184a 0eb2
00000060: b21d 8036 bbb0 59b1 430b e9b1 bc47 8436
00000070: aa8b 6db6 d316 9ab1 e885 bd31 280b fe34
00000080: fc94 58b6 4d80 6fb5 1166 2d36 350e 44b3
00000090: 5475 6433 b866 4336 8019 73ae 45cd 3532
000000a0: 9791 cb34 df78 9f3c 0b6c ddb2 6568 d733
000000b0: 203b 283d 85a0 8633 1de6 9633 00ee acb5
000000c0: 4d6d 5ab9 1670 0e33 ded2 b3b2 f22c 4c37
000000d0: e43d 0d3d 5728 d336 eb2e 9c3c 9011 f833
000000e0: cdac 8f34 b090 9d3c 7b8d 5a34 d243 4b33
000000f0: 2282 adb0 9b1d 0432 bbc0 bc30 c659 0432
00000100: 1256 aeb1 0ff4 5231 e769 0b32 8c06 20b2
00000110: a8ac 90b1 f4ab 1131 0b2b 02b1 988a 2f31
00000120: a455 73b1 e97a c0b1 278c 1d32 3740 5fb1
00000130: f7d3 8b31 0650 99b1 a53c a431 2008 04b0
00000140: 1802 5734 da06 45b7 1ffc 3a32 083c 90b2
00000150: 9ddc 3939 75c9 c031 9603 48b2 791c 2db7
00000160: c6ff 2d38 2b35 7d32 20df fb31 10d9 6a36
00000170: 1706 4639 2d4a 6335 e55c 8938 f1c4 a233
00000180: 56a9 91b4 63cf d238 9869 3c32 aa8d bf32
00000190: 5d70 eb30 3038 2aae 68ea 8cb0 87f0 0b31
000001a0: d3be 6bb1 e1c0 8fb1 7e72 6430 eca5 5531
000001b0: 1e39 7631 9aca 2bb1 6ced 83b0 333c 8f30
000001c0: 4bf6 9db0 d372 9630 e41b c2b0 180f 55b0
000001d0: 6c10 5231 ffab b8b1 3777 9230 a014 98af
000001e0: 95e8 37b4 8269 6d3c b889 86b3 1498 1d33
000001f0: b4bb a53c 34f9 b832 7031 ef31 8e3b 0538
00000200: 0c14 2939 1e42 7132 98fc 5134 d00a 1c36
00000210: c100 dc3c a539 b5b5 23ea d23b 84f3 6a33
00000220: 3133 86b3 80b6 8a3c 4793 e332 57f9 6ab2
00000230: 6443 4cb3 567c 31b4 0b2b 60b2 31bc 0cb2
00000240: 68ef ee34 baa3 abb0 eb4d 9132 56ce 7d33
00000250: b007 bcb3 a910 18b1 ff9c e232 136e 90b2
00000260: d8f2 73b2 208b a832 4686 9e33 88d2 a332
00000270: 2f08 4533 0d9c a434 0f41 6db2 d5c0 06b2
00000280: 7369 9eb2 1eed 6b31 56dd 2631 1588 2932
00000290: ee93 7cb2 5a52 2231 0ec4 b631 23cb 09b1
000002a0: 6a69 3432 ad33 e830 9207 d02f d01e 1cb2
000002b0: ec75 cdb1 1261 2932 8037 52b0 9dab ceb1
000002c0: 8077 0d32 e923 15b2 80a7 9230 457f bfb1
000002d0: e19e 79b3 bc44 5e33 7329 64b2 dd87 e0b2
000002e0: d92d 0034 6b5c cb31 1f38 5932 ecbc 18b3
000002f0: b010 a3b2 b2db dbb0 21c0 f631 086e 17b3
00000300: 1e3c 8333 8e09 8d33 12fa a633 b9f8 48b2
00000310: ab03 b8b3 6e74 3134 0bc5 a431 b6a9 2231
00000320: 0298 af34 18cd aa3c d44c 8fb3 f2fe c033
00000330: e969 213d c1cd 0032 9054 fa32 af69 2538
00000340: 00a7 5139 aa57 2c33 88be c3b3 1e78 89b5
00000350: 97ff 183d 8d5d deb5 41c5 983b 9d36 e034
00000360: ba13 db34 d837 d13c 51be 42b3 55a4 d5b2
00000370: 27ea 20b3 bc7c 3cb1 e64b 0931 3fd2 78b2
00000380: 1cc9 2cb3 eef7 1cae 67ee d631 f84f b8b2
00000390: 881e 2330 be20 87b0 f9ae 8cb2 ca3a 0a32
000003a0: 52ba e8b2 7c15 f0af 5204 0032 b822 5e32
000003b0: fc25 f3af 496f 9fb3 d870 efb1 766a c8b0
000003c0: ea96 e5b3 3a72 993c fd65 c5b3 b5db 1d34
000003d0: a036 053d 8c18 5eb1 a617 c1b2 7044 d638
000003e0: c256 8a39 e3aa d9b2 4c88 0f34 d690 68b6
000003f0: cf93 ce3c b32a b236 6782 353c 29f5 ae34
-6.0097005e-07 -0.00017708229 1.3052203e-07 1.39810075e-08 -0.00015812715 -2.949296e-09 -5.185977e-10 -7.0615197e-06
-7.705737e-05 2.9286316e-08 -6.49706e-08 4.396883e-06 -0.00034964446 -5.1104007e-06 -9.597629e-05 -2.2023592e-08
-5.371616e-07 -0.000116849995 5.9489825e-08 5.8260277e-09 -1.9546203e-08 -1.0601429e-05 -1.1778222e-08 -8.282335e-09
3.8181543e-06 -3.1678116e-09 -6.782473e-09 3.9422575e-06 -3.5397047e-06 -4.4845847e-09 5.5158473e-09 4.7319304e-07
-3.2273228e-06 -8.922114e-07 2.583842e-06 -4.5647727e-08 5.3192096e-08 2.9117055e-06 -5.527445e-11 1.05822595e-08
3.7917627e-07 0.019466816 -2.5776918e-08 1.0030707e-07 0.04107201 6.2690596e-08 7.026777e-08 -1.2884266e-06
-0.00020830818 3.3163893e-08 -2.0934234e-08 1.2169812e-05 0.03448285 6.292986e-06 0.019065341 1.15515945e-07
2.6761555e-07 0.019234031 2.0354302e-07 4.7326303e-08 -1.2624393e-09 7.690143e-09 1.3733578e-09 7.703823e-09
-5.0738516e-09 3.0697753e-09 8.114944e-09 -9.314714e-09 -4.2105803e-09 2.1198021e-09 -1.8941957e-09 2.5544633e-09
-3.5409835e-09 -5.6019087e-09 9.17047e-09 -3.2487273e-09 4.06953e-09 -4.4619837e-09 4.7799227e-09 -4.8032867e-10
2.0024197e-07 -1.174371e-05 1.0883951e-08 -1.6791105e-08 0.0001772516 5.6108385e-09 -1.16423475e-08 -1.0318233e-05
4.148462e-05 1.4738627e-08 7.330428e-09 3.4995064e-06 0.0001888502 8.467203e-07 6.549972e-05 7.579536e-08
-2.7131563e-07 0.00010052209 1.09670495e-08 2.2299748e-08 1.7130436e-09 -3.870343e-11 -1.0252963e-09 2.0363886e-09
-3.4305472e-09 -4.1837755e-09 8.310862e-10 3.1089895e-09 3.5830179e-09 -2.499894e-09 -9.598984e-10 1.0421729e-09
-1.1493254e-09 1.0946571e-09 -1.4123285e-09 -7.75104e-10 3.0568357e-09 -5.3746585e-09 1.0656781e-09 -2.7663294e-10
-1.7127816e-07 0.014490487 -6.264912e-08 3.6692725e-08 0.020231105 2.1533744e-08 6.961436e-09 3.1765136e-05
0.00016124564 1.404308e-08 1.9556535e-07 2.3252105e-06 0.026855828 -1.3502328e-06 0.0064366027 5.4703847e-08
-6.249173e-08 0.016932726 2.6493252e-08 -1.3677286e-08 -4.7558743e-08 -1.6529643e-07 -1.3048303e-08 -8.191862e-09
4.4505146e-07 -1.2488421e-09 1.6915655e-08 5.9093814e-08 -8.7558305e-08 -2.2128381e-09 2.6381256e-08 -1.6813862e-08
-1.4199678e-08 1.962104e-08 7.3818725e-08 1.9071436e-08 4.587508e-08 3.0660922e-07 -1.3810008e-08 -7.8436715e-09
-1.8441574e-08 3.4331786e-09 2.4281994e-09 9.868036e-09 -1.4701966e-08 2.3620914e-09 5.319186e-09 -2.0051594e-09
1.0501347e-08 1.6894909e-09 3.784036e-10 -9.087401e-09 -5.9796914e-09 9.859166e-09 -7.6476425e-10 -6.0148992e-09
8.234451e-09 -8.6811065e-09 1.0670504e-09 -5.5733005e-09 -5.811933e-08 5.1750916e-08 -1.3280771e-08 -2.6138816e-08
1.1937608e-07 5.9185843e-09 1.2643823e-08 -3.556208e-08 -1.8983286e-08 -1.5996788e-09 7.181385e-09 -3.52575e-08
6.111098e-08 6.567562e-08 7.775465e-08 -1.1698085e-08 -8.568835e-08 1.6526766e-07 4.7954294e-09 2.3670572e-09
3.270689e-07 0.02084975 -6.6729314e-08 8.987071e-08 0.039407644 7.497364e-09 2.9142285e-08 3.943749e-05
0.00019994006 4.01266e-08 -9.1150525e-08 -1.0242254e-06 0.037353124 -1.6567516e-06 0.0046621864 4.1762988e-07
4.0806282e-07 0.025539324 -4.5342237e-08 -2.4871193e-08 -3.7465863e-08 -2.7428504e-09 1.9979267e-09 -1.4483304e-08
-4.022978e-08 -3.56905e-11 6.255323e-09 -2.1456785e-08 5.934244e-10 -9.831849e-10 -1.6377713e-08 8.046024e-09
-2.7093083e-08 -4.367101e-10 7.451563e-09 1.2929995e-08 -4.4228432e-10 -7.424257e-08 -6.9686443e-09 -1.4582173e-09
-1.06910946e-07 0.018731225 -9.192079e-08 1.4701693e-07 0.032522798 -3.2319205e-09 -2.2478911e-08 0.00010217063
0.0002638605 -2.5339835e-08 1.3367497e-07 -3.4655e-06 0.025216965 5.3097842e-06 0.011078454 3.2588403e-07
