generativecf/models/sangiovese-margin-0.12-validity_reg-44.0-ae_reg-84.0-epoch-25-ae-gen.pth (torch_old, 33324 bytes, 78 tensors)

encoder_mean.0.weight f4 [20, 14]
000000 fc 60 e6 bc 34 ec e3 bd 99 73 41 bf ee 64 8c bd
       -0.028122418 -0.111290365 -0.75567013 -0.06855188
000010 c3 9f de bc 81 79 c0 bd 88 a3 ae bd 70 2b 20 3c
       -0.02717579 -0.09398175 -0.08527285 0.009775981
000020 a3 7d d9 bc 7a 62 a1 3d 6e 57 2b be 41 78 b7 3e
       -0.026549166 0.07880111 -0.1673257 0.35833934
000030 fb 14 4c 3e 0e b9 1b be c1 78 f8 bc 6d b5 8d 3e
       0.19929878 -0.15207312 -0.030331017 0.2767748
000040 0b 86 24 3f e7 7c e3 3d 11 a1 87 3d 2d 4c 3d bc
       0.64267033 0.111078076 0.06622518 -0.011553806
000050 d4 55 c0 3d 1e e2 b0 bd d9 3d fe bc 61 b5 97 bd
       0.093913704 -0.086368784 -0.03103535 -0.07407642
000060 bd 85 cd bc f9 2e d7 be a3 d6 6b be 0c 56 3e 3e
       -0.025088185 -0.42028025 -0.23031096 0.18587512
000070 03 5a 21 3c 1d 34 75 be 5c f3 10 bf d9 4c 14 bd
       0.009848121 -0.23945661 -0.56621337 -0.0362061
000080 bd 1b da bd 29 e3 cb bc 7a 5f da bd 38 30 9f bd
       -0.10649822 -0.024888592 -0.10662742 -0.07772869
000090 b7 a3 01 3e 71 63 98 bc 0e c7 1c be 06 fb d0 3e
       0.12660109 -0.018602105 -0.15310308 0.40816516
0000a0 b1 90 a3 3e 54 97 d1 bd 9e af 5a 3d 26 61 b8 3d
       0.31946328 -0.10233942 0.053390138 0.090029046
0000b0 49 8e 44 3f b4 33 4c bd c8 a5 a8 3d 28 1d 9e 3c
       0.7677961 -0.049853995 0.08234745 0.019301012
0000c0 24 2d 8a 3d af 8f fb bb 31 3a a2 3c 61 76 3f 3a
       0.06746891 -0.0076770405 0.019803138 0.00073037116
0000d0 ef 8e 30 3e ab 53 ab be b4 28 e3 bd 2f 0f f3 3d
       0.17242025 -0.3346227 -0.11091748 0.118681304
0000e0 7e ce 14 3e 5a 2d d8 3d c6 09 1a 3f 65 88 43 3d
       0.14531896 0.10555525 0.60171163 0.047737498
0000f0 d4 a9 ea 3d 97 7d e5 3d 6c f5 ef 3d 8c ae 3e 3d
       0.114581734 0.11205595 0.117167324 0.04655318
000100 6e 82 50 bb 08 5e 0e be 1f 31 0c 3d bb 1f a5 be
       -0.0031816023 -0.13903058 0.034226533 -0.3225077
000110 ce 72 87 be e0 72 c3 3d 7c fe 5b bd eb ba ec bd
       -0.26454777 0.09543395 -0.053709492 -0.11559089
000120 a9 63 11 bf 5d ea 26 bd 22 14 e0 bc 38 1b ee bd
       -0.56792694 -0.04075085 -0.02735335 -0.11626285
000130 0c bd 0a 3d 5a 23 c8 3d f2 7d 72 3d 25 a2 5c bd
       0.033871695 0.09772368 0.059202142 -0.05386557
000140 0b cf d1 bd fc 68 18 3f 8c a7 19 3e d6 43 36 be
       -0.102445684 0.59535193 0.1500532 -0.17799315
000150 44 3f 99 3d 3c d2 35 3e f4 a6 24 3f 58 50 11 3e
       0.0748277 0.1775598 0.6431725 0.14190805
000160 ae 32 b2 3c f7 e8 cf 3d 0c 3b a4 3d 78 f3 e1 bc
       0.021752682 0.101518564 0.08019075 -0.027581915
000170 63 bb e1 bc 36 73 17 3d e7 63 21 3c 4f 34 f8 be
       -0.027555173 0.036975108 0.009850479 -0.48477408
000180 82 bf 4d be ce bb c0 3d e0 d7 94 3e b0 88 8c bb
       -0.20092586 0.09410821 0.2907095 -0.0042887554
000190 bb e0 c1 3e 66 9c 59 3e ef 37 9d 3d 15 7a 71 3e
       0.37866768 0.21251068 0.07676684 0.23581727
0001a0 fd 40 3e 3e a4 3f 8e bd 1b 03 92 3d fb 78 ae 3d
       0.18579479 -0.06945732 0.071294986 0.08519169
0001b0 7f 98 28 bd 3c af 3e bd 7a aa 9c 3a 04 ff 94 3c
       -0.041161057 -0.046553835 0.0011952661 0.018188007
0001c0 90 14 e0 bc d2 0f 02 be ca c9 0f bf 56 52 36 be
       -0.027353555 -0.12701347 -0.5616728 -0.17804846
0001d0 97 41 23 3d f9 d1 16 be 18 7d dd bd d1 f5 55 bd
       0.039857473 -0.14728536 -0.10814875 -0.052236382
0001e0 a2 c8 58 3d 7f 91 96 3c 0f 8f 36 be f9 7d 17 3f
       0.052925713 0.018379925 -0.1782801 0.59176594
0001f0 8b b7 81 3e c9 26 fa bd 06 f2 86 bc e2 03 0e 3e
       0.25335345 -0.12214429 -0.016472828 0.13868669
000200 1e 02 11 3f 48 6a f5 3d f2 8d f6 3b f6 56 90 3d
       0.56643856 0.11983162 0.0075242454 0.070478365
000210 68 4b d6 3d 9b 90 6c 3c a1 fe 07 3c d5 7a 0b bd
       0.10463601 0.0144387735 0.008300454 -0.03405269
000220 58 3e 8c 3c e7 82 ba be cd 26 31 be 76 be 8b 3e
       0.017119572 -0.36427996 -0.17299958 0.27293748
000230 e9 74 8a bd 65 cc 79 3d 92 db d1 be 3d d0 63 bd
       -0.0676058 0.06098594 -0.4098783 -0.055618513
000240 a5 d8 f5 3d 15 c3 5a bb 8e f4 bd bd 38 d1 dd 3c
       0.12004212 -0.0033380438 -0.09275161 0.027077302
000250 c1 47 3c be aa af 4d 3b 2e 6e 2b bd 99 b8 a6 3d
       -0.18386747 0.0031385222 -0.041853122 0.08140678
000260 c7 e4 a8 bc 70 88 6e be c3 a2 c0 bd 11 f4 37 be
       -0.020616902 -0.23294234 -0.09406044 -0.17964198
000270 6e db 26 bf ce 1b 33 bd 33 53 a9 bc 17 fa b4 bd
       -0.65178573 -0.04372769 -0.020669555 -0.08836763
000280 92 3b 4b be cf 3d cd 3d 87 7f 3b bc 5b 26 92 bc
       -0.19846943 0.10021555 -0.011443979 -0.017840555
000290 5c 7b fe bc a0 a2 0d 3f c9 39 04 3e a7 f6 18 be
       -0.031064682 0.5532627 0.12912668 -0.1493784
0002a0 1c 30 04 3e 1a 38 ad 3d ab 19 f0 3e 86 f0 2e 3e
       0.12908977 0.08457966 0.46894583 0.1708394
0002b0 62 12 67 bd 5d b9 58 3e 83 e6 a3 3a 09 3a fc bc
       -0.056414016 0.2116446 0.0012504611 -0.030789392
0002c0 4c 1b 08 3d 09 60 7b bd 4b 70 19 3e b5 65 b5 be
       0.033229157 -0.061370883 0.14984243 -0.3542916
0002d0 f0 c8 07 be e9 2c e6 3d a1 43 da bd 70 be 46 be
       -0.13260245 0.11239035 -0.106574304 -0.19408584
0002e0 94 00 0d bf 17 73 30 be 70 08 cb bc 77 41 cf bd
       -0.5507901 -0.17231403 -0.024784297 -0.10119908
0002f0 99 cc b8 bd c5 51 e8 3d 90 5f b2 bd 8f 05 8a 3c
       -0.09023399 0.11343721 -0.08709633 0.016848354
000300 67 6c d9 3c 72 cc f5 3e 5b f1 23 3e d3 5c 27 be
       0.026540948 0.48007542 0.16010039 -0.16344003
000310 24 3a 73 3e bd 24 93 3d 3e e6 30 3f 52 17 44 3e
       0.23752648 0.07184742 0.6910132 0.19149521
000320 0b 5b aa 3d 76 d4 67 3d 09 e9 1f 3e cd ea 94 bd
       0.08318146 0.056599103 0.1561624 -0.07271347
000330 c3 68 a0 3d e9 7c 61 bb 15 de 4b bc 2f 24 b5 be
       0.07832482 -0.0034406728 -0.012443085 -0.35379168
000340 5c c2 5a bd d1 22 f7 3d c9 fd 3a 3e 63 b1 9c 3d
       -0.05340801 0.120671876 0.18260874 0.07651021
000350 53 ac 3a 3f ec 25 14 3e 52 cf 0d 3e 34 d6 83 3d
       0.72919196 0.14467591 0.13848618 0.064373404
000360 1f 57 51 3e 01 cb 34 bd 7c 08 7c bd 16 ab dc 3c
       0.2044339 -0.044138912 -0.06153153 0.026937049
000370 06 f8 07 3d dd 1e 34 be c1 00 ff bc 7b 96 45 3d
       0.033195518 -0.17589898 -0.03112829 0.048239212
000380 ea cb 18 be ad 74 3b be 01 14 47 bf e9 3c ce bb
       -0.14921537 -0.18306227 -0.777649 -0.006293882
000390 fa 61 bf 3c 3d 93 29 be 9e 2b 1d be 8f 39 16 bc
       0.023362149 -0.16560073 -0.1534867 -0.0091689965
0003a0 e6 a1 be 3d f2 fd 8f 3d b5 14 b5 bd 55 7b f9 3e
       0.093082234 0.07030858 -0.0884184 0.48726907
0003b0 69 06 bb 3e 38 71 33 be e0 dd 67 3d 11 8b 26 3e
       0.36528328 -0.17523658 0.05660808 0.16263987
0003c0 dd d7 11 3f 31 0f c0 3d 3e af fe 3b 3b 61 10 3e
       0.56970006 0.093778975 0.0077723553 0.1409959
0003d0 fd f5 c7 3c da 8f 5c bc cd 73 4d 3d 99 6e 60 bc
       0.024409289 -0.013462031 0.050159264 -0.013698244
0003e0 1e c9 ae 3c 28 20 ba be f1 4f 70 be b6 f1 80 3e
       0.021336135 -0.36352658 -0.23467995 0.2518441
0003f0 d1 c2 7b bc 16 08 b8 3d e7 f5 c2 3e fe b4 19 3d
       -0.015366272 0.08985917 0.38078234 0.037526123

encoder_mean.0.bias f4 [20]
000000 5a 88 98 b8 79 c8 1f b6 eb ca e2 38 a4 2e ee 37
       -7.273322e-05 -2.3809537e-06 0.00010814316 2.839353e-05
000010 d0 e2 d1 b7 70 25 d4 36 0e 5e 4d 37 b4 96 3e 38
       -2.502036e-05 6.3224506e-06 1.2240851e-05 4.5439883e-05
000020 09 8f 9b 37 2b bf 7b b8 3a d3 cc 37 87 ba ce b7
       1.8544046e-05 -6.0021102e-05 2.4417055e-05 -2.4643972e-05
000030 b6 20 83 b8 6e fe 83 38 67 e0 c8 b7 d9 f3 8b 38
       -6.25266e-05 6.293958e-05 -2.3946353e-05 6.673457e-05
000040 97 47 84 38 ee 4d db 37 86 ba d2 b7 aa 38 84 36
       6.307585e-05 2.6143123e-05 -2.5120808e-05 3.940503e-06

encoder_mean.1.weight f4 [20]
000000 d7 e8 68 3f b3 4d 28 3f ea ee 51 3f cd 4b 33 3f
       0.90980285 0.6574356 0.8200518 0.7003754
000010 f7 29 17 3f 2a d7 35 3f 26 21 11 3f bb f2 0a 3f
       0.5904841 0.7103144 0.56691206 0.5427663
000020 21 3e 2f 3f 26 f0 34 3f 7f 36 bc 3e d9 8f 4a 3f
       0.68454176 0.7067894 0.36760327 0.79125744
000030 c7 0f 19 3f 42 64 57 3f 57 e0 29 3f 0c f1 3e 3f
       0.597897 0.84137356 0.6635794 0.7458656
000040 0d f2 73 3f 20 ae 29 3f 3f 13 19 3f 1f 15 35 3f
       0.95291215 0.6628132 0.5979499 0.70735353

encoder_mean.1.bias f4 [20]
000000 cd 95 8c be b5 1f a6 bd a5 8d b7 be 23 47 f8 bd
       -0.2745804 -0.081115164 -0.35850254 -0.12122943
000010 d0 42 a7 3c e8 7d bb be ce 13 f1 3d 87 a4 28 be
       0.0204176 -0.36619496 0.117713556 -0.16469012
000020 d3 01 0a bf a6 6f 46 be b3 ba ad be 58 33 34 be
       -0.53909034 -0.19378528 -0.33931503 -0.17597711
000030 e0 85 86 bd d7 48 06 bd a6 66 a8 be 2e 81 82 be
       -0.065685034 -0.03278431 -0.32890815 -0.2548918
000040 03 8f 8c be cc 61 97 be f7 3f bc be a5 d7 c1 bd
       -0.2745286 -0.295668 -0.3676755 -0.09464959

encoder_mean.1.running_mean f4 [20]
000000 3c 2b e0 be 7e 78 76 3e 10 71 81 be c5 0d d7 3e
       -0.43782985 0.24069402 -0.25281572 0.42002693
000010 ba f2 b2 3e 64 cb 07 be 26 cd 89 3e 29 41 2d 3f
       0.3495081 -0.13261181 0.26914328 0.6767755
000020 89 21 99 be e2 b0 c3 3e 92 8a e6 be 60 7e ba be
       -0.29908398 0.38220888 -0.45027596 -0.3642454
000030 87 30 b0 3e 00 23 b2 be fc d7 0c 3f e6 c3 29 3f
       0.34412023 -0.34792328 0.55017066 0.6631454
000040 a7 ff ba be b9 00 ce 3e 7a 29 02 bd 92 bf f6 3e
       -0.36523172 0.40234926 -0.031777836 0.48193032

encoder_mean.1.running_var f4 [20]
000000 42 a7 bd 3c ed ce a1 3c 51 37 b6 3c b5 46 92 3c
       0.023151044 0.01975199 0.022243174 0.017855981
000010 ad 0f e5 3c ce 5a 97 3c ee b2 d2 3c 6e 46 ab 3c
       0.027961576 0.018475916 0.025720086 0.020907607
000020 be 64 00 3d 25 4d 70 3c 36 57 40 3c 1b 66 d4 3c
       0.031346075 0.01466683 0.011739543 0.025927594
000030 31 90 95 3c 0b 3a bc 3c 58 d5 af 3c 68 77 df 3c
       0.018257232 0.022976896 0.021464035 0.027278617
000040 f9 5e 0f 3d 54 eb 84 3c cc 50 7c 3c 4e 9a 02 3d
       0.035002682 0.016225494 0.015400123 0.031885438

encoder_mean.4.weight f4 [16, 20]
000000 3b 0a 1c 3e e6 b2 f6 3d c6 52 13 3b 1f 7a 29 3e
       0.15238278 0.12045841 0.0022479757 0.16550492
000010 f7 33 04 3e 02 b7 74 3e 46 3e 03 3e 14 57 c9 3d
       0.12910448 0.23897937 0.12816724 0.09831062
000020 fe bd 97 3e d4 a3 0f 3e e5 73 27 be 0a 2c 19 3e
       0.2963714 0.14027339 -0.16352804 0.14958206
000030 9a 98 aa 3d fa 9b 05 3e a5 a3 b3 3d 40 a1 6a 3e
       0.08329888 0.13047782 0.08771447 0.22913074
000040 f4 43 b5 3d 63 6b 8f 3e 04 24 cd 3b 63 ce 3c 3e
       0.08850852 0.28011617 0.006260397 0.18438105
000050 cf d2 3a be 53 2e 1f 3e cf 8d 0e be ce 80 3f 3e
       -0.1824448 0.15545015 -0.13921283 0.18701479
000060 39 05 f0 3d 0a b1 03 be 03 6e 16 3e bf 58 02 3e
       0.11719746 -0.12860504 0.14690404 0.12729166
000070 15 8d 0f be a2 53 92 3d d1 d9 7b bc 81 2b d4 bd
       -0.14018662 0.07144858 -0.015371756 -0.1035986
000080 d2 ac 03 3e 7e 61 88 be b1 54 46 3e 26 92 83 3d
       0.12858894 -0.2663688 0.19368245 0.0642436
000090 73 12 18 be 60 7f 8d 3e a4 1b 0a 3e 0a 5f ef bc
       -0.14850788 0.27636242 0.13487107 -0.029220123
0000a0 99 c7 31 be 24 32 38 3d 64 79 ec bc 2c da 08 3e
       -0.17361297 0.044969693 -0.028866477 0.13364476
0000b0 69 02 c3 3d 89 10 87 3c 25 0c 13 bd 38 36 dd 3c
       0.09521944 0.016487377 -0.035900254 0.027003393
0000c0 34 02 c7 3d b4 e8 35 3e e3 6e 3c be 05 1c 63 bd
       0.09717217 0.1776455 -0.18401675 -0.055446643
0000d0 1c 5f f0 3d 9d 72 02 be 84 a2 96 3e 71 eb 44 3e
       0.11736891 -0.12739034 0.29420865 0.19230439
0000e0 bc 02 37 bd 44 e8 13 3e 27 b5 b9 3c 67 db 7e 3e
       -0.044680342 0.14444071 0.022669388 0.24888383
0000f0 87 d7 62 be ae 50 47 3e 73 b8 35 be 80 77 47 3d
       -0.2215253 0.1946437 -0.17746143 0.04869795
000100 05 5d 19 3e 64 60 ae 3d 36 00 19 3e 94 85 0a 3e
       0.1497689 0.08514479 0.14941487 0.13527519
000110 17 fc 63 3d b0 c8 f1 3d 88 fe d4 3c 0b 31 a3 bd
       0.055660333 0.11805856 0.026000276 -0.079683386
000120 a0 0a 19 3e cb a8 72 be 61 69 69 3e 97 5a 19 3e
       0.1494546 -0.23697202 0.22794105 0.14975964
000130 15 37 87 be 43 48 3c 3e e4 be af 3d aa ba 60 3d
       -0.26409212 0.1838694 0.08581331 0.054865517
000140 02 aa 82 be bd b4 2f 3e d9 e6 02 be 5e cb 74 3d
       -0.2552033 0.1715879 -0.12783374 0.05976426
000150 13 23 24 3d 83 b1 43 be fa d4 4f 3d 23 dc 1b 3d
       0.040072512 -0.19110684 0.05074022 0.038051736
000160 3a 90 a7 bd 77 2e 52 3d 08 29 b9 3d 90 d3 6b bd
       -0.08181806 0.051313844 0.09041029 -0.05757481
000170 75 eb de 3d be eb 18 be 42 0a 48 3e 13 d9 70 3e
       0.108847536 -0.14933679 0.19535163 0.23520307
000180 33 b6 56 be 17 90 38 3e 74 e3 e2 3d 40 71 ba 3d
       -0.20967941 0.18023716 0.110785395 0.09103632
000190 f3 7d 5e be 7e 3c 19 be b8 4c 62 be 06 ee 2c be
       -0.21727733 -0.14964482 -0.22099578 -0.16887674
0001a0 cd 1d ac bd 41 f7 09 be 8b 96 73 bc 94 4e c1 bd
       -0.084041215 -0.13473226 -0.014867435 -0.09438816
0001b0 62 9f 37 be cf 0d f8 bc 87 43 04 3e 44 0a 36 be
       -0.17931893 -0.030280022 0.12916385 -0.17777354
0001c0 e5 e1 63 bd ae 2d 13 be 94 9b 57 be 27 ea 9b bd
       -0.05563535 -0.14372894 -0.21055442 -0.076130204
0001d0 39 62 7f be 43 e6 f9 bd 3b 60 59 bd 16 bd 63 bd
       -0.24939813 -0.12202122 -0.05307029 -0.05560025
0001e0 00 af a4 be 97 63 de 3d bf 8d 7e bd aa e3 e1 3d
       -0.32164764 0.10858839 -0.0621469 0.110297516
0001f0 1a 54 da 3d 36 a4 99 bd 6b 44 7f 3c 19 a4 c7 3d
       0.10660572 -0.07502024 0.015580277 0.09748096
000200 96 64 80 bd da 31 3e 3e 57 24 5c 3d 7e 15 70 bd
       -0.06269185 0.18573704 0.053745594 -0.058614247
000210 0b d7 6d bc 23 1b 8f be d1 c3 14 3e e1 4a a1 3d
       -0.014516602 -0.2795039 0.14527823 0.0787561
000220 e9 fa 84 be de 86 38 3e f0 99 04 3e 30 b9 ab 3d
       -0.2597268 0.18020198 0.12949347 0.08384931
000230 61 1b c6 bd 2c 43 85 3d 23 55 bf bd ca 26 fb bd
       -0.09673191 0.06506953 -0.093424104 -0.12263258
000240 89 58 30 be 6c 1c cb bc b9 55 eb 3d 04 c8 c9 bd
       -0.17221273 -0.024793826 0.1149096 -0.09852603
000250 dc 3b 91 3d 88 7b 9a 3e fd a6 ba bd a0 c8 32 bd
       0.070914954 0.30172372 -0.09113882 -0.043648362
000260 08 30 06 bd f9 58 d4 bd 6f ff e6 bd 78 23 01 be
       -0.03276065 -0.10368533 -0.11279189 -0.12611187
000270 ff d7 ca bd 99 43 b9 3c 11 ed 34 3e 43 53 90 be
       -0.09904479 0.02261524 0.17668559 -0.28188524
000280 89 b9 53 3e fc 8c d8 bc 33 ce 9f 3e 12 89 7b 3c
       0.20676245 -0.026434414 0.31212005 0.015352504
000290 9c e3 83 bd ea 9f 39 3e 77 0d 0a be 02 ee e8 bd
       -0.064398974 0.18127409 -0.13481699 -0.113735214
0002a0 69 74 5f 3e c8 e9 d3 3c 27 8b 1c 3e 73 e9 f8 3d
       0.2182175 0.025868312 0.15287457 0.12153902
0002b0 4a 7b 98 bd b8 c0 c4 3d 31 f6 0c 3d 47 40 60 be
       -0.074453905 0.09607071 0.034414474 -0.2189952
0002c0 05 97 70 3e 3d 0d 60 bd 02 fc 57 be 23 b1 4c be
       0.2349511 -0.054700125 -0.21092227 -0.19989447
0002d0 c8 9a 28 be e8 31 17 3e e8 a0 65 be c0 a2 5f 3e
       -0.16465294 0.14765131 -0.22424662 0.21839428
0002e0 20 5a 83 bd f5 be df bd a9 32 3d 3c 8b 21 32 3e
       -0.06413674 -0.10925094 0.011547723 0.17395608
0002f0 6e 84 c4 bd fc 3c 75 3e e7 72 f8 bd 7c 33 75 be
       -0.095955715 0.23949045 -0.12131291 -0.23945421
000300 a3 7e 00 3e da 6a 5e be 3a 91 43 3e 96 cb ad bb
       0.12548308 -0.21720448 0.19098368 -0.0053038104
000310 c9 a0 20 be 70 3f 32 3e 5b 30 38 3e 4a 9f c8 3d
       -0.15686335 0.17407012 0.17987196 0.09796007
000320 28 6a 4f be b2 df 13 be 17 55 36 be ab a6 88 bd
       -0.20255339 -0.14440802 -0.17805897 -0.066724144
000330 3a 3f 8d be 65 01 a6 bd 6f 69 5b be 20 12 73 bc
       -0.275873 -0.08105735 -0.21426938 -0.014835864
000340 e7 a3 1d be 6e 47 21 bd a1 12 af bd 60 1c 43 be
       -0.15394555 -0.03937476 -0.08548475 -0.19053793
000350 cb ac 45 be 6e e2 35 bd 8f f4 93 3c 0a e5 b4 bd
       -0.19304197 -0.044405393 0.01806095 -0.08832748
000360 1d cd 06 be 0b 0f 89 bd 05 79 de bd ed 1a 2e be
       -0.13164182 -0.06692322 -0.108629264 -0.17002459
000370 83 8f 3a 3e 76 25 c6 bd 8e 4d 06 3e 9f ca 7f be
       0.18218808 -0.09675114 0.13115522 -0.24979638
000380 33 09 1a be 0f c9 33 3e 85 24 f5 bd 8a 0c 11 be
       -0.15042572 0.17557167 -0.11969856 -0.1416494
000390 f8 26 ff 3d aa 31 f1 bd 33 25 be 3d 0a 43 8d 3e
       0.124586046 -0.11777051 0.09284439 0.2759021
0003a0 c5 bc 07 be 9d 64 64 3e 8f 07 66 bc 42 4e 54 be
       -0.13255604 0.22304006 -0.014039888 -0.20732978
0003b0 15 0c c4 3e 27 aa 69 3c 54 38 5e 3a ee e4 43 bd
       0.38290468 0.014261759 0.00084770215 -0.047825746
0003c0 8f 58 11 3d 37 08 3a 3c bf 39 a4 3e 04 2d 82 bd
       0.035484847 0.011354498 0.32075307 -0.06356242
0003d0 86 bc 81 3d 73 ad 9c 3e 69 00 84 bd f0 03 77 bd
       0.06334786 0.3060108 -0.06445391 -0.06030649
0003e0 e5 6a c1 3e 9e 94 ed 3c 8d 27 96 3d 6c f8 79 3d
       0.37776867 0.02900153 0.073317625 0.06102793
0003f0 60 ea 29 3c 5c 92 a0 3c 64 73 bc bc 1e 56 2f bd
       0.010370821 0.01960104 -0.023004241 -0.042806737

encoder_mean.4.bias f4 [16]
000000 99 7c 3d 36 ec 11 96 b5 84 34 3e b5 fe eb fa 35
       2.823572e-06 -1.1181087e-06 -7.0856936e-07 1.8695134e-06
000010 ea 86 69 36 bb 48 86 36 98 41 fe 34 99 ab 6b b6
       3.4798236e-06 4.001978e-06 4.7358913e-07 -3.5117612e-06
000020 9d ed 2d 37 0f f5 59 b6 e2 01 b2 35 ae e1 24 36
       1.0366927e-05 -3.2478163e-06 1.3262581e-06 2.4569267e-06
000030 a7 7e 27 b5 39 4c 9b b6 1e ed c9 35 c5 dd 0c b7
       -6.239665e-07 -4.6282335e-06 1.5044677e-06 -8.396285e-06

encoder_mean.5.weight f4 [16]
000000 76 f6 66 3f 25 97 38 3f d8 7d 40 3f 38 d8 38 3f
       0.9021982 0.7210563 0.7519202 0.72204924
000010 2a e8 2a 3f a0 d8 1c 3f 3e 45 35 3f 53 b3 f7 3e
       0.66760504 0.61268044 0.7080878 0.48379
000020 a8 f2 63 3f e9 dd 48 3f d0 24 1f 3f 3b ee 71 3f
       0.8904214 0.7846361 0.62165546 0.94504136
000030 64 9c 38 3f df e6 33 3f 72 27 31 3f 9c 7c 6c 3f
       0.72113633 0.70274156 0.69200814 0.9237764

encoder_mean.5.bias f4 [16]
000000 9a 29 fd bd 42 ca 11 3e 1c e5 ef bd 30 2f e5 3d
       -0.123614505 0.14237311 -0.11713621 0.11190641
000010 ce ac 94 3d 85 d6 03 be 73 6c 20 3c 19 b6 32 be
       0.072595224 -0.12874801 0.009791481 -0.17452277
000020 0c ac 10 3d f6 af e2 3c 51 b4 40 be a1 1c 99 3d
       0.035320327 0.027671795 -0.18818785 0.07476164
000030 a3 57 c1 bd 7d c1 fb 3a b2 35 04 3e 40 08 6a 3d
       -0.094405435 0.0019207444 0.12911108 0.057136774

encoder_mean.5.running_mean f4 [16]
000000 87 21 05 3f ca 3d 11 3d 57 c0 18 3e 1a dc c8 3d
       0.52004284 0.035459317 0.14917122 0.09807606
000010 be 85 1e 3c f9 79 f5 be 8f 5f 60 bd 02 c3 0e be
       0.009675441 -0.4794462 -0.05477863 -0.13941577
000020 80 ef 9a 3d f9 28 3f bc eb 8e 03 bf 54 0f 2a 3d
       0.07565212 -0.0116674835 -0.5138995 0.041518524
000030 8d 0b e5 3d 2f d6 0b 3e 27 d4 01 3e d5 97 5c bd
       0.11183844 0.13655923 0.12678586 -0.053855736

encoder_mean.5.running_var f4 [16]
000000 37 a9 8e 3e 45 7f 0e 3f 05 74 8b 3e 3f c2 0e 3f
       0.27863476 0.5566295 0.27236953 0.55765146
000010 fd b3 e7 3e 67 46 91 3e 4a 95 fe 3e 46 46 95 3d
       0.45254508 0.28374025 0.49723274 0.07288794
000020 b0 12 f8 3e e9 1e 15 3f bc d7 6e 3e b4 f2 43 3f
       0.48451757 0.5825029 0.23324484 0.7654221
000030 3a 59 4f 3e af ee 15 3e a8 f7 08 3f d8 ad 2e 3f
       0.20248881 0.14641832 0.53502893 0.68234015

encoder_mean.8.weight f4 [14, 16]
000000 0e 01 b1 3d 59 d0 45 3e a0 89 ca ba 11 30 4a 3e
       0.08642779 0.1931776 -0.0015452392 0.19744898
000010 02 8f 5d 3e ef f4 69 3c f8 6a 3c 3e 82 16 3d 3c
       0.21636584 0.014279588 0.1840018 0.011541011
000020 82 34 17 be 29 a5 00 3e 28 4b e3 3b f0 09 5b be
       -0.14766124 0.12563004 0.0069364496 -0.2139051
000030 9a 0a 9d bc 09 d2 25 bd 38 eb 6c 3e 1a 0b 8a be
       -0.019170094 -0.04048351 0.23136604 -0.26961595
000040 d9 dc ba 3d 78 c3 30 3e 13 7d 42 3d 21 c2 90 bd
       0.091241546 0.17262065 0.04748256 -0.07068277
000050 16 37 61 3d ff 0c 52 bd 26 65 27 3e 40 f1 d1 3b
       0.054984175 -0.051281925 0.16347179 0.006406933
000060 f8 d9 11 be a6 d8 84 3d 94 46 2f 3c de 05 88 be
       -0.14243305 0.06486635 0.0106979795 -0.26566976
000070 14 85 67 be c0 a2 38 be b6 32 77 3e 7c c6 94 be
       -0.22609359 -0.18030834 0.24140438 -0.29057682
000080 f1 70 bf 3d 4b c6 85 3d 2b 2a ae 3d c9 e8 99 3d
       0.09347714 0.06531962 0.08504137 0.07515103
000090 f1 2d 5b 3d ca 5f 66 bd 3f cd bd 3d 1e 50 f3 3d
       0.05351061 -0.056243695 0.09267663 0.118805155
0000a0 14 11 86 be 2a b4 97 3d 78 e5 10 be df 0f 96 be
       -0.26184905 0.074074104 -0.14150035 -0.29308984
0000b0 90 70 1e bd ba 3e 91 3d df 6c 7e 3e 14 4e 92 be
       -0.038681567 0.07092042 0.24846219 -0.28575194
0000c0 8d 7f 97 bd d3 82 a0 3d 9e 89 89 3c ec d3 94 3d
       -0.07397375 0.07837453 0.016789254 0.072669834
0000d0 90 ec a9 3d 4c 68 ec bc 0a 76 8b 3d 2d 90 58 3e
       0.08297074 -0.028858326 0.068096235 0.21148749
0000e0 f3 a8 b1 be 4d 38 29 3e e7 50 13 be 31 4d 9e be
       -0.3469921 0.16525383 -0.1438633 -0.30918267
0000f0 b2 78 d2 bd 97 ea 16 be c5 7f bd 3d dd 12 92 be
       -0.10276927 -0.14737926 0.09252886 -0.28530017
000100 cd 79 b4 bd 0d a5 b9 3d cf 84 2a 3e c0 2f a0 3d
       -0.08812294 0.09064684 0.16652225 0.078216076
000110 e7 c2 eb 3d 42 76 5e bd c6 aa 28 3e 1b ee ab 3d
       0.11511784 -0.054312 0.16471395 0.083950244
000120 e0 7a 3f be 6a cc 1e 3e 6f 52 42 be 07 6b a0 be
       -0.18699217 0.15507665 -0.18976758 -0.31331655
000130 58 14 95 bd 3a 69 79 bd 8b c4 07 3d 55 93 9a be
       -0.07279271 -0.060891367 0.033146422 -0.3019053
000140 41 f1 98 bd 50 0e c6 3b 77 c3 a4 3d 9d d6 e5 3d
       -0.074678905 0.0060441867 0.080450945 0.11222575
000150 1f 61 f4 3c c1 51 14 be f4 fd b3 3d f7 a5 94 3e
       0.029831467 -0.14484312 0.08788672 0.2903287
000160 11 bf 62 be f1 e0 93 3e 87 08 2e 3d e4 ec 94 be
       -0.22143199 0.28882554 0.0424886 -0.29086983
000170 28 eb f4 bd d9 39 8c bd 18 65 92 3c 09 93 84 be
       -0.11958915 -0.06846971 0.01787047 -0.2589343
000180 11 72 51 3e c5 ec 38 be 65 f7 22 be f8 79 a8 bd
       0.20453669 -0.1805907 -0.15914686 -0.08226389
000190 bf 65 ff bc 4c 42 19 be 0b 6e fa bd fb 84 bf 3c
       -0.031176446 -0.14966697 -0.1222802 0.02337884
0001a0 5d 5a 3f 3e a0 bb 4b be 3a 12 02 be d3 ce f5 3c
       0.18686815 -0.19895792 -0.12702265 0.030005848
0001b0 bc 21 b8 3e 91 46 74 3e db b0 0e be 87 c6 6f 3e
       0.35963237 0.23855044 -0.13934653 0.23415576
0001c0 0d 49 d7 3d 27 81 21 3e c7 fa 5b 3e 69 7c ce 3c
       0.1051198 0.15771924 0.21482383 0.025205808
0001d0 60 6a 57 3e fe c2 55 3c dc c4 d7 3d 0c 26 bb 3d
       0.21036673 0.013046978 0.10535595 0.09138116
0001e0 c0 89 68 be 73 97 c1 3d e2 62 0a be ef 07 b9 be
       -0.22708797 0.09452715 -0.13514283 -0.36138865
0001f0 e0 e1 d6 bd 8d f0 8d bd b7 4a 9d 3b 53 46 63 be
       -0.10492301 -0.06930647 0.0048001665 -0.22194795
000200 fd 90 89 3e b6 12 41 be 5b 4c 95 bd 3e 74 a0 be
       0.2686843 -0.18854794 -0.07289954 -0.31338686
000210 8d 29 56 be f6 0a 32 be 9c f3 4f be 8a a4 36 bd
       -0.20914288 -0.17386994 -0.20307773 -0.04459051
000220 ee 96 65 3e 56 28 5e be 58 8c 5a bd 0e 46 0c 3e
       0.22420856 -0.21695074 -0.0533565 0.13698599
000230 21 2b 9a 3d 4a 7f 5d 3e c4 f5 46 be 34 19 60 3d
       0.075277574 0.21630588 -0.1942969 0.054711536
000240 d1 95 c3 3e 1d 41 99 3c 7f e0 ba 3e 15 ac 45 3e
       0.38200238 0.018707806 0.36499402 0.19303925
000250 cf 5e d9 3d f2 a7 a3 be de 17 cf 3d 36 1a 18 be
       0.106137864 -0.3196407 0.10111974 -0.14853749
000260 c9 ef be 3c 33 fe 8a 3d f1 87 9d be 20 97 53 3d
       0.023307698 0.06786766 -0.30767778 0.051657796
000270 aa bc 39 3e d8 ab 1a 3e ae 55 e3 3d 13 1c b5 3c
       0.18138376 0.15104616 0.111003265 0.022108113
000280 2c d1 60 3e 21 a3 03 be 3f 17 4e bd d1 fc 83 be
       0.21954793 -0.12855197 -0.050315138 -0.2577882
000290 5d 96 b7 bd 33 d5 04 be 24 cc 15 be e6 63 81 3c
       -0.089642264 -0.12971954 -0.14628655 0.015794706
0002a0 68 dc 37 3e 57 76 d6 bd 3a 3d 06 be f1 fc 30 3e
       0.17955172 -0.1047179 -0.13109294 0.1728399
0002b0 e0 16 81 3e c9 50 4b 3e 29 1a ed bd 39 c8 3c 3e
       0.25212765 0.19855036 -0.11577255 0.18435754
0002c0 78 15 2b 3a d1 2f 8d be 2b e4 25 3e 80 26 4d be
       0.00065263314 -0.27575544 0.1620032 -0.20034218
0002d0 eb e7 1c be 95 5a 94 3d 18 18 4e be 18 b7 f8 bd
       -0.15322845 0.0724384 -0.20126379 -0.12144297
0002e0 0b 8c 0b bd fc 3c 8f be 47 58 aa 3e 60 be 00 bd
       -0.034069102 -0.27976215 0.33270475 -0.031431556
0002f0 91 ab 64 be 3b 9d 3f be ad fb 81 be be 75 9c bd
       -0.22331072 -0.18712322 -0.25387326 -0.07639645
000300 19 33 05 be 6b e8 17 bc 83 fb a2 be c0 47 db bc
       -0.13007773 -0.009271721 -0.31832513 -0.026767612
000310 72 22 34 be 09 49 aa 3e d0 01 77 bd e9 23 70 bc
       -0.17591265 0.33258846 -0.060304463 -0.014656999
000320 7b 03 88 be c1 22 6a bd 14 6e 82 3e a0 b8 77 be
       -0.26565155 -0.05716205 0.25474608 -0.24191523
000330 5c 70 52 be c6 41 cb bc c7 1f d4 bd f5 4b 86 be
       -0.20550674 -0.024811637 -0.103576235 -0.26229826
000340 d7 78 15 3e e0 7b 2b 3e d8 8a 33 3e 55 c3 ef 3d
       0.14596878 0.16746473 0.17533433 0.117071785
000350 58 1d 2e 3e ca 15 00 bd 38 7f bc 3d c6 a4 80 be
       0.17003381 -0.03127078 0.092039526 -0.25125712
000360 0a 60 d8 bd 06 39 19 3e fd 11 d5 bd 30 9a dc bd
       -0.10565193 0.14963159 -0.104038216 -0.107715964
000370 69 6f 8f bd a0 b5 15 3d fd e5 af 3d 10 af 6f be
       -0.07003672 0.036550164 0.08588789 -0.23406625

encoder_mean.8.bias f4 [14]
000000 4d 3d 5a 34 b5 1f 33 b6 b9 27 84 35 ea 4d 01 35
       2.0325133e-07 -2.6691534e-06 9.846327e-07 4.8169625e-07
000010 94 f6 b7 35 31 dd cf b4 2a fd cc b5 61 d0 a2 b5
       1.3706326e-06 -3.8717693e-07 -1.5272865e-06 -1.2130587e-06
000020 11 8d 2c b4 39 f0 51 b7 89 ea 00 36 9a a0 18 b4
       -1.6070068e-07 -1.2513302e-05 1.9210004e-06 -1.421453e-07
000030 a4 a0 67 35 b9 c4 12 b5
       8.628797e-07 -5.467551e-07

encoder_mean.9.weight f4 [14]
000000 7a 84 39 3f f7 45 30 3f f3 08 2b 3f 79 2d 4c 3f
       0.7246777 0.6885676 0.6681053 0.79756886
000010 9a 35 1c 3f c6 c3 33 3f 6c c9 55 3f 4d c2 27 3f
       0.6101929 0.702206 0.8351047 0.65530854
000020 41 7c 68 3f 78 7f 4a 3f f9 af 54 3f 43 95 70 3f
       0.90814596 0.7910075 0.8308101 0.93977755
000030 9a 6d 52 3f 0f 23 1d 3f
       0.8219849 0.6138162

encoder_mean.9.bias f4 [14]
000000 99 47 31 3e fd b2 95 3d 5d d5 68 3d 32 93 23 3d
       0.17312469 0.0730953 0.056844104 0.0399353
000010 4c 68 ac 3d 87 45 b7 3d db c4 2b 3e fe be b1 3d
       0.084183306 0.08948808 0.16774313 0.08679007
000020 01 0e 05 3c 01 c1 d1 3e f1 1a 14 3e e3 c1 59 be
       0.008121015 0.40967563 0.14463402 -0.21265368
000030 23 d1 4f be e7 61 f3 3d
       -0.20294623 0.11883908

encoder_mean.9.running_mean f4 [14]
000000 79 89 0a 3e 84 cc d4 bd 20 60 a7 bd 1b ec 60 be
       0.13529004 -0.10390571 -0.08172631 -0.21965067
000010 4e 3a 00 be df 5c f7 bd 21 93 02 3d ba dd 80 bd
       -0.12522241 -0.12078261 0.031878594 -0.06292291
000020 42 44 59 be e5 f2 c7 3e ab 80 86 3c bd 95 f6 be
       -0.21217445 0.390525 0.016418776 -0.48161116
000030 04 2b ed be 33 b4 b5 3d
       -0.4632188 0.08872261

encoder_mean.9.running_var f4 [14]
000000 f3 1e 29 3f 3a cb 38 3f 77 c3 0b 3f ae 5a 55 3f
       0.6606285 0.721851 0.5459513 0.8334149
000010 8d 32 25 3f 65 bb 1e 3f e1 89 41 3f e5 a7 3a 3f
       0.6453026 0.6200469 0.7560101 0.72912437
000020 8e 0b 3e 3f 25 62 17 3f bd 4c 38 3f e6 89 b5 3e
       0.7423638 0.5913413 0.71992093 0.3545677
000030 5f 8e 0f 3f c2 b3 d4 3e
       0.56076616 0.41543394

encoder_mean.12.weight f4 [12, 14]
000000 1e d9 22 3e 39 15 19 3d 8a 23 53 3e 68 2b 38 3c
       0.15903136 0.037373755 0.20619026 0.011240818
000010 71 51 ec 3d 1f 14 a5 3e 67 88 55 be dc 5c 4b 3e
       0.11538971 0.32241914 -0.20852815 0.19859642
000020 c7 f1 78 be 44 57 26 3d 72 3b 6d be 21 fe 1c be
       -0.2431098 0.040610567 -0.23167208 -0.15331317
000030 4c d4 84 be 73 12 f5 3c 45 bc 8f bd 62 7d 0e be
       -0.2594322 0.029916024 -0.070183314 -0.13915017
000040 d3 c3 80 3b 63 27 c3 bc d7 65 4f bd 7b d3 3b 3d
       0.003929594 -0.023822492 -0.05063423 0.04585598
000050 dc 84 f1 bb ec b2 09 be cd ae 0c 3e 21 f8 ff 3e
       -0.0073705744 -0.1344716 0.13738556 0.49993995
000060 0b 3c e3 3d 65 aa b8 be 83 5e 80 be bb d7 30 be
       0.11095437 -0.360675 -0.25072107 -0.17269795
000070 21 33 40 3d d0 9c c5 3d 8c 87 14 3e 53 93 17 3e
       0.04692376 0.0964905 0.14504832 0.14802293
000080 59 20 f1 3d 91 91 4a 3e a9 9e 43 be 7b 71 03 3e
       0.11773748 0.19782092 -0.19103493 0.12836258
000090 8f e8 76 be c5 e7 ab bd 36 8a 37 be 3b fa 29 be
       -0.24112152 -0.08393816 -0.17923817 -0.16599362
0000a0 8f 6c 33 be 8a b4 69 3e 3a 2b e4 bd 2c 9e 5f bd
       -0.1752188 0.22822776 -0.11141057 -0.054594204
0000b0 00 8b dc bd 3b 38 a2 bd 8a 2a 14 be ea ff 0d bd
       -0.107687 -0.07920881 -0.14469352 -0.034667887
0000c0 87 2e 74 be da 96 f1 bd 39 fd 4d bd 3d cf cb be
       -0.23845874 -0.11796351 -0.05029032 -0.39806548
0000d0 af ef 2f be 1f 54 df 3e 79 1b d0 3d 0d 63 0d be
       -0.17181276 0.43618867 0.1016149 -0.13807316
0000e0 61 21 80 be b0 d1 7b be ad d0 4d be 68 19 54 be
       -0.25025466 -0.24591708 -0.20099135 -0.20712817
0000f0 99 aa f7 bd ed b2 5c be eb e3 78 3e 5c 98 ca bd
       -0.12093086 -0.2155263 0.24305694 -0.098923415
000100 48 03 24 3e 7e 61 c6 3d e9 5b 72 3e ea ee 54 be
       0.16016877 0.09686564 0.23667873 -0.20794263
000110 ad 3f cf bd 6f b2 13 be 2b 99 9d be e0 32 88 be
       -0.10119567 -0.14423536 -0.3078092 -0.26601315
000120 4b 2f 8c be b6 81 86 be 73 76 a3 be f0 a6 64 be
       -0.27379832 -0.26270837 -0.31926307 -0.22329307
000130 ed 66 2e 3d ff 7f 5e be ee d4 ad 3d 6a ae 81 3e
       0.042578626 -0.21728514 0.08487879 0.2532838
000140 46 0d f7 bc 0b 25 5f be e7 2b 77 be 78 ac 53 be
       -0.030157696 -0.21791475 -0.24137841 -0.2067126
000150 aa cb 93 be f1 eb 51 be 87 34 78 be e0 3d 85 be
       -0.2886632 -0.20500161 -0.24238788 -0.2602377
000160 44 d7 04 be 3a d0 4d be b2 39 ed 3d 36 ee 7f be
       -0.12972742 -0.20098963 0.1158327 -0.24993214
000170 4a 3d 15 3e e2 3b 54 3d 82 62 4e 3e 1e b8 7a be
       0.14574161 0.05181492 0.20154765 -0.24484298
000180 10 cb 34 be 3c 91 ee bd 78 12 bd bc b8 53 44 bd
       -0.17655587 -0.11648795 -0.023080096 -0.047931403
000190 e2 97 70 3c 82 e0 40 3e 70 64 f9 bd 07 cc 0b bc
       0.014684649 0.18835643 -0.1217736 -0.008532531
0001a0 d4 ec 5a be 8a 18 9a bd 9b 38 41 be 52 45 73 be
       -0.21379405 -0.07524212 -0.1886925 -0.23756912
0001b0 58 0c 31 be 5f c5 2e be 47 38 f6 3e 7d 5a 5d be
       -0.17289865 -0.17067479 0.4808981 -0.2161655
0001c0 e3 7f 19 3e 66 c8 14 3e e6 1e 4b bd 3e da fb 3d
       0.14990191 0.14529571 -0.049590014 0.12297486
0001d0 c4 7e da bd 50 84 16 3c 41 a1 9c 3e 46 12 47 3d
       -0.1066871 0.009186819 0.30591777 0.04860141
0001e0 7c 3c 19 be 1b 0e 0b 3e d0 29 02 be 00 53 10 be
       -0.14964479 0.135796 -0.12711263 -0.14094162
0001f0 f6 53 62 be ac 76 7d 3e aa d3 2e 3e c1 bf 61 bd
       -0.22102341 0.24752301 0.17072931 -0.05511451
000200 c6 85 2e 3e 87 f9 f7 bc a9 25 38 3e 86 5c ad 3d
       0.17043218 -0.030270351 0.17983116 0.08464913
000210 80 54 7d be b2 0f 35 3e 86 7d 86 be 48 18 05 be
       -0.24739265 0.17681769 -0.26267642 -0.12997544
000220 cb a7 1f be 0b 73 c8 be 74 72 c1 3c d1 65 ed 3d
       -0.15591352 -0.3915027 0.023614146 0.115916856
000230 c2 57 43 3d 15 8f 8b 3d 53 17 66 bd da e2 55 3e
       0.047691114 0.068144 -0.056174587 0.20887318
000240 1b f8 92 3d c0 c9 dd 3d 3c 2d 98 be de 83 86 3d
       0.071762286 0.108294964 -0.2972201 0.065681204
000250 52 08 b9 be 37 bf f1 bd 45 b6 ae be 2e 05 7e be
       -0.3613916 -0.118040495 -0.34123436 -0.24806663
000260 3d eb 44 3c 67 13 0e be 43 68 ae 3d 39 7a e7 3d
       0.012018976 -0.13874589 0.0851598 0.11302609
000270 cd 1c f4 3d 2a 53 bd 3d 08 34 47 3e 9d 7d 97 3d
       0.11919556 0.09244378 0.19453442 0.07397006
000280 98 e2 59 be d8 3a 0e 3e c4 ec 9a be f0 34 0c bd
       -0.21277845 0.13889635 -0.30258763 -0.034230173
000290 07 25 90 be e9 fa 28 be a5 66 5b be 15 a5 03 3e
       -0.2815325 -0.16501965 -0.21425875 0.12855943

encoder_mean.12.bias f4 [12]
000000 05 e9 9a b5 61 99 d5 b4 23 5e 99 35 6d 1f 38 36
       -1.1541712e-06 -3.978594e-07 1.1426786e-06 2.7436429e-06
000010 8b 50 98 35 8e 9d 8f 36 7a 04 af b6 15 c2 56 b6
       1.1348324e-06 4.280074e-06 -5.2159276e-06 -3.2001456e-06
000020 73 e6 ce b5 e5 7f 7e 36 66 50 7d b4 55 93 db b5
       -1.5415266e-06 3.7923394e-06 -2.359171e-07 -1.6359651e-06

encoder_mean.13.weight f4 [12]
000000 31 a9 71 3f 7a c3 8f 3f c3 26 72 3f d8 a1 b6 3f
       0.9439879 1.123153 0.94590396 1.4268141
000010 54 de 87 3f a5 70 9f 3f 43 11 8f 3f 50 ee 99 3f
       1.0614724 1.2456251 1.1177143 1.2025852
000020 fc 3d 63 3f 84 4f 71 3f ad 1a 8e 3f 3b 6e 82 3f
       0.88766456 0.94261956 1.1101891 1.018989

encoder_mean.13.bias f4 [12]
000000 52 44 92 3e c7 61 c2 3e 31 18 73 3e 88 30 d8 3c
       0.2856775 0.37965223 0.23739697 0.026390329
000010 9a 1d 4a 3e 5a 4d 77 bb 81 0a f6 3d 4e 85 98 3d
       0.19737855 -0.0037735314 0.12013722 0.07447301
000020 63 82 60 3e 7e d7 7c 3e 2f ad 1a 3e e0 04 40 3e
       0.21924739 0.24691579 0.15105127 0.1875186

encoder_mean.13.running_mean f4 [12]
000000 ca 10 66 3c 79 2e 13 3d ee 6f c0 bb a6 cd e8 be
       0.014042089 0.03593299 -0.005872718 -0.45469397
000010 8b bd 81 be d2 99 15 bf 93 ca d9 be 2c ac a4 be
       -0.25339922 -0.58437836 -0.42537364 -0.32162607
000020 2a b3 25 3e 4d 98 06 be 6f f4 97 be 79 b4 99 bd
       0.16181627 -0.13144036 -0.29678676 -0.075051256

encoder_mean.13.running_var f4 [12]
000000 b5 90 0a 3f 64 2e 76 3e 14 a0 e7 3e 78 66 10 3f
       0.54127055 0.24041134 0.45239317 0.56406355
000010 e1 8a 29 3f 20 d3 f9 3e 6d 26 23 3f 51 46 95 3e
       0.6622754 0.48793888 0.6373051 0.2915521
000020 8b fc 28 3e bb 43 d2 3e 8f 76 0f 3f e6 95 0b 3f
       0.16502587 0.410673 0.5604028 0.545256

encoder_mean.16.weight f4 [10, 12]
000000 6c 6a 28 3d a8 04 4c be 00 c8 59 3e 00 19 cb 3e
       0.041117117 -0.19923651 0.212677 0.3966751
000010 34 0a be be 50 9f e4 be 02 5a 7d be d0 fd eb 3e
       -0.3711716 -0.44652796 -0.24741367 0.4609208
000020 9b f9 bc be 0f 4e 8e 3e ba 25 e2 3e 0d 36 9a 3e
       -0.36909184 0.2779393 0.44169408 0.30119362
000030 72 e8 b2 bd 6e ec 54 be ec 3a 0e be 2a 47 16 3b
       -0.08735742 -0.20793316 -0.13889664 0.00229306
000040 a1 bf 02 3e de 7f 55 3e 28 10 2d 3e 03 34 3e 3e
       0.12768413 0.20849559 0.16900694 0.18574528
000050 a3 ae 26 be 39 06 23 be b7 e8 22 3d b3 ee 4d be
       -0.16277556 -0.15920343 0.039772715 -0.20110588
000060 d5 9d dd 3e 96 f8 d8 bd d8 cc bc 3e 79 00 05 be
       0.4328448 -0.10594289 0.36875033 -0.12988462
000070 29 0e c7 be 24 0a 13 bf b5 56 f4 be 23 98 8f 3e
       -0.3887799 -0.5743735 -0.47722402 0.2804576
000080 f0 4e 18 3e 71 f2 c3 3e a5 b0 e4 3e f1 c7 59 3e
       0.14873862 0.38270906 0.4466602 0.21267678
000090 4a 89 37 bd ac 5a 99 be 4b 7e 4e bd ac 00 05 3f
       -0.044808663 -0.2995199 -0.05041341 0.5195415
0000a0 0b ae 2c be 9b bd d6 3d e5 13 48 bd 44 7d d0 3e
       -0.16863267 0.10485383 -0.048847098 0.4072057
0000b0 a4 81 79 be 1c 6c ee bb 90 73 12 3d e8 3f 19 be
       -0.2436586 -0.0072760712 0.03575474 -0.14965785
0000c0 e9 6e 87 3d fc 35 14 3c 8e 6d 54 bd 7d f4 be 3c
       0.06612951 0.009046074 -0.051862292 0.02330994
0000d0 fa bd 82 3d 81 fe 5e 3d a1 39 e2 bb ea fd 24 3b
       0.063838914 0.054441933 -0.0069038426 0.0025175759
0000e0 1a d4 18 bd 21 89 18 3d b5 a0 5f bc 79 c5 c7 3d
       -0.03731165 0.03724015 -0.013649155 0.09754462
0000f0 79 62 e5 be bc 4c 89 3e 6a 05 a5 be 9e 8f a8 bd
       -0.4480169 0.26816356 -0.32230693 -0.08230518
000100 18 d5 df 3e a5 49 f9 3e 81 55 e9 3e 6b 47 b7 be
       0.43717265 0.48689 0.45573047 -0.35796675
000110 83 6d 9b bd 15 16 02 bf 47 37 10 bf 9f 2f e2 be
       -0.07589247 -0.50814945 -0.56334347 -0.44176957
000120 78 2d 02 3e 43 91 9e 3e c8 fe 25 3d 97 2d c9 be
       0.12712657 0.309702 0.04052618 -0.39292595
000130 e2 df a2 3d 58 f0 97 bd 73 a0 ce 3c 0e 7d 1e bf
       0.079528585 -0.07418889 0.025222993 -0.6190957
000140 c9 fe c4 3e ff 17 42 3d 5f 44 0a 3c a6 93 8b 3c
       0.38475636 0.047386166 0.0084391525 0.017038178
000150 36 85 82 bc d8 6f 3e 3d 7c 9a 19 3d 1a 89 af bd
       -0.01593266 0.04649338 0.037500843 -0.08571072
000160 83 b5 ad 3b 38 8c 12 3d 3d 0d 2e 3d f1 83 3e bd
       0.005301179 0.035778254 0.042493094 -0.046512548
000170 f2 31 9e 3d 4f c2 0e 3c 22 eb b7 bd cf fe 35 3b
       0.0772437 0.008713319 -0.08980395 0.0027770286
000180 de 54 9a bc 65 0c bd 3c 10 99 42 be d1 a7 f0 bd
       -0.018839296 0.0230772 -0.19003701 -0.117507584
000190 53 b6 fb 3d de 63 0d 3e 0c 00 91 3e fe 74 b8 be
       0.12290635 0.13807628 0.28320348 -0.36026758
0001a0 92 ea 97 3e dd 29 22 bd ce 79 03 be 54 f5 ac bd
       0.2967115 -0.039590705 -0.12839434 -0.0844523
0001b0 62 03 e2 3e eb fd 48 3f ee 0c c6 3e c8 8a 71 bf
       0.44143206 0.7851245 0.3868174 -0.9435239
0001c0 72 a5 a5 bd 52 0d e2 be 31 e4 52 be 5f 36 09 bf
       -0.08088197 -0.44150788 -0.2059486 -0.5359859
0001d0 65 8d ae 3e 48 79 af 3e 63 e1 27 3e c3 f1 f0 3e
       0.3409225 0.34272218 0.16394572 0.4705945

encoder_mean.16.bias f4 [10]
000000 b8 42 8a be f2 05 eb 3d fd 0c 8c be 60 51 57 bd
       -0.27004027 0.11475743 -0.2735366 -0.05256784
000010 7a dc e5 bd 60 12 02 3f ed 6a 4b 3d d1 24 bd 3a
       -0.11223693 0.5080929 0.04966252 0.0014430528
000020 c1 a1 92 3d 42 2c a8 be
       0.07159758 -0.32846266

encoder_var.0.weight f4 [20, 14]
000000 61 7e 0d 39 b1 6c 0f 37 ad f8 d7 b7 70 da bf 35
       0.00013493888 8.548771e-06 -2.5745796e-05 1.4294183e-06
000010 bc 0c 99 38 0f 16 3c 39 b7 48 98 b7 15 d1 b7 b9
       7.2979805e-05 0.00017937295 -1.8153672e-05 -0.00035060258
000020 3b 42 fa 37 5d c0 61 b7 e1 62 53 3a 18 a6 82 b8
       2.9833163e-05 -1.3455833e-05 0.00080637453 -6.2298204e-05
000030 35 0e 29 39 5a 8e 44 3a 3b 23 f0 bc 79 19 c9 bc
       0.00016122388 0.00074980187 -0.029313674 -0.02454828
000040 d7 b5 39 bd 26 90 b6 bc 64 8d 7b bc 30 85 3b bc
       -0.04533943 -0.022285532 -0.015353534 -0.011445329
000050 60 31 7b bb b4 91 0b 3c 2b 4a 41 3c ad 14 1a 3b
       -0.003832899 0.008518625 0.011797468 0.002351086
000060 29 16 71 3a e1 bc f9 3c 55 50 08 3d ed 77 40 3b
       0.00091967225 0.030485572 0.033279736 0.0029368356
000070 c4 40 2b 36 a6 b6 98 b5 d1 07 03 b5 1f 07 ae 33
       2.5518684e-06 -1.137804e-06 -4.881268e-07 8.103802e-08
000080 f3 86 4a b6 79 e1 cc b7 61 6e 78 35 e9 e5 bc 36
       -3.0178896e-06 -2.4423689e-05 9.254782e-07 5.6296017e-06
000090 be fc b0 b4 5c 0b 5c 36 4b bf 8a b7 ea bd dc b4
       -3.296645e-07 3.2789167e-06 -1.653996e-05 -4.1116374e-07
0000a0 91 09 ac b4 55 a4 b3 3a 0c d9 4f 3d d5 41 b6 3c
       -3.2044457e-07 0.0013705591 0.0507441 0.022248188
0000b0 72 c6 12 3d 98 58 b7 3b c3 b6 53 3c d6 0e e6 3b
       0.035833783 0.005595278 0.012921992 0.0070208116
0000c0 f7 61 b8 3b 97 40 9c bb 25 aa 9c 3c 77 e6 ab bc
       0.0056269127 -0.004768442 0.0191241 -0.020983918
0000d0 76 06 a6 bc 99 b7 f4 bc 44 42 b9 bc 2d 1e ea ba
       -0.020266753 -0.029872702 -0.022614606 -0.0017861776
0000e0 4d cf 40 bb a8 43 31 bb 07 45 dd bb 02 3a 6d bb
       -0.0029420436 -0.0027048383 -0.0067526135 -0.0036197905
0000f0 30 8a dd ba c1 53 56 bb ab 64 05 ba dc 29 8d 3a
       -0.0016902145 -0.003270373 -0.0005088548 0.0010769921
000100 23 40 c8 3a fc 56 ac 3a 0d 25 c5 ba 9f 9a 17 3b
       0.0015277903 0.0013148482 -0.0015040949 0.0023132933
000110 a9 38 f4 3a a7 59 15 3b 8e 2b 23 3c e5 ce 02 3b
       0.0018632609 0.0022789033 0.009959115 0.0019959745
000120 49 c8 8b 3c 40 20 29 3c 56 e8 0d 3b a6 0b bd 3b
       0.017063277 0.01032263 0.0021653376 0.005769211
000130 d0 d6 b1 3b 3c 64 90 bc ac 04 1f 3c c5 00 cf 39
       0.005427219 -0.01762592 0.009705704 0.0003948269
000140 8e c1 49 3c 64 55 42 3a 4a 8d 03 3c 48 d6 e0 3b
       0.012314213 0.0007413237 0.008029291 0.006861482
000150 e1 41 0a bb 2d f5 22 ba ce 05 4b bb e0 14 59 bb
       -0.0021096396 -0.00062163436 -0.0030978802 -0.0033124015
000160 3e 90 2b 3a 8b f8 92 bb ac f5 19 bb 65 01 9b b9
       0.0006544626 -0.004485195 -0.002349238 -0.00029564943
000170 bf d9 1a bb a6 a7 db 3b e4 9d 00 3a bc a4 ec 35
       -0.0023628322 0.006703335 0.000490634 1.7631314e-06
000180 9c 3a 21 b9 93 e2 20 3c 80 10 0b 3a c8 3a 49 39
       -0.0001537599 0.0098196445 0.0005304888 0.00019190751
000190 34 47 a3 3a b7 be e5 39 80 67 09 b9 8b 9f f7 38
       0.0012457133 0.00043820377 -0.00013103895 0.00011807595
0001a0 80 9c 00 3a b7 00 87 3b 50 c3 c9 b7 9d 55 5b b6
       0.0004906133 0.0041199583 -2.4052017e-05 -3.2683377e-06
0001b0 30 8d 68 3a 12 59 68 34 4d 7d d7 b9 19 ee 9c 3c
       0.0008871136 2.1639087e-07 -0.00041101352 0.019156503
0001c0 a7 c8 6f b9 cc 20 07 ba 7e 02 5c bb 20 61 dd ba
       -0.00022867565 -0.00051547284 -0.0033570821 -0.0016889907
0001d0 1c 11 d2 b9 6d fc 00 bb 7f db 29 ba fc da e6 b8
       -0.0004006707 -0.0019681707 -0.0006479546 -0.00011008044
0001e0 3f a8 e6 39 50 0d 46 3b 1a f5 77 ba bc 6a 6b 3a
       0.00043994372 0.0030220337 -0.0009458825 0.0008980443
0001f0 a2 f7 7e 3a 95 66 62 bd 05 17 10 38 60 d6 13 39
       0.0009726231 -0.05527361 3.4353714e-05 0.00014098873
000200 f3 4d 32 34 85 72 d2 33 2c c5 9f b3 64 d1 10 b5
       1.66059e-07 9.799718e-08 -7.43988e-08 -5.3948884e-07
000210 52 70 04 38 0c c1 91 b8 3d e3 5a 35 32 f1 1c 39
       3.157586e-05 -6.9500966e-05 8.1542004e-07 0.00014967172
000220 77 1b e1 36 ee 47 32 b7 b0 2b da b4 5b 44 ba bb
       6.70872e-06 -1.0626374e-05 -4.063745e-07 -0.005684418
000230 9a d8 1b 39 aa 41 07 39 d8 a8 d7 38 b9 52 9d 38
       0.00014862642 0.00012899065 0.000102834485 7.501752e-05
000240 ab ce 17 b9 7b 3b d2 37 99 f6 7e b9 a1 b2 12 ba
       -0.00014477472 2.5061649e-05 -0.00024315192 -0.0005596076
000250 65 c3 e3 b9 9b ea c3 39 44 20 d2 39 70 5a 87 b8
       -0.00043442394 0.00037368093 0.0004007836 -6.454147e-05
000260 7a 1b 55 37 53 ff 28 3c 57 6f a2 b8 8f 01 b4 b7
       1.2702187e-05 0.01031478 -7.7455006e-05 -2.1458398e-05
000270 e6 01 39 b8 dc 90 28 37 83 9e cc b8 5e 49 12 b8
       -4.4109205e-05 1.0047308e-05 -9.757003e-05 -3.487744e-05
000280 45 e2 89 b8 08 71 40 b8 79 ac c6 38 1d 89 8a 39
       -6.574815e-05 -4.5881636e-05 9.473501e-05 0.00026423568
000290 04 34 f7 38 e4 1c 58 ba f9 a1 6b bb 98 81 ac 3c
       0.000117875665 -0.0008244051 -0.0035954698 0.021057889
0002a0 5c 5b 3d b7 d3 4b dd b5 67 24 ab b7 8d ff 18 b7
       -1.1286549e-05 -1.6487851e-06 -2.040174e-05 -9.119406e-06
0002b0 da 49 66 b8 d5 73 aa b7 98 7b 96 b6 a3 e9 ca b7
       -5.4905053e-05 -2.0319518e-05 -4.4847366e-06 -2.4189072e-05
0002c0 36 d3 68 b6 d2 9d 92 36 73 66 37 36 14 74 4d 38
       -3.4693635e-06 4.3695118e-06 2.7328758e-06 4.8983915e-05
0002d0 81 6a d4 b5 4f 50 ad 3b 98 db ce 3c 4c 13 14 3d
       -1.5826228e-06 0.0052891145 0.025251195 0.036151215
0002e0 1e 19 02 3d e0 18 22 3c 3a 4d 23 3b dd 3c 23 3c
       0.031762235 0.009893626 0.0024917857 0.009963241
0002f0 f4 e4 b7 3b d9 45 8c 3b 4c 91 e7 3a da 95 fb bc
       0.00561201 0.0042807874 0.0017667203 -0.030711103
000300 8c bd df bc 64 84 06 bd 94 f4 c5 bc 86 1a 84 3a
       -0.027312063 -0.0328411 -0.024164476 0.0010078705
000310 f0 18 91 36 b0 ef 27 b6 7e 4b cf b6 19 b4 c6 b6
       4.32424e-06 -2.5024456e-06 -6.177869e-06 -5.921826e-06
000320 90 bf 52 b6 8c 93 0c b7 85 8c a3 37 f9 c2 00 b4
       -3.1403943e-06 -8.379004e-06 1.9496549e-05 -1.199186e-07
000330 4f ad e9 b7 3b d2 59 37 e7 2d 88 b7 f2 20 17 b6
       -2.7856468e-05 1.2983156e-05 -1.6233838e-05 -2.251993e-06
000340 44 5e aa b8 45 ad 54 3b fa dd 5f 3c 41 e4 61 3c
       -8.12379e-05 0.003245191 0.013663763 0.01378733
000350 2d 88 4e 3d 7a c4 83 3c aa 12 f8 bb 48 78 df 3c
       0.050422836 0.016084898 -0.0075705843 0.027279034
000360 89 74 8f bc ab d5 80 bc 01 9c ba 3c 19 21 6e bc
       -0.017511623 -0.015726885 0.022779467 -0.014534258
000370 ea 25 f0 bb ce c7 db bc 22 29 c1 bc 4d f7 7c bb
       -0.0073287385 -0.026828673 -0.023579184 -0.0038599551
000380 2a f6 d7 38 86 ce f3 38 8e dd 8e b9 8f fe 8c b9
       0.000102978505 0.00011625611 -0.00027249422 -0.00026892542
000390 ac 24 3f bb 9b e3 a2 b8 80 d9 30 ba 06 b8 0f ba
       -0.0029166145 -7.767157e-05 -0.0006746277 -0.0005482439
0003a0 3b 98 07 bb 34 09 34 3b ce 89 27 ba 30 f2 c8 3a
       -0.0020690102 0.0027471306 -0.0006391079 0.0015330967
0003b0 bd f7 0a 3a fa 82 29 3d 96 7c 99 38 77 ca d9 b7
       0.0005301198 0.041384675 7.3188145e-05 -2.5962696e-05
0003c0 86 c4 67 b9 50 5b 56 b9 2e 13 03 ba fa 95 65 b8
       -0.00022103087 -0.00020442647 -0.00050001114 -5.473753e-05
0003d0 62 22 de b5 01 0b a2 39 86 cb 39 38 83 08 d9 b9
       -1.6550296e-06 0.00030907246 4.4296983e-05 -0.00041395807
0003e0 4d 1f 2c b9 7a fb 24 3a 72 5d da 38 36 ec 0b bc
       -0.00016414859 0.00062935764 0.000104124556 -0.008540204
0003f0 92 1d 0f bd 75 6c a3 bc a4 ce 67 bd 1a fd f8 bb
       -0.03494031 -0.019949177 -0.056593552 -0.0075985314

encoder_var.0.bias f4 [20]
000000 17 50 4e b1 44 d8 eb b3 61 b2 df 2b c7 3a 9f b1
       -3.0022471e-09 -1.0982379e-07 1.5894613e-12 -4.6341913e-09
000010 b6 2e 6b b0 91 43 8c 34 de 6e 6a 30 92 c5 a1 ae
       -8.555888e-10 2.6126193e-07 8.5286256e-10 -7.356528e-11
000020 68 35 ff 2d f1 56 f4 2b 7c 52 03 af b0 bd dd ae
       2.901386e-11 1.7361374e-12 -1.1943685e-10 -1.0083612e-10
000030 76 48 e0 ad 49 c4 e8 33 ce 9a 0b ab 0b 7f 5f 34
       -2.549803e-11 1.0839046e-07 -4.9597555e-13 2.0814711e-07
000040 6c 6a c5 ae b1 1e 43 2a 44 81 71 b5 49 59 43 34
       -8.977427e-11 1.7330127e-13 -8.99676e-07 1.8193272e-07

encoder_var.1.weight f4 [20]
000000 f6 3d 9f 3a 8c ce cc 3d 5b a8 b0 38 f6 b6 99 3d
       0.0012149203 0.10000333 8.4236926e-05 0.075056
000010 f6 a5 09 3c 35 8c 61 3c 73 71 dc 3b d1 af 1d 39
       0.008401385 0.013766338 0.0067273914 0.00015038183
000020 1c c0 c0 39 60 cf b7 b6 5c 16 60 ba b0 ca 80 39
       0.00036764226 -5.4779666e-06 -0.00085482537 0.00024565076
000030 62 8f 0c b8 28 de 37 3d 94 dd 98 39 30 b3 b5 3c
       -3.3512137e-05 0.0448896 0.00029156788 0.02218017
000040 17 40 25 ba 98 b4 cd 36 3a 33 7c 3c ca ac be b9
       -0.00063038006 6.1305e-06 0.015393073 -0.00036368362

encoder_var.1.bias f4 [20]
000000 88 e0 60 ba 69 2c c6 bb 7d f5 c7 b8 2b 12 ad bc
       -0.00085783796 -0.0060477746 -9.534785e-05 -0.021126827
000010 19 b1 bb 3a 4b d9 d4 bc 89 52 7d b9 28 bf 0d ba
       0.0014319747 -0.02598252 -0.00024158707 -0.00054072076
000020 6b b9 37 bb 4b 7b 95 b7 19 8d 1f bb 02 28 ae ba
       -0.0028034102 -1.7819597e-05 -0.0024345575 -0.001328707
000030 9d 8b cb b9 36 fe 14 bc 97 a9 df b9 ae 03 ac bd
       -0.00038823197 -0.009093812 -0.0004266023 -0.08399139
000040 be e2 ae 39 20 e5 7c b7 8c 81 f8 bc b7 aa 14 bc
       0.00033356802 -1.5073718e-05 -0.03033521 -0.009073905

encoder_var.1.running_mean f4 [20]
000000 24 43 b4 3a 1a d5 36 bd f4 bd 80 3a d2 49 b9 3c
       0.001375292 -0.044636823 0.0009822235 0.022618208
000010 c6 77 e0 bb a7 68 48 3d 08 4a ad b9 7f 81 86 3c
       -0.0068502156 0.04892793 -0.0003305229 0.01641917
000020 96 7e 18 bd d8 fa 69 bb 9b 13 d2 3b 34 a2 2d 3c
       -0.037230097 -0.0035702493 0.0064110286 0.010597754
000030 c8 50 67 3b 70 41 e5 3a b1 a4 0f 3b f1 44 b4 3c
       0.0035295952 0.0017490815 0.0021918232 0.02200553
000040 a6 fd c5 3c 7b 50 bb bb 11 42 14 bd 6a ca 5a bc
       0.0241688 -0.005716381 -0.03619582 -0.013353923

encoder_var.1.running_var f4 [20]
000000 a6 de af 34 60 07 da 39 19 54 45 35 37 61 17 3a
       3.2758288e-07 0.00041585695 7.3510597e-07 0.0005774679
000010 3d 2c 4b 37 12 52 f3 38 44 1c 3d 38 64 f7 c6 38
       1.2110043e-05 0.0001160243 4.5087436e-05 9.487456e-05
000020 61 88 42 3a b9 9e 26 37 a0 5c f7 37 8d bd f1 38
       0.0007420835 9.9313265e-06 2.9487826e-05 0.00011527082
000030 f6 7f 18 37 00 c2 cb 39 0b 29 73 36 ac f6 f8 39
       9.089699e-06 0.00038863719 3.6233712e-06 0.0004748603
000040 76 8d fa 39 5a 7d a4 37 bd 1f a6 3a 75 62 94 38
       0.00047789112 1.9608695e-05 0.0012674254 7.075529e-05
