generativecf/models/sangiovese-512-50-target-class-0-auto-encoder.pth (torch_old, 31867 bytes, 78 tensors)

encoder_mean.0.weight f4 [20, 13]
000000 fa 3b ba bc cc 56 c4 bc 4c 4c 9a bd 0e 8e 82 bc
       -0.022733677 -0.02396717 -0.07534084 -0.015936878
000010 94 bb 63 3b 8c 5b 8c bc aa 86 c9 3b 47 28 ad 3b
       0.0034749256 -0.017133497 0.0061500864 0.0052843424
000020 93 ba 20 bc ac 0e 5f ba eb b1 35 3b 11 50 98 3d
       -0.009810108 -0.0008508961 0.0027724456 0.074371465
000030 7a c0 c3 3c 7d be 18 3c d4 17 4e 3c e0 3f b8 3d
       0.02389549 0.00932276 0.012578923 0.08996558
000040 99 a3 92 3c 68 aa 0d 3c 30 a3 92 3c 87 cb b3 3c
       0.017900275 0.008646585 0.01790008 0.021947635
000050 32 e8 23 bc b8 56 8f bb 83 3f ea bb 3c e3 f7 3b
       -0.01000409 -0.0043743514 -0.0071486845 0.0075649302
000060 50 54 8d bd 7d d9 0d bd 60 f3 c1 b8 8d 53 4a 3c
       -0.06900847 -0.03463124 -9.248289e-05 0.012349022
000070 f4 2a c6 3d 63 8f f6 3b 7d af 2f bb d5 5d a9 3c
       0.096761614 0.0075244172 -0.002680748 0.020674625
000080 78 3c a4 3c d8 4e a9 bb 95 85 b9 3c d2 ff 47 bc
       0.020048365 -0.0051668696 0.022646705 -0.012206988
000090 f2 40 a0 3b c8 c4 84 bd f1 84 0c bd 70 1a 9a bc
       0.0048905546 -0.064828455 -0.03430647 -0.018811435
0000a0 5c cd c7 bc 12 6e b9 bd fd 3d 52 bb ae 0b dd bb
       -0.024389915 -0.09054197 -0.0032080405 -0.006745777
0000b0 de bb d9 3b 77 9b ef bb 04 c7 e4 3b 0a 87 f3 bb
       0.00664471 -0.007312234 0.0069817323 -0.0074318694
0000c0 d4 fb 84 bb c1 b7 56 bc ff 6e a2 3d fa 14 37 3d
       -0.0040583406 -0.013105334 0.07931327 0.04469774
0000d0 67 d1 d6 3b 8d 87 b5 bb 1e 3f b1 bd 6d a6 41 bc
       0.0065557244 -0.0055398406 -0.08654617 -0.011819464
0000e0 60 f1 43 bc 90 45 77 bc 05 2d 88 bb f3 d0 ba 3b
       -0.011959404 -0.015092269 -0.0041557574 0.005701178
0000f0 18 f1 5c 39 02 f5 03 3c 71 bb 59 bb 1b 4d 6f 3d
       0.0002107065 0.00805402 -0.0033223296 0.058423143
000100 a8 74 52 3d f6 58 bd bc 48 a9 38 bc a3 42 a9 bd
       0.051380783 -0.023113709 -0.011270829 -0.08264663
000110 d9 38 4f bb cc 2a f6 ba b4 d1 9f bc 3f 8c 70 bc
       -0.0031619577 -0.0018781065 -0.019509174 -0.014681875
000120 fa 4d 2d 3b 96 39 a7 bb 2c 6b 9c bb 90 c5 ee bb
       0.0026444183 -0.0051033003 -0.004773518 -0.007286735
000130 de 2a 80 3d e4 6a 29 3d c2 09 1d 3b 1f b3 92 bc
       0.06258176 0.041361704 0.0023962115 -0.017907677
000140 4a 1a e4 3d cc 0f 33 3c 08 ff 28 ba ac b0 9b 3c
       0.11137827 0.010929059 -0.0006446694 0.019005142
000150 88 a3 00 3d 84 0f c3 bc 86 2f 1a 3c 78 be 06 bc
       0.031405956 -0.02381111 0.0094107445 -0.008224122
000160 20 68 e0 3b ef fc 7a bd c3 05 da bc 9a 90 3b bb
       0.00684835 -0.061276373 -0.026614076 -0.0028620125
000170 ca 30 19 bc 35 8f 70 3d ea 58 cc 3c b3 fc 01 3d
       -0.009350011 0.058730323 0.024944741 0.031735133
000180 fe c4 c3 3c 73 aa c3 3b 20 b4 9b bb c0 68 6e 3c
       0.023897644 0.005971247 -0.004751697 0.0145513415
000190 f9 f0 4e bc 20 38 01 ba af 2c d1 bc 15 12 b9 bc
       -0.012630695 -0.0004929323 -0.025534002 -0.02259163
0001a0 b9 23 62 bc 7f 11 b6 bc 92 ef 8b bd c2 40 b6 bc
       -0.013802462 -0.02222514 -0.06832804 -0.022247676
0001b0 c9 5b cd 3b f2 ef 0c bd 75 e2 f8 bc 84 3c 44 3b
       0.006267045 -0.034408517 -0.03038142 0.0029943297
0001c0 ec cb 72 3b 28 d1 82 3c 47 a9 02 bc f6 ce 91 3d
       0.0037047816 0.015968874 -0.007974929 0.07119553
0001d0 cd d3 19 3d 79 aa 58 bc 1f 2e 00 bc c7 83 96 bd
       0.037555505 -0.013224238 -0.007823496 -0.07349353
0001e0 e2 b5 5f bb 60 d5 35 bc 27 7b 33 bc dc 6e ab 3b
       -0.003413551 -0.011098236 -0.010954655 0.0052317213
0001f0 c8 a9 9f 39 22 03 ad bb d0 70 30 ba e8 ac a5 39
       0.0003045334 -0.0052799145 -0.00067306776 0.00031600078
000200 d2 58 83 3d c9 6c 35 3d f1 0e 49 3c d5 32 81 3c
       0.064134255 0.0442932 0.012271629 0.015771309
000210 5b 38 88 3d 2a 2c 98 3c 1e 64 07 3c d8 e2 83 3c
       0.06651374 0.018575747 0.008263616 0.016099378
000220 7f 7c 4c 3c a8 6c 0a bb 2d d8 93 3b e8 a2 2a 3c
       0.012480854 -0.0021121893 0.004511854 0.010414816
000230 8a bb a1 bb 71 92 8f 3d 95 16 6d 3d 82 fb da bb
       -0.0049356865 0.07010353 0.057882864 -0.006682814
000240 50 ee 0d bc ee 36 8c bd 62 de 81 bb 56 01 90 bc
       -0.008662775 -0.068464145 -0.0039632777 -0.017578762
000250 26 7c ba bc 92 4b 07 3c cc c7 c4 bb 81 c0 6b 3a
       -0.022764277 0.008257763 -0.006005263 0.0008993224
000260 2b 2c 27 bc c9 8a 88 3b ca 6e 88 3d 6d ee f3 3c
       -0.010203402 0.004166935 0.06661756 0.029776776
000270 14 58 fc bb 1a 21 62 bc 4a 63 a9 bd b0 a5 06 3c
       -0.0077009294 -0.013801837 -0.08270891 0.008218214
000280 b6 b7 14 bc b8 fe 8b bc 5c be ab bc ba 83 08 3c
       -0.009077003 -0.017089233 -0.020964794 0.008332187
000290 ec fa 07 bb c4 9c 00 bc fa 7e f3 bb 59 55 95 3d
       -0.0020748926 -0.007849876 -0.0074309083 0.072916694
0002a0 3d 82 36 3d b2 5e 52 bc 3b 1a c9 bc 2f 3b bd bd
       0.0445578 -0.01283996 -0.02454864 -0.09239804
0002b0 cd 6d ab bb ac 11 d9 bb e2 59 f3 bc 12 92 ac bb
       -0.005231595 -0.006624421 -0.029705945 -0.0052664364
0002c0 b2 b2 45 3c af 84 95 3c 76 84 56 3b 70 64 58 b9
       0.01206653 0.018251745 0.0032732761 -0.00020636781
0002d0 05 1c 8f 3d 07 90 42 3d 03 fd 82 3c c6 75 9d 3c
       0.06987766 0.047500636 0.015989786 0.019221198
0002e0 03 21 2b 3e 2f 45 02 3d 75 71 89 3c 0d 4e b5 3c
       0.16711812 0.03180426 0.016777733 0.022131944
0002f0 ca c7 7a 3c 58 4c bd 3b 94 62 98 3b 13 8e 31 bc
       0.0153064225 0.005776923 0.0046504233 -0.010837096
000300 a6 7f 88 3c 82 c0 b5 bd c7 b0 62 bd bc dc 4c bc
       0.01666243 -0.088746086 -0.05534437 -0.012503799
000310 bd bb 05 3c a6 4a d9 3d dc b2 a5 3c f9 5c cd ba
       0.008162436 0.10609941 0.020226888 -0.0015667967
000320 c1 d1 a8 3c 57 ff 6a 3c 36 d8 33 bc 5a b9 2b 3b
       0.020607831 0.014343104 -0.010976842 0.0026203007
000330 c7 5f 7d 3c 49 2d 14 bb 7e bc 80 3d 4d 11 11 3d
       0.01546473 -0.002261 0.06285952 0.03541689
000340 10 ea 66 bb 3d 9d db bb 15 fe c6 bd c8 a7 b3 bc
       -0.0035234727 -0.006702094 -0.09716431 -0.02193059
000350 fd 2d 5a bc b3 3e ba bc cf 44 ec bb 0a d7 bf 3c
       -0.0133166285 -0.022734975 -0.007210351 0.023417968
000360 f4 10 be bc d6 7f d9 bb e6 df 8c bc 9f f0 97 3d
       -0.023201443 -0.0066375537 -0.017196607 0.07418942
000370 dd 26 4f 3d ae ac 9f 3b d8 b1 08 bb 5e 9f ec 3d
       0.050574172 0.00487288 -0.0020857956 0.115538344
000380 1a e2 d8 3c 23 5d 8c 3c ec cd d5 bb 02 a2 a3 3c
       0.026475001 0.017134255 -0.006524792 0.019974712
000390 b0 e0 c5 ba 07 89 85 bc 6b eb 6c 3c b8 2b 86 bc
       -0.0015096869 -0.016300691 0.014460425 -0.016378269
0003a0 5f 28 8e bd ea 59 40 bd bf 45 89 32 5a 71 f7 b1
       -0.06941294 -0.04696075 1.5980616e-08 -7.2015327e-09
0003b0 f0 fa f5 b2 7e 4c e6 b1 f7 23 c8 b1 b2 6c 44 31
       -2.8635867e-08 -6.702577e-09 -5.824855e-09 2.858354e-09
0003c0 aa d3 21 32 63 14 00 32 f9 9e 8b b2 8d c8 27 b2
       9.41956e-09 7.455216e-09 -1.6254022e-08 -9.766279e-09
0003d0 74 73 80 b2 8b b3 57 b1 40 03 fa 30 0e 0f 09 3c
       -1.4953663e-08 -3.1388676e-09 1.8190818e-09 0.008365406
0003e0 7a 40 e2 ba c2 63 9d 3d b7 a8 7d 3c 4b 24 36 bc
       -0.0017261647 0.07685043 0.015482119 -0.011117051
0003f0 0a 45 53 3c 66 2e f6 3b a2 cf 38 bc 09 b0 9e 3b
       0.012894878 0.0075128553 -0.011279972 0.0048427624

encoder_mean.0.bias f4 [20]
000000 ce 0c e6 34 63 76 75 b4 5c 4a 33 34 07 90 a9 b4
       4.2850155e-07 -2.2860472e-07 1.6697726e-07 -3.1583497e-07
000010 62 32 52 b3 fc 6a 96 b5 e7 b5 05 b5 6e 83 0f 34
       -4.8940258e-08 -1.1207007e-06 -4.9811064e-07 1.3365727e-07
000020 98 23 27 b1 d1 1b b7 b4 cb ca 0b b6 cc 10 db b5
       -2.4321931e-09 -3.4106645e-07 -2.0830655e-06 -1.632166e-06
000030 fc b4 38 35 9a d1 98 35 a4 42 81 b5 f7 7f 3b 35
       6.880871e-07 1.1385885e-06 -9.630644e-07 6.984914e-07
000040 28 23 8d 34 87 d3 66 34 12 1c c4 aa e9 07 c2 34
       2.6288876e-07 2.1497372e-07 -3.4836072e-13 3.614107e-07

encoder_mean.1.weight f4 [20]
000000 7e a5 60 3d fb 28 94 3d e3 a8 ab 3d 44 2b 86 3d
       0.054845326 0.07234379 0.08381822 0.06551221
000010 be 37 26 3d 68 cd 6b 3d 48 d2 d5 3d f9 22 5b 3d
       0.040580504 0.057568938 0.104404986 0.05350015
000020 a4 76 a5 3d 30 cd 50 3d 00 e0 ad 3d 2a 6d 57 3d
       0.080792695 0.050976932 0.0848999 0.05259434
000030 cc 8f 35 3d c1 7b 93 3d 23 a2 02 3e 86 65 50 3d
       0.04432659 0.072013386 0.12757163 0.05087807
000040 72 18 44 3d e8 f4 87 3d b3 95 e4 38 ba 6c 8a 3d
       0.047874875 0.06638509 0.00010899771 0.06759019

encoder_mean.1.bias f4 [20]
000000 28 66 df bb b2 01 93 3c 4f 68 5c bb 72 21 a9 bc
       -0.006817598 0.017945144 -0.0033631509 -0.02064583
000010 0a 63 4d bb 7e f9 87 bc 41 73 fe bc 6c 43 f2 bc
       -0.003133955 -0.01659846 -0.031060817 -0.029573165
000020 06 47 6f bd e8 30 f6 3b aa a1 b3 bd 18 4e 06 3b
       -0.058417343 0.0075131543 -0.08771069 0.0020493325
000030 b2 51 a8 3b 9a 98 cc bc 34 8b 03 3d b6 87 10 bd
       0.005136692 -0.02497511 0.032115176 -0.035285674
000040 76 36 92 bc b6 34 07 3a 42 bd c8 33 56 c2 8b bb
       -0.017848235 0.0005157696 9.3476515e-08 -0.00426511

encoder_mean.1.running_mean f4 [20]
000000 5a 94 80 bc 03 0a dc 3c 68 f7 fd 3c d2 ed 00 bc
       -0.01569574 0.026860243 0.031001762 -0.007869201
000010 0c 4b bb 3c 73 2c 0c bd 6c b1 e1 3c b3 18 da 3c
       0.022862934 -0.034222078 0.027550422 0.026623106
000020 44 b9 41 bb 94 d8 60 bb 91 04 1e 3e 2f d6 85 3b
       -0.002955989 -0.0034308778 0.1543143 0.0040843706
000030 7e cd 65 bc 06 7f 40 bc 8f f3 44 3d 9c ea 06 3e
       -0.014026044 -0.011749035 0.048083838 0.13175434
000040 84 b9 36 bc 87 9d a0 3c e5 1e 00 b3 3a 2b 40 bc
       -0.011152629 0.019606365 -2.983042e-08 -0.011729056

encoder_mean.1.running_var f4 [20]
000000 0c 89 f0 39 ed 2b 3c 3a 24 fa 14 3a ab 29 15 3a
       0.00045878475 0.00071781763 0.0005683026 0.0005690108
000010 e2 79 1e 3a 8b 3a 2c 3a 4a e8 3c 3a 78 50 a3 39
       0.00060453836 0.0006570003 0.00072062446 0.00031149737
000020 05 14 36 3a c0 66 e0 39 e8 1b ab 39 66 9a cc 39
       0.0006945732 0.00042801164 0.00032636453 0.00039024948
000030 6d 64 fd 39 c9 f0 08 3a ac c9 b3 3a 0d 12 a4 39
       0.00048330743 0.0005223868 0.0013716719 0.00031293966
000040 68 7e 55 3a 72 0e 52 3a 8b 23 8a 24 50 76 c6 39
       0.0008144141 0.0008013017 5.990817e-17 0.00037853653

encoder_mean.4.weight f4 [16, 20]
000000 c0 35 b4 3c 88 bc 95 bc 5a 35 86 bc fc 1d e1 3c
       0.021998286 -0.018278375 -0.016382862 0.027480118
000010 ad d8 9d 3c 1d df bd 3c cb 62 65 3a c4 a2 8c 3b
       0.019268358 0.023177678 0.0008750378 0.004291864
000020 d6 d6 dc 3c 12 65 26 3d 37 67 f1 bc ac 9e 03 3d
       0.02695791 0.040623732 -0.029468162 0.032133743
000030 78 01 af 3c 0e 18 aa 3c 6d f4 a0 bc 4d e2 85 bc
       0.021363005 0.020763423 -0.019647801 -0.01634326
000040 82 fa d4 3c f3 0a 5b bc 09 c2 0e 31 0a 4c d9 bb
       0.025998358 -0.01336931 2.0774016e-09 -0.006631379
000050 a3 60 e4 3c c6 64 99 bc 72 81 7d bc 09 31 9d 3c
       0.027878111 -0.01872481 -0.015472757 0.01918842
000060 59 8b 94 3c b6 31 c8 3c 24 03 28 ba e0 cc a1 37
       0.018132852 0.024437767 -0.00064091594 1.9288098e-05
000070 5b 92 2c 3c 0b 9e 99 3c ea 97 d2 bc f4 c0 a5 3c
       0.010532941 0.018752119 -0.025707204 0.020233609
000080 6d 70 80 3c 14 13 c3 3c fb 0a ce bc 52 b4 8b bc
       0.015678609 0.023812808 -0.02515172 -0.017053757
000090 96 1a 53 3c 7a 7f 96 bc 61 b3 21 31 de 4b f1 bb
       0.012884757 -0.018371332 2.3530549e-09 -0.0073637804
0000a0 9c 6e 6f bc fa 8f 58 3d 5f ce 5d 3d 18 8e d2 3a
       -0.014613774 0.05287168 0.05415189 0.0016064076
0000b0 13 99 69 bc f3 4e 01 ba 6c 85 18 3d 24 f5 9a 3c
       -0.014257687 -0.0004932724 0.037236616 0.01891572
0000c0 de f8 3e 3c 70 da db bc 44 33 8e 3c fe 66 b7 bc
       0.011656014 -0.026837558 0.01735843 -0.022387978
0000d0 3c 6e 98 bc 28 2a c1 ba 09 e6 93 3c 41 c3 5b 3b
       -0.018607251 -0.0014737295 0.018054025 0.0033533128
0000e0 20 49 56 bc e1 ff 01 3d 96 8b de 30 f2 32 1d 3d
       -0.013078958 0.031738166 1.6192299e-09 0.038378663
0000f0 84 33 27 3d a0 f2 0d bc 3c a9 6e bc db 1a 35 3d
       0.040820614 -0.008663803 -0.014566716 0.044215064
000100 16 c7 1d 3d 0c 79 e4 3c 8f 6b 8d 3a 7b 5e 90 3a
       0.03851994 0.02788975 0.0010789501 0.0011014485
000110 bf f6 eb 3c cd 56 00 3d 05 0d 0a bd 1a c5 36 3d
       0.028804181 0.03133278 -0.033703823 0.044621564
000120 be 68 ca 3c ed fd e8 3c 0d 3a be bc 24 e7 f4 bc
       0.024708148 0.028441394 -0.02322104 -0.029895373
000130 8f 7e 06 3d 4e 9b c1 bb 53 fe 2b b0 4c c5 33 ba
       0.03283554 -0.0059084063 -6.2570854e-10 -0.00068577076
000140 5b 77 34 3c e8 ea 91 bb 50 86 6c 3a eb 78 23 3d
       0.011014785 -0.004453052 0.00090226997 0.03991024
000150 0c 2e e0 3b 0d ee cf 3c ea 73 11 bb b6 9f 91 39
       0.0068414267 0.025382066 -0.0022194334 0.0002777555
000160 f0 f3 07 3d 5c a4 10 3d b5 a2 45 bd fa ea 5f 3c
       0.03319162 0.035312995 -0.048250873 0.013666863
000170 f3 9a 60 3c 83 2d 97 3c 38 d6 3d bc 73 c9 1f bd
       0.013708818 0.018454319 -0.011586718 -0.039010476
000180 50 67 eb 3a 54 e8 00 bc 44 bf aa 31 fc e7 90 ba
       0.0017959867 -0.007867891 4.9693956e-09 -0.0011055465
000190 fd b4 0d 3c d7 0a d5 3c 66 7a 36 3d 3a 5b 66 3c
       0.008649108 0.026006145 0.044550322 0.014059836
0001a0 32 38 fc 3a 38 8a dd 3a 43 95 64 3d f3 60 19 3d
       0.0019242822 0.0016902154 0.05580641 0.037445974
0001b0 0c ff 03 3c 8f 2f c4 3a 6c 8a 08 bd cc f8 30 bb
       0.008056413 0.0014967787 -0.033335134 -0.0027003763
0001c0 2b 86 25 3c 15 26 b5 3b d9 d2 e5 bc 9b 8c 37 bd
       0.010102789 0.0055282214 -0.028054642 -0.044811826
0001d0 5b ea 38 3c 83 04 ce 3c 56 44 6f b1 d1 8b f9 3c
       0.011286343 0.025148636 -3.4817922e-09 0.030462177
0001e0 b5 26 de 3c 51 c4 8e bc e6 7e 90 bc b2 5c 01 3d
       0.027118066 -0.017427595 -0.017638635 0.03158254
0001f0 42 9b 4f 3c 9c 75 bc 3c 57 7e 9b ba 37 cc 92 3a
       0.012671294 0.0230053 -0.0011863214 0.0011199777
000200 2a 93 07 3d ff 8a cd 3c d1 b9 1b bd 6f f6 85 3c
       0.03309933 0.025090693 -0.038019005 0.01635286
000210 7e b3 73 3c 00 27 bd 3c 33 ee da bc 91 27 cf bc
       0.014874337 0.023089886 -0.02672491 -0.025287421
000220 ae 86 9f 3c ae c1 84 bc be c4 ab 30 ee 8d 16 bc
       0.0194734 -0.016205635 1.2497805e-09 -0.009189112
000230 21 52 61 bc ca 83 50 3d 99 62 14 3d 8e d3 df b9
       -0.013752491 0.050906934 0.036226843 -0.00042691495
000240 8a 42 b7 bb 30 f0 11 ba 8b a8 39 3d 9a ff bf 3c
       -0.005592649 -0.0005567102 0.04532675 0.02343731
000250 a4 61 a8 3b 5d cc bc bc f3 2a ae 3c 41 19 e2 bc
       0.005138593 -0.023046667 0.021260714 -0.027599933
000260 32 5b a3 bc c0 5d cb bb e0 e0 a2 3c 7f ca 4a 3c
       -0.019940946 -0.006206244 0.01988262 0.01237738
000270 88 1c 45 bc cd e8 09 3d a2 91 09 b2 42 73 f1 3c
       -0.012030728 0.03366928 -8.007563e-09 0.029473905
000280 20 86 46 bc c8 17 44 3d d2 5d 57 3d 48 fa e0 ba
       -0.012116939 0.047874242 0.05257971 -0.0017164433
000290 bd a6 8a bc ca 40 33 3b 93 08 14 3d 50 91 02 3d
       -0.01692521 0.002735185 0.03614099 0.031876862
0002a0 fd f0 5f 3c fc 14 c7 bc 14 cb 59 3c de a9 c4 bc
       0.013668296 -0.024301998 0.0132930465 -0.02400678
0002b0 81 c2 8a bc a3 52 b5 bb 20 73 4c 3c 2c 40 2f 3c
       -0.01693845 -0.0055335327 0.01247862 0.010696452
0002c0 f6 f1 bb bb 13 f9 63 3d b6 1c 94 b0 be 07 0d 3d
       -0.005735631 0.055657458 -1.0776577e-09 0.03443121
0002d0 00 a2 09 b9 c1 f3 15 3d 2b 8b 89 3d 00 60 e0 3b
       -0.00013125688 0.036609415 0.06715997 0.0068473816
0002e0 8c cc 39 bb d3 4d 05 3c 4e fb 47 3d 12 0d 00 3d
       -0.002835068 0.0081362305 0.048823647 0.031262465
0002f0 80 7f 9f 3b b4 ea 18 bb 55 1f 14 bc d6 64 5e bb
       0.004867494 -0.0023333253 -0.009040673 -0.0033934615
000300 10 23 44 3a 71 f9 0b 3c ec f3 1a bc 95 63 be bc
       0.00074820314 0.008543358 -0.00945757 -0.023240844
000310 d6 8c b8 3a 60 5e 56 ba 58 fd 04 2f 9e c3 27 3d
       0.0014080058 -0.0008177515 1.2095336e-10 0.04095804
000320 b9 c3 cd 3c eb a7 94 bc 9a 32 7a bc 3f 2e f5 3c
       0.025117742 -0.018146476 -0.015270853 0.029929278
000330 76 75 9b bc f0 03 5d 3c 53 04 23 3a cd d2 50 3b
       -0.018976908 0.013489708 0.0006218601 0.0031863928
000340 c6 9b 27 3d 1a d5 9b 3c 33 db 1f bd 7a d7 bd 3c
       0.04092004 0.019022513 -0.039027404 0.023174036
000350 64 ea 65 bc d2 2a b6 bb 49 73 93 bc 41 f0 07 bd
       -0.014032934 -0.005559304 -0.017999308 -0.03318811
000360 89 07 de 3c 44 a5 f9 bb d8 e2 9c 31 b7 5d d5 bb
       0.027103202 -0.007618578 4.5659867e-09 -0.006511416
000370 78 06 1f 3d b7 e5 90 bc ef 88 a7 bc b6 73 6d 3c
       0.03882453 -0.017687662 -0.020451037 0.01449292
000380 45 d3 10 3d 7a 26 89 3c 29 98 c0 bb 37 cb dd 39
       0.035357732 0.01674198 -0.005877514 0.00042303812
000390 5c 6d 68 3c c4 05 47 3c c1 9b 78 bc 32 83 cb 3c
       0.01418623 0.012147371 -0.015173853 0.024842832
0003a0 51 b8 06 3d f7 cf cf 3c e2 29 db bc 80 7b 6b bc
       0.03289062 0.02536772 -0.02675337 -0.014372706
0003b0 26 02 c6 3c b0 fb 60 bc 38 bc cc 2e 76 03 22 bc
       0.024170946 -0.013731882 9.31028e-11 -0.00988852
0003c0 3b 36 94 bc 77 e6 c8 bc da f7 e8 bc 07 2a a2 bc
       -0.018092265 -0.024523957 -0.028438497 -0.01979543
0003d0 f7 57 a5 bc d5 5b b9 bc cf 00 f4 bc cb 27 88 3c
       -0.020183546 -0.022626797 -0.029785542 0.016620537
0003e0 0c 4f 89 bc 32 3e 35 bc 1b 0e e0 bc ee a8 80 bc
       -0.016761325 -0.011062192 -0.027350476 -0.015705552
0003f0 45 b0 9e bc d3 6b db bc 40 26 1f 3e 7c c4 0b bd
       -0.019371161 -0.026784813 0.15541935 -0.03412293

encoder_mean.4.bias f4 [16]
000000 d6 57 c7 b3 ce 2b 07 b5 ee ae 15 35 60 56 40 b3
       -9.282637e-08 -5.0355163e-07 5.576138e-07 -4.478204e-08
000010 53 51 9f b5 b4 26 b1 34 af cb bd b5 cc 6f 65 35
       -1.1870092e-06 3.299698e-07 -1.4140877e-06 8.5471834e-07
000020 44 4e 12 b5 79 67 13 36 28 98 76 32 2c 51 02 35
       -5.450313e-07 2.1964936e-06 1.4353681e-08 4.8546895e-07
000030 58 c0 2e b4 26 9d f6 35 f5 74 b0 2d 40 03 6e b5
       -1.6274987e-07 1.8374164e-06 2.0060823e-11 -8.866664e-07

encoder_mean.5.weight f4 [16]
000000 84 5f 7c 3d 75 ec 50 3d 13 c1 a9 3d 76 6b 84 3d
       0.06161453 0.051006753 0.08288779 0.06465809
000010 7e 91 89 3d 47 ac 92 3d 12 50 71 3d 17 e5 92 3d
       0.067172036 0.071617655 0.05891425 0.07172602
000020 19 4e 8a 3d a0 b1 a0 3d 83 0c 7b 3d 63 89 59 3d
       0.06753177 0.07846379 0.06129123 0.053109538
000030 c6 f2 e4 3d cb ad 69 3d 18 83 59 ba 6f 26 8c 3d
       0.11179118 0.057050508 -0.00082974276 0.06843268

encoder_mean.5.bias f4 [16]
000000 97 87 a3 3c 4d 53 8e 3c 41 8d db 3c 8f bf 77 3c
       0.019962115 0.017373705 0.026800754 0.015121355
000010 78 4a 29 ba 6b 78 2b bb 42 47 88 3c 7f 4c f2 3c
       -0.0006457935 -0.0026164304 0.01663554 0.029577492
000020 51 f0 61 3c 2d db 8d 3c 0c 78 4b 3c 0e ee a4 3c
       0.013790206 0.017316425 0.012418758 0.020133045
000030 fc 5d 65 bd a1 9e 13 3d 38 3a 1f ba 56 12 94 3c
       -0.055997834 0.036039952 -0.0006074044 0.01807515

encoder_mean.5.running_mean f4 [16]
000000 d0 23 38 3b aa 39 9c 3a 69 c4 97 3b 84 5a ad 3b
       0.0028097518 0.0011919041 0.004631568 0.0052903313
000010 3e 87 a4 3b 31 c9 80 3b bb eb 8c 3a 8c 36 9f 3b
       0.005021005 0.003930234 0.0010751405 0.0048587974
000020 34 b6 a3 3b f2 be 85 3b 6d 3e 9f 3a 0c d1 19 3b
       0.0049960855 0.0040816003 0.0012149342 0.002347055
000030 78 37 8a 3b e7 9a c5 3b bd 59 c7 b2 cf b1 29 3b
       0.004218038 0.0060304287 -2.3207457e-08 0.0025893336

encoder_mean.5.running_var f4 [16]
000000 7a 2c 19 39 07 83 00 39 80 b3 36 39 e1 37 2a 39
       0.00014607786 0.00012255843 0.00017423742 0.0001623328
000010 c3 cd b0 38 ee 23 65 38 fe 9e 19 39 25 c9 2f 39
       8.43066e-05 5.4631317e-05 0.00014650446 0.00016764233
000020 72 e9 26 39 f1 eb 8f 38 fb d3 9f 38 c9 f2 10 39
       0.00015917959 6.862719e-05 7.621195e-05 0.00013823355
000030 1b 68 a1 38 b4 d0 85 38 65 39 42 28 0b 23 31 39
       7.6964694e-05 6.380808e-05 1.0781609e-14 0.0001689309

encoder_mean.8.weight f4 [14, 16]
000000 11 fb d1 3c ff 00 2f 3b c4 4c 04 bd 9a 7a 93 3c
       0.025632413 0.0026703475 -0.032299772 0.018002797
000010 8a b6 db 3c 8a 4d f3 bb b9 41 de 3c d3 c7 b2 bc
       0.02682044 -0.007425015 0.027130948 -0.0218238
000020 68 72 29 bd d0 33 25 bc 79 0e c9 3c 96 6f 39 3c
       -0.041368872 -0.010083154 0.024543034 0.011318108
000030 4e af f2 bb 44 81 b2 3c f6 70 5e b5 90 bc 42 38
       -0.007406152 0.021790154 -8.2865824e-07 4.6428817e-05
000040 4a 69 dc 3c 90 6b b1 3c 94 06 e2 bc 43 86 ae 3c
       0.026905674 0.021657735 -0.027591027 0.021304255
000050 c8 e4 81 3c 58 f7 93 bc d6 bb 22 3c 02 41 d8 bc
       0.015856162 -0.018062279 0.009932479 -0.026398186
000060 05 6d ce bc ca 7d 9b bc 3e c3 30 3c f9 ec 88 3c
       -0.025198469 -0.01898088 0.010788737 0.01671456
000070 fa e3 50 bb df f6 9b 3c cd 4f 53 b3 71 fd 19 3d
       -0.0031874166 0.019038616 -4.9199844e-08 0.037595216
000080 0c d7 95 3c 32 ff ab 3c ab 60 1f bd 61 09 c7 3c
       0.018291019 0.02099571 -0.03891055 0.024296464
000090 88 83 cc 3c 6d 80 29 bc f6 96 17 3c 3d c1 ea bc
       0.024965063 -0.0103455605 0.0092523005 -0.028656596
0000a0 24 3c 10 bd c4 42 85 bc 5a de 0b 3d 15 14 cf 3c
       -0.035213605 -0.016267188 0.034147598 0.02527813
0000b0 9a 7e 40 bc ef fb ce 3c 97 23 2e b4 40 74 66 3c
       -0.011748934 0.025266616 -1.621796e-07 0.014065802
0000c0 0e 5b 3b 3c b9 0c b5 3c df 3a d7 bc 58 d9 f1 3c
       0.011435283 0.022100793 -0.02627319 0.029522583
0000d0 75 12 5f 3c ae ef 23 bc c3 50 06 3d 5c 06 e3 bc
       0.01361524 -0.010005875 0.032791864 -0.027712993
0000e0 4a e9 9d bc f9 39 93 bc 99 89 ba 3c a9 14 85 3c
       -0.01927628 -0.01797198 0.02277069 0.016245203
0000f0 0a f6 f4 ba f1 a2 99 3c 35 49 83 b5 bb 06 b1 3c
       -0.0018689048 0.018754454 -9.781567e-07 0.021609655
000100 88 60 c4 3c cb 9b 95 3c 70 30 e3 bc 17 b2 cf 3c
       0.023971811 0.018262764 -0.027733058 0.025353475
000110 ff 30 fe 3c a8 6b d5 bb 88 10 53 3c 63 b7 d3 bc
       0.031029223 -0.0065130778 0.012882359 -0.025844282
000120 7f 0e 9d bc 07 b4 31 bc ee 8b e4 3c c2 63 2c 3c
       -0.019171951 -0.0108461445 0.027898755 0.010521831
000130 4a ac bd bb 5f 89 ad 3c 02 b3 0b b5 1c 2b 9c 3c
       -0.0057883607 0.021183668 -5.2042026e-07 0.019063525
000140 c7 47 3e 3c ef 6e 6a 3c 07 66 8b bc c6 6a ce 3c
       0.011613793 0.014308675 -0.017016424 0.025197398
000150 ea 26 f0 3c d5 95 f6 b9 fb 03 30 3d c8 b7 8b bc
       0.02931543 -0.0004703241 0.042972546 -0.017055407
000160 19 90 27 bc a2 2b b1 bb f4 ae b3 3c a2 fb 74 3c
       -0.010227227 -0.0054068128 0.02193401 0.014952572
000170 e2 d7 3b 3b 5c 85 c2 3c 4e 4a 06 b5 29 8a cd 3c
       0.0028662612 0.023745231 -5.002702e-07 0.025090294
000180 67 a2 10 3d 39 ad ae 3c 76 be 00 bd c2 fc 0f 3c
       0.03531113 0.021322833 -0.031431638 0.0087882895
000190 34 97 aa 3c 5d cc 0f bc a0 69 68 3c 75 de dd bc
       0.020824052 -0.008776751 0.014185339 -0.027083615
0001a0 d9 52 b9 bc 4a 2b 41 bc de d5 07 3d 4f f8 57 3c
       -0.022622513 -0.011790106 0.033162944 0.01318176
0001b0 46 1d 5a bb 29 e3 49 3c 09 e6 24 34 00 d3 cd 3c
       -0.0033281608 0.012322226 1.5357377e-07 0.025125027
0001c0 d6 5b 35 bc 99 57 02 bd 1a 10 9b bc da bd 2a bd
       -0.011069259 -0.03182182 -0.018928576 -0.041684963
0001d0 c8 00 1d bd a5 b4 0a bd df e8 89 bc 02 35 7d bc
       -0.038330823 -0.033863682 -0.016834674 -0.015454533
0001e0 02 bf a1 bc bd 5a 02 bd b7 9c 18 bd c5 c2 0b bd
       -0.0197444 -0.031824816 -0.03725883 -0.034121294
0001f0 c9 85 24 bd 3e 2f 27 bd c4 7c 02 b4 4e 37 da bc
       -0.04016665 -0.040816538 -1.2152583e-07 -0.0266377
000200 72 bc 5d 3c 55 4a 92 3c ff 0d e3 bc ca cc f9 3c
       0.013533698 0.01785771 -0.027716635 0.030493159
000210 49 6e d0 3c 16 0b 3b bc 72 fb 90 3c cd cc ab bc
       0.025443213 -0.011416217 0.017698023 -0.02097168
000220 3c bd ef bc 47 ba 77 bc 3a fc c5 3c d5 83 61 3c
       -0.029265039 -0.015120096 0.024168123 0.013764341
000230 7c 4d df bb cf d7 01 3d e8 52 f7 b4 8b 93 6b 3c
       -0.006814657 0.03169995 -4.6067657e-07 0.014378439
000240 cd 91 be bc 36 e8 97 bc 4f 62 91 3c 9c 67 bb bc
       -0.023262883 -0.018543344 0.017747073 -0.022876553
000250 eb 5b d5 bc 4e 3e 4a 3d b3 4a 8c bc 6c d2 68 3c
       -0.026044806 0.049375825 -0.017125463 0.014210325
000260 21 51 16 bc e5 47 80 3d 36 79 bf bc 51 c7 a3 bc
       -0.009174616 0.06263713 -0.023373228 -0.019992502
000270 1e 90 8c 3d 14 52 13 3d 29 bd aa 34 e0 0d d3 bc
       0.06863426 0.035966948 3.18026e-07 -0.025763452
000280 d2 f2 5c bc c2 d2 9e bc 1c 09 12 3d 97 8b cc bb
       -0.013485627 -0.019387607 0.03565322 -0.0062422263
000290 27 48 e4 3a 5d 05 39 3d e0 61 95 bc c6 b6 ab 3c
       0.0017416523 0.04517113 -0.018235147 0.020961177
0002a0 dc 33 70 39 6f 1a 00 3d 09 97 5a bc 2c 71 80 bc
       0.00022907503 0.03127521 -0.013341674 -0.015678965
0002b0 82 34 89 3d 7b 08 18 3d 16 3c 01 34 16 3e 4c bc
       0.06699468 0.037117463 1.203592e-07 -0.012465974
0002c0 2e 09 bb bc fc 20 b1 bc 61 bf f4 3c f8 f2 45 bc
       -0.022831526 -0.021622173 0.029876413 -0.012081854
0002d0 85 96 9b bb 06 09 9c 3c fb 51 79 bc 5d 44 20 3c
       -0.004748168 0.019047271 -0.0152173 0.009781924
0002e0 b2 23 ba bb fd b2 42 3d ae 84 a1 bc 13 23 83 bc
       -0.0056805247 0.047533978 -0.019716587 -0.016007936
0002f0 f0 9a 93 3d 02 0e 0c 3d 3f b3 81 34 be 39 96 bc
       0.07207286 0.034193046 2.415854e-07 -0.01833808
000300 a3 d5 b8 bc 5f a4 aa bc f1 a3 11 3d ad d4 91 bc
       -0.022562807 -0.020830331 0.035556737 -0.017801607
000310 29 fd 1f bc b7 a0 0f 3d 26 c0 7e bc 7b d7 cd 3c
       -0.009764948 0.03506538 -0.015548741 0.025127163
000320 65 be ef 3c dc a2 8b 3d 9b f2 aa bc 0f 9b 77 bc
       0.029265592 0.06818172 -0.020867636 -0.015112652
000330 78 0f 76 3d 94 8b f4 3c 0a dd 0f 34 d8 9b 06 bd
       0.060073346 0.029851712 1.3398326e-07 -0.032863468
000340 4c 90 bf 3c 86 ab 86 3c be 72 09 bd 2c 48 ca 3c
       0.023384236 0.01643921 -0.033556692 0.024692617
000350 c1 48 50 3c ab d8 9c bc 84 4b 51 3c 44 e4 05 bd
       0.012712658 -0.019146284 0.012774352 -0.032688394
000360 b2 f6 0c bd 9c 22 a9 bc b8 ae a0 3c 0f 6b 86 3c
       -0.034414954 -0.020646386 0.019614562 0.016408471
000370 a8 3d 8d bc c9 69 4a 3c 10 3f 87 b4 72 97 60 3c
       -0.017241314 0.012354323 -2.5191594e-07 0.013707982

encoder_mean.8.bias f4 [14]
000000 d2 02 77 b5 d0 38 9e 34 d8 05 74 34 48 20 ab b4
       -9.2018774e-07 2.947113e-07 2.2726397e-07 -3.187472e-07
000010 2a 79 c6 34 b1 93 b7 34 2f ea 93 b5 c8 cf 29 b7
       3.6968532e-07 3.4193866e-07 -1.102051e-06 -1.0121563e-05
000020 a0 a6 75 35 84 25 de b4 55 72 0c b5 de 61 48 35
       9.1512084e-07 -4.1378019e-07 -5.232044e-07 7.464822e-07
000030 ee 47 ac b4 fa 5c 14 35
       -3.2089832e-07 5.5269595e-07

encoder_mean.9.weight f4 [14]
000000 b7 c1 81 3d b0 48 96 3d 29 f3 98 3d 6d 73 9f 3d
       0.06335776 0.07338083 0.07468254 0.077856876
000010 fb f5 88 3d 87 53 90 3d ae f0 8a 3d 06 1c 01 3e
       0.06687542 0.070471816 0.06784187 0.12608346
000020 99 15 91 3d e3 8b a2 3d aa 17 b3 3d 69 1a a3 3d
       0.070841976 0.079368375 0.08744748 0.07964022
000030 b3 5c aa 3d 84 5f 99 3d
       0.08318462 0.07488921

encoder_mean.9.bias f4 [14]
000000 ba 57 d3 3c 0f d6 cc 3c b6 cd de 3c 0c db d7 3c
       0.025798667 0.025004415 0.0271977 0.026349567
000010 e4 9b ce 3c 2d bd c9 3c 33 06 9e 3c 18 33 4b 3d
       0.025220819 0.024626339 0.019290065 0.049609274
000020 98 35 b4 3c a3 5c b4 3b 87 3f 1f 3d 2c 8a 10 3d
       0.021998212 0.005504207 0.038878944 0.03528802
000030 74 2e 0f 3d a0 92 11 3d
       0.03495641 0.035540223

encoder_mean.9.running_mean f4 [14]
000000 e1 80 b4 3a f5 2a ad 39 1e 7f fb 3a eb 5d d0 3a
       0.0013771319 0.00033029137 0.0019187664 0.001589713
000010 43 9c d8 3a 3e 18 69 3b 49 f0 73 b8 b8 f0 64 bc
       0.0016526062 0.0035567428 -5.8159498e-05 -0.013973407
000020 0f b9 3f 3a a2 8a 35 3b dc 13 6f 3b 66 b9 45 3b
       0.00073136477 0.002770104 0.0036480343 0.003017032
000030 06 08 9c 3b 86 65 17 ba
       0.0047616987 -0.0005775321

encoder_mean.9.running_var f4 [14]
000000 ef d4 17 39 32 25 42 39 6a 79 59 39 9e 8c 3a 39
       0.00014479806 0.00018515138 0.00020739963 0.00017790726
000010 53 df 24 39 42 17 fe 38 a0 97 0e 39 e6 3f 42 39
       0.00015723454 0.00012115996 0.0001359866 0.00018525086
000020 bd 38 25 39 2d 6c 86 39 c2 71 36 39 f4 4b 31 39
       0.00015756763 0.0002563907 0.0001739925 0.0001690833
000030 5f 97 9f 39 47 45 35 39
       0.00030439624 0.00017287313

encoder_mean.12.weight f4 [12, 14]
000000 ac 5e 71 bc 0e 24 da bc 70 4d a4 bc e5 22 01 bd
       -0.014732044 -0.02662852 -0.020056456 -0.03152742
000010 65 8f 88 bc e1 a4 92 bc 86 67 b3 bc 72 37 6a bd
       -0.016669938 -0.017900886 -0.02189995 -0.057181783
000020 fb 57 79 bc 60 8f 0a 3d c8 00 34 3d db ea f9 3c
       -0.01521873 0.03382814 0.043946058 0.030507496
000030 cf 3a 2d 3d 10 9d e1 bc b5 6b 76 3c 2b 8d b5 3c
       0.042292412 -0.027540714 0.015040328 0.02216204
000040 80 b0 bf 3c 9f 0c ab 3c f1 55 e8 3c 2d e0 08 3d
       0.023399591 0.020880042 0.028361293 0.033416916
000050 11 c9 ac 3c 35 d5 24 bd f5 bb d6 3c 1a 95 45 bc
       0.02109197 -0.040242393 0.026212672 -0.012059474
000060 f2 a7 d1 bc 3d 55 9e bc 9c a2 a4 bc ff 7b cd 3c
       -0.025592778 -0.019327754 -0.02009707 0.02508354
000070 79 c2 96 3c cd 38 c3 3c 7f 99 e9 3c d0 a2 fc 3c
       0.018403279 0.023830796 0.028515575 0.030839354
000080 f7 c8 c0 3c de 37 cb 3c 6e e1 a8 3c ea 8d 29 bd
       0.023533328 0.024806913 0.020615306 -0.041395105
000090 13 c4 41 3c 12 b1 39 bc 0e 87 de bc 26 d1 a3 bc
       0.011826533 -0.011333721 -0.027164008 -0.01999719
0000a0 18 35 aa bc d5 0b be 3c b7 17 07 3d 4c f5 09 3d
       -0.02077727 0.023199001 0.0329816 0.0336812
0000b0 76 84 9e 3c c6 2d e3 3c 0f a1 9c 3c 26 33 d4 3c
       0.019350272 0.027731787 0.019119767 0.025903296
0000c0 37 cc 77 3c 6a 24 1c bd d4 85 91 3c de 0f 3c bc
       0.015124372 -0.038120665 0.01776401 -0.011478392
0000d0 db fd c8 bc d4 db ad bc 48 55 93 bc b1 f4 c6 3c
       -0.02453511 -0.021222986 -0.017985001 0.0242866
0000e0 7d b8 f3 3c 1f 0d a0 3c d3 e9 e2 3c f6 ab fc 3c
       0.029751057 0.019537507 0.027699387 0.030843716
0000f0 53 68 91 3c 97 1b cb 3c f2 d6 92 3c f7 cb 1b bd
       0.017749941 0.02479343 0.01792476 -0.038036313
000100 15 52 e6 3c b8 90 2c bc ff 83 d3 bc b2 ac 9a bc
       0.028115312 -0.0105325505 -0.025819777 -0.018881176
000110 c0 85 9a bc d6 32 c5 3c 2f 39 96 3c f1 1a 75 3c
       -0.018862605 0.024072092 0.018337814 0.014960037
000120 36 c9 4b 3c 40 ba e5 3c 0c 7a ce 3c b2 10 15 3d
       0.012438109 0.028042912 0.02520468 0.036392875
000130 e9 cf a1 3c 87 27 20 bd 2d 2d 2e 3c b6 37 54 bc
       0.01975246 -0.039100196 0.010630888 -0.012952736
000140 12 8d d4 bc 78 c0 b7 bc e3 f0 a1 bc 88 bd 2f 3c
       -0.025946174 -0.022430643 -0.019768184 0.01072634
000150 e1 fc 5e 3c ab 5c eb 3c be a1 bf 3c a7 c3 1c 3d
       0.013610096 0.028730711 0.023392554 0.038272526
000160 a2 57 94 3c a6 e4 ae 3c 09 42 8f 3c b7 da 1b bd
       0.018108193 0.021349262 0.017487543 -0.03805038
000170 9e ea af 3c f2 17 ff bb ea 7d d3 bc 1f 48 8e bc
       0.021474179 -0.007784837 -0.025816876 -0.017368374
000180 1a 54 9e bc 25 a7 05 3d 08 5a 44 bc 80 73 c8 bc
       -0.019327212 0.032630105 -0.011984356 -0.024469137
000190 fc b1 8d bc 66 e0 cd bc de 05 72 bc 7c 73 37 bc
       -0.017296784 -0.025131416 -0.014771907 -0.011196967
0001a0 20 9d 8c bc e5 a1 6d bd b3 67 19 bc 89 6f 5d 3d
       -0.017164767 -0.058015723 -0.009363103 0.054061446
0001b0 21 d6 4f 3d 6e 52 49 3d 6e 2e 02 3d a9 34 ac bc
       0.05074132 0.049150877 0.03178256 -0.021021204
0001c0 af 73 d3 3c a4 74 fe 3c 87 6b bd 3c 60 c8 0b 3d
       0.025811998 0.031061478 0.023122562 0.03412664
0001d0 63 dc e3 3c 0b a1 ba 3c 4b 71 cd 3c ad ef 1f bd
       0.02781505 0.02278187 0.025078436 -0.039046932
0001e0 c2 38 f5 3c 68 2a 34 bc f2 30 bf bc c2 b5 7d bc
       0.02993429 -0.010996439 -0.023338769 -0.015485229
0001f0 6b 4a 91 bc ca 70 b7 3c 82 fd 88 bc a2 09 f0 bc
       -0.01773568 0.02239265 -0.016722444 -0.029301468
000200 8a 37 a6 bc 0a 62 f4 bc 55 51 95 bc 55 24 87 bc
       -0.020290155 -0.029831905 -0.018227259 -0.016496817
000210 ca 22 ae bc b1 02 68 bd e0 72 a2 bc b5 65 41 3d
       -0.021256823 -0.05664319 -0.019830167 0.047216136
000220 7a 45 34 3d f9 8e 3f 3d a0 60 06 3d 1e 1c e6 bc
       0.04401157 0.04676721 0.032806993 -0.02808958
000230 7f 1a 52 3c 39 7d ee 3c 4a 00 0b 3d 83 bf c7 3c
       0.0128237 0.029112445 0.033935823 0.024383312
000240 3f 47 a8 3c f5 a5 0e 3d e4 84 5f 3c f5 74 14 bd
       0.020541785 0.034826238 0.013642523 -0.03624435
000250 cc 10 52 3c 2e e8 eb bb bc 0b c0 bc ec 8c 97 bc
       0.0128213875 -0.007199309 -0.023443095 -0.018499814
000260 85 d4 83 bc 07 82 04 3d 02 b1 9b bc da 1a 09 bd
       -0.016092548 0.032350566 -0.019005302 -0.033472873
000270 ae 9c 9e bc 9a 75 f9 bc 60 0c a7 bc 84 6c aa bc
       -0.01936182 -0.030451585 -0.020391643 -0.020803697
000280 d7 c6 ce bc 14 62 80 bd 80 5c 78 bc 67 e4 09 3d
       -0.025241299 -0.06268707 -0.0151587725 0.033665087
000290 c3 78 16 3d 69 d6 15 3d 6e b9 58 3d f8 d1 fe bc
       0.03673626 0.03658143 0.052911215 -0.03110598

encoder_mean.12.bias f4 [12]
000000 45 9e eb b5 82 1d 8b b5 db c7 06 35 87 07 8d 34
       -1.7554927e-06 -1.0364895e-06 5.020972e-07 2.6268773e-07
000010 71 70 70 35 ae 8f cc b3 08 0a 1b 35 94 6b 48 35
       8.957059e-07 -9.5256254e-08 5.7756597e-07 7.466235e-07
000020 32 3e bd b5 d6 db cb b4 83 b7 7e b4 14 3a b7 b2
       -1.4099699e-06 -3.7971648e-07 -2.3722355e-07 -2.1330415e-08

encoder_mean.13.weight f4 [12]
000000 26 3c ac 3e ed cf 85 3e 67 e8 86 3e c3 fe 83 3e
       0.3363964 0.26135197 0.26349184 0.25780305
000010 46 39 8b 3e 34 36 81 3e c3 ac 87 3e 43 8a af 3e
       0.27192134 0.25236666 0.26498994 0.34285173
000020 95 73 88 3e 1e 7b b9 3e 0a 5f 81 3e 66 3e b3 3e
       0.26650682 0.36226743 0.25267822 0.35008544

encoder_mean.13.bias f4 [12]
000000 91 ed 3a 3e bb 93 23 3e 36 80 27 3e 27 35 30 3e
       0.18254687 0.15974323 0.16357502 0.17207776
000010 03 54 2e 3e 8f 0f 1f 3e 2e ba 2b 3e a2 c7 39 3e
       0.17024235 0.15533279 0.1677024 0.1814256
000020 f1 9b 2b 3e ad 09 49 3e 79 b5 20 3e cf d5 3a 3e
       0.16758706 0.19632597 0.15694226 0.18245624

encoder_mean.13.running_mean f4 [12]
000000 e1 f0 a0 bb a2 fc 27 3b 95 79 66 3b 8c 5e 3d 3b
       -0.0049115275 0.0025632759 0.0035167683 0.0028895466
000010 09 fb 5c 3b 9a 4e 4d 3b e0 e2 53 3b 8a e8 65 bb
       0.0033718965 0.0031327368 0.0032331273 -0.003508123
000020 ce 2a 78 3b 57 e7 6b bb 64 81 83 3b 19 d2 d6 bb
       0.003786731 -0.0035996044 0.0040132273 -0.0065558073

encoder_mean.13.running_var f4 [12]
000000 95 12 bb 39 a2 d3 8c 39 14 9e 8a 39 6e d5 89 39
       0.00035681264 0.0002686056 0.00026439189 0.00026289694
000010 0f c1 86 39 56 52 86 39 40 94 6f 39 2e 6a e5 39
       0.00025702312 0.00025619817 0.00022848044 0.00043757394
000020 3b d5 8b 39 63 c6 de 39 af 9c 8d 39 7c 40 fb 39
       0.00026671015 0.0004249095 0.00027010354 0.00047922495

encoder_mean.16.weight f4 [10, 12]
000000 d2 53 3d 3a da 67 bc b8 c0 1c 7e 36 c0 59 e5 b6
       0.0007222268 -8.9838824e-05 3.7865684e-06 -6.83518e-06
000010 00 56 cd b9 78 73 14 b8 9d 90 a8 b9 2a 8a 62 3b
       -0.00039164722 -3.539349e-05 -0.00032151202 0.0034567215
000020 f8 22 b1 b9 68 5e 84 3b af 75 27 39 1a b5 4e 3b
       -0.00033786125 0.0040395744 0.00015970202 0.003154105
000030 5f 42 c2 3e 68 14 9b be 8c 06 9e be 0b 5b 9b be
       0.37941262 -0.30289006 -0.3086437 -0.30342898
000040 a0 86 a3 be a6 2c 94 be 3d 53 9f be 9e 64 c4 3e
       -0.31938648 -0.28940314 -0.31118193 0.38358015
000050 c9 f4 a0 be 55 c1 d0 3e b3 1f 96 be 78 ad c5 3e
       -0.31436756 0.407725 -0.2932106 0.3860891
000060 50 76 bc ba 0e e8 08 3b a1 72 8f 3a b8 03 80 3a
       -0.0014378522 0.0020890268 0.0010944196 0.0009766733
000070 ea 02 90 3a 64 3c cc 3a 0c 5d be 3a 04 b0 c2 ba
       0.0010987197 0.0015581963 0.001452358 -0.0014853482
000080 88 22 cc 3a fa 76 08 bb 8f 78 ab 3a 2c e5 53 ba
       0.0015574256 -0.0020822869 0.0013082194 -0.00080831605
000090 7c 57 49 bb df 34 06 bb 42 9a a6 ba 8f b6 53 ba
       -0.003072231 -0.002047829 -0.0012710767 -0.00080762146
0000a0 a4 3d b7 ba 8a 8e a0 ba 7f bd a4 ba 58 25 7b bb
       -0.0013980162 -0.0012249511 -0.0012568681 -0.003832182
0000b0 ed 3c cb ba 4c 1d 17 bb 1c 9b 42 ba 10 d1 0f bb
       -0.0015505828 -0.0023058234 -0.0007423626 -0.002194468
0000c0 7c 8d b0 ba f9 58 87 3a 29 ae 9a 3a b3 ba da 3a
       -0.00134699 0.0010326199 0.0011801171 0.0016687721
0000d0 86 e1 c1 39 92 bf 15 39 64 63 e1 39 10 cf 08 bb
       0.00036979857 0.00014281113 0.00042989396 -0.0020875372
0000e0 7a c5 64 3a 59 01 4d ba 3c a0 af 3a fe 3d 92 ba
       0.0008726936 -0.000782033 0.0013399194 -0.0011157391
0000f0 60 d3 0e bb 8c d7 a7 3a 15 c5 d9 39 44 66 85 39
       -0.002179347 0.0012805327 0.00041536303 0.0002544393
000100 66 8d 10 3a 00 ea d6 36 f8 74 f7 39 16 07 ca ba
       0.0005514234 6.404938e-06 0.0004719866 -0.0015413489
000110 00 e6 14 37 2e 2b 3f bb d0 d6 52 38 9c a2 d9 ba
       8.8750385e-06 -0.0029170024 5.026796e-05 -0.0016604248
000120 14 b2 49 3a 69 b5 83 ba ac dd 81 ba c4 f7 64 ba
       0.0007694077 -0.0010048571 -0.0009907982 -0.000873443
000130 ff 62 1a ba 53 19 08 ba 80 80 5e ba b0 38 ab b8
       -0.00058893854 -0.0005191762 -0.0008487776 -8.164474e-05
000140 61 14 1f ba b6 bb e4 b9 b5 8c 29 ba 92 b7 8a 39
       -0.00060684053 -0.00043627404 -0.00064678054 0.00026458182
000150 20 a7 fb 39 c8 55 21 bb 47 57 fb ba 32 3d ba ba
       0.00047998969 -0.002461778 -0.0019175791 -0.0014208911
000160 c6 5d 02 bb 9f 09 f0 ba 7e ed 68 bb a0 3e b1 3a
       -0.001989232 -0.0018313414 -0.0035541947 0.0013522692
000170 ac 39 15 bb 55 e3 d8 3a 10 29 d6 ba c3 a1 8e 3a
       -0.002276997 0.0016547242 -0.0016339142 0.0010881949
000180 94 30 1e bb b1 d4 bb ba 61 ba 9c ba f2 bc 77 ba
       -0.0024137842 -0.0014330355 -0.0011957401 -0.00094504573
000190 4e 27 b7 ba da ac 3f ba 26 94 56 ba 4e 8d 08 bb
       -0.0013973506 -0.00073118287 -0.0008185528 -0.0020836177
0001a0 4e f9 96 ba b9 c0 18 ba d6 e6 57 ba 1d 91 f5 ba
       -0.001151839 -0.0005827058 -0.00082359964 -0.0018735264
0001b0 16 1d 13 bb 90 a1 4f bb 15 96 5b ba 7d 5e 3e ba
       -0.0022447756 -0.0031681992 -0.0008376551 -0.00072620047
0001c0 75 b2 93 ba 1c 58 dc ba 9a ae e4 ba 82 18 75 bb
       -0.0011268394 -0.0016810927 -0.0017447055 -0.003739864
0001d0 0c 6f 55 ba d0 4b 36 bb 14 de 1e bb 11 d0 26 bb
       -0.00081418524 -0.0027816184 -0.0024241256 -0.0025453607

encoder_mean.16.bias f4 [10]
000000 97 a4 a0 ba de 22 c8 3d ce 25 f6 b9 ad 53 58 3a
       -0.0012256083 0.097722754 -0.00046948943 0.0008252215
000010 a7 97 01 ba f8 f8 13 3b ba 5d 6f 3b 4b ac 8e 3b
       -0.00049435574 0.0022578817 0.0036524371 0.004354035
000020 d5 5e 44 ba 45 35 22 3b
       -0.0007490938 0.002475099

encoder_var.0.weight f4 [20, 13]
000000 7b 89 8c 3a 09 2d 4d bc 3b 4e 28 3d f9 d6 fb 3b
       0.0010722125 -0.012522944 0.04109023 0.007685539
000010 92 b4 ca ba 7c 0d db b9 40 32 8e 39 47 8e 25 3c
       -0.0015465191 -0.00041780982 0.0002712179 0.010104722
000020 19 69 e0 3b 52 e2 83 3b fe 76 3f bb 4f 28 1e 3d
       0.006848466 0.004024782 -0.0029215212 0.03861266
000030 e3 64 f7 3c be 4a 21 b2 ad 79 29 31 8f dd 58 33
       0.030199474 -9.388428e-09 2.4661901e-09 5.0492925e-08
000040 92 12 1e 32 23 36 c0 32 18 c1 15 32 b0 30 d9 b0
       9.201033e-09 2.237636e-08 8.716846e-09 -1.5802666e-09
000050 b5 70 1e 31 e0 53 28 32 f4 e4 ef 31 9b 00 cc 32
       2.3056093e-09 9.797958e-09 6.9818444e-09 2.3749001e-08
000060 a2 40 17 30 56 cc 4e b2 bc 6e 44 b9 4a a9 1e b8
       5.502533e-10 -1.2037239e-08 -0.00018733268 -3.78278e-05
000070 f0 05 28 3a eb cc d3 38 e2 26 ff b8 63 ae 58 39
       0.0006409576 0.00010099433 -0.0001216659 0.0002066433
000080 e5 7a 63 38 82 35 17 39 39 b2 01 b8 20 8e ff 36
       5.4235472e-05 0.00014420415 -3.092198e-05 7.6161377e-06
000090 e1 4f 8c b8 a6 a0 d1 38 d0 21 8c 39 28 9f 9b b3
       -6.690599e-05 9.99582e-05 0.00026728073 -7.2467e-08
0000a0 fb b2 44 b3 71 df c0 33 0d f1 9c b3 e8 d3 81 34
       -4.5797588e-08 8.9813405e-08 -7.308163e-08 2.4182305e-07
0000b0 b7 83 66 b3 a9 75 0a 34 d5 d7 13 b4 fc a5 0b b3
       -5.3670842e-08 1.2895056e-07 -1.3768961e-07 -3.251442e-08
0000c0 58 73 2b 33 5d 2b fe 33 34 7f d9 33 dc c9 87 b3
       3.9918945e-08 1.18356844e-07 1.0127988e-07 -6.3231454e-08
0000d0 01 84 01 b1 1b c7 c7 30 63 b3 6a 31 ea 23 a5 2f
       -1.8847006e-09 1.4535745e-09 3.4153451e-09 3.0038844e-10
0000e0 8d 22 9e 31 01 a5 17 b1 c0 0f b4 30 0a 4f fc b0
       4.602333e-09 -2.2067186e-09 1.31012e-09 -1.8357877e-09
0000f0 92 3f 17 30 30 95 71 31 7d 24 13 31 b9 25 e6 31
       5.502382e-10 3.515492e-09 2.1412057e-09 6.6981696e-09
000100 fe 8c 54 b0 99 57 07 af 3e fa e1 2e 91 6f 44 b0
       -7.732551e-10 -1.23093e-10 1.0276267e-10 -7.146293e-10
000110 e0 0a 5e 30 77 c6 71 af 5a 2e e7 2f 76 5b 90 af
       8.0778584e-10 -2.1989331e-10 4.205159e-10 -2.6258434e-10
000120 5b 22 b8 2f d8 9b 73 b0 0d 88 36 30 4f 19 75 b0
       3.3493816e-10 -8.862435e-10 6.6404554e-10 -8.9166446e-10
000130 3c 5a 85 30 a0 6b db 2d b2 f4 88 b3 80 4b ba 33
       9.70267e-10 2.4945213e-11 -6.377503e-08 8.675033e-08
000140 50 78 2d b2 b7 ff 93 b3 1a 7b e1 b3 84 99 d7 b3
       -1.0097281e-08 -6.891735e-08 -1.0499771e-07 -1.0039642e-07
000150 1f ef 11 34 95 9f 5a b3 34 59 8b 33 a6 32 ad b3
       1.3591169e-07 -5.090222e-08 6.488918e-08 -8.065153e-08
000160 58 bb 28 b3 ad 65 5a 34 6e c8 11 34 f4 ec 61 bb
       -3.9285936e-08 2.0339822e-07 1.3577093e-07 -0.003447351
000170 0a 24 b0 bb a2 7f 94 3d 9c 06 6d bb ae a9 56 bc
       -0.00537539 0.072509065 -0.003616727 -0.013101978
000180 ca 05 4e ba a8 9f 40 bc 1e d9 db 3b 58 27 07 3c
       -0.0007859139 -0.011756815 0.006709232 0.008249126
000190 8a b2 95 3b a7 6a 37 bb 03 f2 2e 3d 70 f7 1a 3c
       0.0045684027 -0.0027987154 0.04271127 0.009458408
0001a0 a2 f6 99 b1 94 eb bd 31 d2 0d 90 32 dd fa bc 31
       -4.480925e-09 5.527406e-09 1.6770091e-08 5.50004e-09
0001b0 e6 c9 36 b2 75 68 5d b2 e3 4f c7 31 ae 92 0b 31
       -1.0639701e-08 -1.2887644e-08 5.8007443e-09 2.031054e-09
0001c0 95 b7 85 b1 61 90 2d b1 67 2a ab b1 a3 1f 82 30
       -3.8916803e-09 -2.5256883e-09 -4.9815756e-09 9.467737e-10
0001d0 2e 5e f4 b1 45 45 98 3b 10 21 a4 bc 11 7d 96 3c
       -7.1120416e-09 0.0046469294 -0.020035297 0.018370183
0001e0 5d 50 6c 3c 89 7d 87 bb ef d6 b3 3c 4b 3f fb 3c
       0.014423457 -0.004134838 0.021953074 0.030669829
0001f0 7c 2c 66 bc 9e 3f 96 3b b7 5e a1 bc 9b 0e 13 3c
       -0.014048692 0.0045852205 -0.019698484 0.00897565
000200 95 15 a5 bc 00 ea c8 b6 02 66 83 bb 4c b8 80 bb
       -0.020151893 -5.9877057e-06 -0.004009963 -0.00392822
000210 d2 9c 62 bd 0e 89 ef 3a f8 fd 60 3a 79 ef 5f bb
       -0.055325337 0.0018275098 0.0008582766 -0.0034169836
000220 6c 1c 88 bb 0c 73 99 ba b4 53 98 bb 8b 3d 7b 3b
       -0.004153779 -0.001170726 -0.00464865 0.0038336243
000230 da b1 27 3a 57 81 38 bd 7d 96 8d bc b0 06 8e b6
       0.00063970464 -0.045045223 -0.017283672 -4.2327083e-06
000240 77 df 42 b7 32 86 b1 b6 5e d4 67 36 09 ea e9 35
       -1.1615331e-05 -5.2906335e-06 3.4545296e-06 1.7427966e-06
000250 65 49 ba b6 dc 0d b8 34 80 b1 15 36 7c 24 0a 37
       -5.551776e-06 3.4282755e-07 2.2306049e-06 8.233936e-06
000260 71 d5 ad 36 50 b3 06 34 ce ba 15 b7 b1 29 8b b7
       5.1806496e-06 1.2544956e-07 -8.924586e-06 -1.6589505e-05
000270 79 89 95 b4 13 79 39 33 7d 4e 2c b4 e7 a5 b9 b4
       -2.7853437e-07 4.3183785e-08 -1.6047302e-07 -3.4579645e-07
000280 51 3e 85 b4 ca 1b 03 b5 bf 09 ab b4 42 58 62 33
       -2.4818522e-07 -4.884174e-07 -3.1858323e-07 5.2699995e-08
000290 8e 49 26 b3 8b 83 29 b4 52 29 ad b3 f7 9a 01 34
       -3.8716784e-08 -1.5787207e-07 -8.0634564e-08 1.2070437e-07
0002a0 cf ae b6 33 a5 46 c2 b0 39 5e 41 31 c9 ab 43 30
       8.506833e-08 -1.4135436e-09 2.8138756e-09 7.118471e-10
0002b0 a5 58 cb 30 30 0c b1 31 87 b2 65 30 82 76 c6 30
       1.4795388e-09 5.1527635e-09 8.356342e-10 1.4440078e-09
0002c0 4d b4 4a 31 b8 cf 3c b1 14 13 06 b0 91 d6 37 b1
       2.9497358e-09 -2.7475675e-09 -4.877603e-10 -2.6751972e-09
0002d0 a8 88 eb 2f 6a 4b 3c b2 6e 9a 7e 34 a4 1e a7 b3
       4.284335e-10 -1.0960187e-08 2.3711775e-07 -7.782117e-08
0002e0 a0 27 19 35 e5 97 ec 34 5f 52 32 32 d4 3d d9 34
       5.7054604e-07 4.4068943e-07 1.0379693e-08 4.0464386e-07
0002f0 d7 2d 01 34 2a 7e dd b4 31 c3 8e b4 9d 6b 4d b4
       1.2030738e-07 -4.1256254e-07 -2.6591582e-07 -1.9131262e-07
000300 f2 9b 05 b5 96 c3 b0 b3 00 d2 fc 34 b0 14 39 39
       -4.977329e-07 -8.2312155e-08 4.7091453e-07 0.00017650682
000310 34 1a 43 ba cd 8e 1a bd 78 ec 7a bb 2a 04 15 39
       -0.0007442564 -0.03773384 -0.003828792 0.00014211299
000320 ba b5 c6 bb 81 72 b0 b9 74 93 c9 3b fe 41 9a bb
       -0.006064144 -0.00033654648 0.006151611 -0.004707574
000330 67 c7 1b bc ca 6e 7e 3a 22 38 65 bd 24 76 e9 bc
       -0.00950799 0.000970584 -0.055961736 -0.028498717
000340 73 4a b1 3b a7 a0 2d 3b e6 1a 7e bd 56 3d 32 3a
       0.0054104864 0.0026493461 -0.06203737 0.0006799301
000350 3e c1 c8 bb 4a 06 9f bb 4c 14 8c 3b 8e 8d 04 bb
       -0.006126552 -0.0048530446 0.0042748805 -0.0020225975
000360 46 7b 57 ba d8 85 0f ba 53 24 58 3b 43 63 de bc
       -0.00082199683 -0.00054749614 0.0032980635 -0.027146941
000370 7c c4 17 bc 81 ce b9 35 8a f3 d2 b6 b2 33 43 34
       -0.009263154 1.3843675e-06 -6.2868394e-06 1.8179597e-07
000380 12 ad a9 b6 f3 3c ec b6 4d fc af b5 3c d9 5f b6
       -5.0567405e-06 -7.0404435e-06 -1.3111945e-06 -3.3356037e-06
000390 69 99 e0 36 67 ea 19 b7 47 62 b3 b6 ea 4a f3 36
       6.6935795e-06 -9.174087e-06 -5.3460567e-06 7.2506855e-06
0003a0 c8 7f 1e 37 fc bd ce 36 88 be 0c b1 1c 12 1b 30
       9.447285e-06 6.1613955e-06 -2.0480986e-09 5.6414406e-10
0003b0 7a 5a 6c 31 30 fb 66 31 b1 2d 12 30 a7 e2 0c b1
       3.439395e-09 3.3612189e-09 5.317942e-10 -2.0501518e-09
0003c0 37 9a 83 af ca 6b 41 30 6d ac e5 b0 0a 11 9f 2f
       -2.3938337e-10 7.036617e-10 -1.6710949e-09 2.8934038e-10
0003d0 18 a8 00 30 d9 6a 82 30 87 9b cc 31 c3 06 03 b4
       4.6805004e-10 9.489113e-10 5.954863e-09 -1.2202786e-07
0003e0 e4 eb c2 33 e6 51 44 33 f9 e1 35 b4 3e 55 7f 32
       9.076737e-08 4.5709292e-08 -1.6939147e-07 1.4862335e-08
0003f0 dc a4 d7 33 fc 7f 91 b3 2d 6c c6 32 a3 dd 76 32
       1.00417054e-07 -6.775369e-08 2.3099426e-08 1.4369479e-08

encoder_var.0.bias f4 [20]
000000 a8 a9 c1 b3 03 73 37 2a 81 e0 88 b1 1c 40 e1 29
       -9.018123e-08 1.6293568e-13 -3.983644e-09 1.00031284e-13
000010 40 7c ed a7 3c f8 9b 28 1a 1f fd 2a ae 7c e2 34
       -6.5915426e-15 1.7316111e-14 4.496341e-13 4.2186497e-07
000020 e4 b9 91 2b a2 3e 0c b2 a4 cf 46 34 5a 71 e3 ad
       1.0354465e-12 -8.163314e-09 1.8515726e-07 -2.585725e-11
000030 da da 94 29 7e 5b 3c ab 2f ed be 2b 2e 6f 29 b3
       6.610485e-14 -6.691799e-13 1.3566144e-12 -3.9449496e-08
000040 00 1f 7e 33 6e 04 0d ad 44 77 8d 2b 71 4f 07 ab
       5.9167178e-08 -8.015906e-12 1.0051755e-12 -4.807188e-13

encoder_var.1.weight f4 [20]
000000 cd 0f 44 3d d5 90 1e 32 7b fb c6 b9 70 40 89 33
       0.04786663 9.229741e-09 -0.0003795287 6.391281e-08
000010 b3 7a a4 b1 fd 83 bc 31 d2 70 77 34 1e bd 88 3d
       -4.7869775e-09 5.4865255e-09 2.3044711e-07 0.06676696
000020 2f 64 35 33 a3 e8 1c 3d 0e a0 43 3d 9b 61 c0 37
       4.2233463e-08 0.038307797 0.047760062 2.2933635e-05
000030 75 7c bb 34 c6 2e 28 b0 e5 b9 ff 34 35 a6 6a 3d
       3.492202e-07 -6.1184513e-10 4.7632707e-07 0.057287414
000040 15 9b 63 3d 4f 3c 8c b7 92 e5 1f 31 6c 5b 2b 34
       0.05556782 -1.6717384e-05 2.326804e-09 1.5958875e-07

encoder_var.1.bias f4 [20]
000000 36 0c 95 bc e1 fa ed b3 84 66 09 3a 38 ca d8 b5
       -0.0181943 -1.1081807e-07 0.0005241411 -1.6152107e-06
000010 3a d8 30 b3 bc d6 43 af 44 87 d5 b2 48 6f 97 bc
       -4.117485e-08 -1.7811436e-10 -2.4857975e-08 -0.01848568
000020 3b df 4d 32 b0 b6 b0 bc 3c 3f 6e bc 79 3c 19 37
       1.1983327e-08 -0.021571487 -0.014541443 9.1335905e-06
000030 74 87 89 b5 00 ec 9c af c1 88 9c 35 b5 4e 4d bc
       -1.0246717e-06 -2.8543923e-10 1.1662706e-06 -0.012530972
000040 4b a5 97 bc 29 ff e6 b6 02 4a 10 30 e8 53 6a 34
       -0.018511435 -6.8842387e-06 5.2492066e-10 2.1823473e-07

encoder_var.1.running_mean f4 [20]
000000 62 37 9d 3d 34 4d 32 33 32 70 51 3a ad be bc 34
       0.07676579 4.151407e-08 0.00079894357 3.5156464e-07
000010 57 ae 12 31 84 c2 c2 2f 68 17 c3 33 49 28 7c 3d
       2.1344897e-09 3.5426606e-10 9.084653e-08 0.061561856
000020 0d cc a2 b2 f6 69 bf 3b e9 9b 71 bd e8 3a a3 36
       -1.8952074e-08 0.005841489 -0.058986578 4.864636e-06
000030 3e 91 0b b5 93 ed 23 32 ed fb 94 34 b1 d1 b7 bd
       -5.199289e-07 9.541867e-09 2.7750448e-07 -0.08975542
000040 31 74 4a bd 6e 61 53 37 5e 08 af 31 fa d1 93 b3
       -0.049427215 1.2599265e-05 5.0941216e-09 -6.8834154e-08

encoder_var.1.running_var f4 [20]
000000 83 df ac 38 c3 9f 90 25 d0 57 01 33 2c 03 99 28
       8.2432314e-05 2.5088277e-16 3.0115018e-08 1.6987788e-14
000010 65 52 84 22 e4 44 86 20 2a 61 7a 28 d8 17 98 38
       3.586591e-18 2.274607e-19 1.3898857e-14 7.252366e-05
000020 78 8a 21 24 d7 0c 06 39 09 e1 85 38 22 1e 0a 2f
       3.5028598e-17 0.00012784019 6.38385e-05 1.2561732e-10
000030 0d 46 a8 29 7b 73 ff 22 3d 87 14 2a e4 ec 07 39
       7.4728506e-14 6.924016e-18 1.3191961e-13 0.00012962852
000040 ea 8d 6d 38 a0 c6 3d 2e 8d 96 26 23 bd 33 b5 26
       5.663737e-05 4.315004e-11 9.030758e-18 1.2573422e-15
