generativecf/models/sangiovese-delta-case-0-margin-0.319-scm_reg-77.0-validity_reg-89.0-constraint_node-BunchN-epoch-25-scm-gen.pth (torch_old, 33324 bytes, 78 tensors)

encoder_mean.0.weight f4 [20, 14]
000000 1b f6 62 bd 91 d3 02 3d 64 d6 09 bd d4 70 08 3c
       -0.055410486 0.031940047 -0.033651724 0.008327682
000010 26 99 b3 3c 6a 03 43 3d 7d 2a 10 3d 3f e2 57 3c
       0.021923613 0.047610678 0.03519677 0.0131765
000020 ad c8 fb 3b ce 75 67 bd 29 99 17 3d 54 3d 07 3d
       0.0076838345 -0.05650883 0.0370113 0.03301747
000030 a4 ba 8a 3d 99 8c 91 be 38 4d 17 3e 95 e7 ce 3d
       0.0677388 -0.2842758 0.1477555 0.101027645
000040 e3 b6 54 3e 74 b2 17 3e 4b 8f 75 bc 91 31 af bc
       0.20772891 0.14814168 -0.014987777 -0.02138594
000050 1b 31 c8 3c 35 4c 59 bc 95 a1 92 bd 8e bb d9 bc
       0.024437478 -0.013262798 -0.071597256 -0.02657869
000060 ba e5 8d bd 23 53 8d 3d 5a df 47 be 96 15 ad bd
       -0.069285825 0.06900623 -0.19518796 -0.08451383
000070 cd 57 a6 3c 1e 3f 8a bb ec f8 9a 3c 50 1a f3 3c
       0.020305539 -0.00421895 0.018917523 0.029675633
000080 f4 45 da 3b 08 03 52 3c 44 95 18 3c 1a f6 6d bb
       0.006661171 0.0128181055 0.009312931 -0.0036310018
000090 cd d2 ba 3c 62 86 c2 3a 7f 52 0d bc 4a d2 ae bc
       0.022805596 0.0014841075 -0.008625626 -0.021340508
0000a0 4c 22 39 bc cd c1 9f bd c2 e9 84 bc 47 16 2c 3c
       -0.011299681 -0.078006364 -0.016224746 0.010503358
0000b0 6c 5d 3d 3d 47 29 fe bc 50 5c af 3c 78 6e 71 3d
       0.046231672 -0.031025542 0.021406323 0.05894324
0000c0 ed b7 f2 3c 55 92 d4 bc 27 5a 9a 3c 3b 70 89 bc
       0.029628718 -0.025948683 0.018841816 -0.016777148
0000d0 d6 a5 a3 3c be 8f 86 bc a2 da 12 bd 45 4d d0 bd
       0.019976538 -0.016425963 -0.035853036 -0.10170988
0000e0 0f 83 2d 3c f8 67 36 bb 44 3b 81 3c ea e0 2c 3c
       0.010590329 -0.0027832966 0.01577533 0.010551671
0000f0 7d d0 6e bc 89 05 96 3c 23 fb 39 bd 11 46 6d bc
       -0.014576075 0.018313186 -0.04540552 -0.014482037
000100 a9 e0 59 3d 71 df 6c 3c 4b 9a fc bb de 3f 56 bc
       0.05319277 0.014457569 -0.007708823 -0.013076751
000110 51 b7 6b bc c6 f0 ed 3d 21 1a 05 3b eb 41 23 3a
       -0.014386968 0.116181895 0.0020309763 0.0006227779
000120 03 f1 7b 3b fb 11 a1 3b 7d 8f 4e 3b 90 29 6f 3b
       0.0038443215 0.0049154735 0.003151863 0.003649328
000130 40 2c bd 3a 70 c2 88 3b 7d da 5c b8 3f 20 b6 bb
       0.0014432743 0.0041735694 -5.265557e-05 -0.0055580433
000140 12 c9 fe 3a 7a 8f a9 bb 5a bb 0f bc a6 72 97 3c
       0.0019438586 -0.0051745744 -0.008772695 0.018487286
000150 39 9e 65 bc 85 dd 9f bd ea ca 08 bd 15 4f e4 bc
       -0.014014774 -0.07805923 -0.03339664 -0.02786974
000160 fe 8c 16 3d 6c e9 3e 3b 21 52 9f bc ea b2 0a bc
       0.036755554 0.002913083 -0.019448342 -0.008465508
000170 d9 02 ba 3c 74 e4 b2 3d c0 3f bf bc 37 44 38 3c
       0.022706436 0.0873498 -0.023345828 0.011246732
000180 90 4e 89 bc ce db a5 3d fa bd 79 3d 0b e2 d2 bd
       -0.016761094 0.08098565 0.06097219 -0.102970205
000190 b9 3f 7c 3d f8 d1 53 3d 26 08 9d bd e9 84 3d 3d
       0.06158421 0.051713914 -0.0766757 0.04626933
0001a0 35 2c 03 3e 0b af 1b be 5a c3 1b bd e0 6a 28 bc
       0.12809832 -0.15203492 -0.0380281 -0.010279387
0001b0 e0 27 b6 bd 8d 63 7d bd 5e b2 88 bd 97 4f df bd
       -0.08894324 -0.061862517 -0.06674646 -0.109038524
0001c0 77 9e 89 3a 43 0c 5e 3a f1 97 78 bb 63 c1 e5 bb
       0.0010499497 0.0008470455 -0.003793236 -0.007011579
0001d0 0d f0 1c 3d ba f3 a9 bc 37 82 0a 3c e3 4b 1b bc
       0.038314868 -0.0207461 0.008453897 -0.009478542
0001e0 dc 93 65 bb 27 65 33 ba 6a d9 f3 bc 50 7d 9f 3c
       -0.0035030758 -0.0006843381 -0.029766757 0.019468933
0001f0 b1 a1 d7 bc 7b c7 0f be 4c 53 3b bc ac f3 60 bc
       -0.026322218 -0.1404094 -0.011433434 -0.013729971
000200 84 25 39 3d 55 99 01 3d e5 47 d0 3c 56 a6 af bb
       0.045201793 0.03164037 0.025424907 -0.005360405
000210 8b 5b 69 3d b2 66 44 3c 05 1f 9c 3b 57 ec a2 3b
       0.056972068 0.011987375 0.00476444 0.0049720216
000220 79 84 ff 3c 9a b6 2b bd 39 0e 4d bd bb 24 6c bd
       0.031191098 -0.04192219 -0.050062392 -0.057652216
000230 80 0c cc bb 94 6b e0 3c 45 72 7b 3d 89 10 bc 3c
       -0.006227076 0.027395047 0.061388273 0.022957103
000240 b6 bf 93 3c 23 44 c1 3c f9 16 eb 3c 71 a3 e8 3b
       0.01803575 0.02359206 0.028697478 0.007099562
000250 4f 59 07 bc 6e b0 dd bc 1d 0a 86 3c a3 c6 6b bd
       -0.008261039 -0.027061667 0.016362244 -0.05756248
000260 f6 a5 ea bc c3 23 1d 3c 7d 43 8a bc 01 a9 cd bd
       -0.02864359 0.009591046 -0.016877884 -0.100420006
000270 a6 fd 9e bd f6 85 89 bd 4e 75 9b bc 07 71 00 bd
       -0.07763223 -0.06715004 -0.018976834 -0.03135779
000280 7e f3 85 bd f2 fe 90 bd 96 1f bd 3d bf 6c 44 3d
       -0.06540583 -0.07079877 0.0923454 0.04795527
000290 4c 4b 7e bd 81 92 19 bd 82 0a 9d bc 4e 88 d7 bc
       -0.062083527 -0.037493233 -0.01917005 -0.026310112
0002a0 2a 0f 0a bd a6 15 0b bd 21 40 31 bc 7f ca 3e 3c
       -0.033705868 -0.033956192 -0.010818512 0.0116449585
0002b0 01 c5 ae 3c 4a 47 93 3d 20 7f 87 3a 9c 95 3f bd
       0.021334173 0.07191332 0.0010337569 -0.046773538
0002c0 53 43 91 3c 24 a8 99 bc e0 bc 03 3d 27 5d 5f 3d
       0.017732298 -0.018756934 0.032162547 0.054532196
0002d0 8f 06 72 3c b7 9d c7 3d 47 1e 88 bc ed 63 94 bc
       0.0147720715 0.097468786 -0.016616 -0.018114055
0002e0 7b cb 61 3d 18 b6 a1 3c c1 81 9a 3c a3 41 a4 3c
       0.055125695 0.01974015 0.0188607 0.02005083
0002f0 86 37 d2 3c a9 ef 02 39 9f fb 0e bc 75 0c 0e 3d
       0.025661241 0.00012487046 -0.008726983 0.03467985
000300 92 ac fd 3c 7f 45 70 bd 23 74 ee bc 15 31 bb bc
       0.030966077 -0.058660027 -0.029108113 -0.022850553
000310 00 ae a9 bc 52 e8 7e 3c d4 2f 8a 3d b1 39 55 3d
       -0.020712852 0.015558319 0.06747404 0.052056972
000320 8f 7f bf 3c 37 ec b5 3c e2 dd ff 3c e5 1f 14 bc
       0.023376254 0.022207363 0.031233732 -0.009040807
000330 9e d0 71 3b 1b 6e 5b 3c f8 2c d3 ba 1a 05 c5 bc
       0.0036898027 0.01339295 -0.0016111424 -0.024050284
000340 8b 02 f7 3b 22 d1 4e 39 e4 49 37 3a 67 57 92 3b
       0.007538145 0.00019723599 0.00069919066 0.0044659856
000350 30 59 da ba a2 4e 01 bb 15 4c fe 3b ec 94 d1 ba
       -0.001665866 -0.0019730707 0.0077605345 -0.0015989817
000360 3a 70 3a b9 07 4d a3 3b 16 32 a2 bb dc cd 22 3a
       -0.0001778015 0.0049835476 -0.0049498184 0.0006210485
000370 df 9e 30 bc 8e b6 59 bb 17 b6 ac b8 91 a2 81 3d
       -0.010780065 -0.0033220383 -8.235516e-05 0.06329835
000380 69 04 36 bc 41 ed 6f bd f7 26 3b bd 9e 04 55 3d
       -0.01110945 -0.058575872 -0.045691457 0.052006356
000390 0f 80 0b bb 0d 27 9a bb d5 87 5b bc 0e 37 3a 3b
       -0.0021286046 -0.0047043622 -0.013399084 0.0028414163
0003a0 3c 2d da 3c 0d 7f 66 3a 47 67 4a 3d aa 7f c4 b9
       0.026632898 0.0008792736 0.0494149 -0.0003747915
0003b0 0a 87 93 bc 27 d4 42 3e 00 04 87 3d dd 43 bb bc
       -0.018008728 0.19026242 0.0659256 -0.022859508
0003c0 f8 84 1d bb 08 ff 85 bb db f6 01 3d 43 38 f7 3b
       -0.0024035554 -0.00408924 0.03172956 0.0075445487
0003d0 1f 72 a2 3c 27 57 20 3c f3 d8 a0 bd e3 d3 86 bc
       0.019829808 0.009786404 -0.0785388 -0.016458457
0003e0 2e e2 dd 3b 3c eb c0 3b 53 5b 37 bd 97 ba 59 3e
       0.0067713475 0.005887417 -0.044764828 0.21262585
0003f0 90 c5 55 bc d6 a3 14 3d d5 41 00 bd db 74 1c bc
       -0.013047591 0.03628906 -0.031312782 -0.009549345

encoder_mean.0.bias f4 [20]
000000 ce 15 af b2 19 a3 78 32 e2 83 01 32 8d 3d 1e b3
       -2.0382597e-08 1.4472584e-08 7.538775e-09 -3.6843222e-08
000010 e5 1e ba b1 6b 7f 4c b4 40 2f 48 b1 37 53 32 b2
       -5.4168248e-09 -1.9045335e-07 -2.913069e-09 -1.03798845e-08
000020 1c 5e 0a 31 25 a6 69 b3 4c d6 0e b4 ac ae 8d 34
       2.0135138e-09 -5.4400648e-08 -1.3302741e-07 2.6390387e-07
000030 85 f8 d6 b3 26 11 29 b3 d9 55 b3 34 11 8c a2 b0
       -1.0010357e-07 -3.9363975e-08 3.340381e-07 -1.1826861e-09
000040 33 09 02 31 71 14 a7 b1 4b a9 ed 33 61 66 bd 32
       1.892272e-09 -4.8626636e-09 1.1066967e-07 2.2049052e-08

encoder_mean.1.weight f4 [20]
000000 8b d6 fc 3e 3c a9 8f 3e 17 78 63 3d 0c 83 d9 3d
       0.49382433 0.28058803 0.05553445 0.10620698
000010 2a 1d 0e 3d 1e 4d 0f 3e 3a 89 bd 3d 46 31 20 3e
       0.03469578 0.13994262 0.092546895 0.15643796
000020 fa 96 04 3e a9 25 39 3e 59 39 65 3e 76 39 34 3e
       0.12948218 0.18080772 0.22385158 0.17600045
000030 67 60 2e 3e 82 d1 75 3e d1 00 b2 3e db 0e c8 3d
       0.17028962 0.24005702 0.34766248 0.097684585
000040 0d 2e f4 3d 0f 9f c3 3e b7 33 50 3e a7 cb 93 3e
       0.11922846 0.3820729 0.20332228 0.28866312

encoder_mean.1.bias f4 [20]
000000 1d ce e6 3c 98 a5 50 bd 5c d0 ab bc d4 68 b5 bc
       0.028174454 -0.050939173 -0.020973377 -0.022144713
000010 5f 31 81 3c fe 64 2a 3c 5e 99 80 3b a4 53 52 bd
       0.015770612 0.010400055 0.003924533 -0.051349297
000020 f7 f5 d9 bb 57 b9 98 bc 0b fb b1 bc 3f 6b 66 bc
       -0.0066516357 -0.018643064 -0.021726152 -0.014063655
000030 5a f5 f6 bc 7f c9 41 bd 1e 19 2e bc 60 87 96 bc
       -0.03014629 -0.047311302 -0.010626106 -0.018375099
000040 d8 f4 de 3b 6b d9 26 3d 0c bc bd bb 77 62 54 3d
       0.00680409 0.04073469 -0.005790239 0.051851716

encoder_mean.1.running_mean f4 [20]
000000 5b b9 9e bd 81 43 c3 3d be dc 10 bc 25 65 e5 bc
       -0.077501975 0.0953436 -0.008841692 -0.028002331
000010 6d d0 95 3d da a1 88 3c 00 30 42 3c 4d da 46 be
       0.07315145 0.01667874 0.011852264 -0.19419213
000020 66 17 cc bd d7 8e 05 3c e7 38 2e 3d 81 1c 79 be
       -0.099654004 0.008151731 0.042534735 -0.2432728
000030 f2 b0 d0 3d 00 76 89 3c 4e ea a1 3d f2 c5 10 3d
       0.1019 0.0167799 0.07906018 0.035345025
000040 5e d6 c9 3d 50 b7 e8 3d 45 19 c8 bd d7 f7 44 3e
       0.098553404 0.11363089 -0.09770445 0.19235168

encoder_mean.1.running_var f4 [20]
000000 57 bb a7 3c 3a 99 30 3c 47 8c 1a 3b d8 e9 95 3b
       0.020475073 0.01077872 0.0023582147 0.0045749955
000010 69 63 65 3b e5 12 8a 38 79 29 5b 3b a1 89 ee 3b
       0.003500188 6.583872e-05 0.0033441468 0.0072795902
000020 51 79 a8 3b db d7 18 3b a7 2e 44 3a d3 9d 66 3a
       0.005141415 0.002332202 0.00074837584 0.00087973214
000030 51 81 30 3b bc 5e 6a 3a bf 32 fb 39 60 9f 8b 3a
       0.0026932547 0.0008940508 0.0004791226 0.0010652356
000040 f1 44 26 3c 08 2d 1f 3c 88 ae 09 3a f4 68 2d 3c
       0.010148273 0.009715326 0.00052521424 0.010584105

encoder_mean.4.weight f4 [16, 20]
000000 f2 c8 5d 3c 95 b9 62 3d 11 a3 d9 3d d8 4b da bb
       0.013536679 0.055352766 0.106268056 -0.0066618733
000010 0c 3a ad bd 9a 19 d3 bd 2a 40 22 bc 42 30 44 bc
       -0.08458337 -0.103076175 -0.009902993 -0.011974396
000020 20 ed 37 bb 84 30 7a 3d 68 46 0a 3e 9f 46 1e bc
       -0.0028064921 0.061081424 0.1350342 -0.009660392
000030 5f 21 80 3d c9 d0 ce 3d ed b8 89 3d 26 b5 64 bc
       0.06256365 0.10098416 0.06724725 -0.013959205
000040 a9 06 59 3d 72 e9 74 bd f6 f0 59 bc 64 d7 dc bd
       0.052984867 -0.059792943 -0.0133020785 -0.1078327
000050 1f 55 f7 3d c1 d3 c4 bc 59 bf a3 bc b2 90 54 bc
       0.120767824 -0.024026753 -0.019988703 -0.012973951
000060 ea 15 6f bd c4 4c ff b9 43 37 d9 bc 91 e9 98 3d
       -0.05837051 -0.00048694585 -0.026515609 0.07466424
000070 f6 b7 d3 b8 9c 7e e8 3c 10 51 f3 3d cd d5 46 3d
       -0.000100955294 0.028380685 0.11880696 0.04854374
000080 a3 be e7 bb 24 da 58 3c 65 b5 f2 3d 98 1a 9c bd
       -0.007072286 0.0132356025 0.118510045 -0.0762226
000090 a9 54 66 bd f8 1c 00 be 53 72 e5 bb f5 35 8e bd
       -0.056233082 -0.1251105 -0.007002154 -0.06943885
0000a0 83 04 29 bd a2 cf 04 3b a6 35 04 3d 9d 3a 27 3d
       -0.04126407 0.002026536 0.032277726 0.040827382
0000b0 31 ca 8a 3d e4 d4 23 b9 99 05 2d 3c d3 79 c3 3d
       0.06776846 -0.000156242 0.010560417 0.095447205
0000c0 ea 50 8f bd 58 f8 b2 3c 85 84 83 3d 2a 8b 20 3d
       -0.06997855 0.021846935 0.064217605 0.039195217
0000d0 49 2a 9c bc 3e 2e d9 3c 63 fb 49 3d 05 f0 80 bb
       -0.019063132 0.026511308 0.049312007 -0.0039348626
0000e0 49 34 cc bb 5d a1 8d bc 4e a9 6f 3b 60 13 0a 3d
       -0.006231819 -0.017288858 0.003656942 0.033709884
0000f0 21 af ff bd d8 86 2b bb e4 fc d8 bd b3 4d 68 3d
       -0.12484575 -0.0026172902 -0.1059511 0.056714725
000100 1c 70 36 3c 76 48 51 3d 52 4b 2c 3c 38 56 cf 3d
       0.011135127 0.051094495 0.010516005 0.10123867
000110 df 5e 7e bd 86 12 f0 3b 50 64 5a bd c0 3f 8a 3d
       -0.062102195 0.007326427 -0.05331832 0.067504406
000120 6f e2 58 3d 7d b6 98 3d 3f d8 0d be d5 87 5b 3c
       0.05295032 0.07456682 -0.13852023 0.013399084
000130 28 0f 86 bc ee 5a b5 3d 82 2a 6f 3d 8f 6b 85 3d
       -0.016364649 0.08855234 0.058390148 0.06514656
000140 ed f1 44 3d f9 5b 83 3c fe bd 92 bc de 53 cb 3c
       0.04808228 0.016035067 -0.017912861 0.024820264
000150 0b c7 f7 bd 61 4b 26 3c e2 d3 90 3c 43 8d 62 3c
       -0.12098511 0.010149808 0.017679159 0.013827625
000160 97 d0 30 ba 78 87 9a 3d 46 c5 37 3d 3b 21 2a 3b
       -0.00067449495 0.0754537 0.04486587 0.0025959748
000170 e5 4d 1c 3d 67 88 e5 3d d1 21 22 3e c5 a8 1e bd
       0.038160224 0.11207657 0.15833212 -0.03873517
000180 ba 91 a1 bd e6 a5 3f bd 7a fd a9 3b e4 53 01 be
       -0.07889123 -0.046789072 0.0051876875 -0.12629658
000190 ca 08 96 bd 24 24 06 3d 59 8a 69 3d 64 4e a4 3d
       -0.07325895 0.03274931 0.057016704 0.08022764
0001a0 10 e6 7d 3c 3b 94 4a bd b1 c1 d6 3c 03 cb 32 3d
       0.015496746 -0.04945777 0.026215406 0.04365064
0001b0 f3 7a 63 39 14 bd 5a 3d 42 6d ba 3d 13 33 aa bc
       0.00021694209 0.053402975 0.091028705 -0.020776307
0001c0 28 ba 78 3c 18 18 8f 3d 2b fa 65 3d d6 fa a8 bc
       0.015181102 0.069870174 0.056146782 -0.02062742
0001d0 fa db c7 bc 47 ea 32 3c 32 c7 f4 3c bf 1f 73 bc
       -0.024396885 0.010920114 0.02988014 -0.014839112
0001e0 63 28 65 bd 60 6e 23 bd bc 48 d8 bc ce 44 bd bd
       -0.05594672 -0.039900184 -0.02640187 -0.09241639
0001f0 d5 75 24 bd d8 21 bf 3c 9f 03 74 3d d6 26 be bd
       -0.040151436 0.023331568 0.059573766 -0.09284751
000200 15 34 bf bc 6e 5d a6 bd f3 1d 0a bc 92 9a 42 3d
       -0.023340264 -0.08123289 -0.008429992 0.04751069
000210 dc 24 a4 3d 91 8d 0c bd 38 4c f1 bd dd 0f a7 3d
       0.08014843 -0.034314696 -0.11782116 0.081573226
000220 79 91 14 bd 11 db 27 bd d1 a3 8d 3a 44 73 62 3d
       -0.036271546 -0.040980402 0.0010806267 0.055285707
000230 50 61 5b 3d 85 5b 9a 3b b7 3d d1 3c ed 71 b1 3d
       0.0535596 0.004710617 0.025542123 0.08664308
000240 6b ed 58 bc cc 89 11 3d 90 80 e9 3c 9e 9d a8 3c
       -0.013240199 0.035531804 0.028503686 0.02058297
000250 8c f1 fa 3c 92 0c e3 3d 98 c6 e6 3d e9 ed e0 3c
       0.030632757 0.11086382 0.112683475 0.027457194
000260 e6 a5 78 ba 65 37 cb 3c fb 2e 7c 3d bb 0e 3b 3d
       -0.000948517 0.024806688 0.06156824 0.045668345
000270 3f 00 5e bc 20 8a 1f 3c aa fb 5c bb c7 3d 49 3c
       -0.013549863 0.009737521 -0.003371934 0.012282795
000280 9e 82 77 3d 3b 04 77 3d c9 30 3f 3e 8b d8 f2 3d
       0.0604273 0.06030677 0.18670954 0.118577085
000290 c9 42 be bd 9b 56 13 be 81 6f 46 bd 07 75 1d 3d
       -0.09290082 -0.14388506 -0.048446182 0.038441684
0002a0 31 f0 98 3d a8 c2 de 3d ee 7a 03 3d 89 dc 00 bc
       0.07467688 0.108769715 0.032099657 -0.00786508
0002b0 04 b6 5f 3d b1 c4 ae 3c d7 b7 93 3c 24 c6 c7 3b
       0.054616943 0.021334024 0.018031998 0.0060966183
0002c0 0e 1a ee bd b4 43 cc bd e0 c5 b7 3c f9 3e 0c be
       -0.11626063 -0.09973851 0.022433221 -0.13695897
0002d0 7e e4 ae 3d b0 fe 55 3d 4a 85 e5 3d 83 0b 20 bc
       0.08539675 0.052244842 0.112070635 -0.00976837
0002e0 96 e6 3e 3d 11 ae 8e bc 81 f4 4f bd d9 8d 14 3d
       0.046606623 -0.017416986 -0.050770286 0.03626809
0002f0 43 2a ad 3d 8e e8 e8 3d 55 3f 6a 3d 61 9c 1d 3d
       0.084553264 0.11372481 0.057189304 0.038479213
000300 d9 fb 7e bd 68 95 9b 3d 55 71 77 bd 56 79 a4 bd
       -0.0622519 0.07596856 -0.060410816 -0.080309555
000310 18 86 74 bc fa 03 4f bd d4 49 6a bd ef bc bd bd
       -0.014924549 -0.0505409 -0.057199314 -0.09264552
000320 ee 11 0e 3e 76 1f 90 3c d0 22 3e 3d 7b 30 86 3d
       0.13874027 0.017593127 0.04641992 0.06552216
000330 28 bd ac bd 32 c5 dd bd fd 97 b8 bc 6e 63 d3 bc
       -0.08434516 -0.10828628 -0.022533411 -0.025804248
000340 ef 29 d5 bb 7e 2f 39 3d e2 83 79 bc 11 f9 39 bd
       -0.006505243 0.045211308 -0.015229197 -0.045403544
000350 fd 8e 6d bd 27 d8 e9 3d cd 0e 24 bd f2 bf cf 3c
       -0.057997692 0.11418181 -0.040053178 0.025360081
000360 9a 6a b8 bd 61 c0 aa bd 84 a2 88 bd d8 1d c2 bc
       -0.09004708 -0.083374746 -0.066716224 -0.023695871
000370 f4 db f7 bc e7 94 31 bd 4b 5e f5 bc 0b d0 72 bd
       -0.030256249 -0.043354895 -0.029952189 -0.059280436
000380 01 d2 ce 3b d1 b7 fa ba af fd 15 3d 9e 5b 6b bc
       0.0063116555 -0.0019128268 0.036618885 -0.014365105
000390 1f 32 da bc 81 8c 6e bd b3 95 16 bd c2 f9 b4 bb
       -0.026635228 -0.058239464 -0.036763858 -0.0055229375
0003a0 bd c4 bb 3d d0 e6 db bb 2a 01 43 bd fb 69 0c b8
       0.09168384 -0.0067108646 -0.047608532 -3.3477303e-05
0003b0 7f 31 91 3c d0 2a 34 bb 6a b2 02 3d 73 30 21 3c
       0.017723797 -0.0027491339 0.03190843 0.009838211
0003c0 9f 5b 25 bc 26 35 40 bb 11 76 c3 bb 58 be cb bb
       -0.010092645 -0.0029328554 -0.0059650023 -0.006217759
0003d0 b4 d3 0c 3d 55 73 8c 3c a1 38 57 bc 5b c9 83 bc
       0.034381583 0.017144838 -0.01313606 -0.016087225
0003e0 84 38 f3 3b 78 5d 8f b8 d8 8d e8 3b 91 17 42 3d
       0.0074225087 -6.836181e-05 0.007096987 0.047385756
0003f0 55 87 d7 3c e8 25 9b bb 12 40 95 bc 46 27 58 3c
       0.026309649 -0.0047347434 -0.018219028 0.013192957

encoder_mean.4.bias f4 [16]
000000 ff 7f 0b 30 8b be b8 b0 b6 3d 69 b3 b0 b5 4c 31
       5.07498e-10 -1.3441918e-09 -5.4305666e-08 2.9789184e-09
000010 38 cb bb 31 84 c6 0e b3 a7 c8 12 33 eb 2c 59 34
       5.4655196e-09 -3.32425e-08 3.4175766e-08 2.0226041e-07
000020 60 47 fb 2f ca a1 00 33 2a 96 17 b0 37 32 be b0
       4.570735e-10 2.994947e-08 -5.5146876e-10 -1.3838591e-09
000030 22 78 39 32 88 8c 98 31 7f 3b 06 33 11 78 e5 30
       1.0795732e-08 4.439759e-09 3.1253418e-08 1.6696068e-09

encoder_mean.5.weight f4 [16]
000000 4e 30 45 3e 84 aa 95 3e b8 17 c2 3e 47 e4 46 3e
       0.19256708 0.29231656 0.3790872 0.19423018
000010 5e d3 41 3e d1 fb fd 3e d8 9f 0e 3f 48 08 df 3e
       0.18928286 0.49606183 0.5571265 0.43561006
000020 a1 42 65 3e f8 ae 6c 3e 33 5a b0 3e ef 03 c5 3e
       0.22388698 0.2311362 0.34443817 0.38479564
000030 5b dc f4 3d d1 4e a6 3e 20 8d 98 3e 83 47 89 3e
       0.11956092 0.32482007 0.2979517 0.26812372

encoder_mean.5.bias f4 [16]
000000 6d 59 2f 3b 1e 11 98 bc fa f7 77 bd 6c 6d a5 bc
       0.0026756183 -0.01856285 -0.060539223 -0.020193778
000010 36 90 1b bc 75 fa 7c 3d 3a 12 97 3c 71 d0 87 3d
       -0.009494832 0.061762292 0.018441308 0.06631554
000020 58 48 22 3c 8e 11 f7 bc 76 59 22 bd 45 6c b2 3d
       0.009904943 -0.030159738 -0.039636098 0.08712057
000030 95 93 d4 3c 9c 7c c1 bb 21 52 0c bd c6 7c 3f bc
       0.025949279 -0.005904747 -0.03425801 -0.011687463

encoder_mean.5.running_mean f4 [16]
000000 66 f5 cf 3b 42 9c 6b 3c 0c d5 62 3c cd 6d 78 ba
       0.0063463924 0.0143805165 0.01384474 -0.0009476811
000010 02 8a 93 3c aa f2 68 3c aa 05 30 bd ff 27 7f 3d
       0.018010143 0.014218012 -0.04297415 0.062294003
000020 48 b6 33 bc 2e 6e 04 3c 39 d0 a9 bb 18 55 ac bc
       -0.010968752 0.0080829095 -0.005182293 -0.02103667
000030 a2 d0 0a 3b df 21 61 bd 5b af f6 3c 05 6e 22 3d
       0.0021181484 -0.054963943 0.030112913 0.039655704

encoder_mean.5.running_var f4 [16]
000000 72 0c f9 3b 1d 74 57 3c 22 f2 1a 3a 75 5e 01 3c
       0.0076003605 0.013150242 0.00059107144 0.0078960555
000010 6d 01 38 3c 44 8a e4 3a 6b f8 de 3b 96 cf 59 3b
       0.011230809 0.0017436226 0.006804516 0.0033235303
000020 0e b4 77 3c 05 8f 05 3c 94 ee 11 3c bb 74 21 3b
       0.015118612 0.008151774 0.008906979 0.0024636227
000030 0c 6d 08 3a 2e 01 7f 3b 8d da 0b 3a 30 9b 2a 3c
       0.00052042375 0.0038910615 0.0005334996 0.010412976

encoder_mean.8.weight f4 [14, 16]
000000 03 47 e3 ba 39 c8 35 be 3c f1 25 3d ce d6 13 bd
       -0.0017339889 -0.1775216 0.040513262 -0.036093526
000010 1b 73 e0 bd c1 43 72 be 8f 6f e6 3d 42 36 55 be
       -0.109594546 -0.23658659 0.11251747 -0.20821479
000020 6b b0 d4 bd 24 49 b3 3c e1 29 f0 bc db 7b 58 3d
       -0.103852116 0.021885462 -0.029316844 0.052852493
000030 38 07 c9 3d d2 7f 4a bc 9c d2 b4 bc 4b ed ee b9
       0.0981583 -0.012359576 -0.022073083 -0.00045571694
000040 98 c9 67 bd f1 fc 8f bd 42 45 86 bb d6 82 df bc
       -0.05658874 -0.070306666 -0.0040976116 -0.027284067
000050 81 d6 7a bd 1f 78 c9 bd 39 5f a6 ba ef 7c d5 bd
       -0.061239723 -0.098373644 -0.0012693173 -0.1042422
000060 f6 8b b0 bc cd ae 92 3c 9f ff e7 3b 5b 29 02 bd
       -0.021551114 0.017905617 0.007080033 -0.03177772
000070 12 25 8e 3b ce 5c a4 bb 3e 9e fe 3c 69 9f 0c 3d
       0.004337915 -0.005015946 0.031081315 0.034331713
000080 56 23 cf 3d b3 56 c7 bc 0e 22 a1 3d 3f d6 e5 3b
       0.10114162 -0.024333334 0.078678235 0.0070140655
000090 7c 84 72 3c fa a2 38 3d 56 dc 25 3d 05 cb 28 3d
       0.014802095 0.0450773 0.04049333 0.04120924
0000a0 0e 1f 0e 3d 31 2e 15 3d da d0 80 3c eb b2 82 3c
       0.034697585 0.036421005 0.015724588 0.015954455
0000b0 7e 49 03 3c 3c af 82 3c e7 72 3f 3c b9 bb 70 3c
       0.008013127 0.015952699 0.01168511 0.014693194
0000c0 14 39 30 be 16 2f 27 3b 37 e6 6b bd 18 73 c1 bd
       -0.17209274 0.0025510243 -0.057592597 -0.094457805
0000d0 31 7b 15 be 3d e8 58 be 1a 46 69 bd 50 27 85 bd
       -0.14597775 -0.21182342 -0.05695162 -0.06501639
0000e0 49 35 71 3d 36 3b bd bd 58 b3 ea bc 56 a9 c9 3d
       0.058888707 -0.09239809 -0.02864997 0.098467514
0000f0 3d e0 8c 3d 28 5d d4 bc 59 d4 20 bd 15 7c e8 bb
       0.068787076 -0.025923327 -0.03926501 -0.00709487
000100 8e 2a 82 bd 07 f7 df bd 88 4a 6c bd bc fe 72 3d
       -0.06355773 -0.109357886 -0.057688266 0.059324965
000110 a2 21 70 bd 8d b2 90 bc d3 3b 9a bc f2 50 7b be
       -0.058625825 -0.017663265 -0.018827355 -0.24542597
000120 0d a9 c4 bd 9f 06 9a bd 98 3e 54 bd 83 1e d4 3d
       -0.096025564 -0.07520794 -0.051817507 0.10357382
000130 e8 4d 89 bb 31 cf 3d 3e c3 6d 5e bd 4f 18 0b 3d
       -0.0041901954 0.18536068 -0.054303896 0.03395873
000140 04 3c 9d bd 41 03 d0 3d 8e 0b 86 bd 34 7d 12 bc
       -0.07677463 0.10156871 -0.06545173 -0.008940984
000150 5b 20 a3 bd e6 8c cd bc 95 6a f4 3d 69 35 15 bc
       -0.07965156 -0.0250916 0.119343914 -0.009106972
000160 a4 e4 1b 3d 70 c6 8f bd 0f e8 7b 3d 47 ba ed 3d
       0.038059846 -0.07020271 0.061500605 0.11607795
000170 ca 0f 07 3e 5d c5 8e bc 16 08 be 3d f1 57 1f 3e
       0.13189617 -0.017428095 0.09278886 0.1556089
000180 4b 23 33 3d d9 54 68 bd 9a 44 c7 3d 12 1c 9b 3d
       0.04373483 -0.056721542 0.097298816 0.07573713
000190 07 63 7b bd 31 f0 10 be 88 a7 8c 3c 2a ac aa bd
       -0.061373737 -0.14154126 0.017169729 -0.08333619
0001a0 23 99 3a bd 1e 68 e8 bc 05 28 53 bd e2 e1 c9 ba
       -0.0455562 -0.02836996 -0.051551837 -0.0015402401
0001b0 f1 07 64 3d 02 a2 1c 3e 55 3d 12 bd 1e d6 87 3d
       0.055671636 0.15296176 -0.035703022 0.066326365
0001c0 ae 0a ec bd 40 30 06 3e a4 04 ad 3c 30 1e 96 bc
       -0.115254745 0.13104343 0.021120377 -0.018324941
0001d0 ab fe e6 3a 16 57 ce bd ab 65 cc 3d fb b1 c0 bd
       0.0017623504 -0.10075204 0.09980329 -0.09408947
0001e0 90 94 8e bc ab 54 45 bd d0 0a 8f 3d f2 c0 95 3d
       -0.017404824 -0.04817645 0.06984484 0.07312192
0001f0 25 9e 4e 3d 09 6f 33 bd 37 1f 10 3c 30 65 a7 bb
       0.050443787 -0.043807063 0.008796505 -0.005108498
000200 34 1b 71 bd c8 d4 2b bd 14 67 ae ba 87 c7 3f 3d
       -0.058863834 -0.04195097 -0.0013305866 0.046821143
000210 76 0a 43 3d 16 d5 0a be 96 7e c4 3c 2f db bc bd
       0.0476174 -0.13557848 0.023986142 -0.092214935
000220 53 2e a9 bd 83 eb 07 3d fc 7b 46 bd bf 35 23 3e
       -0.08260789 0.033183586 -0.048458084 0.15938471
000230 c7 98 f3 3d 16 bb f5 3d c6 b9 43 3c e2 38 48 3d
       0.11894374 0.119985744 0.011946147 0.048882373
000240 63 5b 1c be 6e 9e b8 bc 20 74 f5 bd e0 7b 9d 3d
       -0.15269236 -0.022536483 -0.1198504 0.07689643
000250 c0 4b 07 be 96 1c af bd cf 53 ec bc 2f c7 13 be
       -0.1321249 -0.08550374 -0.028848557 -0.14431451
000260 49 b7 99 bc d5 da 44 bd 69 33 81 bd 54 ad 00 be
       -0.018764155 -0.048060257 -0.06308634 -0.1256612
000270 43 3f 09 bd cd 3b 12 3d ae e9 15 3d 44 71 40 bc
       -0.033507597 0.03570156 0.036599807 -0.011745755
000280 13 a7 2f 3d fb f4 b7 3d 13 e4 e0 3d a6 30 39 bd
       0.042883944 0.08982273 0.10981002 -0.04521241
000290 d5 69 3b 3d 10 aa 8a 3d 83 13 6b bd 93 38 f9 bc
       0.045755226 0.06770718 -0.057391655 -0.030422485
0002a0 c9 6e dc 3d 11 d7 28 3d 83 05 8a bc ab 0d ee bd
       0.10763318 0.04122073 -0.016848331 -0.11623701
0002b0 78 41 51 bd b3 0e 51 3d 22 5c 32 bd b1 be 7a bc
       -0.051087826 0.05103941 -0.043544896 -0.015304253
0002c0 b3 85 81 bd c8 76 9f 3c f0 09 01 3c ee da 97 bd
       -0.06324329 0.019465819 0.007875904 -0.074148044
0002d0 0d 52 f6 3c a9 78 f3 bd e0 2b 6d 3e 4a 6f 9d bc
       0.030068422 -0.118882485 0.23161268 -0.019218106
0002e0 a7 8f 33 be 3a 5a 1f be e9 73 23 3d 18 a0 46 3e
       -0.17535268 -0.15561762 0.039905462 0.19397008
0002f0 0f a2 1a 3e 0f ff 28 bd ce 2b 44 3d 8b 09 0e bb
       0.15100883 -0.041258868 0.047893338 -0.0021673169
000300 3a e8 32 3b de 62 0e 3d be 24 b3 3d bc bf c2 3d
       0.0027299062 0.034762256 0.087472424 0.09509227
000310 c7 5c a9 3d 00 c6 05 3e ed 4d 0d 3e cb 06 cb 3c
       0.08269649 0.13063812 0.13799258 0.024783513
000320 e9 35 23 3c 70 7a bc 3d e0 7b 99 3d 9b 75 16 bc
       0.009961584 0.092030406 0.074943304 -0.009183313
000330 f5 c3 29 3d 9d 7e 83 3b b0 06 1e 3b 29 50 8f bb
       0.041446645 0.004012896 0.0024112873 -0.0043735695
000340 75 c9 d5 bd 9c f0 a4 bd 23 75 a3 bb 97 b1 94 bc
       -0.104388155 -0.08053705 -0.004988329 -0.018151088
000350 64 d5 9b bd a4 6d 17 be 44 2d 97 3d e2 ab 17 bd
       -0.076090604 -0.14787918 0.073816806 -0.037029155
000360 47 4a dd bd e0 dc b3 bd 59 bd 32 bd 3c 09 9d bc
       -0.10805183 -0.08782363 -0.043637607 -0.019169442
000370 57 51 5b bd 38 ce 50 3d 2c 29 34 bb 4d 85 41 3c
       -0.05354437 0.050977916 -0.002749036 0.011811567

encoder_mean.8.bias f4 [14]
000000 e2 a4 aa 31 b1 7c 74 b1 a1 ab b0 b3 ff c4 4b b1
       4.966396e-09 -3.5577552e-09 -8.226858e-08 -2.9652367e-09
000010 3c 35 9f b0 49 65 94 b1 49 be fd b1 4d 11 91 32
       -1.1583903e-09 -4.3188817e-09 -7.384902e-09 1.688809e-08
000020 5e b4 50 b2 4e e2 85 b2 6c e4 ed b1 37 51 f2 31
       -1.2148204e-08 -1.558615e-08 -6.9235764e-09 7.05236e-09
000030 16 60 a6 33 fb e3 90 b2
       7.747455e-08 -1.686748e-08

encoder_mean.9.weight f4 [14]
000000 26 1a 96 3e 77 5f 4a 3e 13 09 0c 3f 7b c4 63 3e
       0.29316825 0.1976298 0.54701346 0.2224292
000010 ee 95 16 3f ad 57 1a 3e 46 66 3c 3e 95 dc cf 3e
       0.58822525 0.15072508 0.18398389 0.40597978
000020 ce f5 99 3e f2 bb 8f 3e d6 93 55 3e 0e a3 dc 3e
       0.30070347 0.28073078 0.20857176 0.4309315
000030 57 42 d4 3e 58 46 20 3f
       0.41456863 0.62607336

encoder_mean.9.bias f4 [14]
000000 86 f9 e9 3d 61 6e b2 bb d5 d9 69 3b 6e 65 67 bc
       0.11424546 -0.005445287 0.0035682817 -0.014123304
000010 79 79 05 3e 5f 2c 38 bb fa 73 0b 3d ce 6a dc bc
       0.1303462 -0.002810262 0.03404615 -0.026906397
000020 29 f0 ba 3d 73 2c 9e bd 2a bd 0d bb 33 e5 1c bd
       0.09127838 -0.07723322 -0.0021627643 -0.03830452
000030 2b dc ca bd b1 f3 df 3d
       -0.09905275 0.10935152

encoder_mean.9.running_mean f4 [14]
000000 54 c6 c3 bd 81 eb 87 bd 82 4e 88 3d 2a bc d1 bd
       -0.095593125 -0.06636716 0.06655599 -0.102409676
000010 56 c0 8e bd f1 13 b1 3d 5c 64 c5 bc b2 a2 32 3c
       -0.06970279 0.08646382 -0.024095707 0.010903047
000020 80 c0 11 3c 3a a2 07 be 66 00 66 3b 2c 93 4a 3d
       0.008895993 -0.13245478 0.0035095452 0.04945676
000030 34 24 f6 3d 3c 53 9f bd
       0.12018624 -0.077795476

encoder_mean.9.running_var f4 [14]
000000 85 4a 85 3d 4c 1b 38 3c 8c ce 92 3b 1c ea 01 3d
       0.06508354 0.011236977 0.0044801887 0.031717405
000010 01 91 3a 3d 88 94 04 3c 9c e8 8a 3c e9 ab 0d 3c
       0.045548443 0.008092053 0.01695662 0.008646944
000020 48 1d e5 3c 44 e1 cc 3c 1f 9f 61 3c c1 f8 fa 3c
       0.027968064 0.025009759 0.013770848 0.030636193
000030 44 31 2f 3c a8 f9 cb 3c
       0.010692898 0.024899319

encoder_mean.12.weight f4 [12, 14]
000000 2c da 39 bc 35 32 c6 3d 54 14 83 3d 0c c1 df bc
       -0.01134352 0.09677545 0.06400362 -0.027313732
000010 10 a0 c3 3d 13 bc 84 3c ff 0f 21 3d 37 10 82 3c
       0.09552014 0.016202962 0.039321896 0.015876872
000020 50 36 2f 3c 4d 53 b6 3d 56 ea 64 bd 76 c6 53 3d
       0.010694101 0.08902607 -0.055887543 0.05170294
000030 b3 3b d2 bd ff c0 56 3e 26 3f a3 3c b2 4d 2b bc
       -0.10265293 0.2097206 0.019927572 -0.010455536
000040 1a 62 f4 bd e3 6e 8c 3d aa 6d c2 3d cd 26 04 bd
       -0.11932774 0.068570875 0.09493573 -0.032263566
000050 32 be c9 3c 8a 1b d9 3c 70 a8 0e 3e e0 58 1f 3e
       0.024626825 0.02650239 0.13931441 0.15561247
000060 b1 00 d2 bd e7 b0 bf 3c 34 ff a9 bd 5f d8 68 3e
       -0.10254038 0.023399783 -0.08300629 0.22738789
000070 d7 1d 83 3c 00 b7 26 3e bf d2 8e 3c 5e 84 06 3d
       0.01600544 0.16280746 0.017434476 0.03284108
000080 a1 f2 33 3c 6d 22 64 3d 68 36 2e 3e 70 b5 8c 3d
       0.01098314 0.055696893 0.17012942 0.06870544
000090 35 cd d7 ba e2 68 ad 3d 67 bf ab bd 64 02 1c 3d
       -0.0016464355 0.084672704 -0.083861165 0.038088217
0000a0 44 a2 4d bc 5b 07 4e 3e 35 eb 28 be a4 39 d9 bd
       -0.012550894 0.20119993 -0.16495974 -0.10606697
0000b0 68 14 19 3e 3e 17 44 bc dc 5c fb bd 3d 39 d8 bd
       0.1494919 -0.011968432 -0.12273571 -0.10557792
0000c0 7f 81 1f bd 7e 39 17 bc cc e5 2d bd f2 40 fc bc
       -0.038941856 -0.009230016 -0.04245548 -0.030792687
0000d0 39 f0 9c ba b0 77 15 3d bb c8 8e 3d 84 78 5f be
       -0.0011973447 0.036491096 0.0697188 -0.21823317
0000e0 cf 18 ea bd b9 45 b5 bc ff ae 90 3e 97 51 1b be
       -0.11430513 -0.022127973 0.2825851 -0.15167843
0000f0 16 d7 78 be 69 56 3e bd 2f 6d 41 bd 52 e8 0b be
       -0.24300799 -0.046469126 -0.047223266 -0.13662842
000100 ab b9 2b be 0c 25 38 3d d4 69 31 3d 5d b9 17 3d
       -0.16770045 0.044957206 0.043313816 0.03704201
000110 ac 87 9f bd d4 db 5d bd 6a b1 3b be 2c 2f a1 bd
       -0.07789549 -0.054164723 -0.18329397 -0.078703254
000120 5a 06 a9 3d 96 84 bf bd c6 5e 2d be 66 f6 3a bc
       0.082531646 -0.09351461 -0.16930684 -0.011411285
000130 3a cd f0 bc 8b 49 69 bc 1b 11 8d bd f5 fe 8a bd
       -0.029394735 -0.014238725 -0.06888028 -0.067869104
000140 cc 78 09 3e aa a4 b3 bc c9 00 4f bd 05 d0 e9 bd
       0.13424987 -0.021929104 -0.05053786 -0.1141663
000150 d3 87 d7 bb 44 0b e6 3c 09 50 6f be 1f fe 9a 3c
       -0.006577471 0.028081544 -0.23370375 0.018920003
000160 81 7e eb 3b 05 93 26 bc f1 2b 93 bd 7a 90 c3 bd
       0.0071867113 -0.010166888 -0.071861155 -0.09549041
000170 97 0c d9 bd 13 a1 bc 3c 02 49 16 bd 41 68 85 3d
       -0.105981044 0.023026025 -0.03669072 0.065140255
000180 0c 8a 90 be d4 da 8f bd d2 ca 97 bc 69 e9 be 3d
       -0.2823032 -0.0702416 -0.01852933 0.09321863
000190 04 53 75 be 39 f1 e7 3c 5d 92 8e bd ea a6 15 bd
       -0.23957449 0.028313266 -0.0696151 -0.036536135
0001a0 75 1b 61 3c 7b 3a d4 3d a4 67 63 bc 85 d5 0c 3e
       0.013739456 0.10362717 -0.01387969 0.13753326
0001b0 bc a1 e5 bd 69 45 49 bd 25 e0 79 be 44 e0 a3 bd
       -0.11212489 -0.04913846 -0.2440191 -0.0800176
0001c0 20 57 6b bd 85 4a fb bd 27 cb 54 bd eb c7 57 3c
       -0.057456136 -0.12270073 -0.051951554 0.013170223
0001d0 74 d5 34 be 09 0d 40 3a 50 e5 df bd 86 be 8d bc
       -0.17659551 0.0007326161 -0.1093241 -0.017302763
0001e0 8c 5b 4d 3d f6 b5 a0 bd 82 ad 54 3d f4 07 81 bc
       0.050136134 -0.07847206 0.051923282 -0.015750863
0001f0 47 82 7e 3b 93 d5 c1 bd 1b 9b e0 bc 05 8f 96 3c
       0.0038834976 -0.09464564 -0.02741771 0.018378744
000200 fc 78 20 bd cc 2f 07 bd 3a d5 96 3a 8e 4d bf bd
       -0.03917788 -0.033004567 0.0011507638 -0.09340964
000210 06 59 b3 bb bd 72 e0 bc 52 3d 1d be 89 a5 25 be
       -0.005473259 -0.027398461 -0.15355423 -0.16176428
000220 cf e0 ed 3d 6b 7d 81 bc 22 9c 1b 3e 5a 0b 24 be
       0.116151445 -0.015806874 0.15196279 -0.16019955
000230 36 ce 0f be 71 9f 3b be 84 69 93 3d 93 eb 7b bd
       -0.14043507 -0.18322541 0.0719786 -0.061503958
000240 9f 24 26 be 98 a7 3a bc b9 67 da bd cf 61 48 3d
       -0.16224907 -0.0113924965 -0.10664315 0.048921403
000250 b9 ae f4 bd 79 02 ed bd 4a 3a 61 bd b8 8e ba bd
       -0.11947388 -0.11572737 -0.05498723 -0.09109253
000260 6a 33 ea bc 83 f6 0d be 6a ce f4 bd 90 84 09 3d
       -0.02858897 -0.13863568 -0.11953433 0.033573687
000270 3f 8f ab 3d 30 99 72 bb ad 85 3a be 83 57 81 bd
       0.083769314 -0.0037017576 -0.18215056 -0.0631552
000280 c9 13 22 3c 25 f6 4f 3c 9e 4f 10 be d9 51 bf 3b
       0.009892412 0.012692963 -0.14092872 0.0058386144
000290 fa cf 87 3d 89 ed ae bc 75 e3 8a 3e 67 06 22 bd
       0.06631465 -0.0213535 0.2712666 -0.039556887

encoder_mean.12.bias f4 [12]
000000 52 bd e5 b2 d7 23 eb b2 25 e3 a8 b2 7a 4b 96 32
       -2.6745202e-08 -2.7373899e-08 -1.9661067e-08 1.7496621e-08
000010 4a 33 76 b2 98 9e 8e b3 f9 6a c8 b2 50 54 88 b3
       -1.4330746e-08 -6.641238e-08 -2.333171e-08 -6.34833e-08
000020 52 7d b8 b2 f3 de b8 b2 4a ae 80 30 67 0f fe b0
       -2.1477408e-08 -2.1521805e-08 9.362762e-10 -1.848531e-09

encoder_mean.13.weight f4 [12]
000000 04 66 e9 3e e3 aa 2f 3f d4 06 da 3e c5 de 23 3f
       0.45585644 0.6862013 0.42583334 0.64011794
000010 32 4c 8c 3e eb 4d ed 3e 2d 70 61 3f 8d 7d 6a 3f
       0.27401882 0.4634851 0.8806179 0.91597825
000020 6e ba 87 3e 40 8d 68 3e c2 79 b6 3e cd 9b ec 3e
       0.26509422 0.22710133 0.3563977 0.46212617

encoder_mean.13.bias f4 [12]
000000 05 6a 02 be 84 88 dc bc 06 a7 06 be 88 6a e7 bd
       -0.12735756 -0.026920564 -0.13149652 -0.11299616
000010 d6 ae 22 bd f0 da 22 be 50 ae 94 3a cb 8d b4 3c
       -0.039717518 -0.1590383 0.0011343453 0.022040268
000020 73 67 40 be 86 63 57 be f9 c8 28 be 1d 79 ec bd
       -0.18789463 -0.21034059 -0.16482915 -0.11546538

encoder_mean.13.running_mean f4 [12]
000000 7c 1f f9 3d 0d 0d ec 3d e4 4f f9 3d 16 48 07 be
       0.12164208 0.11525927 0.12173441 -0.13211092
000010 cb 34 0d be 2b 43 18 be 8e e0 03 be 25 01 fb bd
       -0.1378967 -0.14869373 -0.1287863 -0.12256078
000020 be 0c 01 be 50 6e b4 bd 8b 29 42 be fc 72 9a bd
       -0.12602517 -0.08810103 -0.1896116 -0.07541463

encoder_mean.13.running_var f4 [12]
000000 57 8b 57 3c 8e a4 25 3d 2a e4 51 3c 0b 5d 28 3d
       0.01315578 0.040440135 0.012810746 0.041104358
000010 db cd 6a 3d 3d e8 e6 3c 14 24 2d 3d e2 28 32 3d
       0.057325225 0.028186912 0.042270735 0.04349602
000020 ee 7a 14 3c 74 20 83 3c 2f 37 df 3c 07 33 42 3d
       0.009062512 0.016006686 0.027247993 0.047411945

encoder_mean.16.weight f4 [10, 12]
000000 4c c3 ab bc 0b 01 ef 3d eb 32 9c bd 02 64 19 be
       -0.020967148 0.11670121 -0.07626899 -0.14979556
000010 d8 48 e1 3d ca a0 fb 3d 38 06 50 3e d8 36 8c 3e
       0.11000222 0.122865275 0.20314872 0.27385592
000020 33 b4 92 3d fa 01 cc bb ce 35 4e bd 96 13 26 3e
       0.071632765 -0.0062258216 -0.05034428 0.16218409
000030 28 42 4c 3e 8c ab 90 bd ac fb 0d be 4f 19 bd 3d
       0.19947112 -0.0706397 -0.13865536 0.09233343
000040 a4 54 0b 3b 4e 26 d4 3d 58 0a f8 bd 07 e6 d8 3d
       0.0021260167 0.103588685 -0.12111348 0.10590749
000050 06 36 07 be af 6d f5 3c e8 02 da 3c 2f ac 32 bc
       -0.13204202 0.029959528 0.026612714 -0.01090531
000060 d3 90 13 3d 4c 9b 66 bd 53 5a d1 bd 3b 96 99 3c
       0.036026787 -0.056300446 -0.10222306 0.018748393
000070 a9 ac 6e 3b b8 0f 33 bd a9 0a 72 bd 39 dd 2a 3b
       0.0036418831 -0.043716162 -0.059092198 0.00260718
000080 8c b0 0d 3e 8e 35 88 3d d9 5e 59 bd f0 64 07 bd
       0.13836879 0.0665084 -0.05306897 -0.033055246
000090 47 40 dd bd 17 dd c0 3c f6 56 4e 3d 4f 15 da 3d
       -0.108032756 0.023542924 0.0503759 0.106485955
0000a0 be a6 6e 3d 23 e5 8a bd 30 ab 58 bd f1 09 a1 bc
       0.058264486 -0.067819856 -0.052897632 -0.01965806
0000b0 1d 77 17 3e e2 f6 07 3d 09 81 12 3e 1e 98 3b bc
       0.14791532 0.03319443 0.14307036 -0.011449842
0000c0 23 04 26 3e 60 a8 37 be 64 0d f3 3c 8a 82 8a 3d
       0.16212516 -0.17935324 0.029669471 0.067631796
0000d0 38 76 12 be fe e6 d5 bc 20 3d 5b be 78 fe ad bd
       -0.1430291 -0.026111122 -0.21410036 -0.08495802
0000e0 2d 43 db 3c 5d cd 60 3e ce b8 ab 3d 7c 4e 75 3c
       0.02676543 0.2195334 0.08384858 0.014972325
0000f0 6c ef 0b be d7 af c1 bd 9a bf 20 3e 88 6d a3 3d
       -0.13665551 -0.09457367 0.1569809 0.07979876
000100 44 09 2c bc f2 cd 81 bd 51 ed e8 bd 7a dc 0e be
       -0.010500256 -0.06338109 -0.113733895 -0.13951293
000110 58 29 0a 3e bf c4 ee bd 5f 95 89 bd 1b 25 a1 3c
       0.13492334 -0.1165862 -0.067179434 0.019671014
000120 c2 7a 0f 3e 86 b7 68 bc 26 12 08 be 88 00 7b bb
       0.14011672 -0.014203912 -0.13288173 -0.0038299877
000130 86 94 4c 3d 7b 1e 2b be 49 f1 53 bd a1 33 87 3e
       0.04994633 -0.16710846 -0.05174378 0.26406577
000140 2a 81 b7 3d 8e 91 e5 3d 07 d1 10 3e 57 26 6d 3c
       0.08960183 0.11209403 0.14142238 0.014474473
000150 50 21 d4 ba d2 73 1d 3e 35 4c 0a 3e 96 c7 38 bd
       -0.0016184244 0.15376213 0.13505633 -0.045112215
000160 b1 1a 27 3e f2 5b db bd 0f a1 04 3e 3f a6 64 3e
       0.16318776 -0.107108966 0.12952064 0.22329043
000170 b5 ae 95 3c 73 15 af bd 3c bc cd bd fc a2 7a bd
       0.018271783 -0.08549013 -0.100456685 -0.06119059
000180 4b 27 bf 3d 3e 94 08 be 97 ee 9c 3d ee b4 bf 3d
       0.093336664 -0.133378 0.07662695 0.093606815
000190 85 f0 21 bb 91 53 ca 3d f3 00 31 be a4 f3 1b be
       -0.0024710011 0.0987922 -0.17285518 -0.1522966
0001a0 65 de 5b 3d 9e 0a de bd cd 37 0f be 89 22 cc 3d
       0.05367889 -0.10841869 -0.1398613 0.099675246
0001b0 c5 03 52 3e 81 1c cf bd ab 34 29 3e 8e 10 d2 b9
       0.2050925 -0.101128586 0.16523997 -0.00040066655
0001c0 89 81 42 bd ce 7b ce bd a8 36 89 3e 74 74 43 3e
       -0.047486816 -0.100822076 0.26799512 0.19087392
0001d0 c2 dc 70 bc f5 cd 27 be a6 21 fe bd 55 31 f0 3c
       -0.01470107 -0.1638716 -0.12408762 0.029320398

encoder_mean.16.bias f4 [10]
000000 14 8b 11 be d5 19 ab bc 36 9b 18 3d 2c a1 8c bc
       -0.1421321 -0.020886341 0.037257396 -0.017166696
000010 dc 0a 9b 3d 91 68 9c 3d 09 c2 62 bd d3 e1 e7 bd
       0.07570431 0.07637132 -0.055360828 -0.113223694
000020 f8 99 6b 3d 48 df c6 bd
       0.057519883 -0.09710556

encoder_var.0.weight f4 [20, 14]
000000 75 a5 d5 32 62 b5 08 34 a6 47 83 b2 ba f0 13 b4
       2.4871705e-08 1.2731974e-07 -1.5282989e-08 -1.3778018e-07
000010 9b ca 93 b0 19 5d f8 31 16 c4 1d b4 8c 05 d1 32
       -1.0753242e-09 7.228334e-09 -1.46931e-07 2.4333325e-08
000020 c3 f8 c6 b3 13 83 75 b3 1a e4 99 33 15 d2 de b3
       -9.265343e-08 -5.716272e-08 7.166109e-08 -1.0375894e-07
000030 d4 1a d9 b3 97 6d 86 ba 1f 41 b7 32 f0 64 5d b1
       -1.010973e-07 -0.0010256049 2.1333618e-08 -3.221711e-09
000040 89 b7 8f b1 0e 0f f5 b1 5c 1e e6 b0 37 44 72 b0
       -4.1827133e-09 -7.13215e-09 -1.6743331e-09 -8.8136026e-10
000050 06 f2 35 33 09 78 88 b2 03 5b 27 33 d0 ef 4e 33
       4.2362466e-08 -1.588707e-08 3.8965492e-08 4.818122e-08
000060 26 87 e1 b2 f1 bf 13 b4 36 de f7 30 23 df 70 bb
       -2.6254906e-08 -1.376027e-07 1.8034771e-09 -0.0036754094
000070 a6 b8 ff b1 5f da a7 32 8e 44 8a 32 bc db 16 b3
       -7.442469e-09 1.9540662e-08 1.609649e-08 -3.5124444e-08
000080 c7 8f c2 31 1c 3f 81 32 00 20 09 b2 7c b4 9d 33
       5.6624887e-09 1.5046275e-08 -7.9817255e-09 7.343712e-08
000090 ad cc 8b 32 c1 9f ce b1 69 aa 23 33 91 61 67 31
       1.6274806e-08 -6.013551e-09 3.8106382e-08 3.3670384e-09
0000a0 fb 80 80 33 36 5a a4 b5 17 5f 9a b1 ab e9 21 31
       5.983926e-08 -1.2245207e-06 -4.4928004e-09 2.3561408e-09
0000b0 76 6e c0 b1 6e 3d 77 b2 b1 15 a5 31 3d 48 43 32
       -5.6004934e-09 -1.439126e-08 4.804598e-09 1.1366919e-08
0000c0 92 2e 2c b1 79 0e 3c 32 8e a1 2c 32 20 d5 e9 31
       -2.5055766e-09 1.0946331e-08 1.0048451e-08 6.805422e-09
0000d0 cb f0 4d 31 a3 7d 77 32 f7 f9 5d 32 f3 bc 3f 3a
       2.9968301e-09 1.4405859e-08 1.29207285e-08 0.00073142274
0000e0 f7 eb b4 b7 c1 a3 29 b8 c9 7f 91 b2 00 0e 96 34
       -2.1567552e-05 -4.0445248e-05 -1.6938332e-08 2.7949864e-07
0000f0 ef 3b 10 b5 c8 28 0a b4 41 c0 83 33 0f 33 3f 37
       -5.3731395e-07 -1.2867088e-07 6.135134e-08 1.1396375e-05
000100 04 27 8f b2 a0 44 b2 33 10 15 b8 b7 fe 82 95 b4
       -1.6665133e-08 8.301254e-08 -2.1944317e-05 -2.7848722e-07
000110 74 f1 f8 33 ce 8f b2 bb d9 e0 fa b2 99 19 b3 31
       1.159232e-07 -0.0054492718 -2.920608e-08 5.2124958e-09
000120 90 0f 94 b3 02 e1 f0 b2 2a 34 b1 33 de 23 0a 33
       -6.894618e-08 -2.8041999e-08 8.2516934e-08 3.216325e-08
000130 13 03 24 33 32 25 69 32 c0 1d 61 b3 da 94 95 33
       3.818702e-08 1.3570842e-08 -5.2413952e-08 6.965429e-08
000140 9e c8 f4 32 ab b7 bc 33 5e ee 9b b3 ed fe 38 b9
       2.8496569e-08 8.787841e-08 -7.261109e-08 -0.00017642575
000150 d7 1d 77 b0 71 a7 a0 30 15 91 bb b0 fe 6a fb 2e
       -8.990048e-10 1.1689122e-09 -1.3647276e-09 1.1433164e-10
000160 3d 9a 22 30 20 72 48 30 07 7f 80 b1 a9 fc 1a b1
       5.915444e-10 7.292176e-10 -3.7397316e-09 -2.255357e-09
000170 6d 74 86 b1 6c fd c9 b0 f8 1f 7b 31 1d 1e 20 30
       -3.9131494e-09 -1.4696702e-09 3.654348e-09 5.8250454e-10
000180 21 9f d9 b0 37 cb d4 ba 41 fc 7e b2 fa b1 2b 37
       -1.5834055e-09 -0.0016234879 -1.4842102e-08 1.0233833e-05
000190 07 1b 03 32 10 33 1e 32 64 98 80 b3 d8 61 0d 32
       7.631349e-09 9.208421e-09 -5.988184e-08 8.229527e-09
0001a0 05 50 22 b7 27 8b 69 36 28 c0 a6 31 48 23 d8 b1
       -9.674583e-06 3.4800703e-06 4.8530815e-09 -6.2904384e-09
0001b0 a5 50 1e b4 7c ef d4 31 f9 24 e3 31 aa 2e 93 bc
       -1.4744235e-07 6.1972383e-09 6.610773e-09 -0.017966587
0001c0 a7 ab 3d 32 d2 5f dd 32 55 a9 a5 30 47 5a fe b2
       1.1040277e-08 2.577136e-08 1.2053457e-09 -2.9610545e-08
0001d0 0a 7f f6 b2 0e 0b c3 b2 21 64 9f 31 99 86 92 b2
       -2.869594e-08 -2.2706015e-08 4.6388924e-09 -1.7057845e-08
0001e0 a8 58 65 b2 cc 6d 37 31 21 09 91 32 44 df 07 33
       -1.33497124e-08 2.6692417e-09 1.6884373e-08 3.1635196e-08
0001f0 f7 b1 40 b3 0e e8 03 31 f1 90 8b 2e 2a a1 02 35
       -4.486534e-08 1.9194917e-09 6.346735e-11 4.86633e-07
000200 f0 09 0a b3 3d a0 8d 33 72 07 28 b3 58 87 b7 b1
       -3.2139667e-08 6.594971e-08 -3.912232e-08 -5.3413878e-09
000210 f2 88 d5 b7 81 ac b1 38 7d d6 40 b3 9c 0d a4 33
       -2.5455349e-05 8.472149e-05 -4.489856e-08 7.6393206e-08
000220 dd b1 f3 b5 d4 81 6d b3 4b 84 84 b6 eb 88 e8 b8
       -1.8156676e-06 -5.529894e-08 -3.9493075e-06 -0.00011088125
000230 1f 0c e9 b2 d3 3d 96 b2 77 c0 3b b3 c1 bf 0c b2
       -2.7130282e-08 -1.7490413e-08 -4.3714376e-08 -8.192672e-09
000240 df ec fa 33 50 12 b7 34 6e 9f 44 33 f3 69 f6 32
       1.1684619e-07 3.409973e-07 4.5779807e-08 2.868635e-08
000250 a7 71 d2 32 d6 f9 d5 b2 8a bc 2c b1 68 a7 6b 31
       2.44989e-08 -2.4910076e-08 -2.5136466e-09 3.429216e-09
000260 3a 97 86 33 40 ad 17 bb 91 12 99 b1 fc 76 53 31
       6.267369e-08 -0.0023144037 -4.454997e-09 3.0772176e-09
000270 87 24 26 31 26 03 12 30 a8 99 13 b0 54 5a 55 31
       2.4176943e-09 5.3118965e-10 -5.3696647e-10 3.1046925e-09
000280 02 74 3a b1 90 cf 77 31 b8 53 ea 33 e6 c6 9c 31
       -2.7132505e-09 3.6061216e-09 1.09117025e-07 4.5628097e-09
000290 51 ca 20 b1 1d 68 66 32 d9 db 77 b2 c9 e3 b9 31
       -2.3398068e-09 1.3411435e-08 -1.442728e-08 5.410105e-09
0002a0 b0 64 38 b3 fc d1 13 b3 ea ce 2e 32 97 f9 93 b1
       -4.2932413e-08 -3.4417084e-08 1.017518e-08 -4.306638e-09
0002b0 21 30 98 33 83 60 85 32 06 5b b2 b2 c0 06 2a b3
       7.086806e-08 1.5527126e-08 -2.076332e-08 -3.958735e-08
0002c0 c7 2f d8 33 5e c8 59 b3 37 b9 2b 33 ff 62 50 34
       1.00669745e-07 -5.0706483e-08 3.9982492e-08 1.9407524e-07
0002d0 0d e4 ef b3 71 f4 88 38 d5 e3 52 33 3d cb bc 2e
       -1.1170787e-07 6.530516e-05 4.9101647e-08 8.5853526e-11
0002e0 f2 6e cb 31 f9 ea 4f b3 92 10 7e 34 11 87 dd 33
       5.9206906e-09 -4.840965e-08 2.3661622e-07 1.0315683e-07
0002f0 7b 3b 6e b2 b0 20 f0 b2 cf 67 ea b1 3b 12 a4 31
       -1.3866948e-08 -2.7954542e-08 -6.822098e-09 4.7751008e-09
000300 ba 81 73 32 ad 1d 3e 36 cf 0a 95 b3 fa 8a ac 3b
       1.4173958e-08 2.832948e-06 -6.940319e-08 0.0052655907
000310 8b 44 dc b4 19 5b c2 b3 e3 26 56 b6 9e d3 e9 35
       -4.1028065e-07 -9.0503995e-08 -3.191112e-06 1.7421441e-06
000320 04 82 01 32 25 e5 45 36 05 39 63 32 79 4a ab b4
       7.53835e-09 2.9488667e-06 1.3226104e-08 -3.1905418e-07
000330 25 e4 8f b3 d8 66 06 b4 b2 79 7d 34 24 8f 6f b3
       -6.700456e-08 -1.2517137e-07 2.3606734e-07 -5.577671e-08
000340 a9 f8 60 b3 03 d9 ea 3c 23 ff 7d b1 aa 08 2a 32
       -5.238022e-08 0.028667932 -3.6961374e-09 9.897272e-09
000350 f1 3a d0 31 27 ac 5a 32 9a 10 f1 32 99 74 2e 32
       6.0602976e-09 1.2728413e-08 2.8063642e-08 1.0154644e-08
000360 05 ad 9f b0 c2 5c a7 31 0f 01 07 b3 72 7e 83 32
       -1.1617948e-09 4.870885e-09 -3.14331e-08 1.5307908e-08
000370 67 a4 6c b2 7d d3 43 b2 c5 14 8c 31 42 b1 94 33
       -1.3774389e-08 -1.1398581e-08 4.0768975e-09 6.92403e-08
000380 f7 7c 76 b2 d6 be e2 31 4c 3c ab 31 6b 2f a7 b2
       -1.4347498e-08 6.599161e-09 4.98361e-09 -1.9462922e-08
000390 ed b8 27 b1 01 50 65 32 78 9b b4 b0 8f a7 de b1
       -2.4406817e-09 1.3347745e-08 -1.3140911e-09 -6.4800996e-09
0003a0 6a af 10 b0 da 43 8e 30 8f 4d 90 b1 f8 ae 01 31
       -5.2636173e-10 1.0351144e-09 -4.199769e-09 1.8871429e-09
0003b0 b3 d2 9b 30 a2 58 a1 bb 5b 4a eb ae 52 4d 8c b2
       1.1337619e-09 -0.004923896 -1.0699771e-10 -1.6333306e-08
0003c0 8b dd 5c b2 ba a3 d4 31 df 67 19 b2 f8 91 f4 31
       -1.2856058e-08 6.1886256e-09 -8.92939e-09 7.1179294e-09
0003d0 ef 77 1d 33 6a 02 4b b1 e2 96 60 32 af d3 8f b1
       3.666349e-08 -2.954176e-09 1.3072823e-08 -4.1859134e-09
0003e0 ad 2a 98 32 db b0 b2 31 37 96 1a b2 9a 6a 85 b2
       1.7714536e-08 5.200588e-09 -8.998135e-09 -1.5531715e-08
0003f0 0c ce a8 b1 f7 93 fa b1 ed ba c5 31 e4 a2 a6 b1
       -4.9128683e-09 -7.2927793e-09 5.7547056e-09 -4.8497544e-09

encoder_var.0.bias f4 [20]
000000 7e 39 5f 2b 49 4a 4a ab 03 57 61 2b d5 20 3e 2c
       7.93053e-13 -7.186791e-13 8.005681e-13 2.701885e-12
000010 1c ce fe 2b a0 63 21 2c b6 c5 a7 29 73 5d 29 ac
       1.8104992e-12 2.293478e-12 7.450587e-14 -2.406822e-12
000020 64 02 8b 2c ae 33 e8 aa 0d db 2c 2c a1 58 97 2b
       3.950883e-12 -4.124734e-13 2.4564268e-12 1.0753795e-12
000030 00 60 0c ab 90 fb 64 ab dd 93 1f ac f7 5b 40 2b
       -4.987122e-13 -8.1350985e-13 -2.267734e-12 6.833973e-13
000040 eb 41 38 ac 2c bf 49 2c 8b 8f 22 ac c8 b2 90 ab
       -2.6184564e-12 2.866994e-12 -2.3101267e-12 -1.0281437e-12

encoder_var.1.weight f4 [20]
000000 a3 f3 c3 35 54 ff 75 34 b5 34 d2 b3 87 1f 53 32
       1.459954e-06 2.2910291e-07 -9.7884744e-08 1.2288985e-08
000010 c6 9e bc b7 4e f4 5b b8 27 3b a6 b1 2f d3 59 35
       -2.2485281e-05 -5.2441195e-05 -4.8379607e-09 8.114611e-07
000020 5b fd 14 34 f5 89 39 38 71 d0 75 34 ca dd 7c b2
       1.3875744e-07 4.423592e-05 2.2893234e-07 -1.47187595e-08
000030 9b c2 0c 36 1e 0d 5b b3 7c 83 c0 36 17 9b d2 32
       2.09749e-06 -5.100184e-08 5.7373527e-06 2.4517744e-08
000040 a9 3f da b5 a7 ec 85 b3 47 7f 47 32 b2 30 0b 35
       -1.6260793e-06 -6.236342e-08 1.1612264e-08 5.1852396e-07

encoder_var.1.bias f4 [20]
000000 92 ee 06 34 d7 fd 74 b4 52 49 88 b2 b8 b0 38 31
       1.2566514e-07 -2.2816617e-07 -1.5865826e-08 2.6875977e-09
000010 d5 08 5b 34 ba d3 28 b4 57 12 2a 32 d0 ce b4 33
       2.0399177e-07 -1.5723245e-07 9.899472e-09 8.419522e-08
000020 70 cd e1 33 82 94 e1 33 a5 47 6f 33 59 48 2f b1
       1.0514748e-07 1.05043924e-07 5.5711684e-08 -2.5506977e-09
000030 38 d6 01 34 1b cd 7e 33 3d 03 d8 33 3a a8 40 b3
       1.2091994e-07 5.9325526e-08 1.0058873e-07 -4.4856485e-08
000040 9c 3e 5a 33 d9 4a 30 b2 06 65 17 b2 5a 71 a6 33
       5.0814023e-08 -1.0261567e-08 -8.812327e-09 7.750596e-08

encoder_var.1.running_mean f4 [20]
000000 a3 37 37 ba ee dd 20 bb 33 ae e1 b5 2f c5 01 3a
       -0.00069891865 -0.0024546343 -1.6814505e-06 0.0004950342
000010 4a 1f 69 bb 9a 18 13 b9 98 53 8f ba ee 4b 38 bc
       -0.0035571628 -0.00014028177 -0.0010934947 -0.011248572
000020 4d 14 86 b3 9d 93 59 b8 3b 8b c6 ba f8 1d 0f 34
       -6.243554e-08 -5.1874307e-05 -0.0015147695 1.3328815e-07
000030 90 8d 68 38 ed 94 59 3b 5a cf 8f 3c 7d 56 8c 33
       5.544495e-05 0.003320034 0.017554928 6.53499e-08
000040 e8 91 52 bb 6d ac 0b 33 37 f0 5d b2 fa 92 7c 34
       -0.0032130424 3.252028e-08 -1.2918512e-08 2.3522799e-07

encoder_var.1.running_var f4 [20]
000000 40 c9 c1 34 69 62 94 36 b0 24 29 2d 43 3d 42 34
       3.609548e-07 4.4222e-06 9.614684e-12 1.8089945e-07
000010 a7 49 14 37 1d 29 8e 32 34 75 6c 35 36 1e bf 38
       8.838636e-06 1.6549672e-08 8.8087404e-07 9.113217e-05
000020 f7 91 28 27 8d 3e c0 31 2d 7b e0 35 00 6e 99 27
       2.3393811e-15 5.5950466e-09 1.6725149e-06 4.2585293e-15
000030 93 97 3f 31 34 19 05 37 21 ca 67 39 f9 00 2e 28
       2.7880318e-09 7.933286e-06 0.00022105176 9.659151e-15
000040 3a 15 fc 36 3a 97 0c 27 0c 9c d4 29 dd c0 a2 2b
       7.5126563e-06 1.9510883e-15 9.441761e-14 1.1564323e-12
