generativecf/models/adult-fine-tune-size-100-upper-lim-10-age-good-cf-set/adult-eval-case-0-supervision-limit-100-const-case-0-margin-0.037-oracle_reg-8557.0-validity_reg-88.0-epoch-25-oracle-gen.pth (torch_old, 37228 bytes, 78 tensors)

encoder_mean.0.weight f4 [20, 30]
-0.42280334 -0.22450857 0.19246027 0.16253754 -0.13781428 -0.06400967 -0.048161026 -0.0909651
-0.0073754904 0.098308824 0.048147168 -0.0029025278 -0.12909688 0.019801946 0.06421702 -0.21490744
0.03910638 0.0055098985 0.0694575 0.0038423222 0.13873316 0.042429823 0.08028381 0.22119565
-0.11190294 -0.02468998 0.006623127 -0.08505519 0.0026038182 0.0048794304 -0.2205745 -0.005844563
0.013087129 -0.09745566 -0.13806777 0.006656612 0.0152663775 0.03405964 0.07046265 0.10753073
-0.00602026 0.06853743 -0.0893451 -0.0560644 -0.16802964 -0.024359431 0.09577965 0.09338422
0.009887738 -0.18757786 -0.02505641 -0.15720409 0.20369245 -0.1620432 0.06263983 -0.13052027
-0.044435117 -0.15426096 -0.11304896 0.13561936 -0.18332602 -0.10627814 0.022079064 9.629825e-05
-0.11527814 -0.07139497 0.026243793 0.3216515 6.62826e-07 -0.17480619 0.00026904905 1.6845706e-06
-0.12568147 -0.051211316 0.07388881 -0.079681315 -0.12661003 -0.041416634 0.00045137724 0.07591291
1.6766171e-05 -0.10146262 9.31508e-05 -0.111202955 -0.030142037 0.06738375 -0.2101446 -0.090104856
-0.22753866 -0.12893805 -1.0300776 -0.10336893 0.031149363 -0.10782901 -0.06162407 -0.055326063
-0.0468568 -0.009405303 0.18848337 0.013552107 0.03586509 -0.07642243 0.051433228 0.07826389
0.06991583 0.084172584 0.12641262 0.13338271 -0.061713316 0.02732406 -0.13981692 0.025101746
0.043075055 0.04226349 0.03783608 0.12314487 0.047148824 -0.028243659 -0.004262604 0.17615804
0.36984685 0.05778465 0.0033483205 -0.014721097 -0.02517712 -0.0423095 0.025235515 -0.10222257
0.09230654 -0.050561734 -0.03164407 4.4833996e-06 -0.063273855 -0.031002875 0.090330996 0.033703435
8.423393e-06 -0.00019999075 0.016729498 0.017498069 -0.038997263 0.07017846 3.1166437e-07 -0.08433156
-0.0439131 -0.011031766 -0.03292506 0.005258711 -0.06350536 -0.13079007 0.3943042 0.07886437
-0.036465287 -0.16443938 0.107687026 -0.117750734 0.13687284 0.22540864 -0.034807254 -0.06899323
0.022501437 -0.13065305 -0.17104574 -0.24154535 -0.053640973 0.17006496 -0.016492087 -0.062365606
-0.046000343 -0.04103046 -0.16390693 0.08633415 -0.16090038 -0.10937908 -0.031708162 -0.12658569
-0.10545457 -0.18123211 0.017985592 -0.18281265 -0.26554716 -0.9928964 -0.037088193 -0.0034968662
0.065970555 0.09735434 0.03737388 0.10681592 -0.054946393 -0.11584099 -4.895522e-07 -6.4670905e-07
-0.003152842 0.10882852 0.11703748 -0.039110716 -0.0066845617 0.0031103028 0.043454245 0.017128102
-0.05766751 0.12294555 -0.041191164 -0.010239739 -0.034526095 0.06705627 -0.027099855 0.01931933
0.0058746724 0.11825651 0.02782409 0.13982885 -0.015989661 0.007250328 -0.16691186 -0.07752056
-0.0015908866 0.00016140884 -0.030537242 -0.0655775 0.014907003 -1.1919818e-06 -0.0802205 -0.0122083435
0.028077837 -0.027247887 -0.019924503 -0.010471681 4.475299e-07 -0.029767636 -0.06512383 0.014351352
0.054316744 -0.023311201 -0.01789337 -0.1659772 -0.15696485 -0.007980346 -0.10754544 -0.30210078
0.18955803 -0.22169483 -0.06182161 0.14834976 0.03428255 -0.09548919 0.016058858 -0.054018117
-2.4681324e-06 0.0073393923 -0.04889535 -0.06530045 0.19055197 -0.10758023 0.06312626 -0.11135178
00000000: ae79 d8be 93e5 65be 4e14 453e 3e70 263e
00000010: 301f 0dbe 8017 83bd 7f44 45bd e94b babd
00000020: 19ae f1bb 2356 c93d f735 453d 5638 3ebb
00000030: f931 04be b137 a23c 3784 833d b210 5cbe
00000040: 032e 203d 618c b43b bc3f 8e3d 78cf 7b3b
00000050: 1110 0e3e e5ca 2d3d d76b a43d 1d81 623e
00000060: 5e2d e5bd a442 cabc d106 d93b 6a31 aebd
00000070: d2a4 2a3b a1e3 9f3b 48de 61be bf83 bfbb
00000080: 666b 563c d596 c7bd a361 0dbe b51f da3b
00000090: d41f 7a3c 1f82 0b3d b94e 903d 1239 dc3d
000000a0: 9a45 c5bb 5a5d 8c3d 90fa b6bd c9a3 65bd
000000b0: f60f 2cbe 6e8d c7bc 1f28 c43d 3a40 bf3d
000000c0: 2e00 223c 6914 40be 1a43 cdbc 1cfa 20be
000000d0: c194 503e a7ee 25be 5049 803d 1ba7 05be
000000e0: 9901 36bd 96f6 1dbe 3786 e7bd cddf 0a3e
000000f0: d1b9 3bbe 5aa8 d9bd 27df b43c bbf3 c938
00000100: f216 ecbd 8737 92bd 39fd d63c 81af a43e
00000110: 0eed 3135 6500 33be 270f 8d39 6819 e235
00000120: a5b2 00be f5c2 51bd 0453 973d f52f a3bd
00000130: 0fa6 01be 7da4 29bd d4a6 ec39 3a78 9b3d
00000140: 14a5 8c37 a2cb cfbd f459 c338 60be e3bd
00000150: 6fec f6bc 7e00 8a3d 2530 57be e588 b8bd
00000160: e5ff 68be 5608 04be 95d9 83bf 17b3 d3bd
00000170: f32c ff3c 75d5 dcbd 8569 7cbd 959d 62bd
00000180: eaec 3fbd b318 1abc c901 413e a809 5e3c
00000190: 46e7 123d 5d83 9cbd a6ab 523d d248 a03d
000001a0: 0830 8f3d ad62 ac3d 4f72 013e 7a95 083e
000001b0: 1ac7 7cbd b5d6 df3c 2b2c 0fbe 2da2 cd3c
000001c0: 786f 303d 7b1c 2d3d 01fa 1a3d 6133 fc3d
000001d0: 201f 413d 3f5f e7bc 50ad 8bbb c662 343e
000001e0: 915c bd3e 99af 6c3d 7f6f 5b3b c230 71bc
000001f0: 3f40 cebc ba4c 2dbd b6ba ce3c 115a d1bd
00000200: 360b bd3d d219 4fbd 369d 01bd 1c70 9636
00000210: b995 81bd bef9 fdbc 75ff b83d 9d0c 0a3d
00000220: 3352 0d37 9cb4 51b9 4d0c 893c 1c58 8f3c
00000230: 98bb 1fbd b9b9 8f3d d352 a734 06b6 acbd
00000240: 39de 33bd 95be 34bc 6ddc 06bd 4451 ac3b
00000250: 190f 82bd d5ed 05be 3de2 c93e a583 a13d
00000260: a05c 15bd cc62 28be 048b dc3d 4c27 f1bd
00000270: 6528 0c3e 86d1 663e 0d92 0ebd 534c 8dbd
00000280: ef54 b83c eac9 05be 9d26 2fbe aa57 77be
00000290: a3b6 5bbd 8225 2e3e 6a1a 87bc 1473 7fbd
000002a0: db6a 3cbd 8e0f 28bd 38d7 27be f5cf b03d
000002b0: 12c3 24be 2402 e0bd 6be0 01bd ae9f 01be
000002c0: 91f8 d7bd e994 39be 8556 933c 3d33 3bbe
000002d0: ccf5 87be 752e 7ebf cae9 17bd ae2b 65bb
000002e0: 921b 873d b661 c73d 5b15 193d 4ec2 da3d
000002f0: 780f 61bd 0a3e edbd c569 03b5 8299 2db5
00000300: e99f 4ebb 7de1 de3d 59b1 ef3d 8f32 20bd
00000310: 2b0a dbbb 39d6 4b3b 14fd 313d 3c50 8c3c
00000320: c434 6cbd e0ca fb3d 11b8 28bd 94c4 27bc
00000330: 3c6b 0dbd cc54 893d 8400 debc 9243 9e3c
00000340: 5380 c03b 7830 f23d 59ef e33c 4b2f 0f3e
00000350: c0fc 82bc 2994 ed3b f1ea 2abe 19c3 9ebd
00000360: 4c85 d0ba db3f 2939 3d29 fabc 7f4d 86bd
00000370: 813c 743c 2ffc 9fb5 a54a a4bd 8105 48bc
00000380: 7e03 e63c f636 dfbc b638 a3bc 6a91 2bbc
00000390: 0b44 f034 42db f3bc a55f 85bd ef21 6b3c
000003a0: 3c7b 5e3d 22f7 bebc 1e95 92bc edf5 29be
000003b0: 65bb 20be ffbf 02bc c940 dcbd f4ac 9abe
000003c0: 801b 423e f803 63be a838 7dbd 00e9 173e
000003d0: dc6b 0c3d d68f c3bd de8d 833c 1a42 5dbd
000003e0: 31a2 25b6 497f f03b 7e46 48bd 3ebc 85bd
000003f0: 0e20 433e 0653 dcbd 5748 813d 670c e4bd

encoder_mean.0.bias f4 [20]
-0.07564405 -0.08913194 -0.12029234 0.024746263 -0.051867187 -0.03851457 -0.029931925 -0.10966476
-0.06558308 -0.019251894 -0.056147885 -0.02700819 0.022275675 -0.01284929 -0.06679002 -0.049931735
0.025135625 0.0066939713 -0.049547445 -0.08729525
00000000: 45eb 9abd ce8a b6bd d55b f6bd adb8 ca3c
00000010: b072 54bd 74c1 1dbd cc33 f5bc eb97 e0bd
00000020: 6c50 86bd 26b6 9dbc 53fb 65bd 4840 ddbc
00000030: 7a7b b63c d485 52bc 35c9 88bd 3885 4cbd
00000040: 3ae9 cd3c 1a59 db3b 43f2 4abd dac7 b2bd

encoder_mean.1.weight f4 [20]
0.23966952 0.44348854 0.23398963 1.0213616 0.36409286 0.49415913 0.80927116 0.4101949
0.38205183 1.0401175 0.44321677 0.7535757 0.45620435 0.5390458 0.4090814 0.7049935
0.7559714 0.756576 0.69237256 0.26384664
00000000: ed6b 753e ee10 e33e fa9a 6f3e fabb 823f
00000010: 616a ba3e 6d02 fd3e 652c 4f3f 1105 d23e
00000020: 4c9c c33e 9222 853f 4fed e23e 56ea 403f
00000030: 9e93 e93e e8fe 093f 1e73 d13e 747a 343f
00000040: 5787 413f f7ae 413f 543f 313f e816 873e

encoder_mean.1.bias f4 [20]
-0.10397507 -0.11963045 -0.17544316 -0.027766151 -0.12510693 -0.040693738 -0.01778441 -0.15211102
-0.123323426 0.32692358 0.108803935 0.35539314 -0.11247337 0.19497499 -0.15898094 -0.21063694
0.15969235 -0.12926935 0.0075017693 -0.24773867
00000000: e2f0 d4bd cf00 f5bd 5fa7 33be d775 e3bc
00000010: 081c 00be 7aae 26bd 9cb0 91bc fec2 1bbe
00000020: fe90 fcbd 8762 a73e 99d4 de3d 17f6 b53e
00000030: 7058 e6bd 86a7 473e e6cb 22be 36b1 57be
00000040: 6486 233e 2f5f 04be 67d1 f53b 35af 7dbe

encoder_mean.1.running_mean f4 [20]
-0.06529927 0.10542952 -0.03820695 -0.22790305 0.31852207 0.10525355 -0.19414537 -0.11022639
-0.04237709 0.8017875 0.49035934 -0.011838308 0.13029727 0.28251192 0.41623685 -0.080544986
-0.11479775 -0.1496569 0.07549501 0.5212191
00000000: a0bb 85bd 6feb d73d e47e 1cbd 6b5f 69be
00000010: 5315 a33e 2c8f d73d 0bce 46be 60be e1bd
00000020: 9993 2dbd f241 4d3f 6110 fb3e 76f5 41bc
00000030: a66c 053e 67a5 903e ff1c d53e c5f4 a4bd
00000040: 151b ebbd a93f 19be 219d 9a3d 9d6e 053f

encoder_mean.1.running_var f4 [20]
0.019149719 0.050528523 0.033045296 0.014315728 0.011658218 0.018991034 0.014868163 0.026730679
0.03221343 0.01808368 0.011203289 0.017787326 0.022087285 0.014519148 0.02992605 0.0124332
0.020330401 0.019825751 0.019601662 0.035190176
00000000: dfdf 9c3c fff6 4e3d 815a 073d 848c 6a3c
00000010: 1c02 3f3c 1693 9b3c 9899 733c 4cfa da3c
00000020: 3bf2 033d 3a24 943c 008e 373c bab6 913c
00000030: 65f0 b43c b8e1 6d3c 7a27 f53c 9fb4 4b3c
00000040: f18b a63c 9d69 a23c aa93 a03c 9323 103d

encoder_mean.4.weight f4 [16, 20]
-0.03990184 0.04430306 -0.012505382 0.3580884 -0.007130118 -0.10053319 0.094761066 -0.018110713
-0.004001123 -0.39204597 -0.15654247 -0.29251942 0.156742 -0.096837044 -0.13394956 0.0010508106
0.14829096 -0.046624023 0.03652124 -0.16141067 -0.038062025 0.0066704247 0.011466493 -0.30026308
0.03910898 0.1378313 -0.13820755 -0.12797995 -0.02801131 0.39267263 0.08058689 0.17343165
-0.10610654 0.18259665 0.30563632 -0.030399913 -0.1754152 0.0068835323 0.213374 0.06309062
-0.21422379 -0.1738563 -0.018114133 -0.051196225 0.108424634 -0.15704162 0.25085485 -0.08491506
0.058599625 -0.029106913 -0.073006995 0.057196844 -0.081932575 0.02341517 0.08931154 0.25908148
-0.23441122 -0.05672728 0.052457653 -0.01656717 0.07724521 -0.024803083 0.14493503 -0.25300083
0.015202029 0.01860634 -0.020825386 0.090066396 -0.08112567 0.04300516 0.093748935 0.060115777
-0.15067647 -0.013383401 0.040352672 -0.04005333 -0.23015505 0.37913164 0.15868428 -0.021413997
-0.113392614 -0.110377096 0.06041952 -0.15801013 0.0030681624 0.035999507 -0.14592403 0.0016948243
-0.018518645 -0.13101034 -0.011323211 -0.13147742 -0.0077272584 -0.22345342 -0.20867524 -0.09631548
0.0626964 -0.1092594 0.1306487 0.0005920363 -0.0025903012 -0.1579602 -0.11589754 -0.099983335
0.0422261 -0.047501497 -0.1434036 0.16837105 0.01512551 0.052871738 0.14266787 -0.04427366
-0.18294652 -0.14060873 0.044593457 -0.054517977 0.15597278 -0.08540124 0.22605078 1.4323706e-05
-0.032727998 0.050892845 -0.061032604 0.13802363 -0.00068133057 -0.16545413 0.06766787 0.0024968272
0.27292702 -0.039529797 -0.13928454 -0.053563524 -0.1321835 -0.04186522 0.054116253 0.18904176
-0.17076188 0.08496016 -0.08149441 -0.054293055 0.0040724515 -0.018612716 0.060668264 0.28199634
-0.055707097 -0.024975458 -0.06982583 0.12544711 -0.06899834 -0.28413454 -0.04703728 -0.060600203
0.17302027 -0.21826337 -0.26009864 -0.061594136 0.21487375 -0.002281068 -0.054065328 0.025775256
0.09545584 0.10922432 -0.07887671 -0.18180194 -0.022548629 0.21684779 0.36037016 0.088348344
0.0468857 0.25073785 -0.021342631 0.30010837 -0.008918262 0.15316321 0.2937619 0.28330535
-0.1871597 0.047761142 0.13515133 0.19115652 -0.08518446 0.15547414 0.13250075 -0.21786582
0.022022173 0.013214731 -0.038668253 0.083204314 -0.018804276 0.392572 -0.010711656 -0.022253538
-0.052385073 0.25397894 0.07454088 0.054996684 0.026875759 -0.09108712 0.2824818 0.14769702
0.013790768 0.084884666 0.037623506 0.29773417 0.016780112 -0.07097907 0.116651 0.011869469
-0.061871555 -0.40251386 -0.11433565 -0.2882323 0.116377294 -0.19379759 -0.1477424 0.032447785
0.36918417 -0.06657162 -0.099809624 -0.15715039 0.08435539 0.12158344 0.04640289 0.25714815
0.077868685 -0.048782695 -0.08811141 0.06606396 -0.0050331107 -0.2687079 0.03623431 -0.120250724
0.040677898 -0.080134526 -0.14626576 -0.17539945 0.22091083 -0.108649716 0.029284865 0.106372565
-0.0122520635 0.04502479 -0.07430205 -0.21498254 -0.043563753 0.4359468 -0.24364461 0.00014282732
0.08129488 0.13098924 0.09411373 0.12359977 -0.33991078 0.008973522 0.2834199 -0.007786852
00000000: 1d70 23bd 2077 353d 60e3 4cbc 5d57 b73e
00000010: c4a3 e9bb 58e4 cdbd 1712 c23d eb5c 94bc
00000020: da1b 83bb 40ba c8be ab4c 20be 1bc5 95be
00000030: fa80 203e 8052 c6bd 132a 09be 5abb 893a
00000040: 96d9 173e d5f8 3ebd 4c97 153d d748 25be
00000050: ede6 1bbd 9493 da3b f5dd 3b3c 15bc 99be
00000060: bd30 203d a623 0d3e 4886 0dbe 2d0d 03be
00000070: fa77 e5bc 630c c93e bd0a a53d 1198 313e
00000080: 634e d9bd 9efa 3a3e 5d7c 9c3e 3d09 f9bc
00000090: 0ba0 33be 418f e13b b77e 5a3e a835 813d
000000a0: 7b5d 5bbe 6307 32be 1764 94bc 22b3 51bd
000000b0: bc0d de3d 85cf 20be 0c70 803e f2e7 adbd
000000c0: 2906 703d 9f71 eebc b184 95bd 3d47 6a3d
000000d0: 44cc a7bd 2cd1 bf3c f8e8 b63d 54a6 843e
000000e0: 7f09 70be dd5a 68bd d6dd 563d e0b7 87bc
000000f0: bd32 9e3d d62f cbbc d969 143e 5389 81be
00000100: ee11 793c 536c 983c 009a aabc bb74 b83d
00000110: 3725 a6bd 2e26 303d 71ff bf3d f63b 763d
00000120: ef4a 1abe 0d46 5bbc d848 253d f60e 24bd
00000130: c4ad 6bbe 8b1d c23e 227e 223e 686c afbc
00000140: 633a e8bd 630d e2bd 757a 773d 68cd 21be
00000150: 3913 493b 3874 133d 1c6d 15be de24 de3a
00000160: 6ab4 97bc 9327 06be fd84 39bc 04a2 06be
00000170: f134 fdbb f9d0 64be f6ae 55be 0d41 c5bd
00000180: f866 803d 64c3 dfbd c6c8 053e e232 1b3a
00000190: 0bc2 29bb 52c0 21be b05b edbd 10c4 ccbd
000001a0: 46f5 2c3d ee90 42bd 65d8 12be 7669 2c3e
000001b0: fdd0 773c 0990 583d 8717 123e 4c58 35bd
000001c0: 5556 3bbe bcfb 0fbe a1a7 363d 3e4e 5fbd
000001d0: 54b7 1f3e d8e6 aebd db79 673e d94f 7037
000001e0: cb0d 06bd 0475 503d 53fd 79bd 1156 0d3e
000001f0: 529b 32ba cf6c 29be 7495 8a3d cfa1 233b
00000200: 17bd 8b3e ffe9 21bd 9ba0 0ebe 6d65 5bbd
00000210: 1d5b 07be dd7a 2bbd 01a9 5d3d 2a94 413e
00000220: 34dc 2ebe 98ff ad3d 8be6 a6bd 6562 5ebd
00000230: 3372 853b b279 98bc 497f 783d d361 903e
00000240: 202d 64bd 5599 ccbc d800 8fbd 3575 003e
00000250: 004f 8dbd 157a 91be 2aaa 40bd eb37 78bd
00000260: 3a2c 313e 6f80 5fbe a62b 85be 224a 7cbd
00000270: dd07 5c3e f87d 15bb 9b73 5dbd a126 d33c
00000280: 5a7e c33d 00b1 df3d 1d8a a1bd 4a2a 3abe
00000290: e7b7 b8bc 590d 5e3e 7082 b83e faef b43d
000002a0: 380b 403d b660 803e bed6 aebc cea7 993e
000002b0: e71d 12bc d1d6 1c3e f667 963e 660d 913e
000002c0: cba6 3fbe 30a1 433d 1c65 0a3e 89be 433e
000002d0: 3175 aebd 9d34 1f3e 47ae 073e 3818 5fbe
000002e0: d867 b43c 9982 583c 9a62 1ebd 0667 aa3d
000002f0: 6d0b 9abc 32ff c83e f17f 2fbc 0d4d b6bc
00000300: bb91 56bd 8709 823e e4a8 983d 3444 613d
00000310: 8d2a dc3c e28b babd 74a1 903e e33d 173e
00000320: acf2 613c 03d8 ad3d 1b1b 1a3d 9d70 983e
00000330: 7276 893c 7a5d 91bd b8e6 ee3d 2978 423c
00000340: 076d 7dbd 4c16 cebe cf28 eabd 2f93 93be
00000350: 3857 ee3d e072 46be c949 17be f8e7 043d
00000360: b505 bd3e b456 88bd fd68 ccbd 08ec 20be
00000370: 85c2 ac3d bd00 f93d f510 3e3d eca8 833e
00000380: 9e79 9f3d 5dd0 47bd c173 b4bd 8b4c 873d
00000390: cbec a4bb 1594 89be 6e6a 143d 0346 f6bd
000003a0: de9d 263d 921d a4bd b1c6 15be ea9b 33be
000003b0: 7336 623e be83 debd d0e6 ef3c dcd9 d93d
000003c0: e1bc 48bc ea6b 383d ac2b 98bd 6224 5cbe
000003d0: e86f 32bd 6b34 df3e f97d 79be ebc3 1539
000003e0: ee7d a63d 0b22 063e b3be c03d e021 fd3d
000003f0: c908 aebe ae05 133c 6a1c 913e d928 ffbb

encoder_mean.4.bias f4 [16]
-0.013514705 0.012538029 -0.14814714 0.01591314 -0.089558534 0.002089496 -0.1146728 0.00084339635
0.04373534 0.0043167933 0.016522223 -0.0032427146 -0.10849571 0.047587994 -0.066794954 -0.121029995
00000000: c86c 5dbc 4e6c 4d3c e2b3 17be 465c 823c
00000010: 776a b7bd edef 083b 93d9 eabd 5f17 5d3a
00000020: d423 333d e373 8d3b 9d59 873c b983 54bb
00000030: 0033 debd a1eb 423d cbcb 88bd 93de f7bd

encoder_mean.5.weight f4 [16]
0.6940417 0.6549796 0.45305845 0.59613216 0.36667457 0.74318355 0.60236144 0.57895654
0.63939303 0.4391288 0.80610794 0.58116126 0.6083875 0.7167619 0.5773611 0.24096863
00000000: b8ac 313f beac 273f 47f7 e73e 1e9c 183f
00000010: c5bc bb3e 4741 3e3f 5c34 1a3f 7f36 143f
00000020: 43af 233f 7dd5 e03e 175d 4e3f fcc6 143f
00000030: 48bf 1b3f b57d 373f f0cd 133f 7bc0 763e

encoder_mean.5.bias f4 [16]
0.007085782 0.1665005 0.03539481 0.07634248 -0.06497822 -0.0032598183 -0.13156879 0.08185271
0.095295995 0.14247432 -0.04232492 0.0914022 -0.1384178 -0.19448808 0.065998286 -0.1677037
00000000: d92f e83b 1b7f 2a3e 26fa 103d 7259 9c3d
00000010: 4d13 85bd ada2 55bb f8b9 06be 65a2 a73d
00000020: 8c2a c33d cae4 113e e55c 2dbd 1431 bb3d
00000030: 65bd 0dbe e227 47be 1c2a 873d 85ba 2bbe

encoder_mean.5.running_mean f4 [16]
-0.26529095 0.09483759 0.26804334 -0.02707769 -0.012543133 0.07495599 0.30269584 -0.15582459
0.302132 0.2146016 -0.28140578 -0.087643474 -0.0155199785 -0.2872888 0.18720151 -0.091136836
00000000: 37d4 87be 363a c23d fa3c 893e 08d2 ddbc
00000010: b781 4dbc 8782 993d f3fa 9a3e 7b90 1fbe
00000020: 0cb1 9a3e 86c0 5b3e 6b14 90be 6c7e b3bd
00000030: 8247 7ebc 8517 93be c1b1 3f3e f3a5 babd

encoder_mean.5.running_var f4 [16]
0.19382302 0.16107993 0.2782646 0.07246324 0.17791258 0.10638359 0.16308853 0.1502182
0.2861461 0.07163512 0.31588775 0.116642855 0.11428993 0.28757256 0.30083 0.060358983
00000000: 8b79 463e 23f2 243e b378 8e3e 9b67 943d
00000010: b72e 363e a4df d93d ae00 273e cdd2 193e
00000020: be81 923e 6fb5 923d 0abc a13e 73e2 ee3d
00000030: d710 ea3d b63c 933e 6406 9a3e fb3a 773d

encoder_mean.8.weight f4 [14, 16]
0.28333458 -0.14819002 0.07031328 -0.056296963 -0.08659348 -0.179481 0.12444405 0.027929358
-0.14970742 -0.0960959 0.23319396 0.010256135 -0.11067827 0.24219392 -0.00901906 -0.02859175
-0.13371584 0.2429247 -0.029870275 0.00660324 0.114024155 0.087842174 -0.07288691 0.0589906
0.047064465 0.08427865 0.1104117 -0.064379916 -0.062292837 0.015751496 -0.052904863 0.025283424
-0.047949877 -0.27288848 0.08405923 -0.2887323 0.046697948 0.013921976 0.10259219 0.0013356969
-0.25968444 -0.29842415 -0.052151673 -0.19550031 -0.14504993 0.21205825 0.14631015 -0.085878424
-0.2737788 0.13735692 -0.09228515 0.049186096 0.009605734 0.11793291 -0.11276474 -0.235113
-0.085282356 0.039066102 -0.33975157 -0.0956448 -0.26114982 -0.25711945 -0.14651705 -0.1237725
-0.14255849 0.092266604 0.18122186 -0.046898928 0.11622484 0.13502221 0.027714906 -0.11390257
0.18546198 0.23116978 -0.28899345 -0.23498933 -0.34464896 -0.26242664 0.1363319 -0.03719122
0.2318353 -0.1759701 -0.091233365 -0.10402993 0.07591772 -0.038409214 0.018266825 0.16322722
-0.098620504 -0.090489276 0.25641742 0.21117763 -0.038396217 0.21370575 -0.040567085 0.017504789
0.237646 -0.12083091 -0.21183138 0.036278367 -0.12249884 -0.12902313 -0.016250413 0.18577257
-0.2362664 -0.0012223017 0.18756278 0.058388337 0.112310745 0.01884139 -0.22130649 0.10442694
0.03978644 -0.17791073 0.038656354 -0.06175849 -0.09441172 -0.038310878 0.016872412 -0.15016882
-0.029100625 -0.26822796 -0.026883706 -0.23270562 -0.04218372 -0.058807146 -0.24782017 -0.021094866
-0.00067474484 0.15461852 -0.013568065 -0.03684063 0.13594466 0.16989411 3.756881e-05 0.0012894996
-0.13321547 -0.06915397 -0.0011858545 0.003395349 -0.004906132 -3.4037148e-06 -0.00033711424 0.020184686
-0.34093326 0.13338175 0.044463363 0.1972191 -0.15940243 0.21228522 0.07701168 -0.36193582
0.07163623 0.061009005 -0.2874462 -0.27698258 0.07015364 -0.2782149 0.07198722 -0.06440977
-0.3132165 0.13210127 0.018688632 0.13122258 -0.06601077 0.07592604 -0.050934818 -0.20164156
0.21751824 0.0876333 -0.24015824 -0.23554586 -0.054908354 -0.23682149 0.29666018 0.047053374
0.3030569 -0.19265938 -0.08548381 -0.08298196 0.008602218 -0.15844318 0.0037212828 0.10405978
-0.16602693 -0.061971243 0.33360928 0.023625266 0.09472442 0.057391528 -0.09851261 -0.04203229
0.22806656 -0.27657232 0.010514434 -0.02339203 0.04857877 -0.16679801 0.09511666 0.13291153
-0.17755768 -0.057590846 0.2337095 0.19979303 0.020592293 0.2849558 0.025300065 0.032005586
-0.10176103 0.03671476 0.15126203 -0.4106006 -0.02140375 0.0055641728 -0.15539666 -0.08760291
0.16206406 0.12431546 -0.14333422 0.059089005 -0.42820263 -0.042366527 -0.0021082265 0.026089564
00000000: 3b11 913e 20bf 17be 6900 903d a597 66bd
00000010: ec57 b1bd dec9 37be 86dc fe3d 1ccc e43c
00000020: e74c 19be edcd c4bd 66ca 6e3e 5909 283c
00000030: 4aab e2bd af01 783e aec4 13bc 3f39 eabc
00000040: ceec 08be 41c1 783e 82b2 f4bc fe5f d83b
00000050: 7f85 e93d 99e6 b33d bb45 95bd 21a0 713d
00000060: abc6 403d 499a ac3d 881f e23d 9ed9 83bd
00000070: c626 7fbd 4809 813c c5b2 58bd 2f1f cf3c
00000080: 1767 44bd 0ab8 8bbe 3f27 ac3d b8d4 93be
00000090: 5946 3f3d 0019 643c db1b d23d 8d12 af3a
000000a0: 5cf5 84be 0dcb 98be fe9c 55bd 3c31 48be
000000b0: f887 14be cc25 593e 54d2 153e 07e1 afbd
000000c0: bc2c 8cbe 4ba7 0c3e ffff bcbd 5c77 493d
000000d0: 5e61 1d3c cf86 f13d 33f1 e6bd 76c1 70be
000000e0: 84a8 aebd c703 203d ebf3 adbe 6ce1 c3bd
000000f0: 6eb5 85be 29a5 83be 9108 16be 707c fdbd
00000100: dafa 11be 46f6 bc3d 3992 393e 1719 40bd
00000110: 4a07 ee3d 4343 0a3e 5f0a e33c c045 e9bd
00000120: bfe9 3d3e c5b7 6c3e f3f6 93be 0ba1 70be
00000130: d475 b0be c95c 86be 979a 0b3e d255 18bd
00000140: 3c66 6d3e 8231 34be 8fd8 babd a50d d5bd
00000150: c07a 9b3d fb52 1dbd 4fa4 953c 0925 273e
00000160: 8cf9 c9bd 7152 b9bd 2549 833e f33e 583e
00000170: 5a45 1dbd aed5 5a3e ac29 26bd 3466 8f3c
00000180: 7959 733e 3276 f7bd 53ea 58be a098 143d
00000190: ace0 fabd a41e 04be 961f 85bc 2a3b 3e3e
000001a0: d2ef 71be a435 a0ba 7510 403e 9c28 6f3d
000001b0: 2d03 e63d 4259 9a3c 2b9e 62be cbdd d53d
000001c0: 1bf7 223d 3b2e 36be 2056 1e3d 78f6 7cbd
000001d0: ef5a c1bd deeb 1cbd 0338 8a3c dbc5 19be
000001e0: 6f64 eebc 2d55 89be 383b dcbc 624a 6ebe
000001f0: d6c8 2cbd c3df 70bd 92c4 7dbe 24cf acbc
00000200: 5ce1 30ba 5154 1e3e 974c 5ebc 33e6 16bd
00000210: 1435 0b3e b9f8 2d3e 3493 1d38 6d04 a93a
00000220: a369 08be 99a0 8dbd ad6e 9bba 8184 5e3b
00000230: 9ec3 a0bb 606b 64b6 b5be b0b9 5b5a a53c
00000240: ce8e aebe 3a95 083e 371f 363d cef3 493e
00000250: 643a 23be 4c61 593e 4db8 9d3d a74f b9be
00000260: 04b6 923d 94e4 793d 262c 93be a9d0 8dbe
00000270: b6ac 8f3d 2f72 8ebe 096e 933d 45e9 83bd
00000280: ea5d a0be 8e45 073e e718 993c 365f 063e
00000290: a830 87bd 1d7f 9b3d 07a1 50bd 207b 4ebe
000002a0: 1abd 5e3e 1679 b33d 0bec 75be ef32 71be
000002b0: 95e7 60bd 5581 72be d8e3 973e 0abb 403d
000002c0: 462a 9b3e 8048 45be 2312 afbd 72f2 a9bd
000002d0: 51f0 0c3c ee3e 22be c4e0 733b 4b1d d53d
000002e0: f702 2abe 8fd5 7dbd d6ce aa3e c689 c13c
000002f0: e0fe c13d 6113 6b3d fbc0 c9bd 0d2a 2cbd
00000300: 488a 693e e39a 8dbe bc44 2c3c a4a0 bfbc
00000310: 88fa 463d 19cd 2abe 86cc c23d f619 083e
00000320: aed1 35be 61e4 6bbd 8b51 6f3e 8b96 4c3e
00000330: 2bb1 a83c bae5 913e 1542 cf3c 4a18 033d
00000340: 1668 d0bd 3762 163d 6fe4 1a3e 3e3a d2be
00000350: eb56 afbc aa53 b63b 4d20 1fbe 2869 b3bd
00000360: 1ff4 253e 1b99 fe3d 35c6 12be 5007 723d
00000370: 603d dbbe 8688 2dbd 2c2a 0abb c8b9 d53c

encoder_mean.8.bias f4 [14]
0.0043245344 -0.0758676 -0.0318725 0.040514085 0.041666843 0.0016747094 0.028681813 -0.073976144
-0.044979118 0.026832696 0.041753862 -5.9958435e-05 0.0019304074 0.017811457
00000000: d3b4 8d3b 7960 9bbd bd8c 02bd 19f2 253d
00000010: daaa 2a3d ec81 db3a 1ff6 ea3c ce80 97bd
00000020: 063c 38bd 3ed0 db3c 1906 2b3d e17b 7bb8
00000030: b905 fd3a 55e9 913c

encoder_mean.9.weight f4 [14]
0.52526265 0.4209118 0.7750583 0.75492525 0.5803417 0.56053084 0.7045446 0.5180747
0.42758268 0.9100464 0.8364465 0.7218373 0.44995153 0.50870514
00000000: 9d77 063f c081 d73e 396a 463f c842 413f
00000010: 4691 143f f37e 0f3f 095d 343f 8ba0 043f
00000020: 1eec da3e cdf8 683f 5c21 563f 54ca 383f
00000030: 0c60 e63e 803a 023f

encoder_mean.9.bias f4 [14]
0.14559433 -0.18100557 0.11659388 -0.016583242 0.07728938 0.13963298 0.04625998 -0.032074705
-0.09282164 0.24218054 0.19761461 0.047455814 0.15707271 -0.14338915
00000000: ae16 153e 8659 39be c6c8 ee3d 94d9 87bc
00000010: e549 9e3d f3fb 0e3e 1b7b 3d3d c460 03bd
00000020: 4619 bebd 2dfe 773e 7c5b 4a3e 0761 423d
00000030: abd7 203e 9bd4 12be

encoder_mean.9.running_mean f4 [14]
-0.022095118 0.30701354 -0.055496946 -0.28868896 -0.09475181 -0.016358348 -0.16270126 -0.1495241
0.16760528 -0.110239945 -0.033962965 -0.13574217 0.021729413 -0.06286778
00000000: d200 b5bc e130 9d3e c450 63bd 0acf 93be
00000010: 3d0d c2bd f101 86bc 299b 26be d81c 19be
00000020: b8a0 2b3e 7bc5 e1bd c01c 0bbd ffff 0abe
00000030: e201 b23c d3c0 80bd

encoder_mean.9.running_var f4 [14]
0.14674538 0.052217945 0.09767654 0.1506955 0.0868791 0.16421087 0.1697689 0.18326329
0.11244554 0.33013126 0.37928733 0.15306605 0.12135529 0.040818583
00000000: 6c44 163e 7ce2 553d a30a c83d ec4f 1a3e
00000010: abed b13d e526 283e e6d7 2d3e 5fa9 3b3e
00000020: d949 e63d f706 a93e f331 c23e 59bd 1c3e
00000030: 1f89 f83d 6331 273d

encoder_mean.12.weight f4 [12, 14]
-0.03596718 -0.0031159504 0.17914982 -0.29027092 -0.2511075 0.043322627 -0.002191566 -0.091325894
-0.15560138 -0.27920815 -0.19348864 0.18949048 -0.009282487 0.062833875 0.03321958 -0.06854526
0.043370984 -0.30869392 -0.2575526 -0.08756037 -0.14693107 -0.12303769 2.4597136e-06 0.363806
-0.26860216 -0.076897986 -0.10575721 -0.013555644 -0.16241138 0.0001184907 -0.072935484 -0.0027854329
-0.0884351 -0.19633779 -0.1131291 -0.18405238 -0.14425682 -0.25720352 -0.26281768 -0.13671942
-0.2009734 -0.27748242 0.16728902 -0.047887117 -0.14874929 -2.0199912e-05 -0.058741022 0.009050188
-0.0947421 0.20393793 8.9457757e-07 -0.097200364 0.02242186 0.06602775 -0.08390673 0.057007674
-0.2439066 0.09025828 -0.23342489 -0.1355392 0.2159433 -0.28442624 -0.18840924 0.095367216
0.022028087 0.07187437 0.12057263 -0.2661112 -0.12513238 0.22008851 0.16517979 -0.008633403
0.026148275 -0.09570992 -0.13537294 0.12727952 0.15413147 0.13126591 -0.09051467 -0.27156985
-0.14577663 -0.04874465 0.2741499 -0.07162471 0.06908625 0.022107549 -0.012126298 -0.3314821
-0.2258996 -0.014751337 0.1185512 0.05424003 -0.05753906 -0.15782845 -0.14716393 0.062198415
0.06704427 0.052219015 -0.023242395 -0.2544252 0.053185258 -0.048857376 -0.10549905 -0.16834414
-0.16209255 0.029023347 0.0004472371 -0.35250396 0.24712698 -0.106398016 -0.1375267 0.06999143
-0.05517203 -0.031706154 -0.06265568 -0.10601937 0.16337724 -0.039350264 -0.37432635 0.07717874
-0.014339427 -0.008652538 -0.016290678 -0.16519177 -0.07076727 0.23057397 -0.20062475 -0.15400364
-0.17104185 0.2887809 0.04186914 -0.22699651 -0.20878212 -0.14613251 0.060542688 0.098835774
0.04460977 -0.18919045 -0.302791 0.044688016 -0.15116252 -0.11536058 -0.1407553 0.048617046
0.19074944 -0.25395438 -0.25704986 0.054303307 -0.10228404 0.17061877 0.36223513 -0.25541952
-0.17357786 0.26227126 0.1647247 -0.058297385 0.07185251 -0.29095888 -0.05580337 0.059947066
0.11392365 0.1074905 -0.009570816 -0.31520534 -0.08007811 0.08914161 0.14325961 -0.051471632
00000000: 5252 13bd f934 4cbb 0d73 373e 649e 94be
00000010: 2a91 80be 1173 313d 60a0 0fbb 1209 bbbd
00000020: f855 1fbe 5ff4 8ebe e321 46be cb09 423e
00000030: 9315 18bc 0caf 803d 4111 083d 7561 8cbd
00000040: c6a5 313d 210d 9ebe efdd 83be da52 b3bd
00000050: 1975 16be 2ffb fbbd 8f11 2536 c844 ba3e
00000060: 3986 89be b17c 9dbd 3c97 d8bd 7e18 5ebc
00000070: 2b4f 26be 367e f838 335f 95bd cf8b 36bb
00000080: 761d b5bd c60c 49be 3bb0 e7bd 3a78 3cbe
00000090: 0fb8 13be 2eb0 83be 0a90 86be 2d00 0cbe
000000a0: f9cb 4dbe 2d12 8ebe d04d 2b3e 4825 44bd
000000b0: bc51 18be fb72 a9b7 6d9a 70bd 3d47 143c
000000c0: 2508 c2bd 1bd5 503e e722 7035 fc10 c7bd
000000d0: 0cae b73c 8f39 873d 4bd7 abbd e180 693d
000000e0: a7c2 79be 55d9 b83d ef06 6fbe caca 0abe
000000f0: 3e20 5d3e 51a0 91be 5aee 40be e34f c33d
00000100: 3f74 b43c df32 933d c8ee f63d ba3f 88be
00000110: b422 00be e25e 613e e424 293e 1e73 0dbc
00000120: e834 d63c 9003 c4bd 349f 0abe 9055 023e
00000130: a4d4 1d3e 926a 063e c15f b9bd 340b 8bbe
00000140: 7846 15be 78a8 47bd 605d 8c3e faaf 92bd
00000150: 187d 8d3d e41a b53c 61ad 46bc 06b8 a9be
00000160: 3a52 67be 97af 71bc f9ca f23d cb2a 5e3d
00000170: 14ae 6bbd c89d 21be 24b2 16be c4c3 7e3d
00000180: 824e 893d 9be3 553d d666 bebc 0544 82be
00000190: c9d8 593d ac1e 48bd e30f d8bd 6862 2cbe
000001a0: 97fb 25be 5fc2 ed3c 267b ea39 667b b4be
000001b0: db0e 7d3e 34e7 d9bd cdd3 0cbe ab57 8f3d
000001c0: 11fc 61bd 50de 01bd 9f51 80bd af20 d9bd
000001d0: 5d4c 273e be2d 21bd b4a7 bfbe e30f 9e3d
000001e0: ebef 6abc 60c3 0dbc 0774 85bc 0828 29be
000001f0: 6eee 90bd 951b 6c3e 9370 4dbe 21b3 1dbe
00000200: 9825 2fbe 17db 933e fa7e 2b3d c671 68be
00000210: fbca 55be c3a3 15be 9cfb 773d 696a ca3d
00000220: bcb8 363d 24bb 41be 6c07 9bbe c80a 373d
00000230: 59ca 1abe 2b42 ecbd 2822 10be ab22 473d
00000240: d253 433e 4f06 82be 0a9c 83be 256d 5e3d
00000250: 4b7a d1bd b0b6 2e3e e276 b93e 59c6 82be
00000260: 65be 31be 6b48 863e 97ad 283e 3dc9 6ebd
00000270: 6927 933d 90f8 94be 1392 64bd 0e8b 753d
00000280: cd50 e93d fb23 dc3d e9ce 1cbc 9862 a1be
00000290: feff a3bd e08f b63d a6b2 123e ebd3 52bd

encoder_mean.12.bias f4 [12]
0.04276449 -0.07553389 -0.117781095 -0.08117026 0.08633155 0.04408587 0.030885922 0.037489418
0.04760326 0.07187502 0.08709368 0.031558152
00000000: d129 2f3d 83b1 9abd 3737 f1bd 983c a6bd
00000010: 98ce b03d 6393 343d 7904 fd3c 818e 193d
00000020: a3fb 423d 3633 933d 2c5e b23d 1f43 013d

encoder_mean.13.weight f4 [12]
0.82701856 0.74731433 0.73365194 0.47540087 0.8718704 0.67620397 0.6343098 0.7289231
0.70277303 1.0510255 0.83194005 0.57842064
00000000: 7db7 533f fe4f 3f3f 9dd0 3b3f be67 f33e
00000010: e632 5f3f b41b 2d3f 2162 223f b49a 3a3f
00000020: efe8 333f 0188 863f 06fa 543f 6013 143f

encoder_mean.13.bias f4 [12]
0.27958125 -0.088039435 0.23428923 -0.080955684 0.30565783 0.42501917 0.44725415 0.09397788
0.26654798 0.34440953 0.33783454 0.48836955
00000000: 4625 8f3e 054e b4bd 84e9 6f3e 18cc a5bd
00000010: 2f7f 9c3e 1d9c d93e 7ffe e43e 7a77 c03d
00000020: fa78 883e 7256 b03e a6f8 ac3e 930b fa3e

encoder_mean.13.running_mean f4 [12]
-0.11630189 0.04449155 -0.35586858 0.34030235 -0.20232944 0.12226242 0.011813224 -0.04639964
0.030628541 -0.4121109 -0.062157206 0.14279984
00000000: af2f eebd c63c 363d 6834 b6be 1c3c ae3e
00000010: 732f 4fbe b864 fa3d 418c 413c 8d0d 3ebd
00000020: b5e8 fa3c 3300 d3be 8e98 7ebd 1f3a 123e

encoder_mean.13.running_var f4 [12]
0.21952175 0.032499216 0.163139 0.11435489 0.29812843 0.18691117 0.096119046 0.049253445
0.1513606 0.21486573 0.45500585 0.18090628
00000000: 4fca 603e e61d 053d e90d 273e e632 ea3d
00000010: 4aa4 983e a465 3f3e 10da c43d fbbd 493d
00000020: 46fe 1a3e c305 5c3e 87f6 e83e 7f3f 393e

encoder_mean.16.weight f4 [10, 12]
-0.19047773 0.28056678 -0.27256083 0.031651847 0.096516386 -0.078688 0.15561913 0.021415142
0.24591504 -0.060216416 0.16291866 0.0146904215 0.018974321 -0.0378899 0.06502655 0.045961477
-0.12257638 0.063824385 -0.045702994 -0.14383681 0.021950968 -0.1570784 0.14972106 0.21721105
0.25825694 -0.047398325 -0.096420474 0.041906673 -0.096841276 0.011482262 0.12944275 0.05462034
-0.06875914 -0.26862532 -0.091893874 0.20604119 -0.23508357 -0.09210728 0.20155922 -0.0025722056
0.0015229433 -0.3216609 -0.13972098 -0.11976052 -0.02482442 0.48398536 0.1797148 -0.14540447
0.29254386 0.09604596 -0.28484333 0.12454645 -0.116010934 0.22306968 0.2880255 0.074231535
0.09867536 -0.5697538 -0.017023075 0.3766626 0.05697605 -0.08057014 -0.046982218 0.06433104
-0.04992266 0.1625556 0.09969812 -0.09578393 0.012392404 -0.053254146 -0.16787355 0.054553594
-0.061067067 0.25251445 -0.39795107 -0.0046392204 0.21157354 0.08643125 0.036110144 0.31314152
0.077036805 -0.2107439 0.10426427 -0.0025321534 0.39171252 -0.20178965 0.1574317 0.07439891
-0.20625204 0.18725818 0.026290745 -0.21771753 -0.16411208 -0.10253844 -0.3187449 0.2316591
0.12608598 -0.1228906 0.091885634 0.1198882 -0.14444925 0.12222463 0.15943985 0.0036589538
-0.12116605 -0.0029647772 -0.11258208 -0.01670844 -0.48723346 0.114644855 -0.29239324 0.15751225
0.5152863 -0.38655892 -0.48000044 0.1961732 0.2928604 0.37846997 0.46657875 -0.24964607
00000000: 980c 43be 73a6 8f3e 188d 8bbe 5ea5 013d
00000010: 62aa c53d 2d27 a1bd 9f5a 1f3e cf6e af3c
00000020: 27d1 7b3e 7da5 76bd 26d4 263e 18b0 703c
00000030: 0970 9b3c 7132 1bbd a42c 853d 1a42 3c3d
00000040: 5309 fbbd 5cb6 823d 1033 3bbd f549 13be
00000050: 84d2 b33c 29d9 20be 7a50 193e 936c 5e3e
00000060: 413a 843e bf24 42bd 1978 c5bd 55a6 2b3d
00000070: b854 c6bd 1920 3c3c a48c 043e 94b9 5f3d
00000080: 98d1 8cbd 4289 89be db32 bcbd 76fc 523e
00000090: bfb9 70be bea2 bcbd 8a65 4e3e 7392 28bb
000000a0: 7f9d c73a bdb0 a4be 0413 0fbe 0145 f5bd
000000b0: 955c cbbc eecc f73e 2807 383e e9e4 14be
000000c0: 4fc8 953e bfb3 c43d fcd6 91be 3612 ff3d
000000d0: 2497 edbd 616c 643e 1478 933e b406 983d
000000e0: 4f16 ca3d 63db 11bf fa73 8bbc ecd9 c03e
000000f0: b85f 693d f501 a5bd 6d70 40bd febf 833d
00000100: b47b 4cbd fa74 263e 872e cc3d 5d2a c4bd
00000110: 8209 4b3c 0521 5abd 0be7 2bbe 9773 5f3d
00000120: 7621 7abd 9349 813e 3ec0 cbbe 9a04 98bb
00000130: bca6 583e de02 b13d 3be8 133d 1654 a03e
00000140: 79c5 9d3d 40cd 57be 8188 d53d 7cf2 25bb
00000150: 8b8e c83e f2a1 4ebe c735 213e 755e 983d
00000160: bc33 53be 9cc0 3f3e b05f d73c 58f1 5ebe
00000170: ff0c 28be acff d1bd 8832 a3be 0b38 6d3e
00000180: af1c 013e 11ae fbbd 892e bc3d f287 f53d
00000190: 81ea 13be e850 fa3d 3344 233e 0fcb 6f3b
000001a0: e825 f8bd b54c 42bb 6f91 e6bd 23e0 88bc
000001b0: aa76 f9be ecca ea3d 91b4 95be e44a 213e
000001c0: cee9 033f 0deb c5be 9ec2 f5be a1e1 483e
000001d0: ccf1 953e d1c6 c13e 69e3 ee3e 38a3 7fbe

encoder_mean.16.bias f4 [10]
-0.2545549 -0.14746954 -0.11082183 0.23308672 -0.43376273 -0.14402542 -0.17198065 -0.12522142
-0.15044594 0.20590511
00000000: 0555 82be 4102 17be 8ef6 e2bd 49ae 6e3e
00000010: 2616 debe 667b 13be b21b 30be 0b3a 00be
00000020: 800e 1abe cad8 523e

encoder_var.0.weight f4 [20, 30]
-6.5670596e-05 -6.707199e-05 5.375912e-07 -4.282447e-05 8.687396e-06 -4.447311e-05 -2.9405242e-06 -9.286031e-06
-8.120675e-06 -4.216541e-05 -5.2868086e-06 -1.5408759e-06 4.6363775e-06 -1.17062455e-05 -9.6160446e-05 -2.5900426e-05
-2.6297665e-05 -2.6328953e-05 -8.148934e-06 -0.00010477171 -4.2739794e-05 -1.5476258e-05 -6.4251353e-06 -7.064085e-06
-3.085851e-05 -2.3577199e-05 3.0325862e-05 -4.1897154e-05 6.233511e-05 -9.583681e-05 -0.00019918417 -0.00022041034
-1.2732689e-05 -1.7796428e-05 -0.0003391982 -5.4018077e-05 4.498749e-06 5.331219e-05 1.4541381e-07 -0.0002501471
1.5309439e-05 5.11995e-06 7.629781e-05 2.2970184e-05 -0.00012973465 -0.00034579705 7.356705e-05 -9.9815676e-05
-3.3903387e-05 -2.3592702e-05 -1.7759692e-05 5.5846478e-05 -3.8421742e-05 -4.531638e-05 -0.00017105616 -4.9758524e-05
-0.00010710961 -0.00012717619 -0.0001473736 -0.00031141017 -0.0016757371 -0.0019942515 -0.0013732419 0.00015337316
-0.0025270472 -0.00061607175 -0.0004547729 -0.00045382255 -0.00063286483 -0.0010591935 -0.00012802842 -6.64791e-05
-0.00085986854 -0.0021910404 -0.0013945873 -0.0028959413 0.0017150093 -0.0017343028 -0.00020843768 -0.00203015
0.000153168 -0.0015673855 -0.00035847965 -0.0014183635 0.00026699476 -0.0015828935 -0.002887165 -0.00027101734
-0.0042818994 -0.0042436495 -0.00014550686 -0.00016062461 0.00020125511 -2.4459074e-05 -5.8713573e-05 -0.000110604386
-1.4674357e-05 1.2324746e-05 1.2985678e-05 -0.00022620003 -6.8373934e-06 -2.8695226e-06 5.0690505e-06 -4.6889963e-05
0.0002680087 -0.00038301747 7.910774e-06 -0.00015088185 8.5663676e-05 -0.00013901028 -2.4849414e-05 -3.3327867e-06
-2.8588631e-06 -3.0955543e-06 0.00019200868 6.655868e-06 -5.7678324e-05 -7.9739424e-05 -0.00036952237 -0.00013490133
-0.035345018 -0.041304875 -0.049361385 0.0013582761 -0.057023484 0.00068313704 -0.00015320648 -0.00023152436
9.381658e-05 -0.084072106 -0.0032208567 0.0001223992 0.06716879 -0.06764993 -0.14682321 0.09022632
0.00041098724 0.027767062 -0.0001109493 -0.027287157 0.0013581685 0.010024346 -0.046351243 -0.029685117
0.004703527 -0.07076088 -0.0051588453 -0.054352008 0.005398513 -0.017901514 -0.00022507345 -0.00018529463
-0.0010816111 0.00013219788 0.00029291725 6.340636e-05 3.574032e-05 2.7038906e-05 1.2239402e-05 0.00047341242
1.9806103e-05 1.3099913e-05 -0.0003942146 -0.0003852722 0.0008026216 -0.00059355644 0.00014335498 -0.00010479452
3.6421034e-06 0.0006113927 0.00013041322 4.0690616e-06 -1.8061184e-05 -0.00034762017 -0.00048242352 -1.551717e-05
0.001236733 0.00010590535 0.001534377 0.0014150464 0.000119354154 5.8544323e-05 1.0822324e-05 -5.2739764e-05
0.00022399321 -8.845532e-06 2.1038748e-05 -7.9015745e-06 2.1194788e-07 1.065899e-05 -5.0552037e-05 -5.0978963e-07
-9.270153e-05 4.703442e-06 0.00017997764 0.00011431553 -7.917595e-06 6.0163715e-05 -5.1226718e-05 0.00018540511
-6.125512e-05 -1.4069528e-05 1.8154744e-06 -4.4459757e-06 -9.47755e-05 9.135471e-05 -2.8939492e-05 -0.0002944486
-0.00025931522 1.2526832e-05 0.013157586 0.013387443 0.00072704337 -0.00011444145 -0.0075415955 -0.0002883153
-7.246046e-05 -0.00015803493 -8.455735e-05 0.023019211 -0.0017974394 0.00013162593 0.0026321367 0.024604306
0.024409736 0.007712825 -0.0012420878 -0.0016440568 0.00034192117 0.020587778 -0.00012087537 -0.001591973
4.6304005e-05 -0.0003106921 0.0021057548 0.0014267246 0.042816825 -0.024341518 0.054856874 0.01948956
4.5047243e-05 -4.3961118e-05 2.7031517e-06 2.1345357e-05 -9.566556e-05 -2.6076383e-05 1.6486963e-05 -5.0997343e-05
-3.1283076e-07 5.515322e-05 3.5841883e-06 -4.4027155e-07 6.110962e-05 0.00014520406 -3.3337263e-05 -1.5987704e-05
00000000: a2b8 89b8 00a9 8cb8 fc4e 1035 6d9e 33b8
00000010: 15c0 1137 a388 3ab8 d255 45b6 33cb 1bb7
00000020: 093e 08b7 c4da 30b8 5765 b1b6 18d0 ceb5
00000030: 2e92 9b36 f165 44b7 bfa9 c9b8 be44 d9b7
00000040: ce99 dcb7 ffdc dcb7 68b7 08b7 e2b8 dbb8
00000050: 8143 33b8 03d3 81b7 7e97 d7b6 0708 edb6
00000060: 136e 01b8 a6c7 c5b7 4b64 fe37 baba 2fb8
00000070: e8b9 8238 fffb c8b8 18dc 50b9 f31d 67b9
00000080: 7c9e 55b7 8a49 95b7 69d6 b1b9 7891 62b8
00000090: f6f3 9636 879b 5f38 0b23 1c34 2d26 83b9
000000a0: c56c 8037 09cc ab36 1302 a038 18b0 c037
000000b0: 6109 08b9 184c b5b9 0248 9a38 2254 d1b8
000000c0: 7c33 0eb8 f1e8 c5b7 a6fa 94b7 b33c 6a38
000000d0: 0827 21b8 1812 3eb8 8a5d 33b9 cfb3 50b8
000000e0: 09a0 e0b8 995a 05b9 4d88 1ab9 c444 a3b9
000000f0: 68a4 dbba fdb1 02bb 5afe b3ba cbd2 2039
00000100: d19c 25bb e07f 21ba 966e eeb9 08ef edb9
00000110: d7e6 25ba a3d4 8aba 5e3f 06b9 b26a 8bb8
00000120: cd68 61ba 8f97 0fbb 96ca b6ba d5c9 3dbb
00000130: 2aca e03a 8c51 e3ba 1090 5ab9 440c 05bb
00000140: b99b 2039 bb70 cdba 53f2 bbb9 62e8 b9ba
00000150: 6efb 8b39 1879 cfba 9736 3dbb 5517 8eb9
00000160: 2d4f 8cbb 500e 8bbb 3393 18b9 576d 28b9
00000170: 0208 5339 762d cdb7 3843 76b8 47f4 e7b8
00000180: e231 76b7 62c6 4e37 10dd 5937 1c30 6db9
00000190: c36c e5b6 0692 40b6 d016 aa36 b7ab 44b8
000001a0: 8583 8c39 bccf c8b9 84b8 0437 0a36 1eb9
000001b0: 56a6 b338 4ac3 11b9 b673 d0b7 d7a8 5fb6
000001c0: e5da 3fb6 38bd 4fb6 f055 4939 7955 df36
000001d0: a1eb 71b8 c739 a7b8 74bc c1b9 4d74 0db9
000001e0: f0c5 10bd 4d2f 29bd 2a2f 4abd 2f08 b23a
000001f0: 7591 69bd 8d14 333a 0da6 20b9 59c5 72b9
00000200: 65bf c438 ff2d acbd 0215 53bb 4958 0039
00000210: ca8f 893d 0c8c 8abd d358 16be 94c8 b83d
00000220: c679 d739 c077 e33c 74ad e8b8 5189 dfbc
00000230: 9304 b23a 283d 243c cdda 3dbd 342e f3bc
00000240: 0b20 9a3b 15eb 90bd 880b a9bb 36a0 5ebd
00000250: 02e6 b03b 32a6 92bc b201 6cb9 a64b 42b9
00000260: d9c4 8dba 999e 0a39 b092 9939 08f9 8438
00000270: e0e7 1538 9cd1 e237 d557 4d37 5734 f839
00000280: 4825 a637 b3c7 5b37 97ae ceb9 5cfe c9b9
00000290: 0667 523a e698 1bba 8f51 1639 21c5 dbb8
000002a0: dc6a 7436 df45 203a 88bf 0839 f988 8836
000002b0: 1982 97b7 ca40 b6b9 caed fcb9 de2a 82b7
000002c0: e019 a23a 8019 de38 261d c93a 1479 b93a
000002d0: c64d fa38 7d8d 7538 8791 3537 e434 5db8
000002e0: b8df 6a39 4567 14b7 5e7c b037 0191 04b7
000002f0: ca93 6334 03d4 3237 d607 54b8 7ad8 08b5
00000300: c168 c2b8 42d2 9d36 61b8 3c39 afbc ef38
00000310: d0d5 04b7 4c58 7c38 45dc 56b8 4e69 4239
00000320: 1876 80b8 2a0c 6cb7 3aab f335 a42e 95b6
00000330: 36c2 c6b8 b095 bf38 16c3 f2b7 3960 9ab9
00000340: b3f4 87b9 552a 5237 ea92 573c 0157 5b3c
00000350: 0e97 3e3a 4900 f0b8 7d1f f7bb 0629 97b9
00000360: eaf5 97b8 2eb6 25b9 6254 b1b8 c992 bc3c
00000370: 0f98 ebba 1105 0a39 ed7f 2c3b f88e c93c
00000380: edf6 c73c debb fc3b 8dcd a2ba 647d d7ba
00000390: e243 b339 b3a7 a83c 787e fdb8 c0a9 d0ba
000003a0: 8c36 4238 63e4 a2b9 b400 0a3b ef00 bb3a
000003b0: b260 2f3d dd67 c7bc 9ab1 603d 92a8 9f3c
000003c0: 1cf1 3c38 e462 38b8 cb67 3536 ce0e b337
000003d0: 0ea0 c8b8 9bbe dab7 7c4d 8a37 fbe5 55b8
000003e0: 22f3 a7b4 5254 6738 e387 7036 765e ecb4
000003f0: fa27 8038 eb41 1839 9dd3 0bb8 551d 86b7

encoder_var.0.bias f4 [20]
-0.000104762 -0.00031182833 -0.0044709668 -0.000109319335 -0.0141128795 0.0014319165 1.9585888e-05 0.019488554
0.00017889135 -0.07042964 -0.0014872821 7.449779e-07 -2.4745063e-05 -0.012918068 -0.01096062 -0.019464321
-0.01666058 -6.5938784e-06 -1.5916188e-06 -0.0003719979
00000000: acb3 dbb8 e47c a3b9 3081 92bb 5f42 e5b8
00000010: b539 67bc 25af bb3a 604c a437 76a6 9f3c
00000020: c894 3b39 6a3d 90bd e8f0 c2ba 7efa 4735
00000030: 9e93 cfb7 4ea6 53bc 2c94 33bc a473 9fbc
00000040: c57b 88bc fc40 ddb6 9b9f d5b5 b708 c3b9

encoder_var.1.weight f4 [20]
-0.0023155098 0.00012421742 -0.017589085 -0.0010953282 0.024928328 0.02425491 -0.0039978297 -0.061117843
-0.00036458622 -0.15779178 0.0017498485 -0.001411166 -0.0010306974 0.017401567 0.026240282 0.0203544
0.038639907 -0.00036347337 -0.00060196203 0.017388364
00000000: cfbf 17bb 5c40 0239 fc16 90bc 1e91 8fba
00000010: 7e36 cc3c 3cb2 c63c 3a00 83bb b456 7abd
00000020: ef25 bfb9 2b94 21be 2c5b e53a e0f6 b8ba
00000030: 7718 87ba bb8d 8e3c dcf5 d63c 45be a63c
00000040: e144 1e3d 9290 beb9 fdcc 1dba 0b72 8e3c

encoder_var.1.bias f4 [20]
0.0011796149 0.009326862 0.012159728 -0.0009104542 -0.035181083 -0.014454768 -0.006070406 -0.012493462
-0.0002898585 0.07764612 -0.0044728713 0.0010206618 0.001008771 -0.0012756174 -0.008595235 -0.025163004
0.022132806 0.000373521 0.00059364224 -0.026327213
00000000: 4f9d 9a3a b2cf 183c 9939 473c 8cab 6eba
00000010: 0a1a 10bd b1d3 6cbc 42ea c6bb 61b1 4cbc
00000020: 26f8 97b9 ee04 9f3d 2a91 92bb bac7 853a
00000030: bd38 843a 9e32 a7ba 07d3 0cbc a522 cebc
00000040: dc4f b53c 24d5 c339 a89e 1b3a 2bac d7bc

encoder_var.1.running_mean f4 [20]
0.08270074 -0.00094419095 0.078721166 -0.14188978 0.0069842716 0.012716061 -0.0632876 0.010509949
-0.09012592 0.12606408 0.12292872 0.123425536 0.058895852 -0.13100944 -0.12020803 0.012558029
-0.21729633 0.02619849 0.081368774 -0.18031657
00000000: 015f a93d 9583 77ba 9038 a13d 8e4b 11be
00000010: 51dc e43b 0757 503c ee9c 81bd ec31 2c3c
00000020: f093 b8bd f116 013e 0ec2 fb3d 87c6 fc3d
00000030: c73c 713d 5727 06be a12f f6bd 31c0 4d3c
00000040: ee82 5ebe 379e d63c aca4 a63d e8a4 38be

encoder_var.1.running_var f4 [20]
0.0019971335 0.0010732245 0.0020530906 0.00222865 0.0012080879 0.0007877464 0.0030141734 0.0010641263
0.001536155 0.004105629 0.006967365 0.007884612 0.0049041547 0.0026188805 0.0029234816 0.0035086675
0.006424411 0.0010868972 0.0039132484 0.0046528564
00000000: 57e2 023b 70ab 8c3a 258d 063b 8b0e 123b
00000010: b458 9e3a c480 4e3a 7089 453b 277a 8b3a
00000020: cf58 c93a 8388 863b 7e4e e43b 762e 013c
00000030: 08b3 a03b 86a1 2b3b e297 3f3b acf1 653b
00000040: de83 d23b 3876 8e3a b53a 803b fd76 983b

encoder_var.4.weight f4 [16, 20]
-4.8864085e-06 -7.0451724e-06 1.6462255e-06 -3.4024928e-05 0.0001413964 -4.3005308e-05 6.0862018e-05 7.761137e-05
5.4582806e-06 -8.977238e-06 -8.614363e-06 7.549631e-07 6.0433617e-06 9.260882e-06 9.1325106e-05 5.7954014e-05
-0.00015741063 -7.159029e-07 1.4051494e-06 -0.00011849649 1.805622e-06 -9.1928e-06 7.811594e-07 -5.0573042e-05
3.8789972e-07 -7.167066e-05 1.0214334e-05 2.5836964e-06 7.508287e-07 -5.1330953e-05 7.2399183e-07 -1.2703381e-06
2.1785927e-06 -1.908613e-06 -0.000106809035 9.026515e-05 7.7409124e-05 2.402792e-06 -9.070499e-07 -9.336495e-05
2.6513285e-07 7.480713e-09 -7.063744e-07 -2.3783125e-06 -2.3582168e-06 4.720074e-07 -1.3338732e-06 5.535921e-07
-6.2148506e-06 -2.7584863e-06 -1.2520437e-07 -9.183967e-07 8.569158e-07 -6.5916856e-07 3.055285e-06 -3.047727e-07
-4.6848965e-07 2.4890956e-06 -2.4037486e-06 -6.3519224e-08 -7.832765e-06 4.9867944e-05 9.150754e-05 -8.20075e-06
-5.0395047e-05 -2.609363e-07 -1.0877439e-05 0.00042946544 0.00013660491 0.00045714213 0.00065354805 5.6819777e-06
4.8239667e-06 -1.5816642e-06 -0.0015886407 1.1270033e-05 0.0017176355 -1.9577074e-05 1.51147215e-05 -1.0676817e-05
-1.7775042e-07 4.93192e-06 -1.6224005e-06 -4.526402e-06 2.328782e-06 -7.563782e-07 2.1239898e-06 2.3507569e-06
-4.898205e-07 -5.2527156e-07 6.038597e-07 -2.8879158e-06 -1.0557953e-06 4.1250305e-06 -2.9872574e-06 1.4919034e-07
4.437782e-06 2.7623832e-07 4.642561e-06 2.2493696e-06 -1.1010171e-05 -6.845921e-05 -0.00011303222 -0.00013708824
-0.008771977 0.00027996363 -7.264776e-05 8.022944e-05 -6.192103e-07 -0.0032033725 7.1092174e-05 -4.786995e-05
-1.5486015e-05 -0.0014451932 0.00044385635 -0.020041168 0.00083243824 -8.227252e-06 -1.49013795e-05 -0.0001275215
-0.0006326108 -0.00063134247 -0.0059902295 -0.00037549905 -0.015124226 -0.016398644 -0.0008436638 0.028930014
8.7376844e-05 -0.054289747 0.00072105974 -0.0005038317 -0.00043796183 -0.00040474298 -0.0028997473 -4.772067e-05
-0.008900725 -0.00012825451 -0.00023325541 -0.0023570585 1.9307315e-06 -2.2320994e-07 -2.9409048e-06 3.4815985e-05
-0.00010776027 1.1076285e-05 -4.2216975e-06 -3.8498265e-06 -2.0400707e-08 1.4996008e-06 2.2043725e-06 4.4975624e-07
1.0533739e-06 -8.836132e-06 -3.2734082e-05 5.018513e-05 7.8364785e-05 -1.7912069e-07 -1.5410362e-06 1.5293617e-05
-7.68999e-06 9.330493e-07 1.3248302e-06 2.1755236e-06 7.993074e-06 -1.0774972e-06 -7.0568825e-07 -1.7986494e-06
2.6450246e-07 -4.3024567e-08 1.033846e-06 -2.0552895e-06 -3.8314352e-07 -4.139191e-06 1.7767783e-06 8.792942e-06
-2.5754387e-06 -4.955766e-07 -7.6015436e-07 -1.5812392e-06 -3.146196e-06 -6.730547e-05 -3.2786593e-05 -0.00024156942
-0.031302694 0.00082074857 0.0001982851 -0.00029391007 -9.9261915e-06 -0.0013023055 -0.0002469859 -1.7069e-06
2.126741e-06 -0.00013873864 -0.00020360436 2.6639942e-05 0.00032108885 4.228003e-07 -2.5608665e-06 -0.0003726597
0.0006508988 0.00094343716 0.0048413496 0.00021914858 0.056702312 -0.0009741945 -0.00026879582 -0.0022291453
5.8936905e-05 0.046806406 0.0011403799 0.00037185673 0.0003851252 0.003511809 0.0027875085 -4.7841822e-06
0.011825965 0.00014321262 0.00014564654 0.0017523052 -0.0021476476 -0.007570567 -0.018198397 0.011100637
0.0036011909 -0.0067944136 -0.00018183408 0.0582015 -0.0015174734 -0.14911705 0.001733993 -0.0015128673
-0.0010756946 -0.009777901 0.021629626 0.00535315 0.02755533 -0.0006318013 -0.00054552755 -0.0019235197
4.2322513e-06 3.1484422e-05 8.145237e-05 -3.354496e-05 -0.008665532 1.4290433e-05 -1.2322041e-06 -1.7110478e-05
1.737412e-05 1.0967853e-05 -3.64268e-05 2.0758735e-05 3.0063813e-06 -0.0047001154 -0.00024254677 -0.02694882
00000000: eef5 a3b6 9265 ecb6 e1f3 dc35 fdb5 0eb8
00000010: cf43 1439 9960 34b8 1846 7f38 49c3 a238
00000020: 4626 b736 f29c 16b7 6886 10b7 aba8 4a35
00000030: 15c8 ca36 2f5f 1b37 cb85 bf38 a613 7338
00000040: 980e 25b9 792c 40b5 9198 bc35 5281 f8b8
00000050: b358 f235 c63a 1ab7 ddb0 5135 641e 54b8
00000060: 8840 d034 e54d 96b8 3b5e 2b37 9163 2d36
00000070: 8e8c 4935 314c 57b8 5758 4235 7c80 aab5
00000080: f033 1236 b915 00b6 aafe dfb8 bc4c bd38
00000090: b556 a238 a73f 2136 ff7b 73b5 edcc c3b8
000000a0: 9557 8e34 8684 0032 ae9d 3db5 199b 1fb6
000000b0: db41 1eb6 3468 fd34 8907 b3b5 8f9a 1435
000000c0: 2989 d0b6 6f1e 39b6 ea6f 06b4 be87 76b5
000000d0: ce06 6635 b8f1 30b5 6609 4d36 a49f a3b4
000000e0: ba84 fbb4 560a 2736 1650 21b6 1068 88b3
000000f0: 7869 03b7 4c29 5138 bde7 bf38 f495 09b7
00000100: 455f 53b8 d016 8cb4 3f7e 36b7 e029 e139
00000110: 9a3d 0f39 94ac ef39 de52 2b3a d1a7 be36
00000120: 8fdd a136 9149 d4b5 f039 d0ba 6c14 3d37
00000130: 4922 e13a 7239 a4b7 3c95 7d37 9420 33b7
00000140: aadb 3eb4 df7c a536 42c1 d9b5 7fe1 97b6
00000150: 2c48 1c36 ea09 4bb5 de89 0e36 b2c1 1d36
00000160: 357c 03b5 6300 0db5 ec18 2235 04ce 41b6
00000170: dab4 8db5 be69 8a36 b178 48b6 2131 2034
00000180: 42e8 9436 e84d 9434 4cc7 9b36 e0f3 1636
00000190: 53b8 38b7 c291 8fb8 b60b edb8 58bf 0fb9
000001a0: 57b8 0fbc 15c8 9239 785a 98b8 da40 a838
000001b0: cf37 26b5 acef 51bb 5217 9538 f8c7 48b8
000001c0: f7e7 81b7 a36c bdba 64b5 e839 602d a4bc
000001d0: fc37 5a3a c707 0ab7 f000 7ab7 4bb7 05b9
000001e0: cbd5 25ba ad80 25ba b049 c4bb a1de c4b9
000001f0: 9acb 77bc 7356 86bc 5229 5dba a3fe ec3c
00000200: 163e b738 ed5e 5ebd 8005 3d3a 9313 04ba
00000210: 3e9e e5b9 af33 d4b9 b009 3ebb ae27 48b8
00000220: 59d4 11bc 0f7c 06b9 0696 74b9 e178 1abb
00000230: b791 0136 7bab 6fb4 5c5c 45b6 6107 1238
00000240: 5bfd e1b8 48d4 3937 1ba8 8db6 c22d 81b6
00000250: a13d afb2 e445 c935 d5ee 1336 0776 f134
00000260: a761 8d35 e63e 14b7 f44b 09b8 df7d 5238
00000270: c657 a438 5254 40b4 9ad5 ceb5 cb4a 8037
00000280: 4104 01b7 a976 7a35 d2d0 b135 36ff 1136
00000290: fe19 0637 869e 90b5 876e 3db5 1f69 f1b5
000002a0: f100 8e34 03ca 38b3 aec2 8a35 9bed 09b6
000002b0: d8b2 cdb4 61e3 8ab6 a379 ee35 6685 1337
000002c0: b3d5 2cb6 c407 05b5 690d 4cb5 f73a d4b5
000002d0: 3c23 53b6 5926 8db8 5684 09b8 cc4d 7db9
000002e0: 4137 00bd 8127 573a c0ea 4f39 f117 9ab9
000002f0: ab88 26b7 1fb2 aaba e37d 81b9 a318 e5b5
00000300: 22b9 0e36 5f7a 11b9 a17e 55b9 d778 df37
00000310: d157 a839 3bfd e234 5adb 2bb6 8a61 c3b9
00000320: 14a1 2a3a ff50 773a 2fa4 9e3b 40cb 6539
00000330: af40 683d 1661 7fba 2aed 8cb9 da16 12bb
00000340: 0533 7738 13b8 3f3d cd78 953a c4f5 c239
00000350: a1ea c939 6126 663b a2ae 363b d087 a0b6
00000360: b1c1 413c 582b 1639 b2b8 1839 9bad e53a
00000370: 8cbf 0cbb 8512 f8bb ce14 95bc 72df 353c
00000380: f501 6c3b aca3 debb b7aa 3eb9 b264 6e3d
00000390: f5e5 c6ba 24b2 18be 2647 e33a 674b c6ba
000003a0: 52fe 8cba 7d33 20bc 9d30 b13c 7a69 af3b
000003b0: b7bb e13c 789f 25ba bc01 0fba 9c1e fcba
000003c0: c302 8e36 240e 0438 68d1 aa38 a0b2 0cb8
000003d0: e0f9 0dbc f1c0 6f37 3662 a5b5 7988 8fb7
000003e0: a3be 9137 9202 3837 fbc8 18b8 0b23 ae37
000003f0: 3dc1 4936 6d03 9abb 2754 7eb9 c6c3 dcbc

encoder_var.4.bias f4 [16]
-0.0046005943 0.00020968322 -9.553214e-06 -0.021439716 -0.00084706955 0.014680648 0.06542879 -1.8512073e-06
7.727629e-06 0.016592782 0.012442304 0.10609769 -0.012050513 -1.2703055e-05 0.00029506502 -0.00047035926
00000000: 95c0 96bb 69de 5b39 be46 20b7 58a2 afbc
00000010: e00d 5eba 1a87 703c 88ff 853d 0077 f8b5
00000020: eaa5 0137 96ed 873c ceda 4b3c bf49 d93d
00000030: 846f 45bc 351f 55b7 f5b2 9a39 8d9a f6b9

encoder_var.5.weight f4 [16]
0.0022445607 -0.00039716644 -4.76445e-05 0.0034976976 7.893354e-05 0.0107988985 0.020585237 7.372942e-05
1.9940182e-05 -0.011622651 0.046650074 0.113832034 0.0036464958 -0.00013638812 -0.0023442695 -3.053361e-05
00000000: 7b19 133b c73a d0b9 e4d5 47b8 a139 653b
00000010: 1f89 a538 dded 303c 5fa2 a83c 2e9f 9a38
00000020: 3745 a737 ee6c 3ebc 2614 3f3d c520 e93d
00000030: 0cfa 6e3b 6803 0fb9 51a2 19bb 3711 00b8

encoder_var.5.bias f4 [16]
-0.00022127821 0.00088586623 0.0006948386 -0.0024517537 0.0003399189 -0.004336842 0.062096458 -0.00014120802
-1.1796255e-05 0.02144902 0.03696852 0.0779373 -0.0067239003 -0.00047923517 0.009531416 8.041141e-06
00000000: eb06 68b9 7a39 683a d425 363a 9aad 20bb
00000010: 2437 b239 111c 8ebb db58 7e3d 3d11 14b9
00000020: 88e8 45b7 dbb5 af3c 4e6c 173d 979d 9f3d
00000030: 2a54 dcbb db41 fbb9 a829 1c3c 70e8 0637
